results/pretraining_samples_effect_results/Dataset 4/pre_rate=0.7/Experiment3(CY35-05_1-#2)/from_Dataset 4_ft_model.pth (torch, 95756 bytes, 27 tensors)

cnn1.0.weight f4 [16, 1, 3]
00000000: ddd9 c5be 4795 01bf 9acc c73d 9db1 ebbd
00000010: b3fe b93e 1482 ccbe 387f a93e be80 c23e
00000020: 6242 06bf 4535 8d3e f992 d43e 3bd1 9bbc
00000030: f1e1 213e 4399 ffbe acc2 15be 1e1e 6dbe
00000040: 6722 103e 9eb9 883e 7de6 49be 930a 08bf
00000050: a847 c1be 5292 fd3e 30b1 a7bd 9840 97be
00000060: 3cf6 80be 3142 463e d8b5 94be 6ca9 05bf
00000070: 1f2f 7bbc 43e1 dabe ecd2 26be 16db b0be
00000080: 862c 12be eb86 fbbd 0a90 d1be 7409 d73e
00000090: edb1 90be 3595 f5be 64aa 85be 1725 8bbe
000000a0: f772 013f 4048 833d f15d a13e 6b2c 103f
000000b0: 2b86 803e 0efb 183c 9a92 153f 511f 163f
-0.3864278 -0.50618404 0.097558215 -0.115084864 0.36327133 -0.39942992 0.33104873 0.37988847
-0.5244504 0.27579704 0.4151838 -0.019020667 0.15808846 -0.49921617 -0.14625043 -0.2315602
0.14075623 0.26704115 -0.1971683 -0.53141135 -0.37749982 0.49525696 -0.08188093 -0.2954147
-0.25187862 0.19361188 -0.29044986 -0.5221164 -0.015331059 -0.42749986 -0.16291398 -0.3454215
-0.14274797 -0.12281593 -0.40930206 0.419994 -0.28260747 -0.47965398 -0.2610656 -0.27176735
0.5056605 0.06410265 0.31516984 0.56317776 0.25102362 0.0093372 0.5842682 0.58641535

cnn1.0.bias f4 [16]
00000000: 913a da3e c09f ac3e 6b84 05bf 578c 173e
00000010: fbab ed3e 4c72 c8be 2ff6 aebe b47c b83d
00000020: 549b fa3e 3d3d 5c3d 17c7 b7be 82e6 573e
00000030: 71fc 843e 76ee c23e be20 473e f54f d9be
0.42622808 0.3371563 -0.5215518 0.14799629 0.46420273 -0.39149702 -0.34172198 0.0900816
0.4894663 0.05376934 -0.3589408 0.21084026 0.25973848 0.38072556 0.19446084 -0.42443815

cnn2.0.weight f4 [32, 16, 3]
00000000: d67a edba 041a b43d c847 d93d ec05 01be
00000010: ce86 173e 88fb f8bd 54f7 863d 3630 e6bd
00000020: 5626 c73b 5d8b 073e 51a9 aa3d 1326 093d
00000030: a07c 0f3e c629 0bbe 2ae4 c7bd 7a32 443d
00000040: e829 04be cff4 c33d 1554 223d 048b 4b3a
00000050: c745 febd 29be 86bd 0d35 f53d d282 443c
00000060: b410 863d 72b6 073c 2579 be3c 8d2a 023e
00000070: eebe 4e3d ca8a df3c 982a ae3d 29eb ae3d
00000080: 4e9e 35bb 98c8 a93d b5e5 bebb 5a85 b83d
00000090: 39f4 443c 5ff6 b8bd 4c31 fc3d 726a 95bd
000000a0: 6812 85bd 26de 213d b02e 6f3d c4ce 843c
000000b0: c7a6 bcbd 5f54 133e b5a3 ebbc c6d5 2dbd
000000c0: e61b 993c 3bf7 f13d 6268 9b3c 0d5b 3c3d
000000d0: debe d3bb 3ac5 203d e172 cfbd 4280 793d
000000e0: 4fcd b9bd de91 9b3d ee90 9b3d 688f c33d
000000f0: 8a4d e93c 665b dcbd 84e5 a5bd 8434 0c3e
00000100: fe1a 003e cb95 d23d a745 d6bd dd2d 01be
00000110: 8690 9e3c 40f3 663d 18b8 bc3d 1ac2 09bd
00000120: 489a 8bbd 5bbc e03d 28e3 1fbe 31bf 003d
00000130: f2bd 27bd 13db 00be 44ce 083e 1fda 973d
00000140: 62aa 593b 2302 04be aa16 09be 1050 f63d
00000150: e565 b2bd 6fd3 46be 81e8 77bd 61fe cfbd
00000160: c70f d5bc 37b8 4e3d 77ea 893c 15c3 d73c
00000170: 665a f33d e1c7 863d 9149 7e3e 1324 5e3d
00000180: 0fc5 dbbc be92 0a3d c2c2 af3d d8a6 05be
00000190: 705e ea3d 5800 083e 87ef d63d 4d66 02be
000001a0: a370 aebd da31 eb3d 3e85 de3d f25f f2bd
000001b0: 4893 c1bc 797f 15bd 06f7 05be bca1 aa3d
000001c0: 579b 02be 8821 0cbd 9e81 d83d 76d7 e73c
000001d0: eecc d23d 3110 043e 4f61 59bd 2a07 b03d
000001e0: 2051 12bb f813 0b3e ecfb a5bd b0a4 46bc
000001f0: d643 a1bd 83ec 9fbd 2c20 02bc a16e 10bd
00000200: a7b8 a23c 7164 7d3c 1280 83bd 2c2a 013e
00000210: 03a1 2f3d 1693 d6bd 9455 81bc 828e 9b3d
00000220: acda 013e 444a c7bd 6385 e93c c772 c5bd
00000230: ee14 f03d c3a3 5b3e afc9 22bd 249f 263e
00000240: 4545 20bd e402 af3d 5ff6 fb3d 1b5c 28bd
00000250: df38 11be 787d c23d 53da 853d 5661 fbbc
00000260: a41d f9bc 383f 53bd 27ae 103e c78c 983d
00000270: a14c 803c 655f 6d3d f294 7bbd c252 63bd
00000280: c4fc 453d 8b68 d63d a86b cabd 48bb 9ebc
00000290: d24b 6ebd 59d2 40bd 5798 2fbd 878b f83d
000002a0: a493 aebd 7187 79bb 9e64 f93d 8c04 533c
000002b0: 59f7 023e f25b 0fbe 8c8c 883d d1f0 fabd
000002c0: b265 bfbb c076 abbc 9503 653d 56e5 413d
000002d0: ba22 f33d 0651 a5bc da00 59bc 2441 0ebd
000002e0: f17c da3d 21e2 853d 2860 85bd bc93 eabc
000002f0: eeba b33d 40e0 c83d ecaf 803d e9fd 933e
00000300: 0d48 97bd 7e49 0bbe d946 ae3c eaaf 71bd
00000310: 9514 d8bd 8a3d 833d 85b1 f63d b2f3 973d
00000320: a9ee 863d 25d1 b63d b3a6 0dbe d97d 11be
00000330: b189 9fbd 7b5c ecbd 92af 68bd 5f21 dabd
00000340: 8b9a 803d 0024 6ebd 648c 843c 62fc 063e
00000350: b8dc d5bd f7eb dabb 1537 05be db2d e6bb
00000360: 543c f83c fb8a a33d 765e 133d 6ff3 25bd
00000370: c865 363a 6e52 0cbe 4da6 6ebd 5d0d f5bc
00000380: 2825 53bd f4b5 c53d 8bfe 96bd 69cf e63d
00000390: 0aad 5cbd ce34 b53d 79b0 8ebd 5843 d1bd
000003a0: bb72 57bd 9d16 99bc e6cb 92bc 2aab 853d
000003b0: a748 a4bd f99f d03d 6222 f23d 329a 3e3d
000003c0: 73e1 c4bd d489 cd3b c109 0c3d dc6f 88bd
000003d0: b54a e6bd 3b82 c33d 500b bdbd a353 40bc
000003e0: 8df7 a6bb 2173 67bd 2ec8 00be ebe8 28bd
000003f0: 99f8 0cbe 3586 8ebd 71ee 123e e4c3 3c3d
-0.0018118273 0.087940246 0.10609394 -0.12599915 0.14797518 -0.12157351 0.06590143 -0.11239664
0.006077568 0.13236757 0.08333076 0.033483576 0.14012384 -0.13590154 -0.09760316 0.0478997
-0.12906611 0.09568178 0.039630968 0.00077645504 -0.12415653 -0.06579239 0.11973009 0.011994081
0.065461546 0.008283244 0.023251126 0.12711544 0.050475053 0.02728786 0.08504218 0.08540947
-0.0027712765 0.08290213 -0.005825723 0.0900981 0.012021118 -0.090313666 0.1231409 -0.072956935
-0.06497651 0.039518498 0.058394134 0.016211875 -0.09211498 0.14387654 -0.028764585 -0.0424402
0.01869006 0.118147336 0.018970672 0.04598527 -0.006461962 0.03925059 -0.10129333 0.06091333
-0.09072363 0.07596181 0.075960025 0.09548837 0.028479356 -0.1075962 -0.08100417 0.13691908
0.12510297 0.10282477 -0.10462504 -0.12615152 0.019356024 0.056384325 0.092148006 -0.033632375
-0.06816536 0.10973426 -0.15613997 0.031432334 -0.04095263 -0.1258357 0.13359934 0.0741465
0.0033213128 -0.1289144 -0.13387552 0.120269895 -0.08710841 -0.19416593 -0.060524467 -0.10155941
-0.0260085 0.05046865 0.016835434 0.02633814 0.118824765 0.065810926 0.24832751 0.05423362
-0.026827363 0.03383135 0.08582069 -0.13051927 0.11443794 0.13281381 0.10494905 -0.12734337
-0.085175775 0.11484118 0.10865258 -0.11834706 -0.0236298 -0.03649852 -0.13082513 0.0833163
-0.1275457 -0.034211665 0.105715975 0.028300982 0.102929935 0.12896802 -0.053071316 0.085951164
-0.0022326186 0.13581836 -0.08104691 -0.0121242255 -0.07874267 -0.07808783 -0.007942241 -0.035261754
0.01986344 0.015465842 -0.06420912 0.12613744 0.042878162 -0.10477273 -0.015787877 0.075955406
0.12681073 -0.09730962 0.028505987 -0.09641033 0.11722742 0.21449189 -0.03974312 0.16271645
-0.03912856 0.08545473 0.12302851 -0.041103464 -0.14181851 0.094965875 0.06535783 -0.030686062
-0.030409642 -0.051573962 0.14128934 0.07448726 0.01566154 0.057952303 -0.061421342 -0.055498846
0.04833676 0.10469159 -0.09883815 -0.019376412 -0.058177777 -0.047075603 -0.042869892 0.12135988
-0.08524254 -0.0038075114 0.12177394 0.012879502 0.12789668 -0.13999918 0.06667432 -0.12252963
-0.0058409804 -0.020930648 0.05591162 0.047337852 0.11871858 -0.020180237 -0.013244832 -0.03473009
0.10668362 0.06537271 -0.06512481 -0.028634898 0.087758884 0.09808397 0.062835544 0.28904656
-0.073867895 -0.13602254 0.021274017 -0.059005655 -0.10550801 0.06408222 0.12045578 0.07419528
0.065884896 0.0892661 -0.13833122 -0.14208163 -0.077899344 -0.11541077 -0.056808062 -0.10650896
0.06279477 -0.0581398 0.016180225 0.13182214 -0.104424894 -0.006680961 -0.13009293 -0.0070245094
0.030302204 0.07985493 0.035978757 -0.04051536 0.00069579156 -0.1370332 -0.058264066 -0.029913599
-0.051549107 0.096538454 -0.07372769 0.11270029 -0.05387596 0.08847962 -0.06967253 -0.10217923
-0.05259965 -0.01868754 -0.017919492 0.065267876 -0.0802167 0.10186762 0.11822964 0.04653377
-0.096133135 0.006272534 0.03418899 -0.066619605 -0.11244718 0.09546324 -0.09230673 -0.011738691
-0.0050954283 -0.05650628 -0.12576362 -0.041237753 -0.13766707 -0.06959192 0.1434877 0.046085253

cnn2.0.bias f4 [32]
00000000: 071e 0f3d 68bc fb3d 8d9f dbbd 34f2 af3d
00000010: a0d5 623d ebf9 a1bd 8ae1 72bd 56d2 613d
00000020: a05f e03d b684 5a3c c769 b639 ed32 5e3d
00000030: 5a48 3c3e 36ce 25bd bb93 b4bd edca 653d
00000040: 4136 7d3d e615 033c 338a 66bd e401 063e
00000050: 7f8a e23d 27a0 26be 0312 053d 19de 48bd
00000060: 9949 3a3d a426 fc3d 91b9 66bb 9ba8 8cbd
00000070: 62a7 6bbd bebb 153e 85ea 0a3e abb4 97bc
0.034940746 0.12291795 -0.10723791 0.085911185 0.05537951 -0.07908996 -0.059297122 0.055132233
0.10955739 0.013337305 0.00034792555 0.054247785 0.18386975 -0.04047986 -0.0881724 0.05610173
0.06181932 0.008000826 -0.05628414 0.13086659 0.11061572 -0.16272031 0.03248788 -0.049039934
0.045480344 0.123120576 -0.003520582 -0.068680964 -0.057532676 0.14622399 0.13566025 -0.018518766

lstm1_1.weight_ih_l0 f4 [64, 32]
00000000: 0cc5 ae3d 6e80 1b3d cf24 7f3e 4b23 efbd
00000010: 806c c6bc 04b4 83bd c0ed 6f3c 5c0a e5bd
00000020: 7318 603d 9f41 7f3e 89a1 9d3d 7fc2 553d
00000030: d596 b33d c84d 563d c9a7 663e d378 28be
00000040: 6807 4ebd 2bac 61be 080f 06be f86b 3dbc
00000050: 7870 25be 7170 9b3d 6d58 2fbd ccd3 c7bd
00000060: 58d2 48be 64de a93d c565 39be 8485 df3d
00000070: c05a 5fbe b836 d4bd 4a30 75bd a477 9d3d
00000080: bcea 26be 02a9 afbd 4d3c 73bd 4829 813d
00000090: 644e 07be 6073 69be e00e a9bc cc46 573e
000000a0: 7615 bfbc 5a43 e83d 7b88 59be 94d7 e5bd
000000b0: 8fd1 e93d 86d1 a5bd 5889 c93d df95 b8bd
000000c0: 981b e8bd bcfe ccbd de08 63bd 8434 0b3d
000000d0: 8c9d 373e 74aa 37be 79f1 d3bd f00f 12be
000000e0: 7e03 b23d 2df4 6e3e 2a21 5d3e 806e b5bd
000000f0: 5c27 0c3e c221 9cbc fe0c 0a3e 1481 58be
00000100: 5083 e8bd 8b73 2abd b720 3a3d 1acb a3ba
00000110: 61a5 57be 6043 a9bd f0c9 773d ac34 d9bd
00000120: 9b15 86bd 14a5 81be cc97 5fbc 4a88 fb3d
00000130: f2b6 933e 47fa 29be b5c7 9b3c b873 27be
00000140: e815 493d 97e4 f33d 3e35 4fbe 3ab2 6bbe
00000150: ffba e73d dda3 e7bd 0436 943d 64ae e83d
00000160: fbb1 91bd 806d 163e 1477 36bd 105a 553d
00000170: e6b9 77be 32da 5cbe b9c0 023e c0e6 dc3d
00000180: d8d5 323e f812 8fbd a7fc 09be ecfb 12be
00000190: 2ece 8b3a c23b 703e d07a 5cbe 0024 4d3b
000001a0: 2fe8 e53d 1d66 7e3e 3a31 f73c 0bbc 34be
000001b0: 1fc5 743d 6609 49bd 34a0 013e def2 613e
000001c0: f013 693e 2266 563e b6f5 833e d0ba 86bc
000001d0: 0a8a 033e 6c95 c43d e0a8 8d3d 9cfa f3bd
000001e0: ae0a 4a3d 1de7 403e b29e 313e d8a8 12be
000001f0: b85c 7ebd c69d 723c 8e64 b23d e027 8ebd
00000200: 3446 39be 7650 1b3d df1c efbd a292 003e
00000210: 7660 49be 90d5 403d 1e90 05be 4c1d c43d
00000220: 6a2b f53d 2671 0cbe 63fd 383e c734 c63d
00000230: 5d88 373d cac6 d3bd d227 2b3e 43bd edbd
00000240: 404f 7abd dad3 623e b155 59be 08f4 243e
00000250: 67e4 1f3e b455 733e 6721 973d 1845 793d
00000260: 1d7f 7d3c c170 cd3d 9254 27bd 1c61 a3bd
00000270: 1cc2 173e 9a94 02be 1806 ea3d ab66 033e
00000280: a295 2e3b 9eb5 863d 7a10 4dba 5ad3 b73c
00000290: 5a71 463e 0057 503e 880b da3d 5e58 643e
000002a0: 93bd 523e 6df1 583e 3c45 f5bd 6b03 fc3d
000002b0: a757 893e b789 52be 9f92 6e3e 6035 bfbd
000002c0: 2ce4 67be 6d8f c03c 55c5 db3d 3d1e c43c
000002d0: 805a 45be ccc0 543e 5d86 2c3d 6a93 4e3e
000002e0: 13b6 4ebe 33a7 3dbb bda8 2ebb f4e3 a13d
000002f0: a607 2cbe 5406 3ebd 9f25 7dba 3199 a33d
00000300: 83e8 253d cc78 65bd e33e 0e3d 4d25 5f3e
00000310: 8e80 133e 4cd8 5e3e 20f2 bbbd 58fe 28bd
00000320: a6da 5ebd 213d 5e3d d099 f53d d707 1ebd
00000330: 97f3 a8be 92dd 89bd 6e90 633e 27cd 88be
00000340: 1025 1ebd 2db3 66be 48b1 483d 5596 a63d
00000350: ccaf 50be fc83 3cbe 31c7 703e 4a44 4ebe
00000360: fa83 7ebc eaba 6a3e 90c7 363d b637 2f3e
00000370: 18ad b9bd 0c96 ec3b 8cdd 3c3b 1d68 c33d
00000380: ec39 f83c 4c35 03be 4775 39be f282 3b3e
00000390: e9b4 d7bc 70ad 25bd 2ad3 59be cc18 fb3d
000003a0: 3d00 36bc a968 d93d f7f6 473d a821 333e
000003b0: a960 303d 6034 493e 789a e73d 78ef 743d
000003c0: 46d3 04be 7158 363e 908a 67bd 99af 20be
000003d0: ac6e 5d3e c1ee 83bd 59b0 d0bd ec4d a83d
000003e0: 0b82 1cba 0df1 febd 9735 44be 2cfa d3bd
000003f0: d2b1 32be e4c1 83be 503b 053e e70a 193e
0.085336775 0.037964277 0.24916385 -0.116766535 -0.024221659 -0.0643082 0.014644086 -0.111836165
0.054710817 0.24927376 0.07696826 0.05218744 0.08769003 0.05232027 0.22524942 -0.16452341
-0.050300032 -0.22038333 -0.13091671 -0.011561386 -0.16156185 0.07589806 -0.04280894 -0.09757194
-0.1961149 0.08294371 -0.18105228 0.10914138 -0.21811962 -0.10361999 -0.059860505 0.07688835
-0.16300482 -0.085771576 -0.05938368 0.06306702 -0.13213497 -0.22797918 -0.020636976 0.210231
-0.023325663 0.11340971 -0.2124347 -0.11222759 0.11416923 -0.08096604 0.09840649 -0.09012961
-0.11333388 -0.10009524 -0.05542838 0.03398563 0.17931193 -0.17936116 -0.10348792 -0.14263892
0.08692072 0.23335333 0.21594682 -0.08858967 0.1368689 -0.019059066 0.13481519 -0.2114299
-0.11353171 -0.041614097 0.045441356 -0.0012496442 -0.21059181 -0.08264804 0.060495317 -0.106057495
-0.0654709 -0.25321257 -0.013647031 0.122818545 0.28850514 -0.1659938 0.019016126 -0.16352737
0.049093157 0.119088344 -0.20235154 -0.23017207 0.113149635 -0.11310551 0.07236865 0.11361387
-0.07114025 0.14690208 -0.044547155 0.052087843 -0.24192008 -0.2156761 0.1276883 0.107861996
0.17464387 -0.0698604 -0.13475285 -0.14353913 0.0010666305 0.23460296 -0.21531224 0.0031301975
0.11225926 0.2484364 0.03017484 -0.17649858 0.0597583 -0.04908123 0.12658769 0.22065303
0.22761512 0.20937398 0.257734 -0.016446501 0.12845626 0.095988125 0.06916976 -0.11913034
0.04932659 0.18838163 0.17345694 -0.14322221 -0.062100142 0.014808124 0.087105855 -0.06941199
-0.18093187 0.03791853 -0.116754286 0.12555936 -0.19665703 0.04707867 -0.13043258 0.095759004
0.11971171 -0.13715038 0.1806541 0.09678035 0.04480778 -0.103406504 0.16714409 -0.116083644
-0.061110735 0.22151127 -0.21224095 0.16108716 0.15614472 0.23763162 0.07379418 0.06085691
0.015472201 0.10031272 -0.040852137 -0.079775065 0.1482014 -0.12752 0.114269435 0.12832133
0.002663948 0.065776095 -0.00078225846 0.022439647 0.19379178 0.20345688 0.10646731 0.22299334
0.2058013 0.21185847 -0.11976096 0.123053394 0.26824686 -0.20560347 0.23298119 -0.09336352
-0.22645634 0.02350589 0.107309975 0.0239402 -0.19272804 0.20776671 0.042120326 0.20173422
-0.20186643 -0.002893877 -0.0026650869 0.07904807 -0.16799793 -0.046392754 -0.000965679 0.07988203
0.040504944 -0.056023404 0.034727942 0.21791573 0.14404508 0.21762198 -0.09177041 -0.041258186
-0.05440774 0.054257516 0.11992228 -0.038581695 -0.32998344 -0.06731714 0.22223064 -0.2671902
-0.038609564 -0.22529288 0.048997194 0.08134142 -0.20379561 -0.18409723 0.23513485 -0.20143238
-0.015534395 0.22922865 0.04462391 0.17111096 -0.09066218 0.0072200354 0.0028818576 0.095413424
0.030301057 -0.128133 -0.18111144 0.1831167 -0.026331382 -0.040448606 -0.21271959 0.12260589
-0.011108455 0.106156655 0.04881951 0.17493308 0.043060932 0.19648886 0.113087595 0.059798688
-0.1297122 0.17807175 -0.056528628 -0.15691985 0.21624249 -0.06442023 -0.10189886 0.082179874
-0.00059703056 -0.124483205 -0.19161068 -0.10350451 -0.17450646 -0.25733864 0.13010907 0.14945565

lstm1_1.weight_hh_l0 f4 [64, 16]
00000000: 3be6 8b3d 7463 2ebd 321f 01be f6d2 ab3d
00000010: ebd2 6e3e 365f 313e c7dc 513e 8a3c 8dbe
00000020: 1fe5 5c3e 28f2 f73d d105 b9bd 6a32 efbd
00000030: d635 08be 3196 c1bd 6633 f2bd 830e 153e
00000040: 1939 83be 0670 f53d e208 ad3c c135 0abe
00000050: 0e6a e5bd fb67 683e ddf4 233c 77f0 e2bc
00000060: b753 acbd 2c30 5fbe cd8d 93bd 92e6 6c3e
00000070: ec70 80be 07a4 54be 4a52 6f3d c396 133e
00000080: b883 ed3d 94e3 f53d c002 f33d ccd7 b5bd
00000090: caf4 723d 3165 10bd 8e1f 54bd 036f 38be
000000a0: 208d 5f3d 5bd7 16bd c89b 8d3d ae06 26bd
000000b0: c921 8a3d 937e b53d 7096 9a3d 06b0 a93d
000000c0: f742 20bd c583 123e ad0c ea3c 0316 4ebd
000000d0: fb66 2cbe 0878 683e fb4b 353d 9128 aebc
000000e0: ffcb 44be 259c 113e 9391 5abe 1d9d a1bc
000000f0: 4c15 41be 9ccb ddbd de9c c1bd 10cf d33d
00000100: 92a4 2a3e 0a1c 0cbe 73bb 25be 58ef 4dbe
00000110: 333f 83be 25dd e33b d6e1 893e 22c4 0a3e
00000120: 2bdc 383e 3a00 55be 35f0 003d e398 173e
00000130: 71f5 73be 49b1 8fbd 7af7 6f3d 936e 2a3e
00000140: 00ce be3c 4454 23be 6f01 b9bd 3e8c 1a3e
00000150: 73b2 64be 2794 373e 47e0 bd3b c5f3 4dbe
00000160: b04e 3f3e ee96 133e 002a efba bd9c bc3d
00000170: 4c25 163e abfd c9bb e8c5 1abe f97d a1bd
00000180: 816d b23c 91f9 d43d 1c42 e53d 9d12 043e
00000190: c8e5 103e 82bc 64be c98a f73d 91e4 0abd
000001a0: 431a 30be d8c6 8a3d 1c38 79be 2b8a a6bd
000001b0: db3b 04be bae0 033e 486a 053e 1390 003d
000001c0: ef0e 94bd c633 763c 1c6a 343e 8f58 71be
000001d0: bfe1 593e d1d1 84bd 5616 c23c ca82 2cbe
000001e0: 32cd cdbd 1c8b 01be e571 87be 5888 093e
000001f0: 4600 fbbd 61cb c13b 0c7f 7cbd 0051 183d
00000200: 1272 4bbe 06ea e13d eea3 103d 2048 82be
00000210: ca6b 1fbe 03b6 f6bd ced4 583e db1c d03d
00000220: 33a0 1e3e 7ea6 463e 15df 123e 551f 57bd
00000230: f7de 35be d01b 2bbe 6ac6 36be 0067 7cbe
00000240: 629d 60be 8979 2ebe faa7 e43d 1bad 573d
00000250: bfa9 babd 558d 03be d99e 3bbd 415e 83be
00000260: 0f84 93bc e6a4 03be 9cae cebc 9b6b 393b
00000270: 403d 8bbd bdcb 56be a97a 48be 2c7e db3d
00000280: abda 36bc fb3e 543e aefb 013e 5bd9 d3bd
00000290: 262d 0f3e 57b5 d33d 81f2 38be 6659 a53d
000002a0: bfca af3b 73fd 863e 52d6 d1bb c226 ae3b
000002b0: f583 f0bd ffb9 483e 7e1a 9fbd c909 38be
000002c0: 7c62 a9bb 4b27 babc a156 c63d d0c4 9fbd
000002d0: 9c4e c03c f951 cd3d 8783 bfb9 6be1 233c
000002e0: afb4 4cbe 914e 153e 65f1 15be 5ccb 6ebe
000002f0: 3103 eabd 3313 a8bd dd57 e4bd 35b1 e4bd
00000300: 96db b23d 7351 723c 0f6b 1bbe 2c01 d23b
00000310: 9f44 b33c 997b 623e bea9 41be 0c9c 31bd
00000320: 2603 c23d 48f1 a03d 9826 afbd 1ed9 3fbe
00000330: f409 713e 2b1f 50bd 8779 ff3c febf 6f3e
00000340: d811 d73c 1e49 b6bb a99d 6dbe 40e7 f2bd
00000350: 27e9 45be 1155 61be 5e71 03bd 878f 82be
00000360: af6b 1a3e 82d3 993d 2a57 dc3d 2d7e 43be
00000370: da2d 4c3e 1ed2 733e 92f0 023e 6074 03be
00000380: a7b5 2abe 85cf c93d 62cc 5c3e 5658 223e
00000390: 2437 323d efa4 6ebc 075e 18bd 4d62 3d3e
000003a0: 79d8 093b 5e9f 0ebe 02f4 55be 6497 1a3e
000003b0: cd7f 373e d45e 13be 2575 6b3e beb8 a33d
000003c0: ef4e cabd 7f3c 5d3e b90c 253e 81cb 683e
000003d0: aee6 29be 25ae bbbc 628c 8e3d e075 9f3d
000003e0: c769 c83d b4cf 6d3e f05d 5d3e dc12 64be
000003f0: c19f 2ebe 0782 c93d d277 6c3e d879 3cbd
0.06831022 -0.042575315 -0.12609556 0.08389847 0.23322646 0.17321476 0.20494376 -0.2758525
0.21571778 0.121067345 -0.090343125 -0.116795376 -0.13301787 -0.09452475 -0.1182621 0.14556317
-0.256295 0.119842574 0.0211224 -0.13497068 -0.11201869 0.22695915 0.01000711 -0.027702553
-0.08414405 -0.2179572 -0.07204781 0.2313483 -0.25086153 -0.20765696 0.058428086 0.1441298
0.11597389 0.12006298 0.11865759 -0.088790506 0.05931548 -0.035252754 -0.051787905 -0.18011098
0.054577947 -0.036826473 0.069144785 -0.040533714 0.06744725 0.08862033 0.07548225 0.08285527
-0.039126363 0.14308079 0.028570497 -0.05031396 -0.16836159 0.22702038 0.044261914 -0.021259578
-0.19218443 0.1421972 -0.21344595 -0.019728238 -0.1885578 -0.10829851 -0.09453748 0.103422284
0.16664341 -0.13682571 -0.16184787 -0.20110834 -0.25634155 0.0069538527 0.26930112 0.13551381
0.18052737 -0.20800868 0.03147908 0.14804415 -0.23824097 -0.07016236 0.05858562 0.16643743
0.023291588 -0.15950114 -0.090334766 0.1509256 -0.22333698 0.1792761 0.005794558 -0.20112522
0.1868236 0.14413044 -0.001824677 0.09209583 0.14662665 -0.006164273 -0.15114558 -0.078853555
0.021780731 0.103991635 0.1119425 0.12897725 0.14150155 -0.22337535 0.12087018 -0.033909384
-0.17197518 0.06776208 -0.2433781 -0.08131822 -0.12913458 0.12878695 0.13028824 0.0313874
-0.07229411 0.015026992 0.17618603 -0.23568939 0.21277522 -0.06485332 0.023692291 -0.16846767
-0.100489035 -0.12650722 -0.26454082 0.13430917 -0.122559115 0.0059141372 -0.0616446 0.037186623
-0.19867733 0.110309646 0.035312586 -0.25445652 -0.15568462 -0.12046435 0.21174929 0.10161754
0.15490799 0.19399449 0.14342912 -0.052520115 -0.17760836 -0.16709828 -0.17849126 -0.24648666
-0.21935037 -0.1703855 0.111648515 0.05265532 -0.09114408 -0.12846883 -0.045805786 -0.25657848
-0.018007306 -0.12855873 -0.025229745 0.0028292898 -0.06798792 -0.20976157 -0.19578041 0.10717425
-0.011160533 0.2072715 0.12693664 -0.10344192 0.13982067 0.10337322 -0.18061258 0.08073692
0.0053647454 0.2636524 -0.006403723 0.005314679 -0.11743919 0.19602202 -0.07768725 -0.17972483
-0.005169211 -0.022723814 0.09684492 -0.07801211 0.023474984 0.10025401 -0.00036528354 0.010002474
-0.199908 0.14580752 -0.14642866 -0.23319763 -0.1142639 -0.08206787 -0.11149571 -0.11166612
0.08733289 0.014789927 -0.15177558 0.006408831 0.021883307 0.22117461 -0.18912408 -0.04336171
0.09473257 0.07858521 -0.08552283 -0.18735167 0.23538953 -0.050810974 0.031185878 0.23413083
0.026253626 -0.0055629155 -0.23204674 -0.11860514 -0.19327222 -0.22005107 -0.032090537 -0.25500128
0.1508014 0.07511045 0.10758813 -0.19091101 0.19939366 0.23810622 0.12787083 -0.12837362
-0.16670857 0.09854034 0.21562341 0.1585401 0.043509617 -0.01456569 -0.037199046 0.1849453
0.0021033569 -0.13927981 -0.20893863 0.15096813 0.17919846 -0.14391643 0.22993906 0.07994221
-0.09878337 0.21605109 0.16118135 0.2273388 -0.16591904 -0.022910187 0.0696037 0.07786155
0.097858004 0.23223764 0.21617866 -0.2227282 -0.17053129 0.09839254 0.23092583 -0.046014637

lstm1_1.bias_ih_l0 f4 [64]
00000000: 8575 1f3e d6b5 31be 1b7b 4f3e 2fbe 4e3d
00000010: eeaa 033e 3daa cd3d a5e1 763d e323 8a3d
00000020: 725b 34be fe66 7d3c ba52 083e 2d84 5fbe
00000030: 48a9 343e 72dd 9ebd 2423 533d a69c 66bd
00000040: 62c6 e5bd d85b 82bd 5f3f 4dbe dce2 2dbe
00000050: 0175 5a3e 19f3 6abe e6bc 2abe d7e9 3fbc
00000060: 25c5 74be f819 edbb 1ed5 bbbd cc3b 09bd
00000070: be8e babd 2f97 febd a261 26be 0dec 653e
00000080: 3169 2cbc dccf 933d ec7e 6f3e 161d 9e3d
00000090: 2fbf e33c 03aa ea3d a8cd 103e 3079 9f3c
000000a0: a195 653d 64b7 553e dbb8 d43d 02a1 4b3e
000000b0: 9d1d de3d 8809 543e 2754 ce3c b5f0 c93c
000000c0: 85c7 0bbe b806 86be 3738 17be 26bf 74be
000000d0: 22fe 80be 5c2d ae3d e21b a7bd 7404 f8bb
000000e0: ab6c 6dbe fcc2 84bd 63cf 223e fb54 c33c
000000f0: 445c 03be e5cb 233e ca45 c1bd 5136 52bd
0.15572174 -0.17354521 0.20261805 0.050474342 0.12858173 0.10042236 0.060273785 0.06745126
-0.17613009 0.01546645 0.13312808 -0.21827765 0.176427 -0.07757081 0.051547185 -0.056301735
-0.11219479 -0.06365174 -0.20043705 -0.16981071 0.21333696 -0.22944297 -0.16673622 -0.011713467
-0.2390333 -0.0072357617 -0.09171508 -0.033504292 -0.09109257 -0.1243118 -0.16248181 0.22453327
-0.010523126 0.072173804 0.2338826 0.077203915 0.027801124 0.114582084 0.14140952 0.019466966
0.0560509 0.20870739 0.10386821 0.19885638 0.10845492 0.20706761 0.025186611 0.02465091
-0.1365033 -0.26177 -0.14767538 -0.23901042 -0.25193888 0.08504745 -0.08159615 -0.00756889
-0.23185985 -0.06482503 0.15899424 0.023844233 -0.12828165 0.15995748 -0.09437139 -0.05132133

lstm1_1.bias_hh_l0 f4 [64]
00000000: 7536 493e 0053 36be f596 48be f02f 453c
00000010: ecf7 f7bc 4560 ea3d 4192 4e3e 13be b93c
00000020: c585 7bbe e859 1a3d 0c40 993d d17b 413e
00000030: 4af1 18be 5c8d 74be 0d0b 99bb 8cd0 8a3d
00000040: 3ad2 15be ccc8 89bd ccca 8abc b6fd 3fbe
00000050: 1e5b 5b3d 1e90 a33d fe5d 913c 9972 043e
00000060: db79 80be c6fa 7dbe d7f9 4ebe 4b6b 7ebc
00000070: 3e5d cabd b38a bdbd 8a52 b63d 23bd 303e
00000080: 0849 103e b5b9 62be 6928 bfbd ce4a 09be
00000090: b2dc 3b3d 6771 573e fa1b 1cbe b70c 43be
000000a0: 8968 073e 4657 2a3e 4314 a1bc 49da 7e3d
000000b0: e17c d93d d87a 173e 5653 40be b75b bb3c
000000c0: 8927 2abe 960d 2fbe efc4 3abc ccbe 793e
000000d0: da8f d03d f8de b23d 71c7 eebd da3a 5c3e
000000e0: 4afb 953d ce27 1f3e 1493 d53c 375a 0abe
000000f0: 9090 53bd 0512 563e 4d7c fcbd 8151 31be
0.1964968 -0.178051 -0.19588836 0.012035355 -0.030269586 0.11444143 0.20172979 0.022673642
-0.24562748 0.037683398 0.07482919 0.18894888 -0.14935794 -0.2388205 -0.004670507 0.067780584
-0.14630976 -0.06727752 -0.016942404 -0.18749127 0.053553693 0.079864725 0.017745014 0.1293434
-0.25092968 -0.24802694 -0.20212494 -0.01552851 -0.09881066 -0.092549704 0.08902462 0.1725965
0.14090359 -0.22141154 -0.093338795 -0.13407442 0.04586477 0.21039353 -0.15245047 -0.19047819
0.13223471 0.16634855 -0.019662982 0.06221989 0.10619522 0.14792955 -0.1878179 0.022870881
-0.16616644 -0.17095026 -0.011399492 0.2438919 0.101836875 0.08733934 -0.11659134 0.21506825
0.0732332 0.15542528 0.026071109 -0.13510977 -0.051651537 0.20905311 -0.12328396 -0.17316248

lstm1_1.weight_ih_l0_reverse f4 [64, 32]
00000000: 8c0c a6bd 0f45 083e 9936 8c3e de3d 71bc
00000010: c1e6 153e d693 4bbe e049 0e3c 6816 953d
00000020: 0b3d babd 8615 f0ba 44ab 3cbe 731f 02be
00000030: 4124 b1be 3548 9dbd b8bb 523e d65a 0a3e
00000040: f452 c03d 2c41 243d 7579 603e 79eb 0c3d
00000050: 135d 98be 1c23 f33d 21d5 503e 1455 40be
00000060: 1fee 4e3e 048b 933e 0b01 5ebe 7cc7 e1bd
00000070: f0d0 da3d 2295 34be c337 863c 29e4 c93b
00000080: 8b53 533e 1783 f2bd 4a84 c0bc fd00 16be
00000090: 4929 64bd 4c0a 0f3e 801c 99bb d44b d8bd
000000a0: 05bf 3fbe 3af4 073e 0006 673e f652 b93b
000000b0: e803 1ebd 9746 c23d 71ea 2fbd cd0c 7f3e
000000c0: a0aa 263d 84f9 09bd 8025 e63d 8604 523e
000000d0: a4ab c63d 9f6a b9bd 539d 1dbe e2c1 51be
000000e0: 92b4 d9bb 210d 873e 48c5 61bd 3cbd 853d
000000f0: 88e5 4e3d 2f27 8bbe 5924 0d3d bbec 973e
00000100: 3849 333e 97ef 1dbd a6b7 b73e 1285 ccbc
00000110: fbc9 8bbd 92a6 2c3e a6d4 6a3e b862 5abe
00000120: abe7 f73d 29f4 77bc 0161 3ebe c85b f43d
00000130: 27f3 163e cb21 c63e e638 8b3d a59a bc3d
00000140: 3488 023e 5e37 be3e a5d9 843e 8e4c 913e
00000150: 0202 813e 918a 98bd a93d d33d c8ed 67be
00000160: afdb 4b3e 5fa1 54bb 8341 63bd b8d2 8abd
00000170: b895 4e3d 860f 483e 879a 25bd 9f66 643d
00000180: 9ec7 e0bb d32c ff3d ca1b fabc 5fde 7a3e
00000190: b91a fcbc 72a0 27be 18c4 68be 40b4 73bc
000001a0: afd6 2ebe 14a9 1f3e dfb6 3a3e 6a1d 253e
000001b0: a9df 003e 6ef4 953e a0a4 e9bc 14f7 7e3d
000001c0: e87a 223d 601f b93d bf9f 82bd 7a73 233d
000001d0: 3815 6dbd f4bf b2bd 634d 52be d489 91bd
000001e0: 03da 383e 7b3b a43d 51a7 683e beac 7fbe
000001f0: fafa 7abe 6201 98be 6203 1e3e 0307 323e
00000200: 33ad 13bd 3eef 56be 882a e43d df58 863e
00000210: 2618 053e b05b 153d e89a 353d c03d dabd
00000220: 0331 c43d 9ef7 873e 8cbc 6a3c 32bd 693e
00000230: acf8 b7bd c353 103e 1de0 22be 2cf6 843e
00000240: 2cb4 cebd bdff 493d efd8 f83c 3872 d73d
00000250: b31a 503b 9063 a9bc 06ea 40be 90ea 533e
00000260: 06cb 763b e0ea 173e 7b78 bdbd 1cb8 723e
00000270: 42e0 27be 947c d73c 6366 5ebe 077e 4dbe
00000280: fe63 503d ba6a 8a3d c393 7b3e 8160 f5bd
00000290: d62f 433e 1222 49be 0856 f43d fe5e 4c3e
000002a0: fd96 3b3e 1328 ea3d b49a 403e 43e1 293e
000002b0: 09d5 a3bd d64c 95bd 28a1 8f3d c44a 763e
000002c0: 5c04 193e 0e03 b23d 905d 983d 29cb b2bd
000002d0: c84c 9a3d ad96 61be 05a1 bc3d e0fb 8abc
000002e0: 111f 1e3e 4fa1 2b3e 30b7 493e 4673 03be
000002f0: 0e62 453e 6442 3e3e 2463 27be adeb a83c
00000300: d6a9 7abe 04ea 653e 1677 12be 21ba 2fbe
00000310: f4a7 47be 2844 64be c8c3 b5bd 703d e93c
00000320: fbfb 49be 16fe 303e d229 cebd ee36 52be
00000330: cd4f 01be 99ae 183e 97d8 46be 0288 9f3d
00000340: c453 753e 94c8 113d e36a ce3c aa38 41bd
00000350: 2825 8e3c 3a62 573d f33f 4a3e 56e3 583e
00000360: d485 2cbe b8ff b83d 5440 243e 4852 e5bd
00000370: c4b3 24be dcf5 41be 3bd5 373e 8c8a 12bd
00000380: 2c13 9ebc ffa2 d73d 71e8 e93c 5b14 053e
00000390: bc99 473e 48a0 6d3d 0021 c3ba ec55 693e
000003a0: 41cc 1fbe 0cd7 92bc c272 94be 35bf 1abe
000003b0: c712 6e3d 734f c23d b1c0 583d 8ed4 cb3d
000003c0: 2c98 293e 1748 60bd 19ea 4a3e c1b3 92bd
000003d0: a0e9 143e 8343 aebc 5b3b d2bd b61c 5a3e
000003e0: 919d 71be 621c 303e f324 bd3d c60b 463e
000003f0: 4060 4d3c 6622 94bd 5926 c7bb 4b45 a53e
-0.08107862 0.13307594 0.27385405 -0.014724223 0.14638807 -0.19880614 0.008684605 0.07279664
-0.09093674 -0.0018316961 -0.18424708 -0.1270731 -0.34597972 -0.07679788 0.20579422 0.13511214
0.09390822 0.040101215 0.21921332 0.03440425 -0.2975851 0.11871931 0.20393802 -0.18782455
0.20208023 0.28816998 -0.21680085 -0.11024377 0.10684383 -0.17635015 0.016384011 0.006161232
0.20637338 -0.1184141 -0.02350058 -0.14648814 -0.055703435 0.13968772 -0.004672587 -0.10561338
-0.18725212 0.13276759 0.22560883 0.0056556417 -0.038577944 0.0948612 -0.04294819 0.24907227
0.040690064 -0.033685222 0.11237621 0.20509538 0.097007066 -0.090535395 -0.15392046 -0.20484117
-0.00664384 0.26377204 -0.055119783 0.06530234 0.050511867 -0.27178332 0.034458492 0.296728
0.175084 -0.03855857 0.358823 -0.024965797 -0.06825634 0.16860417 0.22932681 -0.2132672
0.12104734 -0.015133896 -0.18591692 0.119315684 0.14741193 0.38697657 0.06797962 0.092091836
0.1274727 0.37151617 0.259473 0.2837872 0.25196844 -0.074483044 0.10314495 -0.226493
0.19908021 -0.0032444817 -0.0554824 -0.06778473 0.05043575 0.19537172 -0.040430572 0.05576193
-0.0068597337 0.124597214 -0.030530829 0.2449889 -0.030774461 -0.16369799 -0.22731054 -0.014874518
-0.17074083 0.15591842 0.18233822 0.16124502 0.1258532 0.29288048 -0.028520882 0.06224735
0.039667994 0.090391874 -0.063781254 0.03990505 -0.057881564 -0.087280184 -0.20537333 -0.07106367
0.18051915 0.080191575 0.22720076 -0.2496824 -0.24509802 -0.29688555 0.15430978 0.17385487
-0.036053848 -0.20989701 0.11140925 0.26239678 0.12997493 0.036464393 0.044337183 -0.10656309
0.09579661 0.26556104 0.01432718 0.22826079 -0.08982977 0.14094453 -0.15905805 0.25969064
-0.10092959 0.049316157 0.03037688 0.105198324 0.0031754195 -0.020677358 -0.18839273 0.20694947
0.0037657632 0.14835691 -0.092514955 0.23703045 -0.16394141 0.02630452 -0.21718745 -0.20067607
0.05087661 0.06758638 0.24568085 -0.11981297 0.19061217 -0.19641903 0.11930472 0.19958112
0.18319316 0.11433425 0.18809015 0.16589837 -0.079996176 -0.07290046 0.0701316 0.24051958
0.14943069 0.08691989 0.07439721 -0.08730156 0.07534176 -0.22030134 0.092103995 -0.016965806
0.15441538 0.16760753 0.19698787 -0.12836942 0.19275686 0.18580014 -0.16346413 0.020620191
-0.2447885 0.22452551 -0.1430324 -0.17160846 -0.19497663 -0.22291625 -0.08875233 0.028471678
-0.19725029 0.17284426 -0.1006657 -0.20528767 -0.12628098 0.14910354 -0.1941856 0.07789613
0.23957735 0.035591677 0.025197452 -0.04717318 0.017351702 0.05258391 0.19750957 0.21180472
-0.16847926 0.090331495 0.16040164 -0.111973345 -0.160842 -0.18941444 0.17952435 -0.03577666
-0.019296251 0.10529136 0.02855322 0.12996046 0.19492239 0.058014184 -0.0014887154 0.22786683
-0.1560526 -0.017924808 -0.28993803 -0.15112002 0.058123376 0.0948781 0.05291814 0.09952651
0.16561955 -0.05475625 0.19815864 -0.071631916 0.14542246 -0.021272426 -0.102652274 0.21300015
-0.23595263 0.17198327 0.09235563 0.19340429 0.012535155 -0.072331235 -0.0060775694 0.3227943

lstm1_1.weight_hh_l0_reverse f4 [64, 16]
00000000: 9e0f ec3a 7baf 3f3e 837f 92be 9f87 ad3d
00000010: ef16 7cbe 607c e33c e109 cbbd 12e7 85bd
00000020: 8af5 36be f641 6e3d 5b42 4abe 1f69 39bd
00000030: 2e8e ebbd 4475 5ebe d5d6 35be beb6 6e3d
00000040: d9d1 253e 0b54 6abc e48b bfbe 3b28 93bd
00000050: 5a1b 003e 1b6e 793e e3e1 3bbe d4a0 f7bd
00000060: ac5c 67be 6931 1c3d dfcf 87bd dc8d 56be
00000070: d316 eabd c594 533e 7d22 553e a13a 02bd
00000080: 66e2 3cbe e44f 343e 2a67 cb3d 13e3 03be
00000090: ff89 2d3d ad71 fc3c bcea 4fbd 52be 053e
000000a0: bb86 e13b eed3 babc 861d c03c f390 073e
000000b0: 1a1c c6be ac3e 5ebe 95fb 673e c159 d43d
000000c0: 2d02 b23d 7c6d cc3d dadf 4bbd 3393 733e
000000d0: f046 9a3e b4d7 d53d 9e29 1c3e cf9d 343e
000000e0: 2dac cbbd a403 4b3e ab58 4bbe 025f b8bd
000000f0: 92cd 7cbd 644a 4cbd 2352 073e f0cf 623e
00000100: a9d4 103e 10a9 61bb adcb ea3d fd33 e7bd
00000110: 3a48 abbc 4bc6 6dbd a861 8cbd ad80 3f3e
00000120: 754a 4b3d cd11 bdbd 80e1 c53d f09b e5bd
00000130: 2525 813e 0726 353e 22e5 6b3e eb38 f43c
00000140: 28ad 4bbe b8b7 c7bd 2681 2dbd 3b29 433d
00000150: 1202 45be 14e5 0cbe e4c3 1c3c 136b 313d
00000160: 7604 aabd 257f 153c c78e 053e 6035 90bc
00000170: 87e4 bc3d 45ce efbd 2e8e 7ebc ee4a fd3c
00000180: 3f18 0f3e c87f 4f3e 5d3e 7ebe bb2b fb3c
00000190: 5d86 1abc c513 4b3e f5e0 053e febd cc3d
000001a0: 15db 83bd 5ead 69bd 8fc0 69be 211a af3d
000001b0: 7a29 1fbe 0fef 32be c4bf 67be b6da 08be
000001c0: 21ea 83be bd8b 40be 31d6 a5bd a69f f13d
000001d0: 380c 6abe f994 14be d98b da3d d77e cfbc
000001e0: 159a 0cbe e3af 753e 2bdf 4dbe e1f5 613e
000001f0: b1e1 17be ad76 243d 63a5 33be 7a47 383e
00000200: 39dc 18be 6e98 bcbc 9566 2bbe a71a c0bd
00000210: 0931 29bd 3d7b 473e 5e6a 2d3e bd99 de3d
00000220: b82c 953d e299 f8bd c30c b23c 5502 273c
00000230: 4ab6 8ebd 342f 16be 6658 84be 50f3 44be
00000240: bc76 493e 7a8a 823e cdb4 673d fc12 9e3e
00000250: e641 983d 4d95 d83d ada7 49be 27c6 d93c
00000260: 55cd 84bd 19b3 32be 6910 c63e c004 bf3d
00000270: 0478 e23d 0ec4 5e3e 3395 d63d c603 d33b
00000280: 03bc db3d f664 543e 2747 aabd 796f 22bc
00000290: ba07 60bd 725f 4fbe ed29 25be b0d6 663c
000002a0: 523e 8a3a cbd5 d43d ac57 593c 726c 9f3e
000002b0: 3046 0ebd 6b46 943d 0051 52bd 6231 103e
000002c0: 2b8e cabd a8fc 0abd df15 b5ba f936 87bd
000002d0: e837 183e 43fa a03d ee6b 633e ab1d 783e
000002e0: 4f26 68be 9e11 1ebd 8523 473e 39d9 f13d
000002f0: 0846 3fbe 0100 73bd 8951 523e b179 67be
00000300: aaf0 c83d d10c 4dbe 6c2a 86be 504d b53d
00000310: 28a6 71be 2acc 463d 594b 5d3e c3d0 2bbe
00000320: 49e4 7f3e 12c8 9d3d 2735 c03d e8a2 343e
00000330: 15d9 3b3d 0b07 06be 72cb d9bd 3d57 d93c
00000340: cc92 5ebd 77d3 74bc 00e9 a13d cf73 273e
00000350: 7371 a63c 2017 4f3d fd36 9abd 2353 333e
00000360: a604 403d 502a 6e3e 04e5 26be 54b4 13be
00000370: 083f 7cbd 8835 983d b320 dfbd 662b 723e
00000380: 3d69 50bd 6ab8 d1bc 3861 223e c557 14be
00000390: cad4 163e 873a a9bd 953a e83d dc7d e63d
000003a0: f429 d13d 4788 b83d 1a0b 68be 1803 c2bb
000003b0: f3bc 94bb 1d3f 2bbe 7188 823e 5da8 79bd
000003c0: 7a70 9e3c d88c 4ebd 4336 6d3b dbbc 35be
000003d0: e18c efbd 552f e33d d5bd 1f3e 8cee 283d
000003e0: 8bea 04be 3ff7 f6bd d02b 19be 8468 e3bd
000003f0: eb57 463c 994e 47be 7955 b1bd 7bf9 f93c
0.0018010025 0.18719284 -0.2861291 0.08473133 -0.24618123 0.027769268 -0.099139936 -0.06538214
-0.17867103 0.058168374 -0.19751875 -0.045266267 -0.11501728 -0.21724421 -0.17757733 0.058279745
0.16193332 -0.014302264 -0.37411416 -0.07185408 0.12510434 0.24358408 -0.18347888 -0.120912224
-0.22593945 0.03813306 -0.06631445 -0.20952553 -0.114301346 0.2066222 0.20813937 -0.031794194
-0.18445739 0.17608601 0.09931786 -0.1287959 0.04236793 0.030815924 -0.05076097 0.13060883
0.006882516 -0.022806134 0.023451578 0.13238887 -0.38693315 -0.21703595 0.22654565 0.10368682
0.08691821 0.0998182 -0.04977403 0.23786621 0.30132246 0.10441533 0.1525025 0.17638324
-0.09944949 0.19825608 -0.19858043 -0.09002496 -0.061719485 -0.049875632 0.13214926 0.22149634
0.14143623 -0.0034433044 0.11464629 -0.11289213 -0.020908464 -0.058050435 -0.06854564 0.1870143
0.049631555 -0.09231911 0.09662151 -0.11211383 0.25223652 0.17690288 0.23036626 0.029812297
-0.19890273 -0.097518384 -0.042359494 0.047646742 -0.19239071 -0.13759261 0.009568188 0.043315005
-0.08301632 0.009124552 0.13042746 -0.017603576 0.09223276 -0.11709265 -0.015536828 0.030919518
0.13974093 0.20263588 -0.24828477 0.0306605 -0.009431449 0.1983176 0.13074096 0.09997176
-0.06438271 -0.0570501 -0.22827362 0.085499056 -0.15543166 -0.17474006 -0.22631747 -0.13364682
-0.25764564 -0.18803306 -0.080974944 0.11798029 -0.22856224 -0.14509954 0.10671205 -0.025329037
-0.13730653 0.23992877 -0.20104663 0.22066452 -0.14832188 0.04015224 -0.17543559 0.17996016
-0.14927758 -0.023021903 -0.1673835 -0.093800835 -0.04130653 0.19480605 0.16935107 0.10869167
0.0728392 -0.12138726 0.0217346 0.010193427 -0.06968363 -0.14666444 -0.25848693 -0.19233441
0.196742 0.25496274 0.05656891 0.3087386 0.07434444 0.10575352 -0.1969287 0.026583744
-0.064844765 -0.17451133 0.38684395 0.09327078 0.110580474 0.21754476 0.10477676 0.006439659
0.1072922 0.20741639 -0.083143525 -0.009914272 -0.05469487 -0.20251253 -0.16129275 0.014089271
0.0010547137 0.1039234 0.0132655315 0.31137425 -0.034734905 0.07239994 -0.05134678 0.14081338
-0.09890398 -0.033932358 -0.0013815722 -0.06602282 0.14865077 0.07860234 0.2220914 0.24230067
-0.22670864 -0.03859102 0.19447143 0.1180901 -0.18679059 -0.059326176 0.20538916 -0.22605015
0.09811528 -0.2002442 -0.2620424 0.08852637 -0.2359854 0.04853455 0.21610774 -0.16778855
0.24989428 0.07704176 0.09385138 0.17640269 0.045861322 -0.13088624 -0.10634507 0.026530856
-0.054339215 -0.014942995 0.07905769 0.16352771 0.020317769 0.050559163 -0.075300194 0.17512183
0.046879433 0.23258328 -0.162983 -0.14424258 -0.06158355 0.07432085 -0.10894909 0.23649368
-0.050881613 -0.02560063 0.15857399 -0.14486606 0.1472961 -0.08263116 0.11339299 0.112544745
0.1021308 0.09010368 -0.22660485 -0.005920779 -0.004539126 -0.16723295 0.25494722 -0.06095158
0.019340742 -0.050427288 0.0036195673 -0.17747824 -0.116967924 0.11093012 0.15599759 0.04124312
-0.12980096 -0.12058877 -0.1495812 -0.11103919 0.012105922 -0.19463576 -0.08658881 0.03051447

lstm1_1.bias_ih_l0_reverse f4 [64]
00000000: f750 57bd f7fc 11be c979 1e3e 6273 eabd
00000010: 25cb 2b3d 077b 473e ef29 8bbd 516a 3cbe
00000020: ee4d 6fbe 80a4 b1bd e671 a53c 6ae5 5dbe
00000030: 91c7 3a3c 7725 f83d 2b22 a0bd 4ba6 0abe
00000040: d1f3 4d3d 827e d33c 02ae 8abc a9c6 1dbe
00000050: 8b3e e13d dc1b 433e 195a 0f3e 11d5 f4bc
00000060: 0c5c 9cbd cece 023e ae97 7b3d e1ef 2b3e
00000070: 1fb3 973e 3c67 83be 6a9e 59bc 558a 83be
00000080: 194c 0cbe 6872 40be 24b1 123e 7b29 cdbd
00000090: 063d 0a3d f272 ecbd 56d3 0b3e 2ba6 a93c
000000a0: 829a d33d b62c f93d 6fe8 a13c 861b 4ebe
000000b0: 545a a0bc e355 aabd 9be9 a3bd f791 64be
000000c0: 9ad5 0ebd 4498 dfbd 6916 203e 25be 3d3e
000000d0: b939 6ebe e7c6 813e 70f3 60be 0c01 8abd
000000e0: ce33 983b 9c67 003e e491 f5bd f809 88bd
000000f0: cd1c 8fbd 2cd6 0a3d e819 8b3e d198 3cbe
-0.05256745 -0.14256655 0.15476145 -0.11447789 0.04194178 0.19480525 -0.067951076 -0.18399931
-0.23369572 -0.08673954 0.020195913 -0.21669546 0.011400119 0.12116521 -0.07819017 -0.13539998
0.05028135 0.02581716 -0.016928677 -0.15407814 0.10998257 0.19053596 0.13999213 -0.029886754
-0.07634744 0.12774202 0.06142395 0.16790725 0.29628846 -0.256647 -0.013282398 -0.25691476
-0.13700904 -0.18793643 0.14325386 -0.100176774 0.033749603 -0.115453616 0.13654837 0.020709118
0.103322044 0.12166731 0.019764153 -0.20127687 -0.019574322 -0.08317163 -0.08003541 -0.22321306
-0.034871675 -0.10917714 0.15633549 0.18529566 -0.23264207 0.25347063 -0.21967864 -0.06738481
0.0046448475 0.12539524 -0.11990717 -0.066425264 -0.06987915 0.033895656 0.27168202 -0.1841767

lstm1_1.bias_hh_l0_reverse f4 [64]
00000000: 592c 563e fdbe 5bbe 216c 9e3d c68c 763e
00000010: ec8c 043e c4cf 813e 6f2d 62be 3dfd 923e
00000020: 98da 7d3d 3ecf 86be c82c f4bd d0f9 633e
00000030: ad1f 293d 57d2 cfbd 670e 393e d7e9 77be
00000040: f4c4 3d3e 8c02 483e eacd a03d ad4d 0cbe
00000050: 1fe2 d5bb 3a70 fb3b 7100 3a3e c13a 18be
00000060: 14ba 293e b895 ccbd 328c 753e fa66 eabd
00000070: 3331 5b3e 7a76 363e 512d 01bd 71d4 08bd
00000080: c298 bd3d e11c 6d3d ee01 863d c47c 033e
00000090: be5f bf3d da24 733d 2811 39be 1761 64bd
000000a0: 2c46 433e 4317 f43c 9aa9 f93d 46fa 403e
000000b0: 3786 13be 78cf fc3d 9b8e 603e 108a a9bc
000000c0: 8fcf dd3d 36c0 483e 21cb 983e a9e7 6abe
000000d0: 81f7 a33d 2733 a8bd 4376 6d3e 2ddc b9bd
000000e0: fbc5 0cbe fa34 61be 3582 47be 5ac4 113e
000000f0: cd30 1f3e ae3d 65be 7d1a 5b3e 2554 043e
0.20915355 -0.21459575 0.07735468 0.24077138 0.12944382 0.25353825 -0.22087644 0.2870883
0.061976045 -0.26329988 -0.11922604 0.22263265 0.041289974 -0.10147541 0.180719 -0.24210297
0.18532163 0.19532222 0.07851775 -0.13701506 -0.0065272 0.0076732906 0.18164231 -0.14866163
0.1657489 -0.09989494 0.23979262 -0.114454225 0.21405487 0.17818633 -0.031537358 -0.033405725
0.09257652 0.05788887 0.06543337 0.12840563 0.09344433 0.059361316 -0.18072951 -0.055756655
0.19069737 0.029796248 0.12190552 0.18845472 -0.14406668 0.12344259 0.219294 -0.020695716
0.10830604 0.19604573 0.29842475 -0.22939934 0.08006192 -0.082128815 0.23189645 -0.09075198
-0.13747399 -0.21992865 -0.19483264 0.14235058 0.1554596 -0.2238681 0.21396823 0.12922724

lstm1_2.0.weight f4 [32, 32]
00000000: 97a8 773c 6434 893d db4f 0abc 6c03 303d
00000010: 72cc c83d 0cc5 1d3d 74a1 c23d 92fe 0b3e
00000020: 2fd2 16be 8bdb f2bd eb8a 9f3d c627 7fbd
00000030: eada 283b 79cf 243e 12f8 093e 2deb 6d3d
00000040: 1c31 cb3d 5d42 cf3d 8542 093e dbc4 1bbe
00000050: e108 353e ea19 af3d c976 b2bc 477e 9fbd
00000060: 5afe 083e 6112 97bd d58d f1bd e613 ce3d
00000070: 8f5a 093e c769 38bc de4b 2c3c 85ec f63d
00000080: 1d1f 10bd af48 433e 2514 7a3d 35b1 bd3d
00000090: a318 ca3c 874d c73d 387b f7bc 2093 09bd
000000a0: 1736 15be 326f b43c 8f11 a43d 70a3 143e
000000b0: a16a 0a3e 80ae 06be 1e09 e33b ea16 aebc
000000c0: 0314 01be 0b93 313e 1cae 0cbe ba7b 283d
000000d0: 51ae 463e 74d3 e6bc 03c3 df3d 9020 a33d
000000e0: daf0 0dbe b464 133e 0a3c ad3d 0a88 1d3d
000000f0: cb3f c83b 7e0b 26bd ead5 4bbc 98fd 1b3e
00000100: f75d 233e 99f3 2e3e 363a 54bd f922 0fbe
00000110: b27c 85bd e96e 2bbc a516 d23d 0fa2 91bd
00000120: d817 45bd afc1 2fbe 9727 96bd 85df dabd
00000130: b2f5 183e 59fe 1a3e 9cf1 32be 808a e2bd
00000140: 6b4f f33d ae6b 80bb 3c18 7f3d b154 d9bd
00000150: f7e9 03bd 5291 013d 99f7 c13d c7c3 0abe
00000160: e84c 863d f36c 45bc e834 f9bd 8d73 273c
00000170: 8015 a5bc 6f70 a13d 7566 da3d 723a d4bd
00000180: 53ef d8bc abb8 4e3c 6bc6 d9bc 7464 39bd
00000190: 644a f43d 93e3 10be 88d1 263e 756b 9abd
000001a0: bac5 863c 6a2b 193e fe99 31bc a50d cabd
000001b0: 34e8 cb3d 9635 1e3e 9d3c b7bd 2970 153e
000001c0: f6f4 05be b0af d83d ac8f 3ebd 17c4 25be
000001d0: 4c72 a8bd 2b3b dcbc 9c8d 2abd d562 1d3d
000001e0: 2f55 0fbb fc53 f1bd adc3 cd3d 24a6 0a3e
000001f0: af10 70bd dc10 70bc edcb 99bd 2bf1 00be
00000200: 7b3e 8b3d b780 a33d eb70 01be 683a 17bd
00000210: b7b6 0cbe 067f 25bd 88ad c7bd 5fe0 293d
00000220: 046f 82bc c538 1a3e 5227 2d3e f43e 38bb
00000230: f189 073e a3fe f9bd 67d0 b5bc 7524 ab3d
00000240: 62d0 07bc a288 9e3d 2bc4 013e d371 ea3d
00000250: 0f1a e63d bc29 a0bc 2780 22be 22a3 1bbe
00000260: dfa6 193e c540 bcbd 03ea 403c eb65 b8bd
00000270: 6505 89bd 2922 6f3d d75e 243e 48c3 103d
00000280: 76ce f6bc fb83 00be 4d01 2cbe 5d9b cfbd
00000290: 83e9 1fbd b5f5 fbbd 36f8 f4bb 610e e7bd
000002a0: 748c b63d 5254 1ebe 07f9 c8bd e141 d53d
000002b0: bdb9 c9bd dde1 853c ab1d 9d3d fc5b 08be
000002c0: 8deb d2bd 36a7 92bd 3756 d7bd 49a9 1d3b
000002d0: 697a 2fbd 1119 22bd 5dd9 e9bd 284e 143e
000002e0: c8d2 573d 1610 303e 93dc 89bd 92b2 ecbc
000002f0: 5ce2 173e 447d 123e 290f fc3c b0a1 94bd
00000300: 63ef 003e ba27 013e 12ae b73c e99f 0dbe
00000310: 3a5e c33d 4272 eb3d e971 243e 989a 1dbe
00000320: 4fa5 d23d 5213 13be e0e3 d5bc e5d0 1bbe
00000330: b146 97bc 7d64 d8bd c0e3 213e e33f 56bc
00000340: ee2e 64bd 7207 9c3d 47bb 1f3b dc7a 2fbe
00000350: c944 c63d 705c 923d 8ba5 93bd 4561 e6bd
00000360: d27c 10bd a343 29be 5155 743d ae14 103e
00000370: af81 16be 2aa1 1a3d 6348 ea3d e4ef c5bc
00000380: d024 093d 36d2 b8bd c8c1 efbb 9703 8d3d
00000390: 7b27 05be 8dd0 00be aa21 893c da04 ff3d
000003a0: 3706 dfbd d226 27be f927 3c3e 11fc 9e3c
000003b0: a4a0 3d3d 92e9 063e 38d9 93bd d1b2 0b3d
000003c0: 9952 443e 1597 67bc b883 0c3d 5899 153e
000003d0: ac89 20be ce0f af3d a381 a3bc 2e65 223e
000003e0: 32b9 21be bb42 fcbc 63d3 2a3e f946 2abe
000003f0: 2676 d5bd 9987 b0bd 5bf7 23be aca8 5cbd
0.015115879 0.06699446 -0.008441891 0.042972013 0.0980462 0.038517997 0.09503451 0.1367133
-0.14728616 -0.11858281 0.077901684 -0.06229379 0.0025765249 0.1609477 0.13473538 0.05808561
0.09921476 0.1012008 0.13404281 -0.15211813 0.17679168 0.085498646 -0.021785157 -0.07787757
0.13378277 -0.073765524 -0.117946304 0.10062389 0.13413452 -0.011255688 0.010516135 0.12056831
-0.035185922 0.19070695 0.061054368 0.09262315 0.02466995 0.09731584 -0.030210122 -0.033587575
-0.14571415 0.022025678 0.080111615 0.14515471 0.13517238 -0.13152504 0.006928577 -0.02125116
-0.1260529 0.17341249 -0.13738292 0.04113362 0.19402434 -0.028177 0.109258674 0.07965195
-0.13861409 0.14393884 0.08458717 0.038459815 0.0061111203 -0.040538304 -0.012441138 0.15233457
0.15953813 0.17085113 -0.051813327 -0.13978185 -0.06517924 -0.010463455 0.10258225 -0.07110988
-0.048118442 -0.17163728 -0.0733177 -0.10687164 0.14937475 0.15136088 -0.17474979 -0.11061573
0.11880382 -0.0039190864 0.06227897 -0.10611857 -0.03220555 0.03163273 0.09471054 -0.13551246
0.065576375 -0.012049901 -0.12168294 0.010220421 -0.020151854 0.07882773 0.106640734 -0.1036271
-0.026481306 0.01261727 -0.02658387 -0.045261815 0.119282514 -0.14149313 0.16290867 -0.07540027
0.016451705 0.14957967 -0.010839937 -0.09865884 0.099563986 0.15450129 -0.08947108 0.14593567
-0.13081726 0.10580385 -0.046523735 -0.16188084 -0.082249254 -0.026883682 -0.041638955 0.03842433
-0.0021870842 -0.11783597 0.10047088 0.1353994 -0.05860966 -0.014652457 -0.07509599 -0.12591998
0.067990266 0.07983535 -0.12640731 -0.036920935 -0.13741575 -0.040404342 -0.09749895 0.041473743
-0.015922077 0.15060718 0.16909531 -0.0028113695 0.13236214 -0.12206771 -0.0221941 0.08356563
-0.008289428 0.077409044 0.12672488 0.114474915 0.11235439 -0.01955115 -0.15869199 -0.15198949
0.15005063 -0.09192041 0.011774543 -0.09003814 -0.06690482 0.058382187 0.16051804 0.035342485
-0.030127745 -0.12550347 -0.16797371 -0.10137055 -0.039041054 -0.12302724 -0.007475878 -0.112820394
0.08913508 -0.15461853 -0.09813123 0.10412956 -0.0984988 0.016343052 0.07671674 -0.13316339
-0.10298834 -0.07160799 -0.10514491 0.00240572 -0.04284135 -0.039574686 -0.11418412 0.14482939
0.05269125 0.17193636 -0.06731524 -0.028893743 0.14832443 0.14305598 0.030768948 -0.07257402
0.12591319 0.1261281 0.02242187 -0.13830532 0.09539457 0.11496402 0.16059078 -0.15391004
0.10285436 -0.14362839 -0.026109636 -0.15216406 -0.018466325 -0.105660416 0.15809536 -0.013076755
-0.05570882 0.076186076 0.00243731 -0.17136711 0.096810885 0.07146537 -0.07209309 -0.112490214
-0.035275288 -0.16529708 0.059651677 0.14070389 -0.14697908 0.037751354 0.11439588 -0.02416224
0.033482373 -0.090244696 -0.0073168017 0.0688545 -0.13003342 -0.12579556 0.016739685 0.12452097
-0.10889857 -0.16323403 0.18374623 0.019407304 0.046295777 0.13175038 -0.072191656 0.03410608
0.19172134 -0.014135142 0.034305304 0.14609277 -0.15677518 0.085479364 -0.019959277 0.1585891
-0.15793303 -0.030793538 0.166822 -0.16628636 -0.10422926 -0.08619613 -0.16012327 -0.053871796

lstm1_2.0.bias f4 [32]
00000000: 93e9 5bbd e31f ecbc f25a 33be 5104 f9bd
00000010: a881 1d3d 51e9 27be b50a f6bd 8b81 d93d
00000020: cd0e c0bd 6936 bfbb 103b e73d 508e e4bd
00000030: 6d3b 7d3c 2333 8ebd 1332 123b 202c 933b
00000040: 30f4 b43d b87b e6bd b72b 15be f716 d43d
00000050: 2034 05be 6361 1fbe ef59 1e3e 2a17 05be
00000060: 743a 2bbe 0d61 063e 52e6 a93a 5c7f 12be
00000070: a80b b3bd 1f03 ab3d c73a 033e 2bf3 c2bc
-0.05368955 -0.028823799 -0.17515162 -0.121590264 0.038453728 -0.16397597 -0.12013761 0.106204115
-0.09377823 -0.0058353436 0.11290562 -0.111599565 0.015456063 -0.06943347 0.0022307679 0.004491344
0.088356376 -0.11254066 -0.14567457 0.10355943 -0.13008165 -0.15564494 0.15463994 -0.12997118
-0.16721517 0.1312296 0.0012962318 -0.14306396 -0.08742458 0.08350205 0.1281539 -0.023797592
