results/voltage_window_effect/V(3.3-3.4)/Experiment3(25-CC-1)/from_Dataset 3_ft_model.pth (torch, 95756 bytes, 27 tensors)

cnn1.0.weight f4 [16, 1, 3]
000000 bf c5 2d be 1d 4d c4 be c1 25 57 be e8 d1 54 be
       -0.16969965 -0.38340083 -0.21010496 -0.20783198
000010 1d b2 55 3e de 30 a4 3e 8f e7 d7 3e 27 a2 79 3e
       0.20868726 0.32068533 0.42168853 0.24378262
000020 ce 41 56 3e 62 85 47 3e 59 d3 fe be 94 1b cd be
       0.2092354 0.19484475 -0.4977062 -0.40060103
000030 0d 97 8f 3e 09 60 d0 3e e4 d7 0e bf b6 11 cd 3e
       0.2804493 0.4069827 -0.5579817 0.40052575
000040 55 f9 98 3b 07 79 18 3f bd 91 c0 3d 58 90 05 bf
       0.0046683946 0.59559673 0.09402797 -0.52173376
000050 26 75 01 be 62 59 45 be 02 ff 18 3f 2a a1 9e 3e
       -0.12642345 -0.19272378 0.5976411 0.30982333
000060 56 9b a9 3c 1a 37 12 bf de d0 0c bf c6 cc e0 3e
       0.020703953 -0.5711533 -0.55006206 0.4390623
000070 4d 3d ec be 6f 6a 03 3f 56 54 0d 3b 63 4f 15 bf
       -0.4614052 0.5133428 0.002156516 -0.5832426
000080 ea d1 cf 3e 03 13 83 bd 55 7b fc 3d 9f aa 22 bd
       0.4058984 -0.064001106 0.12328211 -0.0397135
000090 91 a8 40 bd a5 4b 31 bd 63 18 dc 3e 20 77 18 3e
       -0.047035757 -0.04328503 0.42987356 0.14889193
0000a0 f8 45 0e 3e ec d4 b3 be e5 57 2f 3e fb 94 58 be
       0.13893878 -0.35123384 0.17123373 -0.21150582
0000b0 ce 4b eb be 77 c5 25 3e c8 ea 02 bf 86 1c 24 3e
       -0.45956272 0.16188608 -0.511395 0.16026506

cnn1.0.bias f4 [16]
000000 2d 26 08 3f fb 73 06 3f f5 e9 8a bc d7 86 0d bf
       0.5318325 0.5252072 -0.016957263 -0.55283874
000010 6e 17 74 be 02 9e 93 3e b9 b9 5c be af 5e e6 3e
       -0.23837063 0.28831488 -0.21555223 0.44994113
000020 0a 14 42 be b1 75 70 3e 10 54 d0 3e 44 61 83 bd
       -0.18952957 0.23482396 0.40689135 -0.06415036
000030 b5 38 e0 3e 7a 75 71 3e 0e bc f7 3e 67 26 cc 3e
       0.43793264 0.2357997 0.48385662 0.3987305

cnn2.0.weight f4 [32, 16, 3]
000000 84 f7 cd bd a6 63 ff bc a7 ec 9e bc 2d 8c 0c be
       -0.100569755 -0.031175446 -0.019399954 -0.13725348
000010 28 c3 cd 3d 39 d6 d7 bd 26 f6 3d 3e 5c d4 b2 3d
       0.10046989 -0.105389066 0.1855093 0.087319106
000020 cb ce 18 3a 03 da 08 3e 8e 7f 15 3d ee 3c b4 bd
       0.00058291544 0.13364415 0.0364986 -0.08800684
000030 2c b2 d2 bd e2 77 07 3e c9 dc cf bc 95 26 ad 3d
       -0.1028789 0.13229325 -0.025373833 0.084546246
000040 d3 8c 2f 3e 04 7b 07 3e 1e 22 96 bd 90 d3 7c bd
       0.17143564 0.1323052 -0.07330726 -0.0617252
000050 a0 29 32 3d 25 fd 9f 3d 9e 60 23 bc 55 c7 e2 bd
       0.043496728 0.07811955 -0.009971766 -0.11073176
000060 28 85 91 bd 85 65 f8 bd 3c fa ec bb cb 4f 8e bd
       -0.07105476 -0.12128738 -0.0072319787 -0.06948813
000070 99 43 bc bc 9c ea 9f 3d d7 03 0d be dd 23 bb bd
       -0.022981452 0.0780842 -0.13770996 -0.091377
000080 9f 9e 67 3d 28 46 cc 3d d0 d4 bb bd 3f 23 3d 3d
       0.056547757 0.09974319 -0.0917145 0.04617619
000090 5c 49 00 3e 6d dc dd 3c a9 b7 9c bd 1d 8f 9e bd
       0.12527984 0.027082646 -0.07652218 -0.077421404
0000a0 a4 c7 7c 3d da db 12 be 78 68 a8 bd 2d 16 54 3d
       0.06171383 -0.14341679 -0.08223051 0.05177896
0000b0 be 52 32 be fc 96 ff 3d 81 0a 66 3d 95 c1 21 bc
       -0.17414376 0.1247997 0.05616236 -0.009872814
0000c0 36 5b d7 3c 51 84 04 3e 0d d2 4e bd 0e 1a 00 3d
       0.02628861 0.129411 -0.05049329 0.031274848
0000d0 1d 41 e0 bd 24 07 f6 bd 19 0f f9 3b f8 a8 f6 bd
       -0.109499194 -0.12013081 0.0076006767 -0.12043947
0000e0 9c 0d 37 bd b4 03 ea bc 67 90 25 3d 2f 76 d5 bd
       -0.044690713 -0.028566219 0.040420916 -0.10422932
0000f0 99 af 09 be e7 d2 f8 3d e3 a6 ea bd c1 74 91 3d
       -0.13445891 0.121496014 -0.11457612 0.07102347
000100 d8 ce 6d 3d 64 27 ec 3c b8 8e c6 3d 1a c9 0e be
       0.05805859 0.028827377 0.0969519 -0.13943902
000110 8c 34 fe 3d b4 58 fd 3d 04 fe 12 be a5 a7 e9 bd
       0.12412366 0.123704344 -0.14354712 -0.11408929
000120 f8 b6 1b 3d a9 8a f7 bd 94 1a 8d bd 30 5a c5 3c
       0.03801629 -0.12086994 -0.06889835 0.024090856
000130 54 0a 07 3d c1 75 28 ba 4a 3e b9 bc 9d ad da 3b
       0.032968834 -0.0006426238 -0.02261271 0.0066735283
000140 ef 91 12 be 48 21 0f bd a9 fb 6d 3d 98 53 35 bd
       -0.14313482 -0.03494385 0.05810133 -0.044269174
000150 49 ba f2 bd 88 9a 32 3d 69 16 83 bd 12 84 4f bd
       -0.11851937 0.043604404 -0.06400759 -0.05066306
000160 f5 50 cb bd fe e9 67 3d 19 4e a9 bd 9b 10 b0 bd
       -0.09927551 0.056619637 -0.08266849 -0.08596917
000170 b9 85 0f bd 00 d3 5f bd 5e 2f 53 bd d5 2f cf bc
       -0.035039637 -0.054644585 -0.051558845 -0.025291363
000180 92 cc 55 bd a6 5c cf 3c 79 75 7c bd 89 fb da bd
       -0.052197047 0.025312733 -0.06163547 -0.10692508
000190 2e 01 0c be 56 97 25 bd e0 df 11 be 8d f4 e1 3d
       -0.13672325 -0.04042753 -0.14245558 0.110329725
0001a0 81 e5 8c bd 21 9f 5f 3d 6c e5 f8 bd 1f cc a3 3d
       -0.06879712 0.054595117 -0.12153134 0.079979174
0001b0 4b cd bd bd 7d 7b 39 bd 19 3e 08 3e 50 1d c1 3d
       -0.09267672 -0.045283783 0.13304938 0.09429419
0001c0 85 26 32 bd b5 e8 d0 3d b6 d8 0c 3e c4 9c 5f bd
       -0.043493766 0.10200635 0.13754544 -0.054592863
0001d0 85 b2 bf 3d 52 ca cc 3d aa a2 30 3d a9 41 27 3d
       0.09360222 0.09999527 0.04312388 0.040834103
0001e0 16 bf 04 be 0d 3c 05 be 4d 19 05 3d c6 95 9a 3c
       -0.12963519 -0.13011189 0.03249483 0.018870246
0001f0 d3 6d 5d bd 55 c1 70 3d d0 8e fd bc ab 15 db bc
       -0.054059815 0.058778126 -0.030951887 -0.02674373
000200 eb d8 d5 bd 98 0b e7 3d 1f 3b 57 3d aa 70 28 bd
       -0.104417644 0.11281508 0.052546617 -0.04112307
000210 55 b0 9d bd 61 73 c3 bd 04 d9 04 be d0 ae 70 3d
       -0.07699648 -0.09543491 -0.1297341 0.058760464
000220 2d 73 59 3d 70 90 78 3d 78 a9 92 bd 55 05 b2 bc
       0.053088356 0.06068462 -0.0716123 -0.021731058
000230 3e a7 7e 3d 7a c6 e8 3d 6e 72 f6 3d 0e 6c 15 be
       0.062171213 0.113659814 0.120335445 -0.14592001
000240 40 f1 18 3d 3b 83 d9 3b f7 6c 63 bc 1d f7 62 3d
       0.03733945 0.0066379583 -0.01388096 0.055411447
000250 c5 52 15 be dd 1f 9c b9 e2 36 8d 3d 18 87 22 be
       -0.14582355 -0.0002977838 0.06895234 -0.15871847
000260 30 d0 1d be fc f1 0c be 84 40 85 bd 96 98 cf bc
       -0.15411448 -0.13764185 -0.06506446 -0.025341313
000270 35 32 10 3e 4d 17 a6 bd c7 28 83 bc 90 bf 06 be
       0.14081652 -0.08109913 -0.016010655 -0.13159013
000280 05 cf 19 be b3 30 d4 bd 3f 21 41 3d fc bc b3 bd
       -0.15020378 -0.10360851 0.047150847 -0.0877628
000290 1f 59 cb bd bb 3d cc 3d 64 1e 18 bd 5b fb 69 3d
       -0.09929108 0.09972712 -0.037138358 0.057124477
0002a0 ea 5c 78 3c 65 f0 7f bd 84 22 06 be 14 45 0b bd
       0.015158871 -0.062485117 -0.13099104 -0.034001425
0002b0 45 9d f6 bd 35 a3 17 be db 4c ad 3d 48 08 4b 3d
       -0.120417155 -0.14808352 0.08461925 0.049568444
0002c0 bd f4 d9 bd 59 67 e5 3b 5e 9e 08 3e 29 9d 82 bd
       -0.10642383 0.0070008454 0.13341662 -0.06377632
0002d0 7b 2b e2 bd 1f c2 3f 3d 26 75 b5 bd cc ad 78 3d
       -0.110434495 0.046815988 -0.08860235 0.06071262
0002e0 21 8a db 3d 2f 20 53 3d 2f b2 a4 3d bc 32 a8 3d
       0.107197054 0.051544365 0.08041798 0.08212802
0002f0 72 41 ce 3c fa e3 84 bd b3 b0 3f bd fd 14 a9 3d
       0.025177691 -0.064887956 -0.046799373 0.08255956
000300 a1 e8 a0 bd eb 90 dd bc 85 10 6f bd aa 24 52 bd
       -0.078568704 -0.027046641 -0.058365364 -0.051304497
000310 13 31 c5 3d 99 e0 0d bc 15 20 0d be 88 06 df bd
       0.09628501 -0.008659505 -0.1378177 -0.108899176
000320 f8 35 e6 bd d9 b4 db 3c 93 61 84 bd 83 7d 9a bd
       -0.112407625 0.026819633 -0.06463923 -0.07543471
000330 23 4b f0 bd 17 ad 5b 3b a5 54 c9 3d 6c 07 7e bd
       -0.11733081 0.0033519918 0.09830598 -0.062018797
000340 51 21 17 be 0f c8 a1 bd 12 0d a2 3d e4 67 84 bd
       -0.14758803 -0.07899486 0.07912649 -0.06465128
000350 59 73 eb bd 31 47 f1 3d 8e fe f9 bd de c5 a8 3d
       -0.1149661 0.11781157 -0.122067556 0.08240865
000360 e7 94 b0 bd b1 44 ea bc 3c 2f 04 3e 71 23 0c be
       -0.08622151 -0.028597208 0.12908643 -0.13685395
000370 ba 06 0b 3c 4a 5f d0 bd a2 4b 20 bd 78 62 59 3d
       0.00848549 -0.10174425 -0.03913463 0.053072423
000380 a2 b8 1e be 63 c6 04 3e 12 f8 22 3d a8 8c e4 bd
       -0.1550012 0.12966304 0.03978736 -0.111596406
000390 eb 39 62 bd cc 1a 2c bb 21 ac 85 bd 1e 68 01 3e
       -0.055231016 -0.002626109 -0.065269716 0.12637374
0003a0 30 4e 48 bd d2 80 b4 bb e3 44 8d 3d 33 9e 64 bd
       -0.04890269 -0.0055085206 0.06897905 -0.055814933
0003b0 6e 1f c2 3d 89 51 9d 3d 51 3d 9d bb 19 d3 20 3d
       0.09478651 0.07681567 -0.0047985693 0.03926382
0003c0 ff 38 32 3d 48 e2 ab 3c 7f 88 07 bd 93 a7 84 bd
       0.043511387 0.020981923 -0.033089157 -0.06477275
0003d0 98 88 29 3d a5 a9 0c be eb a9 8f 3d 98 f8 ac 3d
       0.04139003 -0.13736589 0.07014831 0.08445853
0003e0 5d b6 af bd f3 5c 83 3d 84 a7 0d 3e 19 2e e6 bb
       -0.08579705 0.06414213 0.13833433 -0.0070245382
0003f0 90 3d b7 3b 8c 05 e1 3d 22 a7 0a bc ae a6 d5 3d
       0.0055920556 0.10987386 -0.008462699 0.10432182

cnn2.0.bias f4 [32]
000000 2d 77 78 3d ac b9 07 3e ba 5d 77 bd 14 83 0e 3d
       0.06066053 0.13254422 -0.06039212 0.034792975
000010 22 a1 b5 3d 55 77 03 3d 9a 1e f5 3d 92 0d 34 3d
       0.08868624 0.032096226 0.119687274 0.043958254
000020 fe 7e a8 bc 40 e0 06 bd d6 4d e5 bc 0d 73 11 3e
       -0.020568367 -0.032928705 -0.027991217 0.14204045
000030 a5 42 0f be 09 70 3e 3e d4 51 03 be 82 a5 dd bd
       -0.13990267 0.18597426 -0.12824184 -0.10822584
000040 3e f8 03 be e6 70 15 bd cb a5 b9 bb e3 0e 43 3d
       -0.12887666 -0.03648462 -0.005665516 0.04762162
000050 19 c2 49 bd 9d b8 f3 3d e3 41 43 bd 19 72 01 3e
       -0.04925737 0.119004466 -0.047670256 0.12641181
000060 de 2e 22 3d 33 81 7a ba 4a 74 d7 bb 63 a7 e5 bd
       0.039595477 -0.00095559953 -0.006575142 -0.11213567
000070 44 49 1d 3e 3c 6e 07 bc 73 bb d9 bd a1 cb a9 bd
       0.1535998 -0.008266028 -0.10631456 -0.08290792

lstm1_1.weight_ih_l0 f4 [64, 32]
000000 b6 24 07 3e c0 bf 22 3c 25 5a fd 3c 50 b2 5d be
       0.13197598 0.009933412 0.030926773 -0.21650052
000010 55 c5 3e be 2c 43 02 3e eb 6a 13 be 82 61 23 3e
       -0.18629964 0.12720937 -0.14396255 0.15955165
000020 b6 9e 7a 3c cc 4e a7 3d dc 34 1d be 37 ec 28 bd
       0.015296629 0.08169326 -0.15352196 -0.041240897
000030 5c 3f 8d bd 9d 17 99 3e 73 bf 2d 3d bf 04 8e 3e
       -0.068968505 0.29900828 0.04241891 0.27737996
000040 ac a2 2a be 35 34 57 3e 5a b2 31 3c af d2 e1 bd
       -0.16663617 0.21016009 0.010845745 -0.11026513
000050 d4 30 4a 3e 8a ee 5a be b0 12 39 be d2 ac 30 be
       0.19745189 -0.21380058 -0.18073535 -0.17253426
000060 e6 f8 44 3d a5 0c 46 be ba ee 03 3e a2 65 7f 3e
       0.04808893 -0.19340761 0.12884036 0.24941114
000070 93 60 89 3e f7 49 cb bc 34 5e 26 be 8c 0e 47 3e
       0.26831493 -0.024815543 -0.16246873 0.19439143
000080 72 13 37 be dc 38 91 bd f7 67 8e bd 9c 5f bf 3d
       -0.17878512 -0.07090923 -0.069534235 0.09344408
000090 6f 73 26 3d 52 35 69 bc cc ea f4 bd e8 76 85 3e
       0.04063743 -0.014233904 -0.119588464 0.2606728
0000a0 5a c4 da bc c4 89 19 be 6c 0b 42 be 48 22 64 3e
       -0.026704956 -0.1499396 -0.1894967 0.22278702
0000b0 58 63 2a bd 9f bb 4c 3d de bc 1b bd bc 30 83 3e
       -0.041598648 0.049983617 -0.038021915 0.2562312
0000c0 f0 b8 21 3e 47 08 a1 bd 0f ea 24 be 36 a0 98 3d
       0.15793204 -0.07862907 -0.16104911 0.07452433
0000d0 40 06 59 3c aa 5d 4c be 80 f8 21 bb dc 00 d4 bd
       0.013246119 -0.19957605 -0.0024714768 -0.103517264
0000e0 b8 d0 69 3e b5 c3 89 3e a8 fa 6d 3e 00 24 96 bb
       0.22833526 0.26907125 0.23240149 -0.0045819283
0000f0 fa 01 93 bd 02 76 0b bd ea 8b 34 be 31 4c 58 3e
       -0.071781114 -0.034048088 -0.17631498 0.21122815
000100 b3 70 06 bc 8a d9 09 3e a5 d0 90 3d da 63 63 be
       -0.0082055805 0.13461891 0.07071046 -0.22206059
000110 91 0c 9d 3d 24 f7 e6 3d a4 d9 3a be 29 e8 31 be
       0.076684125 0.11277607 -0.18247086 -0.17373718
000120 ad c1 15 3d 00 e0 72 38 0c 27 3c 3e fa 61 02 3e
       0.036561657 5.7905912e-05 0.1837427 0.12732688
000130 08 ec 86 bd 43 ad b2 3d 05 c1 08 3e 01 1f f6 3d
       -0.06587988 0.08724453 0.13354881 0.12017632
000140 68 08 99 3d b2 ee 1e 3e 1a 70 39 3e 1a 9b a5 3d
       0.074723065 0.15520743 0.1810917 0.08086224
000150 b0 58 de bc 94 06 30 be a8 72 87 bd 04 04 a6 3d
       -0.027141899 -0.1719001 -0.06613666 0.08106235
000160 ab f7 7a bd df 7b e9 bd c2 02 4d be 50 02 cd 3c
       -0.06127135 -0.1140058 -0.20020583 0.025025517
000170 25 9d 33 3e bf de 49 be bc 73 9a 3d 05 fd 15 3e
       0.17540415 -0.19713877 0.07541606 0.146473
000180 31 3a 77 3e b0 c9 00 bd bc 9c 34 3e 33 d4 52 be
       0.24143292 -0.031442344 0.17637914 -0.2058876
000190 0e 4e d6 bd d1 54 2d be 3e 53 78 bc 39 51 26 be
       -0.104641065 -0.16926886 -0.015156565 -0.16241921
0001a0 5b 2c ed bb 3c d1 45 be 70 90 69 bd bf be 71 3e
       -0.0072379536 -0.19318098 -0.057022512 0.2360792
0001b0 88 57 0e be 2b 8f 41 be 97 52 cb 3e 69 d0 95 bd
       -0.13900578 -0.1890227 0.3971145 -0.07315142
0001c0 12 55 54 be d3 a6 60 3d d5 1f 6a 3e c5 82 16 3d
       -0.20735577 0.054846596 0.22863705 0.036745805
0001d0 d0 0f 2d be 44 2d 08 3e 82 58 16 be 02 f5 b2 bd
       -0.16900563 0.13298517 -0.146822 -0.08738138
0001e0 9b 97 58 3e c6 04 a2 bb d4 6c cb 3d b4 c5 46 3e
       0.21151583 -0.0049444167 0.09932867 0.19411355
0001f0 8a ee 50 be 65 ac 2c be 3a 0d 37 be 28 3a 90 3d
       -0.20403495 -0.16862638 -0.1787614 0.070423424
000200 12 14 9d 3d 7c 41 0d 3e 4e f2 93 3c cc b9 a0 3d
       0.07669844 0.13794512 0.018059876 0.07847938
000210 f6 bd d9 bd 5a e5 57 be 9d 88 12 3e ad 95 a9 bd
       -0.10631935 -0.21083584 0.14309926 -0.082805015
000220 36 13 12 be 22 98 57 be 48 ef 33 3d 00 dd 7a 3b
       -0.14265141 -0.21054128 0.04392937 0.00382787
000230 c0 dd 4b bc aa 2a bf 3d 05 51 7f bd 6d aa bd bd
       -0.012443006 0.093343094 -0.062333126 -0.09261022
000240 0a d8 1f be b4 b7 69 3d 5e ac 88 3e 59 e8 2e be
       -0.15609756 0.05705996 0.26694006 -0.17080821
000250 f4 df e8 3d 12 a3 66 3e ca 73 5d be f4 7f 17 3d
       0.11370841 0.22523144 -0.21626201 0.03698726
000260 99 19 2a be 8b 03 2b 3e 8c 30 50 be 76 87 1d 3e
       -0.16611327 0.1670057 -0.20331019 0.15383705
000270 1c 70 a4 3d ae a7 aa bd 6c ca 1d be 48 e7 ac 3d
       0.08029196 -0.083327636 -0.15409249 0.08442551
000280 32 b9 91 3e a4 51 af 3d a8 4e 0f 3e f2 f0 57 3e
       0.28461605 0.085604936 0.13994849 0.21088007
000290 96 34 f2 bc 90 5a 32 3e 27 44 87 bd 45 31 3d be
       -0.02956609 0.1741736 -0.06604796 -0.18475826
0002a0 fc 39 74 3e c8 9a 04 be f0 cf df 3c 4f 5c 51 be
       0.23850244 -0.1294967 0.027320832 -0.20445369
0002b0 60 dd 1a 3d 31 6d 39 be be 3c 90 bc 45 67 3c 3e
       0.037808776 -0.1810806 -0.01760709 0.18398769
0002c0 f8 20 ec 3d 27 07 0c 3e 73 68 b8 bd f5 d5 53 be
       0.11529726 0.13674603 -0.09004297 -0.20687087
0002d0 d0 af 7f 3e 9c 43 36 3d 5c 16 28 3e ce 9b a3 bd
       0.24969411 0.04449807 0.1641478 -0.07988702
0002e0 eb 6a d1 bd 59 1f 86 3d b2 8d 59 be e0 cd 2b 3e
       -0.10225471 0.06548948 -0.21245459 0.16777754
0002f0 bd c2 f3 bc 7d 71 51 3e 96 39 69 3e c2 87 33 3e
       -0.029755944 0.20453449 0.22775874 0.17532256
000300 f8 17 93 3e 58 5f 9e 3d f4 ec d2 3d 65 2a e2 3d
       0.28729224 0.07733029 0.102991015 0.11043242
000310 5c 6e dd 3d 9b 6a 3b 3d 86 bc b3 bd 6b 97 bb 3d
       0.10812065 0.045755964 -0.08776192 0.0915974
000320 e9 2b 85 3d cc 41 5c be 60 e9 5d be e6 9e 50 be
       0.06502516 -0.21509475 -0.21671057 -0.20373115
000330 8a 17 27 be 15 a2 ec 3d 49 8a da 3d 5a 4b 5f 3c
       -0.16317573 0.11554352 0.10670907 0.013628805
000340 40 99 c5 bc 79 a7 96 3e f6 fd 88 3e 19 7c 8b bd
       -0.024120927 0.29424646 0.26756257 -0.06810779
000350 c0 45 db 3b ba 18 5d be 26 39 14 be a5 57 58 be
       0.0066916645 -0.21591464 -0.14474925 -0.21127184
000360 f2 7c cf bd 2c 73 47 be 84 5c 1c 3e 72 3b 6a 3e
       -0.10131253 -0.19477528 0.15269667 0.22874239
000370 af 86 a6 bd b3 a8 99 3e bc 09 c6 3d 92 29 8a 3e
       -0.081311576 0.3001152 0.096698254 0.2698484
000380 a9 f5 3c bd 5e 1f 59 3e 92 16 59 be a8 17 55 be
       -0.046132717 0.21203372 -0.21200016 -0.20809805
000390 32 4f c6 3d d0 6b 81 3e db 21 80 3e 14 3a e0 3d
       0.09683074 0.25277567 0.2502583 0.109485775
0003a0 6a 11 7c 3e de 60 44 3e 70 e2 de bc 1d 04 54 3d
       0.24616018 0.19177577 -0.027207583 0.051761735
0003b0 50 8a 35 bd af 0b 4b bd 4b e9 25 bd bb 9e f0 3d
       -0.04432136 -0.04957169 -0.04050569 0.117490254
0003c0 78 b8 0e be 49 6a a5 3d 67 30 c5 3d f4 7b 22 be
       -0.13937557 0.08076913 0.09628373 -0.15867597
0003d0 e0 00 11 3c fc fd 02 3e 28 12 5e 3d f9 14 6b 3e
       0.008850306 0.127922 0.054216534 0.22957219
0003e0 a7 92 d6 bd 23 48 1d 3e 00 34 68 be 80 6e 27 3e
       -0.104771905 0.15359549 -0.22676086 0.16350746
0003f0 c1 10 fc bd 9e cd cf bd 68 f7 1a 3d 4e 1d a0 bc
       -0.12307883 -0.1014664 0.0378336 -0.019545224

lstm1_1.weight_hh_l0 f4 [64, 16]
000000 e3 85 0d be 2c 06 36 3e eb 55 0e 3e da 56 81 3e
       -0.13820605 0.17775792 0.13899963 0.25261575
000010 d6 8e c6 bd 53 4b 74 3e ed ca 7c bd 09 11 15 be
       -0.096952125 0.23856859 -0.061716963 -0.1455728
000020 85 dd 6e 3d 4f d4 24 3e a3 cb a4 bd 9a 0f 00 bd
       0.058316726 0.16096614 -0.08046653 -0.03126488
000030 f5 89 2b bd 56 e1 46 be 2a ea 17 be 99 4a 20 3e
       -0.041879613 -0.19421896 -0.1483542 0.15653457
000040 a3 04 f4 bd d0 13 1e be b3 6b 6d be bb 32 5c 3e
       -0.11914947 -0.15437245 -0.23185615 0.21503727
000050 02 2f 6b be 0e 56 a3 3d 11 19 81 3c d3 5a 08 3e
       -0.22967151 0.07975398 0.015759023 0.13315897
000060 6c 4a 9f bd fa 2f 70 3e fb 86 9d 3c da 35 0d be
       -0.07777867 0.23455802 0.019229403 -0.13790074
000070 ff 29 92 3d 0f ae 66 3e 4c 69 a4 bd a9 d6 b0 3a
       0.07136916 0.22527336 -0.08027896 0.0013491708
000080 08 dc fe bd 22 e8 0e 3e dd ee 1b be 40 d1 92 3e
       -0.124443114 0.13955739 -0.15227838 0.2867527
000090 bd 2a d0 bd ff 48 13 bd ea 97 90 bd 9b 25 1e 3e
       -0.10164402 -0.035958286 -0.07060225 0.15444033
0000a0 8a 17 01 be 0e eb 61 bc c1 ee 58 3e ce b7 1c 3e
       -0.12606636 -0.013788952 0.21184827 0.15304491
0000b0 75 e2 c0 3e 92 8b e4 bd 9d 1c 3c 3d 3b e5 2d 3d
       0.37672773 -0.111594334 0.045925725 0.04245494
0000c0 18 69 c3 bd cb 48 ed 3d cf 10 fa 3c d8 5c ef 3d
       -0.095415294 0.1158615 0.030525593 0.116876304
0000d0 65 b7 5d be f9 66 a9 3d 4f 1c ec 3d 1f c3 a6 3d
       -0.2165199 0.082715936 0.11528837 0.08142685
0000e0 31 85 21 be 45 b9 10 be 9b 96 8b bd 2c 5e 31 be
       -0.15773465 -0.14133175 -0.06815835 -0.1732108
0000f0 26 4e 4d 3e 67 01 04 3e 80 fd 6b bb 5b af 37 be
       0.20049343 0.1289116 -0.0036009252 -0.17937987
000100 bc ab 8c 3d dc 16 40 3d e3 51 0b 3e 2f 95 0a be
       0.06868693 0.0468968 0.13605456 -0.13533472
000110 8f aa c6 bc 0c d0 1e 3e 1b ef 0a 3e ef e7 a5 3b
       -0.02425125 0.15509051 0.13567774 0.005063049
000120 3b d6 72 3e 2f 85 ca be 78 1a a6 3d 82 b0 4a 3e
       0.23714535 -0.39554736 0.08110517 0.19793895
000130 d4 46 78 3e 25 8a 3a 3e 42 f8 87 be 03 59 d3 3d
       0.24245769 0.1821676 -0.26556593 0.10319712
000140 70 b6 b4 3d fb ac 6a 3e 90 35 09 3e 58 53 85 3e
       0.0882386 0.2291755 0.13399339 0.2604015
000150 c3 9c 86 3d ce 9b 49 3e 0f 33 03 3e b3 8e 1e 3e
       0.06572869 0.19688341 0.12812446 0.15484123
000160 45 c3 93 3c f4 89 16 3e 28 d4 3f be bb 9f 33 bc
       0.018037448 0.14701062 -0.18733275 -0.010963376
000170 f7 1e e9 3a d8 27 5f 3c 70 a7 69 3e 9f b6 96 bd
       0.0017785718 0.013620339 0.22817779 -0.07359051
000180 27 6b 57 3e 4f 92 37 be 9d 97 b2 bd f1 90 f6 bd
       0.21036969 -0.17926906 -0.08720324 -0.12039364
000190 5f f7 2d 3e 44 44 24 3d 84 f4 59 3c 9d 51 74 3e
       0.16988896 0.040104166 0.013302926 0.23859258
0001a0 fd a7 68 3e d1 07 42 3d 76 e5 ab bd 46 22 7c 3e
       0.22720332 0.047370736 -0.083933756 0.2462245
0001b0 98 35 85 3d 8f e0 39 bc 7d d7 b8 3c af 54 65 3d
       0.06504363 -0.011345043 0.02256369 0.055988964
0001c0 34 ec 93 3d ad a5 57 be e6 56 8d be fa ac bc bd
       0.072227865 -0.21059294 -0.2760536 -0.0921268
0001d0 07 2f a4 bd f5 80 e7 3c 60 c7 7a 3c b8 da 80 bd
       -0.08016782 0.028259734 0.015306324 -0.06291717
0001e0 49 db 39 be 5b 4f 94 bd b6 e6 c0 bd d6 93 52 be
       -0.18150057 -0.07241698 -0.094190046 -0.20564207
0001f0 b0 9f bb bb b6 77 44 3d aa fc ef 3a e1 8d 04 3d
       -0.0057258233 0.047965728 0.0018309553 0.03236187
000200 cf 2c 3e 3e 1d d4 20 be fb 27 8c bd c1 e2 8c bd
       0.1857178 -0.15705915 -0.06843563 -0.068791874
000210 9c c5 a4 3d 7c 4f 2a be 41 7b 82 bd 65 3b f4 3d
       0.080455035 -0.16631883 -0.06371165 0.11925391
000220 3e 88 b6 3d eb 28 aa be eb a4 e6 bd 9d 81 28 be
       0.08912705 -0.33234343 -0.11261924 -0.16455694
000230 3e ba 39 3d e2 52 12 be 1b 79 48 be dd f1 a0 bd
       0.04534363 -0.1428943 -0.19577448 -0.07858632
000240 3b 29 96 be e8 6c 98 3c eb 03 2e be 00 23 d0 3e
       -0.2932833 0.018606618 -0.16993682 0.40651703
000250 77 8c 9f 3e f6 72 5e 3e 93 7b b4 bd a7 ea 18 3c
       0.31161854 0.21723542 -0.088126324 0.009333289
000260 bc fa 8e bc f9 e9 5d be d0 0d 34 3e 1e ac 8a 3e
       -0.017453544 -0.21671285 0.17583394 0.2708444
000270 5e 73 de 3e e6 e4 9f bd 4a c6 17 bc 4e 72 12 be
       0.43447393 -0.07807331 -0.009263584 -0.14301416
000280 63 7e e3 bd 58 cd 96 3d 0c 1a 6b bd 49 50 1b 3e
       -0.11108091 0.07363385 -0.057397887 0.15167345
000290 04 16 f5 3c 14 79 0b 3d a3 c7 8f 3e fa 9b 6b be
       0.029917724 0.034051016 0.28081998 -0.23008719
0002a0 6d f0 35 be 09 33 43 3e f9 38 d0 3b 39 60 3f be
       -0.17767496 0.19062437 0.006354448 -0.1868905
0002b0 19 94 c6 3d 37 31 03 3e ed 15 93 3d 20 9e d8 bd
       0.09696216 0.12811743 0.071819164 -0.10577035
0002c0 15 26 2c 3e 5c 93 40 3e 72 cc af 3d 0f 58 34 3c
       0.16811402 0.18806213 0.08583917 0.011007323
0002d0 2b 8d 6b 3d 0c f2 c4 bd 53 bf 48 3c e3 4f 78 be
       0.057507675 -0.09616479 0.0122526465 -0.24249224
0002e0 b0 62 08 3e 24 db 15 3e ad bf fa bd d5 d3 08 be
       0.13318896 0.14634377 -0.122435905 -0.13362058
0002f0 51 f9 28 3e 51 8f c0 3c 4d de b0 bd d5 16 02 3e
       0.16501357 0.023505839 -0.086361505 0.12704022
000300 be ee 09 bf bc c1 9a be 64 fd 05 be 59 e8 fa bc
       -0.53879917 -0.30225933 -0.13084942 -0.03062837
000310 26 8f 97 3e f5 73 9c 3e 0f a4 c5 3e fa 2d 32 bd
       0.296014 0.30557218 0.3860173 -0.043500878
000320 e2 ea 5e 3e 0a fc 8d 3e 0e 84 c8 3e 57 0b 05 be
       0.21769288 0.27731353 0.3916325 -0.12992607
000330 9c e9 91 3e 24 1d 9e 3e 6d e8 27 be 6d 52 3b 3e
       0.28498542 0.30881608 -0.16397257 0.18293162
000340 04 7c d6 bd 31 16 21 3e f0 5f 8a 3d ad 9f 71 be
       -0.10472873 0.15731122 0.0675658 -0.23596068
000350 b0 1e ef 3d f0 76 39 3d 60 01 80 be e8 4e 70 3e
       0.11675775 0.045279443 -0.2500105 0.234676
000360 c4 98 3c 3e 72 f0 2d 3e c7 de 37 3e 2d bb 01 bd
       0.1841765 0.16986254 0.17956077 -0.031672645
000370 4b ff 0d 3e c8 e5 31 3e 4a 09 2e 3b 80 89 91 3d
       0.13866918 0.17372811 0.002655583 0.07106304
000380 79 6e 34 3e c6 7b 38 be da 60 0d bc 84 ee aa 3d
       0.17620267 -0.18015966 -0.008629048 0.083462745
000390 12 a1 2c 3e fd 30 fa 3d e3 83 a0 bd b6 e7 40 3e
       0.16858318 0.12216375 -0.078376554 0.1883839
0003a0 18 1f fa bd 6d 34 82 be af d5 20 3e f0 13 f6 bd
       -0.12212962 -0.25430623 0.15706514 -0.120155215
0003b0 d7 41 25 3e 29 76 a4 3c 28 61 f1 bd da 60 57 be
       0.16138397 0.020075874 -0.11786109 -0.2103304
0003c0 a5 d0 d1 3c 4e ba 00 be 2d c3 39 3c 20 69 83 3e
       0.025612185 -0.1257107 0.011338037 0.25666142
0003d0 76 b5 f6 bc 04 dd 4b 3d 00 80 94 3d b7 8a 60 be
       -0.030115824 0.049771324 0.072509766 -0.21927916
0003e0 df f1 e4 3c 65 92 2a be f6 d9 c1 bd 98 e8 73 be
       0.027947364 -0.16657408 -0.09465401 -0.23819196
0003f0 cf 11 20 3d d8 97 82 bd b6 68 68 be 33 7e 05 3e
       0.039079484 -0.06376618 -0.22696194 0.13036422

lstm1_1.bias_ih_l0 f4 [64]
000000 c6 a4 07 3d ef 1f 40 3d 7f 74 17 3e db d7 cc 3d
       0.033116125 0.046905454 0.14790533 0.10002109
000010 dc 14 e4 bd 5f aa b6 3d 8d b2 3d 3e 5b ce 38 be
       -0.11136791 0.089192145 0.18525143 -0.18047468
000020 29 e1 4b 3c 10 f0 24 3e 7f 3e 04 be 18 b0 95 3d
       0.012443819 0.16107202 -0.12914465 0.07308978
000030 46 d9 9a 3d f4 63 76 3d e7 cc 21 3e 00 fe 59 be
       0.07560973 0.060153916 0.1580082 -0.212883
000040 46 46 89 bd 52 73 62 3e 9b fa 46 be dc be 03 be
       -0.06702857 0.22114304 -0.19431536 -0.12865776
000050 e8 cd 5e 3e 44 3e 6e bd 27 e8 27 3e ea 64 22 3d
       0.21758235 -0.05816485 0.16397153 0.03964702
000060 81 cc 83 3d 22 55 a8 3e d8 56 3d 3e 20 d2 25 bd
       0.064354904 0.3287745 0.1849016 -0.040483594
000070 27 3a 1e be df f1 12 bc 41 76 21 be fa d0 6a bd
       -0.15451871 -0.008968799 -0.15767767 -0.0573282
000080 73 78 3e 3d 03 d0 af bd b5 45 21 be 0f f5 3f 3e
       0.046501588 -0.08584597 -0.15749247 0.18745826
000090 ad bb b3 bd 4c c2 3f 3e 8e 5b 15 3e fd 07 54 be
       -0.08776031 0.18726462 0.14585707 -0.20706172
0000a0 b3 15 9f bd 86 c7 dc 3d 94 4d 81 3e 2e 0f eb bc
       -0.07767811 0.107802436 0.252545 -0.028693762
0000b0 16 04 a8 3d 98 93 9b bd 46 b0 85 bc 74 24 c1 bd
       0.08203904 -0.07596511 -0.016319405 -0.09430781
0000c0 7c cb 31 3e dd 98 12 be ea 5e 3f 3e 47 19 12 bd
       0.1736278 -0.14316125 0.1868855 -0.035668638
0000d0 f3 f7 35 be e3 5b db bc 39 88 68 be 08 4f 6e be
       -0.17770366 -0.026777213 -0.22708215 -0.23272336
0000e0 15 f2 5f 3e 2c b2 93 3e 0f 1f 5d be 81 54 01 bd
       0.2186969 0.28846872 -0.21593879 -0.03157473
0000f0 58 01 a4 3e a0 d6 fb 3b f4 79 58 3e f6 da 24 bc
       0.32032275 0.0076854974 0.21140271 -0.01006197

lstm1_1.bias_hh_l0 f4 [64]
000000 4e b8 db 3b 78 cd 36 3e af d8 23 be 18 c7 76 3d
       0.0067053204 0.17851818 -0.16000627 0.060248464
000010 a7 a8 a2 3c f3 b3 45 3e 0d 3b 28 be 71 47 db bd
       0.01985581 0.19306926 -0.16428776 -0.10706986
000020 22 42 7a be 45 48 e9 3d 35 c1 9c 3d 98 d3 38 3e
       -0.2443929 0.113907374 0.07654039 0.18049467
000030 b8 43 29 ba b2 36 5a be 19 57 a1 3d 04 55 14 3e
       -0.0006456929 -0.21309927 0.07877941 0.14485556
000040 44 6a 20 3e 1a 02 8f 3e cd 44 63 3e f3 1b c7 bc
       0.15665537 0.2793129 0.22194214 -0.02430532
000050 23 87 81 3c b8 93 89 bc c7 df b4 3d 20 8b 21 be
       0.015811509 -0.01679407 0.08831745 -0.15775728
000060 70 e3 24 be 41 de d0 bd c6 e9 67 3e 5a c6 af 3c
       -0.16102386 -0.101986416 0.22647771 0.021456886
000070 fa 17 8d be 35 c1 10 be b8 43 57 3c 3f b6 52 be
       -0.27557355 -0.14136203 0.013138704 -0.20577334
000080 03 30 20 be b7 0d c8 bc 5d bc 2c be cf a4 c9 3d
       -0.15643315 -0.024420602 -0.1686873 0.09845888
000090 4e a7 3a 3e 8e 51 2c 3e 5c 7e 7f 3d 7f 04 2f 3e
       0.18227884 0.16827986 0.062376365 0.17091559
0000a0 0c a4 d0 3d 4a 03 39 3b 10 d6 25 3e 13 53 65 3c
       0.101875395 0.002823072 0.1619494 0.013996857
0000b0 46 e6 a3 bd 28 b6 85 3e 57 da 51 3e 28 13 bf 3d
       -0.080029055 0.26115537 0.20493446 0.09329826
0000c0 d9 10 83 3e a4 66 48 3e d3 e7 fc bd d9 4e be 3d
       0.2559879 0.19570404 -0.123489045 0.09292383
0000d0 a2 5e 85 3e a5 30 6c 3e 71 e9 6e be f0 2f 55 be
       0.26048762 0.23065431 -0.23331238 -0.20819068
0000e0 dd a3 6c be 76 78 5f 3d b6 45 88 3e 11 16 9e bd
       -0.23109384 0.05455824 0.26615685 -0.077190526
0000f0 07 97 60 3e 37 06 4a be ee 85 b2 3c 4f 00 d5 3d
       0.21932612 -0.19728933 0.021792378 0.104004495

lstm1_1.weight_ih_l0_reverse f4 [64, 32]
000000 cf 86 89 3e e0 93 0b 3d 96 69 09 3e 5e 36 42 3d
       0.26860663 0.03407657 0.13419184 0.04741513
000010 a5 e9 ce 3d 5b f9 31 bd a7 46 6b 3e 27 c0 db 3d
       0.10103158 -0.043450695 0.2297617 0.107300095
000020 d6 a8 54 be 4e db 57 be 60 4d 2d be 03 5b 90 bd
       -0.20767531 -0.21079752 -0.16924047 -0.07048609
000030 80 0c 13 bb 82 1f 39 be 35 82 9f 3e 5d 81 98 bd
       -0.002243787 -0.18078426 0.31154028 -0.07446549
000040 8a 43 5f 3e 92 67 9c bd 63 b1 cd bd 8b 9d 21 bb
       0.21803108 -0.07636942 -0.100435995 -0.0024660553
000050 40 45 5c be 24 5d ea 3d 1e ee 40 3e d9 43 27 3e
       -0.21510792 0.114435464 0.18840834 0.16334476
000060 ae 64 13 3e 00 b2 19 be 4c 09 e8 bd a0 f9 36 bd
       0.14393875 -0.15009308 -0.11329898 -0.044671655
000070 e8 db 9a 3d ac 62 84 3d e8 3b 72 bd 3f 17 71 3d
       0.07561475 0.06464133 -0.059139162 0.05886006
000080 56 0e 2b 3e d8 f6 2f be 7d 3b 50 bc 7b 01 ed bd
       0.16704687 -0.17184007 -0.012709496 -0.11572548
000090 f8 18 88 bd bb 4b 7f 3e ba e9 44 3e e1 17 d3 bc
       -0.066453874 0.24931233 0.19229785 -0.025768222
0000a0 10 36 a0 bd f0 a1 ad bd de 5a 20 be 7e cc 63 be
       -0.078228116 -0.08478153 -0.15659663 -0.22245976
0000b0 0c 20 12 be 72 5b 86 be c9 4a a7 3e 0f 15 75 3e
       -0.14270037 -0.26241642 0.32674244 0.23933814
0000c0 44 2b 24 3e d1 bd d9 3d f1 12 0b 3e c1 1e 97 3e
       0.1603213 0.10631908 0.13581444 0.2951565
0000d0 16 e6 60 3e 5d 53 8b bd 9e d9 7c be 5d b6 4e 3d
       0.21962771 -0.0680301 -0.2469239 0.050466884
0000e0 84 fa d5 3d 7a b6 85 3e c0 ea 1b 3e e0 8b 18 bd
       0.10448173 0.2611578 0.15226269 -0.03724277
0000f0 1c 9c 9f bb 6c 46 10 3e ba 6c 65 3e f6 1a dc bd
       -0.0048709046 0.14089364 0.22404757 -0.1074733
000100 af af 9a 3e 2c 70 2a be b2 f7 47 3e 7d 94 9f bd
       0.3021216 -0.16644353 0.19528082 -0.07791994
000110 47 42 5c be 45 f8 82 3e bb ba af bd 1e aa 32 3e
       -0.21509658 0.2558004 -0.08580538 0.17447707
000120 d4 68 94 3e 06 06 54 be 66 6e 11 3e 0e 5b 9b bd
       0.28986228 -0.20705423 0.1420227 -0.07585727
000130 00 a9 47 3d 2c 66 6d be 8a cb dd 3d 81 09 31 3e
       0.048745155 -0.23183507 0.108298376 0.17288782
000140 a0 d5 05 bc 07 9d 4d 3e d9 98 f3 bd 3a 14 96 3e
       -0.008168608 0.20079432 -0.11894388 0.29312307
000150 84 99 77 3e f2 8c ae 3d 04 0a 60 be ad 72 e6 bd
       0.24179655 0.08522977 -0.2187882 -0.112523414
000160 0f c2 5e be 69 32 98 3e 00 d0 80 bb 28 25 29 3e
       -0.21753715 0.2972596 -0.0039310455 0.1651808
000170 8d 94 7f 3e ce 13 93 3e e8 fa 0a 3e 74 94 25 3e
       0.24959011 0.28726047 0.13572276 0.16169912
000180 16 ae 24 3e 08 42 83 3d 2a 9b 13 be 64 74 65 3e
       0.16082034 0.06409079 -0.14414659 0.22407681
000190 18 df cb bc 31 a9 ed 3d de 94 5c 3d 21 ee 5d 3e
       -0.024886653 0.11604536 0.05385291 0.2167287
0001a0 de 9f 34 be f6 2e 18 be d6 87 12 be dc 0e 06 3e
       -0.1763911 -0.14861664 -0.1430963 0.13091606
0001b0 40 ae 33 be 1e 8a e8 3d 37 f0 a3 3e e8 64 27 bd
       -0.1754694 0.11354469 0.32019207 -0.040867716
0001c0 40 09 cd bc e9 e9 a4 3d a8 00 89 3e 97 ba 23 bd
       -0.025028825 0.08052427 0.26758313 -0.039972868
0001d0 d0 19 60 3d 4c 26 a5 3d a6 9b 53 3e 88 d9 6a 3e
       0.054712117 0.08063945 0.20664844 0.22934544
0001e0 de 5f c6 bd c5 b2 82 bd f0 2d 0c 3e 10 0e 16 bd
       -0.09686254 -0.06381754 0.13689399 -0.036634505
0001f0 29 21 82 bd de 71 1d 3e 14 28 0e 3e 30 f5 2b 3d
       -0.06353981 0.15375468 0.13882476 0.041981876
000200 1c 8f 4e 3e ea 57 5b 3e 47 a9 d7 bc 9c 6a ff bd
       0.2017178 0.21420255 -0.026325835 -0.12471506
000210 a5 05 dd bd 74 35 0f bd 69 be 49 be 99 5b aa bd
       -0.10792092 -0.034963086 -0.19701542 -0.08318252
000220 47 a3 4f be 80 71 5c 3c c4 15 e2 bd 21 53 3f 3e
       -0.20277129 0.013454795 -0.11039308 0.18684055
000230 a8 c3 eb 3d 47 c6 2d 3e 00 a6 4d 3e 15 dc 80 bd
       0.11511928 0.16970168 0.20082855 -0.06291977
000240 10 ec ce 3d 33 2f 7e 3e 03 9e 6e 3e f3 48 24 be
       0.10103619 0.24822693 0.23302464 -0.16043453
000250 08 1d 26 bd 8f f6 59 be cc 2f bf 3d 8f ee 84 be
       -0.04055503 -0.21285461 0.093352884 -0.25963256
000260 d5 f3 86 be 60 36 66 bc 44 a7 29 3e 60 12 e0 bc
       -0.26357904 -0.01405105 0.16567713 -0.027352512
000270 53 ad 1a be d7 45 d1 3d 94 95 5a 3e 8e b4 f8 3c
       -0.1510518 0.10218399 0.21346122 0.030359533
000280 a7 ef 57 3e 10 1d 84 bc 71 5c f8 bd 26 22 83 3d
       0.21087514 -0.01612714 -0.12127007 0.06402998
000290 96 ea 82 be b0 49 43 be 0a b5 77 3d bd 9f ef bc
       -0.255696 -0.19071078 0.060475387 -0.029250974
0002a0 1d d2 71 bb 88 b3 8f 3d d0 81 c0 bc 2f 3b 27 be
       -0.003689892 0.07016665 -0.0234994 -0.1633117
0002b0 ec 2c d6 3d 82 24 29 3e 56 9a de bd 0e 99 85 3d
       0.10457787 0.16517833 -0.10869281 0.065233335
0002c0 58 27 6c 3e 0c 94 77 3e b0 33 d3 3d 8d 53 53 be
       0.23061883 0.24177569 0.10312593 -0.20637341
0002d0 30 42 8c bc cf 59 ac 3d 00 dc 1d bc f8 1d fd bd
       -0.017121404 0.08415567 -0.009634972 -0.12359232
0002e0 28 51 97 3c dc 94 56 bd 20 10 72 3c c8 d3 0a be
       0.018471316 -0.052388057 0.014774352 -0.1355735
0002f0 92 fd 33 bc ed 87 1a 3e 70 82 11 bd df da 41 be
       -0.010985749 0.15090914 -0.035524786 -0.18931149
000300 2a 31 85 3c a0 da d0 bd b3 0a 6b 3e 02 ae 4b be
       0.016258795 -0.101979494 0.229533 -0.19890597
000310 9c d3 24 be 89 e1 3f 3e 70 ac 6b 3e 58 de 0f be
       -0.16096348 0.18738379 0.23014998 -0.14049661
000320 b2 c1 74 3e 1e 68 7f 3e a0 df 85 3c 97 4e ef bd
       0.23902014 0.24942061 0.016341984 -0.11684912
000330 38 f6 d2 bd 57 28 6b be eb 68 43 3e b6 0e 07 3d
       -0.10300869 -0.22964607 0.19082992 0.032973014
000340 4e 94 2c be f3 df 34 3e 30 3e 5b be 66 0b 0c 3d
       -0.16853449 0.17663555 -0.21410441 0.034190558
000350 b0 0f 06 3d a5 8e 43 be 5c 79 ef bd b1 30 c5 bd
       0.032729805 -0.19097383 -0.11693069 -0.09628428
000360 97 3d 35 3e 21 93 38 3e c8 b7 c5 3d 6e be 6e be
       0.17699276 0.18024875 0.09654194 -0.2331483
000370 e5 23 4b 3d ee 06 00 3d b4 dd 49 3e aa 62 07 be
       0.04959478 0.03125661 0.1971348 -0.13221231
000380 c9 27 85 3e 20 7e 13 3d 73 d1 25 be 61 78 80 3d
       0.26006916 0.036008954 -0.1619318 0.062729605
000390 d3 c0 eb 3d dc 80 63 3d a0 f8 20 be c3 5e ed 3d
       0.11511388 0.05554281 -0.15719843 0.1159034
0003a0 03 52 5f 3e 9e cd 3b 3e f2 72 29 be 75 f2 00 be
       0.21808629 0.18340155 -0.16547754 -0.1259249
0003b0 42 98 2c 3e d2 df 4b 3e 42 97 fb 3e 4f 36 93 3e
       0.16854957 0.199096 0.49138838 0.28752372
0003c0 80 f6 78 3c 7d aa e6 bd ff e8 a8 3d ea 30 90 3e
       0.015195489 -0.11262987 0.082475655 0.28162318
0003d0 24 a9 f8 bd c4 50 06 3e fc ca 0e be fe 24 31 be
       -0.12141636 0.13116747 -0.1394462 -0.17299268
0003e0 d5 fb fd 3c 48 80 95 3e 34 5c 50 be cc 85 ff bd
       0.031003872 0.29199433 -0.20347673 -0.124766916
0003f0 58 68 06 be bf a0 dd bb 94 26 bc bd 90 22 32 3e
       -0.13125741 -0.006763547 -0.09187046 0.17395997

lstm1_1.weight_hh_l0_reverse f4 [64, 16]
000000 00 d6 c8 bd ba 8b 9b bd 39 04 3f 3e 47 9a 87 be
       -0.09806442 -0.0759501 0.18653955 -0.26484892
000010 5a d8 73 be 11 cf a7 bd 0d f1 1f 3c be 28 74 3e
       -0.23813 -0.08193792 0.009762061 0.23843667
000020 83 ce 1b 3e e0 5f 04 be ef ca 92 be 95 ef 49 3e
       0.15215497 -0.12927198 -0.2867045 0.197203
000030 60 6f a1 3e 3a 4d 72 be 4a c6 b2 3d 85 68 53 bd
       0.31530285 -0.23662272 0.08729227 -0.05161335
000040 df c4 89 bb fe d3 f5 3d d1 9f 9e 3e 72 40 65 3c
       -0.004204377 0.12003325 0.30981305 0.013992416
000050 55 cd 92 3e 0a b9 de 3e 00 e3 da 3c 61 a3 60 be
       0.2867228 0.4350055 0.02671957 -0.21937324
000060 1a 61 30 3e 80 a6 39 be e5 90 ba 3e 41 69 3d 3e
       0.17224541 -0.18129921 0.3643867 0.18497182
000070 14 cf 96 be 86 c0 e7 3c 12 11 50 3e 76 c0 20 3d
       -0.29454863 0.028290045 0.20319012 0.039246045
000080 cb 05 93 3d c4 d7 96 be 6c 3f c0 bc 75 6a b6 3e
       0.07178839 -0.2946149 -0.023467742 0.35628095
000090 09 3e 14 3e 6f e2 a7 bc ce 35 cf 3d 89 b9 13 3d
       0.1447679 -0.020493714 0.10117684 0.036065612
0000a0 be 04 0c be 53 a1 62 3d bf 5c 76 3d 8f 70 1b 3e
       -0.13673684 0.055329632 0.060147043 0.15179656
0000b0 4e a8 84 be 71 f1 d5 3d b5 27 aa 3d 39 d9 7b bd
       -0.25909656 0.10446442 0.08308355 -0.061486457
0000c0 ba e6 84 be cf fc a6 3e 6d 5f 5e 3e 63 db 0c be
       -0.2595728 0.32614753 0.2171609 -0.13755564
0000d0 7b 08 47 3e 00 88 a0 3d df ae 97 3d 8e 26 8a 3e
       0.19436829 0.0783844 0.07406401 0.2698254
0000e0 d0 95 9a 3d 3f 46 01 be 11 a5 22 3e 66 04 85 3d
       0.07548106 -0.12624453 0.1588328 0.064949796
0000f0 87 de 54 3e c3 c4 2c be 94 22 07 be 30 14 89 bd
       0.20788012 -0.16871934 -0.13196784 -0.066933036
000100 4e cb 2a bd db cd e2 3d e4 4c f1 bc 45 f9 33 bd
       -0.041697793 0.1107442 -0.02945561 -0.043938894
000110 64 81 6a 3d fc 07 ec 3d 08 a1 1f be 3d 91 65 3e
       0.057252303 0.115249604 -0.15588772 0.22418685
000120 40 51 02 3e 4f 65 c6 3d 57 b4 42 be ab a8 19 3e
       0.12726307 0.09687292 -0.19014107 0.15005748
000130 11 8b 0b 3e 58 62 7a 3b 1f 33 70 be 8e 5a 65 3e
       0.13627268 0.003820559 -0.23457001 0.22397825
000140 09 c5 02 3e 0e f3 4b 3e 78 d7 02 3e 55 58 f4 bc
       0.12770475 0.19916937 0.12777507 -0.029827276
000150 75 69 8b bd 86 2c 5b 3d 07 55 8e 3d 77 55 1d 3e
       -0.06807224 0.053509258 0.069498114 0.15364634
000160 b3 33 b2 bd 09 87 e0 3d 3e 4b 8a be 63 fe 01 be
       -0.08701267 0.10963256 -0.2701053 -0.12694697
000170 23 23 01 3d 61 74 60 3e ad 30 10 3d d3 a4 1e 3e
       0.03152765 0.21919395 0.03520267 0.15492563
000180 13 f8 5c 3e a6 3f 2d 3c 6f ec 43 3e aa 30 4d bc
       0.21579008 0.010574257 0.19133161 -0.012523809
000190 ec ae d4 bd b3 75 77 3e c5 85 3d be 41 5b 38 be
       -0.10384926 0.24165992 -0.1850806 -0.1800356
0001a0 07 3f ce 3d 42 ca 83 bd 33 b8 3f bd df 9a 1b be
       0.10070615 -0.06435062 -0.046806525 -0.15195797
0001b0 b5 be 33 bd 63 f3 31 be f2 d5 4f be 7c e3 12 3e
       -0.043883044 -0.17378001 -0.20296457 0.14344591
0001c0 b4 8f db bd 1a 11 30 3e a1 71 ac bd a0 4e 3f be
       -0.107207686 0.17194024 -0.084201105 -0.18682337
0001d0 1e 14 f8 3d 35 73 74 bd fd d6 7a bd 62 3c 4d 3d
       0.12113212 -0.059680182 -0.061240185 0.050106414
0001e0 a4 5a 03 be 64 55 cc 3d ce a8 9e be b9 d6 2c 3d
       -0.12827545 0.099772245 -0.30988163 0.042196963
0001f0 9b 6e 58 3e 78 78 05 be 14 1b 2e 3e bf eb 6c 3d
       0.21135943 -0.13034236 0.17002517 0.057842012
000200 fd 5f cb bd eb 50 38 bd bd 9c 52 3e 7a 6a 25 3c
       -0.09930418 -0.044999044 0.20567603 0.010096187
000210 62 26 93 be 79 43 7d be 45 00 44 3e 5c e4 83 3e
       -0.2874022 -0.2473277 0.19140728 0.25760162
000220 3c e1 b2 3d 08 ca 90 3e 13 86 33 3e a8 3b f9 3d
       0.08734366 0.28279138 0.17531614 0.12169582
000230 79 da 9d bd ee 84 a1 3d 08 99 44 3d 24 e4 77 3e
       -0.07707686 0.078866825 0.047997504 0.24208122
000240 10 f0 47 bd 28 0e 1d bd cf 09 98 3d d9 9c 6c 3d
       -0.048812926 -0.03834358 0.07423746 0.05776677
000250 8c f2 f6 bd f2 6c 38 3d 58 2a b5 bd e2 30 e3 3d
       -0.12057981 0.045025773 -0.08845967 0.11093308
000260 55 ba 5a bd 3c 17 3d 3d a5 67 d7 bd 40 a8 95 3d
       -0.053400356 0.046164736 -0.105178155 0.07307482
000270 14 13 59 3e 2f 6d 30 3e ba 6b 6c be eb 8a 09 be
       0.21198684 0.1722915 -0.2308797 -0.13431899
000280 0b 2b 40 3e 8b 1f 77 3d 09 10 98 bc ab 8b 0d 3e
       0.1876642 0.060332816 -0.018562334 0.1382281
000290 c0 69 59 3e bd e6 d2 3d ae f5 b9 bd 81 00 0b 3e
       0.21231747 0.10297916 -0.09080063 0.13574411
0002a0 b0 6b 28 bc ae 0a 90 3e 53 9e 98 3b 05 46 d8 3c
       -0.010279581 0.28133148 0.0046575456 0.026400575
0002b0 e9 50 8a 3d ea a8 15 3e 95 f8 30 3d 36 8c 99 3d
       0.06753714 0.14615217 0.043205816 0.07497446
0002c0 54 b9 3f be 47 07 fe 3d 88 51 a7 3d cf 0e 51 3c
       -0.18723041 0.12403732 0.08169848 0.012759878
0002d0 93 73 b9 bd ea 40 06 3e 03 db 55 bc 83 ed 65 be
       -0.09055247 0.131107 -0.013052705 -0.22453885
0002e0 dc c3 4f bd aa 21 e5 3c 4d c1 18 be cc 75 ea bd
       -0.050723895 0.027970154 -0.14917488 -0.11448249
0002f0 75 f8 97 3e ba 30 a5 3d b8 a7 29 3e 59 b5 76 3e
       0.29681745 0.080659345 0.16567886 0.24092616
000300 d7 c6 c2 3d e2 73 98 bd 5e a8 98 bc 32 d6 c8 bd
       0.09510582 -0.07443978 -0.018634971 -0.098064795
000310 47 9f d8 bd a8 d8 48 3e 52 ed b6 bc c4 02 91 be
       -0.10577255 0.19613898 -0.02232996 -0.28322423
000320 ed cc c7 bd 67 2b 17 be df 4a 13 be 42 dc 3e 3e
       -0.09755883 -0.1476265 -0.1438403 0.18638709
000330 8a 36 93 3d ec bc 12 3e d6 37 68 be ac 9f 56 3e
       0.07188137 0.1432988 -0.2267755 0.20959347
000340 50 5f 59 be ec 61 fd bd ca ae 77 3e fa 8c 45 bd
       -0.21227765 -0.12372193 0.2418777 -0.04823015
000350 69 28 2b be 9a b5 da 3d 33 ef 1e 3e a3 ec 91 bd
       -0.16714634 0.10679169 0.15520935 -0.07125213
000360 87 7e c6 3d cb a0 40 3e 7e 51 65 bd 2d c7 61 be
       0.09692102 0.18811338 -0.05598592 -0.22048636
000370 9a 4d 6a 3e 10 b5 44 3d e8 ce 7d be 21 31 27 3e
       0.22881165 0.048024237 -0.2478596 0.16327335
000380 8a ef 58 bc 76 84 40 3d 2a b0 52 3e 18 61 71 bd
       -0.013240704 0.047001325 0.20575014 -0.058930486
000390 bd 69 4d 3e dc 6a 7c be 7e 09 09 be 57 c9 e0 3d
       0.20059867 -0.24650139 -0.13382527 0.109759025
0003a0 95 f7 17 be 2c 31 54 be 10 b9 b9 3c 44 63 08 3e
       -0.14840539 -0.20721883 0.022671252 0.13319117
0003b0 ca e0 3d bd 82 2c d8 bb 36 a8 99 bd 28 e7 bd 3c
       -0.046356954 -0.0065971026 -0.07502787 0.023181513
0003c0 06 72 20 3e 88 6e 3e 3d d5 65 8a bd 94 2e 2b 3d
       0.15668496 0.04649213 -0.06757704 0.041792467
0003d0 93 49 3b bd 71 c2 02 be 94 0f 02 be 35 6d 80 be
       -0.045724463 -0.12769486 -0.12701255 -0.25083318
0003e0 f6 19 83 3e 87 03 1c be 88 91 5c bb de 0b 5c 3d
       0.25605744 -0.1523572 -0.003365608 0.053722255
0003f0 95 74 e0 3d 4f 74 97 3e 98 e2 28 be 40 5b 0d 3e
       0.10959736 0.29580924 -0.16492689 0.1380434

lstm1_1.bias_ih_l0_reverse f4 [64]
000000 24 c7 31 3d 42 bd 67 bd fe 44 65 bc f0 b4 42 3e
       0.043402806 -0.056576975 -0.0139935 0.19014335
000010 eb b9 52 3e f2 d9 4f 3e 88 62 ac 3c 93 f3 85 3e
       0.20578735 0.20297983 0.021043077 0.26162395
000020 de 00 8f 3e ab 0f 68 3e ec 68 6a 3d fd fe 0a 3e
       0.2793035 0.22662227 0.057228968 0.13573833
000030 83 ae a0 bc 79 3e 0e 3e f6 b9 78 3e 7d 3d da bd
       -0.019614464 0.13891019 0.24289688 -0.10656259
000040 6d 3a 31 3e 17 bf 15 3e 6c 7e d9 bd 52 69 59 3e
       0.17307444 0.14623676 -0.10619816 0.21231583
000050 b1 f7 41 3e ef a0 a6 3d bc 56 24 be 52 47 9c bd
       0.18942143 0.081361644 -0.16048712 -0.07630791
000060 12 81 4a bd fc b8 01 be 94 9b 0c be 46 05 f4 bd
       -0.049439497 -0.12668222 -0.13731223 -0.11915068
000070 8b 92 7c 3d fc f9 22 be c0 a3 73 be 3d 34 09 bd
       0.06166319 -0.15915674 -0.23792934 -0.033497084
000080 e9 e3 35 be e1 93 4d be ab 26 01 3e b9 61 6a be
       -0.17762722 -0.20075943 0.12612407 -0.2288884
000090 55 1e 11 be 3a ae 09 3e f1 06 06 3e 56 60 d8 3d
       -0.14171727 0.13445368 0.13088585 0.105652496
0000a0 7e e5 21 be 80 68 e5 bc 6c a2 69 bd 1a dc 3e 3e
       -0.158102 -0.028003931 -0.057039663 0.1863865
0000b0 ea ca 37 be 7a 34 b9 bd 92 36 2c be 88 e8 40 3e
       -0.179485 -0.09043212 -0.16817692 0.18838704
0000c0 9b 2e 3d 3e 26 b9 da 3d 05 b8 45 3e 69 48 93 3d
       0.1847481 0.106798455 0.19308479 0.071915455
0000d0 60 10 35 3c 9a 0e 32 be dd cf 73 3e c6 f5 4c 3e
       0.011051267 -0.17388383 0.23809762 0.2001563
0000e0 f3 6d fd bd e3 a6 66 3e 5f 68 eb 3c 41 dd 34 3d
       -0.12374487 0.225246 0.028736291 0.044156317
0000f0 d2 25 66 3e cc 23 2c 3e 4a 42 82 bd 79 c7 d1 bd
       0.22475365 0.1681053 -0.063603 -0.102431245

lstm1_1.bias_hh_l0_reverse f4 [64]
000000 84 2f 1b be 06 05 5f 3e c4 56 58 be cd 2b 17 3e
       -0.15154845 0.2177926 -0.21126848 0.14762802
000010 1d e0 4f 3e 96 c5 38 bd 92 be 0d 3e 83 38 6e bd
       0.20300336 -0.045110308 0.13842228 -0.058159363
000020 ac 69 c9 3d 30 c7 0f 3e 36 61 f0 3d f8 9b 6e 3e
       0.098346084 0.14040828 0.117372915 0.23301685
000030 24 f3 08 be 24 da cf 3b 1b bf 8b 3d 77 22 3b be
       -0.13374001 0.006343143 0.0682356 -0.18274866
000040 63 58 80 3d 24 e2 94 3e 6a 8d 48 be 28 b0 30 be
       0.062668584 0.29078782 -0.19585195 -0.17254698
000050 b9 fb 1d be 65 41 3f be 8c a2 27 3e 7b e9 eb bd
       -0.15428056 -0.1867729 0.163706 -0.11519142
000060 93 09 10 bd 75 51 7a 3d 6e 35 2f be f1 3c 1f be
       -0.03516538 0.06111284 -0.17110226 -0.15550591
000070 f6 68 fd 3d 53 da ce 3d ec 1c 30 3d e6 2e 58 be
       0.12373535 0.10100236 0.042996332 -0.2111164
000080 a9 e1 4a be a7 50 70 3e 68 03 1b 3c 7c c4 aa 3d
       -0.19812645 0.23468266 0.009461261 0.08338258
000090 54 07 19 3d d7 b1 3b bd 95 ea f6 3c d4 a8 08 3d
       0.037360504 -0.0458239 0.030141154 0.033364132
0000a0 01 ea 32 bd 2f 76 11 be d6 43 ba bd 72 74 22 be
       -0.043680195 -0.1420524 -0.0909497 -0.15864733
0000b0 f8 3d 00 bd d8 37 02 bd 7e 90 1f 3e 1e 75 62 3b
       -0.031309098 -0.031791538 0.15582463 0.003455467
0000c0 55 ed 64 be 21 df 8a 3e ec 31 b9 3b e1 a4 09 be
       -0.2235616 0.2712336 0.005651703 -0.13441803
0000d0 b7 c2 24 3e 29 29 cd ba 7b 3b 38 be 48 d4 39 be
       0.16089903 -0.0015652525 -0.1799144 -0.18147385
0000e0 fc f8 46 be 55 3a bf 3d d8 79 96 3d f9 22 4c bd
       -0.19430918 0.09337298 0.073474586 -0.04983804
0000f0 97 a3 f8 bc 8a 59 29 be 3c e2 60 3e b0 8e 4d be
       -0.030351443 -0.16538063 0.21961302 -0.20073962
