results/voltage_window_effect/V(3.5-3.9)/Experiment3(25-CC-1)/from_Dataset 3_ft_model.pth (torch, 95756 bytes, 27 tensors)

cnn1.0.weight f4 [16, 1, 3]
00000000: a827 183f 1ae4 e63e 7c1b 973e be26 b7be
00000010: ce66 be3e 8782 8f3e 8c1a f73d 7882 d43b
00000020: e275 0f3f 7e61 a9be b397 98bd 45ff fd3e
00000030: b393 b8be a8af 8c3e 61f2 d3bd 9f30 cebe
00000040: b736 b93c b561 e73d 3355 6cbe 69b2 febb
00000050: 0d1b 563e bcd5 9b3e bf6a 5dbd 59cb 16be
00000060: 5103 ccbe 5292 883e e7ac 043f 03a8 803e
00000070: da11 d83e e269 74be b24c bd3e 08f1 abbe
00000080: 5c72 1c3f 1eb8 123e 6e9a ac3e 567f b7be
00000090: fb08 45be ea21 e7be 36f9 5a3e a57c ddbe
000000a0: 3554 03bf 0cf6 943e 968f 7abe 6cc8 263e
000000b0: 002b 1a3f 99b3 523d 85c5 c2bd 4c02 d3be
0.5943551 0.45095903 0.29513156 -0.35771745 0.3718781 0.28029272 0.1206561 0.0064852796
0.5603925 -0.33082193 -0.07450809 0.49608818 -0.36050186 0.27477765 -0.103489645 -0.4027147
0.022609098 0.11297933 -0.23079376 -0.007772733 0.20908757 0.30436504 -0.05405688 -0.14726008
-0.3984628 0.26674134 0.5182633 0.25128183 0.4220112 -0.23868516 0.36972576 -0.3358233
0.61112 0.14328048 0.3371157 -0.35839337 -0.19241707 -0.45143062 0.21384129 -0.4325916
-0.51300365 0.2909397 -0.24468836 0.16287392 0.6022186 0.05144081 -0.0951033 -0.4121269

cnn1.0.bias f4 [16]
00000000: 5b2e eabe ff66 123f aaa6 90be f52c a73e
00000010: 799d 5d3e 6c79 873e 35db fe3e 0770 143f
00000020: 9004 1b3d 8b5d debe 03c4 5b3d 6b43 d1be
00000030: fb59 67be 1102 ad3e 00e7 05bd e6d4 01bb
-0.4573849 0.5718841 -0.28252155 0.32651487 0.21642102 0.26459825 0.49776617 0.5798344
0.037846148 -0.43430743 0.05365373 -0.40871748 -0.22592919 0.3379064 -0.032691002 -0.0019810735

cnn2.0.weight f4 [32, 16, 3]
00000000: afd1 a1bd 3e17 c7bd bdd8 96be b131 043e
00000010: e8fb b93c 075e 0d3e abfa 64bb 57a0 a8bd
00000020: e1cf e4bd 549a 3ebd e91e 953c 7987 e83c
00000030: 5467 6c3e 2646 023e 4573 753e 7eb3 393e
00000040: d656 0f3e d4a4 4e3d f4d7 193e 645b 87bd
00000050: ba42 59bd 60b7 cdbd d106 d83d c0c6 0d3e
00000060: 957c ba3d f4fd c73d c2a1 653d 9845 063d
00000070: 6934 e23c 5a58 bcbd 3aca ddbd e174 1abe
00000080: 95b4 ebbc 7179 e23d 987d 063e 0b24 44bd
00000090: aad4 e6bd b2c7 f6bd 9f7c c4bd e34c 953d
000000a0: 21d9 353e bd6e 593e a66f be3d be3f 00be
000000b0: 388e 01bc 644d 0bbe 32ef d93d 1e5a eb3d
000000c0: d8d6 483e 0b3c f33a e8bc eb3c 0649 e23d
000000d0: c8f2 af3d a72a a5bc 16d2 6c3d 597a 5b3e
000000e0: 66b3 8a3e f648 733d f5c7 b23d 079b 043e
000000f0: c918 e0bc a9aa 1dbd e27e 82be 95fe a6bd
00000100: c480 c33d 1272 e93c 81d2 0cbe 42c7 44bc
00000110: 94c9 e43d 2ee5 cabb 5242 07be 4015 e23d
00000120: c4a3 d4bd d66b 04be e15b de3c d096 62bc
00000130: 43b6 cabd 73d8 adbd 71eb 103e f749 b6bd
00000140: 3f0a d3bd 1168 0a3e e546 12be 2204 a7bd
00000150: bd6d b9bc 7000 d0ba 74b2 d2bd f1a0 893d
00000160: be04 47bc b642 b1bd 0e66 c13d 5093 9f3d
00000170: f42d 4ebd 1a31 d83d b893 213d 40c3 c83c
00000180: c187 6a3d 191a cabd fdad f8bd 0e3d 03be
00000190: 6e9d 903d 1da0 39bd 9926 053d 9317 28bc
000001a0: 1a30 f2bd b31b 13be e66a edbd e60e 91bd
000001b0: 9caa 4cbd d1b7 a6bd 1c38 133e 0c2a 243d
000001c0: b469 dcbd 3ccc d5bd d9b3 92bd f163 f83d
000001d0: 92cb 013e c9ad e93d f83a 6f3d 1b3f 0ebd
000001e0: 7e23 8ebd 0ada 643c d362 09be bee8 783d
000001f0: 4b13 053d d85f 9e3c 4082 0cbe 6646 ecbd
00000200: c0eb 103d ad84 063e 729d d63d ef75 0abd
00000210: 9bb1 ed3d b32a a8bc 7f95 c7bd a6a9 adbd
00000220: 0ac5 fdbd 51c3 e43d b57b 8d3d 4b7b 8cbb
00000230: 2497 133e d53b 39bd c4bd a0bd aa4d f33c
00000240: 9e10 7c3d d7c8 273b 2f1b 5abc 4045 85bd
00000250: 0ec6 bb3d 16c8 ef3d a8a0 bf3c c9fd b73d
00000260: 94b5 09be 562a bb3d 5ec1 eebd 6735 93bd
00000270: 44d0 86bd 4322 953c d6e4 9f3c 7454 eebd
00000280: 0b9d 1ebb b1b4 493d 2dd9 01be f98f e9bd
00000290: 40b3 343d bea5 ed3c d400 b1bc fea0 cebd
000002a0: 0361 30bd 6d38 3cbd 58ae 093e fa1b b4bd
000002b0: a833 e7bd 5965 a13c 6a9e dabd f929 a03c
000002c0: 78e2 913d 38a2 07be b5c0 183d fa91 2b3d
000002d0: 1813 9d3d 8aa8 963d a80f 2bbc 0efd dc3d
000002e0: 3baf 9e3c 81ba e83a f794 553d 1781 c9b9
000002f0: 3d25 fabc ca98 3b3d 1548 b8bc 90ce eb3d
00000300: 1f6e d2bc 779b 8ebd 2874 a8bd 3132 283d
00000310: d33c ea3c 14f2 f6bd f32a dc3d 06da fabc
00000320: d360 d33d bdfc 8fbd 979d 923d 0b7b b63d
00000330: 0d17 233e 549c 0f3e 9c2d a6bd 98f4 df3d
00000340: b9a4 4a3c 962c f6bd 7afd ff3c 5620 c6bd
00000350: 3424 d23d 506d 24bd a303 1cbe 5e04 41bc
00000360: a298 e0bd 8180 d3bd 9fbf f23c 2607 81bc
00000370: 1599 debd 5d8c d23d aeff 113d 0cfe b9bd
00000380: b926 16bd 090a 35bd 3a71 e53d eabd 983b
00000390: b3c0 0b3d cd15 093c ce12 c4bd 203c 0a3e
000003a0: 68d9 b83c 6e25 26bd bddb f33c d821 9ebd
000003b0: b2c1 e53c 9e78 063e e94f 053e 2190 d4bb
000003c0: 07a3 813c acbd 40be df31 2cbe a7bf 703c
000003d0: 1593 f43d 51dc 423e eebb cdbd 0e4f a83d
000003e0: d430 a5bd c8c4 f4bc 9f27 62bd ee6c e53d
000003f0: 117a 6f3e f14c 933d 6168 a43e 9594 d63d
-0.07901322 -0.0972123 -0.29462233 0.12909581 0.022703126 0.138054 -0.0034939449 -0.082337074
-0.11172462 -0.046533898 0.018203216 0.02838491 0.23086292 0.12722072 0.23969753 0.18134877
0.13997969 0.05045016 0.15023786 -0.06609228 -0.05304215 -0.10044742 0.10548175 0.13845348
0.091057934 0.097652346 0.056062467 0.032781214 0.027612882 -0.09196539 -0.10829587 -0.15083648
-0.028772632 0.11058319 0.13133848 -0.047885936 -0.11271031 -0.120498076 -0.09594082 0.072900556
0.1775861 0.2123365 0.09298639 -0.12524316 -0.007907443 -0.13603741 0.10641326 0.11491798
0.19613206 0.0018557323 0.028776601 0.11049084 0.08591229 -0.02016194 0.05781754 0.2143339
0.27089995 0.059395753 0.08729545 0.12949763 -0.027355568 -0.038492832 -0.2548743 -0.081540264
0.095460445 0.028496776 -0.13752176 -0.012010397 0.111712605 -0.006191871 -0.13208893 0.11039209
-0.10382798 -0.12931761 0.02714342 -0.013829902 -0.09898045 -0.0848855 0.14152314 -0.089008264
-0.10304689 0.1351626 -0.14284857 -0.08155085 -0.022635335 -0.0015869271 -0.102879435 0.0672015
-0.012147127 -0.08655302 0.094432935 0.077917695 -0.050336793 0.105562404 0.039447516 0.024507165
0.05725837 -0.09868259 -0.12142561 -0.1281626 0.07061277 -0.04531871 0.032507513 -0.010259527
-0.11825581 -0.14366035 -0.11592655 -0.0708292 -0.049967393 -0.08140529 0.14376873 0.04007916
-0.10762349 -0.10439345 -0.071632095 0.12128437 0.12675312 0.114101 0.058405846 -0.03472815
-0.06940363 0.013968 -0.13416605 0.060768835 0.032489102 0.019332811 -0.13721561 -0.11536865
0.03538108 0.1313655 0.10479249 -0.033803876 0.11606141 -0.020528173 -0.09745311 -0.084796235
-0.12391098 0.11170066 0.06908361 -0.0042871586 0.14413124 -0.045223076 -0.07848695 0.029700119
0.061539285 0.0025601888 -0.013312145 -0.06507349 0.09168635 0.11708085 0.023392037 0.089839526
-0.13448173 0.09138934 -0.116579756 -0.0718792 -0.06582692 0.018204814 0.019518297 -0.11637202
-0.0024202492 0.049244586 -0.12680502 -0.11404414 0.04411626 0.029009696 -0.02160684 -0.100893006
-0.043061268 -0.04595225 0.13445413 -0.087943986 -0.112891495 0.019701647 -0.10674746 0.019551264
0.071232736 -0.13245475 0.037293155 0.04188726 0.076696575 0.07356365 -0.010440744 0.10790454
0.019370666 0.0017755778 0.052144017 -0.00038433887 -0.030535335 0.045800008 -0.022495309 0.11514008
-0.025687275 -0.06963246 -0.0822528 0.04106349 0.028593456 -0.120578915 0.107503794 -0.03062154
0.10321202 -0.07030628 0.07158964 0.08910187 0.15926762 0.14024478 -0.08114168 0.109353244
0.0123683745 -0.12020223 0.031248797 -0.09674136 0.102608114 -0.04014331 -0.15235762 -0.011780826
-0.109666124 -0.103272445 0.029632388 -0.015750479 -0.10869042 0.102806784 0.035644226 -0.09081659
-0.036658023 -0.044199023 0.11203237 0.0046613114 0.03411932 0.008367014 -0.09573899 0.13499498
0.022564605 -0.04056304 0.029767865 -0.07721299 0.028046463 0.1313195 0.13018765 -0.006486908
0.015824808 -0.18822354 -0.168159 0.014694131 0.11942116 0.19029357 -0.1004561 0.082182035
-0.08065954 -0.029878989 -0.055213567 0.11202417 0.23386408 0.0719241 0.32110885 0.104775585

cnn2.0.bias f4 [32]
00000000: 6fe9 fb3c e4d6 d33b 415e cabd e5a7 0ebd
00000010: ee31 a03d dba1 553e ae50 803d b776 62bd
00000020: 6685 c73d a363 fd3d 624a a2bd e123 c63d
00000030: 317d af3d c9d8 d73c b1b4 01be 39a6 063e
00000040: c17a acbd d9a8 293d b559 c5bd a1a8 eebd
00000050: 89cc 6cbd dec4 d4bd cd60 68bd 4bcc d8bb
00000060: 9509 1b3e 7ea5 f8bd 5403 713c 44a3 cc3d
00000070: 10cb 303d f9f4 1e3e 4e47 25bd 8ccd b13c
0.030750958 0.006464826 -0.09881259 -0.034828085 0.07822023 0.20862524 0.062653884 -0.055288997
0.097422406 0.1237252 -0.07924344 0.09674812 0.085688 0.026348488 -0.12666585 0.13149346
-0.08421851 0.04142079 -0.09636251 -0.11653257 -0.057812247 -0.10389112 -0.05673294 -0.0066161505
0.15140374 -0.1214094 0.014710266 0.09992078 0.043162405 0.15523137 -0.040351205 0.021704458

lstm1_1.weight_ih_l0 f4 [64, 32]
00000000: 415e bfbd 642e 7e3d d00f febc 6001 ec3d
00000010: 78ae 86be 07d4 26be 2122 c63b 04f3 0ebe
00000020: b26f 8a3e 4b45 abbd 9c15 8c3e fe6a 583d
00000030: 18cc d43d 4827 5d3d 7458 e23d 3dc9 193e
00000040: a060 60be 2e3e 36bb 3e36 033d 56b1 6dbe
00000050: 8f3c 7cbd b02a 313d c65f 5dbe 9f22 053e
00000060: 9712 92be 7c8d 0fbe c8b7 47be ac22 60be
00000070: 4899 ed3d a915 3abe fe4b 68bd 86aa 87bd
00000080: f884 4c3d f7eb 4bbe c098 873c 2a0d 79be
00000090: cdfb 54bd 4455 763e 673c 84bb 0e8f 22be
000000a0: 5958 7b3a cdf6 e13d c743 873d d136 82be
000000b0: 7856 563d 202a ef3c 00c6 063c 1fb7 58bd
000000c0: 9078 65bd e096 353e 0029 b53d c07d 8cbc
000000d0: 3f9b 153c 0066 68be 862f 57be 499e 313e
000000e0: b8a1 8b3e 00b6 49be 6ed9 18be 5faf 903e
000000f0: 8c7e 2c3e f940 78bd aa48 0b3d 336f cc3d
00000100: 8423 39be 945f d53c 38bb 0a3d 0075 723e
00000110: b8e0 443e eeea 8f3e de97 7cbe 50ff 09be
00000120: b397 343e 420b 6b3e 2026 77be 1c8c 893d
00000130: 40ea 5ebe 086a b7bd d60b 4e3e a713 103e
00000140: 06b9 41be 36bd ed3d 1da8 af3d 7437 c7bd
00000150: a5c5 e83d 3066 603d 463e 693e 0f2f f73d
00000160: 1175 cbbc 0bb4 e5bd da90 2bbe ad79 cebd
00000170: 9c65 0cbe 9b5b 723e ccc7 2f3e f9a9 183e
00000180: e9d1 acbc b445 9b3e 461e 45be 9057 5fbd
00000190: a55d fabd b9cd febd 3a15 0abe 747e bfbd
000001a0: 4661 d73d e924 bf3d b713 01bc 467d fdbd
000001b0: 1a7d 463e cc81 463e e8a2 753d 195d c3bc
000001c0: 363d 14be 8cfe f83a f7c2 ad3d ce4a 683e
000001d0: 241d 3ebe 4008 a0bc 48ee 50bd ad30 c0bb
000001e0: a391 ee3d 3c0f 0cbe 4af1 3d3e 5564 543e
000001f0: a836 64bd b832 643e 9dd9 27be e543 5cbd
00000200: cafb a63d baad 5f3e 0c42 193e 8082 e5bb
00000210: 6baf 3abe e077 1ebe 3496 6e3e a05f 45be
00000220: 60dd 24be 8eff 22be ecc5 9c3e 827a fe3d
00000230: 0878 563e aa37 263e 68fa adbd 8e45 b63e
00000240: 30d2 233e 3470 18be a7d5 3ebe 8642 79be
00000250: dc56 c83e 1ae5 723e a016 d33d 9253 11be
00000260: c6f5 f4bd 1ded 2ebe de31 3bbe 6cc9 dabd
00000270: a2c4 373e c1a3 0c3e 47ac 173c a590 25be
00000280: 3398 5d3e 7fd9 24bd aa2c 39be 008e 6fbe
00000290: a09e 443e b610 0b3e 8aee 1bbe be19 1fbe
000002a0: 87c6 18be 5bb3 90bd a7fa be3d f384 8abc
000002b0: cc46 6b3e 80c0 aabd 283b 513e 4059 713e
000002c0: f8d9 283d f723 74bc ea1c ddbd 20ad f0bc
000002d0: f896 a93e 9017 b8bd 74b9 4cbe 476d 41bd
000002e0: 7728 b8bd eac8 0e3d 00e0 7038 6658 3fbd
000002f0: baa7 4b3e e319 09be 54eb 16be eb30 273d
00000300: 2e8c f3bd 9bbc eb3c c069 6e3d 7491 71be
00000310: 4e0d 60be d81b 86be 5fe1 6ebe 88f3 4dbe
00000320: cca8 5e3e a9a7 2bbe 0b18 d5bc 91ab 083e
00000330: a28e 2d3e 88d8 3a3d 0459 1abe 91a7 043e
00000340: 28d8 4cbe 3e09 5e3d 0544 3cbc a8e1 8f3d
00000350: a1e8 193e 489d 023e c0a8 bcbd 8f77 363e
00000360: 7d0f 0b3e 016a 403e 5223 063e bebe 99bd
00000370: 6c7d 1cbe b244 f9bd 24c2 56bb 46f5 debb
00000380: 02fc 823d 680a d33d def2 123e 9e93 183e
00000390: aeaf 3d3e c05e c43d 5ef3 603e ccfd 2e3e
000003a0: 0499 343e 4245 26bc fa42 4abc 22d6 a0bd
000003b0: 828c 18be f685 5fbe 444c edbd 81b9 153e
000003c0: 7e66 3a3e 1a44 9cbd e9ed 1a3e a09c 8dbd
000003d0: eda3 7a3e 7a6f 783e c04c e43d 18fe 03be
000003e0: dd84 a9be 1eaa 4e3d 54c4 ddbd b58f 173e
000003f0: 80d4 493e 7ccf f9bd abfa c4bc 0eae a23d
-0.093441494 0.06205596 -0.0310134 0.115237 -0.26304984 -0.1629182 0.006046549 -0.1395989
0.27038342 -0.08362826 0.27360237 0.05283641 0.1039049 0.05399254 0.11052027 0.15018173
-0.2191186 -0.0027808058 0.03203415 -0.2321218 -0.06158119 0.0432536 -0.21618566 0.13001488
-0.28529808 -0.14018816 -0.195037 -0.21888226 0.11601502 -0.18172325 -0.056713097 -0.06624322
0.049931496 -0.19914232 0.016552329 -0.24321428 -0.05199795 0.24055964 -0.004035521 -0.15874884
0.0009588055 0.11033402 0.066047244 -0.25432447 0.052328557 0.029194891 0.008225918 -0.052909013
-0.05602318 0.17733335 0.08845711 -0.017149806 0.009131252 -0.2269516 -0.21014223 0.17345537
0.2727182 -0.19698334 -0.14926693 0.28258798 0.16845149 -0.060608838 0.034004845 0.09982147
-0.18079954 0.026046552 0.033869952 0.23677444 0.19226348 0.28108925 -0.24667308 -0.134763
0.17635994 0.22953513 -0.24135637 0.06716177 -0.21769047 -0.08955771 0.20121703 0.14069997
-0.18918237 0.11608355 0.08576987 -0.09727374 0.11365823 0.054784954 0.22777662 0.120695226
-0.024836095 -0.11215981 -0.16754475 -0.100818016 -0.13710636 0.23667757 0.1716606 0.1490859
-0.021096187 0.30326617 -0.1924983 -0.054526865 -0.122248925 -0.12441582 -0.1348466 -0.09350291
0.105166 0.09333212 -0.007878236 -0.1237741 0.1938366 0.19385451 0.059969813 -0.023848103
-0.14476475 0.0018996759 0.08484452 0.22684786 -0.18565804 -0.019535184 -0.051008493 -0.0058651776
0.11648872 -0.13677686 0.18549076 0.20741399 -0.055716187 0.22284973 -0.16391607 -0.053775687
0.08153494 0.21843615 0.14966601 -0.007004082 -0.18230979 -0.15475416 0.23299485 -0.1927476
-0.16100073 -0.15917799 0.30619752 0.1242571 0.20944226 0.16232172 -0.08495027 0.3559994
0.15998149 -0.14886552 -0.1863619 -0.24341783 0.39128768 0.23720208 0.1030705 -0.14192036
-0.1196094 -0.17082639 -0.18280742 -0.106829494 0.17946103 0.13734342 0.009257383 -0.16168459
0.2164009 -0.040246483 -0.18083444 -0.23394012 0.19201136 0.13580593 -0.15227714 -0.15537164
-0.14919482 -0.07065459 0.09325152 -0.016909098 0.22976226 -0.08337498 0.20432723 0.23569202
0.041223496 -0.014901153 -0.107965305 -0.029379427 0.33122993 -0.08988869 -0.1999262 -0.047223356
-0.08992093 0.034859575 5.7429075e-05 -0.046715163 0.19888201 -0.13388781 -0.14738208 0.040818136
-0.118919715 0.028776458 0.05820632 -0.23590642 -0.21880075 -0.26193118 -0.2332816 -0.20112431
0.21744078 -0.16763176 -0.026012441 0.13346697 0.16948941 0.045616657 -0.1507302 0.12954547
-0.20004332 0.054208033 -0.0114908265 0.070254624 0.15030147 0.1275531 -0.09211874 0.17819045
0.13580127 0.18790437 0.13099411 -0.07507084 -0.1528222 -0.12171306 -0.0032769525 -0.006804141
0.06395723 0.10304719 0.14350459 0.14900061 0.18524048 0.09588385 0.21967837 0.17089003
0.17636496 -0.010148348 -0.01234507 -0.078533426 -0.1489735 -0.21828446 -0.11586812 0.14621545
0.1820316 -0.07630177 0.15129818 -0.069146395 0.24476595 0.24261275 0.111474514 -0.12889898
-0.3310918 0.050455205 -0.10828462 0.14800914 0.19709969 -0.12197778 -0.024045309 0.079433545

lstm1_1.weight_hh_l0 f4 [64, 16]
00000000: 8da0 123e b4a6 4d3e 08c6 8abe 9662 8d3d
00000010: 6a20 0f3e 553f a83e 224e 643d ab5a 85bc
00000020: c717 4dbe 626f 49be ab16 893e d9a5 643e
00000030: 5c1f 803d dc7c 523e d989 7fbd a100 6fbe
00000040: 57ff dcbb 4073 663e dc4e 67be 42e9 443e
00000050: 049b 2abd fdb4 12be cfff b7bd 2e48 24bd
00000060: 2863 10be 02c0 5f3e f7af 813d 9d1d 793e
00000070: 5bfe d4bd c1ca 7bbe 6e8a d23d 50df 6dbe
00000080: c715 843e ec0d 1dbd 5aae 753e 0802 34be
00000090: 813c 533e 9dd0 4dbe ddcb 4f3e 7851 3cbc
000000a0: 502f 2c3e aca1 63bc dcdc e6bd 0d21 8dbd
000000b0: 4f59 2dbe ebb4 063e 5520 12be 8032 dfbd
000000c0: ff5a 28bd 5fcb 56be a999 913c 2d70 3c3e
000000d0: 7e47 92bd 9ae2 5fbe 306e 8c3e eb58 2b3e
000000e0: c1d6 4a3d 050c 9cbd 3ff4 02be d1cf 12be
000000f0: 0729 02be 5775 773e 8416 173e 1d24 69be
00000100: 1442 503d e848 debd 8a96 96bc 3b8d b43d
00000110: 67c6 02be cfcc 213e 15a6 bbbd b97f 97be
00000120: 4cf3 a53e 3efa 023e be29 a1bd 3d3a 83bd
00000130: 8faf 993d e9c3 103e 8606 a53e 328d 513e
00000140: 5a5a 0c3e 97ef 5d3d 09cf f53d 6912 993d
00000150: cdc0 023d fa87 2e3e 9646 29be a8b8 db3d
00000160: 0b81 47be df1c 46bc 6fdc 9abd 16a9 c0bd
00000170: e99e 50bd d329 dbbd 300c 5bbe 21ad f83d
00000180: a696 723e daaa e63d 5809 4bbe 0b5f 3fbe
00000190: a4b6 77bd 6728 25be 91df 6dba 7f44 3fbe
000001a0: 4bb8 13bb b0c1 efbd 2f31 293e 9f5d 97bd
000001b0: e547 24be ab68 69be 8498 67bc 70c6 383e
000001c0: 01ff eb3c 80a5 3eb9 6a43 35be 3252 513e
000001d0: 5276 fdbd 5796 c0bd c161 c4bd 703c 96bc
000001e0: 1a4d ffbd 9cb0 003e 2ed8 26bd ff6e 32bd
000001f0: f6f8 e1bd cb90 2c3e a9ba a33e 250e 28be
00000200: ef5e 18be 1e64 07be bc08 26bd 449c 433d
00000210: 3cf8 5e3d c5c7 343e 55ac 733d 72dd 9bbd
00000220: 3623 923d b840 133e 7f2e 993c a7dd e6bd
00000230: a1c4 643e e7b0 063b cbb5 073e 2680 6dbe
00000240: 1049 49bd 68e7 5dbe 901e f7bc 6276 083e
00000250: 3e0e 933c eb93 e7bd 8255 fd3d cb64 5f3e
00000260: 19a3 35bd bc3c 023e ae24 083e 681d 013d
00000270: fed9 71bd 1d1a 52be ed8e 433e 260c b63c
00000280: 1b45 ca3d d084 ecbb a61b 1cbe bbf9 49be
00000290: f73b bbbd f596 bebd 6df5 48be a06f 0c3e
000002a0: 5a35 37be 5c7f ecbd 6378 0f3e f04c 1cbe
000002b0: 5e07 d1bd bec1 cd3d d94f 18be d145 02be
000002c0: a384 883e 1451 c1bd 7399 733d a640 b7ba
000002d0: 3232 35be 196e 33be 32f1 1f3e 8ed9 f7bb
000002e0: 3cac 653c 814f 3e3e 0b18 523e 17a4 4f3b
000002f0: 9a4a f93d fb00 8ebd ff82 103e e734 27be
00000300: ce6b 48be b84e 20be 5455 34be 0c6f 19be
00000310: 9071 5a3e 65b4 edbd 9c3d 82be b45b fcbd
00000320: e2ea 113e 9f20 233e a08e d6bd 04e8 2abe
00000330: 99eb 5e3d 4a8c b0bb fea9 c0bd 47a8 8f3c
00000340: 2f99 3b3e 1bb4 d5bd d280 3dbe 6ff1 50bd
00000350: 60ce 093d ff45 53bd ea48 0bbd 6c5e 6ebe
00000360: b9b8 083e 03d7 27bd 95eb c63d 16f4 e23d
00000370: d959 093e 2cdd 65bc b97c 71bd 30cc bc3d
00000380: 2ab8 16be d319 fabd bc82 af3d ef9b 34be
00000390: bc62 52be 86de 2bbe 6e40 2d3e 5014 1ebe
000003a0: 6c72 e8bd b745 28be 6a18 1d3e ae22 3cbe
000003b0: 8241 88bd c57f 07be a80d 27be 91b8 4fbe
000003c0: 5079 693e e8a4 c6bd 9357 1e3d d472 193d
000003d0: d9d0 393e 9cd1 6cbd 952a 0b3e df6a aebc
000003e0: c237 013d 3f6c 0d3e 7d14 05be 10ce 31be
000003f0: 0cdc 563e 80d2 563e 3c73 26bd 83ad 54be
0.14319058 0.20083123 -0.2710421 0.069035694 0.13977209 0.32860819 0.055738576 -0.016278585
-0.20028602 -0.19671395 0.26775107 0.22328891 0.06255981 0.20555443 -0.06238732 -0.23340084
-0.006744306 0.22504902 -0.22588676 0.19229606 -0.04165174 -0.14326854 -0.089843385 -0.0401079
-0.14100325 0.21850589 0.06332391 0.24327703 -0.10400077 -0.24589063 0.102803096 -0.23229718
0.25797865 -0.038343355 0.23992291 -0.175789 0.20628549 -0.20099111 0.20292611 -0.011494033
0.16814923 -0.013893526 -0.11272594 -0.068910696 -0.169286 0.13154952 -0.14270146 -0.10898304
-0.041102406 -0.20976017 0.017773466 0.18402167 -0.07142542 -0.21863785 0.27427816 0.16733138
0.04952121 -0.0761948 -0.12788485 -0.14337088 -0.12710963 0.24165855 0.14754683 -0.22767682
0.050844267 -0.108537495 -0.01838233 0.08816 -0.12770997 0.15800785 -0.09162537 -0.29589632
0.32412183 0.12790772 -0.0786929 -0.064075924 0.07504188 0.14137234 0.3223154 0.20464018
0.13706341 0.05418357 0.120023794 0.074742146 0.03192215 0.17044058 -0.16530833 0.1072858
-0.1948282 -0.012091844 -0.075615756 -0.094072506 -0.0509328 -0.10701337 -0.21391368 0.12142397
0.2369028 0.11263056 -0.19827783 -0.186886 -0.060476914 -0.16128694 -0.00090741465 -0.18678473
-0.0022540267 -0.11706865 0.16522668 -0.07390904 -0.1604305 -0.22793834 -0.014135484 0.18044448
0.028808119 -0.00018181466 -0.17701498 0.20441511 -0.123760834 -0.09403675 -0.095889576 -0.018339366
-0.12465878 0.12567371 -0.04073351 -0.043562885 -0.11033814 0.16852109 0.31978348 -0.16411646
-0.14879964 -0.13221785 -0.040535673 0.04775645 0.054435953 0.17654331 0.05949052 -0.07610597
0.07135622 0.14380157 0.018698929 -0.112727456 0.22340633 0.002055222 0.13252942 -0.23193416
-0.049141943 -0.21670306 -0.03016594 0.1332641 0.017951127 -0.1130751 0.12369825 0.21815793
-0.044344995 0.12718481 0.13295242 0.031522185 -0.059045784 -0.20517774 0.1909749 0.02222259
0.09876462 -0.007217981 -0.15244922 -0.19724171 -0.09142297 -0.093061365 -0.19624873 0.13714457
-0.17891446 -0.115477294 0.14010768 -0.15263724 -0.10206483 0.10046719 -0.1487421 -0.12721945
0.26663694 -0.094392926 0.059472512 -0.0013981059 -0.17694929 -0.17522468 0.15619352 -0.0075637763
0.014018115 0.18585016 0.20516984 0.0031683499 0.12172432 -0.06933781 0.14112471 -0.16328774
-0.19572374 -0.15655029 -0.17610675 -0.14983767 0.21332383 -0.11606673 -0.2543763 -0.123221785
0.14249757 0.15930413 -0.10476422 -0.1669007 0.054423902 -0.0053878175 -0.094074234 0.017536296
0.18320154 -0.10434743 -0.18506172 -0.0510115 0.03364408 -0.051580425 -0.034005083 -0.23278207
0.13351716 -0.040976536 0.097129025 0.11081712 0.1341318 -0.014029782 -0.058956835 0.09218633
-0.1471869 -0.12211957 0.085698575 -0.17637609 -0.20545477 -0.16784105 0.16919109 -0.15437436
-0.11349949 -0.16432844 0.15341344 -0.18372604 -0.066531196 -0.13232334 -0.16313803 -0.2028525
0.22800183 -0.09699422 0.038657736 0.037463024 0.18146075 -0.057817087 0.13590463 -0.021291194
0.031547315 0.13810824 -0.12996097 -0.17363763 0.20982379 0.20978737 -0.04063724 -0.20769314

lstm1_1.bias_ih_l0 f4 [64]
00000000: 211e e3bd 0107 11bd 1a3e 7ebe f1f2 323d
00000010: 5a08 33be e42f eb3d 4bbc fc3d 7b96 873e
00000020: 377a aa3d a535 7fbe 1959 44be 7593 bf3d
00000030: 522e 8ebd aa13 5bbe e018 8f3d e58f 1c3e
00000040: 0685 41bd 7c92 f3bc e9ab a4bb 75e6 bcbd
00000050: 71eb d1bb 8807 f5bc 334b f63c 654d 5d3e
00000060: 1012 5d3c c7b0 69be e642 32be d2d8 803d
00000070: 12ae 27bd d46c 1e3e ec92 15be 4f12 223e
00000080: 3acc ae3c 6440 c4bd 27c8 453e de89 0c3e
00000090: f065 cbbd a03d ab3d bd24 403e 6469 adbd
000000a0: c942 d63d b26f 4f3e 2cc0 183e 73d8 513e
000000b0: e759 54be 9403 523e f400 5abe 5b78 7ebd
000000c0: a161 ae3d c2ff 24be cb5f bc3d f50f 533e
000000d0: 8562 0cbe 5a60 20be 2a5d 2bbe fdbc 07be
000000e0: b1fb 0b3e 37e9 81be 6777 273d 4126 80be
000000f0: 2578 c2bd 8a44 0b3d fa70 35be 6c5d 22bd
-0.11089731 -0.03540707 -0.24828377 0.04368872 -0.17483655 0.11483744 0.123406015 0.26481995
0.08324092 -0.24922808 -0.19174613 0.09354297 -0.06942429 -0.2139422 0.069871664 0.15289266
-0.047246 -0.029732935 -0.005025376 -0.09223644 -0.0064062406 -0.029910818 0.030065155 0.21611555
0.013493076 -0.22821341 -0.17408332 0.06291355 -0.04093749 0.15471202 -0.14606827 0.15827297
0.021337617 -0.09582594 0.19314633 0.13724467 -0.099315524 0.083613634 0.18764015 -0.08467367
0.10461957 0.20257452 0.14917058 0.20492725 -0.2073742 0.20509177 -0.21289426 -0.0621265
0.08514715 -0.16113189 0.091979586 0.20611556 -0.13709457 -0.15661755 -0.16734758 -0.13255687
0.13670231 -0.2537324 0.040885355 -0.25029185 -0.09495572 0.03400091 -0.17718878 -0.039639875

lstm1_1.bias_hh_l0 f4 [64]
00000000: 1434 163e 2266 2fbe b6f6 61be d234 983e
00000010: 7d06 d5bd ca65 9dbd 604f d13c 860d 55be
00000020: 63bd 8f3d c1ce 683e 1daf 7a3e c96a ce3d
00000030: f891 5d3e 2474 223d 08cf 5b3e 9f35 383e
00000040: 9d3b e03d 7677 61be 8f90 b63d 9424 62be
00000050: 7448 39bd 4488 833c 6f2f 29be 7a12 763e
00000060: 9ee0 163e 9aa5 84be 68c9 363e 019a 06be
00000070: d0a1 873d bc1e 73be 5689 22be 7329 433e
00000080: b6c5 0e3e 34b7 49be 2b52 663e df30 0dbe
00000090: a5b4 003d ecb9 debd c918 513e 1007 90bd
000000a0: 3659 633e 9990 273d 3824 373e b93b 1a3e
000000b0: e57a 593e 2e86 493e c468 363b 8f19 5abe
000000c0: 61f7 cd3d 56e2 02be 7079 543e 0dd6 1e3e
000000d0: 35a8 7a3e fce9 5e3e 0cdf 583e 0e88 3dbe
000000e0: 8f7e 393e 7771 7dbe 57c8 cf3a be0f 88be
000000f0: b366 733e 82e0 d63d 7ccf fc3d 977f 8bbd
0.14668304 -0.17128804 -0.22066769 0.297278 -0.10401628 -0.0768543 0.025550544 -0.2080594
0.070185445 0.2273512 0.24480863 0.100789614 0.21637714 0.03966154 0.21465695 0.17989205
0.1094887 -0.22018227 0.08914291 -0.22084266 -0.045235112 0.016056187 -0.16522 0.24030486
0.14734122 -0.25907594 0.17850268 -0.13144685 0.0662266 -0.23742193 -0.15872702 0.1905878
0.13942608 -0.19698793 0.22492282 -0.13788174 0.031422276 -0.108753055 0.20419611 -0.07032597
0.22202 0.040909383 0.1788491 0.15061845 0.21238287 0.19680092 0.0027833441 -0.21298812
0.100569494 -0.12781653 0.2074945 0.15511341 0.24478228 0.21768945 0.21178836 -0.18508932
0.18114685 -0.24750315 0.0015852553 -0.2657451 0.23769645 0.1049204 0.12344262 -0.06811445

lstm1_1.weight_ih_l0_reverse f4 [64, 32]
00000000: 1e68 87bd f61f 17be fc80 28be 0007 713c
00000010: 16d1 06bd e4d2 d73d d46f 4dbe 4080 2fbd
00000020: 6a30 03be 651e c83d 1411 fcbd 00f9 1d3e
00000030: 9447 b7bd 1445 c2bd 80da 0abd d58e c1bb
00000040: c0ba 193c af87 a33c 4f41 573c 5c00 5bbe
00000050: 914f f4bd 54f8 883d 88bf c4bd 7cf1 f3bd
00000060: bb83 24be 18e9 e43c 9617 293e 5a08 40be
00000070: b0d4 7e3d 45f1 423d a4b8 793d 75f9 3abe
00000080: 54d3 1b3e c77d 92bd 6407 d7bd 5498 ae3d
00000090: b15b 663c 16a3 b3bd 0993 d4bd 7005 22bd
000000a0: 607f 113e 6c9f 833d dbd8 88bd 03d5 273e
000000b0: 64cf 7d3e 4816 10be 88e2 0f3e 8b10 093b
000000c0: 8c33 ddbd 5362 3bbd 583b 8fbd 7e6c 5ebe
000000d0: d65b 9d3e 4486 4e3e 1cec 1c3e 337a d4bd
000000e0: fff5 9dbd 17b4 733e 882b 153d ad47 4f3e
000000f0: 0039 a43d 64e2 f13c faf0 7c3e edbf 2f3e
00000100: 5ff3 3bbe 207f cfbd 4026 7dbe 20b6 903d
00000110: 7766 9bbd f450 683e 20f0 44be 782c 6e3e
00000120: d221 683d 7b98 babc c293 5f3d b9e8 10be
00000130: e0fe b13c eae4 17be 8477 36be 53e2 c7bd
00000140: 001b 2ebb 2c6e d3bd 64bd 00be 80d3 47bc
00000150: 30f1 97bd f80b cdbd d0db 513d 311a 14bd
00000160: a193 86be 9042 50be a21e 5e3e 19db 14be
00000170: fe54 7f3e 4810 4cbd c19e 823e e5d5 483e
00000180: 1ec1 d9bd 5d18 2abe 0469 893d 8827 bfbd
00000190: 5a27 0abc efbc 663d a4d9 9b3e 8ea1 54be
000001a0: 6c08 8e3d 9211 2bbc a138 f4bd 4483 703e
000001b0: c484 80bd e0c0 653c f057 a1bd bc33 c0bd
000001c0: 10bb b1bd a27c 363d cf22 8fbd 060e 4d3e
000001d0: 8838 c73e d443 8e3d c09a cbbb 8138 e93d
000001e0: b5e0 d53d bf8e a03d 74ee e73d b83e 1abe
000001f0: 8653 543e 5c6d e4bd 690f c7bd 8d1a cd3d
00000200: 65e2 0fbd af62 fabd 5ecc 6e3e fc94 e23d
00000210: 68d2 5cbe 7aaf 67bd 8909 d8bd 001f 3dbe
00000220: 0a3c 9abd 251b 843c fc8b 00bc 142d 603e
00000230: 16fc 0fbe 88ee 31bd 98a3 19be 68cd 4ebe
00000240: cee8 34be 36f5 223d bac7 023e b0d5 803c
00000250: 39c8 713e 523f 333e 9887 46bd fbdd 163d
00000260: ba15 6b3d 8ccc 0d3e 462c 22be 3ecb bfbd
00000270: c048 f03c 18a8 443d 20c4 f2bd 369a 553e
00000280: 6535 ddbd bd69 a2bd ca33 0abe 3043 123d
00000290: 7df0 143e 333e 0b3e 9580 69be 4880 583d
000002a0: 8b25 8b3c 5623 333e 4fb7 7a3e e878 03be
000002b0: 4cc9 4b3e d07d 323e cac8 533e 716b 9d3c
000002c0: 6849 2e3e b207 61be 702b 283e a4a8 f53d
000002d0: 4672 a8bd 0c9a fbbd 2432 303e c3e9 79be
000002e0: 2583 193e 94b1 cd3c fe72 65be 1272 b03d
000002f0: 488f 603d 369f de3d 55ec 943e 8c2e 3ebe
00000300: 732a 89bd 28ea d1bd 58fc 7abe 6c74 953d
00000310: 6ab8 bebb c208 67bd d3e1 16be 5888 703d
00000320: 918d 873e 290b 853e ba91 693d 6880 f2bb
00000330: b8a3 983d 38c1 acbd a63a 603e ff13 47be
00000340: a6e5 4dbe 2f4f 64bc 227d 863d 503f 45bd
00000350: 820d c33d c4e7 14be 184c 03be 4720 a73d
00000360: f755 b3bd b03b 54be a80d eabd 45a1 293e
00000370: a09e 52bc 1544 1ebe d5c5 583e 2d00 783e
00000380: 68f1 c73d 0a4b 0c3d c031 653c 2448 f53d
00000390: 0d0b 7a3d 3f72 e13d 6aec fabd 488d e33d
000003a0: 637e 563d b96f cdbd b451 5d3e 319a 31be
000003b0: 6aa8 083e 6859 f6bd a044 183e 7eb4 61be
000003c0: a0c6 793e cbe4 c3bd 0da1 c4bd 80e3 26bc
000003d0: 964c 15bd 5ca0 ffbd 400b 0dbc ca1e f63d
000003e0: 3030 26be 188c 2e3e 300c 6e3e 1465 31be
000003f0: 0c07 59be 5936 01be 3ec4 0dbe ed87 f93d
-0.06611656 -0.14758286 -0.16455454 0.014711142 -0.032914244 0.10538271 -0.2006219 -0.042846918
-0.12811437 0.09771422 -0.12307945 0.15427017 -0.08949199 -0.09485832 -0.033899784 -0.0059069195
0.009382904 0.01996216 0.013138129 -0.21386856 -0.119292386 0.0668799 -0.09606844 -0.11911294
-0.16065876 0.027943179 0.16512904 -0.18753186 0.062214553 0.047593374 0.060967103 -0.18259223
0.15217334 -0.071528964 -0.104994565 0.08525148 0.014059947 -0.087713405 -0.10379607 -0.039555967
0.14208746 0.06426892 -0.06681987 0.16389851 0.24786144 -0.14071 0.14051259 0.0020914401
-0.108008474 -0.045748066 -0.06993741 -0.21721074 0.30734128 0.20168406 0.15324444 -0.1037487
-0.07712936 0.23799168 0.036418468 0.20242186 0.080186844 0.029526897 0.247013 0.17163058
-0.18354557 -0.10131669 -0.24721622 0.070659876 -0.07587903 0.22687131 -0.19232225 0.23259151
0.05667288 -0.022777786 0.054584272 -0.14151277 0.02172798 -0.14833418 -0.17819029 -0.09759965
-0.0026566386 -0.10323748 -0.12572247 -0.012196422 -0.0741905 -0.100120485 0.05123502 -0.03615779
-0.26284507 -0.20337892 0.21691373 -0.14536704 0.24934766 -0.049820215 0.25511745 0.19612844
-0.10632537 -0.16610856 0.06709483 -0.09333712 -0.008432234 0.056332525 0.30439484 -0.20764753
0.069352 -0.010441201 -0.119248636 0.23487574 -0.06275323 0.014023036 -0.07878101 -0.093848675
-0.086782575 0.044552453 -0.06989061 0.20024881 0.38910317 0.06946531 -0.006213516 0.113877304
0.1044325 0.07839727 0.11324778 -0.15062988 0.20734987 -0.11153671 -0.09719736 0.1001483
-0.035128016 -0.12225854 0.23320147 0.11063573 -0.21564639 -0.056563832 -0.10548694 -0.18468857
-0.07530983 0.016126225 -0.007845875 0.21892196 -0.14061007 -0.04344037 -0.15003812 -0.20195544
-0.17666933 0.039784633 0.12771502 0.015726894 0.23611535 0.17504624 -0.048469156 0.03683279
0.057393767 0.1384756 -0.15837201 -0.09364937 0.029331565 0.04801187 -0.11853814 0.20859608
-0.108012 -0.07930324 -0.13496318 0.035708606 0.14544864 0.13597946 -0.22802956 0.052856714
0.016985675 0.17493948 0.24483989 -0.12839091 0.19901007 0.17430806 0.20682064 0.019216271
0.1702019 -0.21975592 0.1642282 0.11995056 -0.08224921 -0.122852415 0.17206627 -0.2440558
0.14991434 0.02510909 -0.22407147 0.08615507 0.054824144 0.10870211 0.29086557 -0.18572444
-0.0669755 -0.1024974 -0.24510324 0.07297596 -0.0058203237 -0.056404836 -0.14734583 0.058723778
0.26475194 0.25985077 0.05702374 -0.007400561 0.07453102 -0.08435291 0.21897373 -0.19441222
-0.20107135 -0.013934894 0.06566836 -0.048156083 0.09524061 -0.14541537 -0.12821996 0.08160453
-0.08756631 -0.20725894 -0.11428386 0.16565426 -0.012855202 -0.15455659 0.21169217 0.24218817
0.097628415 0.03425125 0.013988912 0.1197665 0.061045695 0.11008119 -0.12252124 0.11110932
0.052366626 -0.10031075 0.21613199 -0.17343976 0.13345495 -0.12028772 0.14869928 -0.22041509
0.24392176 -0.09565123 -0.096010305 -0.010186076 -0.03644999 -0.12481758 -0.008608639 0.12017591
-0.1622932 0.17045629 0.23246837 -0.17323714 -0.21194094 -0.12618388 -0.13844392 0.12184129

lstm1_1.weight_hh_l0_reverse f4 [64, 16]
00000000: ba50 103e 9109 4abc a02c afbd a67a c7bd
00000010: 114c 973d 0824 3b3e af44 7d3e db01 d4bc
00000020: c703 1abe 8e86 4c3e 9455 5f3e 85ff 0e3e
00000030: 0374 2bbd 50a6 50be b4f1 57bd 2d9a c13d
00000040: cc46 f73d 2b87 2f3e d925 fa3c 7d15 4d3e
00000050: 0c20 6dbe bd58 f9bc 4624 f9bc 39ed 43be
00000060: 8f60 033d 654e 743c baaf f3bc c835 6ebe
00000070: 6c4c a13e a0ab 7b3d b1b6 073e 4a8e 5dbe
00000080: cc89 49be 09e3 363e 0fe3 18bd 8ab9 823e
00000090: 341c 05be bb85 86bd 21ed 743e 11f5 123e
000000a0: ec51 4dbe aaa0 3ebe 5062 2abd c82e 07be
000000b0: ac89 8e3e 897a 3c3e 50a3 2ebe 5fb0 413e
000000c0: 8f71 87be 3c3d 133d 2c66 d23d 48f1 05be
000000d0: d27a f53d 94e6 b43d c451 1f3e 01c2 8dbd
000000e0: 5f7b 63be ff8f 31be 6e98 b53d 3fd0 1c3d
000000f0: 1171 9e3e 5bec 99be 7916 c0bd 2d31 283e
00000100: 6608 74bd eb68 87be 913e e13d 6217 2fbe
00000110: a00c 3f3e c459 e5bc f942 9abc 86e6 ac3d
00000120: 29e9 a2bd f7b5 613e c208 7c3e 5c5c b5bd
00000130: ec66 a7bc 5bff bfbd cd53 3a3d 2f33 3f3e
00000140: 7411 143c 4a93 15be 2e6d 88bd d934 f53d
00000150: 2000 3f3e 14e9 4fbe fede d0bd 83a8 0ebe
00000160: 7746 003e 37f8 7a3e 8e28 b73d bc62 e03d
00000170: 6429 333e 5b9d 20be a274 6a3e bfd7 94bd
00000180: 796b 893d 0ed8 b7bd 87ca c63d 4883 49be
00000190: be37 4a3e 4a2e 62bd 2351 b63d d397 8a3d
000001a0: a1a6 7fbe ac64 4b3e da9b 943c 581c 3ebd
000001b0: a0f3 d93b 2a01 86be 0f7c 983d ad88 1cbe
000001c0: be43 41bd ca7e 61be 1090 98bc 3b35 893d
000001d0: 84dc 95ba 6ad1 ebbb efb1 4a3d e79a c33d
000001e0: e47b 53bd 8eea 5bbe dfaf 08bd 61e5 45be
000001f0: 9582 e13c 2a5c b9bd 29e9 85bd a14e 16bd
00000200: dacc 55be b8fe 36bd 4390 b63d 8701 0bbe
00000210: aa8f 6d3d 28af 493e fb4d 55bc f415 53be
00000220: c1f3 b8bd 5927 c33d c0f9 4ebd 4a77 4d3e
00000230: 8492 8f3e 0fbb e43b a5e7 abbc cba9 1e3e
00000240: 94b1 a1bd 1b54 313d 936c 3cbd d589 b53d
00000250: c7f0 e13c 2d51 5fbe ac50 f53d df2d 07be
00000260: fbc0 753d d477 b43d f2c4 65be a414 1bbd
00000270: 8975 723e 677e 8dbe f6fd 5dbe dad3 16be
00000280: 1f0b d63d 0c31 6e3e 9fd5 b8bd b93b 613d
00000290: a7bc 253d 4251 d2bc cca2 073e 363c 24be
000002a0: 1c7a 88be addd 3ebe d197 38be c4c6 aa3e
000002b0: 9416 ea3c 19a2 cdbd 9dcb 9e3e 8a58 99be
000002c0: e3a6 6ebe a61e c4bb bb42 2ebe abbb c7bd
000002d0: a9f1 79be 2dec fabd 5359 41be 6f28 10be
000002e0: 5901 2c3e 6ae6 c73d 9c61 463e af40 50be
000002f0: 7aae 10be 5513 fb3d d1fb 68be aa19 a3bd
00000300: 8dcd db3d 5f47 ed3d b66e ad3c fb28 5c3e
00000310: 4c2e 9f3d 8ea0 83bc a95e 6dba eac8 083d
00000320: 72c8 263e 7ae2 683d a0d1 1d3e 129a 603d
00000330: c46d 063d a9c5 ae3d f741 24be 4d4f 01bd
00000340: f143 ccbd 3f41 a63d fd29 163e a751 3bbe
00000350: 40f5 053e fc36 31be aed3 743e 9001 29bc
00000360: 9b84 cfbd 6aa0 c639 332e 14be 6bb5 c63d
00000370: 2275 033d 516b 513d a1a8 82bc 1780 4bbe
00000380: aae4 2fbe c421 ff3d dcff 4bbe 8985 4b3e
00000390: 945a 53be a774 a03d 0d5a 2e3d 7d1a b1bd
000003a0: 748a 103e 4bc5 d93d 452b 16be a1af 0b3e
000003b0: 236c b73d 81f3 e8bc 3ccd 70be ff65 24bb
000003c0: 0418 7f3e 2a33 573d 73d7 f7bd f79a 8c3e
000003d0: 4083 a23d 3004 70be 7bf8 183d 479d 2bbe
000003e0: 2ad7 8bbe d474 eb3d 527a 113e e8cc fdbc
000003f0: 3c3f 843e ac30 4c39 4add 4d3e 300e b53d
0.14093295 -0.012331382 -0.085534334 -0.0974019 0.073875554 0.18275464 0.24733232 -0.025879791
-0.15040503 0.19973204 0.21809989 0.1396466 -0.041858684 -0.20375943 -0.05272074 0.09453235
0.1207405 0.17141406 0.030535625 0.20027728 -0.23156756 -0.030437822 -0.030412804 -0.19133462
0.032074507 0.014911269 -0.029746879 -0.23262703 0.31503618 0.06144297 0.13253285 -0.2163631
-0.19681472 0.17860045 -0.037325915 0.2553218 -0.1299904 -0.06568476 0.23918582 0.14351298
-0.20050782 -0.18615976 -0.041597664 -0.1320144 0.2783941 0.18406118 -0.17054486 0.18914936
-0.26453826 0.03594707 0.10273394 -0.13080323 0.11986317 0.08833042 0.15558535 -0.06921769
-0.22215031 -0.17340086 0.08866964 0.038284536 0.30945638 -0.30063137 -0.09379286 0.16425009
-0.059578322 -0.26447234 0.10998262 -0.17098764 0.1865716 -0.027996905 -0.018830763 0.08442406
-0.07954628 0.2204207 0.24612716 -0.08855507 -0.02043482 -0.09374877 0.045490075 0.18671869
0.009037364 -0.14606968 -0.066614494 0.119729705 0.18652391 -0.20303756 -0.101987824 -0.1393147
0.1252688 0.24508749 0.08943282 0.10956332 0.17496258 -0.15685026 0.22896054 -0.07267713
0.06709952 -0.08976756 0.09706598 -0.19678986 0.19747826 -0.055219926 0.08902194 0.067672394
-0.24965908 0.19862622 0.018140722 -0.04641375 0.006651357 -0.26172763 0.07445537 -0.15286513
-0.047183745 -0.22021022 -0.018623382 0.06699606 -0.0011433517 -0.007196595 0.049486097 0.0955103
-0.051631823 -0.21476194 -0.03337085 -0.19325782 0.027528087 -0.09050782 -0.065386124 -0.03669608
-0.20878926 -0.044676512 0.089142345 -0.13574801 0.057998337 0.19695723 -0.01301908 -0.20613843
-0.09030867 0.09528989 -0.05053115 0.20065036 0.2804147 0.006980307 -0.02098448 0.15494458
-0.078951985 0.0432931 -0.046001982 0.0886418 0.027580632 -0.2180831 0.119782776 -0.13201092
0.059998494 0.08811918 -0.2243841 -0.03786148 0.23677649 -0.276355 -0.2167891 -0.14729252
0.1045134 0.23260897 -0.0902512 0.054988597 0.040463116 -0.025673512 0.13245696 -0.16038594
-0.26655662 -0.1863925 -0.18026663 0.3335477 0.02857522 -0.10040683 0.3101472 -0.29950362
-0.2330585 -0.005985099 -0.17017643 -0.09752592 -0.24408592 -0.12252078 -0.1888173 -0.14077924
0.16797389 0.09760745 0.19373173 -0.20337175 -0.14129058 0.12259547 -0.2275231 -0.079638794
0.10732565 0.115858786 0.021170955 0.21500008 0.07772502 -0.01606777 -0.0009054938 0.03339473
0.16287401 0.05685661 0.15411997 0.054834433 0.032819524 0.085337944 -0.16040789 -0.031569768
-0.09973896 0.081179135 0.14664455 -0.18292867 0.13081837 -0.17306131 0.23908874 -0.010315314
-0.10132714 0.0003788502 -0.14470749 0.097025715 0.03209413 0.051127736 -0.01594955 -0.19873081
-0.17177072 0.12457612 -0.19921821 0.19875158 -0.20640022 0.0783475 0.042566348 -0.0864763
0.14115316 0.10633334 -0.14664944 0.13641216 0.08956172 -0.028436424 -0.2351579 -0.0025085208
0.24911505 0.05253903 -0.121016406 0.2746198 0.0793519 -0.23439097 0.037346344 -0.16759215
-0.27312595 0.114968926 0.14206818 -0.030981496 0.25829494 0.00019473088 0.20103946 0.08840597

lstm1_1.bias_ih_l0_reverse f4 [64]
00000000: 73fb cfbb 5d4e 783e 6057 fa3d f68d 583e
00000010: f853 383e f9c1 2bbe 96a5 603e 2f8c 0dbe
00000020: e408 793e 78d0 4d3e 5019 02be 4b29 733e
00000030: 0c8e 5b3c 6492 eabc c3fd ee3d 1934 01be
00000040: c1ef 233e c9c9 0bbe 6224 c63c e922 a43d
00000050: fe60 da3d fa3d fcbd 5be1 3c3d 8249 393d
00000060: a6ad 1ebe bd5a 29be 03d3 093e ab44 c23b
00000070: 5154 503e 140d ddbd dcad 0fbe 6bd9 b7bc
00000080: 4f85 63be 5952 1e3e 1a61 3f3e 45c7 763e
00000090: 3e9d 123e d787 913b 4d58 2cbe 7b9d 61bd
000000a0: 4021 d5bd 04e4 0fbe 1677 c6bd 2e54 fd3d
000000b0: fef4 0cbd dcd1 5e3e 58b7 933b 6b45 15be
000000c0: fc1d f7ba a6fe 76bd 3740 2abe 22f7 95bb
000000d0: 5334 7ebe ee5a a4bd 19d3 96bd 119f 87bd
000000e0: d9ce 443e 53b5 423d 888b e53b 7787 573e
000000f0: 8d2a a1bd 3e63 533e 0e1e 1e3e ecb9 793e
-0.0063471138 0.24248643 0.12223697 0.21147904 0.18000782 -0.16773213 0.21938166 -0.13823007
0.24319798 0.20099056 -0.12704968 0.23746221 0.013400566 -0.028634258 0.11669495 -0.1261753
0.16009428 -0.13651194 0.02418727 0.08014471 0.10663031 -0.123165086 0.046113353 0.04523612
-0.15495929 -0.1653852 0.13459401 0.005928596 0.20344664 -0.1079351 -0.14031166 -0.02244254
-0.22218822 0.154611 0.18689385 0.24099453 0.14317796 0.004441242 -0.16830559 -0.055081826
-0.104067326 -0.14051825 -0.096906826 0.123695716 -0.03441333 0.21759742 0.0045079403 -0.14577262
-0.001885354 -0.060301445 -0.16626059 -0.0045765797 -0.24824648 -0.08025156 -0.073644824 -0.066221364
0.19219531 0.047536206 0.007005159 0.2104777 -0.07869444 0.20643327 0.15441152 0.2438733

lstm1_1.bias_hh_l0_reverse f4 [64]
00000000: fb69 3e3e 2068 0d3e 7b72 033e 1c93 793e
00000010: 6462 343e bdd0 0f3e fa42 823e b711 943d
00000020: c092 663e 1cf0 383d c08f 923e 3ba1 7c3d
00000030: c834 503e b7f1 ff3d 4566 a9bd 12a4 f3bd
00000040: 82ef 7dbe 2fa4 913d ce0c 42be 916c 513e
00000050: d5bc f93c 7c84 45bd 5f7b b8bc 5dc2 473e
00000060: 2c52 fc3d 3d88 293e dab3 c93d 8cc5 57bc
00000070: f569 a13e f522 10be 6ed4 38bd 3904 483e
00000080: a7ae 333e 554e 573e 8dc7 e03d 2bdd 6fbe
00000090: be13 53bd 15df 2cbe 280d 9f3d 2a21 26bb
000000a0: a13e 2c3e ded9 67be e9f3 81bc 9521 7e3d
000000b0: 1a8f 0d3e 08da 80bd 372d e0bc a229 26be
000000c0: dd76 5abe 2c05 873e 17bf 42bd 30e8 24bd
000000d0: 5fae 0bbe d9c7 113e 6c1d 793d 548f f5bd
000000e0: 8530 09be 7869 3d3e b1c4 8e3e 0b35 513e
000000f0: 568f 4fbd 98fb 04be 1969 cbbd f817 8d3d
0.18595116 0.13809252 0.1283664 0.24372524 0.17615658 0.14044471 0.25441724 0.07229941
0.22516918 0.04515086 0.28625298 0.0616772 0.20332634 0.12497275 -0.082714595 -0.11896528
-0.24798396 0.07111394 -0.18950197 0.20451571 0.03048555 -0.04822205 -0.022519765 0.19507737
0.123203605 0.16555877 0.09848757 -0.013169657 0.3152615 -0.14075835 -0.045124464 0.19532861
0.17547093 0.21025975 0.10975561 -0.23424213 -0.0515325 -0.16881974 0.07766181 -0.0025349357
0.16820766 -0.22641703 -0.015863376 0.062043745 0.1382412 -0.06291586 -0.02736531 -0.16226819
-0.21334405 0.26371133 -0.04754552 -0.040260494 -0.13640736 0.14236392 0.060819075 -0.11990228
-0.13397415 0.18497264 0.2788444 0.2043039 -0.050673805 -0.129866 -0.09932155 0.06889337

lstm1_2.0.weight f4 [32, 32]
00000000: 673a 8cbd 25dc 4cbd 55f3 30be 2c40 aabd
00000010: 46a8 073e 732a 80bd 166a 68bd e7fd 133e
00000020: aec5 b3bc 961e 073d bbbd 8fbd 8274 b4bd
00000030: dbbf 173e 1abb 9d3d 6182 a33d c3bf 94bd
00000040: c7b4 9abc 80b1 a23d 74a4 0a3b 419c 33be
00000050: a960 04be 4d85 413e 01bb 8b3c 0cae 8d3d
00000060: 0a30 003c 943c dfbd dfa9 f5bd c6f3 433d
00000070: 10e0 243d a14f dfbd 6888 9e3d a34a e3bd
00000080: c89c 343c d5e4 6c3d 149c 3abe 25ae 193e
00000090: ac11 05be 81d0 823d 3509 e73c 8bbd da3d
000000a0: 27c0 dd3d 4712 f63d effa 383c a658 003e
000000b0: 1924 a83d 672d 053e dbe2 5fbd 1fb8 633d
000000c0: 316d 223d 1903 bd3d b7dd a33d 0886 3c3e
000000d0: 3e5b 843d c5fc d03d fc75 333e 7317 cebc
000000e0: 1f3c 053d a95c 2c3d 8793 0cbd d568 6cbb
000000f0: 8e36 533e db13 ba39 8e0a 57bd 9084 483c
00000100: c96b edbd 214f 973c 773f 713d 99f8 583b
00000110: 1eeb d6bb b40e 78bd 151d 8d3d 23fb 29bd
00000120: 6581 92bd 268a 9f3d 5808 c43d f5b1 153e
00000130: fb57 003e 9685 18be 407c cabd 14b2 d1bd
00000140: 67cf 393e 0a23 403d 7376 3bbe 3be6 42ba
00000150: df2f 00ba 8e5e ea3d 7b0b 38be 1cc6 383e
00000160: f6dc 21be f966 6bbd ebf5 443d 234c 273d
00000170: 707a a33d 2f82 37be c2a8 d33b fe77 1d3e
00000180: 98bf 233e 722d 2bbe 4325 e03d a17b 2bbe
00000190: 0037 1fbe 1d7f f2bd a361 e73d 24e4 053e
000001a0: 2539 7c3d c260 14be f3da 223d dbae febd
000001b0: c2e4 163d bf82 17be 51b5 fd3d 6545 763d
000001c0: 79a8 b83c ec71 24be a9f5 123d 5cfc 253e
000001d0: 4177 f93d 551f 323e 11d7 113e 2869 bebd
000001e0: fe58 90bd cc20 f7bc 0133 333e 7468 22be
000001f0: 894f 2e3e 44ba b73b 289a 62bc 7eca 25bd
00000200: 7ffa e63d 11a4 89bd 076f 96bd 953e 303e
00000210: 8057 d73c 5f0e 04be 02e6 183e a626 4d3d
00000220: 2358 0c3e 284a 8ebc 5a71 723d 0099 57bd
00000230: f5da 093e f858 cf3d ed20 d13c afde c6bd
00000240: c246 9b3d 4725 69bd 0b25 35be d7f9 4fbc
00000250: 166d d03d d0c5 103e 1c4e 16b9 8d95 00bd
00000260: 499f 8ebd 105b c23d 5dbf adbd f122 2ebc
00000270: 4691 123e c0aa 8bbc 7f8e b73d 5ec6 3a3e
00000280: 5601 bbbc 2396 4a3e ef07 da3d 4883 cbbc
00000290: abf7 043d 8ad0 1f3d d71e 57bd a8f7 d83d
000002a0: 1bad 02be 48a6 63bc c279 a0bd e2cf b0bd
000002b0: a583 f83d befc 15bd 90b5 ebbd 3924 0e3d
000002c0: b79c e4bc 972b 0d3d 76d0 a9bb 87a6 323d
000002d0: f54f 4d3c 1f2d b23d 0da7 5dbd c485 38bc
000002e0: efe0 41be 1d4a ccbd befe 143e fc07 99bd
000002f0: f030 06be a3d4 3fbe 4102 87bd 0242 223e
00000300: 7e3b c3bd 8706 9d3d 5b91 303e 92ae 40ba
00000310: c27b 18be 2ec0 493e 88a8 cfbd 3608 84bc
00000320: 2c9c cebc e9a4 a0bd 81b3 c43c ca68 0c3e
00000330: 7daa a43d 9545 753b 3830 8d3c 0143 0abe
00000340: a28a 443d 33e9 0a3e 68b4 043e 3114 0dbd
00000350: 9abd 26bd 51a3 06be 6d1f 653e c0f1 32be
00000360: e600 3c3d f8a7 62be ca2b 01be f08c 97bd
00000370: 685c 2f3d dad7 2dbe bc7b b53d e8b3 c13d
00000380: 7b54 393e f0b4 80bc 6969 8dbc 8638 2cbd
00000390: c204 eebd 37b9 dcbd 122e f73d 0664 553d
000003a0: a439 173e 21ca 79bd fabb d63d 24ac 1c3e
000003b0: 5ea3 fe3c 6093 9abc 287d 17bd 1596 393e
000003c0: 567e 53bd efe1 41be 329c be3d a31c af3d
000003d0: df93 a73d 3485 973d 9368 1f3e dc9d 5ebd
000003e0: e752 a03d 8648 0ebe b378 dcbd 8879 c7bd
000003f0: 25ae 0dbe 2266 0bbe a9c2 34be a24a 083e
-0.06847077 -0.050014634 -0.17280324 -0.08313021 0.13247785 -0.062580965 -0.056741796 0.14452325
-0.021944847 0.032988153 -0.0701861 -0.088112846 0.14819281 0.077017024 0.07983852 -0.07263138
-0.01888503 0.07944012 0.002115515 -0.17540075 -0.12927498 0.18898506 0.017056944 0.069179624
0.007823953 -0.10900226 -0.11995291 0.047839902 0.040252745 -0.1090386 0.07740861 -0.1109822
0.011023708 0.05783542 -0.18223602 0.15007837 -0.12995023 0.06387425 0.028202632 0.10680684
0.10827666 0.12015205 0.011290296 0.12533817 0.0821001 0.13005601 -0.054659706 0.055595513
0.039654914 0.092291065 0.08001273 0.18410504 0.064627156 0.10204462 0.17525476 -0.025157666
0.03252804 0.042080555 -0.03432038 -0.0036073227 0.2062628 0.00035491478 -0.0525003 0.012238637
-0.11592824 0.018470349 0.058898415 0.003310716 -0.00655879 -0.060560897 0.068903126 -0.04149927
-0.07153586 0.077900216 0.09571904 0.14618666 0.12533562 -0.14894709 -0.0988698 -0.10239044
0.18145524 0.046908416 -0.18306904 -0.00074348197 -0.0004889946 0.11443816 -0.1797313 0.18044323
-0.15806946 -0.05747125 0.04808609 0.040844094 0.079823375 -0.17920755 0.0064593265 0.15377805
0.15991056 -0.16716555 0.10944607 -0.1674638 -0.15548325 -0.11840651 0.112979196 0.1307531
0.061577935 -0.14490035 0.039759587 -0.12435695 0.036839254 -0.1479597 0.12388099 0.060124774
0.022541272 -0.16059083 0.03587881 0.16209549 0.12180949 0.17394765 0.14242198 -0.09297401
-0.07048224 -0.030167006 0.17499925 -0.15860158 0.17022528 0.0056069214 -0.013830699 -0.040476315
0.11278247 -0.06720746 -0.073453955 0.17211373 0.02628684 -0.12896107 0.14931491 0.050085686
0.13705496 -0.017369345 0.05919013 -0.052636147 0.13462432 0.10124391 0.025528396 -0.09710442
0.07581855 -0.056920316 -0.17689912 -0.012693844 0.101770565 0.1413796 -0.00014334213 -0.031392623
-0.06963975 0.09490025 -0.08483765 -0.010628448 0.1431323 -0.017049193 0.08962726 0.18239734
-0.022827785 0.19783835 0.106460445 -0.024842873 0.032462757 0.039017238 -0.052519646 0.10594112
-0.12761347 -0.013894625 -0.078357235 -0.086334005 0.12134484 -0.036617987 -0.1150924 0.034702513
-0.027906759 0.0344654 -0.005182321 0.043615844 0.01253127 0.087000124 -0.05411439 -0.011262361
-0.18933462 -0.099750735 0.14550301 -0.07472226 -0.13104606 -0.18733458 -0.06592227 0.15845492
-0.095328316 0.076672606 0.17242949 -0.0007350232 -0.1489096 0.19702217 -0.10139567 -0.016117197
-0.025220953 -0.07843954 0.024011375 0.13711849 0.080403306 0.0037425507 0.017234907 -0.13502122
0.047983773 0.13565521 0.12959445 -0.034443084 -0.040708162 -0.13148238 0.22375269 -0.17475033
0.045899294 -0.22134387 -0.1261436 -0.073999286 0.042812735 -0.16976872 0.08861491 0.094581425
0.18098633 -0.015711278 -0.017262178 -0.042046092 -0.11622001 -0.107775144 0.12069334 0.052097343
0.14768082 -0.06098378 0.104850724 0.15300041 0.031083759 -0.018869102 -0.036984593 0.18123658
-0.051634155 -0.18933843 0.09307136 0.08550384 0.08182501 0.07398453 0.15567236 -0.054349765
0.07828312 -0.13894853 -0.10765209 -0.09739977 -0.13835962 -0.1361318 -0.17652382 0.1330972

lstm1_2.0.bias f4 [32]
00000000: 5928 4fbe a7bf c83d 1afe e6bb 2447 cebd
00000010: 20b2 b8bd a64e f4bd 54fc ddba 2602 7cbd
00000020: 7d3b 0abe 8c5e 0d3e a667 c0bd 13dd c5bd
00000030: 276c 3fbe bf6e 27be a60e 183e eded ff3c
00000040: 22d8 c93c 06ae a63d 67a9 193e 428a 0dbe
00000050: a94a 20be cbcd 2abe 13e0 813c 5904 623d
00000060: 8905 863d 1a68 6e3d edf7 cabb 377d e43c
00000070: eeb3 1dbd 1c68 f03d 265b b4bd b153 0c3e
-0.20230235 0.0980218 -0.0070493342 -0.10072163 -0.0901835 -0.119290635 -0.0016936162 -0.061525486
-0.13499255 0.13805598 -0.09394769 -0.09661307 -0.186936 -0.1635084 0.14849338 0.031241382
0.024639193 0.08138661 0.15006028 -0.13822272 -0.1565348 -0.16680066 0.015853917 0.055179927
0.065440245 0.058204748 -0.006194106 0.027891738 -0.038501672 0.11738607 -0.08806448 0.137038
