results/pretraining_samples_effect_results/Dataset 1/pre_rate=0.7/Experiment2(25-2)/from_Dataset 1_ft_model.pth (torch, 95756 bytes, 27 tensors)

cnn1.0.weight f4 [16, 1, 3]
00000000: b5d2 b0be e5b8 523e 1834 183f 030b edbe
00000010: 3461 d93d f33b 93bd dc5e 13bf d474 e93e
00000020: 66e6 2e3e 2e5b 343e c20d 183f 0779 723e
00000030: 2c44 fb3e 638a 88be b4db b43e 54e9 913e
00000040: 98d9 103f 347a 90bd 1285 343e 28de c3be
00000050: 19be 813e 801c 6a3e 177a 0d3f 3e53 293e
00000060: ea5b af3e def9 e6bd 43d9 b53e ece7 0fbf
00000070: 3aa8 ccbb 61da 9f3e 8049 903e fc74 983d
00000080: e0bb 9e3c dcee f0be e000 cb3e adc8 f33b
00000090: a29a e9bc f6a2 dfbd 3faa 2fbe 6a6f 92be
000000a0: 3763 713c c76b ac3d e245 04bc 8717 f23e
000000b0: 332b d2bd 17a5 04bf 0b9f 053f 4fef fa3d
-0.34535757 0.20578344 0.5945449 -0.46297464 0.10614243 -0.07189169 -0.5756662 0.45596945
0.17080078 0.17612907 0.5939599 0.23678981 0.4907545 -0.2666808 0.3532387 0.28498328
0.5658202 -0.070545584 0.17628887 -0.3825543 0.25340346 0.22862434 0.5526442 0.1653566
0.34249812 -0.11278127 0.3551732 -0.5621326 -0.00624564 0.31221297 0.28181076 0.07444188
0.019376695 -0.47057235 0.39649105 0.007439694 -0.028516117 -0.10919754 -0.17154787 -0.28600627
0.014733127 0.084189944 -0.008073302 0.47283575 -0.10262146 -0.5181441 0.52195805 0.12252676

cnn1.0.bias f4 [16]
00000000: f2c1 1a3f c5ef 6cbd baff 94be c651 59bd
00000010: 008d 093d bcd9 d3be bec5 b23e 2d72 023f
00000020: eb86 9abe c933 9fbe aee7 debe 31a3 61be
00000030: 2e09 c43e 028b 0b3e 7ed4 dabe ad68 0fbf
0.6045219 -0.05784585 -0.29101354 -0.0530565 0.033581734 -0.41377056 0.3491649 0.5095547
-0.3018106 -0.31094196 -0.43536133 -0.22034909 0.38288254 0.13627246 -0.42740244 -0.560191

cnn2.0.weight f4 [32, 16, 3]
00000000: bfbf 2cbd 1b5f 30bd 84d5 24bd 298d 5f3d
00000010: 0ef4 7b3d 58ff 073e b22f bebd be9f 85bd
00000020: 643a 21bd bc16 14be 77bf b63c c505 41bd
00000030: d91d cbbd 2a28 17be 78fe 7f3d 9d92 c1bd
00000040: ac45 033e cdcc ffbd ac6b 2f3d de96 283d
00000050: 2d0a a83d 2996 12be ec7e 973b b795 543c
00000060: f421 a23d 0b3e 5e3c 3c4c b93d 01e9 3bbd
00000070: 3d37 8e3d 95df 04bd 5288 cfbd 5cb0 00be
00000080: b962 913d d182 243b 476d 79bc a803 2a3d
00000090: 26f6 05bd 1f3c c1ba d3b6 aebd bffb f4bd
000000a0: 8690 443d 1c3f cbbd 973b 913d 5b30 043e
000000b0: 68cb fa3c e6a5 e63d d3b4 a23d b579 f63d
000000c0: 0efb 033d cd9d 46bd 7b5e 91bd c656 be3c
000000d0: 4fc8 51bd ade6 213c 691c 0a3e d6cf d7bc
000000e0: db7b b7bd 3775 d73d 95d5 c23d 3a9c 8fbc
000000f0: fbf4 f0bb 0f8a adbd 3691 913d dc4b 263e
00000100: 74f8 4d3e 5c84 3d3e edb6 f1bd d7cc de3d
00000110: b817 403d 9815 a33d b380 363d 254a 2d3e
00000120: 8f79 3f3e 76d1 573e 3c7e 413e 84cd b93d
00000130: d8a0 df3d 797e 783c 742a ebbd 8b0f f6bd
00000140: a370 e03d 0eed f9bc d34f b7bd 7365 08be
00000150: 4cfe 903d bc18 2a3e d201 f43d 23bf d63d
00000160: d9a0 133e d36f 153e 1877 d3bd a54a d0bd
00000170: db9a b0bb f357 83bd 48f3 043e 87ea d0bd
00000180: f81f fc3c d005 82bd 35b7 123e 5b12 ee3c
00000190: 8e48 213c fa93 ab3d 173a 76bd 21bd 8e3d
000001a0: 69a9 a93c 2525 de3b 9ead afbd 4e06 11be
000001b0: 1e44 a1bd 39bd 2cbd 23f6 b83d f749 e33d
000001c0: b5fb 0cbe d570 ad3b fc7c 553c 9d50 7cbd
000001d0: 49e3 cabd da44 693c c846 fd3c 3adb c73c
000001e0: 1624 9c3d 2ddf e83d ff31 bd3d 5317 103e
000001f0: 4846 21bd e62f 05be 61e2 04be 0083 aabd
00000200: c48f 95bd 9559 a93d a7c3 ddbd 622d edbd
00000210: eefe c1bd 2734 593d a9e0 4bbd 5f72 b4bd
00000220: a9f4 bf3d b3a0 acb6 3e0d fcbb 25a1 08be
00000230: cd4f 333d e179 1dbd fb4d 09be 5cc4 9f3b
00000240: 68e0 ed3d f87a 223e 420f 1f3e f627 e23c
00000250: 94e4 b4bc 9d0d cb3d 7aaa 773d 6f60 613d
00000260: 07c2 b53c 6810 1a3d 5741 a1bc cbd7 cb3d
00000270: f682 c2bd 78d9 b63c 6cb8 053e 3eb4 cbbd
00000280: e895 133e cde0 ea3d 20ff 11bc 054e 1c3e
00000290: 808c acbd bd0e 013d 2577 bfbc 4fb1 883d
000002a0: 4226 b8bd 5b89 bebc 3b3e 55bd 3fa8 cdbc
000002b0: 4c17 ecbc 4793 0f3e 6ca3 e43c 65b8 8dbd
000002c0: b354 ca3d e769 b73d 7ce5 d0bd c1af ebbd
000002d0: d24c 6bbd f2e7 e93d c32b afbd 13af 463e
000002e0: 1d44 433e fbbb 4ebd 20d2 073d e442 23bc
000002f0: bf55 e3bd b39e 0f3e da00 a7bd 8e84 f1bd
00000300: a197 08be 31fd 06bd 58bc 65bd 78df 163d
00000310: d98b 043e 6545 03bc 1d54 0dbe c2e1 9e3d
00000320: 6046 b2bd 31ee 5f3c 250d 9a3d d4c0 8cbc
00000330: 60df d03d 5a6d af3d d919 13be d04f a83d
00000340: b1ee e53d 1674 093e 4c42 a7bd 7552 d33d
00000350: 4ef4 2abd f435 c5bd 6cdc d5bd 0571 dabd
00000360: e581 c83d f096 913d 1f00 c5bb 3b72 b6bc
00000370: 1dfa da3c 7c09 9f3d 05d2 fabd 5e9d d9bd
00000380: 3719 243d 0023 f83c 4202 8c3d d76e adbd
00000390: fefc 52bc bc32 f13d e446 a6bd 555e ec3d
000003a0: 0dea a3bd 4ee5 e03d fe90 013e a5bc c63d
000003b0: d065 1bbc 9bf0 dcbd 6443 e9bd 4106 cd3d
000003c0: ce4a f53d dc27 5dbd b3d1 d23c bb26 cc3d
000003d0: 8b5a a23c 5172 ffbd 0a49 693d ed15 06bd
000003e0: 68b1 103e 999f 96bd 607f e73d fcec ccbc
000003f0: dcb3 dcbd 23e0 cd3c 1c61 bc3d c50d a03d
-0.04217505 -0.04305945 -0.040242687 0.05457798 0.061512046 0.13281 -0.09286441 -0.06524609
-0.039362326 -0.14461797 0.022308094 -0.047124643 -0.09917802 -0.14761415 0.06249854 -0.094517924
0.12819546 -0.124902345 0.042827293 0.041159503 0.08205066 -0.14315094 0.0046232846 0.012975148
0.07916632 0.013564597 0.09047744 -0.045876507 0.069441296 -0.032439787 -0.10133423 -0.12567276
0.07098908 0.0025102387 -0.015223808 0.041507393 -0.03270545 -0.0014742649 -0.08530965 -0.11962079
0.04798939 -0.099241465 0.07091444 0.12909071 0.03061457 0.11262111 0.07944646 0.120349325
0.032221846 -0.048490334 -0.07098099 0.023234736 -0.05121642 0.009881658 0.134874 -0.026344221
-0.089591704 0.10520404 0.09513394 -0.01753055 -0.0073534227 -0.08473598 0.07107775 0.16239876
0.20114309 0.18507522 -0.118024684 0.10878914 0.04689762 0.07963103 0.04455633 0.16922815
0.18698715 0.21075997 0.18895811 0.09072402 0.109193504 0.015166872 -0.11482707 -0.12014683
0.10958984 -0.030508544 -0.08950772 -0.1331995 0.07079753 0.16610998 0.1191441 0.10485675
0.14416827 0.14593439 -0.1032545 -0.10170487 -0.005389554 -0.06413259 0.1298343 -0.102009825
0.030776963 -0.06348765 0.143277 0.029061487 0.009843959 0.08377834 -0.060113993 0.06969667
0.020710664 0.0067793303 -0.08578037 -0.14162561 -0.078743204 -0.042172644 0.09031322 0.11098092
-0.13767894 0.0052929916 0.013030287 -0.061600316 -0.099066325 0.014237607 0.03091754 0.024396528
0.0762407 0.113706924 0.092380516 0.14071397 -0.039373666 -0.13006553 -0.12976982 -0.083257675
-0.07302812 0.082690395 -0.10828333 -0.11580922 -0.09472452 0.053028252 -0.0497748 -0.08810877
0.09372837 -5.1447073e-06 -0.0076920083 -0.13342722 0.043777276 -0.03844631 -0.13408653 0.004875703
0.11615068 0.15867221 0.15533164 0.027606945 -0.02208165 0.09914706 0.060465313 0.055023607
0.022187246 0.037613302 -0.019684477 0.099532686 -0.09497635 0.022320494 0.13058633 -0.09946488
0.14412653 0.114686586 -0.008910924 0.15264137 -0.08425236 0.031508196 -0.023372242 0.06674444
-0.08991672 -0.023258856 -0.0520613 -0.02510464 -0.028819703 0.14021026 0.027909957 -0.06919936
0.09879436 0.08955746 -0.10200021 -0.11508132 -0.05744631 0.11421193 -0.08553269 0.19402723
0.19068952 -0.05047224 0.033159375 -0.009964678 -0.11100339 0.14025383 -0.08154459 -0.11792861
-0.13339092 -0.032956306 -0.05608782 0.03683421 0.12943973 -0.00801215 -0.13801618 0.07757904
-0.08704829 0.013667629 0.07522038 -0.017181791 0.101988554 0.08565779 -0.14365329 0.08218348
0.112271674 0.1342319 -0.08166942 0.10318462 -0.041736893 -0.09629431 -0.10442433 -0.10666088
0.097904004 0.07108867 -0.0060119773 -0.022271266 0.026730591 0.07765481 -0.12247089 -0.106257185
0.04006311 0.030290127 0.06836368 -0.08468407 -0.012877701 0.11777255 -0.0811899 0.1154143
-0.08003626 0.109812364 0.12652966 0.0970395 -0.009484723 -0.10788079 -0.11389807 0.100109585
0.119771585 -0.05399309 0.025734758 0.09968325 0.019818565 -0.12472976 0.05695442 -0.032735754
0.14130175 -0.073546596 0.11303592 -0.025015347 -0.10776493 0.02513129 0.0919821 0.07815126

cnn2.0.bias f4 [32]
00000000: 8035 fe3d dcd9 823d df9d 1dbd b0fc 213e
00000010: bf76 413d 9bb4 9ebd 942a 883d c709 c8bc
00000020: c330 4b39 919b 233e 94ab 04be 47b3 58ba
00000030: d596 cebd 8a01 f43b afca b83d 79ea f6bd
00000040: 738b 8f3d cc37 db3c a43e 8d3c a0f0 11bc
00000050: 8a2d 62bd 3d7d fb3d 6326 3c3d 15e0 d5bd
00000060: 0ff6 573b ac0e 0cbd d529 e3bc db4a 29be
00000070: 0e54 78bd 6e32 933d cdec a53d 080c d0bc
0.12412548 0.0638921 -0.038480636 0.15819049 0.047232386 -0.077492915 0.06648746 -0.024418725
0.00019377754 0.15977313 -0.12956077 -0.00082664605 -0.10087363 0.0074464725 0.09023034 -0.12056441
0.0700902 0.026760004 0.017241783 -0.008907467 -0.05521921 0.12279747 0.045935046 -0.10443131
0.0032953059 -0.03419368 -0.027729908 -0.16532461 -0.060627036 0.07187353 0.08101807 -0.025396362

lstm1_1.weight_ih_l0 f4 [64, 32]
00000000: 868e 4e3e 59e8 2bbe d0a4 083d b988 d0bd
00000010: ceaa 133e 082d ee3d 501d fe3d 00c8 41ba
00000020: bf82 3cbe 2b64 a3bd 2c71 653e 4c68 8d3d
00000030: 4766 6f3d 0256 603e 01e0 4d3e bab3 18be
00000040: 325d 5bbd 2772 0d3e 234a 213e 6803 393e
00000050: b09a 19bd 0cd7 903d 4eda 0cbe d0aa 5dbe
00000060: b8f4 043e ec29 463e 4ec0 58be f7b3 e33d
00000070: 000d 54bc f6fe c73d 940a c1bd 7ef0 0b3e
00000080: 8ff0 c7bb 35c7 e7bd 8cff 663e a345 323e
00000090: 2c79 493e e4d1 523e 8278 39be 6af3 693e
000000a0: d13e c53c 50e6 2b3d 4590 c7bc 90ee 1fbe
000000b0: 5638 5b3e 1375 f4bc ee0e 543e 004a 49bb
000000c0: 5d48 ecbc c785 3c3e 9049 f4bc 249a 343e
000000d0: 56e3 323e c04b a7bc a0f2 4cbe 24ff 16be
000000e0: a8c0 2f3e e386 50be 8ed1 913d 4e14 35bd
000000f0: 4063 923b afd7 e23d 6cd6 ac3c 7efb 203e
00000100: 6be4 2e3e 4eee 493e 989e 4abe 5948 09be
00000110: cef5 783e 42eb 273e e05e 2b3e 3e6d 50be
00000120: dee0 2f3e 4d60 83bc 4362 b4bd 58c2 513d
00000130: f9d4 ab3d 344a 7bbd bd7a 673e 781e 93bd
00000140: 6987 44bd 3189 0e3e bf79 2f3e 6c56 2bbe
00000150: aa25 763e d8ec 103e 42f5 f4bd fc94 033e
00000160: 206b 07bd e17c dcbc b0c3 2c3b de67 28bd
00000170: ecab c33d f78b 72bd 379d c13d 267b dc3c
00000180: 64d7 0e3e 320b 293e 40ea b23b 82f7 31be
00000190: 6ee8 153e dc64 593e b180 e03d ea5e 5e3e
000001a0: 6056 e93d fab7 04bc 972b f93d acf2 bb3d
000001b0: 484e c63d ab30 37bd cb6f 60be 30bf aebc
000001c0: 355a e2bd f068 2bbe 24cf 81bd 527b 44be
000001d0: c0b7 04bd d086 133d d035 fb3c 7c48 e93d
000001e0: 0f26 ee3b b31f 20be 6b0a 6ebe 4c99 71be
000001f0: 9862 40bd e01d 553c e19a 433e 1c0d 733d
00000200: 364f aebd d676 5b3d acbf e53d 9f4c 2cbe
00000210: 8c92 9cbd 66e0 6abe b1e6 143e fea6 11be
00000220: abc5 9c3d e6e4 e2bd d0a9 663e b06a 0d3d
00000230: d049 e8bd 49d1 eebb 6f1c e1bd 10df 02be
00000240: c887 2a3e 6083 20be bc43 8d3d a034 3b3c
00000250: 7ed0 6fbe a0a0 263c 9b45 843c ccdb 7b3e
00000260: 0b9a da3d 8f06 b73d 4a32 36be 9247 5dbe
00000270: 0a38 10be d424 af3d c880 973d 5a8a eabd
00000280: acc7 93bd e0ab 0b3e 2081 663e b422 1dbd
00000290: 80ea 73bb 99da 5a3e eac8 963d e6c1 00be
000002a0: 1c27 693e 065f 8e3d 61ce 03be 8a93 36be
000002b0: ca2b e33c 160b 5ebe 806b b3bd 40a4 17be
000002c0: 9644 0f3e b0ef e73d b04f e3bd bc75 e63d
000002d0: 0052 453a 12ae 15be e138 06be 60aa 423d
000002e0: 9164 1b3e f816 23be 8032 733e 14b9 d8bc
000002f0: 60d6 83bc 24f0 7ebd 8c91 5bbe 28c1 6ebe
00000300: 2e91 5abe 4b7f 043e 309f e23d 99bf c83d
00000310: e026 573e 0a3a 53bd ced2 bd3c 8c36 653e
00000320: 679c 1d3e 4ef1 babc 99e4 b73d c8b7 28be
00000330: 679a 5a3e d936 14be 6551 753d 0c08 023e
00000340: 167f 703e 934d 13be 9848 093e 2c2f 1cbe
00000350: fc5f 253e 0064 7cbc d398 ef3d 8490 893d
00000360: 7ed5 073d 4c02 7bbd 24be 2b3e 32ed 413e
00000370: 7eef 633e f395 babd fcd8 483e ef31 bc3d
00000380: a393 bdbd e1a4 643e ac32 bdbd 2b7a 473e
00000390: 90e0 ed3c fb85 b9bd 0d5b 7e3e 9428 c3bd
000003a0: fb5f 063e f5cb 903d 2eb4 033e a42d 8e3d
000003b0: 6afc 09be 4858 b03d 1902 05be 4048 ba3b
000003c0: f4e6 133d 0988 a4bd e52b 683e 58e9 abbd
000003d0: 2084 ef3d 8052 743d 4712 0ebe 028d 07be
000003e0: 8779 f93c 31a5 ad3d 763c 47be e13c 2bbe
000003f0: 3c8b f5bd fa67 7d3e 0ea8 583d 5afd dfbd
0.20171556 -0.16787852 0.033360302 -0.10182328 0.14420626 0.11629683 0.12407935 -0.0007392168
-0.1840925 -0.0797809 0.22406453 0.06904659 0.05844715 0.2190781 0.20104982 -0.1491231
-0.053555675 0.13813077 0.15750937 0.18067706 -0.037501037 0.07072267 -0.13755152 -0.21647191
0.12983978 0.1935193 -0.21167108 0.1111831 -0.012942553 0.09765427 -0.09425846 0.13665959
-0.006101675 -0.113172926 0.22558421 0.17409377 0.1967513 0.2058788 -0.18112376 0.22846761
0.024077805 0.04196769 -0.024360785 -0.15618348 0.21408209 -0.029840982 0.2070882 -0.0030714273
-0.0288431 0.18410407 -0.029820234 0.17636925 0.17469534 -0.020421863 -0.20014429 -0.14745766
0.17163336 -0.20363955 0.071200475 -0.044208817 0.004467398 0.11076295 0.021098338 0.15720937
0.17079322 0.19719812 -0.19787061 -0.13406505 0.24312517 0.16398337 0.1673541 -0.20354173
0.17175624 -0.01603713 -0.088078044 0.05121073 0.08390231 -0.061350062 0.22605415 -0.07183546
-0.0479807 0.13919522 0.17136286 -0.16732186 0.24037805 0.14152849 -0.11960842 0.12849802
-0.033061147 -0.026915016 0.0026361756 -0.04111468 0.09554276 -0.059215512 0.094538145 0.02691419
0.13949353 0.16508177 0.0054600537 -0.17379573 0.14639446 0.21229881 0.10962046 0.21715894
0.11393428 -0.008100504 0.12166517 0.09177145 0.096829 -0.044724148 -0.21917646 -0.0213314
-0.11052362 -0.16739249 -0.06338337 -0.19187668 -0.0324018 0.03601724 0.030665308 0.113907784
0.0072677205 -0.15637092 -0.23246162 -0.23593634 -0.046969026 0.013007611 0.1910205 0.059338674
-0.08511202 0.053580128 0.11218199 -0.16826104 -0.07645139 -0.22937164 0.14541127 -0.14223859
0.0765489 -0.11078815 0.22525716 0.034525573 -0.113422036 -0.0072881323 -0.109917514 -0.12780404
0.16653359 -0.15675116 0.06897685 0.011426121 -0.23419377 0.010170132 0.016146472 0.24595565
0.106739126 0.08936798 -0.17792621 -0.21609333 -0.14083877 0.08551946 0.0739761 -0.1145217
-0.07215819 0.13639784 0.22510195 -0.038363174 -0.003721863 0.21372451 0.0736254 -0.12573966
0.22768825 0.06951718 -0.12871696 -0.17829719 0.027730841 -0.21683916 -0.087607384 -0.1480875
0.13991007 0.11325014 -0.110991836 0.11252925 0.00075271726 -0.14617184 -0.13107635 0.047525764
0.15175082 -0.1592673 0.23749733 -0.02645544 -0.016093433 -0.062240735 -0.2144224 -0.23315871
-0.21344444 0.12939183 0.11065519 0.09802169 0.21010923 -0.051569022 0.023171809 0.22384089
0.15391694 -0.022820141 0.089791484 -0.16476357 0.21347962 -0.14474048 0.059892077 0.12698382
0.2348598 -0.14385061 0.13406599 -0.1525237 0.16149896 -0.015404701 0.11699071 0.06717017
0.033162586 -0.061281487 0.16771752 0.18938139 0.22259328 -0.09110632 0.19614023 0.091892116
-0.09256675 0.22328521 -0.092381805 0.19480197 0.029037744 -0.09058758 0.2483942 -0.09529224
0.13122551 0.07070152 0.12861702 0.06942299 -0.13475195 0.08610588 -0.12989081 0.0056848824
0.036108926 -0.08033759 0.22672994 -0.08394116 0.11695123 0.05964899 -0.1387416 -0.13237384
0.030453457 0.084787734 -0.19456658 -0.16722442 -0.119894475 0.24746695 0.052894644 -0.10936995

lstm1_1.weight_hh_l0 f4 [64, 16]
00000000: adf9 a03d a1d7 493e b49d f63d 180e 213e
00000010: 6387 553e b5af 573e 992e 1fbe f7eb 893e
00000020: 8403 0a3d 2015 7b3e a988 ff3d 8a05 643e
00000030: eb21 4d3e ef82 343d b8fd 1dbd 0d7f 873d
00000040: d15d 6dbe f5c8 a13d 75a2 6abe ff1b dd3d
00000050: 6530 2c3e f018 08bd 2d41 20be 8afd 89bd
00000060: 9bd1 7fbd 7a36 653e bd04 2b3e 51e2 0d3e
00000070: 6c35 253e 2d09 373c 7e4e 27be f587 2f3d
00000080: 5010 69be b7e7 413e f0b8 76bd cafa acbd
00000090: 816e 1fbe 5147 4abe 0f2d e3bd 5dad 6ebe
000000a0: 4a77 44be 26f5 a13c b061 6e3e 243f ea3d
000000b0: 28ea 0ebe 70d8 fd3d a010 fdbd eb5b 403e
000000c0: c80f 14bd 7a9f 693e ca04 d5ba 6a10 2cbe
000000d0: f231 e2bd 6e58 a13d 0a81 863d 059b 2dbe
000000e0: 572e 2cbe 0b13 fc3d ea1d 0f3e 8d6a cd3d
000000f0: 31d4 f33d 4fe1 4b3e 9283 cc3c 157f 8e3e
00000100: 50f3 053e b9af 61be ce72 8dbd fae6 273e
00000110: db5a ee3d ee57 1d3d 75f0 9b3d 8e4a 483e
00000120: 1451 953d 843d 303e 1fb0 59bd 8bb4 5e3e
00000130: 6c10 32be ab8d 493d e21b 26be 6195 01bd
00000140: f0dc ac3c 128d 363d e641 8e3d 5ff3 a53c
00000150: ea4f 0cbe 526f cabd bde2 97bd a61f 4bbe
00000160: 1a3a 24bd da80 5e3e 4570 3339 4d6d 32bc
00000170: b0aa 81bd 32ae 40bd 26df 2b3c 418d 01be
00000180: e6e4 593d 26b1 a0bc 8675 32be 98c6 933e
00000190: 7a19 0b3e d401 6c3e 2398 93be 459b 073d
000001a0: e788 c03d b464 36be 18b5 4c3e f2b5 593d
000001b0: 118a 403e b5c1 bcbd 576a 0bbe f8d2 503d
000001c0: 0666 423e 6ce9 2cbe e89b 5d3e 1ae8 5e3e
000001d0: eb7c 043d 787e 34be 2a64 6b3d 32d4 c83d
000001e0: f4ac 72be 174d 80be 51ab f7bc 8be7 ab3d
000001f0: b263 ff3d 30d3 5f3d e005 303e a9c7 16be
00000200: 1977 393e cb50 f03d 748d 263e 45e8 363e
00000210: 144e e9bd db8b 5b3e 3d61 ddbd d532 90be
00000220: 087d a03e d70b abbe 6399 783c f656 3bbe
00000230: a597 23be 4c60 f93d a40b 1abc ac3a e73d
00000240: 86d8 423e 6a68 693e 1d5d af3d 4227 5cbd
00000250: 32b2 ef3d 5a1b 86be ce42 08be c7dd 52be
00000260: db6b 243e ff29 a1bc b802 4a3e 30fe 433e
00000270: 1a1f ca3d ee28 c7bd 0917 2cbc 7ac7 8d3c
00000280: b9d3 373e 0b07 013e 5991 d03b 615b 3d3e
00000290: b376 5b3e 541b 2e3e 3cb0 703e 5ae1 42be
000002a0: e7a6 ff3c 3083 6abc 51d4 3b3b 79d5 033e
000002b0: 41a3 0dbe b7b2 e8bc 4f38 57be 8236 c2bc
000002c0: e7f8 e83d 0869 883d 015e 5abe 79e8 45bd
000002d0: ae99 843e d921 d03d 1137 2c3e ac42 f93d
000002e0: f07e 3e3e 14c4 72be 4b8b 063d 544e 30bc
000002f0: 5b78 413e dde7 6cbd db30 87bd d311 093e
00000300: ba1c 4abe 2a22 753e 3a76 0f3e aec4 a53c
00000310: 8d82 5fbe ff61 6b3e bf21 74bc 65f8 3fbe
00000320: 63bb 50bd 8db7 3cbe bb68 753e a35f 393e
00000330: 463e 5e3e 941d ed3d 1ae8 d3bd f690 5e3e
00000340: 1880 4ebc 51f1 c8bc 61e2 2c3e 29d8 863e
00000350: 8be5 2b3c aa43 603c 64e7 90be 6cd3 be3d
00000360: 4c37 a2bd bc5c 4dbd b5d8 0d3e a637 763d
00000370: fda4 d0bd 099d 45be 0196 3a3d 2572 203e
00000380: 0967 62be 32be 313e 9c1a 0d3e 8016 89bd
00000390: 6961 1abd b6dd 1dbe 4415 bb3d 9f71 9abd
000003a0: 9076 6cbd faba f63c c086 53be bbf7 5bbd
000003b0: 054d 943e 19fa 12be 374a 90bd d071 35be
000003c0: 6136 063e 72e0 13bd 0392 c9bd 37b0 0b3e
000003d0: 01ce 483e 5b03 82be be96 5d3e 6d2d 31be
000003e0: 8541 973c 89b8 95bd 468b 7d3d 6611 583c
000003f0: 9d84 123e b3c5 8e3e e834 fc3d 7b68 163e
0.07860122 0.19711162 0.12041798 0.15728033 0.20852427 0.2106312 -0.1554512 0.2693784
0.03369476 0.24519777 0.12477238 0.22267738 0.2003247 0.04407018 -0.038572043 0.0661603
-0.2318032 0.07899658 -0.22913535 0.107963555 0.16815336 -0.033226907 -0.15649863 -0.06737812
-0.062455755 0.22384062 0.16701026 0.13855864 0.1613366 0.011171621 -0.16338536 0.042854268
-0.22760129 0.18936048 -0.060234964 -0.08446272 -0.15569498 -0.19753768 -0.110925786 -0.2330832
-0.1918613 0.019770216 0.23279452 0.11437824 -0.13956511 0.12394798 -0.123566866 0.18785064
-0.036147863 0.22814742 -0.0016252038 -0.16803136 -0.110446826 0.07878195 0.06567581 -0.16953667
-0.16814552 0.1230832 0.13976255 0.100300886 0.11905707 0.19910167 0.024965081 0.2783133
0.13081098 -0.22039689 -0.06906663 0.16396704 0.11638423 0.038413934 0.07614223 0.1955969
0.07290855 0.17210966 -0.053146478 0.21748559 -0.17389077 0.04920737 -0.16221574 -0.0316366
0.021101445 0.04456813 0.06946163 0.02025765 -0.1370236 -0.09884514 -0.07416294 -0.19836292
-0.040094472 0.2172884 0.00017112594 -0.010890317 -0.06331384 -0.047041126 0.010490214 -0.1265154
0.05319681 -0.019615721 -0.17427644 0.28862453 0.13583937 0.23047572 -0.2882701 0.03310706
0.09401112 -0.17811853 0.19990957 0.053152032 0.18802668 -0.09216634 -0.13614784 0.050982445
0.18984231 -0.16885918 0.21641505 0.21768227 0.032345694 -0.17626369 0.05746857 0.09806098
-0.23698789 -0.25058815 -0.030233057 0.08393773 0.12470187 0.054644763 0.17189741 -0.14724602
0.18111838 0.1173416 0.16264898 0.17862041 -0.11391845 0.2144007 -0.10809562 -0.28163782
0.3134539 -0.3340747 0.015173289 -0.18294892 -0.15975817 0.1217657 -0.009402189 0.11290488
0.1902791 0.22793737 0.08562682 -0.053748377 0.1170391 -0.26192743 -0.13306734 -0.20592414
0.16056769 -0.019673346 0.197276 0.19139934 0.098692134 -0.097246036 -0.010503539 0.017307032
0.1795186 0.12600343 0.006364983 0.1849189 0.21431999 0.17002612 0.23504728 -0.19031277
0.031207515 -0.014313504 0.0028660486 0.12874402 -0.13831808 -0.02840553 -0.21017574 -0.023707632
0.11375599 0.06660658 -0.21324922 -0.048317406 0.25898498 0.10162706 0.16817881 0.1217092
0.1860311 -0.2370761 0.032847684 -0.010760862 0.18893568 -0.05783831 -0.06601115 0.13385706
-0.19737521 0.23938814 0.14009944 0.020235386 -0.21827145 0.22986601 -0.014900624 -0.18747099
-0.050959956 -0.18429394 0.23965733 0.18102889 0.21703443 0.11577907 -0.10347004 0.21734986
-0.012603782 -0.024529131 0.16883232 0.26336792 0.010491739 0.013688007 -0.28301537 0.09317669
-0.07920703 -0.050137267 0.13852198 0.060111664 -0.10187719 -0.19298185 0.04555321 0.15668543
-0.22109617 0.1735771 0.13779682 -0.06693745 -0.037690554 -0.15416607 0.091349155 -0.07541203
-0.057730258 0.030118454 -0.20656872 -0.05370305 0.2896501 -0.14353217 -0.07045405 -0.17719197
0.13106681 -0.03610272 -0.09842303 0.1364144 0.19609834 -0.25393185 0.21639535 -0.17302485
0.01846386 -0.07310588 0.0619004 0.013187742 0.143084 0.27885208 0.123147786 0.14688294

lstm1_1.bias_ih_l0 f4 [64]
00000000: ee90 263e d9a3 1a3e 7803 f13d 1ee0 6a3e
00000010: 0eb9 14be f6cb 793d f73a 16bd 803d 17be
00000020: f0f4 03be aa9d d0bc 2424 ec3c 0d1e 60be
00000030: a836 943c 60bc 5dbd 9b7a 0cbd 7ad1 463e
00000040: b0bf 4f3e 50dd 5e3e 9ed6 40be e7f8 5a3e
00000050: 2feb a839 6c57 9d3d 2dfe 713e 8feb 823e
00000060: 3921 473e 6b2b 903d 5078 5a3e ec3b 93bc
00000070: edeb 3fbd c99f 87be 394f 3dbe 4710 943d
00000080: caf4 41be da1c 0c3e 66ed 1cbe 0116 0f3e
00000090: cf5e 70be c4a7 89bc f7ea 51be 16b0 2c3d
000000a0: 6847 233d 08b0 433e fa43 0dbe b05b 1abe
000000b0: ba9b 96bd 60b5 70be b91b 84bc 7e23 1d3d
000000c0: 293b 623d 4afc b63d 69e7 0c3d fa2d 24be
000000d0: 0747 c5bd 104e 6f3d 8b67 163e 099b 003d
000000e0: c256 d83d 83f1 b73d 4e0a 6fbe 8b64 4f3e
000000f0: 0a48 5a3c 327d 79be c6a0 683e 09b0 07be
0.16266224 0.15101565 0.1176824 0.22937056 -0.14523718 0.060985528 -0.036677327 -0.14769554
-0.12886405 -0.025465805 0.028825827 -0.21886463 0.018092468 -0.054134727 -0.034296613 0.19415846
0.20287967 0.21764112 -0.1883187 0.21384011 0.00032218682 0.0768269 0.23632117 0.25570342
0.19446267 0.07039531 0.21334958 -0.017972909 -0.046855856 -0.26489094 -0.18487252 0.07229667
-0.18941036 0.13682881 -0.15324935 0.13973238 -0.23473667 -0.01680363 -0.20499788 0.042160116
0.03986302 0.1911012 -0.13795462 -0.15074039 -0.07353921 -0.23506689 -0.0161265 0.038363926
0.0552322 0.08934839 0.034400377 -0.16033164 -0.09632688 0.058424056 0.14687936 0.031397853
0.10563423 0.089816116 -0.23343775 0.20253198 0.0133228395 -0.24364164 0.2271758 -0.13250746

lstm1_1.bias_hh_l0 f4 [64]
00000000: fa56 c1bd ed91 6dbe dad6 dd3c 192b 493d
00000010: 746c 50be 7252 53be a3c6 0dbe 4ae9 43bd
00000020: bde9 f13d 6d00 503e dc85 33be 7329 7bbe
00000030: c682 66be a220 d4bd 7c28 5d3e 375e cb3d
00000040: 8094 1cbe e8c7 50be 059a 31bc 430a 473e
00000050: fca1 3fbe ad79 04be cc87 d23c 58c0 5ebe
00000060: 9a35 76be 1360 07be 0767 5bbc 8461 85be
00000070: b2fc 7f3e d79f 2c3e 2822 053e 5ee6 3dbe
00000080: 1e3c 21be 0472 d63d 9566 f1bd 7c61 23be
00000090: 05ab 73be c753 d83d d7b1 593e ac2d 723d
000000a0: 55ed 5abe b232 d93d 9065 48be fca3 48be
000000b0: 9419 4f3e 7492 1fbe faab c1bc 79d1 c7bd
000000c0: a55b 73be 37af 8ebc edc3 fe3d 33c1 35bd
000000d0: 7a55 613e 35d1 e13d a600 943e e3cb 60be
000000e0: 2c7c 23be 8715 dc3d dc3a 733e 7e46 e8bd
000000f0: 49af b5bc 6a43 3c3e 02b2 893e c478 5cbe
-0.094404176 -0.23200198 0.027079988 0.049113367 -0.20353872 -0.20636919 -0.13845305 -0.047829904
0.1181216 0.20312662 -0.17531532 -0.2452753 -0.22510824 -0.10357787 0.21597475 0.099300794
-0.15291023 -0.20388758 -0.010839944 0.19437508 -0.18714136 -0.1293704 0.025699519 -0.21753061
-0.24043885 -0.13220243 -0.013391263 -0.2605096 0.2499874 0.16857849 0.13001311 -0.1854491
-0.15745589 0.104709655 -0.11787144 -0.15955156 -0.23795708 0.10562854 0.21259247 0.059125587
-0.21379597 0.106053725 -0.19569993 -0.19593805 0.20224601 -0.15583211 -0.023641575 -0.097567506
-0.23765428 -0.017417533 0.124397136 -0.044373702 0.22005263 0.11026231 0.28906745 -0.21952777
-0.15965337 0.107462935 0.23752922 -0.1134157 -0.022178309 0.18385091 0.26893622 -0.21530443

lstm1_1.weight_ih_l0_reverse f4 [64, 32]
00000000: 78fc 863d 5625 e83d 50b3 02be 35ad 323e
00000010: 5035 3fbd 29b0 31be 1513 323d 3c85 b8bd
00000020: 5389 8ebd 6a04 893e ba19 47bd 0092 c8bb
00000030: 4fd3 723e c49b c0bd 1737 53be 2aa4 223e
00000040: f20a 4dbe b575 113e c696 bc3b 4e55 3d3e
00000050: ac34 d63d 6a4b 1cbe aed3 d63d de2b 70be
00000060: 016c 9a3e 8ca1 543e 3f25 04bd 86ff e43d
00000070: 04a1 cfbd 6a00 443e 3380 3dbe f371 243e
00000080: 8839 86be d3ab 653c 28ef 243e 815e 5abe
00000090: e0cc 02bd 6270 cfbd 8bed 6e3e e00e d4bd
000000a0: 57fa 6abe a494 263e ee50 6fbc 5ce0 cf3d
000000b0: ab5f eabd b09c 033e 262c 033e ae42 143e
000000c0: 47f0 47be 0b80 29bb ac79 2b3e 28c8 10be
000000d0: 4681 47be 1a7d 153e 465b 11be 9aad 2f3e
000000e0: 791e aa3b 71c4 f9bc dd07 21be 7f74 9bbd
000000f0: 3ad5 2d3e aabd 533a 064d ffbd 95b8 4abe
00000100: b0db 883e f729 943d fce6 f1bd 5b75 63be
00000110: c026 c1bc e63d 6b3e 3fee 993d 4875 1b3e
00000120: b3ff cbbc ecde 3fbe e81b c6bd e850 6cbd
00000130: 8f2b 61bd c584 b0bd 3085 4fbe 1033 a7bd
00000140: 4bbe 35bc 19cd 813d 3dea 58be 8a1a 303e
00000150: a04b afbd 60a9 64be 5ace 03be 7848 35be
00000160: e7d1 41be ab0d 393e 8742 6bbe c0c4 f03d
00000170: d00d e8bc 5c65 54be cef4 e03b 84e3 f73d
00000180: 0808 d1bd d76b c3bd 7021 fe3d 9f3b fbbd
00000190: eaaf 54be ac5b c8bc ab4f 73be 8059 703c
000001a0: f9d8 343e 13e3 dcbd 336a 623d 6c2e 12be
000001b0: 48f1 323e f266 703e da6e 583e 3a89 0f3e
000001c0: d1dd 6fbe 2d69 0fbe ecbf 4038 603c d93c
000001d0: c057 45bd fee9 423e 6a52 7dbc b674 203e
000001e0: a1a8 943d 115d b43d d506 573e aec4 0c3e
000001f0: 7065 71be 27dd 593d e40b 2f3e 987f 703d
00000200: 3755 1a3c f4fa 9c3e 007c 11ba 9adf 1dbb
00000210: 885d 4abd c9b5 2ebe 4b76 033e d623 693e
00000220: b93d 5e3e bc7b 743e 1564 b23c 5814 213d
00000230: b183 b6bd 3df4 08bc ce9e 34bd 4820 c33d
00000240: d4c8 ce3d 13fc cb3d edb3 8c3e 7a9e 7b3e
00000250: dc28 e73d c8e4 763e 5264 ffbd 603b 6abd
00000260: 0830 933d 45bd df3d 40ed 6abd b3a9 2f3e
00000270: f8f0 20bd 448d 993e f48c 0fbe e43b 00be
00000280: 2caf 33be 0042 5a3d b4a1 d0bd eb9f 0cbe
00000290: 8c88 a13d f404 31be e4ab aebc c474 d93d
000002a0: dbbd 01be fa63 f53d f40f 593e 7a38 43be
000002b0: c730 58be e831 1b3e d3ed 97bd 42f6 2cbe
000002c0: ed13 ef3d 545a f1bd 4007 4e3e 8439 293e
000002d0: 98a1 e73d 3c37 3ebe 38f6 51be 6c79 50be
000002e0: bded 25bd cc82 dbbd 14ba 31be 311c 843e
000002f0: 8058 953c 9b38 12bd 60f5 543e 4cb1 2ebe
00000300: b2aa 3fbc f6f9 df3c ba8e 05be c686 f7bd
00000310: 34b1 7b3e 76cd 3d3e c63a df3d 6c2f 0bbe
00000320: e6ec 62be 7781 7a3e 2c80 2c3e f62d 1b3e
00000330: 38a6 2ebe e637 f7bb 2945 b9bd d05d ef3c
00000340: bc1c 413e c6ad eebd 9b39 21be 6074 c53c
00000350: aa67 10be 66e7 4a3e 7f05 24be dcb3 79be
00000360: c49e 503e cff4 243e ce12 9b3d f54f adbd
00000370: c4ec a2bd a57c 7f3e 4b69 37bd 77a4 1abe
00000380: c73e 09be eec1 7e3b b224 243e 2511 14bd
00000390: e0d4 593c 5b73 66be ad51 6e3e a423 f2bd
000003a0: 0f58 4cbe c144 88be 5c6d 71be 2000 bdbd
000003b0: 233e dd3d c8d2 753e a0e6 42bc f808 3cbd
000003c0: 76fd db3d 936f 463e c549 f5bd 88c3 12be
000003d0: 4c4d e9bd b25e 55be 1d23 8e3c 4054 253c
000003e0: 4620 5fbe ab8a 0fbd 94be 61be 1c2b 333c
000003f0: e81f 4d3d d3bc 7bbe 2444 c8ba 5250 5fbe
0.06591123 0.11335246 -0.12763715 0.17448886 -0.046681702 -0.17352356 0.04347523 -0.090097874
-0.06959786 0.2676118 -0.04860852 -0.00612092 0.2371342 -0.0940471 -0.20626484 0.15882936
-0.20023707 0.14205058 0.0057552783 0.18489572 0.10459265 -0.15263143 0.104895934 -0.23454234
0.30160525 0.2076475 -0.032262083 0.1118155 -0.10138133 0.19140783 -0.18505935 0.16059093
-0.26215768 0.014018017 0.16106856 -0.21325113 -0.031933665 -0.10128857 0.23332803 -0.103544
-0.2294706 0.1626764 -0.0146066975 0.10150215 -0.114440285 0.1285274 0.1280981 0.14478561
-0.19525252 -0.0025863673 0.16745633 -0.14138854 -0.19482908 0.14598504 -0.14194974 0.17156067
0.005191621 -0.030489178 -0.15725656 -0.07590579 0.1697587 0.00080772734 -0.12465863 -0.19796975
0.26730108 0.07234567 -0.11811635 -0.22212736 -0.023578048 0.22972831 0.07516145 0.15181458
-0.0249022 -0.18737382 -0.096732914 -0.057694346 -0.05497318 -0.08619074 -0.20265651 -0.08164036
-0.011092733 0.063379474 -0.21183105 0.17197624 -0.08559346 -0.22330236 -0.12871686 -0.17703426
-0.18927728 0.1807162 -0.22974597 0.11756277 -0.028326899 -0.2074179 0.0068651205 0.12103942
-0.1020661 -0.09542053 0.124087214 -0.12267231 -0.20770231 -0.024457775 -0.2376086 0.014669776
0.17660893 -0.107854985 0.05527706 -0.14275521 0.17474854 0.2347677 0.21136037 0.14017192
-0.2342446 -0.14004965 4.595511e-05 0.026518047 -0.048179388 0.19034573 -0.015461544 0.15669522
0.07258726 0.088068135 0.209987 0.13746902 -0.23573852 0.053189423 0.1709438 0.058715433
0.009419731 0.30660212 -0.00055497885 -0.0024089576 -0.049405605 -0.17061533 0.12838094 0.22767577
0.21703233 0.23875326 0.021776238 0.039326042 -0.08911837 -0.008359012 -0.04409676 0.095276415
0.10096899 0.09960189 0.27481022 0.24572173 0.1128709 0.2411071 -0.124703065 -0.05718553
0.071868956 0.10924772 -0.057355165 0.17154579 -0.039292306 0.2999059 -0.14018613 -0.12522846
-0.17547292 0.0532856 -0.101870924 -0.13732879 0.078873724 -0.17287046 -0.021322198 0.106179744
-0.1267008 0.1198196 0.21197492 -0.19064513 -0.21112357 0.15155756 -0.07418408 -0.16890815
0.116737224 -0.11784807 0.20119953 0.16525847 0.113101184 -0.18575758 -0.20504081 -0.20358819
-0.040509928 -0.10718307 -0.1735614 0.25802758 0.018230677 -0.035698514 0.20796728 -0.17059821
-0.011698412 0.02734087 -0.13042727 -0.12086253 0.24579316 0.18535408 0.10899882 -0.13592309
-0.22160682 0.2446345 0.16845769 0.15154251 -0.17055595 -0.0075445054 -0.090463944 0.029219538
0.18858618 -0.116542384 -0.15744631 0.024103343 -0.14102045 0.19814834 -0.16017722 -0.24385017
0.20373064 0.16109012 0.07571946 -0.08462516 -0.07955316 0.24949892 -0.04477815 -0.15101801
-0.13402854 0.0038872915 0.16029623 -0.036149163 0.013295382 -0.22504942 0.23273344 -0.11823204
-0.19955467 -0.26614955 -0.23576874 -0.092285395 0.10802867 0.24006188 -0.011895806 -0.04590699
0.10741703 0.193785 -0.11976961 -0.14332402 -0.11391696 -0.20836905 0.017350728 0.010090888
-0.21789655 -0.035044353 -0.22045356 0.010935571 0.050079256 -0.2458375 -0.0015279097 -0.21807984

lstm1_1.weight_hh_l0_reverse f4 [64, 16]
00000000: 0810 15be 3000 10bd 9d1c 043d 2dca cc3d
00000010: 3013 74bd b378 9f3d 1d15 d2bd b915 4ebe
00000020: 56fd c5bb 672f 9dbd 4aed 593e 3219 b5bc
00000030: 2485 52be 3cb5 133e 07fa 0fbe 4afb c13d
00000040: 9798 30be f92a 303e 39c6 71be 967d 15bd
00000050: 4ace 933d cd91 63bd 641c c43d 2a93 bdbd
00000060: 20a1 ad3e 7932 79bd 3c58 23be 6940 4bbd
00000070: d25f 84be eae7 adbd 63a0 d33d 8d72 513b
00000080: 904d 5dbd 14af 8d3e b847 db3d 50c0 bfbd
00000090: 3aa4 34be de70 103e 5dde 25be f03a e2bc
000000a0: 1dbc 1f3c c65a 54be 7853 7b3e dfe7 e33d
000000b0: 949f 763d 7085 7abe 0708 2c3e 64fb 3c3d
000000c0: d6ec 5dbd f6b4 79be 966b 813e 5321 523d
000000d0: 8dc7 02be e53e 803d a3fb 51bc e3ec 1dbe
000000e0: ba18 523e 2cf5 13bd a8e2 c13d 38dd 93bd
000000f0: eb81 00be 1914 8abd 1f73 35bc f573 523d
00000100: 03a4 85bd 1796 21bd bd63 18be 55af 11be
00000110: 3623 9b3a 79f4 23be 17fe e4bd 74ee 053e
00000120: fc2f ae3d 491a 193e 73af b8bd 14ea 73bc
00000130: b120 973d 0d38 5c3e 61f3 053e 0dfb 383e
00000140: 88b1 db3d 25e9 cebd ff35 70be e334 e83d
00000150: d15f f33d 241f 343e 298c 57be f54b 00be
00000160: aeae 2d3e c840 483e b237 aebd 7c80 903c
00000170: e973 693e 526d 58be b35d 14be cdc2 703e
00000180: 8b80 2bbe 25b5 3fbc c397 22be 7270 3e3c
00000190: 2c4e 313e f6db 533d f027 b6bd 9ee7 d13d
000001a0: cb99 643e 8af8 2c3e a04f 83bc d002 b2bb
000001b0: bbfe e33c 7f57 c4bd 0cb0 e53d 45a6 62be
000001c0: 2cc3 8e3e 35ea 3bbe f7c2 7abd 013a 3cbe
000001d0: f656 f63d 35ab 2e3d 9d3d 05be 5366 783e
000001e0: 33d0 e43d 9fe1 81be adc4 6d3e 78eb 89bd
000001f0: 3cb9 c4bc be17 0dbd 3071 2b3e ec91 1fbe
00000200: d0f8 df3d f5b2 00be 4de2 b23c adcd 4fbd
00000210: d01b 903e adb0 91be 4c06 7ebe 4b13 85be
00000220: 2745 643e 386d eb3c 9393 983d 4d6f 82be
00000230: df0e 7dbe a79f 05bc 4963 89be 15e5 cbbd
00000240: 5f52 0ebe 6f75 c4bc a3aa 703e 57e4 dabd
00000250: 4011 04bd 921e a13e 739b 0cbe a2bc 3d3e
00000260: ae17 933d e636 b7bd 7da7 4bbe 2924 75be
00000270: ac93 00bd b809 1ebd 3cb0 493d 12f7 023e
00000280: edb0 833c dfdd e2bd 5758 073e 53fd c7bd
00000290: 9c9b 5b3e cfe9 fd3d 6b14 de3d 2b6e 4d3e
000002a0: 307b 7bbd 9cc0 533e e8d7 b4bd 5072 64be
000002b0: db1b 113e e14b a9bd 5f2d aabd 22d4 04bd
000002c0: 60b1 bcbd 39af 1c3d 821a f13d db8a 96bd
000002d0: 9141 cf3d f522 94bc 522c 17ba 855a 233e
000002e0: 9418 93bd eebc 0c3e 6c5e 70bd fac1 6cbe
000002f0: 9f80 c8bd 3001 953e 674b c0bc a6c6 fe3d
00000300: 5151 82bd 9883 48be d584 1fbe 6935 c13a
00000310: 14b3 43be 72db a33c 9cc5 6a3d 6de0 9e3d
00000320: a7ef 91bd c79d 0ebe 11dc 64bd da81 753e
00000330: 2cb1 1e3e f239 5cbe 8cda 293e 8a0e 4abe
00000340: a465 633d 778a b9bc 303f c4bc 83e7 963e
00000350: cc54 623d 27f6 07bd 596c 8b3d 544a 54bd
00000360: 2034 473e a9dd 873d 93c2 f83c c62c bb3d
00000370: c736 24be 86fd 543e facc b83d cc67 70be
00000380: 7ddb edbd 8954 053e 8ee5 c7bd 4f11 14be
00000390: 5cb0 923d 414f a53d 6c02 d53d 1691 44bd
000003a0: bd57 dcbd 8399 4c3e 3d2d 513e 15fe 44be
000003b0: 8061 4bbe 7974 093e cd54 293e cca1 103c
000003c0: eae6 6b3e 98e9 1bbe 90b6 743e e501 bd3d
000003d0: a6e8 99bd 622d 543e 068f 38be 7fdb 8d3c
000003e0: 5802 84bd 340d bc3d 0bcc 4a3e e95b f23d
000003f0: 035d 573e 5b59 a3bd bd0c 123e 966b 7f3e
-0.14556897 -0.03515643 0.03225385 0.099994995 -0.05958861 0.077866934 -0.10257933 -0.20125474
-0.006042163 -0.07675057 0.21281925 -0.02210674 -0.20558602 0.14424604 -0.14060222 0.09471758
-0.17245708 0.17203893 -0.23610772 -0.03649672 0.07217081 -0.05555897 0.095757276 -0.09256585
0.3391199 -0.06083915 -0.15951627 -0.049621973 -0.25854355 -0.084915 0.10333326 0.0031959147
-0.054029047 0.27672637 0.10707039 -0.093628526 -0.17640772 0.14105555 -0.16198106 -0.027615994
0.00974944 -0.20737752 0.2454356 0.1112821 0.06021078 -0.24464965 0.16799937 0.046138182
-0.054180942 -0.24385437 0.25277394 0.05130131 -0.12771435 0.06261996 -0.0128163425 -0.15422396
0.20517245 -0.036122486 0.094670594 -0.072199285 -0.1254956 -0.067421146 -0.01107481 0.051380116
-0.065254234 -0.039449777 -0.14881797 -0.1422704 0.0011836055 -0.16011228 -0.11181276 0.13079244
0.08505246 0.14951433 -0.09017839 -0.014887352 0.07379282 0.21505757 0.13081123 0.18064518
0.10727221 -0.101030625 -0.23458098 0.11338212 0.1188351 0.17590004 -0.2104956 -0.12528975
0.16961166 0.19555962 -0.08506717 0.017639391 0.22798122 -0.21135452 -0.14488868 0.2351181
-0.16748254 -0.011700903 -0.15878205 0.011623489 0.17314976 0.051723443 -0.08894336 0.102492556
0.22324292 0.16891685 -0.01602918 -0.005432464 0.027831426 -0.09587001 0.11215219 -0.2213374
0.2788328 -0.18351062 -0.06122109 -0.18381502 0.12028305 0.042643744 -0.13011785 0.24257784
0.11172523 -0.25367448 0.23219557 -0.06734365 -0.024014108 -0.03444647 0.16742396 -0.15583009
0.10936129 -0.12568267 0.021836424 -0.050733257 0.2814622 -0.28455105 -0.2480709 -0.25991282
0.22292005 0.028738603 0.074500225 -0.2547554 -0.24712704 -0.00815574 -0.2683356 -0.09955803
-0.1389861 -0.023981778 0.23502593 -0.106880836 -0.032243013 0.31468636 -0.13731174 0.18528989
0.07182251 -0.08946018 -0.1988811 -0.23939575 -0.03139083 -0.038583487 0.049240336 0.12789562
0.016075576 -0.11077475 0.13217293 -0.09765115 0.21446079 0.12398111 0.10843738 0.20061557
-0.061396778 0.20678943 -0.08830243 -0.22309232 0.14170782 -0.08266426 -0.08309435 -0.032428868
-0.09213519 0.038253043 0.11772634 -0.07350703 0.10119928 -0.018083075 -0.0005766797 0.15952499
-0.07182422 0.13743946 -0.058683798 -0.23120871 -0.097901575 0.29102468 -0.023473455 0.12440233
-0.06363166 -0.19581449 -0.15578015 0.0014740649 -0.19111282 0.0200021 0.05731736 0.077576496
-0.07125788 -0.13927375 -0.055873934 0.23975316 0.15497273 -0.2150648 0.16587275 -0.19732109
0.055516854 -0.022649033 -0.023955911 0.29473504 0.05525665 -0.033193734 0.06807775 -0.051828697
0.19453478 0.06634075 0.030366218 0.09139399 -0.16036521 0.20799837 0.09023471 -0.23477095
-0.1161413 0.13020529 -0.09760581 -0.14459728 0.07162544 0.08071757 0.104008526 -0.047989927
-0.10758922 0.19980435 0.20427413 -0.1923755 -0.19861412 0.13423337 0.16536255 0.008827638
0.23037305 -0.15225828 0.23897767 0.09228877 -0.07515077 0.20720437 -0.18023309 0.017316578
-0.064457595 0.09182206 0.19804399 0.11833937 0.21031575 -0.079760276 0.14262672 0.24943385

lstm1_1.bias_ih_l0_reverse f4 [64]
00000000: 6427 ddbc c3fb 53be 30ec 45bd 85d4 263e
00000010: 3b44 10be cac5 17bc 6aab 01be 0350 5a3d
00000020: c391 8b3e b8b1 6f3e 7558 20be e1b6 9d3e
00000030: fb6c 02be ffd9 0c3b 912a 7c3e 713c 22be
00000040: 18c8 103e 2126 e0bd 1de6 473e 4f23 723e
00000050: cbd1 433d 81b6 77bb cf89 393e 5e28 4c3c
00000060: 4dde 5f3e 7508 08be addc 11be 1f9d 07bd
00000070: 969d da3d 11e6 bebc 07cc 6cbd d4de d33d
00000080: 1c0b 463c 253b 213e e826 843e 9beb 06be
00000090: 503f d33c b648 583e c3f4 833d 3ca6 65be
000000a0: 8963 6dbe ee91 f0bd c6ec 073d de50 18bd
000000b0: eb6b 923d 53e6 7ebd d729 0a3e d0de 623e
000000c0: 0dbb 20bd 4749 2d3d 170a 1ebe da37 11be
000000d0: 1bc2 2b3e 1f58 3c3e 7257 abbd 69e1 373e
000000e0: 41a7 843e 00a4 fabd 57cb 15be ce93 fb3d
000000f0: eb07 003d d973 6abe 9515 ca3c 1911 0b3e
-0.026996322 -0.20701508 -0.04832095 0.16292007 -0.14088528 -0.009263465 -0.12663046 0.05329896
0.27259645 0.23407638 -0.15658744 0.30803588 -0.12736885 0.002149224 0.24625613 -0.15843369
0.1413883 -0.109447725 0.19521375 0.23646282 0.047807496 -0.003779799 0.18118976 0.012460796
0.21862145 -0.13284476 -0.14244337 -0.033108827 0.106745884 -0.023303064 -0.057811763 0.103452355
0.01208761 0.15745218 0.25810933 -0.13175814 0.025787026 0.21121487 0.06443169 -0.22426695
-0.23182501 -0.11746584 0.03318479 -0.037186496 0.0714949 -0.062231373 0.13492523 0.22155309
-0.039240886 0.04230621 -0.15433536 -0.14181462 0.16773264 0.1839299 -0.08366288 0.17957081
0.25908855 -0.12238312 -0.14628349 0.12284051 0.03125755 -0.22895755 0.024668494 0.13580741

lstm1_1.bias_hh_l0_reverse f4 [64]
00000000: 658f 4fbe 83af cabd 5a93 0e3e 1503 403d
00000010: 334d 263d 22fa 58be 28d6 7b3e 2566 80be
00000020: 588e 1d3e 4997 b83d b639 3bbd 4b7c cdbd
00000030: 06ea b63c 1752 59be 5bb0 24bd c992 33be
00000040: e4a1 613e b351 72be 805e 873d 5d3a 2bbe
00000050: d304 8e3e 2d2f 4b3d fda2 55be 7df8 a43d
00000060: 3b7a 3d3d cae0 f43d 6e53 dfbd ad32 aa3e
00000070: 6800 7bbd a2c6 073d d02b 2cbd c232 14be
00000080: 14d7 d4bd 3d09 e0bc 1c55 4b3e 23bd 943d
00000090: 525d 76bd 8856 28be 5ff8 43be db0a c83c
000000a0: 6811 21bb 82b9 9e3d 3444 363e 8a5f 183d
000000b0: df22 293e 9e7f 043e 9115 83be bee0 5a3e
000000c0: 5570 ea3b b8e3 513e 23dc 833d 064b 41be
000000d0: bf7e 94bd 3f2a 743e 9453 5e3e 3f70 1ebe
000000e0: 1bee 953d 6a7e 043e 6fce 093e 2d7f 833e
000000f0: ea7f 263d 511f 463e e9d8 4bbe dae2 6fbe
-0.20269544 -0.098967575 0.13923398 0.04687794 0.040600967 -0.21189168 0.24593413 -0.2507793
0.15386331 0.0901323 -0.045709334 -0.100334726 0.022328388 -0.21222721 -0.04020725 -0.17536463
0.22034413 -0.23663978 0.06609821 -0.16721483 0.27738056 0.049605537 -0.20862956 0.08055208
0.046259146 0.119569376 -0.10904585 0.33241788 -0.061279684 0.033148415 -0.04203397 -0.14472488
-0.103925854 -0.027348155 0.19856685 0.072626375 -0.06014759 -0.16439259 -0.19137715 0.024419239
-0.0024577025 0.077502266 0.17799455 0.03720049 0.16517209 0.12939307 -0.2560239 0.21374795
0.0071545043 0.20497024 0.06438472 -0.18876275 -0.072507374 0.2384424 0.2171157 -0.15472506
0.07320806 0.12938848 0.13457654 0.25682965 0.040649332 0.19347884 -0.19906963 -0.23426381

lstm1_2.0.weight f4 [32, 32]
00000000: 1e59 ee3d e9c5 093e 077c 2a3e 08d8 1ebd
00000010: 930c 17bc 1595 a13d 41c0 053e fc93 00be
00000020: 5c8c 70bd 0450 a83d 2b0d 423c 0be0 f03d
00000030: 71eb 06be d9d4 ddbd d59c 8dbb 26b6 2dbe
00000040: 3cde 1c3e b2c4 9abd b227 c0bc addf 8d3d
00000050: d7b9 17bd f463 a93d 26d3 44bd 0be3 123e
00000060: e08e cf3c 0b34 c9bd c7ae 24be be62 3fbd
00000070: f8e1 843d 2e39 c1bd ba60 05bd 00ea bf3c
00000080: 9c81 f4bd c012 5dbd f03c 2e3d 582a d1bd
00000090: 8c90 bb3d 4455 21be 139e 363e 7991 d03d
000000a0: 607d bc3d 3940 eabd d46a 123e deeb cfbd
000000b0: 0af5 8d3d f333 373e 9a19 2dbe 0eaa 0a3d
000000c0: 059a 7f3b b169 b63d 1c60 263e 76af 433d
000000d0: 1408 91bd a9bd a83d 5620 10be b4e5 213d
000000e0: f259 afbd aafc 0bbb 1215 8e3b c3e6 9cbc
000000f0: f3b3 7c3c 331f 3dbe 30d1 16be 0bae eb3c
00000100: 7b8a 2f3e 2990 c8bd 3d68 283e 618b bfbb
00000110: 613d 043e 65fa 3b3d 96f5 a03b 9f60 e5bd
00000120: 27bf 803d d498 f13d d473 e2bd 2cf5 4d3d
00000130: 6ef6 a8bd 8190 1ebd a7cc c63d 15d1 0bbe
00000140: f2a0 bf3d 245c d73d d9db 97bb 834d 83bd
00000150: c2f2 eebd 2340 26be bfcc 0ebe 7d40 093d
00000160: 34ba bd3d b004 9f3d 5fd9 673d 2f64 90bc
00000170: 6d25 ebbd 6346 27bd d337 053e fadb 1e3e
00000180: f245 1fbd e27d 9c3d 5cdb a3bd a6f9 033e
00000190: cf2b 16be b1f7 ca3b 1673 b53d c846 1d3e
000001a0: 0e45 403d 24de d0bb a6ad 82bc 9379 1f3e
000001b0: 8d37 37be 392d e3bd 871f e83d 3071 f4bd
000001c0: 203e 273d ae07 523d 7b48 e1bd 4957 75bd
000001d0: e4e8 71bc b979 d4bd 6358 6bbd f89a e43d
000001e0: 53f8 6dbd e9b6 e8bd c6fc 84bd 7d14 0e3d
000001f0: da19 08be 132d 0f3e f063 e3bd 3883 b0bd
00000200: a524 213e 591f b8bd c3cb 123e 4943 1d3e
00000210: 0f47 653c 741d bb3d de08 cb3d 225b 3a3d
00000220: dae0 0bbc 7712 8abd 2e74 483d f376 f3bd
00000230: ed23 f1bd 4c9d aebd 6c35 063e cf8e b3bc
00000240: 4d7f 833d 17d5 b6bc d7ab bcbd d3be 47bd
00000250: 3e37 dcbd 62a1 9cbd da31 f4bd b97f c83d
00000260: f6dd 58bd 0c81 173e dbc8 cf3d bb15 6c3d
00000270: 5692 ac3d 07d0 15be 56ab 1f3e 348c c43c
00000280: 83cf 083e 308b ccbd 71f5 1ebd 4926 9b3d
00000290: 1e71 103e 3aad 83bd 442d 3a3c ab48 0f3d
000002a0: b5e6 3c3e 2e1f b2bd 117c 353e cd32 163e
000002b0: 6d94 0d3e 73a7 13bd adf8 163e 051f 09bd
000002c0: 29ef 7c3d e42f 3d3d 9994 28be 645d 86bd
000002d0: cf2d 293e 3ec2 cebc b5b5 09bc dabd 9d3c
000002e0: 17d5 afbd e3b0 2dbe a5f1 17be 7364 1f3c
000002f0: 8ee3 b8bd f10b 463d e818 54bd a904 01be
00000300: 3e40 ac3c 2170 21be 987a 27be 0956 26be
00000310: 7e49 0fbe 3cb4 9b3d 5de9 69bc 134d f6bd
00000320: aabb ce3d 5366 0b3d 5c26 a8bd a843 df3d
00000330: 67ba 9c3d 1a9c 8b3c 6be1 1a3e ccd0 223e
00000340: ea96 a4bc dcb4 01be db7d 26be 01b0 bd3d
00000350: 280f 5f3d 27ee 2f3e e544 b13d c0f6 023e
00000360: b15e 6b3e f0cd efbc 771f b33c 1f52 95be
00000370: 9971 08be f4c2 f5bd b1cc c8bd 8d69 833d
00000380: 1085 58bd 3eab 03be 6767 6ebd 2241 aabc
00000390: e2da 7abd 1bbe 243e 2df2 973d 045d c0bd
000003a0: 1681 293e 9d2d 8a3d b358 c1bd 7a17 ff3c
000003b0: 35dd 543d ddbe b53d c416 b83d 4fdd 11be
000003c0: 4664 ec3d 9726 96bd 6561 153b 037b 2b3e
000003d0: 730e a9bd f45f bcbd 2a75 3c3d d4f4 01be
000003e0: 81d4 3ebd ad57 603d 767a c03d e798 bfbd
000003f0: 6a5a 32bd 9cee 303e f40f 74bc a5c2 153d
0.116380915 0.13454403 0.16648875 -0.038780242 -0.0092193065 0.07889763 0.1306162 -0.12556452
-0.058727607 0.08218387 0.01184396 0.11761483 -0.13175751 -0.10831613 -0.0043216744 -0.16964015
0.1531915 -0.07557048 -0.023456428 0.069274284 -0.037042465 0.08271018 -0.04805293 0.14344423
0.025336683 -0.098243795 -0.16082297 -0.046725027 0.064884126 -0.09434734 -0.03256295 0.02342701
-0.119387835 -0.05397296 0.042538583 -0.102131546 0.091584295 -0.15755183 0.17833738 0.10183997
0.09203601 -0.11438031 0.14298564 -0.1015241 0.06931503 0.17890911 -0.16904297 0.033853583
0.0039001715 0.08906878 0.162476 0.047774754 -0.07081619 0.082393 -0.14074835 0.039525703
-0.085620776 -0.0021360316 0.004336008 -0.019153005 0.015423763 -0.18468933 -0.14728236 0.028769514
0.1714267 -0.09793121 0.16446014 -0.0058454727 0.12914039 0.04589309 0.0049120886 -0.1120007
0.062864594 0.11796728 -0.11057249 0.050282642 -0.08250128 -0.03871203 0.09707003 -0.13653977
0.0935687 0.10515621 -0.004634362 -0.064112686 -0.11667396 -0.16235404 -0.13945292 0.033508766
0.09264031 0.07764566 0.056603786 -0.017625896 -0.11481748 -0.04083861 0.13009576 0.15513602
-0.038885064 0.07641198 -0.08000824 0.12888202 -0.14665149 0.006194078 0.088598415 0.15359032
0.046940856 -0.0063741375 -0.015951943 0.1557372 -0.17892285 -0.1109261 0.11334138 -0.11935651
0.04083073 0.051276855 -0.11000153 -0.059897695 -0.014764998 -0.10374779 -0.05745734 0.111623704
-0.05809815 -0.11363012 -0.06493525 0.034687508 -0.13291112 0.13982038 -0.11103046 -0.08618778
0.15736635 -0.08990354 0.14335541 0.15357699 0.0139939925 0.09136477 0.09913801 0.045497067
-0.0085374955 -0.06741803 0.048938923 -0.11887922 -0.117744304 -0.08526096 0.13106316 -0.021918682
0.06420765 -0.022318406 -0.09212463 -0.04876597 -0.10752724 -0.07647969 -0.11923571 0.09789986
-0.052946053 0.14795321 0.10145732 0.05763791 0.08426349 -0.14630137 0.15592703 0.023992635
0.1336041 -0.099874854 -0.03880829 0.07575662 0.14105651 -0.06429525 0.011363331 0.03498141
0.18447383 -0.08697353 0.17723109 0.14667816 0.13826151 -0.036048364 0.147433 -0.03347685
0.06175152 0.04618825 -0.16462936 -0.065607816 0.16521381 -0.025239106 -0.008405139 0.019255567
-0.085855655 -0.16962008 -0.14838274 0.009728539 -0.090277776 0.048351232 -0.051781565 -0.12599434
0.021026727 -0.1576543 -0.1635536 -0.16243757 -0.13992879 0.07602736 -0.01427683 -0.120264195
0.10094388 0.03403313 -0.082104415 0.10901576 0.07652741 0.017042208 0.15125053 0.15899962
-0.020091493 -0.12666649 -0.16258948 0.09262086 0.054457814 0.17180692 0.08655719 0.1278944
0.2298534 -0.029273003 0.02186559 -0.29164216 -0.13324584 -0.12000075 -0.09804667 0.064166166
-0.052861273 -0.12858292 -0.05820408 -0.02078301 -0.0612439 0.16088144 0.07419238 -0.09392741
0.16553149 0.06746981 -0.09440746 0.031139124 0.051968772 0.08874295 0.08988717 -0.14244579
0.11542563 -0.07331579 0.0022793647 0.16746144 -0.08254709 -0.09197989 0.046010174 -0.12691051
-0.04658938 0.054771114 0.093983576 -0.09355336 -0.043543257 0.17278522 -0.014896382 0.03656258

lstm1_2.0.bias f4 [32]
00000000: 2310 a7bd 9d9e 90bd 19ea 67bd 819c b63d
00000010: 4ab0 023e 12b4 fe3c 5ea8 d93d 100b 02be
00000020: 341d 94bc 8fcf cc3c 6499 613d 1011 18be
00000030: 2a97 31bd f51c ff3c a593 513d 64c5 10be
00000040: 989e 10bc 0194 3d3d ac89 ea3d 71d5 ad3d
00000050: 66a4 93bc 5c72 413e 9555 90bc 7309 a63d
00000060: 1307 263e 71ec e8bd 5536 17be b620 1bbe
00000070: dc51 b6bd fa74 c93d b680 af3d d09d 13be
-0.08157375 -0.07061503 -0.056619737 0.089165695 0.12762561 0.031091724 0.106278166 -0.12699533
-0.018080331 0.025001315 0.055077925 -0.14850259 -0.043357052 0.031141737 0.051166195 -0.14137799
-0.008826874 0.046283726 0.1145204 0.08487976 -0.018022727 0.18891281 -0.017618934 0.08107271
0.16213636 -0.113732226 -0.1476682 -0.15149197 -0.08902332 0.09836765 0.085694715 -0.1441567
