results/voltage_window_effect/V(3.4-3.5)/pre_trained_model.pth (torch, 95584 bytes, 27 tensors)

cnn1.0.weight f4 [16, 1, 3]
000000 e9 63 e0 3e 73 c1 29 3d ba 44 11 3f 9f a5 f2 bd
       0.43826225 0.041444253 0.56745493 -0.11847996
000010 ee 2c 35 3d 08 89 7f be 0d ae 2c 3d cb cb 0c bf
       0.0442323 -0.24954617 0.042158175 -0.54998463
000020 4b fc 8c bd 03 b0 c0 3c 6e eb 69 3e 2a 0d 21 3f
       -0.068840586 0.023521429 0.22843716 0.6291071
000030 39 27 18 3e 08 28 c4 3d 66 38 0d 3f f4 05 30 be
       0.14858712 0.09577948 0.5516418 -0.17189771
000040 de 52 4c 3e 3e 51 fc 3d 1f 7b 86 be 5d b0 ab be
       0.19953486 0.12320183 -0.2626581 -0.33532992
000050 fa ef 1f bf bc 58 fc 3e 6f 90 e6 3e 09 64 de 3e
       -0.6247555 0.4928645 0.4503207 0.43435696
000060 fc 6b 14 3f b1 08 c7 3e 84 38 84 3e 2e 7b 13 3f
       0.5797727 0.3887382 0.25824368 0.5760983
000070 74 19 b8 be 18 a7 d1 bd 4a ce 5d be 61 71 65 bd
       -0.3595692 -0.10236949 -0.21660724 -0.05601633
000080 57 70 0b bf f8 fb 9c 3e 0d 61 5d be f7 d7 b0 be
       -0.5446829 0.30660987 -0.21619053 -0.34539768
000090 9b c0 6a 3d 45 83 ac 3e 02 70 0f bf 52 57 ab bd
       0.05731259 0.336939 -0.56030285 -0.083662644
0000a0 13 b1 0b bb e4 d2 0f 3e 40 9e a0 be ba 10 17 3f
       -0.0021315261 0.14045292 -0.31370735 0.590099
0000b0 ae 0f a2 3e da 5d 06 bf 4d 26 dc 3e 77 56 f1 3d
       0.31652588 -0.52486956 0.4299797 0.1178407

cnn1.0.bias f4 [16]
000000 20 fc 2d be b6 18 cd be b0 cf 86 bb 6f 21 a5 be
       -0.1699071 -0.40057915 -0.0041141137 -0.3225207
000010 ca 0d dc 3e 69 93 a9 3e eb df b9 3e cd 29 9c 3c
       0.4297927 0.33120278 0.36303648 0.0190629
000020 c2 7f 84 bd 4b 1a a0 be 64 29 b5 be 34 3e b7 3e
       -0.0646968 -0.3127006 -0.3538314 0.35789645
000030 33 b5 4e be 5c c5 eb be 03 c7 ea 3e 97 37 83 3d
       -0.2018631 -0.4604901 0.4585496 0.06407087

cnn2.0.weight f4 [32, 16, 3]
000000 bc 6e 72 bd e4 53 0e 3d d9 4e 07 3e 9b 26 e8 bd
       -0.059187636 0.034747973 0.13213672 -0.113354884
000010 4f 06 c2 3b e0 e0 bc 3d c0 ed ae bd 76 f5 85 3d
       0.005921162 0.09222579 -0.08541441 0.065409586
000020 ed b5 0b be e0 20 04 be 7a c0 19 3d 90 65 9b bc
       -0.13643618 -0.12903166 0.037537076 -0.018969327
000030 b4 d8 48 3d ae f6 bd 3d 4a e0 ba bc 13 49 f6 bd
       0.04903479 0.09275566 -0.022812027 -0.120256566
000040 b8 da a6 bd ca d2 03 be a5 d2 4d bc 92 d7 7f bd
       -0.08147186 -0.12873378 -0.012562429 -0.062461443
000050 65 46 ab bd 33 da 2d bb 65 64 0b be e0 e3 36 3d
       -0.08363036 -0.0026527762 -0.13612516 0.044650912
000060 e1 31 d9 bd eb b8 05 bd 06 0c 03 be 2f 51 0f 3e
       -0.10605217 -0.032647055 -0.12797555 0.13995813
000070 80 10 d6 3c a4 e0 ea 3d a5 d0 0b be 1b 23 09 be
       0.026130915 0.11468628 -0.1365381 -0.13392298
000080 53 c0 b6 3d 56 3c f4 3d 95 41 95 bc 11 ff c4 3d
       0.08923402 0.11925571 -0.018219749 0.096189626
000090 af d8 b9 3d a2 09 a1 3d 57 5e 2b 3d 14 26 af bd
       0.09074532 0.078631654 0.041838016 -0.08552185
0000a0 2b f7 0a 3a cd d2 c5 bd 20 cc 13 3e 3d e0 12 be
       0.0005301113 -0.09659348 0.14433336 -0.14343353
0000b0 6c 76 e6 bd 60 0f 34 bd 19 9c e9 bd 40 c4 f7 bd
       -0.11253056 -0.043959975 -0.114067264 -0.120979786
0000c0 88 8a 65 bc d4 bb 02 3d 01 03 22 3e 40 30 69 bd
       -0.014010079 0.031917408 0.15821458 -0.05693078
0000d0 f1 c0 94 3d c5 a2 5a 3d 32 26 e6 3d c2 12 c1 3d
       0.07263363 0.053377885 0.11237754 0.09427406
0000e0 20 15 a3 3d 09 5b 88 3b be a6 97 3d e8 95 8c 3e
       0.07963014 0.004161243 0.074048504 0.2745812
0000f0 80 94 8b 3c e9 92 93 3d 51 36 a5 3c d3 7d 69 bd
       0.017038584 0.07205755 0.020167502 -0.05700476
000100 b5 59 cb 3d c4 a3 09 3d 21 6e b2 3d 3a 1d 7c bd
       0.0992922 0.033603445 0.08712412 -0.06155131
000110 ee 47 c9 bd 46 39 de bc 9e 30 5a 3d 77 c7 1b 3e
       -0.098281726 -0.02712692 0.05326902 0.15212809
000120 2a 9c 1a 3e f9 00 3f 3d 2c bf 91 3d 15 43 ca ba
       0.15098634 0.046631787 0.07116541 -0.0015431369
000130 96 7e d7 3d da 90 e5 3d 32 b1 b7 3d 73 ee 92 3d
       0.10522191 0.11209269 0.08969344 0.07174387
000140 b6 3b d5 bc d5 b5 45 bb 69 57 5d 3c 38 35 72 bd
       -0.026029449 -0.0030168195 0.01350961 -0.059132785
000150 7a c2 95 3d aa 42 fd bc 3f 82 c9 3a 69 2c e5 3d
       0.07312484 -0.030915577 0.0015373899 0.11190111
000160 1e 3a 4e 3d 08 17 c1 bd 80 9a ba bd e4 42 7e 3d
       0.050348394 -0.09428221 -0.091115 0.06207551
000170 1c bc 16 3e f4 a3 d0 3d 79 19 f2 bd 96 9d a6 3d
       0.14720196 0.101875216 -0.11821265 0.08135526
000180 0f fd 28 be ca 4e 05 3e 89 1d 72 3d bd 34 13 be
       -0.16502784 0.13018337 0.0591102 -0.14375587
000190 7a f6 66 bd be b0 d6 bd 5f 0d e4 bd d9 83 9f 3d
       -0.056387402 -0.1048293 -0.11135363 0.0778882
0001a0 23 19 b6 bd 26 54 e2 bd dd ad 82 3d e7 01 b8 3e
       -0.08891513 -0.11051206 0.06380818 0.3593895
0001b0 98 8a f5 3d 11 11 d6 3d 22 77 88 3c fd 4c ff bd
       0.11989325 0.10452474 0.01665837 -0.12465856
0001c0 fd f1 14 be 2e 9e 06 be 06 0d e4 3d bb cc 24 3d
       -0.14545436 -0.13146278 0.111352965 0.04023431
0001d0 f2 05 16 be 83 3a 7c bd 88 00 0b 3d 62 a1 48 3d
       -0.14650705 -0.06157924 0.033936054 0.04898203
0001e0 b3 93 2f 3b 92 cf 0f 3e 92 33 55 3e 1a 19 00 be
       0.0026790916 0.14044026 0.20820454 -0.12509575
0001f0 da 19 88 bd d5 85 df bd 1f b6 9a bd d5 db f7 bd
       -0.06645556 -0.10914198 -0.07554268 -0.121024765
000200 4e f2 f0 bd 1b 0f f1 3d ea 7d da bd 30 be 25 be
       -0.11764966 0.11770459 -0.106685475 -0.16185832
000210 63 11 f5 bd 4d 8b ac bc aa 84 f2 bd 11 a9 08 3e
       -0.11966207 -0.021062518 -0.1184171 0.13345744
000220 b9 a0 f4 bd 27 79 bb bd 37 1b 09 be a0 1f fe 3d
       -0.11944718 -0.09153967 -0.13389288 0.12408376
000230 69 70 15 3e 4a 61 d0 3d 72 dd 71 3d ec ed 60 3d
       0.14593662 0.101748064 0.059049077 0.0549144
000240 b3 4f 08 3c ca 6d 02 be 44 3e 4e bd 82 a4 95 3d
       0.008319783 -0.12737194 -0.05035235 0.07306768
000250 cd 04 ca bd 05 07 c0 3d 00 bf 85 bc 33 1f 11 be
       -0.09864197 0.09376339 -0.016326427 -0.14172058
000260 b0 b7 8c 3d 69 67 e8 bd 67 2c 30 3d 9a 95 de bd
       0.06870973 -0.11347849 0.043011095 -0.10868378
000270 bd 63 01 bb c7 e4 35 3d 07 e9 c3 bd 8d 1f 75 bc
       -0.0019743287 0.044407632 -0.09565931 -0.014961136
000280 70 58 10 bc e0 aa b8 3d 6d b6 a4 bd ee 5c 40 3d
       -0.008810148 0.09016967 -0.080426075 0.046963625
000290 ac c4 75 bd b0 73 9a 3d fc 96 c6 bd 17 0a c5 bd
       -0.060002014 0.07541597 -0.09696767 -0.09621065
0002a0 8c 2f 86 3d 84 b9 08 3d 91 b8 df 3b ec 6c e6 bd
       0.065520376 0.033380046 0.006827422 -0.11251244
0002b0 b3 6f e2 3d 3e 6c 55 3c 8a cf c8 3d 3d 63 1e bc
       0.11056461 0.013026295 0.0980521 -0.009667215
0002c0 7f 46 1e 3d de 59 02 3e d3 23 8c 3b 49 f9 76 bd
       0.03864145 0.12729594 0.0042767315 -0.06029633
0002d0 73 17 44 3d c0 f5 44 3d 6a f5 4e 3b 3a b2 84 3d
       0.047873925 0.048085928 0.0031579384 0.064793065
0002e0 8e 57 d0 bd f0 27 f4 3c 74 be e1 37 64 9e a1 3d
       -0.1017295 0.0298042 2.6910777e-05 0.07891539
0002f0 6a b0 e2 bd f0 1e ab bd 4f 32 0f be 3e 52 93 bd
       -0.110688046 -0.0835551 -0.13984035 -0.07193421
000300 31 00 4b bd f1 fc 3e 3d a9 df 8e 3d b5 f6 af bc
       -0.04956073 0.046627942 0.069762535 -0.021479944
000310 7d 35 db 3d 65 57 00 3e 80 37 db bd ff e3 02 3e
       0.107035615 0.12533338 -0.10703945 0.12782286
000320 48 a3 63 3c 2e 76 e4 3d b5 ca fc bd 3e 5a c9 3d
       0.01389391 0.111553535 -0.12343351 0.098316655
000330 4f de 1a bd 34 75 78 3d 56 5c e8 3d 49 85 9e bd
       -0.037809666 0.06065865 0.11345737 -0.07740266
000340 ad 1a d9 bd ff 90 eb bb b7 94 2a 3d 4b 7c c0 bd
       -0.10600791 -0.0071889157 0.04164573 -0.09398707
000350 e3 5a bb bd 23 90 82 3d 89 e2 76 3d 23 64 8f 3d
       -0.09148195 0.06375148 0.060274635 0.070015214
000360 c0 df 6a bd dc 04 9c bc cc 45 1c bd 6a 4a e4 3d
       -0.05734229 -0.019045286 -0.0381525 0.11147006
000370 29 dd 16 3d 40 25 d8 b9 48 4a db bd d3 bc 11 bd
       0.03683201 -0.00041226484 -0.107075274 -0.035580467
000380 84 9a 8d bd 83 87 10 3d 53 2c b6 bd 1f 4e e8 bc
       -0.06914237 0.035285484 -0.08895173 -0.028357564
000390 3c e3 0c 3e 58 e1 08 be 4e 9f 41 bd 01 a7 de 3d
       0.13758558 -0.13367212 -0.047271065 0.10871697
0003a0 c9 b2 d1 3d 0b c9 30 3c c1 bb 00 be 24 14 0c be
       0.10239179 0.01079012 -0.12571622 -0.13679558
0003b0 8f 6d 9a bd fd 82 bb bd a8 51 33 bd 82 93 76 3c
       -0.07540428 -0.091558434 -0.043779045 0.015049817
0003c0 ac 20 c4 bd 31 03 a7 bc 1c 36 de bc 61 f5 b7 bc
       -0.09576544 -0.020387264 -0.02712541 -0.022455873
0003d0 0d 41 a5 bc 9b ef 88 bd 94 86 05 3e ba c4 12 3c
       -0.02017262 -0.06686326 0.13039619 0.008958036
0003e0 d4 26 11 3e 5e b7 11 be 2f ca 79 3d 87 df 78 3d
       0.14174968 -0.14230105 0.060983833 0.060760047
0003f0 02 74 aa bd ef 9f 97 bd 18 15 10 3d 60 68 2e 3d
       -0.08322908 -0.07403552 0.035176367 0.04258001

cnn2.0.bias f4 [32]
000000 72 2a 81 bd 53 30 f9 bd f1 9b 38 bc a4 f3 7a 3c
       -0.06306924 -0.1216742 -0.011267648 0.0153168775
000010 7e 1f 9e bd 7b 33 cd 3d 0a 41 15 3d 82 bb f4 3c
       -0.077208504 0.10019585 0.03643898 0.029874567
000020 ff e2 22 3e ae ed aa bd 0c 13 ab bc ec 0d 8e bd
       0.15906905 -0.08346115 -0.020883106 -0.06936249
000030 05 47 07 be 3f f0 42 3c 2b d8 84 bc c0 43 ce bd
       -0.13210686 0.011898099 -0.016216358 -0.10071516
000040 ba a6 a1 bd 33 bd bf bd 4d db 7e 3d 57 3c 17 3e
       -0.07893129 -0.09362259 0.06222086 0.14769112
000050 b1 54 c6 bd dd 67 ba 3d 88 f6 e7 3d ca 56 15 3e
       -0.09684122 0.091018416 0.11326319 0.14583889
000060 36 52 8a bd 33 97 08 be 26 f0 45 bd fb 84 ba bc
       -0.06753962 -0.13338928 -0.048324727 -0.022768488
000070 8f 06 03 be 2d f7 cf 3d a0 46 ef bc 67 75 d3 bd
       -0.1279547 0.10154567 -0.029208481 -0.10325127

lstm1_1.weight_ih_l0 f4 [64, 32]
000000 d8 16 7b 3e 61 24 85 3e 34 3c 3e bd 90 48 bf bc
       0.24520433 0.26004317 -0.046444133 -0.02335003
000010 dc d3 0f be 67 62 13 3e 7c aa 61 be d5 d4 4e 3e
       -0.14045662 0.14393006 -0.22037691 0.20198376
000020 f1 31 6f bd be 46 37 3e d0 73 6d 3e 6e 70 0e be
       -0.058397237 0.1789808 0.2318871 -0.13910076
000030 8e b8 7c be 89 97 a8 3d 00 9b 80 bb 88 73 9d 3e
       -0.24679777 0.08232028 -0.0039247274 0.30752206
000040 10 05 f0 bd ba a3 07 be 3b 7f ce 3d 10 9f 1e 3e
       -0.117197156 -0.1324605 0.10082861 0.15490365
000050 85 07 81 3d 77 b7 ef 3c ca 6a 46 be 75 6b eb 3d
       0.06300262 0.029262288 -0.19376674 0.11495105
000060 de 99 0f bd 2a c4 43 3e 71 f7 50 be 2f c1 a9 3c
       -0.03505885 0.191178 -0.20406891 0.020722
000070 ee ab 08 be 4c 17 6b be 30 47 aa bc 80 2c da bd
       -0.13346836 -0.22958106 -0.020785898 -0.10653019
000080 62 d6 37 be 5d 3d f1 3d 09 d0 95 3d 06 52 0b 3e
       -0.17952874 0.11779282 0.0731507 0.13605508
000090 17 b7 74 3e 04 e1 27 3e 56 7e 18 3e 2f 5c 4b 3e
       0.23897968 0.1639443 0.14891943 0.19859384
0000a0 d9 5b cd bc 73 e4 13 3e bc bf 1b 3e 94 c9 5f 3e
       -0.02506821 0.14442615 0.1520986 0.2185424
0000b0 20 bd f5 bd 2d 20 7b 3e e4 20 f3 3d e2 9f 9d 3e
       -0.11998963 0.24523993 0.11871508 0.30786043
0000c0 48 3e 72 be 80 e5 96 3d 2e f7 91 3e d9 17 22 be
       -0.23656571 0.073679924 0.28508896 -0.1582941
0000d0 16 d7 0e be d8 ea ba bc 56 84 01 be b1 3f 09 3d
       -0.13949236 -0.02281706 -0.12648138 0.033508006
0000e0 13 a6 69 3c f2 b3 78 3e dd f4 84 3b 7e 5a 92 bd
       0.014260787 0.24287394 0.0040575103 -0.07146166
0000f0 04 c9 31 3e f3 73 21 be ee da 74 3e 1e f8 96 3d
       0.17361838 -0.15766887 0.2391164 0.07371543
000100 48 73 a5 3d 84 62 ea 3d e7 3f 0b bc 08 d1 ce bd
       0.08078629 0.114445716 -0.008499122 -0.10098463
000110 d7 da 7c be 34 53 df 3d c4 61 10 be f9 91 ff bd
       -0.24692856 0.109045416 -0.14099795 -0.12479014
000120 bd 42 16 3e 78 c3 a2 3e c0 3e 05 3c f0 37 fb bc
       0.14673896 0.31789756 0.008132637 -0.030666322
000130 ec 22 26 be 39 97 b1 3e 5c 6f 6a be 39 9a bc bc
       -0.16224259 0.34685686 -0.22894043 -0.023022758
000140 a4 14 bd bd 52 5b 72 3e 61 87 9d 3e 14 71 94 3e
       -0.092324525 0.23667648 0.30767348 0.28992522
000150 34 02 93 3e ab eb 52 bd 2c 34 83 3d 42 f7 d2 3d
       0.28712618 -0.05149428 0.06406435 0.10301067
000160 dd d3 3f 3e 80 bf 03 3e 06 39 1e 3e 2f a6 ab 3d
       0.18733163 0.1286602 0.1545144 0.083813064
000170 86 3a 13 3e 76 ef 6d bd f4 3d 11 be 84 78 91 3d
       0.14377794 -0.058089696 -0.1418379 0.07103065
000180 50 18 4e 3e ad 45 59 3c 2d 68 d8 3d 78 22 02 be
       0.20126462 0.013261241 0.10566745 -0.12708461
000190 52 7e 0b be b1 70 38 bd f0 8b 17 bd cf d6 b1 3d
       -0.13622406 -0.045029346 -0.03699869 0.086835496
0001a0 e8 5e 28 bd 66 77 b7 3d f6 77 51 be 12 ab 54 3e
       -0.041106135 0.0895832 -0.20455918 0.20768383
0001b0 92 13 1c be 51 d8 a7 3d fc fa a7 bd 60 65 11 be
       -0.1524184 0.08195556 -0.08202168 -0.14198828
0001c0 64 ed dc 3d 9c 51 0a 3e b8 88 52 bd b1 6d 47 3e
       0.10787466 0.13507694 -0.051399916 0.19475438
0001d0 a1 40 70 3d 0d f3 10 be 62 0c 7d be 91 0c 64 3d
       0.058655385 -0.14155217 -0.24711755 0.055676047
0001e0 a2 39 4f 3e bc 12 4d 3e ee ca f2 3d 58 8f 3f 3e
       0.20236829 0.20026678 0.11855112 0.18707025
0001f0 98 2d cf bd 5c e1 28 bd c8 c2 da bd 39 10 b2 3b
       -0.10116118 -0.041230544 -0.10681683 0.005434063
000200 28 13 20 3d 67 5e 6d 3e 8c 46 a2 bc 20 91 37 bd
       0.03908077 0.23180543 -0.01980903 -0.044816136
000210 2b 0e 1c bd cf 9a b7 3b e2 2e 24 3e b1 0a 06 bc
       -0.03809945 0.0056031714 0.1603351 -0.00818126
000220 59 f8 af bc f4 dd 88 3e 3c 37 ac bd 64 51 8c bd
       -0.021480726 0.26731837 -0.084089726 -0.068514615
000230 9c 5c ab 3d 57 c3 39 3c 28 71 f1 3d 08 fa 97 3e
       0.08367273 0.011338077 0.11789161 0.29682946
000240 c8 1d 0f 3d a0 a5 c4 3d 5d ac db 3c a1 46 66 be
       0.03494051 0.09601903 0.026815588 -0.2248788
000250 27 51 10 3e a3 49 16 be aa d9 09 3e 0a f1 57 be
       0.14093457 -0.14676528 0.13461939 -0.21088043
000260 81 b2 11 be ee df 03 be fc b6 84 3d 7c f9 ab 3d
       -0.1422825 -0.12878391 0.06480214 0.08397195
000270 3c 42 5f be e3 c5 4f 3e a0 b5 bd bc 96 44 0a 3d
       -0.2180261 0.20290332 -0.023157895 0.033756815
000280 f8 20 c0 bd 09 57 d8 bd cd f4 07 3e b0 3d 8e 3d
       -0.09381288 -0.10563476 0.13276978 0.0694536
000290 9b f7 f1 ba e0 98 6d 3e 34 e3 3a 3e fd 5a d7 3d
       -0.0018460633 0.23202848 0.18250734 0.105154015
0002a0 99 2d e2 bd 5c 46 4d bd a4 e6 98 bd 7e e4 5f 3e
       -0.11043853 -0.050115928 -0.07465866 0.21864507
0002b0 44 98 7e 3e 81 47 a7 3e 48 8e e4 3d 82 80 e1 3d
       0.24862772 0.3267174 0.111599505 0.11010839
0002c0 80 b1 c0 bc 06 8d 48 be a2 4a 38 3d 82 66 33 3e
       -0.023522139 -0.19585046 0.04499305 0.17519572
0002d0 a6 9b 22 3d 66 10 92 3e 80 79 01 be f2 da 81 3d
       0.03969922 0.28528136 -0.12644005 0.06340589
0002e0 35 2a 99 3e d4 fc 0d be 3c 4a ae 3d 46 0a 9f bd
       0.29915014 -0.13865978 0.08510253 -0.077656314
0002f0 f0 4b ed 3c 49 fd 4c be 30 45 5a 3d 4d 5f 57 3e
       0.028966874 -0.20018496 0.05328864 0.21032448
000300 d8 c7 c4 3d cb 5b f2 bd 92 9d 84 bc 78 9e ea 3d
       0.0960843 -0.11833914 -0.016188417 0.11456007
000310 65 0c 0e be 48 12 90 bd 28 49 5d bd e8 50 2e 3e
       -0.13871916 -0.07034737 -0.054024845 0.17023051
000320 04 be 49 3e db c2 22 be f4 fa 61 be f0 14 60 3e
       0.19701391 -0.15894644 -0.22068387 0.21882987
000330 80 64 43 bc 3a 83 84 3e 58 88 07 bd 2e c4 bc 3d
       -0.011925817 0.25881368 -0.033089012 0.09217106
000340 52 7c 1b be 58 fb 01 bd 5d 73 89 bc bb 12 3c 3e
       -0.15184143 -0.03173384 -0.016778642 0.1836652
000350 0c 94 60 3e 66 92 8f 3d f2 25 07 be e7 38 3c be
       0.21931475 0.07010345 -0.13198069 -0.18381082
000360 f5 0b 17 be ee 01 06 3e a7 c1 79 3e 17 e3 02 be
       -0.14750655 0.13086674 0.24390279 -0.1278194
000370 90 b3 05 bd d9 9f 4a 3e 1e 92 44 be fc 33 01 3e
       -0.032641947 0.1978754 -0.19196364 0.12617487
000380 d4 a2 64 be 75 fb b2 3d e2 ec 43 3e 08 ac 3e 3d
       -0.22327739 0.08739368 0.19133332 0.04655078
000390 1e 23 52 3e d3 37 45 3d 94 f2 18 be 16 56 18 bc
       0.20521209 0.04814894 -0.14936286 -0.009297868
0003a0 8e 1e 3d be 9c b7 4f 3d d6 fc 4c 3e f0 b9 aa bc
       -0.18468687 0.050712213 0.20018324 -0.020840615
0003b0 2c 29 21 3e 3d 9b 81 bd 90 4e 5a 3e 72 b6 99 3d
       0.15738362 -0.063284375 0.21319032 0.07505502
0003c0 88 44 6b bd 90 18 21 3e 6d 78 d8 3d d7 74 4a 3b
       -0.057438403 0.15732026 0.105698444 0.0030892396
0003d0 32 b6 63 3e 68 d2 84 3d f4 71 45 3e 8e 4a 1b bd
       0.22237471 0.06485444 0.19281751 -0.037912898
0003e0 ab 7a 76 3e 1c e6 a3 3d 05 26 13 be 1c 43 a7 3d
       0.24070232 0.08002874 -0.14369972 0.08167097
0003f0 c0 e4 66 3e 07 a2 97 bd 34 29 02 3e a0 5a 78 3e
       0.22548199 -0.07403951 0.1271103 0.2425332

lstm1_1.weight_hh_l0 f4 [64, 16]
000000 b3 71 18 3e f1 9b f8 3d 66 bf 1f 3d 09 1b 8f bd
       0.14887123 0.121391185 0.03900089 -0.069875784
000010 eb 16 37 be 2f 24 28 3e 91 9a 99 3d ab 5e 84 bd
       -0.17879836 0.16420053 0.07500184 -0.06463369
000020 50 ff 71 3e 4c 1e ac bd 11 bf 29 bd 35 1e 41 3e
       0.2363255 -0.08404216 -0.04144198 0.1885918
000030 d9 0d 4c 3e 4c 8d 2d bd b5 83 34 3e 5c b6 62 be
       0.19927157 -0.04237108 0.17628367 -0.22139877
000040 67 c4 4a be 2c 79 52 3e ac d5 a5 bd 58 05 5a 3e
       -0.19801484 0.20554036 -0.08097395 0.21291101
000050 e4 97 56 3e 32 0b 00 bd 8b 48 63 3e ef 1c c0 3d
       0.20956379 -0.031260677 0.22195642 0.09380519
000060 8a 5e 15 be 10 62 c2 3d b4 02 fb bd 26 a9 b5 bd
       -0.14586845 0.0949136 -0.12256375 -0.08870153
000070 10 2d 40 3e 98 ac 37 be 28 5a 75 bd fc c3 86 3d
       0.1876719 -0.17936933 -0.059900433 0.0658035
000080 79 d8 88 3e 4c 2e 0c be 9c 95 00 be ad 94 15 be
       0.26727656 -0.13689536 -0.12557071 -0.14607497
000090 34 b4 89 be 1b e6 bb 3e 62 cc fd bd 0d fd 5b 3e
       -0.26895297 0.36698994 -0.123924986 0.2148325
0000a0 a3 b3 60 bd ae 9d eb bd f5 7b 3d bd a3 0e 7e 3e
       -0.054858815 -0.115046844 -0.046260793 0.24810271
0000b0 01 0b ac 3b 62 f7 13 be a5 4e b4 be b9 56 84 3e
       0.005250335 -0.14449838 -0.3521625 0.25847414
0000c0 43 18 07 3e e0 f4 67 3d a0 ca d9 be d9 b9 84 3e
       0.13192849 0.056630015 -0.42537403 0.2592304
0000d0 f6 fa c8 3d 33 bd 43 3e f6 2f 6d be 55 63 01 3e
       0.09813492 0.19115143 -0.23162827 0.12635548
0000e0 ec a2 7f 3c 0a 09 98 3c 3b a9 bf bc fe 6d cc 3b
       0.015602808 0.018558998 -0.023396125 0.006238698
0000f0 5a 49 42 3d b4 46 ad 3d 16 4c 6f 3c 2b 62 b8 bd
       0.047433235 0.08460751 0.014605543 -0.09003099
000100 35 e0 3e 3e 93 01 a8 3e 4b ef 8c 3e bf 97 17 3e
       0.18640216 0.328137 0.27526316 0.1480398
000110 77 0e 3e bd 7f 28 c4 3d 6a 45 76 3e 0d 06 d3 bb
       -0.046400513 0.095780365 0.24049917 -0.0064399303
000120 2a f2 8e 3d aa 16 8f 3d 0b 15 9d 3c f5 9d a0 bd
       0.06979783 0.06986745 0.019175073 -0.07842628
000130 be 65 45 be 2b 8e 89 bd 78 83 9d be c3 93 1f 3e
       -0.19277093 -0.067165695 -0.30764365 0.1558371
000140 31 55 c6 3d 54 c9 81 3d 44 31 b5 bd 7b 10 c4 bd
       0.09684218 0.063372284 -0.08847287 -0.09573456
000150 a7 cc bd bc a4 17 4c 3e f9 e2 95 39 bf e7 b8 3e
       -0.023168875 0.19930893 0.00028588602 0.36114308
000160 e7 a0 ec 3d f0 0f 39 be 12 d0 ab 3d 35 2f 2a 3e
       0.11554127 -0.18072486 0.08389296 0.1661957
000170 66 08 c7 bd 52 5d cf 3d 5a f3 9d 3d 07 2d 5e 3d
       -0.09718399 0.10125221 0.07712431 0.05424216
000180 9c 88 3a 3e 15 76 81 3c 58 ca 97 3d 72 04 c6 bd
       0.18216175 0.015803376 0.07411641 -0.096688166
000190 7c b4 f8 bd 62 a4 20 be 50 7e 3a be e3 bd bc bd
       -0.121438 -0.15687707 -0.18212247 -0.092159055
0001a0 58 5c 1e bd 12 3f 74 bc 5c 3c d5 bd 83 b6 42 bc
       -0.038662285 -0.014907615 -0.10411903 -0.0118843345
0001b0 b1 dc be bc f5 07 bf 3d 4c d6 18 be e8 b6 c7 ba
       -0.023298593 0.093276896 -0.14925498 -0.0015237005
0001c0 da d7 bf bc 0a b5 f4 3d da 2d f7 3d 82 db 9a be
       -0.023418356 0.11948593 0.12069292 -0.30245596
0001d0 3b 82 0d 3e 2e 84 c5 bd 02 79 d5 3d 28 8b 06 3e
       0.1381921 -0.09644352 0.10423471 0.13139021
0001e0 c1 48 ec bd 74 77 ab bd 89 9f 93 3e 6e f7 d2 3d
       -0.11537314 -0.08372393 0.28832653 0.103011
0001f0 6d de 30 3e b4 81 71 be c0 9b 0a be 88 82 02 3e
       0.17272349 -0.23584634 -0.13535976 0.12745106
000200 d8 84 9b 3b 1e cc 25 bd 26 ee d0 be a5 38 0f 3e
       0.004746061 -0.040477864 -0.40806693 0.13986452
000210 73 9f c2 bd 10 e7 c1 bd a3 f4 0e be ff d0 2b 3e
       -0.09503069 -0.094679 -0.13960509 0.16778944
000220 8a 6e 0e be 0b b2 48 be b2 49 7c 3e 93 ea ba 3c
       -0.13909355 -0.19599168 0.24637488 0.022816932
000230 e1 33 49 3e 9e fd 6a 3d 01 54 1d 3e e8 99 a1 bd
       0.19648696 0.057370774 0.15364076 -0.078906834
000240 d3 fb d5 bd e6 52 17 bd a7 a3 35 3e 33 28 9c be
       -0.10448422 -0.036944292 0.1773821 -0.3049942
000250 50 65 81 be a9 9f cc 3d 31 30 26 3d 22 65 26 be
       -0.25272608 0.0999139 0.040573303 -0.16249517
000260 34 29 84 bc 07 51 37 bd 67 31 e2 3d 1f 74 14 3e
       -0.016132928 -0.044755008 0.11044579 0.14497422
000270 b1 5e d9 3d 50 65 df bc c0 b7 e6 bd 69 1a 68 bd
       0.10613764 -0.02726999 -0.11265516 -0.05666581
000280 a4 f9 52 3e 92 c1 38 3e 43 b1 5d bd c5 b4 3c 3e
       0.20603043 0.18042591 -0.054124128 0.18428333
000290 a6 b3 53 3e 6b e9 96 3c bf a1 bd 3d db 33 19 bd
       0.20673999 0.01842185 0.09259366 -0.03740297
0002a0 8b f8 58 be 14 7c 09 3e 6c 1d 53 3e bf e1 d9 bd
       -0.21188562 0.13426238 0.20616692 -0.10638761
0002b0 a3 a1 36 be d9 e4 f0 3d ed b7 1b be b0 3d cd bd
       -0.17835097 0.11762399 -0.15206881 -0.100215316
0002c0 eb b3 39 be 85 6c 13 39 f9 61 a2 be 45 0b 31 3e
       -0.1813504 0.00014059439 -0.31715372 0.17289455
0002d0 96 ac 2f 3e dc e5 fe bd ad 79 c5 3d 1c 4e 5f be
       0.1715568 -0.12446186 0.096423484 -0.2180714
0002e0 7f ee 66 be 35 39 6f be 5e d0 36 3e 9f d4 cd bd
       -0.22551917 -0.23361667 0.17852923 -0.1005032
0002f0 ef 69 e0 3d ed e5 e9 3d 76 bc 7a bd c9 9a 40 bd
       0.10957705 0.11420808 -0.061214887 -0.047022615
000300 94 01 77 3e 0c 21 18 be c9 1e 19 3e 15 c7 fd 3d
       0.24121696 -0.14856356 0.1495315 0.123914875
000310 a3 42 13 be 0a 01 dd 3d 69 c8 fb 3d 12 4f a8 3e
       -0.14380889 0.10791214 0.122940846 0.32872826
000320 29 56 cd bd 6a ee d9 3c a8 df 2f 3e c5 5e 7d 3e
       -0.10026199 0.026602942 0.17175162 0.24743183
000330 e9 dc 16 3e 57 a9 0e 3d 60 69 7e bc fe 99 08 3e
       0.14732708 0.034829464 -0.015528053 0.13339993
000340 eb db 4c bd 17 3d 96 3d 2d 09 a5 3d 44 e4 70 be
       -0.050014418 0.07335871 0.08058391 -0.23524576
000350 d8 89 df 3c b1 73 61 be 41 93 fd 3d 41 42 b7 bb
       0.027287409 -0.22016789 0.12381602 -0.005592615
000360 78 ae 07 3e 4c 07 86 be 1f 65 90 3e f2 a7 4a 3e
       0.13250148 -0.26177442 0.2820215 0.19790629
000370 77 c5 15 3e 6b 9e 81 3d 86 90 a7 bb c7 9f 5d be
       0.14626108 0.06329044 -0.005113664 -0.21642981
000380 26 04 ae bc 38 c0 94 3d 10 05 78 bd 8b 71 ce bd
       -0.021242213 0.07263225 -0.060551703 -0.1008025
000390 33 38 51 be 6e ee af 3c eb 5b 0f 3e 86 00 29 be
       -0.20431595 0.021475997 0.13999908 -0.16504106
0003a0 88 83 05 3e c8 65 0b be 4a 84 09 3e 30 0e 1a 3c
       0.13038456 -0.13613045 0.1342937 0.009402797
0003b0 2d d1 bc 3d df 8d 31 3e d4 bd 04 be cc 99 f6 3c
       0.092195846 0.17339276 -0.12963039 0.030102633
0003c0 3a e6 37 be 5d 67 9a bd bb 83 33 be 1c 38 ca 3c
       -0.17958918 -0.07539246 -0.1753072 0.024684958
0003d0 a3 06 0c bd ba de 0d be 7b d5 8a 3c da 01 96 bd
       -0.034186017 -0.13854495 0.016947499 -0.07324572
0003e0 c5 9b 32 be f5 0c bf 3d f7 2e 34 be cb 8b 16 3d
       -0.17442234 0.09328643 -0.1759604 0.03675441
0003f0 cd e0 a2 bd 0c 92 d5 bc 9f a6 ab b9 e6 59 5f 3e
       -0.079530336 -0.026070617 -0.00032739804 0.21811637

lstm1_1.bias_ih_l0 f4 [64]
000000 87 92 1a bd c2 a5 92 3e 39 99 94 3d 85 7e f4 bd
       -0.037737396 0.28642088 0.072557874 -0.11938194
000010 25 af d4 3c 5b 8e 52 be 31 aa 14 be 1a a3 88 3e
       0.025962422 -0.20562117 -0.14518048 0.26686937
000020 26 91 57 3e 54 12 47 be 1b e4 41 3d 32 9d 04 3e
       0.21051463 -0.19440585 0.04733668 0.1295059
000030 a3 17 78 bd b7 1d 7a 3d a1 51 f3 bc a5 38 25 bd
       -0.060569417 0.061063495 -0.02970201 -0.040337224
000040 d8 04 e1 bd 61 e0 8d be 96 16 1d be 3d bf aa bc
       -0.10987252 -0.2771025 -0.15340647 -0.020843143
000050 8a 4b ae 3b 5a ad 88 bd 0b c2 e2 bc a6 2c ee 3d
       0.0053190636 -0.06673689 -0.027680418 0.1162961
000060 cd 17 8c 3e 07 22 67 3e 37 02 87 bd b7 95 a2 bc
       0.2736191 0.22571574 -0.06592219 -0.01984678
000070 82 2d 82 bd cf e0 bc 3d 51 ce 1b bd aa c6 3e 3e
       -0.06356336 0.09222566 -0.038038556 0.18630472
000080 ad d9 07 bd bf 89 d3 3d c7 0a ab 3d 4e ce f7 3d
       -0.033166576 0.10329007 0.08351665 0.12099896
000090 a0 f7 65 be 03 c6 c0 bd 4d 06 2f 3e de 0d d7 bd
       -0.22457743 -0.09412768 0.17092247 -0.10500692
0000a0 88 a4 21 3b 71 69 6a be d9 71 8b bc fa fa 08 3e
       0.0024664719 -0.22891785 -0.01702206 0.1337699
0000b0 ce 8f 2a 3e b9 51 d6 bd 9b 8a 6c bd d5 2d 4a bc
       0.1665642 -0.10464806 -0.057749372 -0.012340029
0000c0 6a b8 4f be 4d f2 04 be 61 71 86 3e d4 d6 47 3d
       -0.20285192 -0.12983055 0.26258376 0.04878886
0000d0 d8 97 d8 bd 07 6f 56 3e a2 5f 0a be c6 9d 55 3d
       -0.10575837 0.20940791 -0.13513044 0.052152418
0000e0 db 1a b4 bd 76 1c 77 be 3a b4 e6 3d c3 67 e6 bc
       -0.08794185 -0.2413195 0.11264844 -0.02812565
0000f0 f2 9d 36 3e 84 6b 9e 3c f3 14 fc bc 35 8c 73 3e
       0.17833689 0.019338377 -0.030771708 0.23783953

lstm1_1.bias_hh_l0 f4 [64]
000000 dc da 86 3e 9d fc 62 3e 80 b7 b9 3d 12 80 d4 3d
       0.2633885 0.22166677 0.09068203 0.1037599
000010 eb 8e 5a bd 6d c6 96 3d eb d0 15 be 8b 62 ca 3c
       -0.053358953 0.073620655 -0.14630477 0.024705192
000020 1c ec 59 3e ae a0 c1 3d 4a c5 b8 bd 27 5c 26 3d
       0.21281475 0.09454475 -0.09022005 0.040615227
000030 af 44 a5 bd 3c 6e 3e be d3 ac 3f 3e c9 a2 48 bc
       -0.08069741 -0.18596739 0.18718271 -0.012245842
000040 1c 77 71 be 6e cf 87 be 66 3e 16 be c3 95 a1 bd
       -0.23580593 -0.26525444 -0.1467224 -0.07889893
000050 7e 0b f4 bc 69 9c ff 3d 52 f8 af 3d 22 be e5 3d
       -0.029790636 0.12481005 0.08592285 0.112179056
000060 41 e3 15 be 12 a5 6f 3e d2 3a 29 be d7 83 82 bb
       -0.14637472 0.23402813 -0.16526344 -0.0039830017
000070 92 1f ef 3d ce 8b 75 be e2 69 ef bd 3a 0e 44 be
       0.116759434 -0.23979113 -0.116901174 -0.19146052
000080 99 de a5 3d 14 94 7e be 29 94 43 be 38 2c ce 3d
       0.08099098 -0.24861175 -0.19099487 0.10067028
000090 71 3f 21 bc 2b 81 06 3d a5 d0 0c 3c 90 a6 26 3d
       -0.009841786 0.032838028 0.008594667 0.04068619
0000a0 77 28 80 3d ad eb f0 3d e0 c2 76 3e 98 07 1c 3e
       0.06257718 0.117637016 0.24097776 0.15237272
0000b0 7a 9f 52 3e d9 19 4a 3e 5d 9c 87 bc db b8 40 3e
       0.20568648 0.19736423 -0.016554052 0.18820517
0000c0 3a 9f 39 be aa 3d 01 3e b4 8c 5d 3e 13 43 97 3d
       -0.18127146 0.12621179 0.21635705 0.0738584
0000d0 78 37 02 be c9 8c bc 3d 0a db 19 be 0d 39 8a 3e
       -0.12716472 0.0920654 -0.15024963 0.2699665
0000e0 b2 29 27 be 0e 7a e8 3d 51 19 6b 3d fd 92 ab 3d
       -0.16324499 0.11351405 0.05739719 0.08377645
0000f0 24 c0 46 3d 76 8a 19 be eb 13 6f 3e 65 bd 75 be
       0.048523083 -0.14994225 0.23347442 -0.2399803

lstm1_1.weight_ih_l0_reverse f4 [64, 32]
000000 04 be 75 3e b7 d7 a6 3e fe 43 98 3e 50 41 34 be
       0.23998266 0.32586452 0.29739374 -0.1760304
000010 2f d3 67 bd 82 d4 8a bc 70 b9 e4 bc b3 63 07 be
       -0.056597885 -0.016947035 -0.027920455 -0.13221626
000020 af 10 23 3e 4b 0c 25 3d 46 9d 22 3e 20 19 45 bc
       0.15924333 0.040294927 0.15880308 -0.012029916
000030 a0 01 61 3d 4a db 97 3e 40 4a 43 3c ed 1d 1e be
       0.05493319 0.29659492 0.011919558 -0.15441103
000040 7c 79 f6 bd 08 09 35 bd 3e 77 b9 bc a9 48 95 bd
       -0.1203489 -0.044198066 -0.022639867 -0.072892494
000050 7a a5 86 3d 54 9e d5 bc 54 cc 0e be f4 9d 84 3e
       0.06574531 -0.026076473 -0.13945132 0.2590176
000060 72 62 e9 3d 04 49 55 3e 98 a2 b4 3d 35 8d 74 3e
       0.1139573 0.20828635 0.08820075 0.23881991
000070 da 31 24 3e 9b 5d b7 3d c4 92 57 be 08 00 01 be
       0.16034642 0.08953401 -0.2105208 -0.12597668
000080 b4 3a 2b be fe e2 3b 3e f6 e8 12 3e 80 7d 61 3c
       -0.16721612 0.1834831 0.1434668 0.013762832
000090 0a 41 9b bd f9 bf 0c 3e 10 53 81 bc fb 6c 2c be
       -0.075807646 0.13745107 -0.015786678 -0.16838448
0000a0 ae 11 1d be ad 0a 92 3c e4 8f ad 3d e6 c3 14 be
       -0.15338776 0.017827356 0.084747106 -0.14527854
0000b0 a8 50 1e 3d 95 9f 42 3d 80 eb d7 bd 58 5d 7a be
       0.03865114 0.04751547 -0.10542965 -0.2444967
0000c0 d8 1e 5e 3d bc 7f 20 3e b1 a6 f7 3c 0f 4a fd bd
       0.054228634 0.15673727 0.030230852 -0.12367641
0000d0 7d e7 3c be 66 f6 89 be 80 7b f0 bb f3 8b 77 be
       -0.18447681 -0.269458 -0.007338941 -0.2417448
0000e0 da ba 31 be 28 26 67 be df 75 76 3e 10 9c e5 3d
       -0.17356434 -0.22573149 0.24068402 0.11211407
0000f0 e8 3c 3c bd 24 3a 7b 3c 44 47 b1 bd 3d 55 57 3d
       -0.045956522 0.015333686 -0.08656171 0.052571524
000100 d0 21 6c 3d 32 c0 52 3e 55 30 91 3e 40 ba fa bc
       0.057649434 0.20581129 0.28357187 -0.030606389
000110 60 d9 a3 3d cc c6 b4 3d 70 2b 3b 3e 82 44 4b be
       0.08000445 0.0882698 0.18278289 -0.19850352
000120 a6 88 37 be 9d 3e 7f 3e 88 5b 63 3d 94 f1 0c 3e
       -0.17923221 0.24926229 0.055507213 0.1376403
000130 12 c7 3c be b6 79 b1 3e dc 3b fd bd a3 b1 f4 b9
       -0.18435314 0.3466317 -0.12364933 -0.00046671656
000140 70 7a 5c bd 02 bd 5e be e4 09 6a 3e e4 be 15 3e
       -0.053827703 -0.21751788 0.22855335 0.146236
000150 18 cc bc 3e 62 39 12 3e 88 1c b3 bd 39 3e 89 3e
       0.3687446 0.14279702 -0.08745676 0.26805285
000160 ff d7 4b be 34 1c d0 bd d9 4d 28 3e a6 ec 49 3b
       -0.19906615 -0.10161629 0.16435947 0.003081122
000170 60 9b 6f bc 81 ca 95 3d cc c9 48 3e 6a bf 16 3d
       -0.014624447 0.07314015 0.1960823 0.03680364
000180 f8 8e 7c bd 9c 2d b2 3e e6 cf 72 3d 78 4d 94 3d
       -0.061659783 0.34800422 0.0592803 0.072413385
000190 62 13 61 be a2 c1 d3 bd f2 f2 2b 3e 9a 4c 09 3e
       -0.2198005 -0.10339667 0.16791895 0.13408127
0001a0 4a 80 dc bd 81 ed ef 3b 98 f5 66 3e 80 ac c7 3b
       -0.10766657 0.007322014 0.22554624 0.0060935616
0001b0 e0 f3 14 3d f3 64 3e 3d 9a c3 66 be 65 dd b9 3e
       0.03636539 0.04648299 -0.22535554 0.36301723
0001c0 a8 04 ea 3d 18 e9 02 bd 61 85 08 3d cc c1 91 bd
       0.11426669 -0.031960577 0.033330325 -0.07117042
0001d0 06 4a bd bc 2a e6 5d 3e 72 be 13 3e 9d b0 b3 3d
       -0.023106586 0.21669832 0.14428118 0.08773921
0001e0 96 32 4d bd 20 c3 2b 3c 6b 56 cb bc a7 c8 9b 3e
       -0.05009707 0.010483533 -0.02482148 0.30426523
0001f0 c8 c8 1e bd 51 43 88 3d 88 24 39 3e 8a 82 14 3e
       -0.0387657 0.066534646 0.18080342 0.14502922
000200 c2 b7 3e be 23 e3 e8 3c d7 d2 25 3c b6 bf 54 be
       -0.18624786 0.02842862 0.010121069 -0.20776257
000210 65 69 5a bc 42 3d 73 3e 70 41 be 3d cb a3 b5 bd
       -0.013330792 0.23753837 0.09289825 -0.08869132
000220 9b af 8c be a6 8d 6b 3e f0 a7 b0 3c 24 37 b1 3d
       -0.27477726 0.23003253 0.021564454 0.08653095
000230 5c fd e2 bd 84 0b d1 bd 56 e7 4a be fa ea 22 3e
       -0.11083481 -0.102072746 -0.1981481 0.15909949
000240 cc 60 a8 bd 84 6b c5 3d 36 c2 b6 3d f0 18 bd bd
       -0.082215875 0.096396476 0.089237615 -0.09233272
000250 f4 69 6e 3b 98 72 11 3e 64 bd 33 3e 8b a9 48 bd
       0.003637907 0.1420387 0.17552716 -0.048989814
000260 13 04 5c bd 44 7d ea bd 93 b9 7d be 8c b5 cc bd
       -0.053714823 -0.11449674 -0.24777822 -0.09995565
000270 f0 3a 1c 3e e7 bf 07 3d 54 9d d1 3d 23 6a 57 3d
       0.15256858 0.033141997 0.10235086 0.052591454
000280 12 bc 49 3e aa df 94 be 9a ca 2a bd d4 1a 63 3e
       0.1970065 -0.29076892 -0.041697122 0.22178203
000290 c7 cb 08 bc e7 0e 51 3e 6a a5 5b 3e 15 c9 28 bd
       -0.008349366 0.20415841 0.21449819 -0.04120739
0002a0 2d d9 8a 3e 8f 79 81 bb 60 eb ad 3c 08 6e 51 3e
       0.27118817 -0.0039512585 0.0212304 0.2045213
0002b0 68 2e 4f bd 9f f4 95 be 2c 7c d4 bd fa e5 b0 be
       -0.050581366 -0.29288194 -0.103752464 -0.34550458
0002c0 00 5b 2b be a0 95 3b bd 9a 03 35 bd d1 be 01 3e
       -0.16733932 -0.04579699 -0.044192888 0.12670447
0002d0 af 63 9d bd f0 ce cb 3d a8 54 d0 bd c6 b2 2f be
       -0.07685029 0.099515796 -0.10172397 -0.1715804
0002e0 9f 46 ba bd 0a 43 1c 3e 3e e3 4c be 54 02 79 3d
       -0.09095501 0.15259948 -0.20008561 0.060793236
0002f0 18 ae 55 bd d0 75 67 be 1c 17 8c bd 86 2d 5b 3d
       -0.052167982 -0.22603536 -0.06840345 0.05351021
000300 f0 71 48 be c8 05 74 3e e0 c4 84 bd 2c fa d7 3d
       -0.19574714 0.2383033 -0.064828634 0.105457634
000310 f4 18 b4 bd 54 6f 4d be e0 c7 37 bc 45 22 1e be
       -0.08793822 -0.20062 -0.0112170875 -0.1544276
000320 bb 69 4d 3e dd 7a 75 bd de f0 45 3e e0 a7 a1 bc
       0.20059864 -0.059931625 0.19330165 -0.01973337
000330 c8 ad 90 bd 8c 7f 1d bd a0 9d 4b be 4d bb a4 3e
       -0.07064396 -0.038451716 -0.19884348 0.3217415
000340 e8 34 4c 3d 5c da ba 3d b9 0e 6c 3e aa 66 7d 3e
       0.049855143 0.0912368 0.23052491 0.24746194
000350 74 fb 3b 3e 92 1b 32 3d ba db 10 3e 27 8a f6 3d
       0.1835764 0.043483324 0.14146319 0.12038069
000360 6a 6e a5 bd 7c 67 c8 3d 3b 5c 30 3e 9a f8 c2 3c
       -0.080777004 0.09785363 0.17222683 0.023800183
000370 00 39 56 3d e6 6f 66 3e a0 a5 60 3c ea d8 20 3e
       0.052300453 0.22503623 0.013711363 0.15707746
000380 26 59 0f 3e b0 42 ad 3c 80 25 9c 3e 78 98 2e be
       0.13998851 0.021149963 0.3049736 -0.1705035
000390 cf aa de bd cf 9c 52 3e cc 68 6d be e3 8c a4 bc
       -0.10872423 0.2056763 -0.23184508 -0.020086711
0003a0 54 2b 01 be 52 f2 a2 3e a8 ac 68 3e 5c 39 ae bd
       -0.12614185 0.318255 0.22722113 -0.08507034
0003b0 4c 19 48 be bf fd 1b 3e 00 46 2a bb 7b 82 ad bd
       -0.195409 0.15233515 -0.0025981665 -0.08472153
0003c0 80 13 54 be 58 4f 3f 3d ee 0a 88 3e fa e6 12 3e
       -0.20710564 0.046706527 0.2657084 0.14345923
0003d0 6b d9 27 3e 6c 40 bf bd 74 7b 6f 3e 50 07 7f 3e
       0.16391532 -0.09338459 0.23386937 0.24905133
0003e0 4a b1 22 b9 a0 42 89 3c 15 8d 51 3d 13 a7 26 be
       -0.00015515569 0.016755402 0.051159937 -0.16274671
0003f0 e0 c6 01 3e 1f e9 b3 bd 0c 50 9a bd eb 2f 26 3d
       0.12673521 -0.08784699 -0.07534799 0.040573042

lstm1_1.weight_hh_l0_reverse f4 [64, 16]
000000 d2 14 82 3e 27 08 3b be 18 41 3a bb 98 16 2c be
       0.2540651 -0.18264829 -0.0028420147 -0.16805494
000010 fa 1d 55 be 61 fc 4c 3e bc f7 04 3e 47 3f d8 3c
       -0.20812216 0.2001815 0.12985128 0.02639736
000020 75 f1 23 be a3 ec 1e be 8c dd 66 3d 4a e3 04 be
       -0.16010077 -0.15519957 0.056363627 -0.12977329
000030 f7 50 c9 3d 6f a1 14 be ac 28 bf bc 6f 1b 1a be
       0.09829896 -0.14514707 -0.023334824 -0.15049528
000040 50 79 02 bc 97 8a 8e 3c 5a 82 6f 3e 1d 26 69 3e
       -0.0079634935 0.01740007 0.23389569 0.22768445
000050 c4 89 40 bd dc 6f 2c be 1c cc 3d 3e 5a db 90 3d
       -0.047006384 -0.16839546 0.18534893 0.07073088
000060 30 34 46 3e 92 4e 27 bd 2b d8 de bd 30 95 0f be
       0.19355845 -0.040846415 -0.108810745 -0.14021754
000070 9a ac 35 be 54 8e a5 3c 1b 31 16 bd c9 b2 77 be
       -0.17741624 0.020209469 -0.036667924 -0.24189295
000080 52 f5 4d 3d 7b 04 0c 3e 15 c2 28 be 58 97 56 3e
       0.050282784 0.13673584 -0.16480286 0.2095617
000090 87 9d bc 3d c6 83 3f 3e 65 3b f7 3d 4e 41 08 3e
       0.092097335 0.18702611 0.120718755 0.13306162
0000a0 2f c6 8a 3e a0 15 52 3e d7 38 04 3e ee fb 4f 3e
       0.27104327 0.20516062 0.12912308 0.20310947
0000b0 58 87 41 3e ee e1 8a 3d 02 1f 8d be e7 db fb bd
       0.18899286 0.06781374 -0.2756272 -0.122978024
0000c0 3b 9a a8 bd 8a f4 4c be 16 9d 8f 3d c8 ef 7a be
       -0.08232542 -0.20015159 0.07012384 -0.24505532
0000d0 4e 31 c1 3c 3d 5a eb 3d 66 8c 24 be 5d f7 70 be
       0.02358308 0.11491821 -0.16069183 -0.23531862
0000e0 6f c4 4c 3e b9 db f8 3b 3e 4c 81 be 88 fd 25 be
       0.19996808 0.0075945524 -0.2525348 -0.16209996
0000f0 27 f6 df bd 06 f9 b6 bc 6b aa 34 3e 0f 4c 3c 3e
       -0.10935622 -0.02233554 0.17643134 0.18388389
000100 e2 1a 7a be 6c 3b a2 bd bf ce b0 be ae 2c f7 3d
       -0.24424317 -0.0792149 -0.34532735 0.12069069
000110 5d 7a 2b be d2 d4 56 be 09 85 77 3e 28 ef c6 3d
       -0.16745897 -0.20979622 0.24171843 0.09713584
000120 29 62 24 bd 2e ca ab bd b4 c1 45 be 0c 71 ad bd
       -0.040132675 -0.08388172 -0.19312173 -0.084688276
000130 e1 e7 7f be 0f b5 83 bd 4f ad 81 bd ad e7 02 be
       -0.24990799 -0.064310186 -0.06331884 -0.1278369
000140 f1 d5 86 3e 71 f3 c2 bd 3e b1 f9 bd 90 3a 25 bd
       0.263351 -0.09519089 -0.121920094 -0.040339053
000150 fe f9 6c be 22 80 70 be 81 42 81 3c 23 db a8 bc
       -0.2314224 -0.23486379 0.015778782 -0.020612305
000160 54 33 25 3e a3 75 88 bd 5e 06 8f be 55 95 54 3e
       0.16132861 -0.066630624 -0.27934545 0.2076009
000170 64 ad 38 3e f4 f6 71 be c9 af 58 3e 8b a0 8b be
       0.18034893 -0.23629361 0.21160807 -0.27270922
000180 7e aa 73 be 59 90 40 be c8 af 86 bd 14 97 1c 3d
       -0.23795506 -0.18805064 -0.06576496 0.038230017
000190 d5 1b 72 3e 38 37 63 3e 97 0d 71 3d 84 46 67 be
       0.2364343 0.22189033 0.05885085 -0.22585493
0001a0 01 76 66 3e 23 e7 0c be 24 5d 6c 3e ef 9c 95 be
       0.22505952 -0.13760047 0.23082405 -0.29221293
0001b0 55 e9 62 be 9e 8c be 3b 06 3e 48 3e 11 dc b0 3e
       -0.22159322 0.0058151027 0.1955491 0.34542897
0001c0 ec a4 33 3e 60 cc 8a 3e 7a 96 30 3e b1 0b f9 3c
       0.17543381 0.2710905 0.17244902 0.030401083
0001d0 7c be ca bd 42 81 d9 bd 80 26 06 3e 95 fb d6 bd
       -0.09899613 -0.10620357 0.13100624 -0.10497204
0001e0 0a 3b 37 bc 87 e6 f6 3d 48 b4 9a 3d a2 fe 03 bd
       -0.01118351 0.12055688 0.07553917 -0.03222526
0001f0 20 68 7c be 7c 60 f8 3a 05 94 14 bc 27 db 61 3e
       -0.24649096 0.0018949653 -0.009068494 0.22056256
000200 a2 a2 78 3d a9 8e d2 bd b9 b8 f3 3d 21 7f 39 3d
       0.060701974 -0.102811165 0.119004674 0.045287255
000210 6e e5 db 3c 7c 58 51 3e 11 f5 0b 3e 77 0c 0f 3b
       0.026842799 0.2044391 0.13667704 0.0021827498
000220 8e 2d 1b 3c ba 70 80 3d 56 fb 59 3e 69 48 69 be
       0.00947131 0.06271501 0.21287283 -0.22781529
000230 ac 85 67 3e 02 10 05 be d2 56 ba 3d 7b 5f ff 3d
       0.22609586 -0.12994388 0.09098591 0.12469383
000240 ee ba 56 be 0b bf 2a 3e ec 6b 21 be 31 5e 84 3d
       -0.20969746 0.1667444 -0.15763825 0.06463278
000250 bc 1f 8b bd d5 0d 59 3e 6f 35 30 bd 51 e1 1f 3c
       -0.06793162 0.21196683 -0.04301971 0.009758309
000260 68 1c 29 3a ef 30 8f be 15 f7 e7 3d 11 61 4c be
       0.0006451071 -0.2796702 0.11326424 -0.19958903
000270 68 03 63 3d 67 1f 4f 3e a5 6a e3 bd d8 bf 05 bd
       0.05542317 0.20226823 -0.11104325 -0.03265366
000280 09 34 25 3e fa d4 bf 3d 25 71 82 3e 79 68 84 be
       0.16133131 0.09366794 0.25476947 -0.25860956
000290 8d d5 9f 3b fa ec c7 bd df 78 0b be 97 f4 35 bc
       0.004877752 -0.097619966 -0.13620327 -0.011105678
0002a0 39 dd 57 3e 13 08 6d 3d f1 7a 29 3e a9 28 5e be
       0.21080483 0.05786903 0.16550805 -0.21695198
0002b0 6d e4 f1 3d db 1c f1 3c 77 ea bf bd f0 d9 c1 bd
       0.11811147 0.029432705 -0.093708925 -0.094653964
0002c0 f0 89 ee 3c d8 05 31 3e 2e 22 b0 bd f0 fd a5 bb
       0.029118508 0.17287385 -0.08600269 -0.005065672
0002d0 85 6b b1 bd 84 bf 91 be 2e 3e 44 bd 37 6d 2a 3e
       -0.08663086 -0.28466427 -0.04791086 0.16643225
0002e0 42 19 75 3e 67 f5 20 be 5d f7 71 3d 6a 62 33 be
       0.23935416 -0.15718614 0.059073795 -0.1751801
0002f0 ce b5 58 bb c9 46 5f be 2d 2f c0 3c 7b b0 79 3e
       -0.0033067348 -0.21804346 0.023459995 0.24383728
000300 14 a6 1c be 96 ed 3e be 43 6e da 3d ad 73 27 3d
       -0.15297729 -0.1864532 0.10665562 0.0408818
000310 9a 9b bd 3d e3 47 5b 3e 29 95 c5 bd 43 09 2f bd
       0.09258194 0.21414141 -0.09647591 -0.042733442
000320 e0 87 a9 3d c3 e5 2d 3e ce af 81 3d a8 76 1a 3e
       0.08277869 0.16982178 0.0633236 0.15084326
000330 3e 25 a6 3d 69 13 95 bb 21 76 4c 3e bb 1c a8 3e
       0.08112572 -0.004549433 0.19966938 0.3283442
000340 be 06 b9 bd 02 96 ad 3d b0 81 2c bd 3b 45 08 3e
       -0.09034489 0.08475877 -0.042115867 0.1330766
000350 43 23 bb 3d 91 92 31 be 2b ce 77 be 39 bd 4f 3d
       0.09137585 -0.17341067 -0.2419974 0.050717566
000360 94 f5 3f be 70 fe 66 be e2 f6 18 3e 75 a2 ef 3d
       -0.18746024 -0.22557998 0.14937928 0.11700908
000370 6c 8b 0b 3d 95 f6 9f bd 7a e2 d3 bb 88 e6 69 bd
       0.03406851 -0.07810704 -0.006466207 -0.057104617
000380 2a f9 6d bd 1c af 5b be e6 7a 25 3d 64 5a 99 3d
       -0.05809895 -0.21453518 0.04040041 0.07487944
000390 50 58 a3 3d 1f 2c 7b be c6 44 a9 3d 66 a9 63 3c
       0.07975829 -0.2452855 0.082650706 0.013895368
0003a0 e1 59 3d 3e f0 6e 23 be ce f9 00 3e 5d 1b 02 3e
       0.18491317 -0.15960288 0.12595293 0.12705751
0003b0 85 53 fc bd d3 7c 78 be a1 0c 0f be 75 be 9c bd
       -0.123206176 -0.24266367 -0.13969661 -0.07653514
0003c0 31 1c 79 3e ef 06 f5 bc d5 f9 dc bd 3c 12 84 3e
       0.2432716 -0.029910533 -0.10789839 0.25795162
0003d0 2d 9f d4 3d 7e dd 8d 3e e9 cc 09 bd 90 ac e5 bc
       0.10381923 0.27708048 -0.033642683 -0.028036386
0003e0 8d 36 68 3e 0e fc 05 3e 28 90 cb 3c b1 b9 7d 3e
       0.2267706 0.13084432 0.024849012 0.24777867
0003f0 9f a6 32 be 3e 0e 01 3e 5c a0 26 be d7 86 8b be
       -0.17446373 0.12603089 -0.1627211 -0.27251312

lstm1_1.bias_ih_l0_reverse f4 [64]
000000 3d 78 82 3e 4c 81 81 be 06 b3 4d 3e 48 82 fc bc
       0.2548236 -0.25293958 0.20087823 -0.030823842
000010 03 d5 d1 bd fb 4b f2 bd d4 37 04 be f2 ff 41 3e
       -0.10245707 -0.118308984 -0.12911922 0.18945292
000020 63 77 27 3e 1d 29 6d 3d 93 81 b7 bd 5d c7 d5 3d
       0.16354136 0.057900537 -0.08960261 0.10438416
000030 42 1f 05 bb af 1c 01 3c b9 2c 8e bd ff 0e 50 3e
       -0.002031282 0.007880374 -0.06942124 0.2031822
000040 de 16 23 3e 26 39 80 3b 33 7f fa 3d 40 e6 a5 bc
       0.15926692 0.0039130626 0.122312926 -0.020251393
000050 e3 4f 81 bc b2 81 23 bd 57 43 81 3c 7a 07 c9 3d
       -0.015785163 -0.03991861 0.01577918 0.09815879
000060 9f c9 3d be 03 29 d9 3d f6 f9 a0 bd 05 62 33 3e
       -0.18533944 0.106035255 -0.07860176 0.1751786
000070 09 4c 23 3e 46 4b 08 3e f7 92 2f be 60 16 0c 3e
       0.15946974 0.13309965 -0.17145906 0.1368041
000080 9e 6f 80 3e 0a 8b 74 be 99 af 05 3e ae f0 d6 3c
       0.25085157 -0.23881164 0.13055266 0.026237812
000090 e0 50 d6 3d ff a3 61 3e 9c 9b f3 bd 56 10 19 3d
       0.104646444 0.22035216 -0.118949145 0.037369095
0000a0 5c fb 46 be 7e bb 12 be c8 5f af 3d 3a 41 4b bd
       -0.19431823 -0.14329335 0.08563191 -0.04962275
0000b0 92 75 0b 3e 71 78 51 bb 06 1b 58 3e 55 c2 4a 3e
       0.13619068 -0.0031962658 0.21104059 0.19800694
0000c0 9c d7 96 bd 8f 70 ef bd bf 47 3a be cf cb 73 3e
       -0.07365343 -0.11691391 -0.18191431 0.23808216
0000d0 c3 07 14 3e 8a 95 8c bd d7 a3 76 3d d7 7e 98 3e
       0.14456086 -0.0686446 0.060214844 0.2978427
0000e0 f6 57 85 bd e6 06 11 be 85 e4 34 3d c7 d2 d5 bd
       -0.06510918 -0.14162788 0.044163246 -0.10440593
0000f0 97 d7 7b be fe 7b 5a 3e e9 85 3b be c3 59 af 3e
       -0.2459396 0.21336362 -0.18312801 0.3424817

lstm1_1.bias_hh_l0_reverse f4 [64]
000000 8e c0 04 be 96 44 d1 bd 88 93 2d 3e 04 f9 20 3e
       -0.12964079 -0.1021816 0.1695081 0.15719992
000010 43 bc 8a 3a a3 ba 5d 3e 2c 44 45 bd e8 3c 49 3e
       0.0010584671 0.21653228 -0.048160717 0.1965214
000020 b3 2c 40 be 63 54 f2 3d 40 d6 29 3e bc 4c 35 be
       -0.18767051 0.11832502 0.16585636 -0.17705053
000030 a9 20 7d 3d ac 05 20 be d3 92 89 bc 37 91 17 bd
       0.061798725 -0.15627164 -0.016793644 -0.037003722
000040 76 9d 0b 3e 3a b0 0b 3e f0 9b 2e be 8e a5 c3 bd
       0.13634285 0.13641444 -0.17051673 -0.095530614
000050 c4 93 81 bd 1c 16 49 bc e3 09 aa bd 0a c6 b3 3d
       -0.06327012 -0.012273338 -0.08302667 0.08778007
000060 6c 24 ac 3d 68 95 0c 3c 45 03 75 be bd b5 82 3d
       0.084053844 0.008580543 -0.23927028 0.0638232
000070 21 9a d5 bd ea f2 3b be 3f f3 28 3e c5 c5 19 3e
       -0.104297884 -0.18354383 0.16499041 0.1501685
000080 c9 e9 d8 3d 32 6b 2a 3e 5c 73 7a 3e 9d 8c 52 3d
       0.10591466 0.16642454 0.24458069 0.05140363
000090 37 21 e2 bd 52 7a d0 3d aa 65 00 3e 40 e8 e2 bd
       -0.110414915 0.10179581 0.12538782 -0.110794544
0000a0 6a f2 12 be 46 73 59 bb 70 ac 3b be df e8 0f be
       -0.14350286 -0.003318028 -0.18327498 -0.14053677
0000b0 c2 46 1c 3e 70 48 5c 3e 0d e3 de bd 79 de 8a be
       0.15261367 0.21512008 -0.1088315 -0.27122858
0000c0 aa b3 14 3e b3 1f d9 bd 1b 9f 6a bd 3b cd 82 3e
       0.14521661 -0.10601749 -0.05728064 0.25547203
0000d0 bd 68 12 be ab 6e c0 3d bb da 8a 3e a7 5a f9 bd
       -0.14297767 0.09396108 0.27120003 -0.12175494
0000e0 ae d8 25 3e 72 9e 34 3e 81 06 1c 3e 3a 21 96 3e
       0.16195938 0.17638567 0.15236856 0.29322225
0000f0 db 37 db bd 2a 43 cf 3d 6f fa b7 bd a6 37 af 3e
       -0.10704013 0.101202324 -0.08983313 0.34222144
