results/voltage_window_effect/V(3.4-3.65)/Experiment4(40-CC-1)/from_Dataset 3_ft_model.pth (torch, 95756 bytes, 27 tensors)

cnn1.0.weight f4 [16, 1, 3]
00000000: 033d 7f3e cf92 0abf 11ce bbbe da1b 8e3e
00000010: dd25 29be dc08 b43c 2e8f dfbe 4db4 83be
00000020: 2d80 e7bd eff5 c53e 4f73 ba3c 713b 14bf
00000030: a8b5 663e 7189 51be b6a0 bcbe e945 b7be
00000040: 51e6 d73e a124 b7bd aa48 023f 1794 21be
00000050: 95f8 b73e 6c92 6f3e d26a 123f 6326 d6be
00000060: fb3b 0cbf 64cc 04bf 69cc 59be 309b c33e
00000070: 73fc cc3e 8c66 2ebe 52c3 ddbe e883 a13e
00000080: 8886 c0be 1892 e13e e98e 13bf 0ae1 15bf
00000090: 061b d23e 59ba 0e3f a003 08bd dea8 ee3e
000000a0: 51cb 6dbe d2cc c93e 974f 033f 65a4 a63d
000000b0: d99b 613e aab2 f43e 7042 083f b716 123f
0.24925618 -0.5413026 -0.36680654 0.27755624 -0.1651835 0.02197688 -0.43663925 -0.25723496
-0.113037445 0.38664195 0.022760062 -0.579032 0.22530234 -0.20462586 -0.36841363 -0.35795525
0.42167905 -0.08942533 0.50892127 -0.15779148 0.3593184 0.233957 0.57194245 -0.41826162
-0.5477902 -0.51874375 -0.21269383 0.38204336 0.40036353 -0.17031306 -0.4331308 0.3154595
-0.3760264 0.44056773 -0.5763994 -0.5854651 0.41036242 0.55753094 -0.033206582 0.4661321
-0.2322209 0.39414078 0.5129332 0.081368245 0.22032107 0.4779256 0.53226376 0.5706591

cnn1.0.bias f4 [16]
00000000: 02a6 6a3e 6a78 efbe cf28 5fbd 9d33 0e3f
00000010: 7c69 bf3e 150b 02bf 1a40 4f3d 1b3f dcbc
00000020: 3ee9 fdbe 3831 4b3e cce1 963e 2bd0 d43e
00000030: 6656 033e c64c 37bd 9eba 903e 5919 8d3d
0.2291489 -0.46771556 -0.054482277 0.55547506 0.37385166 -0.5079816 0.05059824 -0.02688556
-0.49592012 0.19842994 0.29469144 0.4156507 0.12825927 -0.04475095 0.28267378 0.068896

cnn2.0.weight f4 [32, 16, 3]
00000000: 8bfd 90bd 62a5 72bd 71c8 a93d 480a 073e
00000010: 4143 dabd 400a da3d 239c bc3d 9a18 053e
00000020: 9985 ac3c 3867 0c3e 6ffe 2bbd 81f5 b1bd
00000030: e700 b4bd 479b 08be b079 dfbd 443d 05be
00000040: 27c4 973d 6bcd ee3d 7edd d6bc 46f7 2b3e
00000050: 6f19 393e 6f25 1a3c 9a53 cebc 6499 453e
00000060: 2a29 11be 563d 00be 5405 c4bd f450 efbd
00000070: 80e1 85bd ae85 123e b6d5 ea3b 6d90 143e
00000080: 9240 8cbd 9771 6d3a 82a3 c9bd fe64 96bd
00000090: 8d38 13bd a45e 4a3e e965 3d3e 4ed3 6b3d
000000a0: c20b 913d 2ddc 613e 255c c7bb 35ad 053d
000000b0: 1445 353e 87ac e33d 117f 7d3d d855 503e
000000c0: 6ffb 1b3d 4bd8 b9bc 91c6 e13d 4b3b 6bbd
000000d0: 1452 86bd cfab 07be fece cebd 1695 103e
000000e0: 371e d1bd 5c17 eb3c b2a1 973d 5c63 efbc
000000f0: b348 c33c 6225 0b3d 693d 8abd 9574 f3bd
00000100: 92c0 fabd 9faf ef3d bd07 21bd c2cb 5dbd
00000110: 9f0a f9bd 59f9 7b3d f4dc 73bc c85d 0ebd
00000120: 16cc b53d f2f2 fd3d e19c 32bd 6351 eb3c
00000130: 5aec 643d 5443 fcbc b348 ddbc 89da 2cbe
00000140: 2271 0dbe 5b9b fdbd ffb7 cf3d 74f7 91bd
00000150: d2ee 0abe 314d 1e3c 3732 5fbd de76 f4bd
00000160: 747c ecbc 2efe 863d 99b7 1a3d baba 733d
00000170: da2a 2cbe 878f 85bd fae8 97bc 1e8a 99bd
00000180: 113b 91bd 9c3f 40bd 3fcb 99bb 67ea 2cbd
00000190: 025c 0c3e 8f52 2bbd 3efc 8fbc 5cc6 9d3d
000001a0: bd68 9a3d d273 86bd dae2 e8bc 0e06 c13d
000001b0: 947c 91bc 330e 073e 83ac 0d3e 463a 0fbe
000001c0: 2743 7d3d 0af7 90bd b4be 823b 2e6c 07be
000001d0: 1514 e3bd 66d7 013b 866c 2f3d 621d d8bd
000001e0: 4560 c8bc 0cd6 c5bd 99ad 9d3d afde de3d
000001f0: 5c9e 063d 5d8b 1cbd 78dc 803d 7fb9 0cbe
00000200: 2f0c 693d 94e2 9dbd 68d1 953d 00d8 2fbc
00000210: e5f2 493d a953 613d a75d e3bd 8ad8 0b3e
00000220: 9c7a 283d d8c7 14be 2ba7 f03b c68c fabd
00000230: 7872 0d3e f65f e63d 1a24 23bd e5af 173d
00000240: 2831 11be c4b9 6b3d 2b43 11bd 1d84 b0bd
00000250: fa65 0abe e1ed 593d d0c9 8cbd d77a 593d
00000260: b2b6 093e ca2d bc3d 8c4c a23c 919d e6bc
00000270: 02b3 423c 0b94 833d 5303 363e 1cf0 b73a
00000280: a9d6 ab3d 7065 6b3d c7ba 543d b290 d13d
00000290: c641 bd3d 0bc4 553e 7f19 87bd e779 cbbd
000002a0: 270c a83d e7ef 0fbe 0335 d2bd c4b6 b23d
000002b0: ea98 c03d 66fe c4bd 5e24 6c3d e1e5 8cbd
000002c0: d0a2 e33d 28a5 27bc 0f8b 0a3e 8858 fc3d
000002d0: 50ca 903d 8677 b03d bbc1 823d 7a1f 183e
000002e0: 6fae 33bd 388c bc3d 5bcb 6fbd 2b19 ed3d
000002f0: 6fd2 0d3e 043e 49bc 1a68 a9bd 9a90 c4bc
00000300: b293 103e c82e 49bd f4a3 053d c21b a2bd
00000310: eca0 343d 9e24 593d 2ece f63c b5e5 85bd
00000320: 2cf7 dcbd 0973 dfbc 79a0 07be c8c6 40bd
00000330: e7f0 a93d 8491 063d 4df9 d93c 1848 0d3e
00000340: 0fd6 22bc 8458 bdbd 4c45 b83d f964 a6bd
00000350: a557 f93d 41d6 083e 6238 f2bd 3a15 56bd
00000360: 750c ad3d bb45 fbbc e0aa 453c 7b1c d8bc
00000370: bd55 8d3d 35fb 06be bb88 953d 7d75 073e
00000380: 08f4 103e ddd7 c9bd 96be 6f3d 403e 1c3c
00000390: 15fb bbbc cb2f e0bc 1361 03be fc08 f13d
000003a0: f610 d73d 7a21 bdbd a550 f8bc 35a6 003d
000003b0: 2dae bbbd 7734 adbc 1691 d7bd 0758 7c3d
000003c0: e7e4 033e 364b ba3d cf82 853d ca24 4a3d
000003d0: ae0c 13bb 0307 8fbc bb62 9e3a 522f cfbd
000003e0: dcb8 e3bd da9c 893d f9e8 49bc 7bd5 ccbd
000003f0: 0628 7b3d 5f14 b03d c4f2 c33d 407a 94bc
-0.070796095 -0.059239753 0.08290184 0.13187516 -0.10657359 0.10646486 0.09209468 0.12997666
0.021059798 0.1371125 -0.041990694 -0.08689404 -0.087892346 -0.13340484 -0.10911882 -0.13011652
0.0741046 0.11660274 -0.026228663 0.16793546 0.18076108 0.009408339 -0.025186349 0.19296795
-0.14175859 -0.12523398 -0.09571329 -0.116853625 -0.06537151 0.14308807 0.0071665896 0.14508219
-0.06848253 0.0009057759 -0.0984564 -0.073434815 -0.035942603 0.19762665 0.18495907 0.057574563
0.07082321 0.22056647 -0.0060839825 0.032635886 0.17702132 0.11116891 0.061888758 0.20345247
0.038081583 -0.022686144 0.11024202 -0.057429593 -0.06558624 -0.13249134 -0.100980744 0.14119372
-0.10210841 0.028697662 0.07403888 -0.029222183 0.023838377 0.033971198 -0.06749994 -0.11887471
-0.12243761 0.11703419 -0.03931402 -0.054149397 -0.12160229 0.061517093 -0.014884222 -0.034757406
0.08876817 0.12399854 -0.043606643 0.028725332 0.055889465 -0.030793823 -0.027012205 -0.1688024
-0.13812688 -0.12383147 0.10142516 -0.07127276 -0.13567665 0.009661959 -0.054491248 -0.119367346
-0.028867938 0.0659145 0.03777275 0.05950425 -0.16813222 -0.06521516 -0.01854371 -0.07497047
-0.07091344 -0.046935663 -0.0046934183 -0.04221573 0.13706973 -0.04182678 -0.017576333 0.0770385
0.075395085 -0.0656506 -0.028428484 0.09424983 -0.017759599 0.1318901 0.13835339 -0.13987073
0.06183162 -0.07078369 0.0039900187 -0.13224861 -0.11087815 0.0019812225 0.042828105 -0.10552479
-0.024459967 -0.09659967 0.07699127 0.10882317 0.032865867 -0.038218845 0.06292051 -0.13742636
0.056896385 -0.07709232 0.07315332 -0.010732651 0.049303908 0.055011425 -0.11101847 0.13656822
0.041132554 -0.1452936 0.0073441467 -0.12233882 0.13813198 0.11248772 -0.03982935 0.03703298
-0.14178908 0.057550207 -0.035464447 -0.086189486 -0.13515463 0.053205375 -0.0687443 0.053095665
0.13448599 0.09188421 0.019811891 -0.028151305 0.011883499 0.06424721 0.17774706 0.001403335
0.083905526 0.057469785 0.051935937 0.102326766 0.09241061 0.20875566 -0.0659666 -0.099353604
0.08205443 -0.14056359 -0.102640174 0.08726266 0.09404166 -0.09618835 0.05765187 -0.068797834
0.111150384 -0.010232247 0.13529609 0.123215735 0.07069838 0.08616547 0.063846074 0.14855757
-0.043867525 0.09206432 -0.058543544 0.11577066 0.13849805 -0.012282852 -0.08271809 -0.023994733
0.14118841 -0.04911688 0.03262706 -0.07915451 0.04409878 0.053013436 0.030127611 -0.06537954
-0.10789332 -0.027276533 -0.13244809 -0.047064573 0.082979016 0.03285362 0.026608134 0.13797033
-0.009938731 -0.09245399 0.08997592 -0.08124728 0.1217492 0.13362981 -0.118271604 -0.052266337
0.084496416 -0.030672899 0.012064666 -0.026380768 0.06901119 -0.13181765 0.0730147 0.13228412
0.1415559 -0.09855626 0.058531366 0.009536326 -0.022946874 -0.02736654 -0.1283 0.11769292
0.10501282 -0.09234901 -0.030311892 0.031408507 -0.09164081 -0.021143181 -0.1052572 0.061607387
0.12880288 0.090963766 0.065190904 0.04935149 -0.0022437978 -0.017459398 0.0012083867 -0.101164475
-0.111192435 0.0671937 -0.012323611 -0.10001656 0.061317466 0.085976355 0.09567788 -0.0181247

cnn2.0.bias f4 [32]
00000000: b87a 173d 87ec ae3d cec3 d1bd 2065 903d
00000010: 5e21 09be 2fc1 5bbd 4b37 26be ecd5 7dbd
00000020: 0694 11be d5f6 9ebd 1c25 83bc d567 b93d
00000030: 05e5 13be 754d c73d 5e8c c9bd f489 83bd
00000040: af68 003e b0b8 2b3e e665 ddbb cf02 12ba
00000050: b794 08be 32fa 853d 8e87 01bd 8547 07bd
00000060: 9be1 afbd 5772 02be 7d57 c1bd 35f1 1ebd
00000070: 16cf 92bc f48a ef3d 8283 4e3d 62ea 43bd
0.036982268 0.08541208 -0.10242425 0.07050538 -0.13391635 -0.05365103 -0.1623203 -0.06197159
-0.14216623 -0.07761923 -0.016008906 0.090530075 -0.14442833 0.09731571 -0.09841226 -0.06422797
0.12539934 0.16769671 -0.006756532 -0.00055698765 -0.1333798 0.065418616 -0.031623416 -0.03302719
-0.08587953 -0.1273893 -0.09440515 -0.03880425 -0.017921012 0.11696425 0.050418384 -0.047830947

lstm1_1.weight_ih_l0 f4 [64, 32]
00000000: 4d41 d73d abaf 16bd 44f1 3dbe 58a8 eb3d
00000010: 0686 6a3e 4f82 163e 8419 a3bb 483e a63c
00000020: 8878 4cbe acec 07be 91a9 bb3d f9ae 593e
00000030: 13b1 653e 3c42 713b c099 0a3d d85b 433d
00000040: 6be4 8f3d a063 403e e84b 733e ce0b 273e
00000050: f0b1 713a 6fa8 e93c 2e45 153e dc6f d43d
00000060: 3e09 21be dc2d 93bd 2079 e9bd 1b75 aabd
00000070: a8c8 64be dc11 00be 1459 d23d 34b6 1cbe
00000080: df5f 2fbe 2c7c d7bd 1cd4 7ebe 8134 1abe
00000090: dac9 033e b5a4 3f3e 6cdd 763d 5884 0abe
000000a0: c063 97bb 80c3 5e3d 2593 4dbd 89dc 2c3d
000000b0: 918f 6f3e 0040 013e e8b2 88bd 26eb 45be
000000c0: 1f54 d9bd 76af 3e3e 7ce6 f9bd e8dd 223d
000000d0: 5662 6bbe 33c3 343e 55ea 513e 0e1e 61be
000000e0: 75cf 2ebe 4cab a4bd 28ea 97bd 2ad4 53be
000000f0: c66a 68be 06ff aa3d e000 36be 000c a2b9
00000100: bc4e 933e 9efa 92bd 05a1 22bd 4199 a3bd
00000110: 4ab0 6abe dde1 db3d df68 36be e23e 3c3e
00000120: 80ed 2ebd 9823 4e3d dc96 553b 6c08 82bd
00000130: 1c08 443d 81e1 b13d 209e d93d c224 3bbe
00000140: e176 693e be5a 883d 52f5 0e3e 0612 383e
00000150: e5cd c33d 9555 503d 30ed 04be 112e 49be
00000160: 1687 143d 003a 6d3c 9abb 5c3e 6c23 8c3e
00000170: 802d c6bb dffd 2dbe df84 82be 501a 413e
00000180: 54ed 8f3c fe7d 2cbe 9ac6 583e 6b5f 49bd
00000190: 54e0 6dbe 68a7 5bbe bd47 6ebe 7580 133d
000001a0: 10e3 c3bd aabb 3dbe 5c2e 353e 5f72 7a3c
000001b0: 030c 5cbe 5238 e4bd f00e f53c 889e ad3d
000001c0: 78dd 513e aa3b 20bd f06d 033e 60e1 29bc
000001d0: 5b80 6c3e 6148 683c f821 f83b 4cea e53d
000001e0: 2ddb eabd 480f 15bd 4011 1e3c 5adb c9bd
000001f0: f28d 6bbe ab9e c7bd c393 c03d 72f1 5a3e
00000200: acba 4bbe fb56 35be ba9f 523e a731 283e
00000210: 9273 5e3e 22c5 6abe 5f53 263e a7d2 92bc
00000220: 6c2e ebbd a809 62bd 5d28 0c3e 5943 1e3e
00000230: 199e 13be 38c4 1dbd 5018 81bc 602e 003e
00000240: aeb0 b3bc af9b 80bc f41f 583e 4ef2 1c3e
00000250: dc5e 38be dc66 a03a 879b 123e af25 703e
00000260: 9fe9 413d a01a 773e 10d6 d4bd 373c 393e
00000270: 80b0 593d e7dc 6c3e 377d 703e 2075 e23c
00000280: 6b8d efbd a986 3fbe 04db 85bd b4d1 44be
00000290: 5eb0 28be a708 b3bd a995 043d cbc0 f6bd
000002a0: 488b 68be 0079 413c ddb5 fabd 0061 fd3d
000002b0: 0207 0dbe 8615 813d b850 033d 4c4f dcbd
000002c0: 961d 0cbe bc35 3d3d 9071 a8bc 5a10 45be
000002d0: 4f52 963d 81ba 64be 11e3 54be 9c24 3fbe
000002e0: b89f 843e aeb5 353e a81d a4bd 153b 453e
000002f0: 30a4 333d ef5e 003e 8d9b 1bbe 166c 3d3e
00000300: b76b 7a3e 9bcb cdbd f30e 063e c4cd 5e3e
00000310: 6e7e 12be f047 853b 8195 f3bd b704 baba
00000320: 6018 c5bc 6015 2c3d 239d e8bc 2f87 dcbd
00000330: e726 33be 3cfc 603d 1294 703e 30ce b3bd
00000340: 8c3e 29bd 66c8 213e 64f3 83bd f046 c33d
00000350: 9234 0c3e 0b30 a7bd c223 06be ef51 72be
00000360: fe19 e8bd e4c7 8b3d 8828 e43d d88f e1bd
00000370: b4af fdbd c1cb e23d 9395 d83d b07a 8dbc
00000380: 053d 1b3e 50f8 66be eae0 423e 1304 563e
00000390: 0e9b 573e 5d49 2fbd a3ff 0e3e 2d25 4e3e
000003a0: 40da 0f3e f2b6 0ebe 82e2 5fbe e0ed 723d
000003b0: 45c1 453e 99e6 55bd a21b 0bbe 1836 41bd
000003c0: fd77 8a3d 36a5 0ebd b074 1d3e a229 35be
000003d0: f6f4 d0bd a57a b43c c7d9 55be 728a 3ebe
000003e0: b0b1 dcbc a06a e8bc c0eb fcbc bd59 273e
000003f0: 8431 513e f1bc 8ebd db2b 73be 24dc af3d
0.10510502 -0.036788624 -0.18549067 0.115067184 0.22902688 0.14698146 -0.004977407 0.02029337
-0.19967854 -0.13273877 0.091632016 0.21258153 0.2243083 0.003681316 0.033838034 0.04769501
0.07025989 0.18788004 0.23759425 0.16313097 0.0009219935 0.028522698 0.14577171 0.10372898
-0.15726182 -0.07186481 -0.11400056 -0.08323117 -0.2234217 -0.12506813 0.102708966 -0.1530388
-0.17126416 -0.10521731 -0.24885601 -0.15059091 0.12869969 0.18715174 0.060269758 -0.13527048
-0.0046200454 0.054385662 -0.050189156 0.042202506 0.2339461 0.1262207 -0.06674749 -0.19327983
-0.10611748 0.1862162 -0.122021645 0.039762408 -0.22986731 0.17652588 0.20499547 -0.21984121
-0.17071326 -0.08040485 -0.07417709 -0.20686403 -0.22696981 0.08349423 -0.17773771 -0.0003090799
0.28771007 -0.07176708 -0.03970434 -0.07988215 -0.22918811 0.107364394 -0.17813443 0.18383363
-0.042706966 0.050326914 0.003259114 -0.063492626 0.047859296 0.086855896 0.10625863 -0.1827574
0.22799255 0.06657933 0.1396077 0.17975625 0.09560756 0.050862867 -0.12981105 -0.19646479
0.03626164 0.01447916 0.2155594 0.27370775 -0.0060479045 -0.16991375 -0.25491998 0.18857694
0.017569222 -0.16844937 0.2116951 -0.049163263 -0.23230106 -0.21450579 -0.23269553 0.036011178
-0.09564793 -0.1852862 0.17693466 0.015286057 -0.21488957 -0.11143555 0.02991435 0.08477503
0.2049464 -0.0391194 0.12834907 -0.010368675 0.23095839 0.014177413 0.0075724088 0.11226329
-0.11467586 -0.036391526 0.009647667 -0.09856291 -0.23003367 -0.097470604 0.09403183 0.21381167
-0.19895428 -0.17708962 0.20568743 0.16425191 0.21723774 -0.22926763 0.16242741 -0.017922712
-0.11483464 -0.05518499 0.13687272 0.15455379 -0.14415778 -0.038517207 -0.015758663 0.1251769
-0.021934833 -0.015699236 0.21105939 0.15326807 -0.18004936 0.0012237686 0.14317141 0.23451875
0.04734194 0.2413125 -0.10392392 0.18089376 0.05314684 0.23131143 0.23485266 0.02764374
-0.11696895 -0.18703713 -0.065359145 -0.1922062 -0.16473529 -0.08741885 0.03236929 -0.12048491
-0.22709382 0.011808634 -0.12241719 0.12372017 -0.13772205 0.063029334 0.0320594 -0.10757312
-0.13683161 0.046193823 -0.020561963 -0.19244519 0.07339918 -0.2233677 -0.20789744 -0.18666309
0.25903106 0.17745087 -0.08013469 0.1926082 0.043857753 0.12536214 -0.15196057 0.18498263
0.24455152 -0.100486 0.1309164 0.21758181 -0.14306042 0.0040674135 -0.1189375 -0.0014192079
-0.024059474 0.042012572 -0.028395241 -0.10767972 -0.17495309 0.05492805 0.23493984 -0.087795615
-0.041319415 0.15799102 -0.064429075 0.09535015 0.13691929 -0.0816346 -0.13099578 -0.23664068
-0.113330826 0.068252355 0.11140543 -0.11013764 -0.12387028 0.11074019 0.10575404 -0.017270416
0.15159996 -0.22555661 0.1903111 0.20899992 0.21055242 -0.042794574 0.13964705 0.20131369
0.140481 -0.13936976 -0.2186375 0.059308887 0.19312008 -0.05222187 -0.1358476 -0.04717073
0.06761167 -0.034825526 0.15376544 -0.17691663 -0.102029726 0.022031138 -0.20883857 -0.186075
-0.026940197 -0.028371155 -0.030874133 0.16342826 0.20429045 -0.069696315 -0.23747198 0.0858691

lstm1_1.weight_hh_l0 f4 [64, 16]
00000000: 6067 b43d 668c fe3d bae6 bd3e 4baa d3bd
00000010: 9ceb 043e 3307 aebd 38d1 ccbe f9e7 7cbe
00000020: cfec db3e b844 c93e 1bbb 05be 804c 2b3e
00000030: 4eab 723e 1d7b 04bd d252 7a3a 2b37 02be
00000040: 0787 23be cff4 22be d733 563e 1b35 583e
00000050: ff2c 59be 041b a83d dc30 393e 745b be3c
00000060: c461 c5bd 200d 52be 6f4a d43d bb4a 14be
00000070: e78e bc3d 77e5 4b3e 5b87 f4bd 7dbd a03d
00000080: 2e29 26be 2d69 873d e474 353d b5fd b43d
00000090: 9393 40be 602e c8bb 4a76 de3d 93dc 9a3d
000000a0: f077 e9bd 0077 9d3d 4aee 483d 91ec f3bd
000000b0: 36d7 c8bc b559 70be f529 923c ae0e 58be
000000c0: bd35 613e 5480 2a3e 682f 073e fe76 4a3e
000000d0: 22d0 d5bc 1156 3bbe fde2 f63d e484 3fbd
000000e0: 2a9d 123e 8c58 09be 04ac 33be 4f82 5d3e
000000f0: 9f3e 233e c686 f33d 8003 6f3b 1b6e 43be
00000100: be49 2dbe a3b6 573e 836d 37be ed8e ff3c
00000110: 7917 4d3e 7461 bebd 4a27 51be 7dde e139
00000120: 1aba 0cbd 2db7 b13d 367a 15be d201 99ba
00000130: b160 fbbd d2ff aebd be40 a0bd 182a 8cbd
00000140: cb84 533e 1bb1 853c 7529 0ebe f0c4 153d
00000150: d316 9b3e 9929 d9bc cfd0 453d 0e70 e13d
00000160: 50d0 c73e dfa2 243e 30a7 0abe 2036 513d
00000170: 366a 613e cb51 c73c c41f a23d 838d 8f3e
00000180: dac1 7cbe c988 3fbe 8db1 353e d076 e43d
00000190: 9d8f 8e3e 9dcb 8d3e 6e77 db3d 9d58 38bd
000001a0: 7a5d 7e39 e7d1 9fbd e79e 88bd 8ccf 56be
000001b0: 855d 083e e8a1 243e 4ea3 aebd 542b 773e
000001c0: 1a14 533e 2dda a53b bf81 2dbe 169f 053e
000001d0: 0165 f9ba a1ae b93d d272 19be 335f 3b3e
000001e0: 6617 b93d 4921 0b3e e35c 21b9 f748 603d
000001f0: 9188 453e 48ed 3dbe e7ac 1bbe 76d3 493d
00000200: a115 443e 5256 373e 599f 28be 14b5 28be
00000210: a5ac 853e 9270 3abd e903 13be 2531 20bd
00000220: 6eb8 18bd d23b 5c3e d02f 643e 15a9 80bd
00000230: cd7d 8ebe c47e 4ebe 98d4 7dbe 14f2 16be
00000240: 8108 8fbe 42eb 09be 4289 3cbe 9f44 5a3e
00000250: 0f6b df3d 59fa ec3b 2c6e 453e b266 56bd
00000260: c145 683c d975 c83d 676f 4ebe 6a5d 15be
00000270: 6816 3dbe 4768 d43d dd5f 8bbe ac51 0d3e
00000280: 3736 4d3e 3488 e4bd e423 eabd 1e55 80be
00000290: 099a 533e 72cf 513e c0b2 023e 7c86 16be
000002a0: 0e91 5ebe a1da 1d3e 1936 03be d49a d93d
000002b0: 6606 1ebe 3b04 20bd 53ca 983e c5c8 383e
000002c0: 6308 12be d2df 483d 48e3 12be 38aa 583d
000002d0: e3e6 d13d 9b7a f83c 703f a5bc 23ac 063e
000002e0: db1e 4cbe ab0e 14bd 8688 333e 31d0 bebd
000002f0: 9559 a2bc b246 81be 27ee 82be 0204 81bc
00000300: 4f58 52be a600 353e c333 bebc 767d ef3d
00000310: ac60 6cbe a61e 8a3e 1698 88be 6689 07be
00000320: b514 1e3e 18fd 603e 1376 5ebe 3ca6 a5bd
00000330: c940 d73d 2f2c 403e 9b98 46be 2ea7 243e
00000340: d6c3 9cbd 57b6 8cbe 375c 733d 4868 ae3d
00000350: 6d46 793e 5ed9 513d 822c b1bd 6ca4 a13e
00000360: 9316 1f3d 141c 39be e041 4c3e a4c0 07bc
00000370: 4140 0cbe 8f21 49be 1d88 66be ecc5 f3bd
00000380: 5e62 c3be af69 813e f9a4 403e b35a bf3a
00000390: 1868 6ebe 2422 09be 5270 61bd bf96 7dbd
000003a0: 4fa6 783e a2f7 433d 805a d9bd 83fa b23d
000003b0: fb0c 73be 643d c8bd 922b c7bc 0a03 bb3e
000003c0: 8a4e 033e f168 86be 6b28 583e fedf 0bbe
000003d0: 6f8c 0b3c d5b8 bd3c c357 4dbd 8fd2 3e3e
000003e0: 8434 973d 19f9 373d 6778 913d 32ed 0a3e
000003f0: 9361 b1bd 2d66 c03d 4c4b c83d 6899 d6bd
0.0880878 0.124291226 0.37090093 -0.10335215 0.12980503 -0.08497467 -0.4000337 -0.24697866
0.42954108 0.3931024 -0.13059656 0.16728401 0.2369816 -0.032343972 0.00095490844 -0.12716357
-0.15969478 -0.159137 0.20918213 0.21114008 -0.21208571 0.08208278 0.18085045 0.023236968
-0.09637788 -0.2051282 0.103657596 -0.14481632 0.09206944 0.19911753 -0.119398795 0.07848642
-0.16226646 0.066118576 0.04430093 0.08837453 -0.18806295 -0.006109044 0.108624056 0.075616024
-0.113998294 0.07688713 0.049055375 -0.11910356 -0.024516683 -0.2347172 0.017842272 -0.2109935
0.21993156 0.16650516 0.13201678 0.19771954 -0.026100222 -0.1829455 0.12055013 -0.046757594
0.14317766 -0.13412684 -0.17546088 0.2163174 0.15941857 0.1189094 0.0036470592 -0.1908497
-0.16922662 0.21065764 -0.17912869 0.031196082 0.20028485 -0.092959315 -0.20425144 0.0004308111
-0.034357168 0.08677516 -0.14597401 -0.0011673516 -0.12274302 -0.085448876 -0.078248486 -0.06843966
0.20656125 0.016319802 -0.13883002 0.036564767 0.3029085 -0.026509093 0.04829484 0.11007701
0.39026117 0.16077755 -0.1354034 0.05107701 0.22013173 0.024330994 0.07916215 0.28037652
-0.24683324 -0.18704523 0.17743511 0.11155474 0.27843943 0.27694407 0.10716139 -0.045006383
0.0002425815 -0.078037076 -0.06670933 -0.2097761 0.13316925 0.16077387 -0.08527242 0.24137622
0.20613137 0.005061409 -0.16944025 0.13048968 -0.0019027294 0.09066511 -0.14985207 0.18298034
0.09037666 0.13586916 -0.0001538876 0.054757085 0.19290377 -0.18547547 -0.15202676 0.04927393
0.19148876 0.17904022 -0.16467036 -0.16475326 0.2610828 -0.04551751 -0.1435696 -0.039109368
-0.03728526 0.21507195 0.22283864 -0.0628225 -0.27830353 -0.20165545 -0.2478813 -0.14740783
-0.27936175 -0.1346865 -0.18411735 0.2131524 0.10909092 0.007231992 0.19280308 -0.05234403
0.014176787 0.09788103 -0.20159684 -0.14586416 -0.18465579 0.10371452 -0.27221575 0.13800687
0.20040213 -0.11158791 -0.11432627 -0.2506494 0.20664228 0.2048929 0.127635 -0.14699739
-0.21735021 0.15415432 -0.12813605 0.10625234 -0.15432128 -0.039066534 0.2984186 0.18045337
-0.14261012 0.049041577 -0.14344513 0.05289671 0.10249116 0.0303319 -0.02017185 0.13151602
-0.19933645 -0.0361468 0.17532548 -0.09317053 -0.019818107 -0.2524925 -0.2557232 -0.015748981
-0.205415 0.17676029 -0.023218041 0.11693852 -0.23083752 0.26976508 -0.26678532 -0.13236007
0.15437587 0.21971548 -0.21724729 -0.08088347 0.10510404 0.18766855 -0.19394152 0.16079399
-0.0765454 -0.27482864 0.059414115 0.08515984 0.24343272 0.051232688 -0.08651067 0.31570756
0.038839888 -0.18077117 0.19947004 -0.008285675 -0.13696386 -0.19641708 -0.2251286 -0.11902985
-0.38160986 0.25275943 0.18812932 0.0014599174 -0.23281896 -0.1339193 -0.055038758 -0.06191134
0.24282192 0.047843583 -0.10612965 0.087391876 -0.2373542 -0.09777334 -0.024312768 0.36525756
0.12822929 -0.2625194 0.21109168 -0.13659665 0.008517369 0.023159424 -0.050132524 0.18635009
0.073830634 0.044915292 0.07103043 0.13567045 -0.08661189 0.093944885 0.09779987 -0.10478479

lstm1_1.bias_ih_l0 f4 [64]
00000000: a042 84bd 6855 f8bd a1c8 34bc 386b 41be
00000010: 5fe9 30be a413 a5bd 3091 8d3e 72e3 67bc
00000020: aed6 37be 15b0 25be 865d bd3d 6ee0 2dbd
00000030: 6c51 e23d 14bc 9d3d 0ebb 523e ae96 8b3d
00000040: 76a5 e8bc e7a2 64be 2787 c83c 2b0a 013e
00000050: 3851 1f3e 722b e8bd e0f5 8ebc 08a9 3c3e
00000060: ba16 133e 8b05 04bc 83f3 dd3c 9a96 2cbe
00000070: 728a 473e 678d 4f3e 525f fa3d 68c9 6dbc
00000080: 063f 0e3d 25fb 553e edfb 4bbe f917 f4bd
00000090: a45e b43c b790 c9bc 3989 b13d 0c25 40be
000000a0: da81 2b3e 812c 6a3e 075d dfbc bb33 f43d
000000b0: 42e5 3d3e 6ba9 1dbd fb13 603e 56da 773e
000000c0: 7100 973e 1cc7 32be e640 653e edde 363e
000000d0: 3580 50be 2cf5 9bbd 60eb 153e cef5 21be
000000e0: 80a0 223e a21d 763d 9ba6 3e3e d80a cdbd
000000f0: 7e25 43bc 32e6 6cbd 80f9 11be f439 793c
-0.0645802 -0.12125665 -0.011034162 -0.18888557 -0.17276524 -0.08060387 0.27649832 -0.014153348
-0.17952988 -0.16180451 0.09246354 -0.04245036 0.11050686 0.07701889 0.20579168 0.06815849
-0.02839921 -0.22327767 0.024478508 0.12601535 0.15558326 -0.113364115 -0.017451227 0.18423855
0.14364138 -0.008057962 0.027093654 -0.16854325 0.19486406 0.20268784 0.12225212 -0.014513351
0.034728073 0.20896585 -0.19920321 -0.11918635 0.022017784 -0.024605138 0.08668751 -0.18764132
0.16748753 0.2286854 -0.027266039 0.11923929 0.18544486 -0.038491648 0.21882622 0.24204382
0.29492524 -0.17458767 0.22388038 0.17858477 -0.20361407 -0.07615122 0.1464057 -0.15816423
0.15881538 0.060086854 0.18618242 -0.10011834 -0.011910794 -0.05783672 -0.14255333 0.015211571

lstm1_1.bias_hh_l0 f4 [64]
00000000: 70dd 953e 82fd 27bc 3bf9 de3c 84f7 1b3e
00000010: 9344 ecbd 978f 3a3e 6d02 a8bd d2ef ac3d
00000020: 7c51 303e 3578 1f3e 7505 213d aa1c b93d
00000030: 5c02 57be a48a 5b3e 3c07 6d3e b327 653e
00000040: 5df5 f33b 06a7 7a3d 08b7 babc bfeb 04bc
00000050: 2d21 85be 06d7 66be 756d 64bd e365 6e3b
00000060: 06cc 54bd 1366 e1bd 4fae db3d 5844 34be
00000070: 2ada 79be 9c65 be3d b17c 2cbe 1ca9 d2bd
00000080: cbab 2dbe 7a4e ef3d 3d6b 3b3e b6d9 e8bd
00000090: 95f2 0c3e 73ca 9f3d 6f90 12bd 5566 9a3d
000000a0: 0442 6d3e a949 20bb aff4 d7bd e8c1 c73d
000000b0: 420c d3bd e10b 78be f6e3 f53d f90f bb3d
000000c0: ffbb 0dbe 74a8 77be c99d 28bd 4468 7dbd
000000d0: 9fd6 39be 4e0d fdbd ac6d 393d 1038 d4bc
000000e0: 0e2d 41be 1010 953e 0146 523e 3784 593e
000000f0: c96f 0f3c 082e 50be 0d7a b3bd a3a3 e8bd
0.29270506 -0.010253312 0.027218452 0.15231138 -0.11536517 0.18218838 -0.08203588 0.084441796
0.17218584 0.15573199 0.039311845 0.0903867 -0.20996994 0.21439606 0.23147291 0.22378425
0.007445021 0.061194442 -0.022792354 -0.008112847 -0.26001874 -0.22542962 -0.05576845 0.0036376647
-0.051952384 -0.11005797 0.10726606 -0.17604196 -0.24399629 0.09296724 -0.16844441 -0.10286161
-0.16960065 0.1168489 0.18302627 -0.1136965 0.13764413 0.07802286 -0.035782274 0.075390495
0.23169714 -0.0024457967 -0.105447166 0.097537816 -0.10305072 -0.24223281 0.12006371 0.09133906
-0.13841246 -0.24185354 -0.0411661 -0.061867014 -0.18148278 -0.12356053 0.045270607 -0.025905639
-0.18864843 0.29113817 0.20534517 0.21241842 0.008754679 -0.2033006 -0.08763514 -0.11359336

lstm1_1.weight_ih_l0_reverse f4 [64, 32]
00000000: d613 733d ccd0 c23d 7ec2 5d3d 600d 533e
00000010: 5040 cf3c 183c da3d 3136 6c3e 4eb0 df3d
00000020: c810 6a3e a638 26be 1101 27be 291c cfbd
00000030: 3bbd 5cbe e920 f3bd b897 763e 9049 cd3d
00000040: 83d4 6dbe f471 2b3e f26e 6cbe f087 b5bd
00000050: 51c1 05bd 862d 613e 5528 4d3d 38c0 4abd
00000060: 88b2 433e 3444 cbbd a4e7 16be e62c 5ebd
00000070: 904b 683d aaba b7bc c79a 85bd e015 e2bc
00000080: c366 d3bc 1622 9fbc 8245 23bd 1abe 333e
00000090: e85f 3b3e b704 9fbc cac1 11be 8bd1 5fbd
000000a0: 40a7 ed3b 92b3 26be 6c64 2bbe d225 1b3e
000000b0: 1415 11bd a8cb b83d f031 73be 18f8 06bd
000000c0: 6da9 4bbe 9687 14be 4819 b4bd 4c33 873d
000000d0: 3b09 2bbe 592f 51be 2291 003e 2171 fcbd
000000e0: d2a9 ec3c fecf 5fbe e4a6 eebd 7567 3dbd
000000f0: 2801 5bbd cf42 5d3e 89f5 cbbd c495 9bbd
00000100: ef0c 0f3d 03c9 6f3e 0e3f 5dbe aa35 6c3d
00000110: e290 7d3e f867 9e3e 1601 efbd 5ea0 583e
00000120: 98be 253e 9cd2 d73d 135e fdbd ae3c d0bc
00000130: 911d eb3d f1d8 b7bd 3039 423d 10b8 12bd
00000140: e32d 773e a061 5c3e b8ca 56bd 3812 15bd
00000150: 81ad 783d 3ec5 1c3e c054 b63d 2c29 36be
00000160: 0d6b f4bd ce7b 36be 183c 92bd bf7f 0a3e
00000170: 2003 48be 6476 58bd 2f58 fc3d 28f6 75be
00000180: 9a88 c03e 5d36 acbd e3da b83d ba19 8d3e
00000190: f04b 15be 4aa9 2fbd 6a96 4a3c 2203 8c3e
000001a0: 86f9 6dbe 3c3c 663e d5fa 883d e0c9 c8bd
000001b0: 3caf 1a3e d270 8c3e b645 65be 2484 f7bd
000001c0: 8364 b73c 08a2 20be c01a be3d 2c43 13be
000001d0: 1932 583b 0ac3 2c3e eb70 bfbd 779f 4e3e
000001e0: a7ec 9dbd 801b 8d3c f6a2 05be 7b53 a93e
000001f0: 2811 f83d 47cb 603c d0e8 5ebd 8051 9dbb
00000200: 7a51 223e 6ba3 73bd 28b6 d2bd c202 8e3e
00000210: a07b 52bc f05e 88bd 8325 313d 6ba2 1c3e
00000220: 4c30 2d3e 9869 29bd 869e 1e3d a98d 2c3e
00000230: fb04 663e 4d98 ba3e 5445 00be d0b7 0dbd
00000240: 78e9 2c3d 4b78 29be 0609 6a3e 30b7 c23c
00000250: fedb 2abc b7ca c93c c01b c1bd abb1 b4bd
00000260: 4d47 303e 383a 7d3e dc9a 95bd fe61 42bc
00000270: 04e2 06be 109d b9bc f337 d1bd ae49 133e
00000280: 981d 8ebe 956c 443e badb b23d 7614 3d3d
00000290: d827 0ebd 3194 a93d 0654 4bbc f646 1abe
000002a0: 9856 70bd a828 8f3d 4f07 14bd 4ae5 40be
000002b0: 72e3 b4bd 6a13 163d 84c9 59be 38be dcbd
000002c0: 291b 46be 34ce e53d 6068 8d3c 882b ff3d
000002d0: 3230 143e a377 4f3e 85aa 863e 8136 26be
000002e0: 29bd d3bb a0f2 78bd e813 763d 1b68 953d
000002f0: c295 7ebe bdf6 5d3e cd6b 6abd 50cb 413d
00000300: 2622 44be 0023 d8bc 7496 41bd ef7a 47be
00000310: f43b 0fbe 43b8 92bd 262d 173e 6dc8 553e
00000320: 20f8 d53c 4432 90bd a25a 45be 7aa8 a93d
00000330: 0cee ecbc ac77 9abe 906d a9bc e465 5a3e
00000340: 3328 0a3e 194b f0bd da84 23be 50d1 50bd
00000350: 66b0 60bd a358 763e 17ca 65be 3ee5 4dbe
00000360: fb8d d9bd 80b8 d3bd 205f a4bc e92a 2fbe
00000370: 607b b2bd c539 533e 5dd0 1abd 20f4 bfbd
00000380: 9b0d a13e ef95 553e fb34 38bd a763 823e
00000390: 5c09 7cbe 20da 5b3d e728 3cbe 53a9 f1bd
000003a0: 8087 b23c 98d4 62bd 882f f33d b846 4f3e
000003b0: 76f6 6fbe 1534 13bc 8071 c93b 08f4 873d
000003c0: 88a4 d63d c3f8 f0bd b020 b83d 78b1 3ebe
000003d0: 1009 f5bc 2b94 33bd 01e9 7abe 2405 f3bd
000003e0: cb1f 003e b4ef 9dbd f6b2 603e 8bc2 9f3e
000003f0: 0898 763e cfe6 87bb 6bc4 8ebd ee61 43be
0.05934509 0.09512481 0.05414056 0.20610571 0.025299221 0.10655993 0.23067547 0.10922299
0.22857964 -0.16232547 -0.16309 -0.10112793 -0.2155656 -0.118715115 0.24081314 0.100237966
-0.23225598 0.16742688 -0.23089197 -0.08863819 -0.032655064 0.21990022 0.05008729 -0.04949972
0.19111073 -0.09925118 -0.14736801 -0.054242037 0.056712687 -0.022427876 -0.06523662 -0.027598321
-0.025805837 -0.019425433 -0.03986121 0.17552987 0.18298304 -0.019411428 -0.14234081 -0.054643195
0.007252604 -0.16279438 -0.16737527 0.15151146 -0.035420492 0.09023219 -0.23749518 -0.032951444
-0.1988885 -0.14504847 -0.087938845 0.06601581 -0.1670274 -0.20428218 0.12555364 -0.12326265
0.02888957 -0.21856686 -0.116529256 -0.046241242 -0.0534679 0.21607517 -0.099589415 -0.07596925
0.034924444 0.23416524 -0.21606085 0.057668366 0.247623 0.30938697 -0.11670129 0.21154925
0.16185987 0.105382174 -0.12371459 -0.02541956 0.11480249 -0.08976925 0.04741782 -0.035820067
0.24138598 0.21521616 -0.05243942 -0.036394328 0.06071234 0.15309617 0.089028835 -0.17789143
-0.11934481 -0.17820665 -0.07140368 0.13525294 -0.19532442 -0.05284728 0.12321507 -0.24019682
0.3760422 -0.084088065 0.09026124 0.2755869 -0.14579749 -0.042886056 0.012364963 0.2734614
-0.23239717 0.22483915 0.066884674 -0.098041296 0.15105909 0.27429825 -0.22389874 -0.12085751
0.022386795 -0.1568681 0.09282446 -0.14381093 0.0032988845 0.16871276 -0.09347709 0.20178019
-0.077111535 0.017225027 -0.13050446 0.33071503 0.12112647 0.01372034 -0.054421246 -0.0048009753
0.15851393 -0.05948202 -0.1028865 0.2773648 -0.012846857 -0.06658733 0.043248665 0.15296333
0.16912955 -0.041360468 0.0387254 0.16850914 0.22462837 0.3644432 -0.12526447 -0.034599125
0.04221484 -0.16549794 0.22855005 0.023768991 -0.010428427 0.024632795 -0.09429121 -0.0882295
0.17214699 0.2472924 -0.07304928 -0.0118641835 -0.13172156 -0.022657901 -0.102157496 0.14383575
-0.27756953 0.19182046 0.08733316 0.04616209 -0.034705967 0.082802184 -0.0124101695 -0.15066132
-0.058676332 0.069901764 -0.036139783 -0.18837467 -0.08832444 0.03663961 -0.21268278 -0.10778469
-0.19346298 0.11220971 0.017261684 0.12459475 0.1447151 0.20260482 0.2630197 -0.16231729
-0.0064617586 -0.06077826 0.060077578 0.07295247 -0.24861816 0.21676154 -0.057231713 0.047313035
-0.19153652 -0.026383877 -0.047262624 -0.19480489 -0.13987714 -0.071640514 0.14763317 0.20877238
0.026119292 -0.070408374 -0.19272855 0.082840875 -0.028922103 -0.30169427 -0.020682126 0.2132793
0.13491897 -0.11733074 -0.15968648 -0.050980866 -0.054855727 0.2405725 -0.22440372 -0.2010698
-0.10622784 -0.10337925 -0.02006489 -0.17106213 -0.08714938 0.20627506 -0.037796367 -0.09372735
0.31455693 0.20857976 -0.0449724 0.25466654 -0.24612945 0.053674817 -0.18374978 -0.11799874
0.021793127 -0.055378526 0.118743 0.20241821 -0.23433861 -0.008984585 0.0061475635 0.06638342
0.104806006 -0.117661975 0.0899061 -0.18622386 -0.029911548 -0.043842476 -0.24502946 -0.11866215
0.12512128 -0.07711735 0.21943268 0.31203112 0.24081433 -0.0041473876 -0.069710575 -0.19080326

lstm1_1.weight_hh_l0_reverse f4 [64, 16]
00000000: 7b46 e83d cdfe 553e 0b47 89bd a62a 0fbe
00000010: abcf bd3d d85d 9fbc b824 f6bd b703 ff3d
00000020: efcd 00bd af2d 51be 65a9 983c a3b1 1dbe
00000030: 4f99 b33d 89c4 f4bd 90b2 26be 39ac 3d3e
00000040: c1b6 8bbd c843 853e d5ab 52bd 4cac 11be
00000050: cdc5 49bd d379 52be 8678 49be 22ab 76be
00000060: c4f3 b1bc b016 3e3e 5e7f cc39 b393 a3ba
00000070: 0ece 75be 545d 033e 401a f0bd 24e3 efbd
00000080: 4628 7d3e 7e14 39be 23ea 6cbe 5b55 123d
00000090: ffd0 06be 43db 0d3e 0acb 633d fb36 76be
000000a0: 5f35 2cbd 96f4 b3bd 5b27 15bd 0170 30be
000000b0: b595 683c 71ca 61be 5cc5 dcbd ddbc b13d
000000c0: c623 c63c c6f6 4a3e d3e5 a9bd 979c 77be
000000d0: c112 a4bc efe5 2a3e 9670 6ebd 3bf2 4c3e
000000e0: 1f1e 0bbe 32d4 1fbd 209c 4dbe edfa 263d
000000f0: 03d7 343e fbdb f13d ab68 2c3d e001 393e
00000100: a8dd 2a3d 85ab 4f3d 0243 6bbe 82ff f3bd
00000110: efba 843d 6f42 803d 3876 093d 9f52 ce3d
00000120: fac6 8f3e e820 6abe a40b 8dbd b78a ea3d
00000130: 9d4e 04be 072c 45be 9187 2f3d 09c2 543e
00000140: 24b2 0d3e bcbe 1a3d c20d 09be be05 9d3e
00000150: 5e6f 093e 40f5 4c3e bb39 b8bd 41fd 033e
00000160: 3367 bfbe d7cf c2bd e10a b53c 0ee2 2ebd
00000170: 583c a13e b608 083e 1513 44be 163b b33e
00000180: 0d0b cfbd 0e11 8cbe 8597 e53d 1631 ee3d
00000190: 6fd8 243e 3475 7ebe 2b64 af3d 11f5 113e
000001a0: a8ce bb3d 3b8e 933b 24e3 153e 1c86 1a3d
000001b0: 7212 773e 0b9a 363b eaf5 06be 250a 923e
000001c0: 87b8 bc3d 3798 583e c2f2 7ebd 189e 023e
000001d0: f692 573e 6137 83be 6b55 a1bc a263 e3bd
000001e0: 73b7 3abd 0b6e 2fbe 3218 663e 9bc8 03be
000001f0: 918b c53d 1262 0d3e 25f5 063c 3743 133e
00000200: 1a6c 89bd 2cc1 c9bd 9eb3 173e 5ff1 94be
00000210: d9fd 803e e41b 5ebc e3e0 fdbd 414a 98bd
00000220: b738 4f3e 4432 2bbe 4a79 fa3c ed43 5b3e
00000230: 3f0e f03d 669f 3cbd 0e61 733e ee36 23be
00000240: ccbf 373e 4318 09be eac8 6c3e 6397 cb3d
00000250: 82a5 123e 2600 863d ffb9 bf3c bc6b 0a3e
00000260: fa7a e33c 0eac 0abd 67e6 943d 7c74 44be
00000270: 0c36 733d e426 4ebe 85e9 9ebd 8d67 9e3d
00000280: 3305 2a3e 9939 963e 099c 413e 3c0f 3abe
00000290: 41e9 a9be 324f 18bd 55c7 be3c aac4 193e
000002a0: 5c30 e43d 1ba2 01be 925e 2e3e 96ec 733d
000002b0: ec9b f53c dadd 5abc af11 6d3e 4c88 81bd
000002c0: 4f27 3c3e 844b e8bd d6fe 8fbd ea88 90bd
000002d0: 4f28 e13d 4808 f6bd 0180 133d e670 33bc
000002e0: e526 e83d 2486 5abd ff35 0ebd 4e87 07be
000002f0: d9ec 583e b0a1 fabd 4404 79be ac3b f2bd
00000300: f6d6 cfbd 3ea8 a13d 888d 90bd 4300 ccbd
00000310: 20f6 883e e866 103e cc52 cd3d 9005 91be
00000320: 784b 2ebd d96f b73d fcc6 2d3e d80f 2d3e
00000330: 1714 433d 7b3a 903d 2cfb ae3e 0936 17be
00000340: 3165 19be a02b 73be 4f5e 713e 12dd d9bd
00000350: 150c 15be 231d ec3d 99fc 6bbe 1266 f1bd
00000360: 8f54 0fbe 814b cbbc f327 cb3d 3fc3 0cbe
00000370: c956 65be 77a2 14be 1e85 d13d d270 53be
00000380: 6fd5 34bc cc73 01bd 4cd2 49be 6137 45be
00000390: cb67 1f3e 012b 65bd 35e3 17be 38c7 47be
000003a0: 82aa 3e3e 4cdb 973e c179 6ebe 2bc4 6f3e
000003b0: f9f3 d43d 9e77 2a3e e273 de3b ba19 5e3e
000003c0: 783c fc3d a187 183e 1aec 15bd dd86 8d3d
000003d0: 798f a03e a3d3 22be 0a77 0ebe a9c2 ac3d
000003e0: a3a8 103e 8b2c 383e f204 613e e805 3bbd
000003f0: b0b2 0a3e c79d 53bd 6d5d 9abd 21d1 a4be
0.11341568 0.2089798 -0.067030035 -0.13981113 0.09268125 -0.019453928 -0.12018722 0.124518804
-0.031446394 -0.20427583 0.018635461 -0.15399794 0.08769476 -0.119515486 -0.16279054 0.18522729
-0.06821967 0.26028275 -0.051433403 -0.14225882 -0.049260903 -0.20554285 -0.19674882 -0.2408872
-0.021722682 0.18563342 0.00039004808 -0.0012479931 -0.24004385 0.1282857 -0.11723757 -0.117132455
0.24722394 -0.18074223 -0.23136191 0.035725933 -0.13165663 0.13853173 0.055613555 -0.24044411
-0.042043086 -0.087868854 -0.036414485 -0.17230226 0.014195849 -0.22049882 -0.10779831 0.08678601
0.02418698 0.19820699 -0.082957886 -0.24180828 -0.020028474 0.16689275 -0.05821284 0.20014279
-0.13585709 -0.039020725 -0.20079088 0.040766645 0.17660145 0.11809536 0.042092007 0.18067122
0.041715294 0.050700683 -0.2297478 -0.119139686 0.06480967 0.06262671 0.033560008 0.100743525
0.28081495 -0.22864115 -0.06886986 0.11452239 -0.12920614 -0.19255076 0.042853896 0.20777144
0.13837487 0.037779555 -0.13384154 0.30668443 0.1342139 0.2001543 -0.08995386 0.12889577
-0.37383422 -0.095122986 0.022099914 -0.04269605 0.3149135 0.13284573 -0.19147904 0.35006016
-0.1010953 -0.27356762 0.11210541 0.11630456 0.16098188 -0.24849397 0.085640274 0.14253642
0.09170276 0.004503039 0.14637429 0.037725553 0.2412813 0.0027862813 -0.13179746 0.28523365
0.09214883 0.21151815 -0.06224323 0.1275562 0.21052155 -0.25628188 -0.01969405 -0.11102988
-0.045585107 -0.17131822 0.22470167 -0.12869494 0.09645761 0.13806942 0.008237158 0.14381109
-0.06710072 -0.09851298 0.14814612 -0.29090402 0.2519367 -0.013556454 -0.12396409 -0.07436038
0.20236479 -0.16718394 0.030575413 0.2141263 0.11721467 -0.04605045 0.23767492 -0.15938923
0.17944258 -0.13388161 0.23123518 0.09940984 0.14320949 0.06542997 0.02340412 0.1351766
0.0277686 -0.03385549 0.07270508 -0.1918506 0.059377715 -0.20132023 -0.07759384 0.077345945
0.16603546 0.2934082 0.18907179 -0.18169874 -0.3318577 -0.0371849 0.023288408 0.15016428
0.11142036 -0.12659495 0.17028263 0.059551798 0.029981576 -0.013358558 0.23151277 -0.06324825
0.1837437 -0.113425285 -0.07031028 -0.07057364 0.109940164 -0.12013298 0.036010746 -0.01095221
0.113355435 -0.053350583 -0.034719463 -0.13235208 0.211841 -0.12237871 -0.24318033 -0.11827788
-0.101484224 0.07893418 -0.07058245 -0.099609874 0.26750278 0.14101756 0.10025558 -0.28324556
-0.04255244 0.0895688 0.16970438 0.16900575 0.04762658 0.07042404 0.34176004 -0.14766707
-0.14980008 -0.2374711 0.23571132 -0.10637869 -0.1455539 0.11528995 -0.23045577 -0.117870465
-0.139971 -0.024816277 0.09919729 -0.13746355 -0.22396387 -0.145151 0.10230468 -0.20648506
-0.011037215 -0.031604573 -0.19709128 -0.19259407 0.15566938 -0.055949215 -0.14832766 -0.1950959
0.18619731 0.29659498 -0.23288633 0.23414676 0.103980966 0.16647193 0.0067887167 0.21689501
0.12316221 0.14895488 -0.036602117 0.06910489 0.3135946 -0.15901046 -0.13912597 0.08435566
0.1412683 0.17985742 0.21974543 -0.04565993 0.13544726 -0.05166414 -0.07537351 -0.32190803

lstm1_1.bias_ih_l0_reverse f4 [64]
00000000: c93f 0ebe ec16 703e a3c0 463e 7cd6 183e
00000010: 7b9a a23e 549e 7a3e 68fc 9eba 9b38 463e
00000020: 90b2 543e 486d 6b3e 6d46 40bc 13f5 72be
00000030: 6e55 293e 234b 8ebc 0531 2cbd 396c f8bc
00000040: 1b34 5dbe 1f1c 1abe 8372 33be 1bbc 963e
00000050: 1941 28bd 0dda 25bd 520b 01bc 04ee 593e
00000060: 5498 3dbe 859d b5bd ad7a a1bd 6881 64be
00000070: c080 7bbd 7b81 273d 8869 4d3d 91f6 88bd
00000080: c3d0 853d a26f e53d 79c5 56be 96f9 5f3e
00000090: 65a8 17be a34a 4bbe d554 e33d 7436 38bc
000000a0: 07d7 a13c d0d6 53be 43a0 5f3e 060b 1e3e
000000b0: 6821 a53c 3034 c6bd 395c 7e3e 03a6 44bc
000000c0: 7285 203d dc6a d6bd bd66 00be 4ce9 25bd
000000d0: 98a6 943e 7898 463e 4be8 483e 26b0 56bd
000000e0: e9e3 31be 5f74 c3bd 64ae 8c3d 9d45 14bd
000000f0: 4e43 1fbe f313 3e3d fa5d f53d 3c14 9c3e
-0.1389152 0.23446244 0.19409423 0.1492557 0.31758484 0.2447446 -0.0012129666 0.19357531
0.20771241 0.22990906 -0.011735541 -0.23726301 0.16536495 -0.017369812 -0.042038936 -0.030325042
-0.21601908 -0.1504979 -0.17524152 0.29440388 -0.041077707 -0.040491153 -0.007876234 0.21282202
-0.1851514 -0.08867935 -0.07884727 -0.2231499 -0.061402082 0.040894967 0.05014947 -0.06687654
0.06533959 0.11202933 -0.20973767 0.21872553 -0.14810331 -0.1985269 0.11100165 -0.011243451
0.019755853 -0.20687413 0.21838479 0.15433893 0.02015753 -0.09677923 0.24839868 -0.012002471
0.039189763 -0.104696006 -0.12539192 -0.040505692 0.2903335 0.193941 0.19619863 -0.052414082
-0.17372097 -0.095436804 0.068692 -0.0361992 -0.15553018 0.046405744 0.11980815 0.30484188

lstm1_1.bias_hh_l0_reverse f4 [64]
00000000: fa00 f3bd e82b d9bd 275b 0e3e df4f 27bd
00000010: 4f23 893c f44e 873d fa94 5d3d 6d0f 2f3e
00000020: 4cd9 473c 1b4c a33e 10fe cf3d 10c1 17be
00000030: c313 233e b1a7 2bbe f49d 883e 6634 8e3e
00000040: bccd f53d 3502 1dbe 1d1a 1ebe 71c4 213e
00000050: 5c0a 8bbd da7c 873e 7017 09be 5665 7fbd
00000060: 91b1 8e3e 14c5 233e 5f1d 2b3e 8e22 563d
00000070: cc93 9c3e 5436 8b3e 9a3b 09be 3b89 633d
00000080: 0b20 0dbe 439c 823d d1de 183d b81f fbbd
00000090: b81a 91bd ca0c 993c 9cda e6bd 7d98 f6bc
000000a0: 88d7 7b3d 068a 0abe f3db 433e 62f8 053e
000000b0: d73f 6abe b9e6 09be b956 00be 016f 14be
000000c0: f4c0 fd3d a8c6 bdbd bb10 813e 2d94 cd3d
000000d0: 635d e0bd cc53 6b3e 8173 4bbe bf80 74bd
000000e0: 70ae 293e 6d14 8f3d ce56 8e3e 9908 4d3d
000000f0: fe54 6a3e e9cb adbd bfde 033e 3953 933e
-0.11865421 -0.106040776 0.1390196 -0.040847655 0.01674047 0.06606856 0.054097153 0.17095728
0.012197804 0.31894 0.101558805 -0.14819741 0.15925507 -0.16763188 0.2668301 0.27774352
0.12002131 -0.15332873 -0.15439649 0.15797593 -0.06789085 0.26462442 -0.13387847 -0.0623525
0.27869847 0.15993148 0.16710423 0.052279048 0.3058151 0.27189887 -0.13401642 0.055550795
-0.13781755 0.06377461 0.03732187 -0.12261909 -0.07085174 0.018682856 -0.11272165 -0.030102009
0.061484843 -0.13529214 0.19126873 0.13083032 -0.22875915 -0.1346692 -0.12533082 -0.1449547
0.123903185 -0.09266406 0.25208077 0.10038028 -0.10955312 0.22981185 -0.1986828 -0.059693094
0.16570449 0.06986318 0.27800602 0.050057027 0.22883984 -0.084861584 0.1287794 0.2877443

lstm1_2.0.weight f4 [32, 32]
00000000: da8d d23d 3aae 2d3e 8b69 2ebe c42b 4d3d
00000010: d8a0 513d c8c0 ea3d 2b4a 7b3d 897a 3c3e
00000020: caf6 a93a 3118 23be f698 1bbe 93a0 9d39
00000030: 5c82 fbbd 6f71 e63d 4828 663d 75fb 49bd
00000040: 4c51 c7bd 4d7d fcbd c03d 07bd bf87 2d3b
00000050: b0b3 10bd 8546 373d e95d f43c 91e2 a2bd
00000060: 0f0b c3bd 009b be3d 38bd aebd 04ac 3abd
00000070: 0307 59be 75f5 d13d 6e16 dc3d 4ce9 5abd
00000080: 6e4d aa3d 6a13 fa3d cd1f c93d 6136 83bd
00000090: 1d4e 523d 8ba8 e6bb 0131 d4bb 00a1 243e
000000a0: b0f1 65bd b264 463d 8005 b1bc de5c 0ebe
000000b0: e548 10bd bf98 d2bd 6f49 20be e411 e7bd
000000c0: e904 1bbe 0ddd d63d a94d e13d 8ed2 3bbc
000000d0: 3a88 22be c34f 7a3d bf04 8a3d 9b0d 083d
000000e0: 92e4 35bc 2b61 053e bb70 febb 35a9 0bbe
000000f0: d9fe 86bd dfbd bb3d 96b5 023e 3502 313e
00000100: 2b4b 9bbc c569 063e 291c bcbc 8fd0 a2bd
00000110: cba3 3abd bd0a b33d 3861 07bd a881 113e
00000120: a621 ba3d cdf9 01be f1ed e8bd 496c 083e
00000130: 6e0c 773d 0019 1ebe 3df2 07be ec4b d13d
00000140: bd56 303e 52dd ddbd d218 553d 5adc 103e
00000150: 9d9e b43d 107c 36bc 8ad6 ad3d 9ca2 10bd
00000160: 4730 273e 06c3 ab3c 2169 913b 432e 0ebe
00000170: eb36 af3d 4364 ee3d 9ca6 193e 6876 6b3d
00000180: a368 d1bd dcf5 213e 64ce 00bd 3c38 023e
00000190: 4112 383d ca62 71be 709b 46be 2013 5f3d
000001a0: 4566 293e 8659 31bc ff1a 96bd bc7c 4ebd
000001b0: 8ed9 313e 1c6f 12be 1cee 4c3e a8f9 803c
000001c0: 1a4f 2d3e eb59 1cbe 6879 9ebd 0f83 633e
000001d0: 20c0 4b3d ed28 9ebc b159 933c be9a 743e
000001e0: e82d a4b9 4e66 b33d 7967 2cbd e247 eebd
000001f0: c6de f63d 2147 03be 0734 d53d a5a4 853d
00000200: f49d dbbd cc06 193e e3f0 cc3c d147 90bd
00000210: 1f88 5d3c d97a c8bd 1504 cb3c cdd1 cd3c
00000220: 272c a4b9 737e 233e 9e19 f73d a42e b6bd
00000230: 26a3 e2bc 3d4c 17bd 7f4e 683d ae2a d0bd
00000240: f52f 8a3b fa42 013e bc63 54bd d50d 683c
00000250: b878 893d 47c6 2bbe f475 ba3d 68c1 d3bb
00000260: 2903 b5bd 7d1e 0dbe 5db0 41bd a1ee b6bd
00000270: 479c 453d b3bd 123d 0240 5abe da14 683d
00000280: 7b78 81bd 9c7c 3d3d 1a05 da3d 8f3b cf3d
00000290: e2e7 bbbd fb48 613e c9d9 c9bd d357 7b3d
000002a0: dd46 1bbe 9f70 233d 621b b2bb 76e3 16be
000002b0: dea2 483e faca b73d 696c c1bd 6f06 8bbd
000002c0: a641 37bd 3a51 a5bd dd7a fcbd 8e11 01be
000002d0: 21e1 b9bb eed7 033e 5805 e03d 7a8b f9bc
000002e0: 5603 033e c074 2b3e 9a95 25be d340 0dbe
000002f0: 2303 a43d 8714 44be 2a83 c3bd 2615 adbd
00000300: 5eca dabd 941c df3d 93b2 23be 295f 2a3e
00000310: 98dc cbbd c7ca 1d3e af41 983d 80f7 a9bc
00000320: 0eda b2bd 7eb5 8c3c 8017 21be 09d2 163e
00000330: e014 f0bd aed2 23be 5908 0b3d 7207 febd
00000340: e1b4 fabc 282b 4a3e 0ed8 09be 3414 d73c
00000350: 3600 cc3a 16dc 383e 9206 083e 98df 33be
00000360: d6e9 c63d e608 9d3c d8e7 243d 7d97 9ebb
00000370: f156 3bbd 47fb dbbd b60b 7d3e e131 babd
00000380: 49a9 353d 436f c53d 17dc 48bd 5324 95bd
00000390: 18ee 9fbd 2253 bc3c 2254 8c3c d162 50ba
000003a0: 0b3f 87bd 07f3 983a 4b7c ecbd 28b0 c3bb
000003b0: 999a 13be d4f7 863d ca94 e5bd b57d 2ebe
000003c0: cf44 253e 9a6c 033e 0702 d6bd d176 0abe
000003d0: d9b9 7b3e e34c c7bd 6eed 01be 1c51 6b3d
000003e0: bb76 4d3e 282c 093e a712 6ebd 888e a03d
000003f0: 6f7f 27bd 289b 96bd ac85 90bd 037b 10be
0.10280962 0.16960993 -0.17032449 0.050090566 0.051178783 0.11462551 0.06135003 0.18406118
0.0012967226 -0.15927197 -0.15195069 0.0003006501 -0.122807235 0.112521045 0.05619076 -0.049312074
-0.09732303 -0.12328587 -0.033017874 0.0026478616 -0.035327613 0.044744987 0.029829936 -0.0795337
-0.09523594 0.09306908 -0.08532184 -0.045574203 -0.21194081 0.10251895 0.107464656 -0.053445145
0.0831555 0.12210734 0.09820519 -0.06406856 0.051344026 -0.007039135 -0.0064755683 0.16077042
-0.056138694 0.048435874 -0.021609068 -0.13902614 -0.035225768 -0.1028304 -0.15653013 -0.11282709
-0.15138592 0.10491381 0.110011406 -0.011463774 -0.15872279 0.061111223 0.067391865 0.0332161
-0.011101859 0.13025348 -0.0077649034 -0.13638766 -0.06591577 0.091670744 0.12764582 0.17285998
-0.018956741 0.13126285 -0.022962647 -0.07949936 -0.04556636 0.087422825 -0.0330517 0.14209616
0.09088449 -0.12692948 -0.11373509 0.13322558 0.06031459 -0.15439224 -0.13276 0.10219559
0.17220588 -0.10833229 0.052025624 0.14146557 0.088193156 -0.011137977 0.08488186 -0.035311326
0.1632701 0.020967018 0.004437581 -0.13884835 0.08555397 0.11640217 0.15004963 0.057485968
-0.10225036 0.15816444 -0.03144683 0.12716764 0.044939283 -0.23572841 -0.19395232 0.0544616
0.16542919 -0.010824567 -0.07329368 -0.050411925 0.17368147 -0.14300197 0.20012707 0.015744045
0.16924706 -0.15268676 -0.07738 0.22217964 0.04974377 -0.019306624 0.017987104 0.23887154
-0.0003131472 0.087597474 -0.042090867 -0.11634804 0.120542094 -0.12820102 0.10410314 0.06525544
-0.107234865 0.14943999 0.025017207 -0.07044948 0.013521223 -0.09789056 0.02478222 0.025124455
-0.00031313414 0.15966205 0.12065433 -0.08895615 -0.027665686 -0.03693794 0.056715485 -0.101643905
0.0042171427 0.12623206 -0.051852927 0.014163454 0.067124784 -0.16774856 0.09104529 -0.006462265
-0.088384934 -0.13781162 -0.047287334 -0.089322336 0.04824474 0.035825443 -0.2131348 0.05666051
-0.06321808 0.046261415 0.10645504 0.10118782 -0.091750875 0.22000496 -0.09855992 0.061363053
-0.15163751 0.039902326 -0.005435393 -0.14735207 0.19593379 0.089742616 -0.09444506 -0.067883365
-0.04474034 -0.08072133 -0.12328122 -0.12604353 -0.0056725894 0.1287534 0.10938519 -0.030462015
0.12794241 0.16743755 -0.1617035 -0.1379426 0.08008411 -0.19148456 -0.09546502 -0.08451299
-0.1068313 0.10894123 -0.1598609 0.16637863 -0.09954184 0.15409385 0.07434403 -0.0207479
-0.08732997 0.017176386 -0.15731621 0.1472856 -0.117227316 -0.15998337 0.033943508 -0.12403764
-0.030603828 0.19743025 -0.13461325 0.02625475 0.0015564028 0.18052706 0.13283756 -0.17565763
0.097125694 0.019169282 0.040260166 -0.004839836 -0.04573721 -0.10741287 0.24711499 -0.09091545
0.044350896 0.09640362 -0.04903802 -0.07282319 -0.07809085 0.02298886 0.017129961 -0.0007949295
-0.06603821 0.0011669107 -0.115471445 -0.005971927 -0.14414443 0.06590238 -0.1121002 -0.17040141
0.1613953 0.12834397 -0.104496054 -0.13521887 0.24582614 -0.09731462 -0.12688228 0.0574504
0.20064823 0.1339575 -0.058123257 0.07839686 -0.040893015 -0.073538125 -0.07056746 -0.14109425

lstm1_2.0.bias f4 [32]
00000000: b979 5c3d 8edc 05be 967d ffbd f841 0c3e
00000010: 8a8b c83d 170a 213e ef86 febc 0350 e43d
00000020: 0b8b 123d 5e54 d4bc e1a3 3ebe b859 d4bc
00000030: 0459 ddbd 1629 70bd 59dc bdbd e570 f6bd
00000040: 1d12 e6ba 14db fb3d 4df1 c2bd 2dfc 31be
00000050: cf00 cb3d 6a6f 233e 4666 183d 81c5 abbd
00000060: 1188 07be 530a f4bd 69c7 173e 5d23 7fbd
00000070: e296 2d3e 5599 11be 86b6 b6bd bcd1 28be
0.05382702 -0.13072416 -0.124751255 0.1369704 0.0979224 0.15726505 -0.0310702 0.111480735
0.035777133 -0.025919136 -0.18617202 -0.025921687 -0.10807994 -0.058632933 -0.092705436 -0.12033252
-0.0017553006 0.12297645 -0.09518681 -0.17381354 0.099122636 0.1596047 0.03720691 -0.0838728
-0.13235499 -0.11916032 0.14822163 -0.062289584 0.16952088 -0.14218648 -0.08921532 -0.16486257
