results/comparison_methods_TL_results/WSL/Dataset 2 transfer from Dataset 6/Experiment3(2C-5)/from_Dataset 6_ft_model.pth (torch, 95756 bytes, 27 tensors)

cnn1.0.weight f4 [16, 1, 3]
0.4609635 0.53132486 0.45195556 0.4804946 0.07644291 0.42266625 -0.26353633 -0.30541652
-0.52171886 -0.5708462 -0.03916984 0.04416478 0.07385439 -0.5124597 -0.123436704 0.3114012
0.609779 0.009070714 0.06453264 0.48437333 -0.3837124 0.12302818 0.3471607 0.20607466
0.5503237 0.04367483 0.46012655 -0.4835665 0.34275934 -0.3877939 0.06872075 0.2506874
0.28665397 -0.22636126 0.50279677 -0.2745718 -0.45061615 -0.4701848 0.19402099 -0.22486407
0.5848841 0.72643125 0.23559368 -0.030057844 0.009087868 0.1062298 0.15567455 0.351848
00000000: 6803 ec3e e804 083f b866 e73e 6303 f63e
00000010: 1a8e 9c3d b667 d83e 3cee 86be 8e5f 9cbe
00000020: 5e8f 05bf fa22 12bf 8e70 20bd 21e6 343d
00000030: f840 973d 8f30 03bf 62cc fcbd fa6f 9f3e
00000040: 7a1a 1c3f 559d 143c b029 843d c8ff f73e
00000050: f475 c4be 33f6 fb3d 0cbf b13e 3c05 533e
00000060: 04e2 0c3f 61e4 323d b595 eb3e 0796 f7be
00000070: 277e af3e ec8c c6be 77bd 8c3d 195a 803e
00000080: 4fc4 923e 3fcb 67be 4ab7 003f ad94 8cbe
00000090: 29b7 e6be 10bc f0be 70ad 463e c442 66be
000000a0: f7ba 153f 66f7 393f 783f 713e de3b f6bc
000000b0: 48e5 143c 028f d93d 2669 1f3e 6c25 b43e

cnn1.0.bias f4 [16]
0.42312336 0.27594185 -0.5070087 -0.12078444 -0.120083176 0.4208356 -0.0062713246 0.43798223
0.3079833 0.5123077 0.14678733 -0.34917435 0.5932954 -0.43281987 -0.23327999 0.39797607
00000000: a0a3 d83e 4048 8d3e 52cb 01bf d55d f7bd
00000010: 2bee f5bd c477 d73e af7f cdbb 353f e03e
00000020: fdaf 9d3e 9926 033f 6b4f 163e fbc6 b2be
00000030: 35e2 173f 919a ddbe f3e0 6ebe 85c3 cb3e

cnn2.0.weight f4 [32, 16, 3]
0.13594674 0.110768 0.065634735 0.037786 0.06946683 0.029512877 0.060201436 0.11543477
-0.020441694 -0.110002734 -0.105862655 -0.120819665 0.076414764 -0.14136492 -0.03409568 -0.0073488057
0.0052335756 -0.14277385 0.18171284 0.019482302 0.13122362 -0.035398584 0.110909924 -0.010568379
-0.0801227 0.07879285 0.12604076 -0.13606793 -0.2096564 0.0102464575 -0.02808575 0.08287002
0.09477876 -0.011165683 -0.014915074 -0.08985682 -0.18592791 -0.15200326 -0.14090712 0.23600017
0.26848614 -0.00969511 0.1407663 0.06848268 0.124545716 0.05790196 0.050272282 0.09525336
-0.055209167 -0.04583284 0.19266911 0.14044607 -0.017320324 0.09684185 -0.00842765 0.055724062
-0.0842701 0.12468124 0.10052102 -0.102215715 0.052627772 0.008337247 0.071059 -0.051501874
0.02893889 0.17539106 0.041818205 0.10388316 0.1588422 0.16533571 0.11542797 0.001998916
0.057875168 0.06364919 0.19397348 0.02160311 -0.14296266 -0.22733773 0.12462418 -0.051610064
-0.024890417 0.04169694 -0.05186985 -0.121194124 -0.18098548 -0.1115847 -0.0036809212 0.3493326
0.26442012 0.35253295 -0.07244438 0.038384467 0.010247971 -0.040502682 0.10603641 0.071675114
-0.1561734 -0.0027994926 -0.05786723 -0.0379205 0.02333086 0.08214262 0.11354457 -0.068195246
0.11774553 0.07875263 -0.03030045 0.13305469 -0.0756243 0.12554106 0.124429695 -0.05587811
0.009970918 0.009368933 -0.030514862 -0.16746475 -0.11746842 0.06748922 0.002329657 -0.12193022
0.019298686 -0.13768347 0.06628215 -0.027892465 0.09747019 0.11967483 -0.08390317 -0.030623626
-0.011675705 -0.13416786 -0.06770154 0.043362726 0.110024944 0.050394353 -0.04229579 0.0043314286
0.10719847 -0.11626676 0.07624551 -0.11318089 -0.07657363 -0.045872293 0.031049544 0.11016255
-0.1363094 0.103883594 0.03153406 0.030028572 0.11254553 -0.09670145 -0.09527735 -0.13566495
-0.10532303 -0.09970463 0.02694648 0.022180742 0.1192779 0.08186807 -0.004747257 -0.10045397
0.010908087 -0.0589006 0.06748242 0.018784806 -0.03689495 0.028484317 0.11208688 0.14234565
-0.09441713 -0.08865064 -0.047712427 -0.028643183 0.107735075 -0.02127087 0.043619633 0.09099443
-0.07834143 0.11245286 0.07356186 -0.060947333 0.08168708 -0.12478828 -0.08415058 0.12045062
-0.13033244 0.063562155 0.05136584 -0.004641507 -0.11105659 -0.017678935 -0.010681737 -0.1086185
-0.1279452 0.06558153 -0.102002494 0.095942765 0.098909974 0.023187866 0.13089451 -0.01892786
0.0303568 0.062700264 0.0981378 -0.07874709 0.034720976 -0.05049461 0.0670872 0.00015155379
-0.006194348 0.13564597 0.062314052 0.107493594 -0.11249785 -0.08211617 -0.03672674 -0.1111168
-0.025002794 -0.12807627 -0.1290525 0.004105683 -0.035552647 -0.1200234 -0.12921557 0.088099495
0.11211508 0.09215881 0.12645479 0.005028908 -0.13821946 -0.022891298 0.0032346444 -0.11487634
-0.01771505 -0.057105597 -0.119785435 0.1431818 0.009268904 -0.023145229 -0.011027517 -0.04377843
0.07927834 -0.06434167 -0.044818737 -0.107450865 -0.10323912 0.06949954 0.08756703 -0.090965286
0.058186293 -0.0796651 0.098180264 -0.032218065 -0.07783324 -0.007934532 -0.06671405 -0.05139778
00000000: 9f35 0b3e 55da e23d 816b 863d 7ec5 1a3d
00000010: a044 8e3d fdc4 f13c c895 763d 1169 ec3d
00000020: 5775 a7bc 1d49 e1bd 85ce d8bd 4d70 f7bd
00000030: 587f 9c3d f7c1 10be e9a7 0bbd 40ce f0bb
00000040: 6a7e ab3b 4f33 12be ee12 3a3e 5999 9f3c
00000050: 7c5f 063e 1bfe 10bd be24 e33d ff26 2dbc
00000060: 5f17 a4bd 255e a13d d410 013e 6455 0bbe
00000070: 2bb0 56be c2e0 273c 1614 e6bc c2b7 a93d
00000080: 5e1b c23d 45f0 36bc 5b5e 74bc da06 b8bd
00000090: e363 3ebe bea6 1bbe f549 10be 07aa 713e
000000a0: 0477 893e 3dd8 1ebc 0a25 103e a640 8c3d
000000b0: d311 ff3d 9b2a 6d3d 4fea 4d3d 3214 c33d
000000c0: 0223 62bd 37bb 3bbd 0d4b 453e 18d1 0f3e
000000d0: 5ae3 8dbc 0555 c63d 2014 0abc ea3e 643d
000000e0: cd95 acbd e158 ff3d f7dd cd3d 7956 d1bd
000000f0: 3890 573d f398 083c 6287 913d a1f3 52bd
00000100: 4011 ed3c b799 333e 9149 2b3d b2c0 d43d
00000110: 88a7 223e c44d 293e 8065 ec3d 3f00 033b
00000120: 830e 6d3d 825a 823d fca0 463e 01f9 b03c
00000130: ce64 12be 39cb 68be f63a ff3d 1365 53bd
00000140: fde6 cbbc 69ca 2a3d 7b75 54bd a034 f8bd
00000150: 4254 39be 8586 e4bd 9c3b 71bb b9db b23e
00000160: 1362 873e 337f b43e b85d 94bd 0839 1d3d
00000170: 1be7 273c 24e6 25bd 9e29 d93d 67ca 923d
00000180: ebeb 1fbe b177 37bb 3006 6dbd 8752 1bbd
00000190: 5c20 bf3c 643a a83d 0e8a e83d f3a9 8bbd
000001a0: 9224 f13d 0f49 a13d a638 f8bc 7d3f 083e
000001b0: eae0 9abd d68d 003e ffd4 fe3d 72e0 64bd
000001c0: 105d 233c 2780 193c 4efa f9bc e17b 2bbe
000001d0: 4893 f0bd ca37 8a3d 29ad 183b 8db6 f9bd
000001e0: 4718 9e3c e5fc 0cbe f0be 873d bd7e e4bc
000001f0: 739e c73d 1418 f53d 6dd5 abbd 66de fabc
00000200: 754b 3fbc 4d63 09be 1ba7 8abd 1d9d 313d
00000210: c254 e13d 4f6a 4e3d 5a3e 2dbd a8ee 8d3b
00000220: df8a db3d 441d eebd 9b26 9c3d 62cb e7bd
00000230: a3d2 9cbd 96e4 3bbd 9d5b fe3c e79c e13d
00000240: b194 0bbe ecc0 d43d dc29 013d 7bfe f53c
00000250: 457e e63d 690b c6bd c520 c3bd c1eb 0abe
00000260: 9ab3 d7bd f131 ccbd ddbe dc3c 63b4 b53c
00000270: f947 f43d 72aa a73d e18e 9bbb d0ba cdbd
00000280: d5b7 323c c141 71bd 3934 8a3d 98e2 993c
00000290: 291f 17bd f157 e93c ce8d e53d 0fc3 113e
000002a0: c55d c1bd 778e b5bd 1b6e 43bd 1ca5 eabc
000002b0: 35a4 dc3d 3f40 aebc 80aa 323d 4a5b ba3d
000002c0: 7971 a0bd af4d e63d 9aa7 963d e9a3 79bd
000002d0: 8e4b a73d ff90 ffbd 2457 acbd d1ae f63d
000002e0: de75 05be e02c 823d fd64 523d c817 98bb
000002f0: a371 e3bd 6ad3 90bc 7402 2fbc 6073 debd
00000300: 1104 03be 9c4f 863d afe6 d0bd a47d c43d
00000310: 5091 ca3d 7bf4 bd3c 3609 063e 990e 9bbc
00000320: d3ae f83c ff68 803d 79fc c83d 2846 a1bd
00000330: 9537 0e3d 70d3 4ebd 0465 893d 69ea 1e39
00000340: f5f9 cabb c7e6 0a3e 053d 7f3d 9a25 dc3d
00000350: 4665 e6bd 862c a8bd c76e 16bd 3491 e3bd
00000360: a9d2 ccbc 6d26 03be 5726 04be f788 863b
00000370: a79f 11bd d4ce f5bd 1651 04be 826d b43d
00000380: 979c e53d c2bd bc3d 5d7d 013e 8ac9 a43b
00000390: 6789 0dbe 8886 bbbc 54fc 533b 4944 ebbd
000003a0: 271f 91bc 8fe7 69bd 1152 f5bd 409e 123e
000003b0: 9adc 173c 109b bdbc c2ac 34bc 0351 33bd
000003c0: af5c a23d 91c5 83bd da93 37bd 330f dcbd
000003d0: 086f d3bd c655 8e3d 5856 b33d 024c babd
000003e0: c054 6e3d 7527 a3bd bc12 c93d 17f7 03bd
000003f0: 0967 9fbd d7ff 01bc 60a1 88bd 7b86 52bd

cnn2.0.bias f4 [32]
0.11215825 0.09407455 0.077050865 0.040709637 -0.021405939 -0.06381946 -0.12335181 -0.121692285
0.1635232 -0.14014491 0.052811682 -0.024215775 -0.09511515 0.043633103 -0.019694611 -0.0673052
-0.12335292 0.018860443 -0.00093229447 0.03922373 0.0796166 -0.031675875 -0.11476197 -0.04412731
0.12632799 -0.13975412 -0.10235065 0.07199749 -0.11271415 -0.046794247 -0.04146161 -0.0056344005
00000000: 39b3 e53d 28aa c03d d8cc 9d3d 26bf 263d
00000010: 825b afbc c7b3 82bd e09f fcbd ce39 f9bd
00000020: a072 273e 2682 0fbe 1051 583d 2960 c6bc
00000030: bbcb c2bd a0b8 323d 9856 a1bc 4fd7 89bd
00000040: 75a0 fcbd 3781 9a3c 3965 74ba 10a9 203d
00000050: 070e a33d 90be 01bd 5308 ebbd d7be 34bd
00000060: 205c 013e b41b 0fbe 389d d1bd 6c73 933d
00000070: add6 e6bd 53ab 3fbd a6d3 29bd c7a0 b8bb

lstm1_1.weight_ih_l0 f4 [64, 32]
-0.02862716 0.20641743 -0.16464423 0.052981168 0.2367264 0.033598386 0.036354855 0.19075671
-0.20918344 -0.17351133 0.13852452 -0.033249795 0.09552539 0.04377845 0.05862518 -0.11523189
-0.17804027 0.1481877 0.13855249 0.19861224 0.11600853 0.14291301 -0.19223636 -0.06890736
0.18157163 0.23870598 -0.1766228 -0.07342291 -0.034050554 -0.23904921 0.06212303 -0.18367276
-0.1411687 -0.049033094 -0.16723609 0.12824512 0.09461513 -0.14073625 0.10834454 0.11293647
0.24773704 -0.05718866 -0.0913385 -0.06598398 0.21695894 -0.20579934 -0.08305366 -0.23971482
-0.11901727 0.060026478 -0.061064832 0.20673963 0.008282008 -0.023317873 -0.063853145 0.019133223
-0.08292681 0.045165133 -0.088510394 -0.11978385 -0.16865599 -0.007038152 0.16123255 0.2144961
0.13947998 0.2065225 -0.182237 0.014008194 -0.19023821 0.13042022 -0.043329988 -0.08283228
0.11131191 0.041419476 -0.14986603 0.21703953 -0.09007329 -0.20569167 0.13592869 -0.25896168
0.18442509 0.011642718 0.14509933 -0.14941472 0.15647507 0.11590886 -0.24244148 0.22615008
0.1556167 -0.1617436 0.056844268 -0.10463941 -0.13293779 -0.16149502 -0.18552522 -0.1256735
0.10665201 -0.026416972 -0.14959608 0.20187035 -0.0888091 -0.19114174 -0.01252245 -0.042586267
0.0033023788 -0.16312218 0.16792391 -0.17688718 0.02623026 -0.010206997 0.052814048 0.17884257
0.12326819 -0.19460434 -0.16545387 0.23797181 -0.17652614 0.00091189146 -0.04887551 0.033953723
0.18532345 -0.06689087 -0.1342004 -0.16418815 -0.21723792 0.175611 0.16395333 0.036531866
0.02742092 -0.030461038 -0.23777062 0.034294248 -0.16949767 0.07805613 0.059822112 -0.053209245
0.26683578 -0.22567871 0.21535553 0.12285736 0.1682619 -0.009246588 0.25248167 0.20566636
-0.10162014 -0.20154859 0.26455793 0.20005181 0.072949916 0.02060777 -0.18211368 0.12097256
-0.24663493 -0.21490699 0.26680958 -0.13339913 -0.08479801 -0.0014288563 -0.061956372 0.20845729
0.2308433 -0.21851413 -0.10601635 -0.1335957 -0.18009567 -0.015356539 0.07549698 -0.16237646
-0.11772042 -0.20749915 -0.17653547 -0.09970805 -0.19318226 0.035280436 -0.15039375 0.05761489
0.15219146 0.15194952 -0.007936358 0.21093696 -0.02017817 -0.10410285 0.21611601 0.12690824
-0.16880995 -0.06491053 0.20880666 0.2342824 0.19356233 0.16831793 0.07272864 0.23150903
-0.10348638 -0.06907047 0.1596387 0.1932095 0.051873207 0.19050649 -0.08304351 -0.17631945
0.22556055 0.004333645 -0.0992494 -0.030657858 -0.040487286 0.0827356 0.041274883 -0.010901594
0.026000977 0.1792977 -0.13559952 0.12986284 -0.10704217 -0.19650236 -0.062017173 0.055519547
0.07890341 -0.23352827 0.23106416 -0.041843385 -0.06926951 -0.18637276 -0.1835322 -0.14546952
-0.12470055 -0.1367324 -0.1651306 0.09248534 0.1671277 -0.08245891 0.14779793 -0.13257208
-0.07553596 -0.12107098 0.1967301 0.033175588 -0.027282398 0.19591552 0.010276701 -0.08851162
0.14028952 -0.19955783 -0.1415861 0.24632344 0.103004776 -0.18170044 0.13611591 -0.021476785
-0.017185748 0.21518812 -0.09111906 -0.18416601 -0.22060117 0.18021892 -0.20899664 0.23415288
00000000: 8183 eabc 175f 533e 7f98 28be c802 593d
00000010: 6868 723e 769e 093d d4e8 143d ba55 433e
00000020: 2f34 56be f4ac 31be 5fd9 0d3e f030 08bd
00000030: d1a2 c33d 0851 333d f520 703d b2fe ebbd
00000040: 3050 36be 84be 173e b4e0 0d3e 0261 4b3e
00000050: e195 ed3d ca57 123e 9cd9 44be 4d1f 8dbd
00000060: eaed 393e 576f 743e 9bdc 34be c05e 96bd
00000070: 9878 0bbd 51c9 74be b874 7e3d b614 3cbe
00000080: 878e 10be edd6 48bd f03f 2bbe b052 033e
00000090: 94c5 c13d 2a1d 10be bee3 dd3d 3c4b e73d
000000a0: c7ae 7d3e a83e 6abd ae0f bbbd 9c22 87bd
000000b0: 7c2a 5e3e 10bd 52be 0a18 aabd cd77 75be
000000c0: 54bf f3bd 53de 753d 1e1f 7abd 8eb3 533e
000000d0: 42b1 073c 2005 bfbc 70c5 82bd 47bd 9c3c
000000e0: 88d5 a9bd 13ff 383d f044 b5bd 3c51 f5bd
000000f0: 28b4 2cbe 4ca0 e6bb 251a 253e dea4 5b3e
00000100: d7d3 0e3e a27a 533e 569c 3abe a082 653c
00000110: cecd 42be e18c 053e c97a 31bd f8a3 a9bd
00000120: 80f7 e33d 78a7 293d 7b76 19be 9c3f 5e3e
00000130: 5878 b8bd d6a0 52be e430 0b3e a096 84be
00000140: eed9 3c3e 19c1 3e3c eb94 143e 2c00 19be
00000150: 003b 203e a061 ed3d 9442 78be e393 673e
00000160: fc59 1f3e 1da0 25be 89d5 683d 304d d6bd
00000170: d820 08be f35e 25be 53fa 3dbe 8eb0 00be
00000180: 5e6c da3d 6868 d8bc b72f 19be 1ab7 4e3e
00000190: 8ce1 b5bd a9ba 43be f62a 4dbc f06e 2ebd
000001a0: b96c 583b 8009 27be 3ff4 2b3e ea21 35be
000001b0: d8e0 d63c 403b 27bc 8b53 583d 8222 373e
000001c0: 0874 fc3d 5c46 47be bd6c 29be e2ae 733e
000001d0: 45c3 34be 000c 6f3a b031 48bd 0f13 0b3d
000001e0: 6ec5 3d3e 15fe 88bd d46b 09be f020 28be
000001f0: 9e73 5ebe 5fd3 333e 62e3 273e 70a2 153d
00000200: d6a1 e03c 6d89 f9bc 247a 73be 2078 0c3d
00000210: cc90 2dbe e4db 9f3d 0808 753d f0f1 59bd
00000220: b39e 883e 5218 67be 2986 5c3e a49c fb3d
00000230: d94c 2c3e 007f 17bc 4745 813e 349a 523e
00000240: 381e d0bd c162 4ebe 2374 873e 62da 4c3e
00000250: c466 953d a0d1 a83c 027c 3abe 76c0 f73d
00000260: de8d 7cbe 9410 5cbe 449b 883e c899 08be
00000270: 94aa adbd 7648 bbba f7c5 7dbd d475 553e
00000280: 3062 6c3e 2bc2 5fbe 1a1f d9bd 50cd 08be
00000290: 006b 38be fe99 7bbc 299e 9a3d 0446 26be
000002a0: 6717 f1bd a87a 54be b7c5 34be bc33 ccbd
000002b0: 92d1 45be 3882 103d d200 1abe 97fd 6b3d
000002c0: 14d8 1b3e a898 1b3e 8007 02bc dcff 573e
000002d0: b14c a5bc e033 d5bd 844d 5d3e 3cf4 013e
000002e0: 84dc 2cbe d0ef 84bd 6ad1 553e bae7 6f3e
000002f0: 3435 463e 895b 2c3e c1f2 943d b410 6d3e
00000300: abf0 d3bd d274 8dbd 5478 233e b6d8 453e
00000310: 0079 543d 2214 433e b712 aabd 168d 34be
00000320: 58f9 663e 4001 8e3b 4543 cbbd 3026 fbbc
00000330: ffd5 25bd 4871 a93d da0f 293d 999c 32bc
00000340: 0000 d53c d199 373e 9ada 0abe c4fa 043e
00000350: ed38 dbbd ea37 49be b805 7ebd 7768 633d
00000360: 1c98 a13d 0922 6fbe 159c 6c3e f863 2bbd
00000370: 2cdd 8dbd 80d8 3ebe ddef 3bbe f6f5 14be
00000380: 0163 ffbd 9403 0cbe ff17 29be f468 bd3d
00000390: 8623 2b3e 38e0 a8bd 5758 173e fac0 07be
000003a0: 99b2 9abd 10f4 f7bd 9e73 493e 20e3 073d
000003b0: 567f dfbc 149e 483e 9c5f 283c 9545 b5bd
000003c0: 0ea8 0f3e e358 4cbe f2fb 10be 363c 7c3e
000003d0: 2bf4 d23d ae0f 3abe f861 0b3e 15f0 afbc
000003e0: 20c9 8cbc 465a 5c3e a19c babd 0496 3cbe
000003f0: 46e5 61be 4f8b 383e 3703 56be c6c5 6f3e

lstm1_1.weight_hh_l0 f4 [64, 16]
-0.06645049 0.101108186 0.17916407 0.23555054 -0.058848675 0.22441863 0.19826435 0.23555772
0.18363053 -0.026029086 0.123253904 0.14195985 0.041277163 0.22661966 -0.19877322 -0.18586132
0.38501918 -0.26477855 0.08574124 -0.0036353956 0.07109461 0.058445666 0.2210965 -0.09181524
-0.22611699 -0.028160548 0.18517528 -0.11348997 -0.06574271 -0.1381313 -0.114742726 0.13142526
-0.10266565 -0.057308607 0.31172565 -0.12389593 -0.024411073 0.0010536195 0.03895576 -0.08061587
0.00017306874 0.24367893 -0.009272207 0.22246265 -0.25714597 -0.028882276 -0.08050668 0.25024372
0.02048194 0.078016385 -0.089255095 0.14940299 -0.240498 -0.21233927 0.11042787 0.13826297
0.22923273 -0.194698 0.09758515 -0.0037674587 -0.030246902 -0.026247334 -0.097003184 -0.07310453
0.3279379 0.23786917 0.018074453 0.0033002514 -0.2125 0.4448748 0.4397246 0.19047743
0.0074794 0.15625376 0.37266833 0.11713856 0.080777705 0.03437501 -0.1535114 0.49358094
0.25090137 -0.08308239 -0.111906424 0.12640867 0.14498378 -0.15539458 0.18886921 -0.03223784
0.16574278 0.1847623 -0.16860901 0.19642623 -0.08173823 0.13042955 -0.095704995 0.07293864
0.21843144 0.018229986 0.036428425 -0.015984021 -0.14238909 0.06048167 -0.19798815 0.21002156
0.1427465 0.11149307 -0.18425861 -0.0059779445 0.18341744 -0.1640381 0.21813431 -0.16178067
-0.0011900415 -0.05089994 0.1932116 -0.16434938 -0.1203235 0.090169825 0.08269837 -0.19145778
-0.049951214 0.21819529 -0.08078279 -0.08796716 0.16994636 0.16380908 -0.09645419 0.1449763
0.24687085 0.14294986 0.27351895 -0.13889368 0.16542406 0.11754471 0.20452237 0.00088143826
-0.26053724 0.26505366 -0.0054883575 -0.08189022 0.06595715 0.2567534 0.18694736 0.22212917
-0.22928159 0.25384125 0.05709729 0.08572231 -0.21534376 -0.20295753 0.12969697 0.08014621
-0.09269138 0.101961486 0.10681121 -0.012236909 -0.0014515088 -0.13389581 0.114468105 0.15377621
-0.13754988 -0.27256352 -0.0136255715 -0.0005638758 0.15879701 0.007914302 0.000339451 -0.18020843
-0.22398742 0.0841336 -0.14305396 0.10682104 -0.18430817 -0.21077225 0.11982658 -0.089696944
-0.17534637 -0.084675014 0.19382912 0.0002564771 0.1025889 0.12114113 -0.24696809 -0.15397102
-0.124542065 -0.23701324 -0.1953775 -0.06152691 -0.14423499 0.18574016 0.09050667 0.08970433
0.038527045 0.11008323 0.1614394 0.12204899 -0.17196165 -0.0407277 -0.06539829 -0.15760809
0.22646002 0.30128327 0.03502407 0.034927685 -0.075009845 0.23904046 0.051935297 0.24626452
0.08143213 0.061125334 0.0687529 0.058444716 0.16704005 0.15822682 0.15094545 -0.23013456
-0.017661909 -0.14128922 0.23104873 0.18340696 0.04068174 0.12388003 0.08296167 0.16935493
0.16044521 -0.12221513 0.038822073 -0.25939703 -0.28820863 0.26310176 0.18443635 0.31263503
-0.046839576 0.2685985 0.065740585 0.28319082 0.05126506 0.2809465 0.12053762 0.23593983
-0.14571597 0.042558484 0.06554016 -0.13922976 0.15598251 -0.061132148 0.21030502 -0.0086767925
-0.20840867 0.18423069 0.040854275 0.073723964 0.06992761 0.06681011 0.08450943 0.15482005
00000000: 3217 88bd cf11 cf3d c976 373e 2934 713e
00000010: 4f0b 71bd ffcd 653e cf05 4b3e 0b36 713e
00000020: a409 3c3e f33a d5bc 8b6c fc3d ec5d 113e
00000030: 3e12 293d fc0e 683e 358b 4bbe 6e52 3ebe
00000040: 3c21 c53e 0e91 87be 1a99 af3d d13f 6ebb
00000050: 0d9a 913d b964 6f3d 1f67 623e a109 bcbd
00000060: 368b 67be f3b0 e6bc 979e 3d3e 6e6d e8bd
00000070: 1da4 86bd 4b72 0dbe 3cfe eabd 5894 063e
00000080: 5e42 d2bd 6ebc 6abd 819a 9f3e 26bd fdbd
00000090: bbf9 c7bc 9b19 8a3a 1390 1f3d ef19 a5bd
000000a0: c979 3539 f886 793e 74ea 17bc 40cd 633e
000000b0: a3a8 83be 869a ecbc b0e0 a4bd f21f 803e
000000c0: bec9 a73c 0ec7 9f3d 60cb b6bd 19fd 183e
000000d0: 1c45 76be 776f 59be 0228 e23d cf94 0d3e
000000e0: fcbb 6a3e ea5e 47be b9da c73d 78e7 76bb
000000f0: 5ac8 f7bc a604 d7bc 9ba9 c6bd d4b7 95bd
00000100: 7ae7 a73e fa93 733e e010 943c 0849 583b
00000110: 9a99 59be a1c6 e33e 9523 e13e 840c 433e
00000120: c115 f53b fc00 203e 62ce be3e 57e6 ef3d
00000130: c86e a53d cfcc 0c3d 1832 1dbe a4b6 fc3e
00000140: 2576 803e 1a27 aabd 322f e5bd 4671 013e
00000150: a176 143e c21f 1fbe ee66 413e d30b 04bd
00000160: 7ab8 293e 5432 3d3e d7a7 2cbe f523 493e
00000170: 6066 a7bd 538f 053e fb00 c4bd db60 953d
00000180: 7eac 5f3e 0d57 953c f935 153d ecf0 82bc
00000190: 72ce 11be a1bb 773d 68bd 4abe e40f 573e
000001a0: 232c 123e 7b56 e43d 4aae 3cbe a2e2 c3bb
000001b0: c8d1 3b3e 9bf9 27be 9a5e 5f3e d5a9 25be
000001c0: 2bfb 9bba 757c 50bd 43d9 453e 344b 28be
000001d0: 2b6c f6bd f5aa b83d c35d a93d 820d 44be
000001e0: a599 4cbd 966e 5f3e 7371 a5bd 2028 b4bd
000001f0: 6b06 2e3e 91bd 273e c689 c5bd ab74 143e
00000200: b6cb 7c3e 7361 123e ad0a 8c3e 253a 0ebe
00000210: ed64 293e 48bb f03d 506e 513e 5210 673a
00000220: 2365 85be 1db5 873e aed7 b3bb 0fb6 a7bd
00000230: 8b14 873d 2f75 833e 216f 3f3e d475 633e
00000240: cbc8 6abe 7bf7 813e d9de 693d 2e8f af3d
00000250: 1383 5cbe 19d4 4fbe 48cf 043e b223 a43d
00000260: fad4 bdbd 2fd1 d03d d6bf da3d 517d 48bc
00000270: 8e40 beba fc1b 09be 416e ea3d 8377 1d3e
00000280: e0d9 0cbe 728d 8bbe ca3d 5fbc 10d1 13ba
00000290: af9b 223e fdaa 013c 58f8 b139 8f88 38be
000002a0: f55c 65be 3d4e ac3d bd7c 12be fdc4 da3d
000002b0: 48bb 3cbe aed4 57be a367 f53d 08b3 b7bd
000002c0: 008e 33be 186a adbd 247b 463e c677 8639
000002d0: 211a d23d d718 f83d 34e5 7cbe 94aa 1dbe
000002e0: e90f ffbd 99b3 72be 0a11 48be a403 7cbd
000002f0: 56b2 13be ab32 3e3e 905b b93d e7b6 b73d
00000300: 89ce 1d3d 5173 e13d 5f50 253e d2f4 f93d
00000310: b716 30be 17d2 26bd 8aef 85bd 0464 21be
00000320: 23e5 673e cd41 9a3e 6675 0f3d 5510 0f3d
00000330: c39e 99bd 06c7 743e 1bba 543d c42c 7c3e
00000340: e3c5 a63d 8f5e 7a3d 52ce 8c3d ba63 6f3d
00000350: 8c0c 2b3e 3606 223e 7291 1a3e 65a8 6bbe
00000360: b5af 90bc 1fae 10be 0a98 6c3e 09cf 3b3e
00000370: e5a1 263d d0b4 fd3d cfe7 a93d 616b 2d3e
00000380: c04b 243e ed4b fabd e503 1f3d b0cf 84be
00000390: 1590 93be 46b5 863e e2dc 3c3e b311 a03e
000003a0: dbda 3fbd be85 893e 00a3 863d 63fe 903e
000003b0: 50fb 513d 38d8 8f3e 6ddc f63d 369a 713e
000003c0: 9136 15be ce51 2e3d eb39 863d 3f92 0ebe
000003d0: e1b9 1f3e b465 7abd 335a 573e 1b29 0ebc
000003e0: 1569 55be f8a6 3c3e d056 273d 97fc 963d
000003f0: 3536 8f3d bdd3 883d 4813 ad3d 2689 1e3e

lstm1_1.bias_ih_l0 f4 [64]
-0.11959348 0.23775001 0.09217694 0.0054768077 0.17232573 0.23445843 -0.06633969 0.2448779
0.2184721 -0.051983424 -0.019255934 0.16177176 0.23077993 0.24205884 -0.050771687 0.15933456
0.0398109 -0.03598522 -0.2676513 0.121495694 0.0849498 0.02178869 0.089088626 0.07624442
0.16165324 0.20696987 0.017376298 -0.11445327 -0.030097444 -0.06962167 -0.19154102 -0.077216
-0.17597386 -0.019992778 -0.1796766 -0.20105723 -0.0088540455 0.23297137 0.0030030373 0.16723774
0.04857246 0.23449104 0.20025766 -0.18406259 0.09434675 0.19560178 0.1688133 -0.006011802
0.21986406 -0.10827577 0.13667095 -0.23120251 -0.13130642 -0.16697058 0.03393495 -0.08454096
-0.060936995 0.05088357 0.047911353 -0.0012348335 0.1828152 0.123055175 -0.022411939 0.20461313
00000000: 6ded f4bd bd74 733e 43c7 bc3d cb76 b33b
00000010: 2876 303e df15 703e 1add 87bd 46c1 7a3e
00000020: 26b7 5f3e 92ec 54bd 9fbe 9dbc 7fa7 253e
00000030: 9351 6c3e 46de 773e f9f5 4fbd 9928 233e
00000040: c110 233d 3d65 13bd 9709 89be bcd2 f83d
00000050: 29fa ad3d 327e b23c 1974 b63d 0926 9c3d
00000060: 6d88 253e e9ef 533e bd58 8e3c 7a66 eabd
00000070: ea8e f6bc ce95 8ebd 5423 44be 6c23 9ebd
00000080: 7e32 34be e5c7 a3bc 25fd 37be f2e1 4dbe
00000090: 8f10 11bc 0c90 6e3e 9bce 443b 5f40 2b3e
000000a0: eaf3 463d 6b1e 703e 5810 4d3e e77a 3cbe
000000b0: de38 c13d d54b 483e 65dd 2c3e a6fe c4bb
000000c0: 0b24 613e b0bf ddbd 78f3 0b3e 5ac0 6cbe
000000d0: 3175 06be 56fa 2abe 60ff 0a3d d023 adbd
000000e0: 1299 79bd 4a6b 503d b23e 443d 23da a1ba
000000f0: e833 3b3e 5a04 fc3d 3e99 b7bc 1b86 513e

lstm1_1.bias_hh_l0 f4 [64]
-0.20372081 0.25306183 -0.03305376 0.22040403 0.028070595 -0.20105071 0.14407521 -0.13379388
0.021733046 -0.19841291 0.22109538 -0.027774144 -0.1409529 0.122204855 0.082253926 0.21072699
-0.05068707 -0.2064249 0.10602846 -0.051489267 0.11474868 0.12675042 0.23658745 -0.11953952
0.02271479 0.07281971 -0.15019092 -0.15311083 -0.04596395 0.22925799 0.012488377 -0.0012887758
0.11149338 0.18026507 -0.22358064 -0.11669182 -0.173062 -0.035962403 -0.031297177 -0.17890988
0.05430682 0.1372808 0.06507836 0.034413673 0.04898694 0.16694482 0.14522247 -0.18169725
0.036598332 0.16947874 0.10465356 0.15555257 -0.08447071 -0.1277743 -0.042434763 -0.083007365
-0.050558623 0.039830334 0.045548297 0.08993346 -0.19903588 -0.24209061 0.24929447 -0.08303279
00000000: 309c 50be 5291 813e 6163 07bd 98b1 613e
00000010: 4ef4 e53c 3de0 4dbe 7488 133e 4301 09be
00000020: 8009 b23c c12c 4bbe d466 623e 9a86 e3bc
00000030: f555 10be 8a46 fa3d bf74 a83d d1c8 573e
00000040: 3f9d 4fbd 0d61 53be 7325 d93d 69e6 52bd
00000050: 5b01 eb3d ddca 013e fb43 723e 23d1 f4bd
00000060: 5e14 ba3c 8022 953d a6cb 19be 16c9 1cbe
00000070: b244 3cbd 9bc2 6a3e 0d9c 4c3c 24ec a8ba
00000080: a456 e43d 6897 383e 53f2 64be 1ffc eebd
00000090: 2a37 31be 504d 13bd 7831 00bd 2734 37be
000000a0: d470 5e3d 5793 0c3e ce47 853d 5af5 0c3d
000000b0: 88a6 483d 95f3 2a3e 33b5 143e d80e 3abe
000000c0: 22e8 153d d68b 2d3e 9b54 d63d 2c49 1f3e
000000d0: fbfe acbd 44d7 02be 13d0 2dbd c4ff a9bd
000000e0: 8f16 4fbd 2225 233d da90 3a3d 092f b83d
000000f0: 10d0 4bbe 9ae6 77be 0d47 7f3e 180d aabd

lstm1_1.weight_ih_l0_reverse f4 [64, 32]
0.20557919 -0.26534757 -0.058212925 -0.034509927 0.1424607 0.114037044 0.17731597 -0.20432293
0.032249186 -0.06572908 0.023203198 0.2256932 0.08373867 -0.005636692 0.22118387 -0.0014361208
-0.24933818 -0.16270879 0.02157913 0.106815696 0.068961345 -0.13804978 -0.066007674 -0.11833353
-0.19862199 -0.18507554 -0.21085225 -0.014031291 0.23297542 -0.050322097 -0.23864219 -0.12831303
-0.22801402 -0.21341118 -0.18250875 -0.23377025 -0.025295168 -0.13681515 0.101987384 -0.13731125
0.22313279 -0.1336245 -0.11401555 -0.12971717 0.026318062 0.06321493 0.026724817 -0.18555921
0.085529625 -0.006401954 -0.22222331 0.1901178 0.12635227 0.18545514 -0.13712358 -0.20319091
0.027168721 -0.33303285 -0.044309855 -0.0062856674 0.0065797567 -0.087502085 0.043495964 -0.18742698
0.12910889 0.033913434 -0.21428019 -0.17963916 -0.1546112 0.20109145 -0.12396402 0.10075554
0.14408128 -0.15772158 -0.29345462 -0.20954043 -0.012469679 0.034204125 0.11419061 -0.1379275
-0.19780779 0.0994867 0.043611746 -0.09146944 -0.05592472 -0.047607213 -0.2260867 0.0970148
0.020046711 -0.0013037074 -0.004764367 -0.21198061 0.19897631 -0.09506255 -0.0067829676 0.0650478
0.13793562 0.21908869 0.011324728 -0.20583168 -0.05944121 -0.111534104 0.040048268 -0.21720967
0.17062107 0.19289082 0.2312711 0.17704797 0.09624673 -0.24956304 -0.17070258 -0.1606881
-0.14161077 0.19633015 -0.00061320694 -0.05715868 0.23747425 0.0427801 0.0038808584 0.19516523
-0.050733775 -0.22117612 -0.12129765 -0.059100688 0.14894253 0.20726968 0.103294 0.19239369
0.16510962 -0.17320932 0.06682947 -0.19453567 -0.0785501 0.17520483 -0.20383477 -0.24179736
0.36660385 0.13391963 0.23115735 -0.016900927 -0.0651825 -0.22918195 0.10027631 -0.20229642
0.09074426 -0.025169278 -0.12127029 0.105568975 0.048237436 0.17274806 -0.13586849 -0.2070985
-0.16987368 -0.01759894 0.23952964 -0.08332166 0.12643021 -0.19644882 0.12813978 0.117949605
-0.01582004 0.25654483 0.1819674 0.2498759 0.010053307 -0.22027758 0.17620476 -0.21412104
-0.11492272 -0.047008067 0.057620294 -0.14944687 0.15562183 -0.041967005 0.20072189 0.18663847
-0.064852595 0.25553265 0.075814694 0.14839116 0.19796522 0.15972996 0.032791376 -0.2506109
-0.20904252 0.30289614 0.048895817 0.03509465 0.18405518 -0.037876595 -0.07099692 0.23819077
0.08579655 0.058647588 -0.025834333 -0.0009839833 -0.018426567 -0.13653105 0.00088756543 0.23101878
0.18166783 0.012910455 -0.2436421 0.10193479 0.019245867 -0.08534536 0.06447816 -0.054248452
0.0043830276 -0.2043334 -0.19128445 -0.055372924 0.12514292 -0.044086903 0.1443722 -0.17865144
0.02916196 -0.0045168786 -0.05471154 0.24454829 -0.04823962 -0.09021523 0.08405954 -0.12533301
-0.1722757 0.17254634 -0.20850156 0.06400135 0.22453478 -0.23495202 -0.09069648 -0.017864287
0.117543526 -0.21832874 -0.0690412 -0.068877935 -0.11254284 -0.0056778193 -0.09367188 0.2656408
0.027739972 0.0053618834 0.1811951 0.07306787 0.09644845 0.23393905 -0.19931716 0.016991457
-0.07802853 0.06597064 0.29608452 -0.13228884 0.1571106 -0.106319584 -0.19251443 -0.11763281
00000000: 5a83 523e a3db 87be ad70 6ebd 485a 0dbd
00000010: 38e1 113e 418c e93d 5192 353e 083a 51be
00000020: b917 043d f89c 86bd a214 be3c 1e1c 673e
00000030: 2e7f ab3d 00b4 b8bb 067e 623e 383c bcba
00000040: 8252 7fbe 229d 26be b7c6 b03c 30c2 da3d
00000050: 9b3b 8d3d ec5c 0dbe 082f 87bd da58 f2bd
00000060: 9063 4bbe 7184 3dbe a7e9 57be 80e3 65bc
00000070: 1c91 6e3e 8b1e 4ebd 9e5e 74be 7e64 03be
00000080: 827c 69be 7688 5abe 93e3 3abe 7861 6fbe
00000090: d037 cfbc 4519 0cbe c3de d03d 529b 0cbe
000000a0: ec7c 643e dcd4 08be fc80 e9bd 94d4 04be
000000b0: fa98 d73c d476 813d 01ee da3c 3c03 3ebe
000000c0: 282a af3d 7cc7 d1bb 828e 63be 3eae 423e
000000d0: 7d62 013e f4e7 3d3e 206a 0cbe 4711 50be
000000e0: f090 de3c 4883 aabe 407e 35bd 00f8 cdbb
000000f0: 009b d73b 4b34 b3bd d328 323d dcec 3fbe
00000100: 1f35 043e d0e8 0a3d 446c 5bbe 54f3 37be
00000110: 6652 1ebe ebea 4d3e d9e0 fdbd ec58 ce3d
00000120: 0b8a 133e c481 21be af3f 96be c491 56be
00000130: a04d 4cbc a019 0c3d c4dc e93d de3c 0dbe
00000140: 208e 4abe afbf cb3d 3ba2 323d 5454 bbbd
00000150: 5211 65bd c8ff 42bd 4683 67be b2af c63d
00000160: 0039 a43c 29e1 aaba 681e 9cbb 7211 59be
00000170: 72c0 4b3e 27b0 c2bd a843 debb c837 853d
00000180: ff3e 0d3e c958 603e 5a8b 393c 8ac5 52be
00000190: a078 73bd fe6b e4bd a709 243d 366c 5ebe
000001a0: 4ab7 2e3e 2c85 453e 55d2 6c3e 104c 353e
000001b0: 011d c53d 748d 7fbe a8cc 2ebe 6c8b 24be
000001c0: 6a02 11be c50a 493e 9fbf 20ba 381f 6abd
000001d0: 732c 733e 303a 2f3d 0056 7e3b 65d9 473e
000001e0: 38ce 4fbd fe7b 62be e76a f8bd 9013 72bd
000001f0: 6484 183e 813e 543e ce8b d33d da02 453e
00000200: 7f12 293e c95d 31be e4dd 883d 5c34 47be
00000210: e0de a0bd e568 333e 10ba 50be ba99 77be
00000220: 80b3 bb3e 3a22 093e 83b4 6c3e d073 8abc
00000230: 677e 85bd acae 6abe ab5d cd3d cb26 4fbe
00000240: 20d8 b93d cd2f cebc 8f5c f8bd 8c34 d83d
00000250: 9e94 453d dee4 303e 1c21 0bbe a111 54be
00000260: 5ef3 2dbe a72b 90bc 4247 753e 8ca4 aabd
00000270: ec76 013e e129 49be 1337 033e 908f f13d
00000280: 0799 81bc d859 833e a955 3a3e 78df 7f3e
00000290: a0b6 243c 7290 61be 056f 343e 8c42 5bbe
000002a0: 9a5c ebbd 888b 40bd 4203 6c3d 9a08 19be
000002b0: 545b 1f3e 98e5 2bbd 0a8a 4d3e 281e 3f3e
000002c0: 70d1 84bd 2dd5 823e bc44 9b3d daf3 173e
000002d0: 65b7 4a3e 4090 233e 4050 063d 1250 80be
000002e0: 3e0f 56be 3415 9b3e fb46 483d 68bf 0f3d
000002f0: f678 3c3e 7d24 1bbd d566 91bd 48e8 733e
00000300: 1ab6 af3d 7438 703d 86a2 d3bc 00f9 80ba
00000310: 50f3 96bc ccce 0bbe 82ab 683a 3090 6c3e
00000320: 2207 3a3e 6086 533c 517d 79be 30c3 d03d
00000330: 82a9 9d3c 8cc9 aebd 200d 843d a033 5ebd
00000340: 809f 8f3b c63c 51be 12e0 43be b8ce 62bd
00000350: 7725 003e 7894 34bd 4ed6 133e 67f0 36be
00000360: 10e5 ee3c 5302 94bb 3519 60bd de6a 7a3e
00000370: e896 45bd c3c2 b8bd 6827 ac3d 4c57 00be
00000380: 0b69 30be fdaf 303e 6f81 55be 2413 833d
00000390: 72ec 653e 4397 70be 13bf b9bd 2058 92bc
000003a0: a9ba f03d 9291 5fbe 7965 8dbd e00f 8dbd
000003b0: dc7c e6bd 000d babb 0bd7 bfbd 1202 883e
000003c0: f03e e33c bdb2 af3b 358b 393e 9ca4 953d
000003d0: c486 c53d b88d 6f3e cc19 4cbe ab31 8b3c
000003e0: 6ccd 9fbd 9d1b 873d 6498 973e ba76 07be
000003f0: 9ae1 203e 15be d9bd 8122 45be 78e9 f0bd

lstm1_1.weight_hh_l0_reverse f4 [64, 16]
0.16684566 -0.23943785 0.16171578 -0.14132318 -0.06502175 0.18074937 0.09306531 -0.2383004
0.098555624 -0.03789737 0.035547823 0.22673567 -0.22774826 -0.065886386 0.26570597 0.24612364
-0.15049163 -0.066404976 0.1721667 -0.08706348 0.0035848722 0.17757785 -0.15428136 0.09420007
0.015913878 0.34397414 -0.07974462 -0.171036 -0.037475254 0.09054432 0.23086463 -0.081288144
-0.03808312 -0.21236448 -0.21282412 -0.13967891 -0.15382981 -0.123157635 0.1829502 -0.19152074
0.008168921 0.34059596 -0.19976419 -0.20381404 -0.03808038 0.030367097 -0.07967305 -0.10538652
-0.19467163 -0.096255444 0.0053455285 -0.10212878 0.20399158 -0.10757639 -0.25023735 -0.11856773
-0.166659 -0.0329146 0.14473107 0.07804679 0.098925516 0.058924902 -0.18366314 0.013525317
-0.05243884 -0.05939176 -0.20776704 -0.2075369 -0.004531061 0.02278632 -0.21428505 -0.06437211
0.00042031877 0.20566824 0.05892628 0.20688015 0.21794726 -0.23275745 -0.048019703 -0.060015775
-0.19357657 -0.030313278 0.034166142 -0.07054336 -0.25449616 -0.09030968 -0.113797314 0.24581483
0.044185694 -0.2890225 -0.07386234 0.22474505 0.15492067 0.024063911 -0.21265292 -0.33442667
0.18053192 0.09286959 0.15422332 0.20528758 0.08757733 -0.11171481 -0.15023692 0.19820459
0.15116234 -0.15542294 0.22292835 0.017865647 0.02938095 0.08715459 0.23217438 0.27225107
0.1892311 -0.18028642 -0.10527197 0.0860541 0.00023091515 0.19403784 -0.06538134 0.13226952
0.05407447 -0.19351964 0.17348345 -0.12825106 -0.04993084 -0.018335374 0.044173602 0.10938647
-0.12038666 0.23684373 -0.04494841 0.010450117 0.2245917 -0.04073924 -0.054646064 0.04980023
-0.13300839 0.047736935 0.17902194 0.09891521 -0.034403577 -0.15583012 0.019785687 -0.06290384
0.16852191 0.076306 -0.13419685 -0.21560134 -0.17482388 -0.15568449 -0.068996854 0.14765161
0.19857629 -0.19844654 0.015991159 -0.0035120987 -0.13621415 0.17917676 0.083733074 0.27857077
0.19469692 0.003944823 0.09540959 0.1485862 -0.25373837 -0.024092332 -0.050944675 -0.060294013
-0.21343249 0.2760091 -0.258268 -0.26041988 0.088904805 -0.15645513 0.02850251 0.10749725
0.1057058 0.23350897 0.107804075 -0.12997283 0.08635403 0.08433851 -0.23375 0.25768182
-0.026316771 0.17394459 -0.13081492 -0.1573381 0.05801645 -0.17138565 -0.19614494 -0.16845392
0.25705704 0.030325826 0.07993118 -0.16459313 -0.05051307 -0.25420168 -0.107628904 0.39675102
0.2869483 0.10967635 -0.01881965 0.1559748 -0.050188396 -0.34054577 -0.19404843 0.0055833156
0.041455146 0.18617491 -0.111637406 -0.07849086 -0.18104757 -0.25401494 0.08036942 0.075042665
0.011863515 -0.38668963 0.22281365 -0.02198466 -0.1896552 -0.3173513 -0.0833325 -0.2299599
0.040106356 -0.19075751 -0.21086755 0.01595411 0.16955645 -0.17686298 0.12626876 -0.055226002
0.13117753 -0.36766002 -0.074054755 0.21690387 -0.05824349 -0.28379664 0.10728855 -0.18847522
-0.009431757 -0.205883 -0.13528404 -0.09474191 0.19560932 0.037760187 0.17918758 -0.20520501
0.030947661 -0.24611713 0.22260392 0.14448577 0.0069264006 -0.23030968 0.17069227 0.04500699
00000000: 97d9 2a3e 322f 75be d298 253e 06b7 10be
00000010: 202a 85bd 5d16 393e 0699 be3d 0505 74be
00000020: 88d7 c93d 463a 1bbd 989a 113d 652d 683e
00000030: d736 69be 71ef 86bd 9d0a 883e d607 7c3e
00000040: 7a1a 1abe 55ff 87bd 784c 303e 564e b2bd
00000050: 2df0 6a3b f8d6 353e effb 1dbe f7eb c03d
00000060: d25d 823c 611d b03e 2651 a3bd 1024 2fbe
00000070: a77f 19bd 4d6f b93d c767 6c3e 667a a6bd
00000080: 0cfd 1bbd 1376 59be 91ee 59be fd07 0fbe
00000090: 9085 1dbe 123a fcbd 4c57 3b3e 031e 44be
000000a0: f0d6 053c 9862 ae3e fc8e 4cbe a1b4 50be
000000b0: 2cfa 1bbd 6bc4 f83c a02b a3bd e3d4 d7bd
000000c0: 0058 47be 9321 c5bd 8b29 af3b e528 d1bd
000000d0: 2be3 503e 0351 dcbd 1c1f 80be a3d3 f2bd
000000e0: a8a8 2abe 76d1 06bd 6234 143e ffd6 9f3d
000000f0: 7699 ca3d 3d5b 713d 3112 3cbe 4b99 5d3c
00000100: 1cca 56bd c644 73bd e2c0 54be 8e84 54be
00000110: 4b79 94bb 60aa ba3c 8a6d 5bbe 86d5 83bd
00000120: 3b5e dc39 b29a 523e af5c 713d 64d8 533e
00000130: 912d 5f3e f857 6ebe 4fb0 44bd 1ad3 75bd
00000140: f038 46be 8d53 f8bc ccf1 0b3d 0a79 90bd
00000150: 524d 82be 48f4 b8bd 910e e9bd e2b6 7b3e
00000160: 0ffc 343d c2fa 93be 2345 97bd 9123 663e
00000170: 86a3 1e3e ae21 c53c b0c1 59be f939 abbe
00000180: 5cdd 383e 6932 be3d b8ec 1d3e e836 523e
00000190: be5b b33d bcca e4bd b5d7 19be 25f6 4a3e
000001a0: 4dca 1a3e 3127 1fbe 5447 643e fa5a 923c
000001b0: 51b0 f03c 1b7e b23d 1fbf 6d3e 7e64 8b3e
000001c0: ccc5 413e 019d 38be d598 d7bd 223d b03d
000001d0: d021 7239 dbb1 463e a7e6 85bd a971 073e
000001e0: 317d 5d3d 032a 46be a5a5 313e 3f54 03be
000001f0: 4884 4cbd 1134 96bc 61ef 343d 0306 e03d
00000200: 488d f6bd 2a87 723e d31b 38bd f836 2b3c
00000210: 5efb 653e 30de 26bd 8dd4 5fbd 53fb 4b3d
00000220: 5a33 08be ce87 433d 8751 373e 0f94 ca3d
00000230: c4ea 0cbd ee91 1fbe 9815 a23c bad3 80bd
00000240: 0291 2c3e 5246 9c3d e66a 09be 99c6 5cbe
00000250: 0805 33be c16b 1fbe 394e 8dbd fc31 173e
00000260: 9557 4b3e 9235 4bbe e4ff 823c 3d2b 66bb
00000270: b97b 0bbe 1d7a 373e 3f7c ab3d d4a0 8e3e
00000280: a15e 473e 9343 813b 1a66 c33d fb26 183e
00000290: ffe9 81be 485d c5bc 5dab 50bd dbf6 76bd
000002a0: 0c8e 5abe 1151 8d3e b43b 84be c155 85be
000002b0: b913 b63d c635 20be 197e e93c 8527 dc3d
000002c0: 487c d83d fa1c 6f3e 62c8 dc3d 9917 05be
000002d0: 62da b03d abb9 ac3d 295c 6fbe dfee 833e
000002e0: 4596 d7bc 881e 323e 59f4 05be 3d1d 21be
000002f0: a8a2 6d3d b87f 2fbe 38da 48be 2f7f 2cbe
00000300: fb9c 833e de6d f83c f5b2 a33d 1a8b 28be
00000310: cbe6 4ebd b926 82be 8b6c dcbd f322 cb3e
00000320: e3ea 923e ff9d e03d ab2b 9abc dcb7 1f3e
00000330: 5992 4dbd 045c aebe a2b4 46be 3ff4 b63b
00000340: dfcc 293d a3a4 3e3e 27a2 e4bd d1bf a0bd
00000350: 8964 39be 3f0e 82be b998 a43d f8af 993d
00000360: 305f 423c 2ffc c5be 4329 643e 2c19 b4bc
00000370: f934 42be df7b a2be 3baa aabd 9c7a 6bbe
00000380: 9046 243d f055 43be aaed 57be 32b2 823c
00000390: 35a0 2d3e 921b 35be 994c 013e a934 62bd
000003a0: 6753 063e ef3d bcbe 05aa 97bd 0c1c 5e3e
000003b0: ba90 6ebd cb4d 91be 19ba db3d a6ff 40be
000003c0: a887 1abc fed2 52be e687 0abe 0c08 c2bd
000003d0: cf4d 483e 6daa 1a3d f37c 373e 4321 52be
000003e0: f385 fd3c 2106 7cbe 48f2 633e 14f4 133e
000003f0: dcf6 e23b 4dd6 6bbe f4c9 2e3e 4059 383d

lstm1_1.bias_ih_l0_reverse f4 [64]
-0.15152927 0.015707875 -0.23538363 -0.12789808 0.26951107 -0.16196805 0.1556044 0.22568442
0.18457499 0.15558878 0.044549346 -0.23155645 -0.10566439 0.24392189 0.26404557 0.09989641
-0.13709597 0.13249059 0.09407012 -0.0132976305 0.2518247 0.013041139 -0.031619035 0.15857369
0.02608269 0.16502014 -0.07514823 -0.18261406 0.25427404 0.08041184 0.13191341 -0.16449703
0.077341735 -0.07043105 -0.08565006 -0.22949012 -0.1363249 -0.041756026 -0.17222373 0.032894094
0.17417853 0.19016328 -0.16321297 -0.10163375 -0.03245845 0.05460318 -0.21533726 0.034320325
-0.22554617 -0.042351805 0.15109408 0.09431256 -0.025009947 0.095571026 0.0923666 0.07791458
-0.21006258 0.25771144 -0.2112309 -0.11414459 -0.061793223 0.1367727 0.02183583 -0.03289866
00000000: 7d2a 1bbe cdad 803c 6808 71be b7f7 02be
00000010: 5bfd 893e f4da 25be c356 1f3e d119 673e
00000020: 3a01 3d3e aa52 1f3e 6079 363d 221d 6dbe
00000030: 9266 d8bd a9c6 793e fb30 873e 7d96 cc3d
00000040: e362 0cbe 9dab 073e d6a7 c03d 4ede 59bc
00000050: 2bef 803e 80aa 553c f682 01bd 2461 223e
00000060: 5eab d53c 0afb 283e 51e7 99bd 2eff 3abe
00000070: 3530 823e f6ae a43d 4f14 073e e971 28be
00000080: 5865 9e3d 283e 90bd 4c69 afbd 75ff 6abe
00000090: c198 0bbe 5e08 2bbd 6b5b 30be f5bb 063d
000000a0: db5b 323e 2aba 423e 4d21 27be 5b25 d0bd
000000b0: 27f3 04bd 96a7 5f3d 5f81 5cbe 7893 0c3d
000000c0: 93f5 66be 1679 2dbd 68b8 1a3e f226 c13d
000000d0: a9e1 ccbc beba c33d b32a bd3d ae91 9f3d
000000e0: a51a 57be c1f2 833e ea4c 58be a4c4 e9bd
000000f0: e41a 7dbd 250e 0c3e 0ee1 b23c bfc0 06bd

lstm1_1.bias_hh_l0_reverse f4 [64]
0.027548881 0.2481644 -0.041096877 0.26666817 -0.20409954 -0.09697925 0.24835293 -0.08750576
-0.032646153 0.34117186 0.18620798 -0.17205 0.24538733 0.22946809 -0.085319005 0.17455563
0.058786172 0.015188038 0.12902226 -0.09170299 0.10925435 0.28173068 0.1323773 -0.18798226
0.117322385 0.23711653 -0.09386061 0.16820872 -0.18721047 0.027906427 -0.046783634 -0.01368104
0.21934219 -0.08939788 -0.108849704 -0.2211694 0.17435019 0.06017572 -0.085090026 0.15596013
-0.02331051 0.24170856 0.06753384 0.14810422 -0.0431324 0.07596336 -0.105954885 0.048562754
-0.09277889 0.17323764 0.12351907 0.0056881458 -0.12913944 -0.19858345 0.21205981 -0.04084848
0.05114115 0.37986064 0.18760261 0.08659607 -0.17792812 0.28338397 0.1005485 -0.0668925
00000000: 31ae e13c cf1e 7e3e 3355 28bd bb88 883e
00000010: 78ff 50be 0f9d c6bd 3b50 7e3e 3836 b3bd
00000020: f9b7 05bd 14ae ae3e 4ead 3e3e e02d 30be
00000030: d146 7b3e aff9 6a3e bbbb aebd b6be 323e
00000040: c5c9 703d 40d7 783c 691e 043e c7ce bbbd
00000050: bfc0 df3d 013f 903e ea8d 073e 6c7e 40be
00000060: b846 f03d adce 723e fe39 c0bd e83e 2c3e
00000070: 1ab4 3fbe 059c e43c 32a0 3fbd 7126 60bc
00000080: 3d9b 603e 3c16 b7bd 98ec debd 3b7a 62be
00000090: db88 323e d17a 763d ae43 aebd 03b4 1f3e
000000a0: aff5 bebc 7382 773e 2f4f 8a3d a2a8 173e
000000b0: 99ab 30bd ae92 9b3d e0fe d8bd bde9 463d
000000c0: dc02 bebd 3565 313e 91f7 fc3d a063 ba3b
000000d0: 213d 04be 7659 4bbe 3526 593e bc50 27bd
000000e0: 6279 513d 187d c23e e61a 403e 4859 b13d
000000f0: ca32 36be b417 913e 5fec cd3d effe 88bd

lstm1_2.0.weight f4 [32, 32]
0.021641396 -0.011467599 -0.019263905 -0.06007256 -0.04788544 -0.021728255 0.09124651 0.030569896
0.07220599 0.018146388 0.09642936 -0.14832142 0.015608501 0.049343064 -0.06532441 -0.16007593
-0.0047497964 -0.059464782 0.07161276 0.17775111 -0.05582174 -0.17680942 -0.005143838 0.013559269
0.043626454 -0.24168636 -0.076623105 -0.08772376 -0.09451222 0.15828893 0.08581488 -0.12903999
-0.06917395 -0.07915263 -0.08692808 0.13323253 0.21645668 -0.09993644 0.115084454 0.008721311
-0.14088541 -0.12162689 0.12401949 0.040667307 -0.06794924 -0.003097407 -0.11898156 0.08846722
-0.19122645 0.09772336 0.13573639 -0.015863357 0.10736689 0.061452106 0.09942148 -0.110682406
0.029272325 0.030042317 -0.13381529 0.12364126 0.13656941 0.026805352 -0.09002626 0.10138241
-0.13614488 0.11853134 -0.044827234 0.09383435 -0.0051807226 -0.10741361 -0.10401616 -0.09560958
0.11805371 0.13553627 0.052222837 -0.18377951 0.14800557 -0.17932838 0.16461158 0.10399409
0.18458763 0.0049872645 -0.06871867 -0.08044723 -0.0022915474 -0.11582286 0.0580674 -0.07063722
0.1306252 0.14853795 0.013182509 0.039281607 -0.074746184 0.035620067 -0.091937594 -0.06488406
-0.01520921 0.028061358 0.013454141 -0.07153804 -0.061864536 -0.086935334 -0.14654817 -0.084300384
0.005735255 0.082397796 0.090566926 -0.09805901 -0.0714982 0.16179173 -0.03718765 0.17329465
-0.07630144 0.16588832 -0.088859916 0.11004136 -0.17456718 0.026043067 -0.15872793 0.062370975
-0.028731879 -0.05689684 -0.13424405 -0.1305995 -0.020761847 0.0017571443 0.053545084 0.01352678
-0.12141108 -0.09393752 0.010521202 0.108644925 -0.080347404 -0.100584656 -0.103374586 0.14807281
0.01607544 0.08051837 -0.10349795 0.0060931067 0.1747641 -0.113090254 -0.075079 0.12281895
-0.086564 0.17124577 0.16639183 0.07356294 -0.05549526 -0.053118538 -0.04583889 -0.03357736
0.07901284 -0.03471556 0.054271337 0.15836757 0.13791625 0.032589883 -0.13311228 -0.16640608
-0.18069462 -0.09067825 0.03989865 -0.1282027 -0.065035984 -0.035639733 -0.056281377 0.121456385
-0.0737066 0.03311419 0.08970423 -0.037083652 -0.13979383 -0.11736592 0.15781869 -0.1589766
-0.093871 0.19783457 -0.07340538 0.13575158 -0.12964568 -0.14685878 0.042396255 0.04748207
-0.069042794 -0.21165033 -0.12500189 -0.12329228 0.19300099 -0.08223289 -0.12207223 -0.171619
0.028766477 0.15523417 -0.1532654 -0.121914364 -0.06369978 0.08495174 0.034919064 0.030501353
0.13086693 0.088168815 0.054332603 -0.14862712 -0.09368248 0.11486496 0.15850174 -0.13957953
-0.10639302 -0.06527787 0.068791874 -0.10798483 0.07930671 -0.03888182 -0.08600431 -0.14758037
0.17307705 -0.03653558 0.07147913 -0.024284583 0.19695112 -0.0014061811 -0.026265489 0.10250911
0.11619607 -0.015477504 -0.03643647 -0.12209176 0.04266701 0.14050207 -0.0026849327 0.0023461045
0.01844692 -0.13655709 -0.10116347 -0.042765882 0.10268578 0.031396084 0.12886928 0.14143448
0.015740888 -0.107319355 0.14082217 -0.14162284 0.16000694 0.081293344 0.06659658 -0.11940993
0.061405756 0.12274215 0.10180597 0.15347297 -0.10719107 -0.1367505 -0.097752355 0.056343406
00000000: 4c49 b13c 99e2 3bbc 56cf 9dbc a50e 76bd
00000010: 8623 44bd 74ff b1bc 73df ba3d b86d fa3c
00000020: bce0 933d bca7 943c c27c c53d 92e1 17be
00000030: ccba 7f3c f41b 4a3d cec8 85bd f2ea 23be
00000040: 2ea4 9bbb 5891 73bd b6a9 923d 6304 363e
00000050: 56a5 64bd 870d 35be a48d a8bb b227 5e3c
00000060: a7b1 323d a17c 77be 93ec 9cbd 84a8 b3bd
00000070: 9f8f c1bd 7e16 223e b6bf af3d 0f23 04be
00000080: 12ab 8dbd c61a a2bd 5907 b2bd 1c6e 083e
00000090: d2a6 5d3e 7aab ccbd 66b1 eb3d d4e3 0e3c
000000a0: 4444 10be 8517 f9bd eefd fd3d c392 263d
000000b0: f928 8bbd defd 4abb 9bac f3bd 4d2e b53d
000000c0: ded0 43be 2f23 c83d 7bfe 0a3e dff3 81bc
000000d0: 2ce3 db3d 34b5 7b3d 7d9d cb3d 75ad e2bd
000000e0: 84cc ef3c 4e1b f63c e006 09be a137 fd3d
000000f0: dad8 0b3e e696 db3c b05f b8bd 95a1 cf3d
00000100: 9069 0bbe 8fc0 f23d c39c 37bd 392c c03d
00000110: 0dc3 a9bb abfb dbbd 6d06 d5bd f5ce c3bd
00000120: 25c6 f13d 05ca 0a3e 9de7 553d b230 3cbe
00000130: c68e 173e dca1 37be f08f 283e dafa d43d
00000140: 8a04 3d3e 356c a33b 60bc 8cbd 84c1 a4bd
00000150: c92d 16bb 8934 edbd 15d8 6d3d 3faa 90bd
00000160: 9dc2 053e 551a 183e 73fb 573c c0e5 203d
00000170: 8714 99bd 59e6 113d c749 bcbd efe1 84bd
00000180: 0d30 79bc efe0 e53c c26e 5c3c 8982 92bd
00000190: ab65 7dbd 270b b2bd b910 16be aea5 acbd
000001a0: ceee bb3b 2dc0 a83d 277b b93d 2ad3 c8bd
000001b0: a66d 92bd bbac 253e 1452 18bd 2774 313e
000001c0: ee43 9cbd a1de 293e 30fc b5bd 5d5d e13d
000001d0: bdc1 32be 4558 d53c 9389 22be b578 7f3d
000001e0: 1e5f ebbc a90c 69bd 4677 09be e0bb 05be
000001f0: c014 aabc fb4f e63a 1752 5b3d 6d9f 5d3c
00000200: 5fa6 f8bd 5162 c0bd 1f61 2c3c 3b81 de3d
00000210: 2e8d a4bd 54ff cdbd 0eb6 d3bd 66a0 173e
00000220: a4b0 833c d1e6 a43d bcf6 d3bd afa8 c73b
00000230: 5cf5 323e dd9b e7bd 05c3 99bd 8088 fb3d
00000240: 7748 b1bd 0d5b 2f3e 9f62 2a3e 2ba8 963d
00000250: ff4e 63bd d392 59bd 8fc1 3bbd 6a88 09bd
00000260: 7cd1 a13d e731 0ebd 9f4b 5e3d 1c2b 223e
00000270: eb39 0d3e f87c 053d 964e 08be 5b66 2abe
00000280: 0308 39be 85b5 b9bd c46c 233d 9247 03be
00000290: 9631 85bd f8fa 11bd 4d87 66bd 20be f83d
000002a0: 7cf3 96bd bfa2 073d dab6 b73d 07e5 17bd
000002b0: 1d26 0fbe 8b5d f0bd 399b 213e c3ca 22be
000002c0: 703f c0bd 2595 4a3e 8f55 96bd 7602 0b3e
000002d0: d6c1 04be 2662 16be b2a7 2d3d 8f7c 423d
000002e0: 4f66 8dbd ddba 58be 7f00 00be aa80 fcbd
000002f0: 0da2 453e b869 a8bd 0101 fabd e4bc 2fbe
00000300: ada7 eb3c b5f5 1e3e 9bf1 1cbe 3dae f9bd
00000310: 0875 82bd 2efb ad3d 4b07 0f3d f9dd f93c
00000320: fb01 063e da91 b43d dd8b 5e3d b531 18be
00000330: 9adc bfbd 523e eb3d 484e 223e f0ed 0ebe
00000340: 95e4 d9bd 67b0 85bd c1e2 8c3d 2727 ddbd
00000350: 8e6b a23d 8b42 1fbd 0723 b0bd 4f1f 17be
00000360: 1c3b 313e 55a6 15bd a663 923d 76f0 c6bc
00000370: 8ead 493e 9c4f b8ba b92a d7bc 4cf0 d13d
00000380: 35f8 ed3d 5b95 7dbc 683e 15bd 3f0b fabd
00000390: 9ac3 2e3d c6df 0f3e b2f5 2fbb 1ac1 193b
000003a0: ff1d 973c 9fd5 0bbe cb2e cfbd 472b 2fbd
000003b0: ec4c d23d 2e99 003d 4ff6 033e 33d4 103e
000003c0: 09f3 803c 40ca dbbd b033 103e 9405 11be
000003d0: dcd8 233e 207d a63d ca63 883d 328d f4bd
000003e0: 9a84 7b3d 3d60 fb3d a67f d03d 0528 1d3e
000003f0: fe86 dbbd 5308 0cbe 6332 c8bd 58c8 663d

lstm1_2.0.bias f4 [32]
0.16519453 0.08431011 0.10422016 0.11815144 -0.1190176 -0.15241349 -0.024937069 -0.121731885
-0.030938795 -0.016656287 0.1654461 0.0061767804 -0.024975255 0.08459898 0.08416802 0.067472525
0.030477833 0.1827034 -0.13860713 0.10546436 -0.07886932 0.15505175 -0.12928845 0.14852601
0.062210385 0.15901947 0.15240945 0.08902962 0.11463108 -0.17481445 0.06881469 -0.1816956
00000000: c128 293e c7aa ac3d 6171 d53d 62f9 f13d
00000010: 80bf f3bd 4812 1cbe d348 ccbc 914e f9bd
00000020: 5b73 fdbc c472 88bc b46a 293e 9766 ca3b
00000030: e898 ccbc 3b42 ad3d 4860 ac3d 092f 8a3d
00000040: a6ac f93c 9a16 3b3e 07ef 0dbe b3fd d73d
00000050: 3d86 a1bd e3c5 1e3e 3164 04be 3417 183e
00000060: 51d0 7e3d 00d6 223e 3911 1c3e 2955 b63d
00000070: b3c3 ea3d 8f02 33be b7ee 8c3d 690e 3abe
