results/voltage_window_effect/V(3.4-4.0)/Experiment4(40-CC-1)/from_Dataset 3_ft_model.pth (torch, 95756 bytes, 27 tensors)

cnn1.0.weight f4 [16, 1, 3]
00000000: 7e4f 913e c052 a13e 4c41 12bd 43e3 1a3e
00000010: 5415 1d3e e0e2 85be 4512 e2be 1717 a5be
00000020: 2b8c fbbe 2709 7ebd 5172 b7bc 8351 a4be
00000030: 9d97 05be f428 843e 46c3 ff3d 358c c1be
00000040: 6f41 11be 706f efbd b282 ea3d 85e3 143f
00000050: a751 c03e d015 333e e7ab cc3e bd85 9bbe
00000060: fa60 a6bc e47b 093f 19b4 bc3e 709c 0bbe
00000070: ceae 7bbe d595 a5be 7471 163d 1745 0b3f
00000080: bf2d 0f3e e22b 0bbf 17df aebd db17 eb3d
00000090: 305c f43e ba53 b73e d5fc 313e 244e 8cbe
000000a0: 0cc0 393e 4e5e 7cbe 149b de3e 11c7 0dbf
000000b0: 38a9 633e 0205 093f ab7d 203e f0d6 10bf
0.2838096 0.31508446 -0.035706803 0.15125756 0.15340167 -0.26149654 -0.44154564 -0.3224418
-0.49130377 -0.062020447 -0.022393377 -0.32093439 -0.13046117 0.25812495 0.12488417 -0.37802282
-0.14185117 -0.11691177 0.114507094 0.5815967 0.37562296 0.1748879 0.399749 -0.30375472
-0.020309914 0.5370467 0.36856154 -0.13633895 -0.24578401 -0.32340875 0.03672929 0.544023
0.13982294 -0.54363835 -0.08538645 0.114791594 0.47726583 0.35806066 0.17381604 -0.27403367
0.18139666 -0.2464535 0.4347769 -0.55381876 0.2223252 0.53523266 0.15672939 -0.5657797

cnn1.0.bias f4 [16]
00000000: 1c04 f83e 384a 3fbe 170a f53e dee3 fb3e
00000010: 0b84 4d3e f76d 2cbe 1ab4 a53d bd42 3abe
00000020: 393c ab3e 6599 103f e24c af3d d834 00bf
00000030: ad31 e03e 4e8a c2bd 38d1 d9be 082a 73be
0.48440635 -0.18680656 0.4785926 0.49197286 0.20069902 -0.16838823 0.08090992 -0.18189521
0.33444384 0.5648406 0.08559586 -0.50080633 0.437879 -0.09499036 -0.42542434 -0.23746502

cnn2.0.weight f4 [32, 16, 3]
00000000: 7f7b 57bd 3509 e73d 7547 b3bc a334 963d
00000010: f2ee dc3d 0068 913d ca2e ddbd 908f c13d
00000020: ca49 46ba 784f a5bd ec2a 223b d677 afbd
00000030: bc3f 0ebe 8031 813b a21d b33d 403b 7ebb
00000040: 5a2d a73c 728e e6bc 4144 133d fd60 19bd
00000050: ca59 30bd e612 fa3d 7c7a c03d 5752 003e
00000060: 2630 173d e78a 7e3c 4dbd 43bd 6453 98ba
00000070: 913c d7bd 9e38 4d3d f6c0 b5bd 0bef 02bd
00000080: 4bd0 63bd 5ba0 113e 188c aa3c 364b a6bb
00000090: c1b3 c8bd 796c df3c c091 a63d c074 95bc
000000a0: c02d 13bd 2431 f6bd 92bb ce3d f96e 0c3e
000000b0: 0d2f 763c b960 643d 9c8d 93bc f6b4 dfbb
000000c0: 5609 03bd d986 69bd 3153 05bd e578 e53d
000000d0: 134c a23d 67e8 02bd cdb2 0b3e d834 2d3e
000000e0: f58f 303e ce2f 41bb 9a37 053c 98a3 ed3d
000000f0: 5797 fdbc b050 0b3e 505f e4b9 c1cb 083e
00000100: 173c c9bd 4f5a e33d ba65 1ebe 0c48 913d
00000110: 1a1b 843d af5c 7dbb 2440 febd ba73 ea3d
00000120: 31c4 fabd dbcc e4bd a744 f4bc e445 173d
00000130: 7248 7d3d 7f93 4a3e 6720 e8bd 4a9f 5f3d
00000140: 3500 5fbd 1e2c ce3d 24b8 83bc 33c5 633d
00000150: 755b 9ebc 48ab 083e ddf2 92bc 029d 523b
00000160: 885f e23d b3a5 0b3e d45e 5fbd 7248 a13d
00000170: 6837 083e da55 12be 378e d5bd 912e 47bc
00000180: 4269 cc3c 3e3d 033e b699 13be 1342 013d
00000190: f33d 703b 1dab 1abc 501b fabd 160a 7e3d
000001a0: d8a5 1abc 60b1 aa3d 8240 86b9 6ab8 1ebd
000001b0: 6b09 fc3c f71b 31bc 0f33 183a c5b9 bdbd
000001c0: 8306 fdbc 889a fd3d 244b aabc c0bd cdbd
000001d0: a999 75bd 84e7 2f3c e896 173d 8305 26bd
000001e0: e1c3 9cbd 4f61 e2bd 0c38 f13c 020b 02bd
000001f0: fd3b 16bd 824a e7bd 755f 773c 213c 5c3d
00000200: 7de5 0abc b5ca f6bd 326b 213c c86e 673d
00000210: 8e2a b63d 0197 febd 319c 7d3c e8b8 113e
00000220: 4ec1 313c 5e6f 833d 0cee d7bd e302 31bd
00000230: 16b4 adbd 7db0 4abb df20 083e cce4 cfbc
00000240: 574f 0c3e 3859 803c e503 7abd d136 9cbc
00000250: f84c 64bd fea2 c8bd 1c78 a6bd 4c79 cbbc
00000260: ad23 0b3e 598f 68bd f55f 99bd 2db6 03bd
00000270: ed13 0abe e539 d13d 8887 df3d ab6b 563d
00000280: 2d24 e63d ade2 03be b94d a13d b5ca cd3c
00000290: 124c 06be d70f 98bc 06df b93d b4cf 183d
000002a0: 8065 5c3d e667 a93d 8cb9 983c ae4f 10be
000002b0: 2928 dfbc 1569 ad3d 13e4 053e 3e9f 4bbd
000002c0: 6a49 cdbd 8206 2a3d a8e9 ff3d e5b1 e33d
000002d0: 517b 7bbd 3543 813d 118f 0abe b34c 9abd
000002e0: 01d5 7cbd 3f94 913d 7b4a 4cbc f23e ae3b
000002f0: 693c 6cbd c37c 9a3d 4205 e2bd 176e f63c
00000300: fe36 e53c 4a43 8cbb 426d 293d ec14 5a3d
00000310: 1318 01be 6e75 fe3d bfd4 3f3d e6a7 2e3d
00000320: 514a 013d 605a a9bd 7155 c4bd fda8 a03c
00000330: afd8 7bbd 5275 6fbd 81ed 0a3e 6bef 09be
00000340: f677 10be 34bd f5bc 5f24 46bd 0d30 b83d
00000350: e229 d3bd 7368 dabd 7a41 7ebd 81c0 43bd
00000360: a6c7 013e 58d9 00be 8532 b23d ba9a 15bd
00000370: d5bc 9dbd d0ac 9d3d 984c 68bc 7b06 07be
00000380: 1d68 70bd 7b11 483d 7a75 1bbc b3ea b9bd
00000390: 10bd eebd 3600 e9bd ffb5 9c3d e8d2 8d3d
000003a0: d76b 363d 5385 a53b 0ac1 513a 42c8 573d
000003b0: b15a 0cbe de16 55bc 826e 12be 81c0 74bc
000003c0: a955 0cbd 07e0 83bd f7de 6d3d d6ee cb3d
000003d0: c24c f93d eeeb a43c 5517 d73d 1ece df3d
000003e0: bd1d b43d 8584 0abb e884 e1bc 4fb2 803d
000003f0: 144e 053e 9592 043e 5844 00bb 8549 babd
-0.05260801 0.11281053 -0.02188466 0.073342584 0.10787763 0.070999146 -0.1079994 0.094512105
-0.0007564096 -0.08071798 0.0024744822 -0.08567779 -0.138915 0.0039426684 0.087458864 -0.003879264
0.020407367 -0.028144095 0.035953764 -0.03744601 -0.04305438 0.12210636 0.09398362 0.1253141
0.036911152 0.015536047 -0.047787953 -0.0011621532 -0.10509599 0.050102822 -0.08874695 -0.03196625
-0.055618566 0.14221327 0.020818755 -0.005074884 -0.0979991 0.027273403 0.08133268 -0.018244147
-0.035932302 -0.120210916 0.1009437 0.13714208 0.015025866 0.055756304 -0.01801186 -0.006826992
-0.031991325 -0.057013366 -0.03255004 0.112046994 0.07924666 -0.031959917 0.13642426 0.1691469
0.17242415 -0.0029477957 0.008130932 0.11603469 -0.030955954 0.13604999 -0.00043558562 0.13358976
-0.09825914 0.11101209 -0.15468493 0.0709382 0.06450482 -0.003865998 -0.124145776 0.11447854
-0.12244452 -0.111718856 -0.029817892 0.036931887 0.061836667 0.19782828 -0.11334305 0.05459527
-0.054443557 0.100670084 -0.016079016 0.055607986 -0.01933072 0.13346589 -0.017938072 0.003213704
0.110533774 0.13637428 -0.054533795 0.07875146 0.13302386 -0.14290562 -0.10427516 -0.012157098
0.024952535 0.12816331 -0.14414105 0.031557154 0.0036658018 -0.009440211 -0.12212241 0.062021337
-0.009438954 0.08334613 -0.00025606534 -0.03875009 0.03076621 -0.01080989 0.0005805948 -0.09263948
-0.030886894 0.1238299 -0.020787783 -0.100459576 -0.059960995 0.01073635 0.03700915 -0.0405326
-0.076545484 -0.110537164 0.02944567 -0.03174878 -0.036678303 -0.11293508 0.015098442 0.05376828
-0.008477566 -0.12050382 0.0098522175 0.056502134 0.088948354 -0.124311455 0.015479133 0.14230692
0.01084931 0.06417726 -0.10543451 -0.043215644 -0.08481614 -0.003092795 0.1329379 -0.025377654
0.13702141 0.015667543 -0.06103887 -0.019069107 -0.055737466 -0.09796713 -0.08128378 -0.024838112
0.13587828 -0.056777332 -0.074890055 -0.03215616 -0.13484164 0.10216121 0.109145224 0.052348774
0.11237369 -0.12879439 0.078761525 0.025121072 -0.13114956 -0.01856224 0.090757415 0.037307456
0.053807735 0.0827177 0.018643163 -0.14092895 -0.02724083 0.084673084 0.13075285 -0.049712412
-0.10023768 0.041510113 0.12495738 0.11117915 -0.0613969 0.06311647 -0.13531138 -0.075341605
-0.061726574 0.07108354 -0.012468929 0.0053175623 -0.0576748 0.07543328 -0.11036159 0.030081792
0.027980324 -0.0042804824 0.041363962 0.05324261 -0.1260684 0.12424742 0.04683375 0.04264059
0.031565014 -0.08269191 -0.09586609 0.01961183 -0.061485942 -0.058461495 0.13567163 -0.13470237
-0.14108261 -0.029997446 -0.04837453 0.0899354 -0.10310723 -0.10664453 -0.062074162 -0.047791008
0.12673816 -0.1258291 0.08701042 -0.036524512 -0.077020325 0.07698977 -0.014178418 -0.13186066
-0.05869304 0.048844796 -0.009488458 -0.090779684 -0.116571546 -0.11376993 0.076519005 0.06924993
0.044536438 0.005051294 0.00080014823 0.052681215 -0.13706471 -0.01300594 -0.14299968 -0.014938475
-0.03426138 -0.06439214 0.058073964 0.09957664 0.121728435 0.020132031 0.10502497 0.109279856
0.087947346 -0.0021136117 -0.027529195 0.0628401 0.13018066 0.12946542 -0.0019571986 -0.09096054

cnn2.0.bias f4 [32]
00000000: dc9d d13b 01e4 bf3d bd6f 69bd fe45 92bd
00000010: f5ac d0bc a03f 03be cd85 e7bd b6dd ed3a
00000020: c729 57bd 6cec b0bd a9c2 ba3d 48e1 56bd
00000030: 81d9 2d3d 46c3 3a3e b0ab c33d 6925 d63d
00000040: 967f c0bb cfbb 01be ded9 c7bc 176e abbc
00000050: f31b e8bd d047 9cbd 7957 943d f47e edbc
00000060: 7cb8 7d3d 8374 87bd c15e d1bd 5ae5 5dbd
00000070: 3e64 3bbd 01ba b8bc 833a c03c 4b93 d43d
0.006396992 0.0936966 -0.056991328 -0.07142256 -0.025473097 -0.1281724 -0.11304817 0.001814774
-0.052530076 -0.08638844 0.0911916 -0.05246094 0.042443756 0.18238553 0.09554231 0.10456354
-0.0058745844 -0.126693 -0.02439588 -0.020926518 -0.11333456 -0.07630885 0.072432466 -0.0289912
0.061943516 -0.0661402 -0.10223151 -0.054173805 -0.045749895 -0.022549631 0.0234654 0.103796564

lstm1_1.weight_ih_l0 f4 [64, 32]
00000000: d411 0a3c 6161 a8bc 9465 b63d ea4c 29be
00000010: 907c f13c f02f 623e 6008 19bd c006 e93b
00000020: 30ef bc3d 060d d0bc e6fb 34bd 7afc 21be
00000030: ad7c 6b3e 504a 2ebe ab56 bf3c 0d2b 6cbe
00000040: e023 563c 383e 5b3d 36a1 43be fc55 403e
00000050: 6fe6 c33d 8dfa 4ebe 8893 8bbc 00fa 2dbe
00000060: b41e 473e ce12 3dbe c0e7 bd3d 7bfe 02be
00000070: 88d3 3b3d 64f2 1e3e 1c67 08be 514a 433e
00000080: 931b 58bd d28f f3bd 1841 b83d b812 123d
00000090: c0ca e53d e5e6 08be 5d54 213e 5cad 473e
000000a0: 64a9 e53d 9b2d f43c 5b34 733d d0c2 3cbd
000000b0: 33c7 5cbe fa82 3f3e 83fb 203e fea1 323e
000000c0: ee15 03be c038 6d3c 1acf 4cbe 08bb 15bd
000000d0: 693f 12be 5a12 e23d 55c4 d43d 94c7 dfbd
000000e0: a50b 2fbe c06d 80bc 0085 d4bd 37fb 0cbe
000000f0: 5a6b 31be b298 723e 0e69 f2bd e3f0 31be
00000100: 7f01 f73d b2ec f93d 0af9 7e3e 00de a43b
00000110: d0d5 413d c9fa 303e 9502 23bd 32b0 7bbe
00000120: c818 553e 190a 5e3e 36ba 4f3d c84f 383e
00000130: 088c 863d 29ad 623e 9963 e8bc cb19 523e
00000140: 86bb 5f3e 8e95 043e 2905 283e 6885 043e
00000150: ec4f 1a3e 8004 883e c184 14be 96d1 643e
00000160: efeb f53d 98e1 7fbd a85a 2f3d acfa 733e
00000170: 3f19 6ebe 6984 3abd 7ea7 3cbe 931d e7bc
00000180: 9f93 563d 737b 4f3e 58d3 813d 4cbb 463e
00000190: 100d a3bc ccbb 4a3d c126 05bd b81b e33d
000001a0: 805c 073c 4b9b 12be ead5 47bd 221c 40be
000001b0: 44b0 29bd a5c8 263e 88ce 213e 27ef ee3d
000001c0: 1c80 c63d 6882 49bd d0d5 7ebd c44a 893d
000001d0: 5250 80be a3f4 61bd 38b1 99bd a0de 323c
000001e0: a385 1ebe 502d 9b3c 0031 113c a5c6 7abe
000001f0: ee69 9b3d f3f7 febd b31d 563b c72b 8dbc
00000200: 2991 1abc 71eb 823d 5ab3 2f3e 46eb 313e
00000210: 52ae 563e bc16 913d ca8a 09be 189f 80bd
00000220: 444c 1cbe 4391 c0bd a6c4 0f3e d44e f53d
00000230: 57b6 1cbe 851e 1c3e 25a1 0e3e cb17 793e
00000240: fa1c 03be e0de f43d 0eb7 6abc 1c40 2bbe
00000250: e51e bd3d dd14 23be acda 03be 045d be3d
00000260: ee47 00bd 1060 e33c d69c 633e 21ba e7bd
00000270: d944 1b3e 05a0 323e ac02 763d 85a7 1cbe
00000280: 9726 18be 5e35 463e a427 b0bd 06f7 19be
00000290: 449b ce3d 67e0 f53d fc87 e8bc 049a ecbd
000002a0: e4da a43d b6f5 98bd d6c3 4cbd 3413 efbd
000002b0: 5093 77bd e3b9 f13c 112a a23d a961 a33d
000002c0: 5c79 7d3e bc32 c2bd 574d 51be dca3 ca3d
000002d0: 9009 3fbd 1847 583e 2572 43bc 74c4 fabd
000002e0: f178 10bc 400e 2e3c 6803 85bd 3054 bebd
000002f0: bf73 e73c 78b1 0d3e 7ee0 3c3e df50 cebd
00000300: f3dd 043e 97c5 61be 5c16 12be 1691 6dbe
00000310: 804f 073d a722 36be 37a1 23bd 14a6 613e
00000320: f4d7 42be 0fce ddbd cd42 663d cc50 743e
00000330: e1ea 87be 79f8 30be 04f3 17be 9718 273d
00000340: 5ab3 62be d689 053e 4ae2 ffbd 5266 0abe
00000350: e4d0 2c3e 7dba 1fbe 6339 ebbd ee18 6ebe
00000360: 6cb6 22be b2a6 67be 561b 57be 66b4 4abe
00000370: 2b09 4bbe ba91 b63d fe6f 19be beaf 813d
00000380: fbbc 0dbc eb4c 2b3e 9430 a2bd bc68 fa3d
00000390: 4086 df3c fba0 09be b71d 353e 901f 8bbd
000003a0: 20ba 4dbd 6d9a 20be 3453 6d3e c44f 8dbd
000003b0: be6f 28bd 9f0f bd3d 639c 76be 7d79 51bc
000003c0: 28a8 1ebd 18f3 42bd 5d00 833e 5078 71be
000003d0: d34b 30be a6bf e1bc da79 cc3d 54ec 89bd
000003e0: 8a74 fe3d e895 69be f45c e6bd 7b6e adbc
000003f0: 37bd 6abe a613 e6bc 7676 a13d 3349 3c3e
0.008427102 -0.020554246 0.08906093 -0.16533247 0.029478341 0.22088599 -0.037361503 0.0071114004
0.09225309 -0.025396835 -0.04418554 -0.15818968 0.22996779 -0.17020535 0.023356756 -0.23063298
0.013070077 0.053526133 -0.19104466 0.187828 0.09565436 -0.20212765 -0.017038122 -0.16989899
0.19445306 -0.18464205 0.092727184 -0.12792389 0.04585603 0.15522152 -0.13320583 0.19071318
-0.05276067 -0.11892666 0.08996791 0.035662383 0.11220312 -0.1336933 0.15754838 0.19499725
0.11213949 0.029806903 0.059376102 -0.046084225 -0.21560363 0.18702307 0.15720944 0.17444608
-0.12801334 0.014478862 -0.20000878 -0.03655532 -0.14282002 0.110386565 0.1038901 -0.109267384
-0.17094286 -0.015677333 -0.1037693 -0.13767706 -0.17326108 0.23691061 -0.11836444 -0.17377047
0.12060832 0.12203349 0.24899688 0.0050313473 0.047323048 0.17283167 -0.039797384 -0.24578932
0.20810235 0.2168354 0.050714694 0.17999184 0.065696776 0.22136368 -0.028367804 0.20517652
0.21848878 0.12947676 0.16408218 0.12941515 0.1506955 0.26565933 -0.14503767 0.22345576
0.120078914 -0.062471002 0.042811066 0.23826092 -0.23251818 -0.045536432 -0.18423268 -0.028212344
0.052386876 0.20261936 0.06339139 0.19407386 -0.01990369 0.049495503 -0.03250766 0.11089271
0.0082618 -0.14317052 -0.04878799 -0.18760732 -0.041427866 0.16287477 0.15801442 0.116667084
0.09692404 -0.04919663 -0.062215626 0.067037135 -0.2506128 -0.055164944 -0.07504505 0.010917336
-0.15480666 0.018942505 0.00886178 -0.2448984 0.07588564 -0.12449636 0.003267151 -0.017232789
-0.009434023 0.06392563 0.17158261 0.17374906 0.20964935 0.07084414 -0.1343185 -0.06280345
-0.15263468 -0.094027065 0.14039859 0.11977926 -0.15303932 0.15246017 0.1392866 0.24325483
-0.12804022 0.119565725 -0.01432587 -0.16723675 0.09234408 -0.15925927 -0.12876385 0.09295085
-0.031318597 0.027755767 0.22227797 -0.11314798 0.15162982 0.17443855 0.06006114 -0.15298279
-0.14858471 0.19356295 -0.08601311 -0.15035638 0.10088208 0.12005692 -0.028385155 -0.11552814
0.080495626 -0.07468741 -0.04999145 -0.116735846 -0.060443223 0.029507583 0.0791818 0.079776116
0.24753326 -0.09482333 -0.20439659 0.09894535 -0.04663998 0.2112087 -0.01192907 -0.12244502
-0.008817897 0.010623515 -0.0649479 -0.09293401 0.028253434 0.1383723 0.18445012 -0.10074019
0.12975292 -0.22048031 -0.14266342 -0.23199877 0.0330348 -0.17786656 -0.03994867 0.2203601
-0.19027692 -0.10830318 0.05621605 0.23858947 -0.26546386 -0.17282285 -0.14838797 0.040794935
-0.2213873 0.13040861 -0.12494333 -0.13515595 0.1687656 -0.15598483 -0.11485555 -0.23251697
-0.15889901 -0.22622183 -0.21006522 -0.19795379 -0.19827716 0.08914514 -0.14984128 0.06332348
-0.0086510135 0.1672856 -0.07919422 0.12227008 0.027285695 -0.13440315 0.17687117 -0.067931294
-0.05022633 -0.15683909 0.2317627 -0.0689998 -0.04112219 0.09231495 -0.24083094 -0.012785313
-0.038734585 -0.047595114 0.25586215 -0.23581052 -0.17216425 -0.027557205 0.09984179 -0.06734529
0.12424572 -0.22811091 -0.11248198 -0.021170845 -0.22923742 -0.028085541 0.07883923 0.18387298

lstm1_1.weight_hh_l0 f4 [64, 16]
00000000: ebe7 703e b14d 093e c3c8 07be 950d 5b3e
00000010: d7cb cb3d 4e79 72be c9f3 f3bd 26f4 38be
00000020: 0fce 3cbd c29d 453e 1440 413e 99fd 5cbe
00000030: 2471 8a3e c50c 6a3e 7ec7 28bd 5c8a 793c
00000040: 6829 78be 9903 5abc bf89 82bd 824f 343d
00000050: a87e 20be 8181 3fbe 6381 453e c996 44bd
00000060: c2ba 19be c350 c53d 424d 473d b429 343e
00000070: 913c 5abb 971d 473c 8280 4cbe e804 06be
00000080: bf0f 813e ee47 a9bd da90 60be 223a f8bd
00000090: 69b0 77bd 7db6 5ebe 6e16 043e 09ac 9ebd
000000a0: d1ae fabd 78a0 5e3e 03ae 66be bb83 203c
000000b0: a6f9 72bd 99a9 4cbe 8d64 0c3e 0889 0d3e
000000c0: 6793 eabc 0be3 abbd 3e99 e63d 8d18 2dbd
000000d0: 7b8e 993d 636d 6b3e 78c0 45be a429 84be
000000e0: 1104 3b3e 249f 5fbe 124d 463e a6f7 42be
000000f0: 7519 593e e08a aa3d 48ea fbbd aea8 4fbe
00000100: 685c db3d bdb0 3a3e 5f3d 87be 0877 1ebe
00000110: 9138 14be 8179 773d b856 2cbe 70d0 7c3e
00000120: 74e0 42be 17b9 333e 7d16 d33b ee79 8bbe
00000130: 2388 5f3e 66d3 233e 98ba 013e 141e 85bc
00000140: 511b a03d aff2 84bd 5ce8 1fbe 504a 953b
00000150: 914f 60bd 8dbc 2ebd 09ec 40be 4d67 b7bc
00000160: 33b5 db3b 7716 57be a5ca f4bd 8536 1cbb
00000170: b73b aa3b 21db 003d 908d 473e de65 0b3e
00000180: f576 cfbd 031e 69bd 4817 40be b93c a63d
00000190: b8c5 dc3d ca2f 3d3e 4b45 e2bd f173 77be
000001a0: 3aa7 52be 91f8 15be c403 32be f8ef 533e
000001b0: e944 a3bd b3c1 2c3e 674d 793c 51df 683d
000001c0: 4368 eb3d bceb ea3d 8bec 5cbe cb74 163d
000001d0: 5749 aabd df8c 48be 1c8c 6cbe f1ac 433e
000001e0: 8895 7dbe 6a57 613e cf5f 4cbe 6c57 efbd
000001f0: 0743 24bd d356 363e b2cf 02be 758f c63d
00000200: 2ab7 4d3e e154 bfbd 6664 403e b90d 8bbe
00000210: fae4 6d3c 7220 f23d 38d3 0abe 9277 51be
00000220: 0481 02be 13b1 e0bc 4cac aa3d 1cb9 9f3c
00000230: 3ee4 5c3e 4bbc 863d 4698 53be 5dad cd3d
00000240: 9dbc 35be 17a4 ae3d ead3 673b b3d9 883d
00000250: 3574 cfbb 0f0a 363e 6b1a 02bb 4f28 3bbe
00000260: 4de9 f93c 2349 053e f1ce 6dbe bf63 373e
00000270: 10c1 91bd 7bc0 a0bd b1de 88be 1e70 753e
00000280: b04d 76bd cd99 933d cc35 6a3e ca5d efbc
00000290: e7d9 3c3e 3af7 c9bd 90b4 cc3d 2eb7 043e
000002a0: 2af3 ce3d 7abb 523e 8cad 443e 66b7 7dbe
000002b0: 7a8f 653d fd99 1cbe aefc 84be 027d f33d
000002c0: 7c92 a2bd 13c4 8c3e 3ccb 68be 2892 d13d
000002d0: 1316 4c3c 34cc 913e fb97 60be 5d32 a13e
000002e0: e870 85be 6cb4 abbc cab7 32be b528 19bd
000002f0: d1f5 f13d 3c8c c0be 801e b9bd 963d ddbd
00000300: e9b3 3f3d 73bf 323e 30b3 7a3e a32c 67be
00000310: c43a f33d 7e77 3dbe 637b 073e 1435 e6bd
00000320: 983c 3b3e 7ed2 9a3d e91d 4bbe eba1 59bc
00000330: e0c8 c83c ad1a 60bd 91fd 083b 598d 9cbd
00000340: afaf 0fbd 1c28 963c 81cc 043e 886f 96bd
00000350: 15ac 2a3e 49b0 f33d 3ebf 613e 86f1 6d3d
00000360: ecff 653d 073e 2bbe c206 3abe 04ee 4b3d
00000370: f94b 37be 1026 dcbd 3a15 e03d 25ca fe3d
00000380: f002 093e 4b70 4c3e 9cef cebc 3c2c fe3d
00000390: 623c 1cbe 4675 b0bd 49f0 2fbe d85d 843e
000003a0: 81c3 3c3d 49e1 45be 155a 45be c4ad b0bd
000003b0: f8e8 b43d ba0f b2bd 120e 68be 8796 bdbd
000003c0: 89ab 77be 7e62 c8bd ce41 153e 690b adbc
000003d0: e53b ecbd cd16 853e 4bce 093e a2e9 603e
000003e0: ce61 373d 87e3 75bd b21a dd3c 803f db3d
000003f0: 0697 0f3e 7c1a f4bd 7730 65be 7305 bd3d
0.2352597 0.13408543 -0.13260178 0.213919 0.09950989 -0.23679087 -0.11911733 -0.18061885
-0.04609495 0.19298461 0.188721 -0.21581115 0.27039444 0.22856434 -0.041205876 0.015230741
-0.24234545 -0.013306522 -0.06373929 0.044021137 -0.15673316 -0.18701746 0.19287638 -0.047995362
-0.15012649 0.09634545 0.048657663 0.17594033 -0.003330026 0.012153051 -0.19970897 -0.13087809
0.25207326 -0.082656726 -0.21930256 -0.12120463 -0.060470972 -0.21749301 0.12899181 -0.07747657
-0.12240375 0.21740901 -0.22527318 0.009797032 -0.059320115 -0.19986571 0.13710232 0.13821805
-0.02863474 -0.083929144 0.112596974 -0.04225974 0.07497879 0.22990946 -0.19311702 -0.2581302
0.1826327 -0.21838051 0.19365337 -0.19039783 0.21201117 0.083272696 -0.12300545 -0.2027919
0.107109845 0.18231483 -0.2641401 -0.15475094 -0.14474703 0.06041861 -0.16829956 0.24688888
-0.19030935 0.17551075 0.00644189 -0.27241462 0.21829276 0.15998611 0.12668836 -0.016249694
0.0781771 -0.06491601 -0.15615982 0.004555978 -0.05476338 -0.042660285 -0.1884004 -0.022388125
0.0067049502 -0.21004663 -0.11952714 -0.0023836207 0.005195107 0.031458978 0.19487596 0.13613078
-0.10130111 -0.056913387 -0.18758881 0.08117051 0.10779899 0.18475261 -0.11048373 -0.24165322
-0.20571604 -0.14645602 -0.17384249 0.2069701 -0.07972128 0.16870765 0.015216208 0.056853596
0.11494496 0.11470744 -0.21574609 0.036732476 -0.0831477 -0.19584988 -0.23100322 0.1910894
-0.24764073 0.22006002 -0.19958423 -0.11686596 -0.040102985 0.17806558 -0.12774542 0.09695331
0.20089403 -0.09342361 0.18788299 -0.27158907 0.014519924 0.11822595 -0.13557136 -0.20455769
-0.12744528 -0.027428186 0.08333644 0.019497447 0.21571442 0.06578883 -0.20663556 0.10042832
-0.17747732 0.085273914 0.0035374113 0.06682148 -0.0063309916 0.17777275 -0.0019852172 -0.18277095
0.030506754 0.1301618 -0.23223473 0.17909144 -0.07116902 -0.07849213 -0.267324 0.2396855
-0.060132682 0.072070695 0.22872084 -0.029219527 0.18442498 -0.09861608 0.09995377 0.12960503
0.101049736 0.20579329 0.19206828 -0.24776992 0.056045033 -0.15293117 -0.2597403 0.11889078
-0.07938096 0.27493343 -0.22733778 0.10232955 0.012456435 0.28476107 -0.21932976 0.31483737
-0.26062703 -0.020960055 -0.17452922 -0.037392337 0.11814464 -0.3760699 -0.090390205 -0.10802762
0.046802435 0.17455845 0.24482417 -0.22575621 0.11876443 -0.18502614 0.13230662 -0.112405926
0.18284833 0.075596794 -0.19835629 -0.013283233 0.024509847 -0.05471294 0.002090309 -0.076441474
-0.035079654 0.018329673 0.12968637 -0.07345492 0.16667207 0.11898858 0.2204561 0.058091663
0.05615227 -0.1672288 -0.1816664 0.049787536 -0.17900075 -0.10749447 0.10941549 0.124409
0.13380027 0.19964711 -0.025260739 0.12410781 -0.15257409 -0.08616118 -0.17181505 0.25852847
0.046084885 -0.1932422 -0.19272645 -0.08626893 0.08833498 -0.08694406 -0.22661617 -0.092572264
-0.24186529 -0.09784411 0.14575884 -0.021123605 -0.115348615 0.25993958 0.13457601 0.21964124
0.04477101 -0.06003144 0.026990268 0.10705471 0.14022455 -0.11919114 -0.22381769 0.09229555

lstm1_1.bias_ih_l0 f4 [64]
00000000: af23 0dbe 966a 103e 9e74 c63b fdd0 f23d
00000010: 0e32 693e 0bb5 393e 0093 a3bc 2085 76bd
00000020: 43f5 5b3e 26bc 7a3d cbc6 b2bd 621a 993d
00000030: 31a8 a13d abc3 37bd b85c 01be e4b2 34be
00000040: c278 6c3e 5dfb 1a3e 4617 493d 6bc6 1a3c
00000050: 92e6 f3bd 7c60 673e 36a3 013e 85af 68be
00000060: 7bdc f13b 4e2e b63d 0d53 d5bc 9ab3 a43d
00000070: 3741 213e dcbd 523e 5051 6c3e 7730 debd
00000080: 45d0 12bd 873c 9a3d fdd9 c6bd ac93 1fbe
00000090: 327c 423e fab6 213e f886 41be 887a d63c
000000a0: 0472 2cbe bf97 4ebe f1b8 fc3d 4aa2 8abe
000000b0: e713 5abc 1481 803d 21e5 3dbd c1fb 263e
000000c0: bb5b dbbd 9194 5ebe 01c5 943c ee0b 223e
000000d0: bda0 5abe acde 6ebe f796 d73d b992 76bd
000000e0: fede 883e 9edb 943d 7cbe 68be bfab c33d
000000f0: 6904 8f3c 06a9 a3bd af76 2d3e 1b07 01bd
-0.13783143 0.1410316 0.0060563823 0.118562676 0.22773 0.18135469 -0.019967556 -0.06018555
0.21480279 0.06121459 -0.08729323 0.07475735 0.07893408 -0.044864338 -0.12633026 -0.17646366
0.2309294 0.1513495 0.04909446 0.009446721 -0.11909212 0.225954 0.12659916 -0.22723205
0.0073810196 0.08895551 -0.026040578 0.08042069 0.15747534 0.20580238 0.23077893 -0.10849088
-0.035843153 0.07531076 -0.09709547 -0.15583676 0.18992689 0.15792456 -0.18899143 0.026181474
-0.16840369 -0.20175074 0.12339962 -0.27076942 -0.013310409 0.0627462 -0.046361092 0.16306974
-0.107108556 -0.21736361 0.018160345 0.15824863 -0.2135038 -0.2332713 0.10526841 -0.06019852
0.2673263 0.07268451 -0.22728914 0.09554242 0.017458158 -0.07991223 0.16939805 -0.031500917

lstm1_1.bias_hh_l0 f4 [64]
00000000: 6aac c43d 8120 983d 0160 3fbe fdfd b13b
00000010: fed7 c63d e9c6 203e 9a6d 8fbe 23a1 7a3e
00000020: 127d 33bd 9983 303e f99f ecbd 9de1 973e
00000030: 27f2 04be 0d69 843e 950f 203e 9006 90bd
00000040: c4aa 303e bc85 0abd a859 013e b867 8a3c
00000050: ec11 e23d 8cee 67be 36bc 413e 79f3 e1bd
00000060: 196d 803a 6cd1 1cbe 8d55 833c e8e1 003e
00000070: 605c 3a3b cc84 383e 1129 a23d 8a72 54be
00000080: 9bed 6a3e e9f7 67be a27f 17be 02ef bd3d
00000090: 1dfb 0a3e 3e6d 12be 02f7 0bbe def4 653e
000000a0: cc0c aa3d 79b7 79be 2b91 4cbe 5844 d0bd
000000b0: 0ee2 d63d 22a3 54be 79a6 36be 2234 30bc
000000c0: ef08 633e e9eb 4fbe b385 7a3e 6628 6b3e
000000d0: 0f47 283e 2d22 46bc 7c1b 0d3e 6aff a6bd
000000e0: c505 a03d 83e1 313d ed2c 993d b87b 863e
000000f0: c480 1bbc 6127 263e e5c7 dabc e8b8 013e
0.09603198 0.07428075 -0.18688966 0.005431889 0.09709166 0.15700878 -0.28013307 0.24475531
-0.04382045 0.172377 -0.1155395 0.29664317 -0.12982999 0.25861397 0.15630944 -0.07032502
0.17252642 -0.033818945 0.12631857 0.01689516 0.110385746 -0.22649592 0.18919453 -0.11032767
0.0009798139 -0.15314263 0.016032005 0.12586176 0.0028436407 0.18019408 0.07917989 -0.20746818
0.22942202 -0.22653164 -0.14794782 0.09274103 0.13572355 -0.14299485 -0.13668445 0.2245669
0.08303222 -0.24386396 -0.19977252 -0.101692855 0.10492335 -0.20765355 -0.17836942 -0.010754617
0.22171377 -0.20304836 0.24465065 0.2296463 0.16433357 -0.012093109 0.13780016 -0.08154185
0.078136005 0.043427955 0.07479272 0.26266265 -0.009491149 0.1622596 -0.026706645 0.12668192

lstm1_1.weight_ih_l0_reverse f4 [64, 32]
00000000: 4e80 9fba a4ba 3bbe 7626 42be 2eac 64be
00000010: 54c6 39be 56e4 9ebd 1209 ff3d 10bd fb3c
00000020: 10de e63c f82a 2abd ef81 213e d87d 07be
00000030: a471 fd3d 7c68 373e be42 553d 2663 fdbb
00000040: 884a 55bd 40b6 0ebd 289c 42be 26b9 6b3e
00000050: fccc 683e c40d 453e d100 b4bd 0cda a8bd
00000060: 705a f53d 5c6c f23d 5887 873d 531a 1fbd
00000070: 2cec 17be f56b 72be b928 793d f4e2 af3d
00000080: 524b 20be 77a3 44be 125e 47be ceef 56be
00000090: 648b ecbd cfd7 7ebd f80c c6bc e0d3 c83d
000000a0: e81e 91bd c472 4d3e 2c0f 9b3e 8e76 38be
000000b0: 1bf6 7a3e c496 a13d b2d8 b53d f9f5 1b3d
000000c0: 188c 26bd 8423 053e 877b c8bd 0cd9 0d3e
000000d0: 7f5c c2bd 3df5 893e bb65 8fbd f865 db3d
000000e0: 59a7 9b3e e4cd 7f3e 78da 373e 19f5 a43d
000000f0: 04fa b4bd efc1 cf3d 55ec 663e 3c9b d5bd
00000100: 1916 563e efa8 1bbe 04ce 7e3e 242b abbd
00000110: 54b0 223e 1f03 663e 101e 7dbb caf2 783e
00000120: 963b 0bbe 761d 7fbe 6235 13be b8ba a3bd
00000130: b79a 23be 9625 1fbd 051b 81bd a9d0 58be
00000140: 2cb5 debd 32f0 523e 31e7 fcbd c201 10be
00000150: d9a0 243d 8476 06be 248a 463d c2b4 16be
00000160: 9b07 e2bd b62b 7f3e 9881 5ebd c0aa 213e
00000170: 3546 e7bd e466 4cbc 0486 5c3e cc1f 183e
00000180: 64c1 463e c163 17be 5cbe 83bd f032 743e
00000190: 5233 1f3e 5c81 22bd 55b3 973d 2a71 043e
000001a0: 60ca 333e b513 6e3e 6665 49bc 18f9 d93d
000001b0: 9305 cbbd 71c1 28be f306 73bd 3cd7 7d3e
000001c0: d046 44bd 7ed3 62be 424c 63bd 261e 683e
000001d0: 9ed7 733e 561d c03e b9fc ed3d 0003 01be
000001e0: 25a4 873e b07f f73d 54fc 153e 5d47 d8bd
000001f0: 0487 acbb acb9 a9bd ff68 b43e 6465 773e
00000200: e891 c6bd 65f8 3abe 949e 0dbe a884 973d
00000210: e864 cdbd acd4 693e 8e57 993d e8de 6cbe
00000220: 0863 253d 47b2 07be 2e24 b6bd f464 293e
00000230: 4357 e93d 3139 a13d 85d9 153e 7f79 19be
00000240: 94fa 8abd b0f5 323d 6b8c 573e 0c67 5cbe
00000250: 68cf 65be a8c7 203e 322f 243e fad4 1bbe
00000260: 2517 373e a029 40bc 4055 ffbd fc25 7fbe
00000270: 8ab2 783e d9e6 513e 11e4 98bd 5754 b63d
00000280: b994 f63d b9e0 9f3e 4064 cebd 384b c5bd
00000290: 404d ab3c 789a 67bd 75d1 02be e03b 3a3e
000002a0: 7c71 593e bdae 803e 2137 40be a07c 78bc
000002b0: 88ce 003e 4036 1c3e 2dba 7e3e ab55 553e
000002c0: c469 ff3d f846 44bd 3e9d f13d 5809 4c3d
000002d0: 0d2f 8e3b df11 4b3e ae10 ee3d 8cff e03d
000002e0: c36d 40be 081f 2dbe e05e dfbd 002c 78bd
000002f0: 8073 bbbc 0d50 363e fa5f e2bd f152 1b3d
00000300: b6d3 09be 5fd9 60bd 7054 1f3d c8c4 eebd
00000310: 04cf 343e 9094 dd3c ad4e f1bd d84e e13d
00000320: 9069 5abe 0966 4a3e fbf4 f33c e085 76bc
00000330: e072 85bc 8285 6b3e db6c 34be cb32 2bbe
00000340: d092 b9bc 827f 603e cc7a 523c 0cff 3dbe
00000350: d854 87bc 55ee 5b3e d262 f13c b467 50be
00000360: f857 2fbe 9018 e13c 2250 043e 1612 2ebe
00000370: 8866 e4bd ee89 babd 21df b1bd d09d 683e
00000380: 3322 fb3d ac4e 40be 00c4 80bc 0ee2 323e
00000390: 30b0 0cbe 1aa9 0b3e c5bc 513d 602d 703d
000003a0: dcfb c4bd 14e1 31be 2b37 1e3c 5048 3cbd
000003b0: 0da1 453e 9769 87bd 094d 55be b19c 14be
000003c0: 5efb 7b3e 8c3d 02be e559 2e3e 4474 d23d
000003d0: f240 6a3e 16bf 1cbc e5d3 cb3d 8006 0d3b
000003e0: 9f51 803e 4214 74be 8089 fc3b 62c7 3cbe
000003f0: 0bc1 4ebe a9fd 0c3e ec86 19be 4245 29bc
-0.0012168975 -0.18332916 -0.18959984 -0.22331306 -0.18142062 -0.077583954 0.12452902 0.0307298
0.02818206 -0.041544884 0.15772222 -0.132316 0.12375191 0.17910951 0.052065603 -0.0077327667
-0.05207303 -0.034841776 -0.19004881 0.23019847 0.22734445 0.19243532 -0.08789218 -0.08244714
0.1198014 0.11837074 0.06617612 -0.038843464 -0.14836186 -0.23673995 0.06082985 0.0858821
-0.15653732 -0.19202982 -0.19469479 -0.20989916 -0.11550024 -0.06221753 -0.024176106 0.09806037
-0.07085973 0.20063311 0.30285013 -0.18013975 0.24507944 0.078900844 0.08879222 0.038076375
-0.040660948 0.1300183 -0.09789186 0.13852328 -0.094902985 0.26944914 -0.070018254 0.10712808
0.30401114 0.24980885 0.17954433 0.08054561 -0.08836749 0.10144412 0.22551091 -0.10429999
0.20906867 -0.15201162 0.24883276 -0.08357838 0.15887576 0.22462128 -0.0038622655 0.24311367
-0.13596949 -0.24913582 -0.14375833 -0.07994598 -0.15976988 -0.038854204 -0.06303982 -0.21173348
-0.108743995 0.2059944 -0.12348784 -0.1406317 0.04019246 -0.13131148 0.048471585 -0.14717391
-0.11036607 0.24919018 -0.05432281 0.15787792 -0.11292688 -0.012475703 0.21535498 0.1485588
0.1940971 -0.14784147 -0.064327925 0.23847556 0.15546921 -0.039674148 0.07407252 0.12933794
0.17557669 0.23249705 -0.012292242 0.10643214 -0.099131726 -0.16480042 -0.0593328 0.24789137
-0.047919095 -0.2215099 -0.055492647 0.2266775 0.2381272 0.37522382 0.11620469 -0.125988
0.2649242 0.12084901 0.14647037 -0.105604865 -0.0052651186 -0.08287367 0.35236356 0.24159771
-0.09695798 -0.18258817 -0.13830024 0.07398349 -0.10029012 0.22835034 0.07487403 -0.23131907
0.040377647 -0.13251601 -0.088936195 0.16542417 0.11393597 0.078722365 0.14633758 -0.14987753
-0.06786075 0.043691337 0.21049659 -0.21523684 -0.224424 0.15701163 0.16033629 -0.15217963
0.17879923 -0.011728674 -0.12467432 -0.24916834 0.24286857 0.20498218 -0.07465375 0.08902805
0.12040085 0.31226137 -0.10077715 -0.096334875 0.02091086 -0.056543797 -0.12775214 0.18186903
0.21234697 0.25133315 -0.1877103 -0.015166432 0.12578785 0.1525507 0.24875708 0.20833461
0.12471345 -0.047919244 0.1179757 0.0498136 0.004339105 0.19831036 0.11624275 0.10986242
-0.18791871 -0.16906369 -0.10906768 -0.060588837 -0.022882223 0.17803974 -0.11053462 0.037920896
-0.13459668 -0.0548948 0.038898885 -0.11658627 0.17657095 0.02704838 -0.11782584 0.110013664
-0.21329331 0.19765486 0.029779902 -0.015046567 -0.016290128 0.23000148 -0.1761965 -0.16718595
-0.022653013 0.2192364 0.01284666 -0.18554324 -0.016519949 0.21477635 0.029466067 -0.2035206
-0.17123401 0.027477533 0.12921193 -0.16999087 -0.11152369 -0.09108339 -0.086851366 0.2271645
0.12262382 -0.18780011 -0.01571846 0.17469046 -0.13739085 0.13638726 0.051205415 0.058637023
-0.09618351 -0.17371017 0.009656708 -0.0459674 0.19299717 -0.066119365 -0.20830168 -0.14512898
0.24607608 -0.12718791 0.1702648 0.10276082 0.22876337 -0.009567043 0.09952525 0.0021518767
0.25062272 -0.23835853 0.007706821 -0.18435434 -0.20190828 0.13768639 -0.14992875 -0.010331454

lstm1_1.weight_hh_l0_reverse f4 [64, 16]
00000000: f25a 6dbe 9900 07bd 7bd3 6cbe e89e 153e
00000010: 2c75 913c d35f 823e f934 b53d 269a d83c
00000020: 7ab1 1bbe c568 843e 3e6c 8bbc ae9e 593b
00000030: 1a1f 413d b386 47be 1424 4c3e 8872 853d
00000040: 5ccf 83be fedf 9e3d 5cf8 d03d 6484 ac3c
00000050: 323f 2ebe 11bf 703d 0a52 89be 94b1 2b3e
00000060: c2fa 8c3d cbbd 163d cf40 8a3d 6242 f63b
00000070: 9d6a a23d ca82 b8bd df43 2b3e d75e 9cbc
00000080: f57f 3a3e bcbd d9bd 7466 993c d791 4b3d
00000090: a8de 583e 24df b63d d2ca 80be f84e f23d
000000a0: 6bf1 e6bd f644 64be ab74 cf3b ad0f 6d3e
000000b0: 0669 81be d315 97be 7e7b f9bd 8e97 ff3c
000000c0: 2058 44bd 453d 5f3e 4581 e23d aad1 abbd
000000d0: d14b 99bb 1d2d 103e 7a84 72be 7657 4dbe
000000e0: d74d 3c3c f838 f73c 8dde 06be 12d3 373e
000000f0: 811c c5bd 9f04 20bc d73a f43c d03c aebb
00000100: 3b44 7b3e dbd7 3c3e fac4 c0bd 272b 863d
00000110: f424 2ebd b44e 03be f17b 71bd a731 8ebd
00000120: bfc2 453e c6b8 b73c 8de9 c23c 544f 743e
00000130: 004e 243d 8f14 60bc 5182 e03d 4167 62bc
00000140: be28 e7bd bcc3 f6bc 1173 893b 2bb8 a0be
00000150: 8367 2f3e b5b6 af3e 6e3c 943d 3677 3b3e
00000160: 6780 1f3d ce87 5cbd 6604 463e 23ab c93d
00000170: 2449 823e 9bcf 87bc 8dda 40bd 3d9a b6bd
00000180: 500e 26be 83c7 7a3e 7c82 843d dd01 193d
00000190: b53a 46bd 1751 833e 5d3e 88bd 37ea 213d
000001a0: 74b1 8f3e bea6 263d f6c4 24be 6017 c73c
000001b0: 1245 313e 3601 3fbd dc97 0e3c 4ea9 73be
000001c0: 628e 3c3e d434 3b3d 3083 c2bd d241 5c3e
000001d0: 52df 083e 27cc abbd c82a 66be b12b d53d
000001e0: 0783 9ebd c1d6 303e ffb3 b2bd 6625 c9bd
000001f0: 378c b73c ffb5 773e 69e1 833a 3569 133e
00000200: c965 31bc f0c2 13be 0c3b eb3d a325 403e
00000210: 16a2 b2bc c8f9 58be ba5d cb3c 520f d6bd
00000220: 0540 8f3c 1fae ba3e 54b8 2bbe 5e42 8d3e
00000230: 3a14 993e 14ed 5a3e 6192 143e 32cb 833d
00000240: 6628 05be aa7d afbc dba8 843c 23cc 6c3e
00000250: 902e ab3d 2c5d 3b3e ed77 08be 91cd 21bc
00000260: c96e 02be 1512 20be 1676 593e d9dd 1ebe
00000270: 2937 023e 9842 80bd ff15 353e aba3 ed3d
00000280: 367d 4bbd e016 803e ff02 acbc bd11 833e
00000290: 0779 febd 75c3 d1bd 4cee debc 78a1 953c
000002a0: d669 6a3e 62a5 bc3d 982f f33c 1b49 843c
000002b0: 2dc9 2b3b 1ea4 4e3e 0d67 513e c773 45be
000002c0: 8f27 c4bd 126b 6a3e 6708 c1bd ddcd 123e
000002d0: bbf8 703d fa2d 8dbc 36d4 103e 15ec 1cbd
000002e0: bfab 87bd 8aa5 30be 4d8b 5e3d 3a89 be3d
000002f0: 6b99 903d b300 293e 2f74 20be da44 74be
00000300: c41d 3b3c fa8b 43be 5312 223e 44a0 1e3e
00000310: 34e7 3d3e 18c0 633e 17cd f9bd a877 5ebe
00000320: 0cad 073e 9a71 c33d 95ad 87bc 464a 5fbb
00000330: fd6e 8a3e f985 a53c 4424 71be 838a 223e
00000340: cbfd 0b3e d13c ccbd 8d18 08be 0529 64be
00000350: b3e2 83be 51a8 dc3e 8d7b 40be 0bb6 9abd
00000360: 17ed d33d e6a4 703e fb90 4dbe b878 ef3c
00000370: 305c 683e 559b 573e 9181 84be 1d5a 943e
00000380: 784e 173e 094b b9bd 7af4 673c f7a9 663e
00000390: 9331 68be 8bf9 f33c f18e c0bd ebfb e6bd
000003a0: 15ee 193e e824 8ebc 7fb5 823e ff5f c73d
000003b0: 827f f2bd 090d 92bd 015d 4fbe c9a4 0e3d
000003c0: 3e17 353e 2bc8 6abe 6bdb 1fbe 3461 2b3e
000003d0: 2730 8a3c 871d f1bd 8873 4cbe a571 00bd
000003e0: ea34 103e 6b9e b7bd 8b54 3f3e ec4b 893d
000003f0: 41e3 40be f96b 8f3e adc9 55bd 067f cf3d
-0.23179224 -0.032959554 -0.23127548 0.14611399 0.017756067 0.25463733 0.08847994 0.026440691
-0.1520442 0.25861183 -0.017019387 0.0033206153 0.0471488 -0.19484977 0.19935638 0.06515986
-0.2574414 0.07757567 0.10203621 0.021059223 -0.17016295 0.058775965 -0.26820403 0.1676696
0.06883766 0.036802094 0.067506425 0.0075152377 0.07930491 -0.09009321 0.1672511 -0.019088192
0.18212874 -0.10631892 0.018725611 0.04969963 0.21178687 0.089292794 -0.2515474 0.11831468
-0.112765156 -0.22291932 0.0063310466 0.23150511 -0.2527544 -0.29508838 -0.121817574 0.031200197
-0.047935605 0.21800716 0.110598125 -0.083895996 -0.0046782275 0.1407971 -0.23683348 -0.20052895
0.011493168 0.030178532 -0.13170834 0.1795161 -0.09624577 -0.009766727 0.029813213 -0.005317308
0.24537747 0.18441717 -0.0941257 0.065511994 -0.04251571 -0.12822992 -0.05895609 -0.06943064
0.19312571 0.022426974 0.023793006 0.23858386 0.04011345 -0.013676777 0.10962356 -0.013818563
-0.11287068 -0.03012263 0.004194625 -0.3139051 0.1712933 0.34319082 0.072380885 0.18307194
0.038940813 -0.05384045 0.19337615 0.09847095 0.25446427 -0.016578486 -0.047083426 -0.08916137
-0.16216397 0.2449017 0.064702004 0.037355293 -0.04839583 0.25647804 -0.0665252 0.039530005
0.28065073 0.04068636 -0.1609076 0.024303138 0.17311504 -0.046632014 0.008703198 -0.23795053
0.1841369 0.045704678 -0.09497678 0.21509483 0.1336644 -0.08388548 -0.22477257 0.10408724
-0.07739835 0.17269422 -0.08725738 -0.09821586 0.022405727 0.2419052 0.0010061684 0.14395602
-0.01082749 -0.14429832 0.11485872 0.18764357 -0.021805804 -0.21189034 0.024824966 -0.10452141
0.017486582 0.3646097 -0.16769534 0.27589697 0.29898244 0.213795 0.14508964 0.06435241
-0.13003692 -0.021422226 0.016193798 0.23124747 0.083584905 0.18297261 -0.13326998 -0.009875671
-0.12737574 -0.15631898 0.21236452 -0.15514316 0.12716354 -0.06262702 0.17684172 0.11603483
-0.049679957 0.25017452 -0.020997522 0.2559947 -0.12425428 -0.102423586 -0.027213238 0.01826547
0.22891936 0.09211232 0.02968578 0.01614814 0.002621244 0.20179793 0.20449467 -0.19282447
-0.09577858 0.22892407 -0.09425431 0.14336343 0.058830958 -0.017233837 0.14143452 -0.038311083
-0.06624555 -0.17250648 0.054332066 0.09303518 0.07060512 0.16504173 -0.1566932 -0.2385439
0.011420671 -0.19096366 0.15827303 0.15490824 0.18545228 0.22241247 -0.12197321 -0.21725333
0.13249606 0.09543152 -0.016562263 -0.003407137 0.27037802 0.020205485 -0.2354899 0.1587315
0.13671033 -0.09972537 -0.13290615 -0.22281273 -0.25758895 0.43097165 -0.18797131 -0.07554253
0.10347956 0.23500404 -0.20074837 0.029232368 0.22691417 0.21055348 -0.258801 0.28975
0.14776027 -0.09047515 0.014157409 0.22525774 -0.22675161 0.029782077 -0.09402264 -0.11278518
0.15032227 -0.017351583 0.25529096 0.09735107 -0.118407264 -0.071313925 -0.20250322 0.03482512
0.17684647 -0.2292792 -0.15611045 0.16736299 0.016868664 -0.1177321 -0.19965947 -0.03135838
0.14082685 -0.08965763 0.18684594 0.06703934 -0.1883669 0.28012064 -0.052194286 0.1013165

lstm1_1.bias_ih_l0_reverse f4 [64]
00000000: 4bad dfbd 378b ccbd 1a5c 8cbb 181a 6d3e
00000010: 37db a5bd 8a94 1bbe 6d70 183e 941f 4fbe
00000020: d48d 053e 20b2 163d de07 16be 0878 68bc
00000030: 1d5b e33d 5fc8 9f3e eba9 c63d 6894 06be
00000040: dbf8 33bc ffab 1e3e 799c 53be d3ae 773e
00000050: db8d 6dbe 1436 08be 5f20 273e a27f 18be
00000060: 040e 2ebb 7afd 4b3d 59a6 28bd aa97 c4bd
00000070: d5cb dabc 8050 833d b7fa 91bd 49e3 583d
00000080: 54cb 10be b26d 45bd b9a8 d43d 0711 04be
00000090: 901e 82be 2060 3e3e 0542 e3bc 773c 143e
000000a0: 8a58 0a3a b7bd bd3c cca9 e13d cd45 3fbe
000000b0: 10ed 943d fd59 b7bc 0215 ecbd 8811 013e
000000c0: 2e92 b33d 0f16 5e3b b1df 7c3e e8a3 02be
000000d0: 847d 83be f07b 2ebd 0ae6 af3c ecb7 c5bc
000000e0: 0b84 723e e9dc 3b3d 4063 ac3d 3679 7abd
000000f0: 1809 8ebd 8ae8 5b3e d98d 263d ba16 543e
-0.10921725 -0.099874906 -0.0042834403 0.23154485 -0.080984525 -0.15193382 0.14886637 -0.2022689
0.13042384 0.036790967 -0.14651439 -0.014188774 0.11101363 0.3120756 0.09700378 -0.1314255
-0.010984625 0.15495299 -0.20665158 0.24187784 -0.23198645 -0.13301879 0.16320942 -0.14892438
-0.0026558647 0.04980228 -0.041174266 -0.0959924 -0.026708523 0.064118385 -0.07127898 0.05295113
-0.14140064 -0.048200317 0.10383744 -0.1289712 -0.25413942 0.18591356 -0.027741442 0.1447619
0.00052774756 0.023161752 0.11018714 -0.1867897 0.072717786 -0.022381777 -0.115274444 0.12604344
0.08768116 0.003388766 0.24694706 -0.12757838 -0.25681698 -0.042598665 0.021471996 -0.024135552
0.23683183 0.045864973 0.08417368 -0.061150752 -0.06935328 0.21475425 0.04066262 0.20711794

lstm1_1.bias_hh_l0_reverse f4 [64]
00000000: 5189 46be 9dd5 2f3d 6b50 493e 50cd 45bd
00000010: 1a78 7abe f807 943e 7b7b 48be 7c8d 32bd
00000020: fe53 6abc 210c 15be 50da 413e 52ad 573e
00000030: 0e05 353e be0f 6c3e 73db a23d 4299 483e
00000040: 174c 2dbe 1c7b cbbd 5292 ef3b b1cc 0dbe
00000050: 47ac 14bd 3660 ae3e d2b1 c13d f8cf 62bd
00000060: f539 b83c ac7e 04be d4c2 12be b588 9f3d
00000070: 30c5 be3d 4e24 7ebd 2a08 2dbe 50b2 5dbd
00000080: f21f 41be bdcc 263e ebb0 033e e826 8fbe
00000090: 5223 613e b422 393e 36a2 e13d 6377 4cbd
000000a0: a293 5e3e 2b24 37bd a52f 3abe 4e33 773e
000000b0: 4cec 083e 8aed 37bd b615 47be 5a9f 173e
000000c0: 7aff dabd 1a95 573e a8ea a6bc 0126 a73d
000000d0: e509 82be 44d5 123e d8ef 7d3e 77e1 02bd
000000e0: 991f 713e cc55 573e b0a4 af3d 4cae 0dbe
000000f0: d89b f63d c864 063e e713 bdbd 2a71 68be
-0.1938832 0.042928327 0.19659583 -0.048291504 -0.24459878 0.2891233 -0.19578354 -0.04359196
-0.014302252 -0.14555408 0.18930936 0.2106221 0.1767771 0.2305288 0.07952013 0.19589713
-0.16923557 -0.099355906 0.007311144 -0.13847615 -0.03629711 0.34057778 0.09457745 -0.055374116
0.022488574 -0.12938946 -0.14332134 0.07789747 0.09314954 -0.06204634 -0.16897646 -0.05412513
-0.18859842 0.16289039 0.12860458 -0.2795937 0.2198613 0.18079644 0.110172674 -0.049918544
0.21736005 -0.044712227 -0.18182237 0.24140665 0.1337139 -0.04490427 -0.19441876 0.14806882
-0.106932595 0.21052971 -0.020375565 0.081615455 -0.25398174 0.14339167 0.24798524 -0.0319533
0.2354721 0.21028823 0.085763335 -0.1383602 0.120414436 0.13124382 -0.09232312 -0.22699419

lstm1_2.0.weight f4 [32, 32]
00000000: e17e 9fbd c8a1 d23d 7a03 9f3d a535 423e
00000010: 60f5 263d 164e b3bd 3112 1bbe 44c7 f53d
00000020: d65e 513e 7fbd ec3c ce2a ecbd ee3d 24be
00000030: 72dd 2d3e 5217 18be 2c51 89bd 81f5 cbbd
00000040: 8d66 90bc dbf5 45bd e42e 2dbc d639 2d3c
00000050: 67fc fcbd e07c bd3b 7a56 eb3d f57f a83d
00000060: 655a 013e bf20 fc3d 53bc 3dbd 4d68 e8bd
00000070: e56c b9bd d42e ac3d 9394 e23c dc99 3e3d
00000080: a1ad b93d bed3 9abd 4201 873d 38a7 9a3c
00000090: c5d3 9d3d 7a25 f6bd 9a61 1cbe 28b6 20be
000000a0: 21e7 113e 3c85 a23d 39f1 1dbe 8acd 0abe
000000b0: 5dc0 1aba 9e4f 933d 6f9c c4bc 8bb6 2dbe
000000c0: 97ea ffbd d45b c73d e9f4 08be a191 203e
000000d0: bb43 0abc 089e c73c b0e3 4a3d 842a f43c
000000e0: c576 0bbd 86fd 6bbc 264f 033b 1c10 e3bd
000000f0: 89a0 34be 5c9c 23be 9dc3 55bc b275 273e
00000100: 6bdf edbc 386f d8bd a0b3 2fbe c3b6 2ebe
00000110: 3836 dcbc 9fb9 0cbe af38 0abc 27c8 46bd
00000120: ff53 a73d f6fc ae3d f7ba 24be 927c b33d
00000130: 83d7 ccbd 15d4 e0bd 48d0 8a3d d832 d33c
00000140: c542 debd 7729 143e 3fc0 a83c bd73 22be
00000150: 6455 2e3e f835 6ebd 359e 50bd d69f 053d
00000160: 9b13 d1bc 1e88 0bbe aaf6 f13d 0c20 f5bd
00000170: 9d7a 113e 053d 223e 5beb bb3d 062b ddbd
00000180: beac 103e 7276 22bd a5f3 3c3c 2f07 863d
00000190: 8deb 163e f241 193e 3a5e 123e 642e de3d
000001a0: 5828 8f3c ab06 983d 2cdb eb3d 904e ddbb
000001b0: 597a 2cbd 9c87 1abc 1164 3dbd c036 003e
000001c0: 97c0 33be 995e cf3d a3cd a73d f7bc 0bbe
000001d0: 600b a6bd 0a8a c0bc 08f8 a83d ac6b cb3d
000001e0: 10ed 933d c627 a93d 67cf a23c 8776 963d
000001f0: ef73 0d3e 97b4 123e e676 d2bd bae4 573d
00000200: 9740 0f3e cf03 0ebd 77d4 92bd feca 27be
00000210: 5ac3 f93d 57f8 87bd 77ae af3d 4fce 9ebd
00000220: 19b9 023d 51bf ecbd 1fc1 133e 1e34 a53d
00000230: e08d c9bd 3373 05be 4307 a83d baaf 0dbc
00000240: f436 873b d8ea 033e 2e70 ad3d ea96 d8bd
00000250: 044e 39bd b822 89bc 159f 13be fe8c 7fbd
00000260: e581 ba3d 838a 1abd 1a81 62bd c5d0 66bc
00000270: f182 d73c 0357 43be f9bb 003e 2058 0cbe
00000280: 6f23 973d 9918 c53d 5d77 483e 5f53 02be
00000290: 9ef4 4fbd 3732 b13c cf47 0c3d 0dce 60bd
000002a0: 0b6c df3c fc9a ccbd fab8 d63a 9e1a 78bd
000002b0: 19cb 983d 605e bfbd b2e8 193e 753a d43d
000002c0: 563b 09be ece8 9f3d f931 1cbd d988 053e
000002d0: 0958 223e 2fdb 04be bc6c 903d 9d9f bf3c
000002e0: d880 d1bd b0ae 21be ef74 0abd 6fcd 5bbd
000002f0: b95f 00be 0f44 af3d 1bf9 723d 91d0 0bbe
00000300: 8a99 1ebe 488c c8bd c95d b2bd feb5 4a3d
00000310: de48 7e3c 8420 e3bd c146 a0bb 30f5 a23d
00000320: e587 c23d 7a4b 8838 bc36 74bd 20fa 1a3d
00000330: 3271 b03d e120 19be 4b3c dfbd b2bb bdbb
00000340: a315 73bb 3379 c63d fc3b 913c d51f b7bd
00000350: 5987 f8ba 76d9 1fbd b249 acbc d176 0bbd
00000360: 542f 103c 3a96 11bd 43e5 23bd 3b09 31be
00000370: 0d83 99bd 3eff 5f3d 7201 0d3d 9746 97bd
00000380: fc8c d83d ff08 17bd 022a bd3d d443 033e
00000390: 08cd 1ebe aa91 4ebd 0027 8f3c 6511 ef3d
000003a0: 2e8d e13d 7307 1bbd fc07 f73d e5b0 d5bd
000003b0: a173 e2bd dc9e c53d cfea 34bd f212 11be
000003c0: c4e3 33be 2687 673d 55fb f83d b6e8 2c3e
000003d0: dbba 82bd ea00 15be ca32 443d 18d8 ba3d
000003e0: d9b8 e6bd e401 f83d 4cd2 a03d f81a ddbc
000003f0: 7253 b83c 93d3 3abd 80cc fa3d 7a24 1e3e
-0.07787872 0.102847636 0.07764335 0.18965776 0.04076135 -0.08755128 -0.15143658 0.120008975
0.20446333 0.028898953 -0.11531602 -0.1603925 0.16979006 -0.14852646 -0.067049354 -0.099589355
-0.017627025 -0.04833017 -0.010570262 0.010572871 -0.123528294 0.0057827085 0.114911035 0.08227531
0.12632139 0.12310933 -0.046322178 -0.11348019 -0.09053973 0.08407369 0.027658736 0.04653345
0.0906632 -0.07559918 0.06592037 0.018878564 0.077064075 -0.12018867 -0.15271607 -0.15694487
0.14248325 0.07935569 -0.1542405 -0.1355497 -0.0005903298 0.0719292 -0.024000375 -0.16964166
-0.12495916 0.09734312 -0.13374676 0.15680553 -0.008439 0.024367347 0.049533546 0.02980543
-0.034048814 -0.014403706 0.002003619 -0.11087057 -0.17639364 -0.15977615 -0.013047126 0.16353491
-0.029037198 -0.10568088 -0.17158365 -0.17061906 -0.026881322 -0.13742684 -0.008436366 -0.048530724
0.08170318 0.08544342 -0.16086946 0.08763994 -0.10002043 -0.109779514 0.06778008 0.02578108
-0.10852579 0.14468943 0.020599483 -0.15864463 0.17024761 -0.058156937 -0.050932128 0.032623135
-0.025522044 -0.13626143 0.118146256 -0.11969003 0.1420693 0.1584359 0.0917575 -0.10799222
0.14128396 -0.03966374 0.011532699 0.06544339 0.14738293 0.14966562 0.14293757 0.10848692
0.017475292 0.07423147 0.11516413 -0.00675375 -0.042108867 -0.009431746 -0.04623801 0.12520885
-0.17553936 0.10125465 0.08193519 -0.13646303 -0.08107638 -0.023503322 0.08250433 0.09932646
0.072229505 0.08259539 0.019874288 0.07346826 0.13813756 0.14326702 -0.10276584 0.052708365
0.13989483 -0.0346716 -0.07169431 -0.16386029 0.121954635 -0.06639164 0.085781984 -0.07754194
0.031914804 -0.11559928 0.14429139 0.08066581 -0.09841514 -0.13032226 0.0820451 -0.0086478535
0.004126424 0.12882555 0.08468662 -0.105756596 -0.045240417 -0.016740188 -0.14416154 -0.06239032
0.09106807 -0.03772975 -0.055298902 -0.0140878605 0.026307555 -0.19076161 0.12571706 -0.13705492
0.07379805 0.09623832 0.19576783 -0.12727116 -0.050770395 0.02163039 0.03424817 -0.054884005
0.027273199 -0.099904984 0.0016382032 -0.06057226 0.07460613 -0.093441725 0.15030172 0.10362712
-0.13401541 0.07808098 -0.038133595 0.13040484 0.15853895 -0.12974237 0.070519894 0.02339154
-0.10229653 -0.15789294 -0.033802923 -0.053662714 -0.12536515 0.08557903 0.059319597 -0.1365378
-0.15488258 -0.097923815 -0.08709294 0.049489968 0.015520303 -0.11090186 -0.004891247 0.07956922
0.09498576 6.499044e-05 -0.05962251 0.037836194 0.0861534 -0.14953949 -0.10900172 -0.0057901973
-0.0037091754 0.09691086 0.017728798 -0.08941618 -0.0018961235 -0.039025746 -0.021031234 -0.03404886
0.008800346 -0.035543658 -0.040013563 -0.17288677 -0.07495699 0.054686777 0.034425206 -0.07386511
0.10573766 -0.036873814 0.09236528 0.12818843 -0.155079 -0.050431885 0.017474651 0.116732396
0.11013256 -0.0378489 0.1206207 -0.104341306 -0.11057211 0.09649441 -0.044169243 -0.14167383
-0.17567354 0.056525372 0.12157313 0.16885647 -0.06383296 -0.1455113 0.0479 0.09123248
-0.11265726 0.121097356 0.07852611 -0.026990399 0.022500727 -0.04561193 0.122460365 0.15443602

lstm1_2.0.bias f4 [32]
00000000: 17ff dcbd 683f b7bd f17f 87bd fd8f fe3d
00000010: db47 953d 978b 1b3e 7c15 0ebe f02f c0bd
00000020: 1d33 ebbd 9641 16be 9ab2 67bd 80fa 2ebe
00000030: 2a71 d73c 25c0 623e fdd4 f13d 60a9 95bd
00000040: d129 23be ff9b f1bc 551d 113e 8932 3bbd
00000050: 478d 59bd bb75 c8bd 5b55 733c ebee b0bd
00000060: 8592 c5bd 0f86 c43c 0ccd adbd 13f5 1d3e
00000070: 9f9d 393e 673b 51bd bb16 24bd db06 f2bd
-0.10790842 -0.08947641 -0.066162 0.12429807 0.07289096 0.15189968 -0.13875383 -0.09384143
-0.114843585 -0.14673457 -0.056566812 -0.17087746 0.026299078 0.2214361 0.118082024 -0.07307696
-0.1593392 -0.02949333 0.14171346 -0.04570249 -0.05311325 -0.0978808 0.014851893 -0.0863932
-0.09647087 0.023989705 -0.08486375 0.1542552 0.18126534 -0.05108204 -0.04006074 -0.11817714
