results/voltage_window_effect/V(3.5-3.65)/pre_trained_model.pth (torch, 95584 bytes, 27 tensors)

cnn1.0.weight f4 [16, 1, 3]
00000000: cd8a 35be cab9 ca3e b49f c2be 318d 76be
00000010: b8fa 873e fdb0 8fbe 1405 c5be b848 4e3e
00000020: 616e b4bd 04dc 013f 8531 053f 2ee9 9dbd
00000030: 0f5f 883e 81fa c93e d657 e03e 4f17 f43e
00000040: f36a 0c3f cfdf cebd 672d 063e 6167 d8be
00000050: dd4c b83e ef55 01bf 0108 0cbe e945 45be
00000060: 8b10 973d d472 d43c f228 bebd 0974 0fbf
00000070: 4fc4 dabe 8dbd c03e 161a 0b3e c1e3 f03e
00000080: fe7c d7be 54b0 f0be 56b3 5a3e eb05 233f
00000090: d281 223e 99c7 a2be a6e3 0cbf 7199 07bf
000000a0: f767 1d3e 0e3b a7bd 6c1f 8a3e ca94 1cbf
000000b0: c6fb 443d 42d4 0c3f ce90 113f 1659 13be
-0.1772873 0.3959487 -0.3801247 -0.24077298 0.2655847 -0.2806472 -0.38480437 0.20144928
-0.088101156 0.5072634 0.52028686 -0.07710491 0.26635024 0.39448932 0.43817014 0.47674033
0.5485069 -0.10101282 0.13103257 -0.42266372 0.35996142 -0.5052175 -0.13674928 -0.1926495
0.07376202 0.02593366 -0.092851534 -0.5603643 -0.42727897 0.37644616 0.1358417 0.47048762
-0.4208755 -0.47009528 0.21357474 0.63680905 0.15869835 -0.31792906 -0.55034864 -0.5296851
0.1537169 -0.08165561 0.26977098 -0.61164534 0.048091672 0.5501138 0.5686158 -0.14389452

cnn1.0.bias f4 [16]
00000000: 9931 ffbe 4048 fdbe 1bf5 123f 86a1 6f3d
00000010: e3da 0ebe 704b 45be 26d0 aebd 8691 12be
00000020: 6686 8fbe 97bf 7c3e 77e6 783e a3e4 eb3e
00000030: 9a32 b23e dd7a 033f b0c3 153f cc11 e3bd
-0.49842528 -0.49469185 0.5740525 0.05850365 -0.13950686 -0.19267058 -0.08535795 -0.14313325
-0.28032225 0.2468246 0.24306665 0.46072873 0.3480423 0.5135935 0.5850172 -0.11087379

cnn2.0.weight f4 [32, 16, 3]
00000000: 0bc2 96bd 596b 953d a029 f23d b80a c2bd
00000010: d5a0 9b3d 54a9 50bd b3b5 0e3e d244 ad3d
00000020: 73f0 4d3c 713a 4d3d a840 433d 121a 0fbe
00000030: 72be bebd c82b 8cbd 7c6d ce3d 377b 12be
00000040: e5cc 24bd 143c 49bd 2edb 0f3e e59e 863d
00000050: ceaf a9bd 4467 0e3e e6dc 70bd f63c 0d3e
00000060: d88f 04be 7f40 123d b747 2e3d 7b67 59bd
00000070: eb58 52bd f829 66bd 2560 46bd 8ed6 adbd
00000080: b54d a53d a75c 883c 48e0 a4bd 94d0 f33d
00000090: 6c65 d5bd 27bb f0bd 7d11 933d 8627 e73d
000000a0: 5be9 943c b91b d7bd 4ff3 e6bd 16dc 043e
000000b0: 4c74 06be 13a4 613d 2d01 683c a39c 103e
000000c0: d034 92bd be0c b9bb 1d83 023d 0d0d d5bd
000000d0: 9870 d83c a74e a33d f5a0 19be afbb a53c
000000e0: 3bbb c1bd 6ee3 463d 0fee 993d f92b 9b3d
000000f0: d850 963d 73fe 95bd fb0f 56bd 2eb4 ac3d
00000100: b6ea 973d d4b7 023e aa2b a53c 6965 503d
00000110: 59c0 bdbd dd60 75bd 5a33 f43d 992c c53d
00000120: 13f7 383d 258d 1abd ad41 02bd c01a b4bd
00000130: 7ee4 91bd 82c1 ec3b 18f9 1b3d d69b 1b3d
00000140: 6927 023e e353 13be dc4e a5bd 3b17 0ebd
00000150: 6f62 0abe 2613 e13d dcc6 2e3d 0ab7 6a3d
00000160: 462d 683d ad7b 0c3e 0aaf cfbd 22fc 833d
00000170: 4136 19be 0351 9e3d b929 fabd c456 09bd
00000180: eba4 0fbe c15f 023b 27fe e5bd 9644 703d
00000190: a017 6d3d 8710 4cbd 51d7 fb3d 3084 af3d
000001a0: 8ebf 273d 3d5e bd3d 6082 b83d fd90 e03d
000001b0: b959 cd3d ef69 b43d 0501 40be 95a1 69bd
000001c0: 1f35 e53b ed87 d9bc f577 3ebd eee2 bcbd
000001d0: 79ce 703d 1e08 61bd 2744 c5bd c899 d53d
000001e0: fd59 8ebc f39d bdbd 30f9 863d fd93 203e
000001f0: f769 2d3d 6a98 7abc 9804 12be 1665 083e
00000200: 19e4 17bc 9133 dd3d 9be4 c73d 7519 02be
00000210: 7df2 ba3d 7872 a73d caf7 4e3d cd1d 1abd
00000220: 688d 883c 7310 1a3e 9145 66bd 3a6f 40bd
00000230: afdf 2ebd 465e e63d 5357 593d 2c1a eabd
00000240: b4a8 bf3c ca7d c8bd 3b26 c8bd c21c 0ebe
00000250: a536 dabd 6156 e93d 2e36 f9bd 0d75 0ebc
00000260: 3bfb fdbd 3ef2 57bd 052e c43d 09cd 01be
00000270: b2f1 d03d e529 8cbd 94b1 ef3c 4fa5 d3bd
00000280: 3bc2 1f3d 600b 6fbb 4914 e93d 439e c23d
00000290: 0263 42bd b936 7dbc 8fa5 dbbd 84e1 923d
000002a0: dd40 bebd 62f8 603d fd32 b5bd f23d 213d
000002b0: 7ec3 113e eccf cebd b72d b7bd df1b 93bc
000002c0: abf3 f03c 3adf 8bbc 56ac 48bd e5d9 963d
000002d0: 2f82 f23b 12f7 f1bd 122d e7bd d08f 093e
000002e0: 5252 05be 5783 12be fe96 d4bd 5c71 8dbd
000002f0: 03e4 42bb a343 45bd fc67 ecbc 6bfa d83d
00000300: 590b 47bd 5c8a bf3b 3d1e ca3d afb0 0a3e
00000310: 1a3b 11bd 1728 813c 06d1 3b3e 8e1d fc3c
00000320: 83d1 083e f70d 143d 6be4 22be 6a34 18be
00000330: b5f9 56be a81a 38be 81ce 19be 8dc6 ddbd
00000340: bf19 5f3d 3a46 19be 95d4 abbd 277b 5dbd
00000350: 09e5 62bc d513 043d 1824 57bd 1989 e9bd
00000360: 7e02 9c3d 9305 d7bd 1fe5 9abd cfaf 67bd
00000370: 9007 333e 3a26 603e 6b9b bcbd fac3 b5bc
00000380: 44f3 dd3d 4bde 373e 26d1 743c 96a4 c73d
00000390: 34a0 df3d 7428 193e a6e2 2a3e 771a 0cbd
000003a0: 778d 043c ac12 fc3b 4939 37bd e9ad 143d
000003b0: 59bb 3f3e 4f63 f0bc 3d05 52be 3f0f 6bbd
000003c0: cad1 b63d 6928 e9bd c1d5 d53d aab6 1dbd
000003d0: 4338 3cbd 4d1d ff3d 6890 e8bd 1b69 933d
000003e0: 7016 0f3d 3736 333e 6f12 933d 37e1 433e
000003f0: d80c 083e 3691 42bb 5cdc 433e cdf7 c2bc
-0.073612295 0.072958656 0.118243456 -0.09474701 0.07599036 -0.050942734 0.139365 0.08460392
0.012569535 0.050104562 0.047669083 -0.13974789 -0.09313668 -0.06844288 0.10079476 -0.14304815
-0.040234465 -0.04912956 0.14048454 0.065732755 -0.08285485 0.1390658 -0.058804415 0.13792786
-0.12945497 0.03570604 0.04254886 -0.053077202 -0.05135433 -0.05619237 -0.048431534 -0.08488189
0.08071462 0.016645743 -0.08050591 0.119050175 -0.10419735 -0.117544465 0.0718107 0.11286835
0.018177679 -0.105033346 -0.11276876 0.12974581 -0.13130301 0.055088114 0.014160437 0.14122252
-0.071389794 -0.005647271 0.03186332 -0.1040288 0.026420876 0.07973986 -0.15002806 0.020231096
-0.094595395 0.048556738 0.07516109 0.075767465 0.073396385 -0.07323923 -0.052261334 0.08432804
0.074178144 0.12765437 0.020162422 0.050877962 -0.09265203 -0.05990683 0.11923857 0.09627647
0.045157503 -0.037732262 -0.031800915 -0.08794165 -0.071236596 0.0072252164 0.03807935 0.037990414
0.12710346 -0.14387469 -0.08071682 -0.034690123 -0.13514112 0.109899804 0.042670116 0.057303466
0.0566838 0.13719054 -0.10140808 0.06444575 -0.14962102 0.077302955 -0.12214989 -0.03353001
-0.14027755 0.00198935 -0.11230116 0.05865916 0.05788386 -0.04982045 0.12296928 0.08570135
0.040954165 0.0924649 0.09009242 0.10965154 0.10026879 0.08809268 -0.18750389 -0.057038862
0.006994858 -0.026554072 -0.04650112 -0.09222971 0.058790658 -0.05493938 -0.0963214 0.10429722
-0.017376894 -0.09258642 0.065904975 0.15681453 0.042337384 -0.015295127 -0.14259565 0.13319811
-0.009270691 0.10800851 0.097604 -0.12705024 0.09128282 0.0817613 0.05052928 -0.037626076
0.01666899 0.15045337 -0.056218687 -0.046981074 -0.04269379 0.1124845 0.053061794 -0.11430773
0.023395874 -0.09789617 -0.09772917 -0.13878158 -0.10654954 0.113934286 -0.12168537 -0.008694899
-0.12401434 -0.052721255 0.0957909 -0.12675871 0.1020235 -0.06843928 0.02925948 -0.103342645
0.039003592 -0.0036475286 0.11380822 0.09502842 -0.047457702 -0.015454941 -0.10724937 0.0717192
-0.092897154 0.054924376 -0.08847616 0.039365716 0.1423473 -0.10098252 -0.08944266 -0.017957626
0.029413065 -0.017074216 -0.048992477 0.07365779 0.007400773 -0.11814703 -0.11287893 0.13433766
-0.13019684 -0.14307915 -0.10380362 -0.06906387 -0.0029737956 -0.048160207 -0.028858177 0.105946384
-0.048594806 0.005845351 0.09869049 0.13543962 -0.035456754 0.015766187 0.18341455 0.030775812
0.13361172 0.03614613 -0.15907447 -0.14863744 -0.20993693 -0.17978919 -0.15020181 -0.10828886
0.054467913 -0.14968196 -0.08390156 -0.054072525 -0.013848552 0.032245476 -0.052524656 -0.114031024
0.07617663 -0.1049911 -0.07563233 -0.05656415 0.17483354 0.21889582 -0.09209331 -0.022188175
0.10837415 0.17955892 0.014942443 0.09748189 0.10919228 0.14956838 0.16688022 -0.034204926
0.0080903685 0.0076926555 -0.044732366 0.036298666 0.18723811 -0.029344229 -0.20509811 -0.057387587
0.08926733 -0.11384661 0.10441161 -0.03850428 -0.045952093 0.124567606 -0.11355668 0.07197782
0.034933507 0.1750115 0.0718125 0.19128881 0.1328615 -0.0029688603 0.19127029 -0.023799801

cnn2.0.bias f4 [32]
00000000: 1860 f2bd 58f3 7cbd d35c ce3d 34c9 9fbd
00000010: 6e35 b43d 11b8 7a3d 6317 f6bd dfb2 0bbe
00000020: 45a4 993d 9ca9 eb3c 3525 0f3d d939 c13d
00000030: fa9c 6e3d 892b 0ebe df03 043e 1627 fcbd
00000040: 7494 f23d b171 6b3d 3fb3 ea3d 7a91 5ebd
00000050: 2634 c43d 6069 5bbd 8de9 43bb 3678 00be
00000060: b036 713d 128b ecbd 4e8c 9e3d f149 e0bd
00000070: 79f1 c2bd 153b 0ebe e3c3 653c 6918 2f3d
-0.11834735 -0.06175551 0.100762986 -0.07802048 0.087992534 0.061210696 -0.120161794 -0.13642453
0.07502035 0.0287674 0.034947593 0.09434862 0.058255173 -0.13883795 0.12892102 -0.123121426
0.118447214 0.05748147 0.1145997 -0.054337956 0.09580259 -0.05356729 -0.0029893846 -0.12545857
0.058890045 -0.11549963 0.07741605 -0.10951603 -0.095187135 -0.13889726 0.014023754 0.04274789

lstm1_1.weight_ih_l0 f4 [64, 32]
00000000: c64d 14be 9269 e139 dcd2 063e ae57 7fbe
00000010: 7451 183e 2693 ab3c 1088 eb3c cef6 293e
00000020: e147 41bd fd5b 9a3e 038e 483e 981d 0fbe
00000030: 641a 5a3e e4ee 38be 1f3b d73c 411e 00be
00000040: a86d c53d 2d8d a63d d495 91bc 08da 1d3e
00000050: d422 b83d de36 e13d 38fc e43d a492 a43d
00000060: 6614 6d3e 3174 e2bc c2a3 a6bd 4057 ff3c
00000070: 80d7 1a3e 3cf3 373e 499f 0b3e 2dca fb3c
00000080: 30f8 923c 810a 28be e30e ebbd 4056 f1bb
00000090: 286b 073e b077 2ebe bc07 5c3e 5455 f6bd
000000a0: 8118 373e 2e57 20be a37c 073e d82d 08be
000000b0: f0e3 75be 705c cb3c e968 0f3e 06a8 833e
000000c0: e83b 15bd 0724 4cbe 61b9 93bd 6a48 283d
000000d0: 6364 45bc b4b4 75bd 90f0 063e 0c12 0c3e
000000e0: 6dac 06bd 9482 db3d 5328 de3d 56fb 1b3e
000000f0: 1e34 4c3e 8a14 7bbe 5410 d53d 376e 913d
00000100: f0a1 543d d761 c93d 3892 43bd 7637 3ebe
00000110: f4ce 0e3e 12a0 a43d 0c1f a53d d60b 003e
00000120: c67e 063e 3011 753e 4369 583e e408 00bd
00000130: ebdb 06be d488 313e aa86 f3bd 7708 8e3e
00000140: 2c24 9ebd 49d0 9bbd f740 72bd 3c23 a9bc
00000150: ac34 0c3c 77e3 833d 2036 73bd 9a05 3e3e
00000160: d03e 413e 3d4b 18be 1e93 0c3e a234 7f3e
00000170: e4c6 df3d 3cd5 43be 6d35 653e c013 38bd
00000180: 0876 503e e0fd 3abe db81 32be 02ba 32be
00000190: 1257 06bd 881e 42bd cc74 c43d d00a ccbd
000001a0: a347 963c c9bc 93bd e574 283e 415c a1bc
000001b0: 1081 2b3e 6819 a0bd f91e 723e a886 9dbc
000001c0: 7a4b 563e 5caf 023e adb2 8f3e f836 37be
000001d0: e50f b53d 4315 f13d 1c0b 16be a282 933e
000001e0: d348 3b3e 2cc9 8d3d a9df 673c 5221 5fbe
000001f0: 9ccd 473e 22ab 1fbe a086 863d 5aaf 92bd
00000200: fc79 b7bd a404 6dbe 9c5f 86bd 001c 58bc
00000210: 17ec 3abd 150c 963e 2a57 74be 00d8 14ba
00000220: 37ff 0bbe db3e 983c b3ad 0fbe b369 21be
00000230: 4782 c13d a822 33bd addc e33d b6ed d6bd
00000240: 2050 d93c 460b 04be ae45 033d 5246 b43a
00000250: 1342 333d e1ad b4bd 1256 0ebe 1f4a 453e
00000260: 0962 d43d 9df0 b5bd efcd 983d 4861 25bd
00000270: 908c 6e3d 0847 57bd ce1e 0fbe 0541 82bd
00000280: 20a0 35bd 1af0 543e c214 693e 2882 92bd
00000290: e0f6 30be f265 6c3e 1449 e93d a8a3 bb3d
000002a0: 5508 123e a540 4fbe 0c34 ba3d f2dd 393e
000002b0: 36ab bdbd 20dd 3cbc 66ae 093d eb94 ca3d
000002c0: 8068 3e3b 7667 33be 29f3 6bbd ee87 833e
000002d0: 5bae 39be 6dd7 913d 9ac9 1e3e a3a2 9c3e
000002e0: 8ad5 2c3e e832 13be 8566 193e 5275 673e
000002f0: 103a 12bd 50a4 0e3d 77f1 713e 3e5d bdbc
00000300: 00d8 ba3b 46ec c3bc 257b babd 78a9 773d
00000310: 2874 1e3e 4607 3f3e 9e30 4a3e e899 273e
00000320: e9ec 193e ff40 9dbd 5865 703e 997f 08be
00000330: 74ce 173e 58cc 643e 5a52 bf3c b267 7d3e
00000340: 9009 bf3d a8c5 213e 3632 8abd a29d cf3d
00000350: bc38 d4bc 710d 6a3e a44d 06be 5cd7 8d3e
00000360: bff2 10bd c359 743e 8cb1 52be 4a54 21be
00000370: 7c2b ddbd d898 c83d e2b0 ccbd 3d67 a13e
00000380: e89b 7ebd b062 37be df15 7c3e 1010 193d
00000390: 264f 2f3e d080 833d 88f3 ca3d 3e64 39be
000003a0: 6060 093e e02a 8c3e f934 72be d4b2 be3a
000003b0: 74da 403e 18cd e93d 6c52 ee3d 310b 85bd
000003c0: e0a9 f4bc f4ed 273e 6daa 7abe fafe b63d
000003d0: 6e68 133e 6a82 1f3e 1c1f 5e3e 74a0 77be
000003e0: fdf2 c93d c1b2 0bbe ce6e 5e3e 82b1 46be
000003f0: 809b d13d da79 5b3e 5fa3 193e 896e 95be
-0.14482793 0.00042994 0.13166374 -0.24935791 0.14874822 0.02094419 0.028751403 0.16598055
-0.04718769 0.30148306 0.19585423 -0.13976133 0.2129913 -0.1805988 0.026273308 -0.12511541
0.09640056 0.08132396 -0.017771639 0.15415204 0.08991018 0.10996793 0.111809194 0.08035782
0.23152313 -0.027643295 -0.08136703 0.031169534 0.15121269 0.1796388 0.13634981 0.030736053
0.01794061 -0.16410257 -0.11477449 -0.007365018 0.1322447 -0.17037845 0.21487325 -0.12027994
0.17880441 -0.15658256 0.13231139 -0.13298738 -0.24012733 0.024824351 0.14004864 0.2571413
-0.036434084 -0.19935618 -0.072130926 0.041084684 -0.01204786 -0.059986785 0.13177705 0.1367876
-0.03287928 0.10718265 0.10847535 0.15232596 0.19941756 -0.24519554 0.10403505 0.071011
0.051912248 0.098331146 -0.047746867 -0.18575844 0.13946134 0.080383435 0.08062562 0.12504515
0.13134298 0.23932338 0.21133904 -0.03125848 -0.1316983 0.17337352 -0.118909195 0.27740833
-0.07721743 -0.076080866 -0.059143987 -0.020646684 0.00855748 0.0643987 -0.05937779 0.18556824
0.18871617 -0.14872451 0.13727996 0.24922422 0.10926607 -0.19124311 0.22383662 -0.04494071
0.20357525 -0.18260908 -0.17432348 -0.17453769 -0.03279788 -0.047392398 0.0959259 -0.09963
0.018344706 -0.07213742 0.16450842 -0.01969731 0.16748452 -0.07817346 0.23644628 -0.019229248
0.2092723 0.12762207 0.28066006 -0.17892063 0.08840922 0.117716335 -0.14652675 0.28810602
0.18289499 0.06923136 0.014152446 -0.21790054 0.19512028 -0.15592626 0.065686464 -0.07162352
-0.089588135 -0.23146302 -0.06561205 -0.0131902695 -0.04563531 0.29306093 -0.23861375 -0.00056779385
-0.13671575 0.01858466 -0.14031105 -0.15762977 0.094486766 -0.043734223 0.11126075 -0.104945585
0.026527464 -0.12894925 0.032048874 0.0013753867 0.043764185 -0.08822227 -0.1390002 0.19266556
0.10370261 -0.08883784 0.07461154 -0.040375978 0.05823952 -0.052557975 -0.13976595 -0.06360058
-0.04434216 0.20794716 0.22761825 -0.071537316 -0.17281675 0.23085764 0.11390892 0.09162074
0.14260991 -0.20239504 0.090919584 0.18151072 -0.092611715 -0.01152733 0.033613585 0.09891685
0.0029053986 -0.17519936 -0.057604942 0.25689644 -0.18132918 0.07121167 0.15506592 0.30592832
0.16878334 -0.14374888 0.14980514 0.22603348 -0.035699904 0.03482467 0.23627268 -0.02311575
0.0057020187 -0.023916375 -0.09105519 0.060464352 0.15473998 0.18655118 0.19745108 0.16367304
0.1503178 -0.07678413 0.2347616 -0.13329925 0.1482485 0.22343576 0.023354698 0.24746588
0.09327996 0.15798056 -0.06747858 0.10137488 -0.02590596 0.2285669 -0.13115555 0.2770337
-0.03538775 0.23862366 -0.20575541 -0.1575481 -0.107993096 0.09794778 -0.09994675 0.31524077
-0.062160403 -0.1790874 0.24617718 0.037368834 0.17120036 0.064210534 0.09909731 -0.18104646
0.1341567 0.2737646 -0.2365302 0.0014549145 0.18833333 0.11416072 0.116368145 -0.06496275
-0.029866159 0.16399366 -0.24479075 0.08935352 0.14395306 0.15577093 0.21691555 -0.24182302
0.098607995 -0.13642408 0.21721956 -0.19403651 0.102347374 0.21433201 0.15003727 -0.29185894

lstm1_1.weight_hh_l0 f4 [64, 16]
00000000: 61f6 2dbe 00e8 f1bc 1495 2d3e 173f 6cbe
00000010: 9339 7e3e e008 4fbe 6ed7 4f3d 30e1 7b3e
00000020: 63c5 96bd f7cf 943c 60e1 253e fea1 063e
00000030: 0152 33be aab5 01be 62ca 253e b4c5 1f3e
00000040: 2b93 46be 4d2c aebd ba46 e2bd 3eb5 edbd
00000050: adef 77bd 145d 673d 4234 64be 3017 37be
00000060: 9257 02be 36c2 f23d d9c4 a3be 53da 233e
00000070: f06d 83be 86d8 47be 4db0 0a3c 1b99 463d
00000080: 8c51 4d3e acae 273e 4aeb b23d 7eb7 81be
00000090: b8c0 e03c 1976 0bbe 3a50 483e 772c 893e
000000a0: 7a83 d2bc ed05 1abe e7ea 60bd 97a7 33be
000000b0: d2f1 5cbe 6556 e93d b57e b9bd 8606 2b3e
000000c0: 7717 51bd 92ad 563e 9dcd 113e 8c2d 053d
000000d0: 1b0a c53c 8745 113e 2580 b7bc 61a4 5d3e
000000e0: 2ed8 d6bd 660e 8bbe 0a3f 1c3d 8278 19be
000000f0: ee8f 84be 5ac9 84be 21d5 31be 007b 313e
00000100: c1fd f1bd ae55 013e efca 6a3e 7a56 10be
00000110: 1489 56bc 5632 1dbe 6d7f 303e dc74 7d3e
00000120: ca0a bf3d 345a 583e c6d4 60be ca93 a23e
00000130: 1c96 e43d 8966 babd 522c 1bbe 44ed 9abc
00000140: c221 33bd 5a61 9c3d 94e5 12be 54e2 243e
00000150: cb54 083e 6969 c6bd 13c7 883d ea6e 8a3d
00000160: 787d 0a3d b628 dd3c e158 bb3d 39d0 71be
00000170: 79c9 d9bb f748 01be cd55 37be 80bf 123e
00000180: 513d a2bc 6a01 2a3c 4fbf 66bc 9222 4cbd
00000190: 64b7 8b3e 4e67 0bbe de25 3b3e c7df 733d
000001a0: b0b0 bd3d 8f60 07be 97ca 38bc 40f8 1bbe
000001b0: 94af dabd c148 adbd 72d2 3d3e 3c04 b73d
000001c0: cab3 123e 94e4 893d 6f80 b6bd 10a6 4bbe
000001d0: 74c1 a6be c350 c2bd d983 f0bb a09e 173e
000001e0: 2e09 76be c67d 18be 3931 193b 64d1 803e
000001f0: ba69 0ebe 6890 b43d 73d8 3dbe 89ca 713d
00000200: 67d6 91bd 900e a4bd 8548 343e 5b15 a03d
00000210: a698 ccbd 86f2 5d3e b7e6 27be b134 143e
00000220: 476c 563d b11a a7bd a4d5 67bd 2a9d 1a3e
00000230: ab1e 5dbe 1b05 343e 34a2 8fbd f506 7c3e
00000240: 4b8f 963d 444e 5ebe 5275 913c df06 013e
00000250: 81d6 9b3b ccd1 3ebd 0e77 6d3e a96e 32be
00000260: 7fa9 03be ef27 1fbe 2192 8abc d8b8 4abe
00000270: 6da9 5ebe 72b2 773d 957b 56bd 2f21 773e
00000280: 779b 853e 2a5d 52be 8bc2 843e a796 883c
00000290: 540b 8ebd aaeb 0f3d 457f 4abe 0e7d 59bd
000002a0: 9a5a 8bbd 60ba 28be f620 45be b067 623e
000002b0: a495 bfbd 7633 02be e245 863e e72b b53c
000002c0: fb0d 28be 7cf1 cd3d dc7c a9bd 3b8e a8bd
000002d0: 26dc 303d c432 4ebe 120c c4bd 68d6 133e
000002e0: 6427 6fbd a112 8bbd 688d b53d a0b8 b03d
000002f0: a560 2c3e b209 e83d 2b77 593e ea90 073e
00000300: 8098 8b3e c7a7 393e 1a6e 2a3e 4f14 103e
00000310: 0359 34be 8dcd 513e a166 8cbe 74fc 0d3e
00000320: 716e 8abd 32c8 04be 7216 103e 41bd 0abe
00000330: cc47 c63d 6310 2bbe b1dd 03be 4185 0e3e
00000340: 8dc7 c2bd 7b3c 773e edbe 02be dba1 28be
00000350: 5b8b 04be aa3e f8bd d673 7f3e 4365 13bd
00000360: 5985 0b3e 07ee b93d c699 853d eebb 7b3b
00000370: 62aa 46be 458f 3d3e cb72 22bb bb79 a0bd
00000380: 692b ab3d 3ae5 56be 7eb4 773e 80a9 c43d
00000390: 5179 0f3d b8ad 04be 19f9 133e bcef 443e
000003a0: 5ac5 443e 91ea e63c 3b6a f1bd f2b0 bdbd
000003b0: c328 4dbd 8521 793e a8ea b6bc d872 3cbc
000003c0: 28b9 93bd ed5c 91bd d567 7d3c 822f 98be
000003d0: 8fa5 123e fb02 babd d131 583e abfa 9abd
000003e0: 4944 bb3d 8667 e73c b290 60be 5f1a 33be
000003f0: 6fbd 0ebc 1039 48bd 12a4 0d3e fc97 99bd
-0.16988517 -0.029529572 0.169514 -0.23070942 0.2482665 -0.2021823 0.05074256 0.24597621
-0.07361867 0.018165572 0.16199255 0.13147733 -0.17511751 -0.12666956 0.16190484 0.15602762
-0.19392078 -0.085045435 -0.11048646 -0.11606835 -0.060531307 0.05648525 -0.2228556 -0.17879939
-0.12728718 0.11853449 -0.3198612 0.16001253 -0.25669813 -0.19516191 0.008464885 0.048485857
0.20050639 0.16375226 0.08736284 -0.25335306 0.027435645 -0.1361927 0.19561854 0.26791736
-0.025697459 -0.15041323 -0.05491152 -0.17544399 -0.21576622 0.113934316 -0.090573706 0.16701707
-0.05104777 0.2096465 0.14238591 0.03251414 0.02405267 0.14186679 -0.022399971 0.21644737
-0.10490452 -0.27159423 0.038146056 -0.14987376 -0.2589106 -0.2593487 -0.17366458 0.17332077
-0.11815978 0.1263034 0.22928976 -0.14095488 -0.013094205 -0.15351233 0.17236109 0.2475161
0.0932823 0.2112816 -0.21956167 0.3175338 0.111614436 -0.09101588 -0.15153626 -0.018911965
-0.043733366 0.07635756 -0.1434539 0.16101962 0.13313596 -0.09688074 0.066785954 0.067594364
0.033811063 0.026996952 0.09147812 -0.23614587 -0.006646332 -0.1262549 -0.17903824 0.14330864
-0.019804629 0.010376314 -0.014083697 -0.049837656 0.27288353 -0.13613626 0.18276164 0.059539583
0.09262216 -0.13220428 -0.01127877 -0.15231419 -0.1067802 -0.08461142 0.1853731 0.089363545
0.14326397 0.06733051 -0.089112155 -0.19887567 -0.32569468 -0.0948806 -0.007339936 0.14806604
-0.2402694 -0.14891729 0.0023375286 0.25159752 -0.13907519 0.08816606 -0.185396 0.059031043
-0.07120972 -0.0801059 0.17605789 0.07816573 -0.09990053 0.21674547 -0.16396604 0.14473225
0.052349355 -0.08159388 -0.056600228 0.15099016 -0.2159373 0.17580073 -0.0701336 0.24612029
0.0735155 -0.21709543 0.017756138 0.12600277 0.0047557955 -0.046586797 0.23189947 -0.17425026
-0.12857626 -0.15542577 -0.016915383 -0.19797075 -0.21744318 0.060472913 -0.05236395 0.24133752
0.26095173 -0.20543352 0.25929675 0.0166734 -0.069357544 0.035136856 -0.19775112 -0.053097777
-0.0680439 -0.16477346 -0.19250855 0.22109866 -0.093547136 -0.12714943 0.2622519 0.02211566
-0.16411583 0.10055825 -0.08275768 -0.08230253 0.0431787 -0.20136553 -0.09572615 0.14437258
-0.058387175 -0.067906626 0.08864862 0.086289644 0.16833742 0.11329974 0.21236865 0.13238874
0.27264786 0.18130408 0.16643563 0.14070247 -0.1761208 0.20488568 -0.2742205 0.13865834
-0.06759346 -0.12966993 0.14071062 -0.13548757 0.09681663 -0.1670547 -0.12877537 0.1391802
-0.095107175 0.24144165 -0.12768145 -0.16467993 -0.12943785 -0.12121327 0.24946532 -0.035985243
0.13625087 0.09078603 0.065234706 0.0038411575 -0.19400933 0.18511684 -0.002478766 -0.07835718
0.08357889 -0.2098588 0.24189946 0.09602642 0.035027806 -0.12956893 0.14450492 0.19232076
0.19215909 0.028188022 -0.1178784 -0.09262265 -0.0500877 0.24329193 -0.02232869 -0.01150199
-0.0721305 -0.07097802 0.01546665 -0.29723746 0.14320968 -0.090826 0.21112753 -0.07567342
0.09143884 0.028247606 -0.21930197 -0.17490529 -0.008712157 -0.048882544 0.13832119 -0.07499692

lstm1_1.bias_ih_l0 f4 [64]
00000000: 5fe9 9e3b 2ee4 27be ad07 b8bc 8ed0 b83d
00000010: b89e c93d 883b 86bd f1f9 4c3e 19e3 743c
00000020: a5c6 5fbe 79b8 c2bd 32cc 4e3e 0783 c53d
00000030: 42fe 22be 3a2d 7c3e fb02 093e 93e0 29bc
00000040: 62b4 e83d 38e6 123e 1b1d 6bbd f47c 643e
00000050: 1473 59be b456 103d 3285 a0bd c4c5 44be
00000060: 11f7 53be d1d9 893d 5591 0f3e 4a91 3e3c
00000070: 8047 6c3e 33a9 60be d09a 96bd 955a 0abe
00000080: 7a6c 143e c445 9b3d b191 f43c 0efc d3bb
00000090: e0e4 633e 8b96 84bc a1c8 56be 57b1 723e
000000a0: bf16 30be 5a49 73be e191 55be 820d 163e
000000b0: 0993 89be 01b1 993d d1eb ac3d 662d 2e3e
000000c0: 7dd1 f23d e6af 3f3d 94e1 0fbe ab40 003e
000000d0: d908 44be 6279 f03d be5b 5dbe 0309 ec3d
000000e0: b2c6 1e3d 3820 35be 02e3 81bd 3d51 5bbe
000000f0: a667 01be bdc0 23be ffb1 1a3e e262 02be
0.0048495973 -0.16395637 -0.022464598 0.09024154 0.09844726 -0.065543234 0.2001722 0.014946722
-0.2185312 -0.095078416 0.20195082 0.09644132 -0.15917304 0.24626628 0.13380043 -0.010368484
0.1136253 0.14345634 -0.057400804 0.22313291 -0.21235305 0.035238937 -0.07837905 -0.19216067
-0.20699717 0.06730998 0.14020284 0.011631319 0.2307415 -0.21939544 -0.07353747 -0.13511117
0.14494506 0.07581666 0.029854627 -0.0064692562 0.22255278 -0.016185066 -0.20974971 0.23700462
-0.17196177 -0.2375845 -0.2085643 0.1465359 -0.2686999 0.07504464 0.08443416 0.17009506
0.11856363 0.04679861 -0.14050895 0.12524669 -0.19144 0.11741902 -0.21617028 0.11525156
0.03876371 -0.17688072 -0.063421264 -0.21417709 -0.12637195 -0.15991493 0.15106963 -0.12733033

lstm1_1.bias_hh_l0 f4 [64]
00000000: 1cd2 223e 2e00 71bd f208 2bbd 1e00 783e
00000010: 4ec4 1dbc 7859 843e 6df3 383e c205 aebd
00000020: 8719 b7bd 982f 0bbe 4367 d0bd 4494 6bbe
00000030: d6ef 16be 4c04 9e3c c773 4fbe a8cf 6fbe
00000040: a48d 5d3e 1a2a 48bd 4351 87bd 7aa6 6b3e
00000050: 3a46 5bbd 87f1 e5bd 8ff8 adbd c2d3 ea3c
00000060: bce0 cfbd 0742 d2bd 74bb 37bd 556b 10be
00000070: 9525 143e af85 2c3e 30f3 30bd 5805 ffbd
00000080: beb7 713e d83f 223d 1791 7bbd 1579 0f3e
00000090: 2919 c0bd 7738 c23c bf56 a33d 47c6 543e
000000a0: a645 78be 6f6e 673c 13a8 ae3d 4c0b 6e3d
000000b0: 9d48 58bd cc36 76be f857 5a3e c66e 31bc
000000c0: 0ceb b8bb bb6f 313d acf5 723e 3a7d 08be
000000d0: 1840 5e3d b6b2 14be 22a1 25be b2b1 59be
000000e0: 618f 2ebe 9d43 5c3c fc18 f8bd 9d00 273e
000000f0: 658e 863e 973b 4e3e df2c ee3c 4a6c d2bd
0.15900463 -0.058838062 -0.041756578 0.24218795 -0.009629322 0.2584951 0.1806161 -0.08497192
-0.08940416 -0.13592374 -0.101759456 -0.23005778 -0.14739928 0.019289158 -0.2025901 -0.23419058
0.21636063 -0.048868276 -0.06607296 0.23012725 -0.05353377 -0.11227708 -0.084946744 0.028665427
-0.101502866 -0.102665 -0.044856504 -0.14103444 0.14467461 0.16847871 -0.04320067 -0.12452191
0.23605248 0.039611667 -0.061417665 0.14011033 -0.09379799 0.023708565 0.0797553 0.20778762
-0.24245319 0.0141254505 0.08528151 0.058116242 -0.052803624 -0.24044341 0.2132262 -0.010829633
-0.005643254 0.043319445 0.23726529 -0.1332902 0.054260343 -0.14521298 -0.16174749 -0.21259192
-0.17046882 0.013443855 -0.121141404 0.16308828 0.26280513 0.20139919 0.02907413 -0.10274561

lstm1_1.weight_ih_l0_reverse f4 [64, 32]
00000000: 88b4 19bd 8a73 a3bd a121 c2bd 60e8 433c
00000010: 4ed6 b3bd 4ce1 cabd d6c2 60be c8b2 e23d
00000020: af9d d83d f468 a8bd cd2b 193e 79f1 60be
00000030: 2247 f3bd 2cf4 54be ca2c 303e a2cc c7bd
00000040: 384c 5dbd e6b2 0dbe 8020 563d 2114 163e
00000050: 3ce3 61be 7bdc ffbd f860 b0bd e11e a63e
00000060: 3ab3 37be 72aa 9bbd 9d68 2f3a 182e 003e
00000070: 0c04 30be d8da 38bd b712 9cbd 0970 7c3e
00000080: 6879 d93d 9d92 123d ab47 09bd 38cf 213d
00000090: 5aa6 473e 7faf d33d 1048 46be 8660 7a3e
000000a0: f870 dd3d b561 38bc babf 683e 59cf 15be
000000b0: 30a0 f3bc dc19 1c3e 5136 89bd ea64 b9bc
000000c0: d447 cbbd 634f 6dbd b17e c73d 4720 563e
000000d0: a558 743d 404f 5bbe 8e58 00be eb5c 633e
000000e0: 5e16 053d f1d2 3d3e 5ff3 0fbe b6d4 1e3e
000000f0: a036 2c3e d89a 4abe 30de cc3d 7fe4 e33d
00000100: 640c 5d3e 4348 07bd d21e 80bd a6a3 1cbe
00000110: 0779 203e 2e88 dcbd 5096 11be f090 50bd
00000120: e675 e63d 47aa da3d dc81 2dbe 252c 7f3c
00000130: 46eb 69be e47d b93d 368f 4ebd 7612 8abc
00000140: 2200 683e e75c e5bd 4edd d3bd f573 313d
00000150: ed46 11be d529 5e3e 8828 e93d e8e9 f4bd
00000160: c516 123e 2ef8 e2ba 7ea4 403e ec39 6a3e
00000170: f833 673d b07c f5bc 4715 893e 0fa0 973e
00000180: 281e 753e f3ce b1bd 62b0 3cbe 88fb c0bd
00000190: f256 73bd d876 293e d866 1dbd e06a 7b3e
000001a0: c155 19be 8955 0e3e acc2 5bbe 0e69 ff3d
000001b0: 9563 8fbd bc40 d2bd 300c 143e 31b4 793e
000001c0: 840d c3bd 903c 803e 1cef 313e b0df 1bba
000001d0: 9c77 e33d c686 8a3d f81c c8bd 9947 67be
000001e0: fdbe c0bc 60ea 0c3d 5d35 e6bb 44ee 3cbe
000001f0: 0097 a2bc 5209 2d3e 2adb 15be 112a 2d3d
00000200: d02b 833c ee76 833d 9ce7 e83c acaa 2e3e
00000210: fdbe 773e 7c05 9e3e d656 22be 8029 203e
00000220: d340 1c3d 317b 6d3e 9e98 693e 12aa 04be
00000230: 658c d7bd a8f9 74be 854d 8a3d 7ff0 813e
00000240: b8b6 303d d66b ce3c 6a6d 9e3d 98c1 5d3c
00000250: a931 6e3e 1cdc 053e aa10 313e 4034 fd3b
00000260: f23d 9a3d 2244 04be 9644 113e 56d7 303e
00000270: b4a8 34be d419 bfbd dc7b 8f3c 74ad 813d
00000280: 7821 14be 3625 51be a167 e13c 2295 7abe
00000290: e677 23bc b6aa 08be 243c 983d 4e3d 6bbe
000002a0: 3212 af3d a8b6 04be fdc7 51bd 6cd3 8ebd
000002b0: 3ade 843d 546f 183e 7071 3d3d 2c84 2f3c
000002c0: 5ce5 9d3d d6c7 383e 8b07 4a3e 4cdb 17be
000002d0: 1880 70be 4d8f 7a3e 46de 4dbe 3d3e 913e
000002e0: fb61 fe3c bef1 c0bd 1875 5a3e b0a0 e33c
000002f0: 7062 00be c293 0abe 06b1 8ebc cae9 aebd
00000300: de4e 393e fd12 413e 51da 313e 563f 633e
00000310: ffe8 a43e 48fd 383d 5093 12bd c659 6d3e
00000320: 6b99 0bbe 7c83 5e3e 8239 54be 8928 783e
00000330: 1e1d 9d3d 9c58 d73d abe8 4d3e 2780 8abc
00000340: 64cc 1bbe c0b0 7a3d f913 813e 59c8 1a3e
00000350: 9364 603d 1949 d8bc 68b1 cc3d faea a33d
00000360: 7ac9 71be a51e cd3d e173 cc3d e4c9 b93d
00000370: e09a 8c3d 16fb 2dbe 2b22 9a3e 4852 3bbd
00000380: a0d6 b93c ec86 aa3d d18f 2f3d 48b8 5a3e
00000390: 157f 983e bc2e 4bbe 2c9e 10be 82ab 54be
000003a0: 7761 fc3d 0ee4 8e3d e049 5f3e f8e4 13bd
000003b0: ae09 923d 70ff 653d 0907 e8bd 4acd 333e
000003c0: 62f5 683e 0d8a 333d d399 21bc 52e2 73be
000003d0: 1696 f33d c199 bc3c e643 6fbe d879 3bbe
000003e0: 6762 103d a2f3 3f3e 2890 22ba cea9 51be
000003f0: 90db 413e ce34 043e ce68 e33d 4986 89bd
-0.037525684 -0.07981022 -0.094790705 0.011957258 -0.0878111 -0.09906253 -0.21949324 0.11069256
0.10576951 -0.08223143 0.14958115 -0.21967115 -0.11878802 -0.20796269 0.17204586 -0.097558275
-0.054027766 -0.13837776 0.05227709 0.14656116 -0.2205934 -0.12493225 -0.08612245 0.32445434
-0.17939463 -0.07600869 0.0006691309 0.12517583 -0.17189044 -0.04513058 -0.07620757 0.24652113
0.106188595 0.035784353 -0.033515614 0.03950426 0.19497052 0.103362076 -0.19363427 0.24450883
0.10812563 -0.011253764 0.22729388 -0.14629878 -0.02973947 0.1524424 -0.06699813 -0.022631127
-0.099258095 -0.057937037 0.09740961 0.2091075 0.05965485 -0.2141695 -0.12533781 0.22203414
0.032492034 0.18537499 -0.14057682 0.1551083 0.16817713 -0.1978563 0.100033164 0.111275665
0.21586758 -0.0330279 -0.062558785 -0.15296802 0.15671168 -0.10768162 -0.14217496 -0.050919473
0.11252956 0.10677009 -0.16944069 0.01557449 -0.22843656 0.09057215 -0.050429545 -0.016854506
0.226563 -0.1119936 -0.10344945 0.043323476 -0.14187212 0.21695645 0.11384684 -0.119586766
0.14266498 -0.0017316395 0.18812749 0.22873658 0.056446046 -0.029966682 0.26774046 0.29614303
0.23937285 -0.086820506 -0.1842666 -0.09422976 -0.05940909 0.16549242 -0.038428158 0.24552488
-0.14974119 0.13899817 -0.2146098 0.124712095 -0.07001416 -0.10266253 0.14457774 0.24385144
-0.09524062 0.25046206 0.17376369 -0.0005946113 0.11106798 0.06763987 -0.0977115 -0.22585906
-0.02352857 0.034403205 -0.0070254044 -0.18450266 -0.019847393 0.16898087 -0.14634386 0.042276446
0.016012102 0.064191684 0.028430752 0.17057294 0.2419395 0.3086356 -0.15853438 0.15640831
0.03814776 0.23191525 0.22812125 -0.12955502 -0.10524825 -0.23923361 0.06753067 0.25378796
0.043143004 0.025197905 0.07735713 0.013534926 0.23261131 0.13072246 0.17291513 0.007727176
0.075313464 -0.12916616 0.1418632 0.17269644 -0.1764248 -0.09331098 0.017515115 0.06331912
-0.14465892 -0.20424351 0.027515234 -0.24470952 -0.0099773165 -0.13346371 0.07433346 -0.22972605
0.08548392 -0.12960303 -0.051216114 -0.06973919 0.06487699 0.14886218 0.04625076 0.010712665
0.077097625 0.18044981 0.1972944 -0.14829749 -0.23486364 0.24468727 -0.20104322 0.28367797
0.03105258 -0.09421109 0.2133373 0.027786583 -0.12537551 -0.13532928 -0.017418396 -0.085406855
0.18096492 0.188549 0.17368437 0.2219213 0.32209012 0.045163423 -0.03578502 0.23178777
-0.13632743 0.21729845 -0.20725062 0.24234213 0.07671569 0.10514948 0.20108287 -0.01690681
-0.15214688 0.06120372 0.2521055 0.15115489 0.054783415 -0.026402043 0.09994775 0.080038026
-0.23612013 0.100156106 0.0998304 0.09071711 0.068654776 -0.16990313 0.30104193 -0.045732766
0.022685349 0.083265156 0.042861763 0.2135936 0.29784456 -0.19842046 -0.14122838 -0.2076855
0.123232774 0.06977092 0.21805525 -0.036107033 0.071307525 0.056151807 -0.11329467 0.1755878
0.22749856 0.043832827 -0.009863335 -0.23816803 0.11893861 0.023022534 -0.23365745 -0.18308198
0.035250094 0.18745282 -0.00062012905 -0.20474932 0.18931413 0.12910768 0.11103974 -0.06715066

lstm1_1.weight_hh_l0_reverse f4 [64, 16]
00000000: d961 aabd 1ce1 1abd 3478 5b3d ccfd 82bd
00000010: c5cc 713e 10d8 623e c03b 323d baa4 193e
00000020: 8d84 fabc 4472 733e a2c2 893d c060 623e
00000030: 9d9e 32be 32a5 6d3e 56f7 333e e72e 273d
00000040: e393 873d 367d 9b3c 69af f3bc c51a c63d
00000050: 0394 a23d e3b2 dd3d e618 80be 5f1f bd3d
00000060: 2919 49bd 1c75 90bc cb04 4f3e dcb8 d43d
00000070: 5086 f2bc bf3c 1fbe f5a9 253e a877 593e
00000080: 1e93 9b3e e1a6 2d3b b72f fd3d 1c37 633e
00000090: 51f4 ddbd 75dc b43d ed69 91be 3835 433e
000000a0: a5fa 01be 12f7 d0bd a9a9 f83d b75f 303c
000000b0: 9ba7 dbbc 9f6a d13c ee87 07bd f727 bebd
000000c0: 39d5 503c 1618 c53d 0b68 1e3e ec26 053e
000000d0: 1aad 4ebe a336 87be c363 3c3e 3659 653e
000000e0: bbdd 98bc bda4 bf3d 2497 10be 9045 81be
000000f0: 9e5c 7b3e fbfd afbd 3ea6 c2bd 8bbc 50be
00000100: c7b2 453d cf56 8bbe 0a89 97bc e35b 1b3c
00000110: bd25 f23d d2eb 81be 62d8 cfbc 5e1f 663e
00000120: 4401 7a3e 2120 8bba 6668 c43d 848d 763e
00000130: 00ec 423e 6579 a4bd 996f 3fbc 99f3 bbbc
00000140: 3d3e c13d be33 dc3d 5a93 93bd 21d0 353d
00000150: 66a4 26be 3357 633b d20e e8bc 1b9a 4cbe
00000160: 17db 3d3e 8124 083e 28fe da3d 7355 b5bd
00000170: 5c24 b4bd ff67 843d 288b 8c3e af13 03be
00000180: 9700 c63c c64c a5bd 7862 4dbe 7a84 b43d
00000190: 05dc 9f3c ea5d 00be e625 7dbe 8f21 32be
000001a0: f6a2 333d 0c06 8fbd 7b77 303e 73a9 d83d
000001b0: ae86 d43d 92b4 fdbd c9c5 483e 82c5 67be
000001c0: 22c8 46be cc1f 8a3e c3f2 163e e337 503e
000001d0: a43b e13d ca64 36bc 30ad 10be ffb6 2bbc
000001e0: b1d4 db3d 84f1 d13d ae39 b2bd c308 853e
000001f0: b360 bb3d 323f 1fbe 8305 223e 6103 79be
00000200: 2f2c 0ebd 07f7 53bd 585c b5bd 0be2 08be
00000210: 1d0a e8bd fe52 363c 127f 8c3e cd76 11be
00000220: 9312 d63d d629 82be 53ad 693e 46e6 01be
00000230: dae3 7f3d f344 7dbd 9d9f 3f3e a5af 67be
00000240: eba6 4ebc 7ed4 7d3e d98c 423c 9548 443e
00000250: 6af5 d13c 3e09 7d3d eef7 f03d d02f 2ebe
00000260: 994c 3bbb bfd1 573e 9263 99bd efb0 1ebe
00000270: 266a 803d 61e2 42be 28b9 70be 5781 cbbd
00000280: b145 05bc f9dc a2bd c177 4ebc c252 b23d
00000290: f94c ad3e 46a0 7d3e 340d 083c 61a0 6c3e
000002a0: 48a9 073e fe82 e33d a2a0 e93a 7961 99bd
000002b0: 0072 333e 3f9b 7a3e 853f 2dbe ee00 803e
000002c0: 675f 243e fb69 a33d a47f e6bd 9103 7c3b
000002d0: ab6d 223e 1b27 0fbe 73fb 8e3e 0ed9 6e3e
000002e0: 9cbe 593e c496 6d3d 3a3f 353e f3bd ca3d
000002f0: 3b13 c13d fd5b 0b3e 82b9 fbbd 6c2e 3e3e
00000300: e081 153e bfb8 e13d 9a26 7ebe 0c85 8c3e
00000310: eab6 1d3e 8cf0 fa3d e836 093e 1e6f 223e
00000320: ad82 f5bc 123b bf3d 7240 1d3e fc55 24be
00000330: 356f 623e 5a06 6dbe c8e1 e2bd cbc0 7abd
00000340: bcc4 a43a 568a 3d3e 414d 33bd 215a 163d
00000350: 04d3 1cbe f015 d23c e29e fdbd db0c c3bc
00000360: 2fac ea3c f18a babd edf2 09be 6e22 723d
00000370: a7ba 6fbe c905 03bd b65a 893e 8b33 2ebe
00000380: e69c 353d b003 e43d 3474 9abd 01ae 68bd
00000390: 5d80 1f3e b45b 56bd f8f2 d03d 01ee 883e
000003a0: 2077 89bd 0698 8b3e c557 adbd 6917 4b3c
000003b0: 7812 bebc 8368 cb3d 3630 e1bd eafd a3bd
000003c0: a369 0a3e 789c d3bd ab53 45be 18c0 12be
000003d0: 9f0d 353e cf47 2e3e 68b1 93bd aa30 1abe
000003e0: 7fd8 0fbe dd04 173e 169b ef3d 80d7 213e
000003f0: f7c5 8a3e 1790 5c3e 7017 85be 23ce 1e3e
-0.08319444 -0.037812337 0.05358143 -0.06396064 0.2361327 0.22152734 0.043514013 0.15004244
-0.030580783 0.23774058 0.067265764 0.2210722 -0.17443319 0.23207548 0.1757482 0.040816214
0.06620004 0.018980604 -0.029746728 0.09673075 0.07938387 0.108251356 -0.25018996 0.09234499
-0.04909626 -0.017633967 0.20216672 0.10386822 -0.02960506 -0.15550517 0.16178115 0.21237051
0.3038568 0.0026497173 0.123626165 0.22188991 -0.10837615 0.08831111 -0.28401127 0.1906327
-0.1269327 -0.10203375 0.12141735 0.010765008 -0.026813319 0.025563536 -0.033088617 -0.092849664
0.012746149 0.09623735 0.15469377 0.13003129 -0.2018322 -0.26408872 0.18397431 0.22397313
-0.018660417 0.09357593 -0.14120156 -0.25248384 0.2454705 -0.08593365 -0.095043644 -0.20384423
0.0482662 -0.27214667 -0.018497963 0.009482357 0.11823604 -0.2537523 -0.025371734 0.22472903
0.24414545 -0.0010614434 0.09590225 0.24077421 0.1903534 -0.08030967 -0.011684322 -0.022943305
0.09435699 0.107520565 -0.072058395 0.04438794 -0.1627365 0.0034689426 -0.02832738 -0.19980662
0.18540607 0.13295175 0.10693008 -0.08854189 -0.087959975 0.06465148 0.27449918 -0.12800477
0.024170203 -0.08071284 -0.20057094 0.088143304 0.019514093 -0.12535825 -0.24721488 -0.17395614
0.043856584 -0.06983575 0.17233078 0.10579195 0.103772506 -0.12387957 0.19606699 -0.22633937
-0.19412282 0.26977384 0.14741044 0.20333819 0.10997704 -0.011132428 -0.14128566 -0.010480641
0.10733927 0.102511436 -0.08702408 0.25983247 0.09149303 -0.15551451 0.15822415 -0.24317695
-0.034710106 -0.051749256 -0.08855504 -0.13367479 -0.11330054 0.011128185 0.27440697 -0.14205475
0.104527615 -0.25422543 0.22820024 -0.12685499 0.062473156 -0.061833333 0.18713231 -0.22625597
-0.0126130385 0.2478809 0.011874401 0.19168313 0.025629718 0.061776392 0.11766039 -0.17010427
-0.0028579591 0.21076106 -0.07489695 -0.15497182 0.06270246 -0.19031669 -0.23508132 -0.09936779
-0.0081342915 -0.079523034 -0.012601794 0.08707191 0.33847788 0.2476817 0.008303929 0.23108055
0.1324817 0.11108969 0.0017824362 -0.074892946 0.17523956 0.24473284 -0.16918762 0.2500071
0.16052018 0.079791985 -0.11254814 0.0038454274 0.15862148 -0.13979761 0.27926216 0.23324987
0.21264118 0.05800511 0.176999 0.09899511 0.09427496 0.1360931 -0.12291242 0.18572396
0.14600325 0.11021566 -0.24819413 0.27445257 0.15401807 0.12252912 0.13399851 0.158627
-0.029969538 0.09337439 0.15356615 -0.16048425 0.22112735 -0.23146954 -0.110782206 -0.061219018
0.0012570838 0.18509802 -0.043774847 0.036707047 -0.15314871 0.025645226 -0.1238382 -0.02380984
0.028646557 -0.09108532 -0.13471575 0.059114866 -0.23411046 -0.03198794 0.2682702 -0.1701185
0.044339083 0.11133516 -0.07541695 -0.056806568 0.1557631 -0.05233355 0.102025926 0.26744083
-0.067121744 0.27264422 -0.08464006 0.012395718 -0.023202166 0.099320434 -0.10995524 -0.08007415
0.1351686 -0.103325784 -0.19270198 -0.1433109 0.17680977 0.1701958 -0.07211572 -0.15057626
-0.1404743 0.14747949 0.11699502 0.15804863 0.2710416 0.21539341 -0.25994444 0.15508322

lstm1_1.bias_ih_l0_reverse f4 [64]
00000000: 00c8 1f3e df8f 42be f12e 0e3e b2ae 1d3d
00000010: dc7c 47be c6a5 3abd 7a3b c2bc fe4b 6f3e
00000020: 7c01 34be 10c1 6e3d c15a 36bd 2434 6d3e
00000030: e58c 133d 5749 4cbe 8f66 84bd 9eda 44be
00000040: 884a 413e fc32 97bc 0d1b 5b3e 3506 e6bd
00000050: 6325 49bd d63b 2ebd 6b1a bf3d 9901 763e
00000060: 09ba 50bd 0d05 633e a57b 25be 6836 d1bd
00000070: 140f 23be 1a49 3f3e ebbb 483d 3bbe 1cbe
00000080: 79d2 9f3c e376 6ebc 9a3e e4bc c23d 643e
00000090: 4b2f fb3d 5f25 c4bd 197a 053e 8e49 51be
000000a0: aa9f 3cbe a3b0 8bbd fd70 ef3d 75a9 e6bd
000000b0: 9c60 413e c1bb 5fbe 64d6 33be 8c26 6cbe
000000c0: 5996 d13d 0a7d fcbd 5134 6f3d 6b04 e9bd
000000d0: 8dac 863c 4c07 083e aa60 bc3c 82a9 783d
000000e0: 10a2 623e 252d 173d 7215 e7bd 9c67 7bbd
000000f0: ee13 b13d 532f 103e 8222 67bd 0bd2 4e3e
0.15603638 -0.19000195 0.13885094 0.03849668 -0.19481224 -0.04556825 -0.023710001 0.23368832
-0.17578691 0.058289587 -0.044520143 0.23164421 0.03602304 -0.19949852 -0.06464874 -0.19224021
0.18876088 -0.018456928 0.21397038 -0.11231653 -0.04910792 -0.042537533 0.09331211 0.24024047
-0.050958667 0.22169895 -0.16160448 -0.10215455 -0.1592372 0.1868023 0.049007338 -0.15306942
0.01950954 -0.014554712 -0.027861882 0.22289184 0.1226488 -0.095774405 0.13034858 -0.20438215
-0.18420282 -0.068208 0.11691473 -0.1126279 0.1888451 -0.21848966 -0.17562252 -0.2306158
0.10233755 -0.12328537 0.058399502 -0.11377796 0.0164397 0.13284034 0.022995312 0.06070853
0.22132134 0.036908288 -0.11283387 -0.061378106 0.086463794 0.14080553 -0.056429394 0.20197313

lstm1_1.bias_hh_l0_reverse f4 [64]
00000000: 6a9f d83d efdc 683e 6a23 04be c128 00bd
00000010: 30b6 433e 74a5 1ebe 590b 1dbc 3cdb 663e
00000020: c60e 99bd bf4f e1bd e1fe 5cbd dfbc 033e
00000030: cea0 803e f9c6 49be 18c9 f4bd c05c 343e
00000040: de38 71bc 2d72 1fbe 9aea fe3d ee9f f03c
00000050: 3e74 4cbe 7064 833e 2cc8 3fbe e7d5 283e
00000060: 492d 28be 1286 e1bc 87cd 733e b134 c93d
00000070: 2878 743e 2449 3abe dae5 d3bd 2d27 05be
00000080: 5199 8ebd d2b0 0d3e c95f 1fbe 6c06 2ebe
00000090: 9b50 483c 06a0 9bbd 8afb 42be 6825 34be
000000a0: 189d 81be 6f1a 33be 713c 66be 8915 08bd
000000b0: b56a bcbd 59a4 39be 7344 e73d a5fd 1ebe
000000c0: 89fd 9e3d 6823 c03b 0c38 1a3e 30ef 5a3e
000000d0: f953 3ebe afb7 c7bc e11e 1fbd 0a60 e7bd
000000e0: cfaa 7f3d 9cad 473e 30c0 cc3d 27fa 09bd
000000f0: 42dc 223e 864a abbc 3bd4 96bd e6a7 303d
0.10577281 0.2274053 -0.12904134 -0.031288866 0.19112468 -0.15492803 -0.009585225 0.22544569
-0.07473521 -0.110015385 -0.05395401 0.12865017 0.25122684 -0.19704808 -0.11952418 0.17613506
-0.014723031 -0.15570898 0.124470904 0.029373135 -0.19966218 0.25662565 -0.18728703 0.16487847
-0.16423525 -0.02752975 0.23808871 0.09824503 0.23873961 -0.18191963 -0.10346575 -0.13003226
-0.069628365 0.13836983 -0.15563883 -0.16994637 0.012226249 -0.075988814 -0.19041267 -0.17592394
-0.25315166 -0.17490552 -0.22483994 -0.033223663 -0.0920004 -0.181291 0.112923525 -0.15526445
0.07763202 0.0058635958 0.15060443 0.21380305 -0.1858672 -0.02437958 -0.038847808 -0.11297615
0.062418755 0.1949982 0.09997594 -0.03368583 0.15904334 -0.020909559 -0.073646985 0.04312887

lstm1_2.0.weight f4 [32, 32]
00000000: 073c 333e b92d 4b3e 6451 96bc 3a47 0f3e
00000010: 9c65 273e a127 193e b061 e13d 7060 d03d
00000020: 87d0 dcbc 1930 ea3c 6657 033e c32e 18be
00000030: e248 313e 953a 1b3d 7797 f43c 8b0c ad3c
00000040: 259f 383e 52d1 6f3d 8c99 a83d 722a c53d
00000050: 868c 953d 1888 403c a692 31bd ca1c 9ebd
00000060: 3148 ab3d 7883 e83d f3ef df3d 269a f43d
00000070: 3f4e 7c3c fde0 9d3d 3c19 0abe 9ff5 e33d
00000080: a543 30bd 9a31 bebd 806b d5bd 80d8 5d3d
00000090: a680 c7bc 144e 60bd 1aa6 003e b8b0 483d
000000a0: 2a64 143d e5f6 9dbd d7dc babd eee6 573d
000000b0: a5ca 6cbd e442 083e 4271 0c3d 2f11 6abd
000000c0: aece 5d3c a9be 053d 3938 803d 2ff1 203e
000000d0: 7eef 3f3e 5f8c 22be 4222 233e 7c78 3fbe
000000e0: 6e88 173e 0f01 463d c2f0 243e aed9 04be
000000f0: 1ad2 853e 579f 6c3d 1ff2 24be 0ff0 c0bd
00000100: c13c 053e 5bc0 c03c e109 17be 99e7 bfbd
00000110: 3c29 90ba e3d7 1d3d 00df 3a3d 81f1 163d
00000120: 476f f63d e027 873d 10c8 18be c706 e3bd
00000130: ab98 053e fbc6 cb3c 4c42 f73c bb26 2bbe
00000140: 0479 ea3d d391 533d 0d1d d73b c6df 3e3e
00000150: 89b7 cabd cdf4 2ebd ffac cebc d880 41be
00000160: ec2b 123e bcf2 f93d b030 ce3d 66da a6bc
00000170: cace 383e 3054 31be 6d78 93bd bd06 4bbb
00000180: eea9 223e 89fe a4bd ead1 00be f7fc 28bd
00000190: 32e1 023e f394 763d f716 183e 8360 be3d
000001a0: a136 e6bc 7bd7 013e 9361 70bd 2050 263c
000001b0: dd62 223e 55ee 903d 927e 6137 1759 2dbe
000001c0: f69f 8ebd 319e 283e 2a8f 09be c77c 09be
000001d0: da87 27be e809 8439 780e 353e a829 afbd
000001e0: 27a0 dc3d 1549 11be e92b 71bd 2aa0 173e
000001f0: 1231 c73d 2a67 0f3e 4d8e 233d 9076 253e
00000200: 2483 24be 63e3 15be 7b53 1f3e bacd 3d3d
00000210: 9d5b 07be 873b d33d 00c8 253e 3e50 07be
00000220: af92 883d b571 c0bd 7555 fbbc 2f89 453d
00000230: c05a 32be 4899 213e 80b6 23be bbc0 283e
00000240: 3f65 123e 3455 a7bd 0f9b 56bd 46e8 483d
00000250: 73a0 fc3d b4fa 153d 7cd8 db3d 3e34 1e3e
00000260: 6809 acbd 3b09 0f3e 21a1 113e 4117 85bd
00000270: aa35 50bd c4c9 1dbe 3054 d93d 9971 bebb
00000280: 5c5b 023e bbb3 b1bd 9585 c6bd f038 04be
00000290: 8407 24be 3136 a4bc b904 24be 8a99 6abd
000002a0: 8cf0 513d 2caa 623d 192c d9bd d348 1ebd
000002b0: ce12 103e 8429 98bd 4f20 673d 4d10 08be
000002c0: 4b81 09be 3085 c23d 2362 1b3e 1465 1c3e
000002d0: f0e3 e1bc 257f e4bd da0a 0d3e 133d fbbd
000002e0: 71cc 733c f02c 903d 9844 193e f6e5 e3bc
000002f0: 86ed 143e df09 dbbd e55e 003d 6ef0 bebb
00000300: ad71 69bd 6c4e 31be e0a4 313e 1bd7 5abc
00000310: c1e6 6dbe 8cdd d53d cb69 523d c481 023d
00000320: ff85 823d edad 97bd 524c ab3c 0ed8 f0bc
00000330: 8781 66bd 7873 c33d 6730 d5bd f367 2fbe
00000340: b0eb 453d 4b85 943d 561f 553b 0ccf 9dbd
00000350: 3117 1cbe 8edf d8bd d0f4 e5bd 9c5f d6bd
00000360: 6f81 e93d 45f5 8ebd cda7 e73d b955 11be
00000370: 5b45 86bd 8dd9 f73d 3606 08be 3204 20be
00000380: 5e48 bcbc 4957 323d 5028 413e 3cb2 c0bd
00000390: 07c7 11be 2454 bd3d 17a7 8dbd f161 3d3e
000003a0: 57c4 65bd 17a6 5b3d 19af aabc 1fa6 d9bd
000003b0: 9e58 42be 0b72 1b3e b487 6b3d 1c00 ef3d
000003c0: a8c0 333b a46f 23be 0bdc 883d 3e51 a3bd
000003d0: f0ba c83d 3dec 63be d77e b3bd 6ccf 133d
000003e0: f364 153e 01b8 b1bc f8f7 c9bd 3b32 b63d
000003f0: dc37 103e 413c 923c 2b74 30be 279e 0fbe
0.17503367 0.1984166 -0.018349357 0.13992015 0.16347355 0.14956523 0.110049605 0.10174644
-0.026954902 0.028587388 0.12826309 -0.14861588 0.17312959 0.037897665 0.02985738 0.021124145
0.18029459 0.058549233 0.08232412 0.096272364 0.07302193 0.011751197 -0.043352745 -0.07720335
0.08363379 0.11353201 0.109344386 0.11943464 0.015399515 0.07708929 -0.13486189 0.11130833
-0.04303326 -0.092868045 -0.104208946 0.05416155 -0.024353337 -0.05476196 0.12563363 0.048996657
0.036228336 -0.07713107 -0.09124153 0.052710466 -0.057810444 0.13306767 0.0342877 -0.057145294
0.013538046 0.03265253 0.062607236 0.15717004 0.18743703 -0.1587386 0.15931037 -0.18698305
0.14798138 0.048340853 0.16107467 -0.12973663 0.26136857 0.057769146 -0.16107987 -0.094207875
0.13011457 0.023529222 -0.14749862 -0.093703456 -0.0010998617 0.038535964 0.045622826 0.03685141
0.12032943 0.065994024 -0.14920068 -0.11085277 0.1304652 0.024875155 0.03018298 -0.16713993
0.11448863 0.05165274 0.0065647424 0.1864005 -0.09898288 -0.04271393 -0.025228975 -0.18896806
0.14274567 0.12204501 0.1006788 -0.020367812 0.18047634 -0.17317271 -0.07200704 -0.0030979358
0.15885136 -0.08056361 -0.12580076 -0.04125687 0.12781218 0.060200643 0.1485251 0.09295752
-0.028102221 0.12679856 -0.058686804 0.010150939 0.15858026 0.07076708 1.34405145e-05 -0.16928516
-0.06964104 0.16466595 -0.13433519 -0.13426505 -0.16360417 0.00025184383 0.176813 -0.08552867
0.10772734 -0.14188035 -0.058879767 0.14807191 0.09726156 0.14004198 0.03993063 0.16158509
-0.16065651 -0.14637522 0.15559189 0.046338774 -0.13218541 0.10314088 0.16189575 -0.13214204
0.06668603 -0.09396688 -0.030680398 0.04822653 -0.17417431 0.15781128 -0.15987587 0.16479771
0.14296435 -0.08170548 -0.05239397 0.04904964 0.12335291 0.036616042 0.107346505 0.15449616
-0.084002316 0.13968365 0.14221622 -0.06498576 -0.050832428 -0.15408999 0.106117606 -0.0058118817
0.12730163 -0.08676859 -0.096934475 -0.12912345 -0.16018492 -0.020045372 -0.16017427 -0.057275333
0.051254794 0.05533807 -0.10604114 -0.03864367 0.14069673 -0.074297935 0.056427296 -0.13287468
-0.13428228 0.0949806 0.15174155 0.15272933 -0.02757451 -0.111570634 0.13773671 -0.12267508
0.014880286 0.07039821 0.14967573 -0.027819615 0.14543733 -0.10695242 0.0313405 -0.0058270013
-0.056993175 -0.17315072 0.17348051 -0.013356949 -0.23232557 0.10442647 0.051370423 0.031862035
0.06373214 -0.074062206 0.020910416 -0.029399898 -0.05627587 0.09543508 -0.10409623 -0.17129497
0.048320472 0.07251986 0.0032519898 -0.07705507 -0.15243222 -0.10589515 -0.11228335 -0.10467455
0.114016406 -0.06980375 0.11311302 -0.14192857 -0.06556197 0.121020414 -0.1328362 -0.156266
-0.022983726 0.043540273 0.18863034 -0.094089955 -0.14236079 0.09244564 -0.069166355 0.18494393
-0.056095447 0.053625192 -0.020835446 -0.10627388 -0.18979117 0.15180223 0.057502463 0.11669943
0.0027428064 -0.15960556 0.06682595 -0.0797448 0.098012805 -0.22258087 -0.08764427 0.036086485
0.1458929 -0.021694185 -0.098617494 0.088962995 0.14083809 0.017850997 -0.17231815 -0.14025174

lstm1_2.0.bias f4 [32]
00000000: 89b3 c13d 2483 483e e54d 183e 894d 99bd
00000010: e3af c7bd 568a 73bd 6cc1 213e d081 353e
00000020: 8fac 943d a38d 20be cdc1 cbbd 8b54 763d
00000030: aad5 8bbd a1d7 323d ad31 bbbd a374 2d3e
00000040: 43e8 7cbd 947f 33bd 0341 ec3d 59f8 be3d
00000050: 07d2 dc3c c333 b1bd 345b e7b9 5098 273e
00000060: 7311 053e f34a 10bd e7ab f4bd 8383 42bd
00000070: 9fd9 003e 6ca1 f4bd d62a 313d 1e87 a6bd
0.09458072 0.19581276 0.14873464 -0.07485492 -0.097503446 -0.0594581 0.15796441 0.17725301
0.072594754 -0.1567903 -0.09949074 0.06013922 -0.068278626 0.04366267 -0.09140334 0.16939025
-0.06174494 -0.04382284 0.115358375 0.09324712 0.026955618 -0.08652451 -0.00044127705 0.16366696
0.12994938 -0.035227727 -0.1194685 -0.0474887 0.12583016 -0.11944851 0.043253742 -0.0813124
