results/voltage_window_effect/V(3.65-4.05)/Experiment2(10-CC-1)/from_Dataset 3_ft_model.pth (torch, 95756 bytes, 27 tensors)

cnn1.0.weight f4 [16, 1, 3]
000000 d8 a5 fe 3e ec 45 ee be 21 bd 03 bf a9 35 0e 3f
       0.49735904 -0.4653772 -0.5146046 0.5555063
000010 62 54 ca 3e 1d ca 0b bf 95 c6 f3 3e 11 51 b2 be
       0.39517504 -0.54605275 0.47612444 -0.34827474
000020 dc 3b 06 3f ac b5 c5 be c0 c7 0d 3f d3 e3 dd bd
       0.5243509 -0.38615167 0.5538292 -0.1083447
000030 24 82 b1 be 24 b3 b5 be a4 04 10 3f 90 91 af 3e
       -0.34669602 -0.35488236 0.5625708 0.34290743
000040 3a d7 0e bf ae 23 25 be e2 d4 7f bc e6 db c0 be
       -0.5579716 -0.16126892 -0.01561472 -0.3766777
000050 b9 ac e3 be 52 0b a0 3e 32 2d 07 3c d3 27 a8 3d
       -0.44467714 0.31258637 0.0082505215 0.08210721
000060 84 5b 65 3b c9 97 96 bd 12 bc 73 be 42 b0 a9 be
       0.0034997175 -0.073531695 -0.23802212 -0.33142287
000070 cb c3 61 3d 03 fc 98 3d 1c 78 fa be f3 ca 9f 3e
       0.055118363 0.074699424 -0.4891976 0.31209525
000080 31 35 08 3f 2a 23 fb 3e 1d c9 09 bf e4 68 6f 3e
       0.53206164 0.49050266 -0.538225 0.23379856
000090 63 5f 12 3e 5a cd 8f be 1a 05 a0 be c0 a4 ad be
       0.142942 -0.28086358 -0.31253892 -0.33914757
0000a0 e6 ee 99 be 98 a7 49 3e 34 7e 00 3f 42 7e 32 be
       -0.30065078 0.19692838 0.5019257 -0.17430976
0000b0 08 5c 2f 3f ce 0c 9c 3d cc 19 c9 3d b6 a1 d3 3e
       0.68499804 0.0761963 0.098193735 0.41334313

cnn1.0.bias f4 [16]
000000 fa 1b 0d be b7 57 10 bf 34 34 48 be 8f 53 07 3f
       -0.13780203 -0.5638384 -0.19551164 0.52861875
000010 aa 67 14 3f 3f 87 4d be 56 d0 10 3c 3c 11 f1 bd
       0.5797068 -0.20071124 0.008838734 -0.11770865
000020 3d 67 90 3d 1f b7 08 bf 0a 39 fa 3e dd 42 58 3d
       0.07050941 -0.5340442 0.48871642 0.05279814
000030 6a 94 79 be 6b 53 fd be 6b 6f 9d be 8b 85 18 bf
       -0.24373022 -0.49477705 -0.30749068 -0.5957877

cnn2.0.weight f4 [32, 16, 3]
000000 b3 96 f2 3d c0 29 9a bd 83 90 d0 bd 7b c3 0c 3e
       0.1184515 -0.075274944 -0.101838134 0.13746445
000010 09 da dc bb 3c ff 71 bd 90 e5 05 3e 67 4e 05 ba
       -0.006739859 -0.0590813 0.13075852 -0.000508523
000020 1a 2d 81 bd a7 ee bc 3c 6a e9 98 bd e8 b8 78 bc
       -0.063074306 0.023063017 -0.07466395 -0.015180804
000030 97 9a bc bd f2 43 d0 bc 9b ae 18 3e ae 6a ed 3d
       -0.09209173 -0.025423024 0.14910357 0.11592613
000040 03 2c ca bd fa f8 27 3d 28 a5 8d 3d 46 08 0f bc
       -0.09871676 0.041008927 0.06916267 -0.00873
000050 09 00 30 bd ad 4e 51 bd 54 8c 24 b9 94 1a 9f bc
       -0.042968784 -0.05110042 -0.00015692535 -0.019421853
000060 74 1d 91 3d 2c 0c 90 bd 02 35 a9 3d da 42 69 bd
       0.07085696 -0.070335716 0.082620636 -0.05694852
000070 eb 40 dc 3d 97 02 be bd 32 49 71 3d e0 bb 13 3d
       0.107545696 -0.09277838 0.058907695 0.036067843
000080 08 b6 05 3e 15 3b f1 bd 3e c3 97 3d 39 26 06 3d
       0.1305772 -0.11778847 0.07410286 0.032751296
000090 2b a1 a2 bd 38 5e b5 bc 35 46 91 bd e8 ec 8f 3b
       -0.079408966 -0.022139654 -0.07093469 0.004392255
0000a0 b7 77 38 3d 0c df d5 bd 68 27 26 3d a5 73 22 be
       0.045036044 -0.104429334 0.040564924 -0.15864427
0000b0 85 8e 19 be 78 40 2a 3d 08 ab 5a bc fd 22 0f bc
       -0.14995773 0.04156539 -0.013346441 -0.008736369
0000c0 29 80 af 3d 8a 0e 87 3d f7 c0 cd 3d 54 9a 45 3d
       0.085693665 0.0659457 0.10046571 0.048242882
0000d0 81 4c cf 3d a4 7b e1 bd 87 8a 0c 3d b8 26 16 be
       0.10122014 -0.11009911 0.034311797 -0.14663208
0000e0 40 33 70 bc 5b 7a 60 bc 80 bf 76 3d 02 31 8b bd
       -0.014660656 -0.013701047 0.060241222 -0.06796457
0000f0 d7 9f 21 bd 1c 67 d5 bd 41 80 94 3d e8 26 01 3e
       -0.039459076 -0.10420057 0.07251025 0.12612498
000100 d9 da a9 3c 78 ad e8 bd ff 65 a7 3d 8f e5 a5 bd
       0.020734238 -0.113612115 0.08173751 -0.081004255
000110 ac b0 1e ba 38 75 ae 3d f2 d4 cf 3d 3f c7 a4 3d
       -0.0006053548 0.085184515 0.10148038 0.08045816
000120 28 51 da bc 02 ea 7c 3b aa 6f bb 3d 31 7e 4e 3a
       -0.026650026 0.0038591628 0.091521576 0.00078770804
000130 5e 46 90 3d cd e8 67 bd fe 68 2d 3c 68 10 b8 3d
       0.070446715 -0.0566185 0.010584114 0.08987504
000140 3d 41 ac 3d 63 d2 30 3d 68 02 b0 bc d2 9d 62 3c
       0.08410881 0.04316939 -0.021485522 0.013831573
000150 8d 5d 04 be 8b b4 d0 3d f9 0c 98 3d ca 26 0d be
       -0.12926312 0.10190686 0.07424349 -0.13784328
000160 62 61 55 3d 89 94 42 bd 27 70 35 be 04 23 ba 3c
       0.052094825 -0.047504935 -0.17718564 0.022721775
000170 de 70 f0 bd dc b7 b0 3d 26 f1 a0 bc e9 dd b3 3d
       -0.11740278 0.086288184 -0.019646239 0.087825604
000180 a1 2e f1 3c d8 14 b9 bd 67 14 df bd 7d 0b 0f 3d
       0.02944118 -0.09037179 -0.10892563 0.034923065
000190 4b 14 87 bd 6e 5a 1d 3d 90 8c ef bd ca ba 10 be
       -0.065956675 0.03841632 -0.11696732 -0.14133754
0001a0 85 f7 88 3d 7d 26 22 3d fa 6e f5 3d b7 2f fd bd
       0.066878356 0.039587487 0.11984058 -0.123626165
0001b0 23 d2 8f 3d 2a e1 b6 3d 77 22 a1 3d 41 dc 2b bc
       0.07022502 0.089296654 0.07867902 -0.010489524
0001c0 db 48 9a 3c 4b 4b 05 3e ca 5e a9 3d 2a 37 e6 bd
       0.018833568 0.13017003 0.08270033 -0.112409905
0001d0 e1 b7 a6 3d a7 27 40 3c 0c c8 81 3c 8c 54 05 be
       0.08140541 0.011728204 0.01584246 -0.13020533
0001e0 71 52 a7 3d ba e9 d8 3d fd 4f 71 3d 76 6b 00 bd
       0.08170021 0.10591455 0.058914173 -0.031352483
0001f0 19 73 20 3d ef 52 f5 bc 8a 81 df 3d db 10 03 be
       0.039172266 -0.029946772 0.109133795 -0.12799399
000200 f7 55 f2 3d 47 67 c9 bd 8f d0 cd bc e1 bb 86 bc
       0.11832803 -0.09834152 -0.025123863 -0.01644701
000210 aa ec 84 bc 28 8f 0d 3d 84 51 b5 3d 0a 72 eb 3d
       -0.016226131 0.034560353 0.088534385 0.114963606
000220 1b 06 87 3c b5 97 6d 3c ee 0c 17 be 52 a6 5f 3d
       0.016482404 0.014501502 -0.14751026 0.054601975
000230 87 69 c6 bc db 71 00 3e 57 fa 90 3d f2 83 77 bd
       -0.024220241 0.12543432 0.070789985 -0.060428567
000240 f2 e4 ed 3d 69 9b 44 bd a4 82 9e 3d 69 e5 69 bd
       0.116159335 -0.047999773 0.077397615 -0.05710355
000250 84 d4 48 bd e7 cb f9 bd 3a 20 b0 bd 6a d0 0b 3d
       -0.049030796 -0.121970944 -0.08599897 0.034134306
000260 ff 10 51 bd 30 01 55 3d 32 dc 8e 3d d3 ae a2 3d
       -0.0510416 0.052003086 0.06975593 0.07943501
000270 12 78 f6 3d ef f9 11 3e c9 c0 f9 3d f2 e7 2b 3b
       0.1203462 0.14255498 0.12194974 0.002623078
000280 09 b6 d5 bd 2a 12 87 3d 67 f4 b7 bd f1 6b 77 3b
       -0.10435111 0.065952614 -0.08982163 0.0037753547
000290 9c 3b 97 bd 3c 10 10 3d 72 45 5e 3d c5 6c a6 bd
       -0.073844165 0.035171732 0.054265447 -0.08126215
0002a0 cd 9d fa bc 6d 47 a4 3d 92 f3 b5 3b 92 9b f1 3c
       -0.030592823 0.08021436 0.0055527175 0.029493127
0002b0 25 c1 9a bd 54 ed 8d 3d fe ee 35 3d 3f a4 89 bd
       -0.07556371 0.06930032 0.044417374 -0.067207806
0002c0 51 1b 59 bb 6e 2b d2 3d 96 ce 3c 3d 9f 1a 17 3e
       -0.0033127854 0.1026219 0.046095453 0.14756249
0002d0 81 f3 bb 3c 27 a9 0a be 73 28 31 3c e9 93 ca bd
       0.02294326 -0.13541089 0.0108128665 -0.09891493
0002e0 ad a5 de bc 93 ae d4 bd 26 dd be 3e 6f d9 c4 3e
       -0.02717861 -0.1038486 0.37278098 0.3844714
0002f0 4a 3e f3 3d f7 cd d9 3d 25 2f ff 3d 79 ed 0e 3d
       0.11877115 0.10634988 0.12460164 0.03489444
000300 b4 ea d8 3d ff 71 aa 3d 6e a7 61 3c c6 3f f5 3d
       0.10591641 0.08322524 0.0137728285 0.119750544
000310 6c eb c9 bd cd 95 b6 bd 83 aa a7 3d 1a 3f 16 3e
       -0.09859356 -0.08915291 0.081868194 0.14672509
000320 e9 6a 57 3d 33 91 90 bd 18 bb e4 bd 83 8e fc bd
       0.05259219 -0.070589446 -0.11168498 -0.123318695
000330 2f 17 9c 3d 68 ff 6d 3b 5c 88 59 3d 21 e5 2a bd
       0.076216094 0.0036315564 0.053108558 -0.04172242
000340 e2 a9 13 bd b0 bd c0 3c 3d ba dc bd c3 6c c4 bd
       -0.036050685 0.02352795 -0.1077771 -0.09591057
000350 b3 ab f0 3d 10 3c 99 3d 23 1e 1c 3d cf 51 30 3e
       0.11751499 0.07482159 0.038114678 0.17218708
000360 79 39 ff bd 08 4b 90 3d 25 7f d8 3d 57 ad ee bc
       -0.12462134 0.07045561 0.10571126 -0.02913539
000370 45 36 ca 3d 37 48 b3 3d 55 ca 8f 3c d1 7c 2e 3d
       0.09873632 0.08754008 0.017552534 0.042599503
000380 ad 73 af bd 3b 75 dd bd 56 d8 e4 bc 5a f8 0c 3e
       -0.08566985 -0.108133756 -0.027935188 0.13766614
000390 cf a5 81 bc 1d 3e 0e be 4b a8 03 3e 6a be f6 3d
       -0.015826134 -0.13890882 0.12857167 0.12048037
0003a0 6e 09 73 3d 2d b5 ba 3d 8e bb 2d 3e 33 bd 97 3c
       0.059335165 0.09116588 0.16966078 0.018522834
0003b0 d3 ee cf 3d 80 a9 b8 bd 8c 03 ea 3d 51 26 47 3c
       0.10152974 -0.090167046 0.11426458 0.012155131
0003c0 73 ac a7 bd 02 78 26 3d c9 fc ac bb ce 0a 86 bd
       -0.08187189 0.040641792 -0.005279158 -0.065450296
0003d0 9f 8c 4c 3d cd d0 ae bd ec e7 3d 3c 90 be c0 bd
       0.049938794 -0.08535919 0.011590939 -0.09411347
0003e0 53 10 7a bd b5 fa 10 3d 1e 1a a4 bd bf 55 8e bd
       -0.061050724 0.035395343 -0.08012794 -0.069499485
0003f0 a0 b2 3e 3d 47 53 db 3c 2c 45 ba bd 28 d9 da 3d
       0.04655707 0.026773108 -0.09095225 0.106859505

cnn2.0.bias f4 [32]
000000 07 0c 72 3d 9a e2 96 bd 2d e6 84 bd d2 9a a3 bb
       0.0590935 -0.073674396 -0.06489215 -0.0049928213
000010 2e 8a 24 bd 09 69 0a be bb a3 a9 3d 13 9a ff bd
       -0.04017084 -0.1351663 0.08283182 -0.12480559
000020 ff 23 fc bc 78 60 00 be 7d 5a 80 3c 6d ea cf 3c
       -0.030778883 -0.125368 0.015668148 0.025380338
000030 96 21 cd bd 3d cf 04 be dd 50 06 be 0a 03 cc bc
       -0.10016172 -0.1296968 -0.13116784 -0.024903793
000040 ce 57 8f bd 38 96 a7 3b 46 67 a3 3d b2 8e d3 3d
       -0.06999169 0.005114343 0.07978682 0.10329951
000050 cd 73 0a bd 40 13 3b 3d d2 e4 27 b8 b6 24 13 be
       -0.033801842 0.045672655 -4.002901e-05 -0.14369473
000060 55 6d e4 3d 33 97 38 bd a5 dc d3 3d 78 37 86 3d
       0.11153666 -0.04506607 0.10344819 0.065535486
000070 69 53 39 bd d8 40 96 3d 06 b5 92 bd de 15 6c 3d
       -0.04524556 0.07336587 -0.07163434 0.05763804

lstm1_1.weight_ih_l0 f4 [64, 32]
000000 58 2d f3 bc 05 b5 69 be 7a 52 1c 3e ae 32 09 3e
       -0.029684708 -0.2282296 0.15265837 0.13398239
000010 ae 9f 58 3d 0e 60 74 be 09 62 3e 3e 3c 2c d2 bd
       0.052886657 -0.23864767 0.18592085 -0.10262343
000020 49 3c 20 3e bc 52 1e be da 81 c2 bc c5 40 e1 bd
       0.15647997 -0.15461248 -0.023743559 -0.10998682
000030 3c c0 9a 3d 1c ec fc bd d4 c7 2d be 86 67 51 be
       0.07556197 -0.12349722 -0.1697076 -0.20449647
000040 ae 25 68 3e ce f8 46 be 50 61 19 bd 51 fb e1 bd
       0.22670624 -0.19430849 -0.03744632 -0.11034263
000050 55 41 23 3e 2e b0 d5 3b c1 5b 46 3e 62 5f 48 3e
       0.15942891 0.0065212464 0.19370939 0.19567636
000060 86 0a 70 3c 60 08 57 bc 29 91 20 3e 1e cf 1b be
       0.0146509465 -0.013124555 0.15680374 -0.15215728
000070 c9 62 70 be 3a 0f 5e 3e 18 d4 07 bd 41 78 26 3e
       -0.23475184 0.21685496 -0.033161253 0.1625681
000080 59 61 77 be 5b 60 58 ba c1 f9 2f 3e 23 42 30 bd
       -0.24158229 -0.0008254104 0.17185117 -0.043031823
000090 09 e8 bd 3d 8c 5b 54 be f7 17 47 bd d0 f4 3b bd
       0.09272773 -0.20738047 -0.04860684 -0.04588777
0000a0 a0 2d bb bd 60 ef a6 bc b8 aa 3d bd 6a dd aa 3c
       -0.09139562 -0.020377815 -0.04630539 0.020857532
0000b0 78 05 68 3d 8c f9 33 3d fc 10 ca bd 30 d2 4b bd
       0.05664584 0.04393916 -0.09866521 -0.049760997
0000c0 e0 40 dd 3d 31 e0 0e 3c e0 f1 98 bc 8d 48 3d bd
       0.108033895 0.008720444 -0.018670022 -0.046211768
0000d0 73 06 a1 bc 9a 23 5a be 25 ae 62 3e f0 d6 a6 bd
       -0.019656396 -0.21302643 0.22136743 -0.08146465
0000e0 eb f0 ba bd 80 b9 1e bb 53 90 6e 3e 28 9f 63 bd
       -0.09127983 -0.0024219453 0.23297243 -0.055571705
0000f0 0f 7a e9 bc 50 ac b3 3d 34 9b 7e 3e be 1b a1 bd
       -0.028500585 0.087731004 0.24863893 -0.078666195
000100 ea 0a 32 3e fc e0 5d 3c 30 a6 5c be ab 04 92 bd
       0.17386976 0.01354241 -0.2154777 -0.071297966
000110 af 3b 7a 3e 26 d3 52 be e8 60 49 3e 18 68 7c 3d
       0.2443683 -0.20588359 0.19665873 0.06162271
000120 88 55 9f 3d e0 c7 b7 3c 79 a8 6e 3b 6f 56 69 bd
       0.07779986 0.022434175 0.0036416335 -0.056967195
000130 26 a2 53 3e b3 05 7f 3e f4 c5 e7 3d 71 1f ad 3d
       0.20667323 0.24904518 0.113170534 0.084532626
000140 a8 58 24 bd 79 bf 23 3e b4 93 84 3d 23 ae 3d 3d
       -0.04012361 0.1599101 0.06473485 0.046308648
000150 80 33 60 be 06 59 d7 3d ea 80 cf bc 3e e5 71 3e
       -0.21894646 0.10515027 -0.025330026 0.23622605
000160 89 c6 8f 3c 70 7c 35 3e 62 5a 31 3e 84 d8 22 be
       0.017550724 0.1772325 0.17319635 -0.15902907
000170 cc a6 50 3d 3c b9 ac bd f0 63 26 3d ef 7d e9 bd
       0.05094032 -0.08433768 0.04062265 -0.11400973
000180 22 65 a8 bd 73 ce c8 3d c7 40 88 bd 55 e9 eb 3c
       -0.082224146 0.09805002 -0.0665298 0.028797785
000190 12 3e 74 be e0 22 f3 bc bd bb 50 be 30 7e 26 bd
       -0.23851803 -0.029679716 -0.20384116 -0.040647686
0001a0 e1 03 28 3e d2 10 00 3e 96 c9 9e bd 1f 02 f9 3d
       0.1640773 0.12506416 -0.07753293 0.12158608
0001b0 0c fa 00 3e 1a 65 7e bd 88 06 15 bd bd 91 07 be
       0.12595385 -0.062108137 -0.03638318 -0.13239188
0001c0 20 1d 27 bc f0 08 32 be c0 80 99 3c ec 74 87 3d
       -0.010199815 -0.17386222 0.01873815 0.06614098
0001d0 82 dd 9f bd 6d fc 5b be 65 2c ab bd a0 30 45 be
       -0.07805921 -0.21483012 -0.08358077 -0.1925683
0001e0 ee 19 65 be ea 8d 0d be f7 b8 1b bc 10 e7 a3 bd
       -0.22373173 -0.13823667 -0.009504548 -0.08003056
0001f0 04 d8 68 be 14 0c a1 bd e2 dc 0a be 5a 17 5c be
       -0.22738653 -0.07863632 -0.13560823 -0.21493283
000200 79 7d f2 3d c4 80 92 3d 55 9d 63 bd 45 96 2b bd
       0.11840338 0.07153466 -0.055569965 -0.041891355
000210 65 e7 67 be bc 43 b2 3d 90 70 10 3e 88 0e b2 3d
       -0.22646864 0.087043256 0.14105439 0.08694178
000220 48 20 75 bc 00 95 2e 3c 8a 2e 2c be b6 5e 16 be
       -0.01496131 0.010655642 -0.16814628 -0.14684567
000230 b8 c2 dc 3d b7 15 64 bd c2 89 29 3e f8 7e 64 3e
       0.10779327 -0.05568477 0.16556457 0.2231406
000240 cc 45 cc 3d c8 c1 42 3e 40 ff d0 bc 20 a1 f1 bc
       0.0997425 0.19019234 -0.025512338 -0.029495776
000250 5c d4 5c be 89 7f f5 3d d4 c3 fe bd 28 4c e5 3d
       -0.21565384 0.11987216 -0.12439695 0.11196166
000260 fb d2 29 3e 28 01 1f be 2c 08 77 be c4 31 8e 3d
       0.16584389 -0.15527785 -0.24124211 0.06943086
000270 4a df 3d 3e 08 5a 3b 3d a0 01 76 3d dd fa 7e bb
       0.1854221 0.045740157 0.060060143 -0.003890685
000280 11 13 ec bc 0a f6 06 bd ab 89 36 3e 43 c5 3e 3e
       -0.028817685 -0.032949485 0.17825954 0.18629937
000290 a4 40 0b 3e d6 ff 6c be 75 89 62 3b e0 68 20 3d
       0.13598877 -0.23144469 0.0034566794 0.039162517
0002a0 60 6f 12 bd 58 3b 0d be a7 9e 57 3e 42 c3 4d 3c
       -0.035750747 -0.13792169 0.21056615 0.01255876
0002b0 7a 2a 7c be 24 38 04 3e 0c 86 e2 3d 41 e9 c3 3d
       -0.24625579 0.12912041 0.11060724 0.09565974
0002c0 90 38 60 3e bc c0 0b 3e 90 bd e7 bc 9e 73 59 3e
       0.21896577 0.13647741 -0.028288633 0.2123551
0002d0 a1 b1 98 3d 38 ac 3b 3d 02 28 4a 3e 8c 53 09 be
       0.07455755 0.045818537 0.19741824 -0.13410777
0002e0 91 e9 bd 3d d8 6d 02 be 1a f5 33 be 4c 9b 4e be
       0.09273065 -0.12737215 -0.17573968 -0.20176429
0002f0 8a 58 c3 3d da 3c 2c be e4 22 f2 bd 32 bf fe bd
       0.09538372 -0.16820088 -0.11823061 -0.12438811
000300 f2 35 93 3d 48 12 0d be 96 e5 ee 3d 5b d2 56 3e
       0.071880236 -0.13776505 0.11664884 0.20978682
000310 18 d6 86 bd dc fb 6c 3e 4d 33 2d be 88 a2 23 be
       -0.06583804 0.23142952 -0.16914101 -0.1597997
000320 5f 6b 80 bd 12 91 6d 3e 0b 28 84 3d da 03 7b be
       -0.062704794 0.23199871 0.0645295 -0.24513188
000330 76 77 53 be 49 68 92 bd 10 84 09 3d 41 68 b3 bd
       -0.2065104 -0.07148797 0.03357321 -0.08760119
000340 f4 28 52 3e 34 7d 69 3e e0 7b 6e 3d 9c cf 12 3d
       0.20523435 0.22801667 0.058223605 0.035842523
000350 5a 49 20 be 0b 83 58 bd be 91 87 bd 4e ff 66 3e
       -0.15652981 -0.052859347 -0.06619595 0.22558329
000360 d7 a5 d5 3d c0 bb 34 3e 91 bb 19 be 6c 6c 43 3e
       0.10432022 0.17649746 -0.15012957 0.19084328
000370 6e 24 4d 3e c0 7b 9f 3c 70 3d 80 3c dc 8f c6 3d
       0.20033428 0.019468188 0.015654296 0.09695408
000380 51 71 42 3e b4 b0 7a bd 7c 47 1b 3d 8f da 6e be
       0.1898854 -0.061203673 0.03790997 -0.23325561
000390 b1 2a 19 3e ee 02 3c be 5f 3c 6d bc a8 20 e7 3d
       0.14957692 -0.18360493 -0.014479726 0.112855256
0003a0 54 19 f9 3d 38 a5 47 3d de c1 63 3e 07 1a 56 3e
       0.12163034 0.04874155 0.22241923 0.20908366
0003b0 c4 5f d5 3d 28 b8 e1 3e ac 46 3d be 50 22 8d bc
       0.104186565 0.44085813 -0.1848399 -0.017228276
0003c0 e0 1c f3 bc 98 20 19 be 0e 0e 2a be 48 4d 9a 3b
       -0.029676855 -0.1495384 -0.16606924 0.0047089197
0003d0 e6 11 30 be 84 1b a6 bd 56 47 98 bd 00 b3 92 3d
       -0.17194328 -0.08110717 -0.07435481 0.07163048
0003e0 53 73 7f 3e b6 5c 29 3e 53 75 5e 3e bc ab fc bd
       0.24946336 0.16539273 0.21724443 -0.12337443
0003f0 46 67 9f 3d c0 da f9 3c 18 d1 4d bd 34 16 b2 3b
       0.0778337 0.030499816 -0.050248235 0.0054347757

lstm1_1.weight_hh_l0 f4 [64, 16]
000000 8c 86 53 3e f0 e1 42 bd 5b ed e2 bb b9 a3 71 bd
       0.20656794 -0.047578752 -0.0069252676 -0.05899403
000010 4b 49 56 3d 2f ad 15 be 30 c9 0c be fd dd 4f be
       0.05231599 -0.14616846 -0.13748622 -0.20299526
000020 87 45 36 3e 8b 69 0e 3e 9f 33 6d 3e b7 ca 9b 3b
       0.1779996 0.13907449 0.23164223 0.00475439
000030 55 d5 d0 bd 0c d0 b5 3d 76 6d 13 bd de cd c3 bd
       -0.1019694 0.088775724 -0.035993062 -0.095607504
000040 04 e8 88 bc 23 48 35 bd 72 23 71 be ae 43 f0 3d
       -0.016712196 -0.044258248 -0.23548678 0.11731659
000050 6f 38 2e be e1 e0 7a 3e 22 85 22 3e e2 6e 0d 3c
       -0.17013715 0.24499847 0.15871099 0.008632394
000060 9e dd 0b be 45 70 d7 bd 50 bb 60 3d d5 26 29 be
       -0.13658759 -0.105194606 0.054866135 -0.1651872
000070 70 16 b1 3d fd fa f0 bd d9 b4 15 be 54 1f 1d 3d
       0.08646858 -0.11766622 -0.14619769 0.038359955
000080 1a dc 99 bd 47 39 4f bd e6 70 c2 bd c2 52 fb bb
       -0.07512684 -0.050591733 -0.0949419 -0.0076697776
000090 60 df ca bd 6e 5e d0 3d a2 b4 a6 3d cb 0b 7c be
       -0.09905887 0.10174261 0.08139922 -0.24613874
0000a0 62 cc b4 3c 3d 05 61 bd f0 4a 24 bd 6f 7e 5d 3e
       0.022070114 -0.054936636 -0.04011053 0.21630262
0000b0 e6 39 80 3e d6 a7 a8 3d 25 ec 7b be d7 a1 09 be
       0.25044173 0.08235137 -0.246018 -0.13440643
0000c0 85 26 73 3e 80 ac 36 3e e8 78 4b 3e da c9 33 be
       0.23745163 0.17839241 0.19870341 -0.17557469
0000d0 5b 19 7d 3e f2 b3 81 ba 4e 43 20 bd 6a e0 bc bd
       0.24716704 -0.0009895547 -0.039126687 -0.09222491
0000e0 1e 9b 82 bc c8 f2 7d bd a6 48 0f 3e d8 79 71 bd
       -0.015943106 -0.061999112 0.13992557 -0.05895409
0000f0 18 69 55 3e 3a 9e 05 3e 12 2e 70 3d 78 0e c4 bd
       0.20840871 0.1304864 0.058637686 -0.09573072
000100 fd 07 31 3c 1f 01 36 be c3 50 80 bd fd b0 e6 3d
       0.010805127 -0.17773865 -0.06265404 0.112642266
000110 6a 10 6b be df f7 1d be a7 09 49 be ab da fd bb
       -0.2295548 -0.15426587 -0.19632588 -0.0077470145
000120 c6 6b b5 bd b5 0a 44 be 62 05 c8 3c a3 06 cf 3d
       -0.08858447 -0.1914471 0.02441663 0.10108688
000130 36 b2 dc 3d bd a6 27 be 2a 5c 8f bd c8 22 23 3e
       0.107761785 -0.163722 -0.07000001 0.15931237
000140 47 0b df bd dd 64 e5 bb 73 ae 0d 3e 68 7a 36 3e
       -0.10890823 -0.007000549 0.13836078 0.17820132
000150 fb 8e 77 bd 05 c1 62 3e 07 8f d9 3d b5 88 5d bd
       -0.06043909 0.22143944 0.106229834 -0.054085452
000160 3a 15 95 3d 81 98 14 be 51 1b a1 3d fa fc f0 3d
       0.07279439 -0.145113 0.07866538 0.117670015
000170 5d ec 31 be 72 12 bc 3d fc a0 19 3d f6 cb 85 be
       -0.17375322 0.09183206 0.037507042 -0.26132172
000180 8b 05 62 be 54 f2 5b be 70 b2 8f 3d 05 2e 75 be
       -0.22072427 -0.2147916 0.07016456 -0.23943336
000190 b8 89 cc bd 5a 75 7d 3e 4b 95 85 bd 4f 4c db bd
       -0.09987205 0.24751797 -0.06522616 -0.10707914
0001a0 ce bf 7f be b3 aa ec 3d a8 e7 e9 3d 50 76 67 3d
       -0.24975511 0.11555996 0.11421138 0.056509316
0001b0 8e c6 2f be 45 9e 5f 3e 01 49 af 3d 1e 5e 2b 3e
       -0.17165586 0.21837719 0.08558846 0.16735122
0001c0 54 b1 ec bb 26 d2 5c 3e 72 c3 c9 3d ae 4f e2 3d
       -0.0072232876 0.2156454 0.09851731 0.11050354
0001d0 6d 3b 47 3e 60 6d 13 be 0b 3b 12 bc a6 ad 0a 3e
       0.19456263 -0.14397192 -0.00892521 0.13542804
0001e0 8a 85 4b be 4c 1c f6 3d 88 0b 44 3e ca 77 52 be
       -0.1987516 0.12017116 0.19145024 -0.20553508
0001f0 38 b2 e8 bd bd 5d b5 bc 23 3f e8 3d a3 66 0a 3c
       -0.113621175 -0.022139424 0.113401674 0.008447322
000200 d8 17 54 be 9d b2 f6 bd bb c2 c4 bc 99 bd c6 3d
       -0.2071222 -0.120457865 -0.024018636 0.09704132
000210 db 63 8f 3d b2 e4 c5 bd 36 99 4d 3e 40 74 18 be
       0.07001468 -0.09662761 0.20077977 -0.14888096
000220 af f0 88 3e c4 86 63 bd e8 46 12 be 3f f7 60 be
       0.26746127 -0.055548444 -0.14284861 -0.21969317
000230 fd 68 95 3c c0 86 2d be 41 ab 60 be 92 a9 c8 bd
       0.018238539 -0.16945934 -0.21940328 -0.09797968
000240 b0 7c 66 3e 88 3a 7d be 74 17 24 3d 90 c0 38 3e
       0.22508502 -0.24729359 0.04006143 0.18042207
000250 fb 5e 02 be fe 42 1d 3d a1 a7 53 be e6 4a 72 3d
       -0.12731545 0.038393967 -0.20669414 0.05915346
000260 8a 2f 4e 3d 38 5b 9c 3d 36 9b 4d be 6e dd 52 be
       0.050338306 0.07634586 -0.2007874 -0.20592281
000270 52 f2 aa bd a6 f5 62 bc 35 f1 0a be 33 17 a5 bc
       -0.08347 -0.013852512 -0.13568576 -0.020152664
000280 8f 94 d7 bd e7 88 5e 3d 03 1a bb 3c 22 56 35 be
       -0.10526382 0.05432978 0.022839552 -0.17708638
000290 a7 10 da 3d d0 2c 12 3e 54 20 5a 3d ed eb 22 bd
       0.106477074 0.14274907 0.053253487 -0.039775778
0002a0 40 f5 4b 3e 92 60 79 bd ed 2a b7 3c 3b 2e d6 bc
       0.19917774 -0.060883112 0.022359336 -0.026145091
0002b0 cb f0 d1 bd f8 85 3b 3e 5d 9f 1e be c4 5f 04 be
       -0.10251006 0.18312824 -0.1549048 -0.12927157
0002c0 8d b0 7b bc ca a9 f9 bb df 86 50 3e df e6 b3 bd
       -0.015361917 -0.0076191174 0.20363949 -0.087842695
0002d0 0b 4c 29 3d 40 c6 d7 bd c6 d2 dd 3d 92 9e d2 bc
       0.041332286 -0.1053586 0.108312175 -0.025710378
0002e0 9e c9 89 bd dc 9a a8 bd 3c fc 4b 3d 93 a9 94 3d
       -0.067279086 -0.08232662 0.049801096 0.07258906
0002f0 a3 77 66 3e 4c f9 db 3d 5f 35 5a bd 24 4c 3c 3e
       0.22506575 0.10740909 -0.053273555 0.1838842
000300 36 d5 38 be fc cc a7 3c 7e 8f 5c 3d 0f 0b 46 be
       -0.18050084 0.020483486 0.053847782 -0.19340156
000310 c9 90 4b bd b6 f6 33 3e f0 bd de bd 81 76 22 be
       -0.049698625 0.17574582 -0.108760715 -0.15865518
000320 56 54 1c be 22 94 2f be 1f 8d 4f 3e 09 54 5a bb
       -0.15266547 -0.17146352 0.20268677 -0.003331425
000330 59 2a 20 3e 2f f6 7c be 04 d4 60 be 9f 9e cf bd
       0.15641154 -0.24703287 -0.21955878 -0.101376764
000340 0e 18 20 be 56 dd 32 bd 32 76 2e be d9 70 5e be
       -0.15634176 -0.043668114 -0.17037275 -0.21722735
000350 7d 3b 5b be 72 55 53 3e 25 aa 1f 3e 72 fd f7 bd
       -0.21409412 0.20638064 0.15592249 -0.12108888
000360 08 3d f8 bd c2 e8 d8 3d ed ff 83 bd 4d d8 0b be
       -0.12121016 0.1059127 -0.06445298 -0.13656731
000370 57 f7 b9 3c 15 a9 45 be 85 02 65 3d 83 96 de bd
       0.022700949 -0.19302781 0.055910606 -0.108685516
000380 3d 73 7c 3e 4b fa 27 be 77 b0 d8 bd 99 f7 5a bd
       0.24653335 -0.16404073 -0.10580533 -0.053458784
000390 97 93 69 be be 8a 59 3e cf 47 8e bd 38 7f 36 be
       -0.22810207 0.21244332 -0.0694729 -0.17821968
0003a0 ed cb 20 3e 7d b7 76 be 77 90 d4 bd 94 c8 73 3e
       0.15702792 -0.24093433 -0.10379117 0.23806983
0003b0 57 fb 66 be 46 98 b9 bd 22 7d 12 be da 2f 55 3d
       -0.22556816 -0.09062247 -0.14305547 0.052047588
0003c0 61 e3 28 3d f0 69 87 bc 13 cb 7b 3c 8f f7 d8 3d
       0.04123247 -0.016530007 0.015368241 0.10594093
0003d0 99 d1 bc 3c d8 e7 3f bc d5 a3 04 be a7 3b 9f bd
       0.023049163 -0.011712991 -0.12953122 -0.0777505
0003e0 bd 66 67 be 8c bf b4 3d 78 08 74 3e bf a7 39 3e
       -0.22597785 0.08825597 0.23831356 0.18130396
0003f0 d1 a0 69 bc 4c 2b 41 be d2 a8 aa bd 4c d6 40 bc
       -0.014259533 -0.18864173 -0.08332981 -0.011769842

lstm1_1.bias_ih_l0 f4 [64]
000000 64 ef 34 3d 35 bf b3 3d 5f 41 f2 bd 5f a3 2b bd
       0.044173613 0.08776704 -0.11828875 -0.04190385
000010 7f 7f 51 be 53 b6 6b 3e 09 d9 6b 3e 8b 6b 0d 3e
       -0.20458792 0.2301877 0.23032011 0.13810556
000020 be 9f 18 be 1b 8d 25 3e 0f 05 8d 3d 70 79 bf 3d
       -0.14904687 0.16167109 0.068857305 0.09349334
000030 d4 96 10 3e 41 79 ce 3d c9 17 36 3e ee 63 84 3c
       0.14120036 0.10081721 0.17782511 0.016160931
000040 88 8f 3d bd 72 3c bf 3d 66 54 6a 3d ae 21 3f 3e
       -0.04627946 0.09337701 0.057209395 0.18665192
000050 0c fa 5a 3e 9a 37 2d be 61 3a a7 bd 57 76 60 3d
       0.21384448 -0.16915742 -0.08165432 0.054800358
000060 00 d4 6d be 38 02 d3 bc 43 12 2c bd 4b 87 ea 3d
       -0.23225403 -0.025757894 -0.042009603 0.11451586
000070 ab c3 f0 bd e2 eb e4 3d 04 ee fc 3d f4 e3 a7 bd
       -0.11756071 0.111778036 0.123500854 -0.081977755
000080 b6 b8 f3 bd 2d 3b 62 3e d5 91 13 3e d6 a5 49 be
       -0.11900465 0.22092886 0.144111 -0.19692168
000090 38 67 6a be 96 6a d0 3d c1 46 40 3e 0c 4f 27 be
       -0.22890937 0.1017658 0.1877699 -0.16338748
0000a0 fd f7 c4 bd 39 27 24 3e 73 09 78 bb fa 5c 79 be
       -0.096176125 0.16030587 -0.003784743 -0.24351874
0000b0 45 23 e2 bd 95 c9 4d bd 76 96 22 be ca 79 52 3d
       -0.110418834 -0.05024107 -0.15877709 0.05138568
0000c0 32 2a f1 bd 9b e6 70 3e 6f 2b 57 be 26 f7 f4 bb
       -0.11775626 0.23525469 -0.21012662 -0.0074757515
0000d0 07 49 9c bb 27 69 22 be 5c 3f 15 3e d5 2d 18 bc
       -0.0047694477 -0.15860425 0.14574951 -0.009288271
0000e0 7d c9 97 3d 4e 77 0c 3e 33 50 3f 3e b7 b5 80 be
       0.07411478 0.13717386 0.18682937 -0.25138637
0000f0 dd f4 99 3d 42 43 43 3e 4a 0f 62 be f7 98 05 3e
       0.07517407 0.19068626 -0.22076145 0.13046633

lstm1_1.bias_hh_l0 f4 [64]
000000 6d ae c0 bd cc 7f 11 be f3 1c 04 bd 23 f3 c0 bc
       -0.09408269 -0.14208907 -0.03225417 -0.023553437
000010 be 85 6e bd 05 d7 ac bd 9c bd 92 3c 87 8d 2a 3e
       -0.058233015 -0.08439449 0.017912678 0.16655551
000020 34 79 01 be a3 3c f5 bd 90 fe 8a bd 06 4e 1f 3e
       -0.12643892 -0.11974456 -0.06786835 0.15557107
000030 56 cc 64 be ce 51 12 bd 52 cb 69 3d 55 d3 ad bc
       -0.22343573 -0.035722546 0.057078667 -0.021218935
000040 8f 6a 51 be 44 5a 5c 3e 88 a5 18 3e 6e 28 11 3e
       -0.20450805 0.21518809 0.14906895 0.14175579
000050 b0 10 92 3c a3 5a 0f be 49 2d 80 3e 83 fa 89 be
       0.017830223 -0.13999419 0.2503455 -0.26948938
000060 06 7b d7 bd 41 ab e7 3d 16 59 9a bd 01 72 ae 3b
       -0.10521512 0.11311961 -0.07536523 0.005323649
000070 c9 a4 17 be 96 c8 21 be 6a 7c 09 be dc 67 dc 3d
       -0.14808954 -0.15799174 -0.13426366 0.10761997
000080 b2 31 15 3e 6b 58 7b 3e dd 74 24 3e 8a 52 6e 3e
       0.14569739 0.24545448 0.16060205 0.23273674
000090 ec d4 3d be 4d a1 da bb af 8a 73 3e f6 46 ef 3d
       -0.18538254 -0.0066720606 0.23783372 0.116834566
0000a0 0d 2b 21 be 4b f1 c1 3d b0 6a 0c 3e 98 b5 ad 3b
       -0.15739079 0.09469851 0.13712573 0.0053011887
0000b0 43 39 47 3e b1 59 1d 3e 9a 23 b1 bd ba d7 9d 3d
       0.19455437 0.15366246 -0.086493686 0.07707162
0000c0 05 04 04 3e 61 f1 78 3d 97 9d 3a 3e a2 5f 36 be
       0.12892158 0.060777072 0.18224178 -0.17809919
0000d0 ff 03 3b bd f4 d9 80 be fa ca 02 3e 88 da 4c 3e
       -0.045658108 -0.25166285 0.12772742 0.20005238
0000e0 81 e7 3f 3e 6f be 32 3d 4d 44 58 be 7d 18 76 be
       0.18740655 0.043638643 -0.21119805 -0.24032779
0000f0 c5 70 55 3e ae ff c4 3d 54 17 78 be 17 d0 17 3e
       0.208438 0.096190795 -0.24227649 0.14825474

lstm1_1.weight_ih_l0_reverse f4 [64, 32]
000000 52 a0 1e be 87 6e 50 bb 21 41 2c be 69 34 cd bd
       -0.15490845 -0.003180416 -0.1682172 -0.10019762
000010 be 6c 27 3e f0 57 01 bd 3b 58 dc bd 72 f6 1f 3e
       0.16350076 -0.031578004 -0.10759016 0.15621355
000020 30 56 5f 3e 88 01 33 bd 84 56 21 be a4 25 06 3e
       0.21810222 -0.043702632 -0.1575566 0.13100296
000030 b6 b6 18 3e ff ca 34 3e c0 08 52 bd 18 30 c0 3d
       0.14913449 0.17655562 -0.051277876 0.09384173
000040 64 5d b9 bd 9a e9 ff bc 58 a7 0c be ee 53 54 3e
       -0.09051016 -0.03123932 -0.13735712 0.20735142
000050 78 a4 5e 3e 37 3a 9a 3c 35 ec 0f bd 9e f2 05 3e
       0.21742427 0.018826587 -0.035137374 0.13080832
000060 42 c1 b4 bd 48 38 4c 3d 40 84 92 bb d0 d1 1c 3d
       -0.088259235 0.04985836 -0.004471332 0.03828603
000070 c3 e3 af bd ec 38 5c be fc 1b b9 3d 1a 5f 1d be
       -0.08588364 -0.21506089 0.09038541 -0.1536831
000080 e4 d3 30 3d 1a a8 81 bd 4f ba d0 3d f9 a7 a3 3e
       0.043170825 -0.06330891 0.101917855 0.3196409
000090 1f f9 9a 3e 46 2d 4e 3e 4a d2 9d 3e 70 89 c4 3d
       0.3026819 0.20134458 0.308245 0.095965266
0000a0 c2 ed d1 bc e2 39 48 3e d2 01 ab 3c 01 f8 36 3e
       -0.025626067 0.1955333 0.020874891 0.17868043
0000b0 00 3c c6 bb 2b e9 37 3e 20 af 50 3d 03 a9 e4 be
       -0.006049633 0.1796004 0.050948262 -0.44660196
0000c0 ac 6b 57 3e b8 1d d9 3d 54 c0 95 3d c0 b1 eb 3d
       0.21037167 0.106013715 0.07312074 0.115085125
0000d0 e1 15 e9 3e 32 6b f0 bd 8d 17 94 bd de 43 69 be
       0.45524505 -0.11739196 -0.072310545 -0.22779796
0000e0 c4 a5 e6 3e 34 eb 59 be 42 7d 17 3d 40 f4 97 bc
       0.45048344 -0.21281129 0.03698469 -0.018549085
0000f0 5a 5a a2 3c 38 f5 eb 3d d8 fb 10 3d ec 6e 41 3e
       0.019818474 0.11521381 0.035396427 0.1888997
000100 b0 89 9f bd 58 3e 57 3e 21 03 fb 3c 0c a2 03 be
       -0.07789934 0.21019876 0.03064114 -0.12854785
000110 fb 11 2b 3d 30 91 63 bd e0 62 2c be 00 c3 2a 3b
       0.041765194 -0.055558383 -0.16834593 0.002605617
000120 2f 54 f5 3d e0 9e c8 3d 48 a1 08 be eb c1 50 3e
       0.11978947 0.09795928 -0.13342774 0.20386474
000130 32 06 17 3e 07 6f 88 3d ac a8 f1 3d 06 59 36 3e
       0.14748457 0.06661802 0.1179975 0.17807397
000140 b2 97 56 3e ac a5 54 be bc a7 b7 3d ba bf ad bd
       0.20956305 -0.20766324 0.0896754 -0.084838346
000150 3c 1a 4c be 6f 51 0f be b6 8f f7 bd f0 46 96 bd
       -0.19931883 -0.13995908 -0.120879576 -0.07337749
000160 ee 93 5b 3e a6 b5 03 3e fd 83 09 be 36 86 2e 3e
       0.2144315 0.12862262 -0.13429256 0.17043385
000170 cf f2 4f 3e 6a 04 0c be 6e 5f 7b be bf ca 64 bd
       0.20307468 -0.13673559 -0.24548122 -0.055857416
000180 06 2c 8e be d6 a3 18 be c3 fc 1b 3e 9d dd 10 3e
       -0.27767962 -0.14906248 0.1523314 0.14147039
000190 36 b2 61 3e 0e d5 56 be 2a 64 a9 bd a4 62 e3 3d
       0.22040638 -0.20979711 -0.08271058 0.111027986
0001a0 99 45 5b 3e 14 46 69 3e d2 4f 52 be 1d 40 05 be
       0.21413268 0.22780639 -0.20538262 -0.13012739
0001b0 3a cf 21 be 8a 2e 33 3d 80 f7 2e bd f6 fe a6 3c
       -0.15801707 0.043745555 -0.042716503 0.020385247
0001c0 38 c2 b2 bd 28 cf 4a be 58 e5 7a 3e 5d 09 5b 3e
       -0.087284505 -0.19805586 0.2450155 0.2139029
0001d0 36 2d 36 3e f7 a6 67 be 78 db 02 be 40 fb 82 3d
       0.17790684 -0.22622286 -0.12779033 0.063955784
0001e0 05 53 69 be b0 17 6c 3d 42 51 f7 bd e8 fd aa bd
       -0.22785576 0.057639778 -0.120760456 -0.0834921
0001f0 af 10 36 3e 6c 44 7c 3e ca 72 1d be 30 4e 50 3e
       0.17779802 0.24635476 -0.1537582 0.20342326
000200 8f a2 74 3e dc 55 4f 3e 0b 8c 46 be ef 09 4a 3e
       0.23890136 0.20247597 -0.1938936 0.19730352
000210 1e 0d f9 bd 44 e9 d2 bd 09 49 70 3d ee df 3d 3e
       -0.12160705 -0.10298398 0.0586634 0.18542454
000220 61 82 04 3e 56 b4 56 be ec 05 54 be 11 2f 63 3e
       0.1294036 -0.2096723 -0.20705384 0.22185923
000230 54 d0 d6 3d ea 4f e5 3d a8 6d b3 3d d9 d6 59 be
       0.10488954 0.11196883 0.0876115 -0.21273364
000240 8a 75 2a 3e 90 50 c0 3c b8 77 6d be cf b0 12 be
       0.166464 0.023475915 -0.231902 -0.1432526
000250 f5 1a 49 be 10 74 b4 3d 23 f4 81 bc 94 db 77 be
       -0.1963919 0.088112 -0.015863484 -0.24204856
000260 95 8a 47 be f0 2c 78 3d 37 a0 80 be 16 a8 01 3e
       -0.19486459 0.06058973 -0.25122234 0.12661776
000270 29 a4 16 3e e0 53 7d be 1c 05 b0 3d d2 02 1c 3e
       0.1471106 -0.24739027 0.085947245 0.15235451
000280 b1 75 94 3d 94 18 9c 3c d5 d0 0c 3d 0d 0d 5e 3e
       0.0724901 0.019054689 0.034378845 0.21684666
000290 67 5d 81 3e c8 fa c6 3d d9 d6 42 3e 84 d0 e2 3d
       0.25266573 0.097158015 0.1902727 0.110749274
0002a0 0a 4d 36 be a8 37 97 3d df 81 dc 3d 99 3c e5 bc
       -0.17802826 0.073836625 0.107669584 -0.027982997
0002b0 24 ea 9a bd d0 4d e5 3e d2 ab 7f be 99 e2 7a be
       -0.0756419 0.4478593 -0.24967888 -0.24500503
0002c0 f8 86 89 3d 8f e7 0a be 1c 8f 68 3e 06 30 36 be
       0.06715196 -0.13564895 0.22710842 -0.17791757
0002d0 76 da 87 3e 27 e9 7c 3e ed d7 52 be c6 5e 1f be
       0.2653386 0.24698316 -0.20590182 -0.15563497
0002e0 6a 6b 86 3e 7c 18 b4 bd 76 21 32 3e 22 59 0a be
       0.26253825 -0.087937325 0.17395577 -0.13510564
0002f0 61 a4 70 3e 58 cd 1a 3e c2 eb 3a 3e 2b e4 25 3e
       0.23500206 0.15117395 0.18253997 0.1620032
000300 b3 c2 61 3c a7 0f de bd 9c c0 27 be 1c 40 11 3e
       0.01377933 -0.10842829 -0.16382068 0.14184612
000310 49 c9 3d 3e 6a 7a 57 be bd 5a 09 bd de 34 6a be
       0.18533815 -0.21042791 -0.0335338 -0.2287173
000320 13 b9 62 be 54 f8 85 3d 47 88 7b bd c7 53 16 be
       -0.22140913 0.065415055 -0.06140926 -0.14680396
000330 a4 37 3a 3e d9 39 d8 3e ca ab 0e be cf c1 21 3e
       0.18185288 0.42231634 -0.1393272 0.15796588
000340 a0 35 2b bd ba a1 49 3d c0 09 1e 3d a7 12 ba bd
       -0.041799188 0.0492265 0.038583517 -0.09085589
000350 37 e9 d5 3d 09 59 81 3d ba 70 a9 bc 60 e2 20 3e
       0.10444873 0.0631581 -0.020683635 0.15711355
000360 25 e3 69 bc 34 f6 c6 3d 12 7a 04 be ec e7 c3 3d
       -0.014275347 0.09714928 -0.12937191 0.0956572
000370 2f b6 6d be b2 1e 06 be 88 02 d8 bd 31 ea d3 3c
       -0.23214029 -0.13097647 -0.10547358 0.025868507
000380 b8 a6 7e be 92 51 1e 3e 7b be 72 3e 7c 4c 35 be
       -0.24868286 0.15460804 0.23705475 -0.17704958
000390 30 e3 72 3e 98 7f 7d bd 2f 7f 86 be 88 e7 67 3e
       0.23719478 -0.06188926 -0.26268908 0.22646916
0003a0 45 a4 71 3e 2e 1d 11 be 4e 69 08 3c 57 9c 22 bb
       0.2359782 -0.14171287 0.008325888 -0.0024812424
0003b0 6c b1 fb bd a5 d8 09 be 9c c4 64 3e 1b f9 fb bd
       -0.122897 -0.1346155 0.22340626 -0.123033725
0003c0 e8 4c 27 bd fe 34 94 bc d0 14 62 3e 20 5a 56 be
       -0.040844828 -0.018091675 0.22078252 -0.20932817
0003d0 c4 99 72 be 51 e3 a4 3c d1 70 3b be 04 b2 03 3e
       -0.2369147 0.020127924 -0.18304755 0.12860876
0003e0 49 66 0b be 74 a4 05 3e 4e 63 19 3d b0 25 57 3e
       -0.13613237 0.13051015 0.03744822 0.2101047
0003f0 6b c7 55 3d 10 9c c6 3c 32 43 19 be 46 a6 c3 bd
       0.052192133 0.024244338 -0.14967039 -0.095531985

lstm1_1.weight_hh_l0_reverse f4 [64, 16]
000000 64 ed f5 3d 18 9a e5 38 dc d1 0e be 81 6d 50 be
       0.12008169 0.00010948273 -0.13947242 -0.20354272
000010 d2 fa b6 3d 1a 9c da 3b b6 ea 6c 3d f2 a2 ef bd
       0.08934559 0.006671441 0.057841025 -0.11701001
000020 8d a5 29 be c4 67 26 be 43 f3 68 3d 75 67 0c be
       -0.16567059 -0.16250521 0.056872617 -0.1371134
000030 c2 bd 61 be d9 9e 30 be 6c 35 56 3e eb e5 44 be
       -0.22045043 -0.17248096 0.20918816 -0.19228332
000040 98 ef 52 bc 11 04 b3 bd 5a 54 93 be fe 99 7b 3e
       -0.012874506 -0.0874101 -0.28775293 0.24570462
000050 c9 ec 9d 3e b9 94 e4 3e 8c 15 62 3d 27 52 5e bd
       0.30844715 0.44644716 0.05519633 -0.054277565
000060 a2 90 d1 be 4a 28 9d ba 23 55 03 3d b1 0b 8b 3e
       -0.4093066 -0.0011990156 0.032063615 0.27157357
000070 82 59 f6 3c 51 8f 04 3e c2 78 88 3e 8e 9d 29 bd
       0.030071978 0.12945296 0.2665463 -0.04141002
000080 7c 05 3c be 62 a0 a7 3d 5b c8 cb ba 7e 82 87 3d
       -0.18361467 0.081848875 -0.0015547381 0.06616686
000090 31 ce 1a bc 23 51 25 bd 30 4d c5 3d 20 ed 09 3d
       -0.009448574 -0.04036058 0.09633863 0.033673406
0000a0 85 d5 4e 3d d8 14 23 be 51 75 3e be b6 06 a1 bd
       0.050496597 -0.1592592 -0.1859944 -0.07862608
0000b0 0a 0a 54 be 86 12 11 be 45 71 c7 bd d1 22 e4 bd
       -0.20706955 -0.14167222 -0.09738401 -0.11139453
0000c0 74 6b 79 3e 8b 1e 46 be 4f b9 d9 bc 9e fa 43 be
       0.24357396 -0.19347589 -0.02657762 -0.19138572
0000d0 e8 04 fe bb 15 a1 4d be 32 35 d3 bd 6c 1c 51 bd
       -0.0077520497 -0.20080979 -0.103128806 -0.051052496
0000e0 2c 22 49 bc 80 a2 5f be 20 d7 30 3e da ca 81 be
       -0.012276214 -0.21839333 0.17269564 -0.25350076
0000f0 5e 3b 3f 3e a9 36 4d bd c4 10 2e be cd f4 f4 bd
       0.1867499 -0.050100956 -0.16998583 -0.119607545
000100 f9 8e e9 bd c7 b1 6f bd ef 2d 0a 3e 43 73 c3 3d
       -0.11404223 -0.05851915 0.13494085 0.09543469
000110 54 82 0b 3e dd c7 1d 3d 0b e1 78 be 7d ff 33 bc
       0.13623935 0.038520683 -0.24304597 -0.010986206
000120 90 3e 0d 3c 04 8f 22 be 9e 1a 5b be 82 b7 59 be
       0.008620873 -0.15874869 -0.21396872 -0.21261409
000130 33 61 0c 3e 6a 8b 2c 3e d7 9b a9 bd 21 2f 50 bd
       0.13708954 0.16850057 -0.08281677 -0.050826196
000140 e9 ab 49 bd 20 b3 bd be 9a 0c 5d 3e d3 b4 92 bd
       -0.049236212 -0.37050724 0.21586838 -0.07163396
000150 e5 69 a4 3c 0f 76 ad bd 24 b9 ec 3c 8a bf 97 3b
       0.020070026 -0.084697835 0.028896876 0.0046309875
000160 38 13 78 be 60 0f 4f bd 44 10 4f be bf f1 07 3e
       -0.24226081 -0.050551772 -0.20221049 0.13275813
000170 85 65 3c bd d9 37 c8 bc 7e c7 66 3d f3 57 2f be
       -0.045995254 -0.024440693 0.056342594 -0.17123394
000180 b9 ab e2 bc c8 2c 7f be 77 07 22 be 91 8b 13 3d
       -0.027669774 -0.24919426 -0.1582316 0.036021773
000190 ca 9c 30 be e1 d9 35 3e b4 5a da 3d 6a 89 02 bd
       -0.1724731 0.17758895 0.106618315 -0.03186933
0001a0 2f a1 30 3e 33 d4 3d bd 29 b2 40 3d 58 2d c6 bd
       0.17248987 -0.046344947 0.047044907 -0.096766174
0001b0 6e e6 d9 bd e1 fc 68 be ae 55 fb 3d 55 4f b3 3c
       -0.10639654 -0.22752716 0.122722015 0.021888414
0001c0 62 f7 00 3e f2 7f 63 3d a5 14 3c 3e 8c 65 21 3d
       0.12594369 0.05554194 0.1836725 0.039403483
0001d0 f3 ed d4 bd 4b dd 68 be 8e 31 32 3e 34 80 05 3e
       -0.10396948 -0.22740667 0.17401716 0.13037187
0001e0 19 49 4e be e0 cf 31 be a7 e1 4d be ce f5 72 3e
       -0.20145072 -0.17364454 -0.20105611 0.2372658
0001f0 36 22 52 3e 22 a1 19 3e b1 31 26 be c6 5b b7 3d
       0.20520863 0.15002874 -0.16229893 0.08953051
000200 e7 82 64 3e 21 d4 70 be 2d 08 c0 bd cc 6d 5a be
       0.2231556 -0.23518421 -0.093765594 -0.21330947
000210 8c b5 55 3e 12 d9 ad 3e 3f af 8b bd 49 e0 25 3e
       0.20870036 0.33954674 -0.06820535 0.16198839
000220 8c 61 4e be 1d 3b 73 bd fb 80 b6 3c 81 b9 c4 3d
       -0.20154399 -0.059382547 0.0222783 0.096056946
000230 56 d4 cd 3d 50 66 94 bd 28 13 ba bd 9c 07 0f 3e
       0.100502655 -0.07246077 -0.09085685 0.13967746
000240 5d 85 3e 3e 0b 87 c4 bd e7 59 3c be a2 f0 47 be
       0.18605562 -0.0959607 -0.1839367 -0.19525388
000250 a9 3f 7d 3e 27 de 47 3e 83 e8 25 3e 5c ff e7 bd
       0.24731316 0.19518338 0.16201977 -0.11328003
000260 fb b3 c9 3d af 8b 5c 3e 7e 8c d8 bc 61 02 f6 3d
       0.09848782 0.2153766 -0.02643418 0.120121725
000270 26 c5 44 3e c9 37 23 3e 70 95 10 3e 9d 32 dd ba
       0.19215831 0.15939249 0.14119506 -0.0016876046
000280 4f 90 6a 3e c4 bc 22 be bc dd b4 bd b3 63 5e bd
       0.22906612 -0.15892321 -0.08831355 -0.0542943
000290 ee 57 03 be 7c f1 ab 3d df 45 c6 3d 31 cb b4 3d
       -0.12826511 0.08395669 0.096812956 0.08827818
0002a0 a1 0a 8d bd 98 cf b6 bd f0 4f 2b 3e 31 90 0c be
       -0.06886793 -0.08926314 0.16729712 -0.1372688
0002b0 bd d4 a8 bd 93 97 31 3e b5 55 dc 3b be 87 ec bd
       -0.082437016 0.17342977 0.0067240843 -0.11549328
0002c0 a7 ff fe 3d 93 25 46 bd e5 39 13 3d 34 39 08 bb
       0.124511056 -0.048375677 0.035943884 -0.002078605
0002d0 56 8a 0e 3d f3 08 62 3d 16 b9 6f 3e 99 aa 0f be
       0.034799896 0.055184316 0.23410448 -0.14029922
0002e0 42 16 47 3e 77 dc 1e be 48 ea 26 3e 16 bb 3b 3e
       0.19442084 -0.15513788 0.16300309 0.18333086
0002f0 a7 2d 9c bc 3b 41 61 3d 4c 5e 18 be f9 47 8c bd
       -0.019064737 0.05499385 -0.14879721 -0.06849665
000300 af ac 9a bc 0d 54 81 3e ca 01 5a 3e 68 e9 ea 3d
       -0.01888117 0.25259438 0.21289745 0.114703
000310 02 ed 9d 3d 1c 73 7b be be a6 86 3e 2a ec c9 3c
       0.07711221 -0.2455563 0.2629909 0.024648745
000320 a7 2f 5f 3e 71 8d af 3d 8b 71 ba bd 2b 13 43 3e
       0.21795522 0.085719 -0.09103688 0.19050281
000330 51 13 5b be f9 7c 82 be e5 f6 88 bd df c8 32 be
       -0.21394087 -0.25485972 -0.066877164 -0.17459439
000340 98 50 1b be 5c aa 51 be d1 82 44 3e f4 de bc 3d
       -0.15167463 -0.20475143 0.19190527 0.092222124
000350 be 9e 61 be fb 11 ce 3c 77 ec 3c be 58 4a 42 3e
       -0.22033212 0.025155058 -0.18449579 0.18973672
000360 ac c9 51 be 6f ff 8d bd 79 3c 58 be f7 f6 81 3e
       -0.20487088 -0.06933486 -0.21116818 0.25383732
000370 f6 30 1b be d4 d5 de ba 8a 2f 5f 3d 05 2b 17 be
       -0.15155396 -0.0017000982 0.054488696 -0.14762504
000380 e0 a8 7c bb 36 b4 7e bd 9c 1a b1 3d 5b 76 45 be
       -0.0038552806 -0.06218358 0.086476535 -0.1928343
000390 ca 17 8e 3d 8e f2 c2 bd 04 4e 7c bd 33 62 7a 3b
       0.06938131 -0.0951892 -0.06159784 0.0038205504
0003a0 6c 2a 31 bd 95 93 c1 3d 5b a1 a8 3d 5a fc c0 bc
       -0.043253347 0.09451977 0.08233901 -0.02355783
0003b0 ca bc ba bd d1 b4 7f 3e cf 27 2c bd e2 17 31 3e
       -0.0911804 0.2497132 -0.042030152 0.17294267
0003c0 82 86 ab 3c 18 00 b5 be ad ea 18 3e 6b e4 dd 3d
       0.020938162 -0.35351634 0.14933272 0.10834583
0003d0 6e 09 be bd 33 96 cc bd 1f e6 b5 ba 27 a1 16 bc
       -0.09279142 -0.09989586 -0.0013877786 -0.009193695
0003e0 d4 fc b4 3d 68 e4 76 bd 43 01 f4 3d e5 07 68 be
       0.08837286 -0.06027642 0.11914303 -0.22659262
0003f0 0e 6e 0a 3e 30 65 08 be f2 fb 0c be ca 93 7d 3e
       0.13518545 -0.1331985 -0.13767985 0.24763408

lstm1_1.bias_ih_l0_reverse f4 [64]
000000 20 a5 22 3e f9 4d db 3c 37 90 5b be dc 10 7c 3d
       0.15883303 0.026770579 -0.21441732 0.061539516
000010 38 20 65 3e da be 9f bd ea f9 ee 3d ed 36 85 be
       0.22375572 -0.07800074 0.11668761 -0.26018468
000020 69 f4 ce 3d 99 f9 1a be 93 30 a2 bc fc 84 e6 3c
       0.10105211 -0.15134276 -0.019798553 0.028139584
000030 69 97 aa bd 04 d7 52 be 19 cb 51 3e b2 ca 4d 3e
       -0.083296604 -0.20589834 0.20487632 0.20096853
000040 d9 c6 58 bd 0c 6d 9b 3e bf eb 09 3d de c9 81 be
       -0.05292401 0.30356634 0.03367209 -0.25349325
000050 c3 18 bf 3c b2 1e 22 3c 1d 9e 1f be c1 3f 4f 3e
       0.023327237 0.009895014 -0.15587659 0.20239164
000060 9f 6d a6 bc 92 37 5c bc cc 3a a7 3c fa 68 86 3d
       -0.020315943 -0.013440983 0.020413779 0.065629914
000070 46 db 35 3e f3 2f 44 be 12 24 49 be 77 e1 fa 3c
       0.17759427 -0.19158916 -0.19642666 0.030625088
000080 73 b8 32 be 79 05 14 be 9f d0 4d be 97 ab 54 be
       -0.17453174 -0.14455213 -0.20099114 -0.20768581
000090 2c 68 52 3e 1b 1e f5 3c 37 9a 50 3d b2 e5 1f bd
       0.20547551 0.029921582 0.05092832 -0.039037414
0000a0 cd 6f 25 3e c9 91 c0 bd 79 39 75 be 24 1f db 3d
       0.1615593 -0.09402806 -0.23947705 0.10699299
0000b0 d6 a3 42 3e 81 dd f9 bc e6 85 bf 3a 14 ae 6d 3d
       0.19007811 -0.03050113 0.0014612048 0.058027342
0000c0 49 39 0c be b1 e9 99 bb 1c 40 01 3e 42 ab a6 bd
       -0.13693728 -0.0046970476 0.12622112 -0.081381336
0000d0 f8 15 b0 bd d0 52 fa bc e4 bf 56 be e1 a4 ff 3d
       -0.0859794 -0.030557066 -0.20971638 0.1248262
0000e0 46 2c 2b 3e a7 a5 2b 3d 6d 2d 3f 3d 25 35 bd bd
       0.16716108 0.041906025 0.04667418 -0.09238652
0000f0 30 77 a0 3d d9 e8 fe bd a3 e5 23 3d 1c 13 6b be
       0.07835233 -0.12446756 0.04001392 -0.22956508

lstm1_1.bias_hh_l0_reverse f4 [64]
000000 58 99 1e be 16 5c 4c 3e db ba 7d be b3 14 5d bd
       -0.15488183 0.19957003 -0.24778311 -0.05397482
000010 a0 d1 73 3e b0 b2 30 3e 35 51 3c be d3 2f b0 3d
       0.23810434 0.17255664 -0.18390353 0.08602872
000020 71 69 09 3d 24 15 8d bd ec 4a 6d 3e 2c 29 77 3e
       0.033547822 -0.06888798 0.23173112 0.241368
000030 90 77 f1 3d ad 6a d3 bd 6a 3c 80 3d fc 57 b6 bc
       0.11790383 -0.10323081 0.06261523 -0.022258751
000040 0f 8d 28 3c e1 d3 d0 3e 1e a3 8a bd e1 93 8b be
       0.010287537 0.4078665 -0.067693934 -0.2726126
000050 eb 22 38 3e c2 8c cd bc 0d 5a 19 3d f7 a6 39 3e
       0.1798207 -0.025091533 0.037439395 0.18130098
000060 98 72 a5 bd ac 3c 8d bd b3 b0 00 3e be fd 65 3e
       -0.08078498 -0.06896338 0.12567405 0.22460076
000070 44 67 79 be 63 32 4b 3e 3f 44 af 3c 8f 9f 4c 3e
       -0.24355799 0.1984344 0.021394847 0.19982742
000080 69 15 71 be 7e 5d 8b 3e ed 3b fc 3d cd 81 4a 3e
       -0.23543324 0.27219766 0.123161174 0.19776078
000090 5c a8 1a 3e e3 b7 dd bd a3 20 21 be be a7 f1 3d
       0.15103287 -0.10826089 -0.15735106 0.117995724
0000a0 bd 90 55 3e b2 ae 0c bd 48 9f 57 bc 86 51 18 be
       0.20855995 -0.03434629 -0.013160534 -0.14874849
0000b0 16 7d 51 3e b3 22 83 3d 3c 58 c7 bd 77 ec 2c bd
       0.20457873 0.06403103 -0.09733626 -0.042217698
0000c0 ed 41 c7 3c e1 de 62 3e 4a 61 1f 3e 02 4d b5 bd
       0.024323428 0.22155334 0.15564457 -0.08852579
0000d0 4c ec b1 bd a9 8a b3 bd 06 7b 4e 3e b9 3c 43 3e
       -0.08687648 -0.08766682 0.20164117 0.19066133
0000e0 c1 d2 e8 bb 2c 67 08 be 80 2e 73 3d b4 79 5a 3e
       -0.007105202 -0.13320607 0.059370518 0.21335489
0000f0 1e 9a 2e be 40 ab 40 be 38 c3 92 3d d4 1d 8f bd
       -0.17050979 -0.18815327 0.07166141 -0.06988111
