results/pretraining_samples_effect_results/Dataset 1/pre_rate=0.8/Experiment1(25-1)/from_Dataset 1_ft_model.pth (torch, 95756 bytes, 27 tensors)

cnn1.0.weight f4 [16, 1, 3]
00000000: ffb3 66bb 811a 0bbf ff5b 473e 62eb 85be
00000010: 0c61 f63e 370b 543e 05cb a7be ad8b 8f3e
00000020: 0a15 dbbe bfeb 0d3e b312 59be b259 2d3e
00000030: 0a9e 81be 02a5 093d ed83 bd3e 9a24 6d3e
00000040: f5d4 8dbe a61a f33c f6a5 8a3e 1767 b3bd
00000050: 4c0f f33e c8fb 843e 8c8d 863d a130 05be
00000060: f7c7 f6be e81d dc3e e4dc aabe b789 5c3e
00000070: 70a2 cebe e2df 263e c754 853e 96cb 9bbd
00000080: 1bb6 193e ea3a 9b3e c056 aa3e 6adb 023f
00000090: 947a 823e b5e7 3fbd 215d 62be 7632 ecbe
000000a0: 46e4 ddbe 0e37 943e 331e dc3e 8315 893d
000000b0: 1b65 503d 6c59 053d 6941 20be 32e4 2f3d
-0.00352025 -0.54337317 0.19468687 -0.26156145 0.48120916 0.20707403 -0.3277208 0.28036252
-0.4278949 0.13859461 -0.2119854 0.16928747 -0.25315887 0.03360463 0.37014714 0.23158494
-0.27701536 0.029675793 0.27079743 -0.08759897 0.47472608 0.25973344 0.06569967 -0.13006832
-0.48199436 0.42991567 -0.3337165 0.21536909 -0.40358305 0.16296342 0.26041242 -0.0760719
0.15010874 0.30318385 0.3326931 0.5111605 0.25484145 -0.046851832 -0.22105838 -0.4613225
-0.4333822 0.28948253 0.4299179 0.06693556 0.05087767 0.032555982 -0.15649952 0.042942233

cnn1.0.bias f4 [16]
00000000: 8c23 e13e 0b24 7fbe bb0f 133f 18cd 113f
00000010: f909 e83d 08b7 1f3e cd07 93be 77cd d7be
00000020: 357f 773e 3297 b53e 9796 573e 2691 d7be
00000030: fb7c 8f3e cde5 e0bd 2b55 f03e ce88 e4be
0.43972433 -0.24916093 0.5744588 0.56953573 0.11330027 0.15597165 -0.2871689 -0.42148945
0.2416962 0.35466915 0.21053539 -0.42102927 0.2802504 -0.10981331 0.46939978 -0.44635624

cnn2.0.weight f4 [32, 16, 3]
00000000: 66ae 6fbd 8a5d 893c c2cc 9fbd 3d80 063e
00000010: bd57 323e c12e 703e bceb a2bc 338b cf3d
00000020: f366 f03b 6f30 07bc 4a71 733d d2b0 d13d
00000030: 0239 ec3d cde6 be3c fa5c cc3d 29c3 693d
00000040: 680e 97bd 33a8 4bbd eb51 a63b 4174 903d
00000050: f248 333d 1273 eabd 1ff7 c73c 6c89 e63d
00000060: 7b07 623e 4d47 7c3e 757d 493e ca42 a1bd
00000070: 334b 043e 4dc5 5abd 861a b23d 784e 2f3e
00000080: f0ae ac3d baf2 b23d 5bf5 903d 9038 473e
00000090: be35 f03c 14b0 a5bd 3a06 153e 88af b03c
000000a0: a452 fb3d 4b0e 69bc fc5e 16bc 76a8 db3d
000000b0: 068a 2a3e d7a6 843d 1520 e83d bd82 c63d
000000c0: a9ec e5bd 14da 33be c1c0 84be 8e30 7f3e
000000d0: 6b46 7d3e 4c94 523e c3ed ccbd fbfc 71be
000000e0: 7ff4 16be 3619 3bbe 9b00 603d 62be 833d
000000f0: 4792 683d 6513 c7bd 94cf 84bd 705a 33bd
00000100: de8c 54bd 4f5b 38be 7483 523e 1b1f 433e
00000110: feba 933e 07d2 d53d 634f 1abd 3672 db3d
00000120: 46f5 11be 0706 b2bd e290 c1bd 3ca5 f1bb
00000130: f2f6 4fbe 0124 ecbb 8fb1 01be 2b86 443b
00000140: aef5 18bd 28a1 f43d 37e8 033e fbd2 513e
00000150: 95e9 eebc ba3a ae3c 4401 94bd 087e 083e
00000160: e7ce 27bc 6196 e23d b599 86bc ab92 973d
00000170: 484f ca3d bf3b ee3d ad6e 833b 3e55 133e
00000180: a2eb febd 0317 70bd 8182 0abe 2fdb 6b3d
00000190: 1e2d e63d 7a25 34bd 6a7c 2bbc 2f15 023d
000001a0: e593 043e 3b78 acbd 3fdc 52bd b9ad 5c3a
000001b0: 55ee 5bbc 97c4 a9bd 92a1 82bc ef9e e53d
000001c0: a704 92bd 5959 ff3d 8b57 a8bd 5a5a b93d
000001d0: 9336 2dbd a8ad 11be 568f b33d 3afd c5bd
000001e0: 7bd2 c8bc 2934 003d 556c e13d 0f0c 54bc
000001f0: 3217 283d 8e1a eabd 46f9 b7bd a21e c63b
00000200: 8495 89bd 52c9 0fbe db6c 533b 4455 dfbc
00000210: c65b dcbd 92e0 d83d d408 84bb 2331 c63d
00000220: e256 bd3d 3f35 1d3d b63e c5bd 1795 a1bc
00000230: 4e17 a93d fbca b93c 005d 73bc 5e86 1fbc
00000240: fd29 f6bd 640d 29be 9dca 5cbe 67be 813e
00000250: 22ac c63d c457 d93c c05f 6ebc 08f4 e9bd
00000260: 515e 26be b9a6 c8bd ea3d 4ebc b9ba 2f3d
00000270: c0b9 8b3d def4 fabd 90d6 d33d 0f43 0dbe
00000280: e375 473d 51a9 893d 852c 1c3e 39cf 8fbc
00000290: 5ce8 703e 6c22 873d c5d5 eb3d 1a9d bb3d
000002a0: 92c1 993d 4db0 19be 0ca9 5f3d 3b64 fcbd
000002b0: b7a5 913d dd92 15be 5516 6cbc 32f9 1c3d
000002c0: aa3e f33d 4dd5 3b3e a1dd c53d ee40 1c3e
000002d0: 9182 b2bc a4f0 943d 963f c23c 4b06 fa3d
000002e0: b8c7 febd 29ad 00be 48e1 643d ad36 b7bd
000002f0: 1225 ec3d b5be fe3d 2940 833d 35f1 0d3e
00000300: 8f34 223d 23ea a6bc 86d1 2cbe 463e e33d
00000310: eaaa a53d 94f9 4ebd e2d0 69bd 5eaa 35bc
00000320: 7216 14be 5453 623d 87f4 863d 0954 bbbd
00000330: bfa5 09bd 66ef 0bbe 5a01 88bc dca2 2cbe
00000340: 6fde 8dbd 77dd e5bc 1df9 c9bb 4c9a 1f3e
00000350: e6f8 24bd ca43 4fbc d2bd e43d 982c b53d
00000360: 17e8 12be 6543 33bd 1d84 7bbd 6e64 f4bb
00000370: c3f9 a6bd ad96 15be 3596 c03d 0b7c ef3d
00000380: da5a ba3c b9f7 1c3d f399 8ebd 3e37 d43c
00000390: 2e1c 6cbc b1f8 33be 4c6d bb3d ce67 023e
000003a0: 1beb 163d d53f ba3d dba0 83bb c8b3 b2bc
000003b0: 0d03 003e 9ca6 10be ca27 383d 58d6 4f3d
000003c0: 3331 023d fc62 b0bd 5e2a a3bd 7999 b7bc
000003d0: 069a 01be f5aa d43d 0377 9f3d 3677 443d
000003e0: c118 a53d e1ae 83bd fb1f c23c e449 80bd
000003f0: 7ddf f2bd e5f4 dcbc 4dd7 e8bd 9617 ec3c
-0.05851593 0.016768236 -0.07802726 0.13134857 0.17416282 0.23455335 -0.019887798 0.10133972
0.0073364913 -0.008251294 0.059434213 0.10238804 0.11534311 0.023303414 0.09978671 0.057070885
-0.07375795 -0.049720954 0.0050756834 0.07053424 0.043770738 -0.11447729 0.024409829 0.1125668
0.22073166 0.24636574 0.19676764 -0.07874067 0.12919311 -0.053410817 0.08696465 0.17119777
0.08431804 0.08737703 0.07078048 0.1945517 0.029322501 -0.08090225 0.14553156 0.021568075
0.12271622 -0.014224599 -0.0091779195 0.10725491 0.16654214 0.06477135 0.11334244 0.09692905
-0.1122678 -0.17563659 -0.2592831 0.24920866 0.24733894 0.20564383 -0.10006287 -0.2363166
-0.14741705 -0.18271336 0.054688077 0.06432797 0.056780126 -0.09720496 -0.06484905 -0.04378742
-0.051892154 -0.18003581 0.20557958 0.19054835 0.288536 0.1044045 -0.037673365 0.107151434
-0.1425372 -0.08692556 -0.09451462 -0.007374434 -0.20309046 -0.0072064404 -0.1266539 0.0029987197
-0.037343673 0.119448006 0.12881552 0.20490639 -0.029164115 0.021268237 -0.07226804 0.13329327
-0.0102422 0.11063839 -0.016430715 0.074010216 0.09878403 0.116324894 0.0040109963 0.14387986
-0.12447287 -0.058615696 -0.13526346 0.057582077 0.11239074 -0.043981053 -0.010466674 0.031758483
0.12947042 -0.0842137 -0.051479574 0.00084182207 -0.013423522 -0.0828945 -0.015946183 0.11211955
-0.071297936 0.124682136 -0.082198225 0.09050436 -0.042288374 -0.14226401 0.087675735 -0.0966744
-0.024514427 0.031299744 0.11006991 -0.012942328 0.041037746 -0.11430846 -0.08983092 0.006046132
-0.06717971 -0.14041641 0.0032260928 -0.027262338 -0.10759692 0.105897084 -0.0040293727 0.09677341
0.09245087 0.038380858 -0.09631102 -0.019724412 0.08256398 0.022679796 -0.014853716 -0.0097366255
-0.120197274 -0.16509014 -0.21561666 0.25340578 0.097008005 0.026531108 -0.014549196 -0.114234984
-0.16246916 -0.09797425 -0.012588004 0.042902682 0.068225384 -0.12253736 0.10343659 -0.13795112
0.04869641 0.06721748 0.15251358 -0.017554866 0.23526138 0.06598362 0.11515383 0.09160824
0.07507624 -0.1500866 0.054604575 -0.12323805 0.07111686 -0.14606805 -0.014409621 0.03832359
0.118771866 0.18343087 0.09661413 0.15259144 -0.021790775 0.07272461 0.02371196 0.122082315
-0.12440437 -0.12566055 0.055878907 -0.089459755 0.11530508 0.12438718 0.06408722 0.13861544
0.039600905 -0.020375317 -0.16876802 0.11095862 0.0808924 -0.050530985 -0.05708397 -0.011087982
-0.14461687 0.05525525 0.06589609 -0.09146888 -0.033605333 -0.13665542 -0.016602207 -0.16859001
-0.069271915 -0.028059704 -0.00616373 0.15586203 -0.04027643 -0.0126504395 0.11169018 0.08846396
-0.14346348 -0.043765444 -0.06140529 -0.007458261 -0.08153107 -0.1460826 0.0940365 0.11693581
0.0227484 0.038322184 -0.06962957 0.025905248 -0.014411015 -0.17575337 0.09151706 0.12734911
0.036845308 0.09094206 -0.004016978 -0.021814242 0.12501164 -0.14126056 0.04495982 0.050741524
0.0317852 -0.0861263 -0.07967065 -0.022412049 -0.12656412 0.1038417 0.077863716 0.04796525
0.08061362 -0.0642984 0.02369689 -0.062640935 -0.11859033 -0.026972244 -0.1136919 0.02881984

cnn2.0.bias f4 [32]
00000000: 87d8 dd3d 22f0 4bbd 16f7 e2bc f761 c33d
00000010: d02a 9fbd 6c5e db3d a03c b6bd fc8e 993d
00000020: 3cee 01be 23aa 003e 9a98 2c3c 42a9 df3d
00000030: 270b bc3c 7417 c8bd 0273 adbd f516 553b
00000040: 3214 abbd 6952 b43d 49a3 82bd 2cd8 033e
00000050: 055c 2a3e d477 203e 590e d13d 2249 883d
00000060: 6e7e 04bc 4b46 603c 25f2 343c 1e24 923d
00000070: 6844 a3bb 91de a33d 4247 d73d 42f7 0dbe
0.10832315 -0.049789555 -0.02770571 0.0954017 -0.07771838 0.10711369 -0.08898282 0.07497975
-0.12688535 0.12564902 0.01053443 0.10920955 0.022954537 -0.09770098 -0.084692016 0.0032514904
-0.08353461 0.08804781 -0.063788004 0.12875432 0.16636665 0.15670711 0.10207815 0.06654574
-0.008086784 0.013688634 0.01104406 0.07135795 -0.00498252 0.080014355 0.10511638 -0.13863853

lstm1_1.weight_ih_l0 f4 [64, 32]
00000000: 3e7d df3c 2bd4 ec3e 4ca6 743e c953 cb3e
00000010: f016 5e3e 4a54 d1bb 64b3 ea3d 4080 ecbb
00000020: 68bf b43b 5155 883d 723b fb3d 6b9f 103e
00000030: 5c8d 863e 1685 353e c52e 75be a689 b83d
00000040: 705b 3cbe 682d 91bd a50d 28be c8c2 033d
00000050: a31d 483e 3814 41bd 0403 b53d ad0e 82bc
00000060: 9c10 2e3e 8bbd 11be 0319 de3e fc8c e83d
00000070: 6ad5 0fbe 8083 2ebd 455a b63b 4cf0 283e
00000080: 0945 a3bd 1194 b83d 667d 59be f0ad 853d
00000090: a758 e93d 2c2a 6ebe e0c3 ad3d 102a 0c3d
000000a0: 5cfb 083d 642e d3bd fc8c 32bd db75 86bd
000000b0: 67af 173e ca41 733e 9291 79be 3af1 1dbe
000000c0: 80fe 23bb 61bc 4abe b4cf 553e f66a 4dbe
000000d0: 68e7 003e 4c6d 3ebe cff2 a53d 3901 eebd
000000e0: d8ad 47be 2586 c7bd f8f3 023e 6e00 08be
000000f0: 667c 5bbe 20f5 39bc c3f3 653d 3c11 f3bd
00000100: f86d 75bd 0913 bc3b f800 cbbd 853d 293e
00000110: b69a 53be 4686 64be be8e 03be fcd8 d63d
00000120: 08ba fbbc 179b eb3c 99a1 4ebe 6e0e 2d3e
00000130: a6f7 62bc eed3 63be d1ee 2dbd 7051 f23b
00000140: a014 b2bc 2e9c f23b 9a5f 743e b845 d13d
00000150: be88 80bd 08cc 23be a0d4 213d d3e0 043e
00000160: 5868 73be 6caf 763d 7f0e 06be 28c4 61be
00000170: 7447 523e 8084 e5bb 8971 08bd 5895 213e
00000180: 87d2 833e 458a 20be ec23 a4bd 24b6 6c3e
00000190: 5d8b 51be 1f95 52be 8071 e6bd c0c7 f9bb
000001a0: 34e8 11bd 2a2d fb3d e99e afbd 0148 52be
000001b0: 3d0c 30be 9413 f9bd c066 18bd eaa2 653d
000001c0: 76de 0e3e f250 f5bd ef7d 58be a207 713e
000001d0: bf20 efbd 94b2 133d 9233 5a3e ddca 3c3e
000001e0: b7eb 363e 9315 ebbc b775 023e 7e84 47be
000001f0: aeb2 f6bd ae55 4bbe 769b 943d 44e3 b1bd
00000200: 127f 743e a09c 9d3e 9ec5 163e 3709 9b3e
00000210: adda a93e 7384 5c3d a0ab d23d d838 a93d
00000220: 6cf9 803e 3b51 1f3e 5fe7 963d b848 5abd
00000230: 4123 53bc 34cb 0d3e 48cc 1f3e 7bf8 0ebe
00000240: 04a9 133e 06a8 ebbd b0a3 343e 1882 fd3d
00000250: 75c7 c03e fd3d 713e cb6b 95bd 35df 86bd
00000260: 8bee 543e 6f32 2abc 6a89 ae3e c40a 973d
00000270: 572f 9f3d 0ebb 27be 799a b23d 8c4a 9ebd
00000280: 92ea 02be fc42 93bd 8019 05bc 51e5 b6bd
00000290: e445 3e3e 5744 1e3e 4a29 403e d0b6 96bc
000002a0: d29a 053e 56a0 043e 1aa7 62bd 07c2 a03d
000002b0: 8d8f 1fbe 60bc 6bbd e88e c3bd 9e2d 553d
000002c0: d002 893d b5e1 423e 99c3 853c 94a6 0e3e
000002d0: c0b2 1bbe 709d 4dbd f3d4 493e d1ff fbbd
000002e0: ce77 68be ba12 32be ebac 023d 96ac 633e
000002f0: f601 4ebe 0a65 58be 6036 403e a024 343c
00000300: 7d1b 46be 6a8b 3c3e d093 8abc 0809 99bd
00000310: a2e0 e4bd 79ca a2bd 80c1 ffbd 1ee6 773e
00000320: a540 44be 1b14 503d e0e8 7b3d 3240 e43d
00000330: 7d6d 4f3e 3a31 4a3e 75bd 063e dbfa 25be
00000340: 502a b03d 7bee 88bd 0e67 b1bd 08b4 613e
00000350: 1f9f 6c3e 8f3a 56bd 2e5e 233d a19f 083e
00000360: 6d35 403e 9c47 60bc 29c7 65be a022 7f3d
00000370: 669a d53d 6a93 67be 1f3e 4d3e 7062 cf3d
00000380: 8387 693e e959 853e 188b f4bd 3645 32be
00000390: 1c65 51be 76a0 653e f8bd 3abd 704e 943d
000003a0: 608c 843e a53f 76bd 2e29 36bc f72c 0a3e
000003b0: 7ac2 2abd ac35 59be 4207 613d bf20 ebbd
000003c0: c200 0cbe 4483 a2bd edf8 df3d aedd 7abe
000003d0: 424e 993e a7d4 d9bd b8d1 dfbc 0081 92bd
000003e0: 6455 ffbd 9b97 32bd 6aa5 653e 8cbd 14be
000003f0: daca 52be 708a 503e f757 78be b651 09be
0.0272814 0.4625562 0.23891562 0.3971236 0.21688437 -0.006388222 0.11459997 -0.007217437
0.0055159815 0.06656898 0.12267198 0.14123313 0.26279724 0.1772655 -0.23943622 0.09010629
-0.18394256 -0.07088739 -0.16411455 0.03216818 0.19542556 -0.047138423 0.08838466 -0.015876139
0.16998523 -0.14232461 0.43378457 0.11355016 -0.14046255 -0.042605877 0.00556496 0.16497916
-0.07972152 0.090126164 -0.21239242 0.065273166 0.11393862 -0.23258275 0.08484626 0.0342198
0.03344284 -0.10311583 -0.043591484 -0.06565448 0.14813004 0.23755565 -0.24371937 -0.15424052
-0.002502352 -0.19798423 0.20880014 -0.20060334 0.12588274 -0.18596381 0.08102953 -0.11621327
-0.1949991 -0.09742383 0.12788379 -0.13281414 -0.21434173 -0.011349946 0.056140672 -0.118685216
-0.059919327 0.005739574 -0.09912294 0.16527374 -0.20664486 -0.22316846 -0.1284742 0.10490605
-0.030728355 0.028760476 -0.20178832 0.16900036 -0.013852989 -0.22248814 -0.04246408 0.007394962
-0.02173835 0.007403872 0.23864594 0.10218376 -0.062760815 -0.159958 0.039509416 0.12976389
-0.23770273 0.06022589 -0.13091467 -0.22047484 0.2053507 -0.0070043206 -0.0333114 0.15779626
0.25746557 -0.15677746 -0.08014664 0.23116356 -0.20463319 -0.20564698 -0.11252117 -0.007622689
-0.035621837 0.12264474 -0.085752316 -0.2053528 -0.17192169 -0.12161937 -0.037207365 0.05606357
0.1395205 -0.1197833 -0.2114179 0.23538068 -0.11676168 0.036058977 0.21308735 0.18436761
0.17863356 -0.02869681 0.12740217 -0.19484136 -0.12045799 -0.19856903 0.07256214 -0.086859256
0.23876598 0.30783558 0.14723822 0.30280468 0.3317465 0.05383725 0.10286641 0.08262795
0.25190294 0.1555833 0.07368349 -0.053292006 -0.012886823 0.13847047 0.15605271 -0.13961975
0.14419943 -0.11506657 0.17640567 0.12378329 0.37652174 0.23558803 -0.072959505 -0.06585542
0.20794122 -0.010388001 0.34089214 0.073751 0.07772701 -0.1637995 0.087208696 -0.077290624
-0.12784794 -0.07190511 -0.008123755 -0.089304574 0.18581349 0.15455757 0.1876575 -0.018397719
0.1304734 0.12951788 -0.05533514 0.07849508 -0.15582104 -0.057552695 -0.095487416 0.052045457
0.066899896 0.19031413 0.01632862 0.13930732 -0.15204906 -0.050198972 0.1971014 -0.123046525
-0.22701952 -0.17389956 0.03190319 0.22233805 -0.20117936 -0.21132293 0.18770742 0.01099506
-0.19346423 0.18412557 -0.016916186 -0.07472426 -0.11175658 -0.07948775 -0.12488079 0.24208876
-0.19165285 0.050800424 0.061501384 0.11145057 0.2025661 0.19745341 0.1315821 -0.16208975
0.086018205 -0.066861115 -0.08662234 0.22041333 0.23107575 -0.05230194 0.03988474 0.13342144
0.1877038 -0.013688948 -0.22439255 0.06228888 0.1042984 -0.22614828 0.20043229 0.10126197
0.228056 0.26045159 -0.119405925 -0.17409214 -0.20448726 0.22424492 -0.045591325 0.07241523
0.25888348 -0.06011929 -0.011118216 0.13493715 -0.041689374 -0.2121188 0.054938562 -0.11480855
-0.13672164 -0.07935193 0.10936151 -0.24498627 0.29942518 -0.10636263 -0.027321681 -0.07153511
-0.12467459 -0.043601613 0.22426382 -0.14525431 -0.20585194 0.2036531 -0.24252306 -0.13410076

lstm1_1.weight_hh_l0 f4 [64, 16]
00000000: 4c8b c73c 2b39 cd3c 335c 3b3e b35d 6f3c
00000010: f3bf 86bc 3118 55be e77a 6f3d 0de9 dbbd
00000020: 1735 d6bd 68ee 88be 0194 153e 348c 33be
00000030: 16c2 0abe 1cd3 513e b5b0 d13c dd02 743d
00000040: a8e0 25be 67fa 5f3e 184f c1bc baae 2a3e
00000050: 867e da3e f274 f6bd 9776 79be a086 b1bd
00000060: fa16 dfbd 1cfe 0cbe cfb3 2a3e f16f 43be
00000070: fff6 cfbd 3500 24be c60c ac3d fdfe a1bd
00000080: 0152 ca3e 8297 42be abf6 d2bd 5410 1b3e
00000090: 4246 373e 9ec2 44bc f21b 6c3d 5a0e 8cbe
000000a0: 2dfc 263e 9a50 363e 0372 1cbe 4d07 4a3e
000000b0: 9011 253c f8ec 803d 2095 563e 7b62 6e3e
000000c0: 02f0 9cbe 7b91 273e 1a95 bdbd 573d 56be
000000d0: 9584 223e b733 073e 7277 27be 727b 8fbe
000000e0: bd11 883e 81d2 f13d 73fa d93d 3787 35be
000000f0: e3a2 bbbd ae8e 4bbd d007 8fbe ce7b d33d
00000100: 335e d63b 8eb0 adbe dd16 8abe 9ce9 203e
00000110: 4920 5b3e 3764 9fbe c6fa 45be 5e41 cbbd
00000120: f6ad 33be 83a0 45be 0843 403d b048 a23e
00000130: 64b5 373e 2b7b 6fbb 6739 b3bc 05c8 29bc
00000140: a393 3f3d 182f 2bbe ee8e f93c c21c 3a3e
00000150: 24a8 1bbe b8bb 35bd 50a0 8438 c838 b53d
00000160: 3cfa b43d 6b4c 533d 3718 d33d 0c3f bd3c
00000170: c177 3bbe aa49 0fbe 93bb 10be eeee 313e
00000180: 5646 c53c c0dd 76be f0a4 fe3d 5601 06bb
00000190: a676 163e 499a 423e 539e 163e c18e d0bd
000001a0: 54f4 66be 01f4 dbbd abea 07be 6fe3 3b3e
000001b0: 14e8 edbc b5b5 09be 12ab a7bd 8a25 33be
000001c0: c423 10be 7467 76be 6e71 193e 8e42 17be
000001d0: c086 743e ad5b 1fbe f244 1cbe 35c3 503d
000001e0: 1212 84be e4ef 7fbd e11a 62be 0a36 f83d
000001f0: 5d16 7e3e 4937 0a3e 3b31 71be 106d 7cbe
00000200: 7897 a9bc ac1a 7b3d 501f e13d 3052 f0bd
00000210: 2231 be3d d5c2 733e d2d5 063e 1286 12be
00000220: 8d27 6ebe 7337 8ebd d799 6fbe 76a5 553e
00000230: 1f56 6fbe b6ff 5dbe a336 56be efb9 813e
00000240: 3d16 b6ba 8f95 333e 8e17 3ebe 55e0 2c3e
00000250: c709 60bd a67b 6b3e 6872 cf3c b73c ddbd
00000260: 505d 3dbe 3b6c 623e fbc3 f7bb 62fc 4fbd
00000270: 774a 253e e113 14be 0803 513e c349 c63d
00000280: 70aa 8b3d c19c 68bd 0c0e 6a3e 0f3f 69be
00000290: 851a 163e 2d5e 10be 8da1 e93b 86b9 b63d
000002a0: fd41 3d3d 1811 753e 3942 2b3e 4ff7 4cbe
000002b0: a4a2 68be aa17 e7bd a52d 75be ba4e b9bc
000002c0: 5a7e 40be 02d2 1a3e e688 30be 09c8 e8bd
000002d0: e41d 8e3d e06c 3cbe 7f8f 99be 29b1 0f3e
000002e0: 0f3c 033e c48c a23d eb68 d53d 9493 4abe
000002f0: 1c8e e93a 3943 db3d d4d0 fabd aae0 aabb
00000300: 4247 5ebe cfa5 163e 0a14 83be 0f1f 12be
00000310: 7e44 433e 9396 17be 8a65 263d 3782 e23d
00000320: 7dc2 13bd 5abc d1bd 0801 7fbd f38f 1ebe
00000330: a343 873e 2ae7 1bbe 338b 093d 0b7e 873e
00000340: 17a0 2b3e 8775 4b3e e063 0c3e 8653 0cbd
00000350: 88fa 07bd 3536 0d3e 215a 47be 4fcb 0d3e
00000360: b862 e0bc 90e3 443e aa5e f1bd c9f7 f63d
00000370: 6b58 7cbe 9c5e c53d aed2 253e 9a7a 1c3e
00000380: 6843 583e dea9 823e 06e7 e5bd c7fc a73d
00000390: 3b4e 9a3d 1c8c 2b3e e57b cf3c 51dd 143e
000003a0: 7e3a 54be 7cf4 4ebe 2bd3 573e 8dfb 71be
000003b0: bb07 28be c4b6 243e f392 023d 1f06 92bd
000003c0: 2014 30bd ce3a 133d e6e5 88bd 0342 40be
000003d0: f067 343d 6657 4d3d 9735 893c 21ab 15bd
000003e0: 6bff 473e 2d0e 443c 93cd 3fbe eebc 5dbe
000003f0: 1ae1 253e f58c 073e f9d7 3b3d 6c5b 5ebd
0.024358414 0.025051674 0.1829689 0.014609742 -0.01644895 -0.2081001 0.05846682 -0.1073781
-0.10459345 -0.2674439 0.1460724 -0.17533952 -0.135506 0.20490688 0.025596956 0.059573043
-0.16198981 0.21872865 -0.023597285 0.16668215 0.42674655 -0.12034024 -0.24361645 -0.08668256
-0.10893054 -0.1376881 0.16670154 -0.19085671 -0.10154533 -0.16015704 0.08400874 -0.07909963
0.3951569 -0.19003108 -0.103009544 0.15142947 0.17897895 -0.012009291 0.05764384 -0.273547
0.16307135 0.17804185 -0.15277867 0.19729348 0.010074988 0.06295198 0.20955324 0.23279755
-0.3065186 0.1636409 -0.092569545 -0.20921837 0.15870889 0.13203321 -0.16354159 -0.2802387
0.26576033 0.118077286 0.106434725 -0.17727362 -0.091619276 -0.049696617 -0.27935648 0.10326348
0.006541991 -0.33923763 -0.26970568 0.15714115 0.21399035 -0.31131145 -0.19333944 -0.09924577
-0.1754683 -0.19299512 0.046938926 0.3169608 0.17940289 -0.003654192 -0.021877958 -0.01036263
0.046771657 -0.16717184 0.030463662 0.18175033 -0.1520086 -0.044368476 6.324111e-05 0.08848721
0.08836791 0.05158655 0.10307353 0.023101352 -0.18307401 -0.13992944 -0.14134054 0.173763
0.02408139 -0.24108028 0.12433803 -0.0020447574 0.14693698 0.19004168 0.14708833 -0.10183478
-0.22554141 -0.107398994 -0.13273112 0.18348478 -0.029041328 -0.13448222 -0.08186926 -0.17494789
-0.14076144 -0.24062902 0.14984676 -0.14771482 0.23879528 -0.15562315 -0.15260676 0.050967414
-0.25795037 -0.062484637 -0.22080566 0.12119682 0.24813218 0.13497652 -0.23553936 -0.24650979
-0.020702109 0.061304733 0.109923005 -0.11734426 0.09286715 0.23804791 0.13167503 -0.14308956
-0.23257275 -0.0694417 -0.23398529 0.208639 -0.23372696 -0.21679577 -0.2091928 0.2533717
-0.0013892126 0.17537521 -0.18563673 0.16882451 -0.054696824 0.22996387 0.025323108 -0.10802596
-0.18492627 0.22111599 -0.0075612045 -0.0507778 0.16141687 -0.14460708 0.20411313 0.09682038
0.06819618 -0.056790117 0.22856921 -0.22777961 0.14658554 -0.14098425 0.007129854 0.089221045
0.04620551 0.23932302 0.1672448 -0.20016216 -0.22718292 -0.112838104 -0.23943193 -0.022620548
-0.187982 0.15119174 -0.17239723 -0.11366279 0.06939295 -0.18400908 -0.2999229 0.14032425
0.1281588 0.07937005 0.10420402 -0.19782859 0.0017818841 0.10706181 -0.12246862 -0.0052147703
-0.2170687 0.14711688 -0.25601226 -0.1426966 0.19069096 -0.14803533 0.04062418 0.11059993
-0.03607415 -0.10241003 -0.062256843 -0.154846 0.2641879 -0.15224901 0.033580016 0.2646335
0.16760288 0.19869052 0.13709974 -0.03425934 -0.03319791 0.1379021 -0.19467975 0.13847087
-0.027390823 0.19227433 -0.11785634 0.1205898 -0.24643104 0.09637186 0.16193649 0.15281144
0.21119463 0.25520223 -0.11225705 0.0820251 0.075344525 0.16752666 0.025327632 0.1453755
-0.20725438 -0.20210451 0.21076648 -0.23631115 -0.16409199 0.16085345 0.031878423 -0.07130074
-0.042987943 0.035944752 -0.06684475 -0.18775181 0.044044435 0.050132178 0.016749186 -0.036540154
0.19531028 0.01196627 -0.18730764 -0.21654102 0.1619915 0.13237365 0.045860264 -0.054286405

lstm1_1.bias_ih_l0 f4 [64]
00000000: 1eea cf3d 622a 2a3d 2d34 1c3e e619 413d
00000010: d8e6 983e 62b9 b8bc d874 1cbd 5d58 143e
00000020: ca3b 463d 74d7 123d 81b3 fa3d ba9e 583e
00000030: 36c5 1d3e 9b6f 97bd 179a 2f3e 9d0c 2cbe
00000040: d7e6 ce3d 8a0d f7bc 4dc8 133e e1f2 913c
00000050: 283f 4cbe 6210 e1ba 40e7 a8bd 89c8 113e
00000060: 939f 4e3e 272a 4cbe b71a b93d 0a43 a5bb
00000070: 6697 a53d 48c3 303d 962a 30bd ceb5 3abc
00000080: 5ccd f23b 398a dc3d faaf f13d 3565 bb3d
00000090: be00 f6bc 8e6b 19bd 4ddf b8bd 9540 8c3c
000000a0: 3e2c b53d 9052 3bbe 44d7 a7bd bed2 4d3e
000000b0: 6a31 3ebd 3420 033e eb3e 8a3d 5872 52be
000000c0: 35a5 a63e bf45 523e b48b 48bd cefb 813d
000000d0: b2d1 a4bc b3fb 593e 2d4b bf3d efe4 42be
000000e0: 35a4 fb3b b012 e9bd 0c08 b43d dcc0 f23d
000000f0: ca3f 4fbe 4c15 7abe f07c 273e 771d e83d
0.10152076 0.041544326 0.15254278 0.04714384 0.2986362 -0.022549335 -0.03819737 0.14486833
0.048396863 0.035850003 0.12241269 0.211543 0.15407261 -0.07394334 0.17148624 -0.16801687
0.10102623 -0.030157823 0.14431877 0.017816009 -0.19945967 -0.001717102 -0.082472324 0.14236654
0.2017806 -0.19937955 0.090382986 -0.005043392 0.080855176 0.043154985 -0.043009363 -0.011395885
0.0074097347 0.107685514 0.11801143 0.09150163 -0.03002965 -0.037456088 -0.09026966 0.017120639
0.08846329 -0.18293214 -0.081953555 0.20099923 -0.046433844 0.12805253 0.06750282 -0.20551431
0.32547918 0.20534419 -0.048961356 0.06346856 -0.020119522 0.21287422 0.093405105 -0.19032644
0.007679487 -0.113805175 0.08790597 0.11853191 -0.20239177 -0.24422187 0.16356254 0.11333745

lstm1_1.bias_hh_l0 f4 [64]
00000000: af48 b93e 04ea dc3d 6966 813e 2b59 5bbe
00000010: cb0d d13d 7f66 9bbc f462 c7bd 71af a53d
00000020: 27b8 a6bd 5aa6 8cbc a8d4 1fbe b884 613e
00000030: f4e7 3ebe 44d5 3b3e a7b4 1f3e badf 933d
00000040: 4c1a 043e b37a b03d 21c6 6f3e 13d9 d4bd
00000050: 93b5 d1bd d27f a2bd c63f 37be 40ea 7ebe
00000060: d784 68be 2073 0abc 5cd6 713e 0065 6d3e
00000070: 1e5f 503e c0b5 b5bc eb6c 1c3d 40b4 523e
00000080: 4f37 d3bc 168e 47bd cfa2 ca3d dd9c 1d3e
00000090: 2a61 973d 03dd ebbd 9de1 67be be76 abbd
000000a0: 96cf d93d 0444 07bc 2694 a93d 18d1 78bd
000000b0: d251 afbd 2e84 f43d 123b 73be c8d3 70be
000000c0: 834d babd 77af 703e 27dc e73d 0fa3 773e
000000d0: 28a9 f83d 5761 7d3d c8f7 653e 9c47 6abe
000000e0: 2d41 3fbe 6826 a43d d0c7 953d d6c8 bb3d
000000f0: 4e5d 2abe 55ce c53d 2748 c13a 1b77 443d
0.36188266 0.107868224 0.25273445 -0.21420734 0.10207709 -0.018969772 -0.09735671 0.080901034
-0.08140593 -0.017169166 -0.15608466 0.22023284 -0.1864317 0.18343073 0.15596257 0.07220407
0.12900656 0.08617153 0.23415424 -0.10392966 -0.10239711 -0.07934536 -0.17895421 -0.24894047
-0.22706924 -0.0084502995 0.23616928 0.2318306 0.20348784 -0.022181392 0.03818981 0.20576572
-0.02578321 -0.048719488 0.098943345 0.1539187 0.073915794 -0.11516764 -0.22644658 -0.08372258
0.10635297 -0.008255962 0.0828021 -0.060746282 -0.08560528 0.11939274 -0.23753002 -0.23518288
-0.090968154 0.23504435 0.113212876 0.24183296 0.12141639 0.06186041 0.22457802 -0.2287888
-0.18677206 0.08015138 0.07313502 0.09169166 -0.16637155 0.09658495 0.0014746235 0.04796515

lstm1_1.weight_ih_l0_reverse f4 [64, 32]
00000000: 9a45 e63c 7b9c 9a3d d27f 7dbe 16c4 073e
00000010: 428e a13d fbc2 b4bc 20d8 5c3c 964f 30be
00000020: e6a1 a9bd a7a2 8abd c9b9 dbbd a89a 85be
00000030: 85c1 df3d 4ccd 253e 42b0 76bd 015f f7bd
00000040: 78a0 41be 8c95 f23d f364 573e d69b 26be
00000050: 6119 ebbd c79e 6e3e e0a0 4fbe 3152 4e3e
00000060: b76d afbc 95cf 48be 5aef 09be 2e3a 1c3e
00000070: 64f1 7c3d 105e d4bc e00b 97bd 7456 17be
00000080: 4735 d93d e035 803e 9cd0 bb3d bdf4 46bc
00000090: e67f f93c 6062 493e 30d8 dbbc a0ad aebd
000000a0: 6bbd 85bd b59e 2e3d 16f6 23be 152a 9bbd
000000b0: 97d3 173d 9424 afbd c8fa ebbc b5ec 073e
000000c0: dc86 05be 1689 03be 54da 303e 4aa3 223e
000000d0: 6748 4f3e fc5a 43bd 7942 4fbe 5d4d 0b3e
000000e0: a061 933d 2978 7d3e 2db8 90bd 228c 063e
000000f0: fd6e 33be f066 4d3d 5490 b1bd aed4 10be
00000100: 5414 003e 48d9 29be 6ee7 43be 6c2d 31be
00000110: 9aa6 5abe e159 8d3d ecff 2a3e b4af cebd
00000120: 5b64 bb3d ee4a 093e a3d7 c03d 98f4 463d
00000130: 5678 17be f261 3fbe 98af 683d d119 d23d
00000140: ccce 35be 8db4 23be 777b acbb c406 783e
00000150: 6ee3 60bb 14a0 393e 7937 413e d68a 2e3e
00000160: ef86 e7bd a103 afbd 0f5d 0d3e 9cb8 86bd
00000170: a4fc d0bc c843 c73d 0749 1abd e028 0f3d
00000180: b08b 91bc 6cdc 9bbd 9001 ca3c a753 593e
00000190: 722e d23d 1bfd 34be c405 30be 4850 8d3d
000001a0: 75f9 a9bd c0ee ef3d 1a67 1c3e a472 6f3e
000001b0: 088b a53d 1045 de3d 07df 7fbe 7ed5 ce3d
000001c0: 14a9 3dbe 5b85 b63d b084 443e ce95 3c3e
000001d0: b80c 833c 0e22 30be 8277 19be d9dc 013e
000001e0: 7db6 6d3e 3ea4 4cbe 5177 ca3b 3099 633e
000001f0: f4bf 5ebe a65c 1abe a0bf 713e 60b4 443e
00000200: e4a2 c8bb cc87 5bbe 4044 98bd 3010 2e3e
00000210: 5905 a33b 2829 80be 80bd 2a3e a84d de3d
00000220: 74dd 613e 48f0 7d3d d286 61bc 8097 ddbd
00000230: bee0 0cbd 3cd3 f8bd a9ab 16bc e803 793e
00000240: 8e41 05be fd5b 26be faa7 33bd c405 0dbe
00000250: b6bf 27bc 93ba c33d 39f2 ecbd acc9 3abe
00000260: a011 07bd 925f 673e 1629 1b3e 328a 30be
00000270: f7bd 0abe 127d 32be 9161 6a3d 50f2 443e
00000280: 9203 e93d 009c c53d 74d6 4b3e 2e7d 483e
00000290: 5742 513d ccbd 873d 2681 23be 1a0f 5d3e
000002a0: e135 063e 34b7 a23e 5770 383e 0e72 643e
000002b0: 5d52 8b3e fc2d b33d 55cc 8f3d 6030 633e
000002c0: 08b1 e73d a9bc a8bc 354c d0bd f0af afbc
000002d0: 7315 a3bb 865b 953e 48e7 753e 5c49 c3bd
000002e0: ca77 fcbd 15e3 45bc 4be6 e3bd 4890 ff3d
000002f0: 5097 803d 9432 733e e01d 8f3e 1c94 4abe
00000300: 6ce6 9fbd a6b8 6b3d d41d d03d e6d8 523d
00000310: afb6 a73e 8dfd 833e f6f9 203e 6a23 4cbe
00000320: 9bba a0ba 2177 c5bc 4ebc d2bd d095 473e
00000330: ba63 04bb 6447 523e 64c5 4dbc 6126 b4bc
00000340: 4ed0 413e e835 1bbb dfdc 1f3d 7248 033e
00000350: da9d 92bd c7fc 203e 1332 983d 5739 a73e
00000360: cd63 1abe 038a e63d a8bb 9fbd a04c cabd
00000370: 0063 3abe a0d5 043d 1ffe 67bc 145e b53d
00000380: 127e f1bc 09fd 6c3d 4eae 0bbe 6044 afbd
00000390: 110f 103e 63d5 fabc 5008 783e 06a9 1f3e
000003a0: 6bad 9e3d 6fe7 153e 3145 573e 52aa 0ebe
000003b0: b4c4 6b3e 0055 dfbb ef93 2b3e bbf2 453d
000003c0: a63d 03be 0ec0 a73c 2c43 c2bd a250 40be
000003d0: b9bb 273d 1ecb 6f3e d9ad a93b 434c 253d
000003e0: 877c 63be c369 893e 4b09 0f3e e633 3e3e
000003f0: be20 273d 24e9 bf3d fa7b 6fbe 8cf2 1ebe
0.02810936 0.075493775 -0.24755791 0.13258395 0.07888462 -0.02206563 0.013479263 -0.1721786
-0.08282833 -0.06769305 -0.10728795 -0.26094556 0.10925583 0.16191596 -0.060226686 -0.120786674
-0.1890887 0.1184493 0.21034603 -0.16270384 -0.1147945 0.23302756 -0.20276213 0.20148541
-0.02141462 -0.19610436 -0.13470212 0.15256569 0.061753646 -0.025923759 -0.07375312 -0.14779073
0.10605865 0.25041103 0.091706485 -0.012143311 0.030456495 0.19666433 -0.026836485 -0.0852921
-0.06530269 0.042631824 -0.16011843 -0.07576386 0.037067022 -0.085518986 -0.028806105 0.1327389
-0.13039726 -0.12845263 0.17270786 0.15882602 0.20242463 -0.04769419 -0.20240201 0.1360373
0.07196355 0.24752869 -0.07066379 0.13139394 -0.17522807 0.050146997 -0.086701065 -0.14143631
0.12507755 -0.16586792 -0.19131252 -0.17302483 -0.21352616 0.06901909 0.16699189 -0.100921065
0.09150001 0.1340749 0.094161294 0.048573107 -0.14791998 -0.18689707 0.056808084 0.1025883
-0.17754668 -0.15986843 -0.0052637416 0.24221331 -0.0034315246 0.18127471 0.18868817 0.17045149
-0.113050334 -0.08545614 0.1380503 -0.0657818 -0.025511093 0.09729725 -0.0376673 0.03495109
-0.017766804 -0.076104015 0.024658948 0.21223317 0.10262765 -0.17674677 -0.171897 0.06900078
-0.08299533 0.1171546 0.15273705 0.23383576 0.08083159 0.108530164 -0.24987422 0.10099314
-0.1852153 0.08912154 0.19191241 0.18416521 0.015997276 -0.17200491 -0.14986995 0.12681903
0.23214145 -0.19984528 0.0061787744 0.22226405 -0.21752912 -0.15074405 0.23608255 0.19209433
-0.0061229337 -0.21438521 -0.07434893 0.16998363 0.0049750027 -0.250314 0.16673851 0.108546555
0.22057134 0.06199673 -0.013765054 -0.10819912 -0.03439402 -0.12149665 -0.0091962 0.24317896
-0.13013288 -0.16246028 -0.043861367 -0.1377173 -0.010238579 0.095570706 -0.11569638 -0.18240994
-0.032975793 0.22595051 0.15152392 -0.17240217 -0.13549028 -0.17430523 0.057221953 0.1923306
0.11377634 0.09648895 0.19906026 0.19579002 0.051088657 0.06627998 -0.15967235 0.21587792
0.1310649 0.31780398 0.18011604 0.22309133 0.27211276 0.08749005 0.07021395 0.22186422
0.11313063 -0.020597773 -0.10170785 -0.021446198 -0.004976922 0.2917139 0.24014008 -0.095354766
-0.123275355 -0.012078066 -0.11127909 0.12478691 0.062788606 0.23749763 0.2795248 -0.19783062
-0.07807621 0.05754914 0.10161939 0.05147638 0.32756564 0.2577938 0.15720353 -0.19935384
-0.0012262644 -0.024104657 -0.102898225 0.19490743 -0.0020201043 0.20535046 -0.012559269 -0.021990957
0.18927118 -0.0023683254 0.039029 0.12820604 -0.07159014 0.15721427 0.07431426 0.32660934
-0.15077133 0.112567924 -0.077994645 -0.09877896 -0.18201828 0.03243029 -0.014159708 0.088558346
-0.02947906 0.0578585 -0.1364071 -0.08557963 0.14068247 -0.030619329 0.24221921 0.15591821
0.077479206 0.14639066 0.21022488 -0.1393216 0.23024255 -0.0068155527 0.16755651 0.04832719
-0.12816486 0.020477321 -0.09485468 -0.18780759 0.04095051 0.23417327 0.005178195 0.040355932
-0.22215472 0.26838502 0.13968389 0.18574485 0.04080271 0.0937064 -0.23387137 -0.15522212

lstm1_1.weight_hh_l0_reverse f4 [64, 16]
00000000: a422 3bbe b62b fbbd 51ae 823d 4a60 6b3d
00000010: 6943 1a3e c6a3 64be 731f ca3d 58d8 e8bd
00000020: 27e9 3b3d 87f7 813c 1942 85bd dba0 e9bd
00000030: 6d48 5a3d 90f7 5a3e 6f3a 10bd c4ef 30be
00000040: c130 62bd 8ddc 4e3e 9a4a 043e edae d2bd
00000050: f692 723d 0bf6 43be 941a 5f3e af73 61bc
00000060: 1a87 1d3e bb02 293e c19c 143d e4d3 e03d
00000070: c5e1 e83d e001 23be 84ff 40be 2ed9 b3bc
00000080: ab54 49be e917 ddbc 32f5 553d b4c6 513e
00000090: c899 4cbe a787 623d 8fc7 6b3e 6df9 223e
000000a0: ff7d e0bd cc00 1a3e c608 57be aa1a 733d
000000b0: a3ea 58bd 41ea 39be e387 4a3e f68d 1a3e
000000c0: 15c8 d73d 10f8 01ba 3600 5e3d c53e 96bd
000000d0: 4f81 6b3e 6f6d 1bbd c427 41bd 1666 743e
000000e0: fadf 3cb9 1ce0 57be 764b abbd 659d cf3d
000000f0: 14f6 a1bd 1e3c e33a 2eae 33bd 3754 1a3e
00000100: 07c6 5c3e 8035 69be 7f14 63bc 52cd b63d
00000110: 5e1e 0fbe fb31 483e d3bd 91bd 5169 1bbe
00000120: ccb3 b93d 19c9 15be a8ff 6bbe c3a5 acbd
00000130: 4454 a9bd 8120 a33c c7af 2d3e 2136 c3bd
00000140: 4c48 46be 049d 8e3e e1d1 5c3d 19c3 2e3e
00000150: 88fe 1c3d 4f5f e73d 544d 1c3e 7044 223e
00000160: 3807 17bd bfaf 13be 4392 493d fce0 33ba
00000170: 2cd4 993d 57d8 ef3c a244 6e3d ce09 2fbe
00000180: 4ee7 863e a8e9 5c3e c806 053e 0b78 83be
00000190: aecc 01bd 075a 453e b404 06bb feda 8abe
000001a0: 6ecd eebc 7592 8abe cf96 b0be 1ddf 14be
000001b0: 1b04 133e db7c 6c3e d0d6 3cbe 4e30 1abe
000001c0: 9f06 10bb 7a8d 1f3e 288b 0c3e 6c71 203d
000001d0: 47c3 e6bd 356f 813e 7c66 473d 0d92 b1bc
000001e0: e15a 1e3e 3a09 1ebe d28a b03b c05f 85bc
000001f0: 04d6 65bd f35c 8a3e c0a3 1abd 6643 a53d
00000200: 496f 9e3c 5dc3 15bc 2de1 4fbd bdec abbd
00000210: 89d1 97bd cddc 85be 071b 9dbe e1d7 2e3e
00000220: 2d4e ce3d c9c0 ec3d f34b bb3d d6cf 35be
00000230: bd7c 12be 67aa 1fbe 4961 643e 55e4 93be
00000240: 8787 2ebe e86a 363e 6636 33bd 5f9f f43d
00000250: 899e 793e 0f42 3c3e 7676 bd3e e8b2 2cbe
00000260: ccc1 a73e c9c1 30be 57be 9ebe 9eec 893e
00000270: e28a 05be 8420 813e d9f6 96be 9317 abbe
00000280: d20e 3a3e adf4 133e c74d d5bd dc4d 1fbd
00000290: beb5 b63c 6adf 1b3e d715 9d3d 7f9e 873e
000002a0: 04a5 ea3d eca8 61be e315 51be 61b2 a13d
000002b0: 2c26 35be 41b4 1c3e ae46 d83d 9b31 433e
000002c0: 5f0f 0abe f4b4 7a3d 5eda 54be 768d 493e
000002d0: 0d91 48be 33d4 ffbd 1045 8c3a 321b c63c
000002e0: ab29 e33d f486 8abe 3fd0 c3bd 5220 353e
000002f0: 8576 6fbb 04f7 793b 087d 00be 5b5a 6e3d
00000300: c674 b0bd 0c22 663d 7075 88bd 924b 843e
00000310: 93a8 303a bdeb 09bc 56df 1ebe b37d 613c
00000320: cbe9 86bd 50c6 243e 23f0 c9bc afc9 b93d
00000330: d29d 05be 5bcc 853d 811f e8bd 90c4 de3c
00000340: e510 dc3d 6c8e 2b3d bcbb 133e 8e57 33be
00000350: 4f34 bebd 1f14 0e3e 9a7e 423e 2ab2 753e
00000360: 5c7d 5dbc 1af9 67bd 307a 45be 22ef 47be
00000370: e84a fa3c 97ce 65be 84a9 5cbd 5805 c93b
00000380: b24c 473e cff2 c8bb 4ccd 2f3d 77cf 12be
00000390: 7e8b a2bd 323c 083e eaf3 6e3e c209 cabd
000003a0: 841c e03d 6e6d 40bc 4c3f 9abe 1488 133e
000003b0: 4825 ec3c 60cd 3f3e a2be 9dbe ec5a a3be
000003c0: f687 10be 965c b1bd 1639 49be 4c09 febd
000003d0: 601a 52be 305a c93d 5dfb 9f3d 9845 d0bd
000003e0: 2e6c b03e 9d21 f43d 2ef6 e53c 14fd 1f3e
000003f0: 5b57 d43d 9aad fabd 3e13 7cbe eae2 9b3d
-0.18274933 -0.122641966 0.063809045 0.057464875 0.15064777 -0.223281 0.0986928 -0.11369389
0.04587665 0.0158651 -0.06506748 -0.11407634 0.053291727 0.213835 -0.035211977 -0.17278963
-0.055222277 0.20201321 0.12919083 -0.10287271 0.059222184 -0.19136827 0.21787483 -0.013760491
0.15383568 0.16504948 0.036282305 0.10977915 0.11371187 -0.15918684 -0.18847471 -0.021954145
-0.19661205 -0.02698894 0.05223579 0.20485955 -0.19980538 0.05530515 0.23025344 0.15915461
-0.10961532 0.15039366 -0.2099944 0.0593516 -0.052958142 -0.18155767 0.19778399 0.15093216
0.105362095 -0.00049579237 0.05419942 -0.07336191 0.22998546 -0.03794616 -0.047157064 0.23867068
-0.00018012515 -0.21081585 -0.083640024 0.101374425 -0.07908264 0.0017336642 -0.043867283 0.15071188
0.21559916 -0.22774315 -0.013859867 0.089258805 -0.13976428 0.19550316 -0.07116284 -0.15176894
0.09067497 -0.14627494 -0.23046744 -0.08430054 -0.082680255 0.01991296 0.16961585 -0.09531809
-0.19363517 0.27854168 0.053911094 0.17066611 0.038328677 0.112974755 0.15263873 0.1584642
-0.03687212 -0.1442251 0.04921175 -0.00068618334 0.07511172 0.029277964 0.058170922 -0.17093584
0.26348346 0.21573508 0.12990868 -0.25677523 -0.03168934 0.19272624 -0.002044958 -0.27120203
-0.02915069 -0.27064863 -0.34490058 -0.14538236 0.14357035 0.23094504 -0.1844132 -0.1505749
-0.0021976603 0.15581313 0.13724959 0.039170668 -0.11267715 0.25280157 0.04868172 -0.021676088
0.15464355 -0.15433207 0.0053876424 -0.016281009 -0.056112304 0.2702404 -0.03775382 0.08069496
0.019340174 -0.0091408165 -0.050751854 -0.083947636 -0.074130125 -0.2614502 -0.30684683 0.17074539
0.100735046 0.11560208 0.091453455 -0.17755064 -0.14305396 -0.15592347 0.22302736 -0.2888514
-0.17043887 0.17814219 -0.04375305 0.1194446 0.24376883 0.18384574 0.3700444 -0.16865122
0.32765043 -0.17261423 -0.31004593 0.26938337 -0.13041261 0.2522012 -0.29485205 -0.33416423
0.18169716 0.14448805 -0.104152255 -0.03889261 0.022303458 0.15221944 0.07670181 0.2648811
0.114572555 -0.22037095 -0.20418505 0.07895351 -0.17690343 0.15303136 0.10560356 0.19061892
-0.13482426 0.061207727 -0.20786425 0.1968287 -0.19586582 -0.12491646 0.0010701735 0.02418289
0.11091932 -0.27056086 -0.09561204 0.1768811 -0.003653915 0.0038141618 -0.12547696 0.05819164
-0.08616023 0.056184813 -0.066630244 0.25838906 0.00067389867 -0.008418021 -0.15514883 0.013762879
-0.06587561 0.16091275 -0.024650639 0.09071671 -0.13048485 0.06533118 -0.11334134 0.027193338
0.1074541 0.04188387 0.14427084 -0.17513868 -0.09287321 0.13874863 0.18993607 0.23993745
-0.013518658 -0.056634046 -0.19284892 -0.19524816 0.030553296 -0.22442089 -0.0538726 0.00613467
0.1946285 -0.0061324607 0.042920396 -0.14336954 -0.07936762 0.13304213 0.23335233 -0.098651424
0.10942939 -0.01174484 -0.30126417 0.14407378 0.02882637 0.18730688 -0.30809504 -0.31905305
-0.14114365 -0.086602375 -0.19650683 -0.12404117 -0.20517874 0.09831655 0.078116156 -0.10169524
0.34457535 0.11920474 0.02807149 0.15623885 0.10368224 -0.12240143 -0.24616715 0.0761164

lstm1_1.bias_ih_l0_reverse f4 [64]
00000000: 2567 063e b55b b2bc 95c7 e23d b38d 4ebe
00000010: 06d3 e8bd 9c65 46be b6d4 b73e 20ab 423e
00000020: 0e43 263e ec33 23bd 1806 083e 8078 bd3d
00000030: e331 3c3e 33a3 9b3e c07f 20be 817d dc3b
00000040: ba44 3c3e 076a 853e 5fb9 423e 8047 263e
00000050: 9909 6cbe 591e e6bd d0a7 c13e 7b5f 763e
00000060: 91fb 3b3e 34aa a23e dcd1 34be 926d 773e
00000070: 5390 763d 3c87 7b3e d491 1dbc aeb1 f0bc
00000080: 0c7e 1f3e a0be f0bd eeac 633e 5ae2 02be
00000090: 767e 81ba 97dc 60bd 4d35 24be 62f9 3fbe
000000a0: 50b1 12be 7c6c d03d 81fb d6bd d2bd 2e3e
000000b0: b193 24bd 5b3d f8bd 9b46 553e 6758 5b3d
000000c0: 1e67 c93c 2835 ae3d b05a 143e 8b7f 38bd
000000d0: db47 173e 5680 5bbc f474 7f3e cb08 09be
000000e0: 72c4 543e 71b2 2b3e 8144 6e3e 96f2 13be
000000f0: 9a2e 86bb 1e07 7b3e c09f 9f3e 6f4c cbbd
0.13125284 -0.021772245 0.110732235 -0.20171241 -0.113683745 -0.19374698 0.35904473 0.19010592
0.16236517 -0.03984444 0.13283575 0.09251499 0.18378405 0.3039795 -0.15673733 0.0067288284
0.18385592 0.26057455 0.19016026 0.16238213 -0.23050536 -0.11236257 0.37823343 0.2405986
0.18357684 0.3177048 -0.1765818 0.24162892 0.060196232 0.24563307 -0.009617288 -0.0293816
0.15575427 -0.11755109 0.22233936 -0.12781659 -0.0009879607 -0.05489787 -0.16035958 -0.18747476
-0.14325452 0.10176942 -0.10497189 0.17064598 -0.040179912 -0.121210776 0.20827715 0.053551104
0.024585303 0.085062325 0.1448772 -0.04504351 0.14773504 -0.013397297 0.24946958 -0.1338226
0.20778063 0.16767289 0.2326832 -0.14448008 -0.004094911 0.24514434 0.31176567 -0.09926688

lstm1_1.bias_hh_l0_reverse f4 [64]
00000000: 659a 65be db0e 72bc 3274 6e3e 4060 0a3e
00000010: 777a 763e b3a2 833c e860 963e c0a4 463e
00000020: 01c7 583e e9dd a3bd 2219 71be 982b e83d
00000030: 1c86 babc b228 933d d7f4 d8bc 6d45 91bc
00000040: 0c05 00be 7f64 18bd b925 0c3e 5612 51be
00000050: 9398 1d3e fc69 023d 3317 a93d b4b3 823e
00000060: 9e2b 903e 1c9b e23d 95b8 64bd 192f 2abd
00000070: dbd3 6f3d 893d 8f3e eb38 9d3e e241 c03d
00000080: 3e7d 3a3e 3703 863d f289 683e 1978 043d
00000090: 07d2 b33d 8216 b83d 64a4 87bd e56b e7bd
000000a0: 131b e2bd 946a 3ebe 75ab 003e 9ccb 483e
000000b0: 03c9 453e 2795 3bbe 1e24 7cbe c410 463d
000000c0: af96 85bb b1e3 3e3e 8bde fd3d 1de1 713d
000000d0: 743f e73d 3071 b03d 3a4b c4bb 8db2 883e
000000e0: 663f 8b3e de84 8f3d e181 1e3e f843 2c3c
000000f0: e604 303e 1942 0d3e d246 3abd 6df0 3c3e
-0.22422178 -0.01477405 0.23286512 0.13513279 0.24070154 0.016068792 0.2937081 0.19398785
0.21169664 -0.080013104 -0.23544744 0.1133644 -0.022769026 0.071854964 -0.026483936 -0.0177333
-0.12501925 -0.037205216 0.13686265 -0.20417151 0.15390234 0.031839356 0.08256378 0.25527728
0.28158277 0.11064741 -0.055840094 -0.041548822 0.05855165 0.27976635 0.30707487 0.09387566
0.18211839 0.06543582 0.22708872 0.032341097 0.08780294 0.08988668 -0.06623152 -0.11299876
-0.1104032 -0.18595344 0.12565406 0.19608921 0.19314961 -0.18318616 -0.24623153 0.048355833
-0.004076801 0.18641545 0.12395962 0.059052575 0.112913996 0.08615339 -0.005990413 0.26698723
0.27196807 0.07007764 0.15479232 0.010514252 0.17189369 0.13794746 -0.045477696 0.1845109

lstm1_2.0.weight f4 [32, 32]
00000000: e1ed 68be 6c57 00bd dba5 3bbe 6edf 81bd
00000010: e1e1 a13d 7ece 523b 522a 04be 920b 5abe
00000020: 5a78 89bd 1739 a2bd 82cb 36be 4442 3ebe
00000030: cf2f c03d c3e7 963d 0717 1fbd ceaf b0bd
00000040: af6d 6fba 6ccd 41be 11fd 0abc 83df 24bc
00000050: 2ae3 283e 741b edbd b0bd 31be 9a41 b9bd
00000060: da72 3dbe 2607 b03d ac97 463e 21e2 eebd
00000070: 5d20 b43d 9a4a 6dbe 5551 9dbd 874b 053a
00000080: c853 d5bc e9a8 04be 1ee9 563d 1696 3ebe
00000090: dbd8 263e e0de fd3b ca9d ec3b d87c 14be
000000a0: b9a1 4a3c a826 05be 33ca 9a3d 72d3 fbbd
000000b0: 4349 1ebe a020 68bd 3f47 833c fdb1 03be
000000c0: a62b 043e 7e17 f53d 299c 0ebe 7907 a03c
000000d0: e573 35be f973 673c 8950 9f3d 011f debd
000000e0: fa19 443e c350 f2bd b19b 17be 85fd 233e
000000f0: a55e d23d 83ac 41bd 311a 903d 9435 143d
00000100: 8c7c 7ebd 9a77 1d3d d183 dcbd 7107 2a3e
00000110: dc8d 2a3e 6d10 a8bc 3746 23be 3bf1 0fbe
00000120: fc6e 38bc b000 09be f41b f83c 719a ad3d
00000130: 34c8 34bd c464 c43d ace1 a7bd 6b0d 313e
00000140: f20e db3d 16fd 243e b51c c9bc 0dc3 933d
00000150: 0f64 1bbd f403 083e f3d2 523d 29dc 173e
00000160: 13a2 a23c ed22 09be 53b7 0d3e 052a 023e
00000170: e1f2 013e be22 403e 6b9e 46be 0adf cfbd
00000180: 3c7d 863d 51dd a8bd d2d7 9d3d d46f eabc
00000190: e6b4 b8bd 3709 ccbd ed49 10be 69b4 1fbe
000001a0: 3636 8abd e915 c0bc 6405 083e 6196 b83d
000001b0: 5bbd 13be 254d 14bc aeac 0ebe e26f 22be
000001c0: 9e51 043e 516c f13d e39e 14be 3b84 f63d
000001d0: 1229 15be 30b4 c23c d2dc d63d 7dc0 0abe
000001e0: 8f9f e63d e1dc e13d 0d6f 60bd b7b7 adbd
000001f0: bcb2 333e d46b 31be ae0e 063e db3d 54bc
00000200: 407d dabc bd75 21bd e5c4 bf3d c676 69bb
00000210: 11c5 8bbc 55d2 b23d 3879 5e3d c345 cb3d
00000220: cd73 253e 380d d6bc 46ef 2abe 0b4e c63d
00000230: 1bde 85bd 191a 083e 2b5b d03d f3cc b1bd
00000240: 2100 0cbe 2d75 27bd 2685 1dbd 950a 263e
00000250: 3765 523d daa4 22be a847 283e a9a6 803d
00000260: 6e95 0c3e a68d e43c 5a97 b43d 41c9 11be
00000270: bed0 1ebe c5d3 a23d f841 bf3d ff22 2fbe
00000280: da2e bfbd d837 b1bd 8011 da3c c8bb 98bd
00000290: aa6a 6a3c 77e8 cb3d f10c b43d 0e5c 2bbe
000002a0: 08b7 7abd 8dc2 dabc 0749 0b3d e51d e3bd
000002b0: 8471 0abe cc05 1e3e da65 123d 7110 1ebe
000002c0: 0ad4 dfbd d609 193e 92fa 093e a8f0 92bd
000002d0: 828b 61bc 25b1 14bd 74c2 a7bc 1954 723d
000002e0: 7b88 a63b 7330 d83d bfb8 763d 8651 87bc
000002f0: 5af0 143e 71cc 083e 97f6 babd 6670 20be
00000300: 5f54 c4bd 868a bbbd 4dd3 5b3d 6bc9 933d
00000310: 5ecc 12bd 29a0 3a3e ba4f a8bc 8cf1 ebbd
00000320: d050 0e3e 318b ddbd 5a18 53bc d77b 3c3d
00000330: e0b3 9cbd 9b12 cfba a8f8 483d 15b8 153e
00000340: c016 0c3e f52d f83d 9dbf 33be f5c6 373e
00000350: c049 f7bd e58e d7bd 1c40 563e 4a0a b43d
00000360: 28a0 89bd 359b 0bbe b377 77bd d59b 0abe
00000370: 598f b7bc 9e37 77bc 7d78 ecbd 4926 fabd
00000380: 8f32 84bd 444a 79bc 6e6a c13d 032b 2dbd
00000390: 0bae 4d3d 7027 e03d ff8f a83c 844e b23d
000003a0: 6b44 3e3d 53c2 ea3d 03ab a03d f336 38be
000003b0: c144 84bc bb67 3bbd b5a6 df3d 3fb3 243e
000003c0: 5c04 743d d080 0a3e ae91 03be 47e4 b0bd
000003d0: af7d 1ebe a209 9f3c 36af aebd 9fcf 063e
000003e0: 02c6 a03d bb4a 0fbe be1e 0d3e d688 f4bd
000003f0: 7f34 f5bd 833b ad3d eb4f 9c3d af39 013e
-0.22746994 -0.031333372 -0.18324988 -0.06341444 0.07904411 0.0032166536 -0.12906769 -0.21293476
-0.06712408 -0.07921045 -0.1785107 -0.18579966 0.09384119 0.07368424 -0.03884032 -0.08627282
-0.00091334706 -0.18926018 -0.008483187 -0.010063055 0.16492906 -0.11577502 -0.17357516 -0.09045716
-0.18500844 0.085951135 0.19393796 -0.116642244 0.08795235 -0.2317299 -0.076815285 0.0005084802
-0.026040927 -0.12955059 0.05246841 -0.1861194 0.16293661 0.007747516 0.0072209584 -0.14500749
0.012367659 -0.13003027 0.07558098 -0.12296189 -0.15457635 -0.05667174 0.016025184 -0.12860866
0.12907276 0.119673714 -0.13926758 0.019534813 -0.17719992 0.014126771 0.07779033 -0.10845757
0.19150534 -0.1183181 -0.14805485 0.16014679 0.10271958 -0.04728366 0.070362456 0.03618391
-0.062130496 0.03844414 -0.107673295 0.16604401 0.16655678 -0.020515645 -0.15944754 -0.14056866
-0.0112569295 -0.13379169 0.030286767 0.08476723 -0.04413624 0.09589532 -0.0819734 0.17290275
0.1069621 0.1611217 -0.024549821 0.07214937 -0.03793722 0.13282758 0.051470708 0.14830078
0.019852674 -0.1339223 0.13839464 0.12711342 0.12690307 0.18763253 -0.19396369 -0.10149963
0.06566855 -0.08245338 0.0770718 -0.028617777 -0.09018879 -0.09962695 -0.140907 -0.15596165
-0.06748621 -0.023447948 0.13283306 0.090130575 -0.14427702 -0.009051596 -0.1393306 -0.15862992
0.1292176 0.11788238 -0.14513735 0.1203694 -0.14566448 0.02376756 0.10491337 -0.13549991
0.11260902 0.110284574 -0.054793406 -0.084823065 0.1754865 -0.1732629 0.13091537 -0.012954201
-0.026671052 -0.039418925 0.093637265 -0.0035623773 -0.017061742 0.08731524 0.054314822 0.09925415
0.16157456 -0.02612935 -0.16692838 0.09682854 -0.06536504 0.13291205 0.10173639 -0.08681669
-0.13671924 -0.040883232 -0.03845706 0.16214974 0.051366057 -0.15883198 0.16433585 0.06281788
0.13728878 0.027899574 0.088179305 -0.14236929 -0.15509316 0.07950548 0.093387544 -0.17103194
-0.09335108 -0.086532295 0.026619673 -0.074576914 0.014307657 0.099564485 0.08791531 -0.16734335
-0.06120971 -0.026704097 0.03400519 -0.11089686 -0.13519865 0.15431899 0.035741664 -0.1543596
-0.10929115 0.14945158 0.13474491 -0.07174808 -0.013766171 -0.03630175 -0.020478465 0.059162233
0.0050821877 0.10556116 0.06023478 -0.016518366 0.14544812 0.13359238 -0.091290645 -0.15667877
-0.09586405 -0.091572806 0.05366831 0.07216152 -0.03583943 0.18225159 -0.02054583 -0.11520681
0.13898015 -0.10817564 -0.012884224 0.04601654 -0.07651496 -0.0015798392 0.049065262 0.14621003
0.13680553 0.121181406 -0.17553563 0.1794699 -0.120746136 -0.10525302 0.20922893 0.08791025
-0.067200005 -0.13633426 -0.06041689 -0.13536008 -0.02240722 -0.015088944 -0.11546419 -0.122143336
-0.06454956 -0.01521546 0.09444128 -0.042277347 0.05021481 0.10945022 0.020576475 0.08706382
0.046451967 0.11462846 0.07845118 -0.17989711 -0.016146066 -0.045753222 0.10920469 0.16084002
0.05957447 0.135257 -0.12848541 -0.086372904 -0.15477632 0.019413773 -0.085295126 0.13165139
0.07850267 -0.13993351 0.13781258 -0.11940162 -0.119729035 0.084586166 0.07632431 0.12619661

lstm1_2.0.bias f4 [32]
00000000: d5cc 2c3e c3ec 873d b268 afbc bf75 b9bc
00000010: 20d9 8fbc 4fde 48bd c467 2f3d 9de6 f43c
00000020: 977f 00be dd2e e1bd 4517 e73c af3c b13d
00000030: fd28 013e 13cb ee3c 563c 2bbe 01d6 92bd
00000040: 0e9f bf3d 1637 e03d 02d8 cc3d be76 07be
00000050: 8d0d 033e ad31 02be 21af 373e 6bf4 bf3d
00000060: d6ff 043e 0a0c f03d 9e6b 0d3e c8ef 093d
00000070: d0e1 1ebe af50 b73c 359e 083e 382f dc3d
0.16875012 0.066369556 -0.021412227 -0.022639154 -0.017559588 -0.049040135 0.042823568 0.029895121
-0.12548672 -0.109952666 0.028209338 0.086541526 0.12613292 0.029149568 -0.16722235 -0.07169724
0.09356509 0.10948007 0.10002138 -0.1322889 0.12798138 -0.12714262 0.179379 0.09372791
0.12988219 0.11721046 0.13810584 0.03367594 -0.15515828 0.02237734 0.13341601 0.10751194
