results/pretraining_samples_effect_results/Dataset 6/pre_rate=0.2/Experiment4(25_3b_100)/from_Dataset 6_ft_model.pth (torch, 95756 bytes, 27 tensors)

cnn1.0.weight f4 [16, 1, 3]
-0.51896447 0.10790074 0.27095744 -0.10740577 -0.068657316 0.010422968 0.063209906 0.49306655
-0.5437085 -0.57489574 -0.5286939 -0.015640184 -0.31716904 -0.50563174 0.08981206 0.22893432
0.07438127 0.50059855 0.517894 -0.20880038 0.27228975 0.511764 0.05117327 0.49493587
-0.47563317 0.35433027 -0.4279465 0.45294115 -0.19092143 0.14091936 -0.0025869114 -0.07562188
0.59399146 -0.116360895 0.375268 0.06608829 0.399417 0.087044895 0.45820275 -0.5382924
0.31283742 0.36384767 0.4527818 0.3486115 -0.21038803 -0.079658955 0.52130795 -0.5342177
00000000: dbda 04bf 10fb dc3d efba 8a3e 8ef7 dbbd
00000010: 359c 8cbd 19c5 2a3c 3274 813d 3873 fc3e
00000020: 7b30 0bbf 5e2c 13bf 7c58 07bf d81f 80bc
00000030: fb63 a2be 1571 01bf 63ef b73d c26d 6a3e
00000040: 3555 983d 3a27 003f b494 043f c4cf 55be
00000050: 9069 8b3e f702 033f 109b 513d 3c68 fd3e
00000060: 3186 f3be c76a b53e ce1b dbbe e7e7 e73e
00000070: e880 43be 2a4d 103e 2c89 29bb a5df 9abd
00000080: d30f 183f 9f4e eebd 2123 c03e 4c59 873d
00000090: 6380 cc3e 9844 b23d 8d99 ea3e 88cd 09bf
000000a0: 3a2c a03e 3e4a ba3e 04d3 e73e 357d b23e
000000b0: f66f 57be 3c24 a3bd 7074 053f 7ec2 08bf

cnn1.0.bias f4 [16]
0.1586197 0.41480744 0.5264065 -0.22512268 -0.5073152 -0.13508835 -0.17810962 0.016970482
-0.087415904 -0.1476628 0.021751711 0.120402165 0.31431264 -0.2553421 0.08193639 0.2449681
00000000: 346d 223e a461 d43e 94c2 063f 8f86 66be
00000010: 69df 01bf 9a54 0abe 5e62 36be ae05 8b3c
00000020: 1c07 b3bd eb34 17be a530 b23c 6995 f63d
00000030: 96ed a03e 33bc 82be 44ce a73d ebd8 7a3e

cnn2.0.weight f4 [32, 16, 3]
-0.12433594 -0.13979204 0.04287333 0.012351294 -0.12716424 -0.13653672 0.10533759 -0.06056808
0.016194552 0.039925423 0.10058403 -0.061931554 -0.035193704 -0.035619818 -0.13968784 -0.13054623
-0.015908526 0.07071816 -0.055492528 0.03413236 -0.010726782 -0.0013337949 -0.048870694 0.11258847
-0.1178624 -0.03131695 -0.12933384 -0.15085097 -0.111549415 0.09979019 0.048972767 -0.07723108
0.038671482 -0.1494506 0.05493979 0.0928707 0.024969872 -0.12721214 -0.007626208 0.081657276
0.12235594 -0.12687233 -0.03177014 0.10857056 0.07604912 0.076894075 0.020924173 -0.117664576
0.082305364 -0.067838535 0.02962073 -0.014204594 0.06655999 0.032498006 0.1746102 0.18697591
0.054767743 0.07425369 0.03358883 -0.085862756 0.1275746 0.06377677 -0.08377308 0.12860662
0.14661258 -0.065844834 0.12288083 0.11342194 -0.039311677 0.10470105 0.0072504245 -0.040814642
-0.04350263 -0.11805301 0.057917222 0.10818578 0.004039544 -0.083445 0.14101014 -0.016428377
-0.12927274 0.05475577 0.19099596 -0.06906299 -0.018761838 0.01775814 -0.13425769 -0.005650351
-0.11978927 0.05704508 0.011783778 0.022910068 0.051324777 0.17432761 0.05110243 0.08775075
-0.07994842 0.07881098 0.10450566 0.048526276 0.14683607 -0.07700393 -0.025970578 0.14786278
0.042337965 -0.08669017 -0.11181625 0.07893139 -0.0011152314 -0.101247065 0.1298887 -0.070136786
0.07977597 0.19821079 0.067991704 -0.026800355 0.08261871 0.14509386 0.11763677 -0.07044557
0.020805987 0.07570125 -0.12652525 0.11587136 0.20463206 0.2646218 0.13574705 0.13143341
0.077416 -0.003321259 0.034273587 0.14020878 -0.094013356 0.11684946 0.06802095 -0.06666687
0.13467452 -0.10178456 -0.12864856 0.158763 -0.02490501 0.12112586 0.064836636 -0.10384889
-0.111005485 -0.015294519 -0.023527881 0.031155596 -0.06470261 -0.1512969 -0.035120815 -0.00018504263
0.0870698 0.10397551 -0.039085392 -0.0446313 0.0029752925 -0.057832684 -0.00400081 -0.11447649
0.08403699 -0.08130298 -0.10703167 -0.10708434 -0.14505158 -0.15191293 0.09525034 -0.13152236
-0.09182581 0.028975422 -0.038249746 0.09326781 0.07401132 0.10883013 -0.051913254 0.011863777
-0.029871278 -0.0062840865 -0.13219038 -0.12399485 -0.13492545 0.11051405 0.098361276 -0.13300268
0.08967347 -0.050031967 -0.0499963 -0.010458082 -0.14080486 0.06701332 -0.01336616 0.039807636
-0.068483695 -0.06513739 -0.09687001 0.10920325 -0.07685791 0.09400912 0.10761916 -0.08872537
0.057817873 0.023154227 0.12898165 0.08845982 -0.084591635 0.017527811 0.04485204 0.18977942
-0.08899691 -0.114709236 -0.006264113 0.15864691 0.11762815 0.029077433 0.035024535 0.049921203
-0.1313109 0.020836718 -0.024335084 0.09889661 0.032987732 0.071616895 0.17864251 -0.09456048
-0.020903442 0.082783185 -0.10140198 0.06298021 -0.020258302 -0.0063928403 0.02449354 -0.11023569
0.1340685 0.06108705 -0.04637988 0.18134336 0.048103496 -0.06639152 0.05352443 0.116667554
0.011504598 -0.114326045 -0.10709526 -0.04040419 -0.02242313 0.10806881 -0.06653695 -0.046530247
0.019224584 -0.06551764 0.08814549 -0.10468032 -0.07196011 -0.0039664316 -0.073706895 -0.036571626
00000000: d7a3 febd a525 0fbe f29b 2f3d 155d 4a3c
00000010: 5837 02be 48d0 0bbe 3cbb d73d 3c16 78bd
00000020: 70aa 843c d788 233d 00ff cd3d f1ab 7dbd
00000030: 4627 10bd 16e6 11bd 540a 0fbe e9ad 05be
00000040: 9952 82bc afd4 903d 224c 63bd 60ce 0b3d
00000050: 62bf 2fbc bbd2 aeba a32c 48bd c994 e63d
00000060: d861 f1bd 3446 00bd 1770 04be ad78 1abe
00000070: 0574 e4bd cd5e cc3d ab97 483d 542b 9ebd
00000080: fd65 1e3d 9409 19be 8c08 613d fe32 be3d
00000090: 9e8d cc3c e643 02be 45e5 f9bb ee3b a73d
000000a0: c095 fa3d d2ea 01be 6821 02bd 3e5a de3d
000000b0: a4bf 9b3d a47a 9d3d 2c69 ab3c 20fa f0bd
000000c0: b78f a83d eeee 8abd 2ca7 f23c 63ba 68bc
000000d0: 9b50 883d a11c 053d 04cd 323e 9d76 3f3e
000000e0: 2454 603d 5212 983d 7194 093d d0d8 afbd
000000f0: eaa2 023e 659d 823d 3891 abbd 74b1 033e
00000100: 9c21 163e a8d9 86bd f2a8 fb3d c349 e83d
00000110: 4805 21bd 816d d63d f894 ed3b 412d 27bd
00000120: d02f 32bd c7c5 f1bd 9c3a 6d3d 8290 dd3d
00000130: 275e 843b 36e5 aabd f664 103e ce94 86bc
00000140: 1360 04be 9647 603d 7294 433e e670 8dbd
00000150: 6db2 99bc 8579 913c d97a 09be 9426 b9bb
00000160: 1454 f5bd 1aa8 693d bf10 413c e5ad bb3c
00000170: ee39 523d f082 323e c850 513d aab6 b33d
00000180: ffbb a3bd a767 a13d 1007 d63d 7dc3 463d
00000190: 325c 163e 3db4 9dbd 40c0 d4bc 5769 173e
000001a0: 936a 2d3d 9e8a b1bd ebff e4bd c8a6 a13d
000001b0: f52c 92ba 9f5a cfbd 8b01 053e e0a3 8fbd
000001c0: 9561 a33d c5f7 4a3e 3c3f 8b3d 6b8c dbbc
000001d0: 0034 a93d 7c93 143e 8ceb f03d c445 90bd
000001e0: 5171 aa3c 4209 9b3d d68f 01be f74d ed3d
000001f0: 118b 513e 827c 873e 4601 0b3e 7b96 063e
00000200: 488c 9e3d 7ba9 59bb 7662 0c3d e492 0f3e
00000210: 138a c0bd c54e ef3d 914e 8b3d a488 88bd
00000220: 1ee8 093e 6c74 d0bd 73bc 03be c592 223e
00000230: 9705 ccbc d610 f83d 12c9 843d baae d4bd
00000240: d856 e3bd dd95 7abc 8bbd c0bc 053a ff3c
00000250: cd82 84bd 93ed 1abe d8da 0fbd 0108 42b9
00000260: a751 b23d 1df1 d43d 0118 20bd 4fcf 36bd
00000270: 20fd 423b f7e1 6cbd 3a19 83bb a672 eabd
00000280: 961b ac3d 2d82 a6bd 6c33 dbbd 094f dbbd
00000290: 6788 14be 108f 1bbe 9c12 c33d ccad 06be
000002a0: 2c0f bcbd dd5d ed3c c4ab 1cbd 3203 bf3d
000002b0: 3f93 973d 55e2 de3d fea2 54bd 4a60 423c
000002c0: 9cb4 f4bc bdea cdbb ea5c 07be 03f1 fdbd
000002d0: e629 0abe 3155 e23d a371 c93d db31 08be
000002e0: b9a6 b73d 52ee 4cbd ecc8 4cbd 6058 2bbc
000002f0: 262f 10be 483e 893d bdfd 5abc 550d 233d
00000300: 2e41 8cbd c066 85bd c963 c6bd f4a5 df3d
00000310: ae67 9dbd da87 c03d 6f67 dc3d a6b5 b5bd
00000320: 6fd2 6c3d efad bd3c c413 043e 6c2a b53d
00000330: 613e adbd 7c96 8f3c c6b6 373d 8955 423e
00000340: 0344 b6bd adec eabd 3043 cdbb 5674 223e
00000350: 07e7 f03d cc33 ee3c e375 0f3d 2d7a 4c3d
00000360: 5d76 06be c4b1 aa3c 5f5a c7bc 4e8a ca3d
00000370: 251e 073d e1ab 923d 10ee 363e eda8 c1bd
00000380: b23d abbc 3b8a a93d d7ab cfbd c5fb 803d
00000390: bdf4 a5bc 087b d1bb ada6 c83c 40c3 e1bd
000003a0: 4149 093e 6a36 7a3d d4f8 3dbd 13b2 393e
000003b0: 2c08 453d 47f8 87bd 6f3c 5b3d 66ef ee3d
000003c0: c87d 3c3c c623 eabd c254 dbbd dd7e 25bd
000003d0: b6b0 b7bc 2e53 dd3d 8644 88bd 8096 3ebd
000003e0: e07c 9d3c 1d2e 86bd 9f85 b43d a362 d6bd
000003f0: d25f 93bd d7f8 81bb a4f3 96bd 21cc 15bd

cnn2.0.bias f4 [32]
-0.027364356 0.16192701 -0.12280375 0.077226594 0.1603004 -0.012761833 0.016775163 0.10400426
-0.09176582 -0.073874235 -0.047785163 -0.06910625 0.14388265 0.12231605 -0.08608832 0.099623874
-0.014349001 0.022698792 -0.12033671 0.06752136 0.054255556 -0.09879015 -0.0733939 0.086585924
0.11300119 -0.10141403 -0.05875245 -0.07318194 -0.11258975 -0.12453269 0.06599402 -0.17392898
00000000: 372b e0bc 32d0 253e 8880 fbbd fa28 9e3d
00000010: ca25 243e 0217 51bc 116c 893c 2f00 d53d
00000020: b8ef bbbd 604b 97bd 60ba 43bd 9487 8dbd
00000030: f955 133e d680 fa3d 134f b0bd 9a07 cc3d
00000040: 1318 6bbc d1f2 b93c 1873 f6bd a448 8a3d
00000050: 133b 5e3d 7d52 cabd 8b4f 96bd f653 b13d
00000060: 2b6d e73d 29b2 cfbd 69a6 70bd 6ae0 95bd
00000070: 7495 e6bd ff0a ffbd df27 873d 701a 32be

lstm1_1.weight_ih_l0 f4 [64, 32]
0.15117785 0.13114166 0.22783977 0.26313838 -0.27452973 0.18898687 0.02567787 0.19190086
0.14774546 -0.18122287 -0.07708421 0.24388905 0.24188937 -0.2697831 0.09938585 -0.19939156
-0.18942568 0.11750671 -0.10767877 0.2802702 0.012812646 0.13860592 -0.13884093 0.05603243
-0.042857993 0.09561536 0.08851507 -0.19900557 -0.080827534 -0.040696375 0.09832001 0.1006179
-0.08143914 -0.27968848 0.34880653 -0.17665303 0.12716354 -0.039132327 0.18525296 0.19697717
-0.15686472 0.027333923 -0.022080565 -0.04729745 -0.1667124 -0.039273035 -0.0034573507 -0.23856483
0.13728628 0.1927197 -0.24001071 -0.040483437 -0.034173574 0.07786414 -0.12013954 -0.28199136
0.23921879 0.043960333 -0.04791963 -0.090684116 -0.18786094 0.18438786 -0.21308139 0.30239454
0.1721341 -0.0035511474 0.350473 0.058791414 0.05842281 -0.19656497 -0.16345827 -0.122286014
-0.08198442 0.12750922 0.13518527 0.06666956 0.033725083 0.12202237 0.011566458 0.1428595
-0.011438876 0.20034492 0.15539885 0.2768085 0.082696654 -0.0038666725 0.08224863 0.14156187
-0.0032959497 -0.047846317 -0.015690297 0.20262992 -0.24152231 0.2445946 0.08052072 0.12050773
-0.15031894 0.2476973 0.06327156 -0.021414211 0.11362011 0.026414067 0.19326368 -0.21050708
-0.22294006 0.23180504 -0.15243883 -0.02571249 0.021074807 0.061960522 -0.08720528 -0.039395034
-0.04858014 -0.21132806 -0.019988418 0.23725879 0.06450152 -0.1953929 -0.04961297 0.003907625
0.21479808 0.02059099 0.024530113 0.012853295 0.121524125 -0.1279829 -0.20895231 0.16807562
0.07061437 0.044048335 -0.092743784 0.06965759 0.15930554 0.08993429 -0.19404583 0.090325765
0.15015663 0.013949706 0.047125857 -0.0023742926 -0.10552043 0.019644117 -0.07555206 -0.0498661
-0.17611462 -0.09411305 0.0050008595 0.1904177 0.024434766 -0.2098594 -0.089744925 -0.2634266
-0.103778854 -0.047758758 0.11814523 -0.23559576 -0.02300337 0.033266716 -0.2444737 0.032216508
-0.09197861 -0.136513 -0.13559541 0.21067719 -0.042522658 0.008682072 0.24496329 -0.007982575
-0.12404287 0.025791936 0.19430341 -0.13099666 -0.117752895 0.040015083 -0.16241746 -0.22155204
0.0039870143 -0.14997458 0.00066277385 0.12789337 0.022964278 -0.017713547 -0.21187815 -0.17599304
0.14983872 -0.19723874 0.08013323 0.23977691 -0.12222421 -0.18151549 0.055782586 -0.15267617
-0.23524481 0.22729394 -0.02681674 0.17474297 -0.013886921 -0.058354795 0.16330366 -0.22160327
-0.2164272 -0.08273526 0.14014792 -0.10666922 -0.08773038 0.116234735 -0.054491486 0.16344488
-0.04748097 -0.17033383 0.0014042556 -0.057896268 0.2194911 -0.10600522 -0.00859796 0.22868797
0.20942108 0.080372155 0.2329216 -0.05829531 0.10335106 -0.16320801 0.2317765 0.1391392
-0.23461838 0.059511308 -0.07104287 -0.10726062 0.21444671 -0.21704367 0.13804965 -0.13020855
0.07639904 -0.025808742 0.027711738 -0.18576238 0.059255417 0.21760151 -0.22782405 0.13352051
-0.010052174 -0.16168949 -0.020067036 0.18083587 -0.22859623 0.16298884 0.23553899 -0.23086676
0.1492336 -0.23772806 0.18286791 0.029699236 0.23574835 0.06055195 0.20899445 0.2741073
00000000: 5ece 1a3e 004a 063e d44e 693e 13ba 863e
00000010: 298f 8cbe c685 413e 655a d23c a981 443e
00000020: 964a 173e 7d92 39be 54de 9dbd 0dbe 793e
00000030: d9b1 773e 0321 8abe cf8a cb3d 4d2d 4cbe
00000040: cef8 41be 5ca7 f03d b086 dcbd 937f 8f3e
00000050: 22ec 513c b6ee 0d3e 512c 0ebe 4382 653d
00000060: dd8b 2fbd fcd1 c33d 6447 b53d 1ec8 4bbe
00000070: e888 a5bd 3eb1 26bd 005c c93d c210 ce3d
00000080: 90c9 a6bd 5433 8fbe c596 b23e 88e4 34be
00000090: 2937 023e 3849 20bd f4b2 3d3e 62b4 493e
000000a0: 25a1 20be 64eb df3c 4de2 b4bc f9ba 41bd
000000b0: a8b6 2abe c3dc 20bd b894 62bb 574a 74be
000000c0: c694 0c3e 5058 453e 5ec5 75be f6d1 25bd
000000d0: 97f9 0bbd 3c77 9f3d b80b f6bd 2c61 90be
000000e0: c5f5 743e c00f 343d 6047 44bd 98b8 b9bd
000000f0: 9e5e 40be 2cd0 3c3e 0232 5abe 75d3 9a3e
00000100: ec43 303e 5eba 68bb 3271 b33e 44cf 703d
00000110: c24c 6f3d 5448 49be 9b61 27be 1771 fabd
00000120: 73e7 a7bd c791 023e 026e 0a3e 0d8a 883d
00000130: 5023 0a3d dde6 f93d 3e81 3d3c c349 123e
00000140: 206a 3bbc 3827 4d3e e020 1f3e d8b9 8d3e
00000150: dd5c a93d 0068 7dbb f871 a83d 98f5 103e
00000160: dc00 58bb 80fa 43bd f088 80bc 387e 4f3e
00000170: a051 77be 0277 7a3e 0ce8 a43d c2cc f63d
00000180: 35ed 19be 5ca4 7d3e 8594 813d db6c afbc
00000190: a9b1 e83d 5062 d83c eae6 453e 2b8f 57be
000001a0: 664a 64be 4d5e 6d3e ed18 1cbe 00a3 d2bc
000001b0: 13a5 ac3c 51ca 7d3d af98 b2bd b05c 21bd
000001c0: f8fb 46bd 6266 58be c0be a3bc f8f3 723e
000001d0: 5f19 843d 1415 48be f836 4bbd 890b 803b
000001e0: 07f4 5b3e 70ae a83c 60f3 c83c a096 523c
000001f0: a4e1 f83d f30d 03be 98f7 55be 041c 2c3e
00000200: 449e 903d 076c 343d 74f0 bdbd a3a8 8e3d
00000210: fe20 233e 782f b83d f3b3 46be b7fc b83d
00000220: a9c2 193e 4f8d 643c 0b07 413d 059a 1bbb
00000230: 181b d8bd b3ec a03c 0abb 9abd 6540 4cbd
00000240: 6457 34be 58be c0bd 40de a33b dcfc 423e
00000250: 6b2b c83c 62e5 56be 30cc b7bd dadf 86be
00000260: 028a d4bd b09e 43bd 20f6 f13d 0440 71be
00000270: 9071 bcbc ae42 083d 5057 7abe 75f5 033d
00000280: 485f bcbd 10ca 0bbe 86d9 0abe c3bb 573e
00000290: 3d2c 2ebd 403f 0e3c a8d7 7a3e 59c9 02bc
000002a0: 300a febd 9c49 d33c 79f7 463e fd23 06be
000002b0: 6e28 f1bd dbe6 233d c350 26be 8ade 62be
000002c0: 80a5 823b f092 19be 00be 2d3a 7bf6 023e
000002d0: 951f bc3c 001c 91bc 96f6 58be 8537 34be
000002e0: 526f 193e f4f8 49be e41c a43d 1488 753e
000002f0: b050 fabd 32df 39be 487c 643d 2457 1cbe
00000300: 04e4 70be bebf 683e c8ae dbbc d2ef 323e
00000310: f885 63bc 7005 6fbd 1339 273e f8eb 62be
00000320: 189f 5dbe 1b71 a9bd f082 0f3e 6475 dabd
00000330: fcab b3bd 7a0c ee3d 7732 5fbd 185e 273e
00000340: 687b 42bd fe6b 2ebe 000f b83a a324 6dbd
00000350: 46c2 603e 4419 d9bd 75de 0cbc 2e2d 6a3e
00000360: 7b72 563e 289a a43d 0083 6e3e 10c7 6ebd
00000370: b8a9 d33d 0020 27be d256 6d3e 827a 0e3e
00000380: cd3f 70be 21c2 733d ed7e 91bd 75ab dbbd
00000390: eb97 5b3e b240 5ebe e35c 0d3e 6455 05be
000003a0: 1a77 9c3d db6c d3bc ba03 e33c 7e38 3ebe
000003b0: cfb5 723d eed2 5e3e b54a 69be 9ab9 083e
000003c0: e0b1 24bc ee91 25be a063 a4bc 0a2d 393e
000003d0: 2115 6abe 8ce6 263e 2231 713e 5668 6cbe
000003e0: b1d0 183e fc6e 73be ba41 3b3e d04b f33c
000003f0: 0468 713e 5205 783d a402 563e cb57 8c3e

lstm1_1.weight_hh_l0 f4 [64, 16]
0.047654297 -0.08679662 -0.21602385 0.20824555 0.13088575 0.04535626 -0.0064454493 -0.08163201
-0.071870126 -0.046612777 0.13250886 -0.22774854 0.11000396 -0.05351246 -0.11382316 0.1572577
-0.1849687 0.05211746 -0.052220263 -0.22223109 0.22696759 -0.00046951877 -0.12928112 0.12589638
-0.09236833 -0.35458803 -0.1661735 -0.19942233 -0.18673237 -0.12132037 0.092110075 -0.1677126
0.1584655 0.18404394 -0.1349619 0.094222985 0.17307605 -0.1685369 -0.14417441 0.04704462
-0.16755132 -0.26128957 -0.1728826 0.009929846 0.18284087 0.28120276 -0.065777026 0.018729525
0.006775579 -0.002372965 -0.22383536 -0.06487265 0.123759314 0.13439633 -0.12410251 0.10223213
0.14624439 0.054634355 0.13345747 0.13029486 -0.0652684 -0.11928469 -0.13231781 0.17030066
0.16325799 -0.030482354 0.048734576 0.2604559 -0.19958961 0.02625124 -0.2393428 -0.19910304
-0.021646468 0.24743032 0.058003537 0.03998686 -0.19880404 -0.009252203 0.06737834 0.035787236
0.2458241 -0.24382097 -0.04959155 0.012773875 0.12814407 -0.034396395 0.07769476 -0.16949083
0.06434338 -0.23245 0.06540023 -0.08818777 0.09636217 -0.2188834 0.09924503 0.17113906
-0.00044755085 0.06573516 -0.31287515 0.27830938 0.22701868 0.15931574 -0.09135674 -0.26784483
-0.048491366 -0.03689111 -0.13689709 -0.1195616 0.120470576 0.16799603 -0.13694693 0.20353758
-0.12747937 0.17059729 -0.1995965 -0.14358936 -0.060251895 -0.24116813 0.20082048 -0.23937777
0.018575413 0.06093937 0.15445772 0.10139648 0.1532326 -0.018711772 0.19248414 0.05415688
-0.0998198 0.17260326 0.058480285 -0.032281354 0.026694333 0.18710539 0.045728598 0.051820558
-0.1477293 -0.14498031 -0.010910171 -0.079843916 -0.16457815 0.063210785 0.13133182 0.2517969
-0.0774972 0.011916019 0.007271319 -0.1253247 -0.01392854 0.15771407 -0.18614691 -0.13134015
-0.09648487 0.118342556 -0.043018747 0.17016841 -0.13915347 -0.13244122 -0.20308201 0.22720756
-0.13495034 -0.046712965 0.14430115 0.15294237 0.22309078 -0.22123726 0.028998043 0.011163787
-0.22250912 -0.104439385 0.057988193 -0.06897699 -0.24224369 -0.12129551 -0.1123029 -0.16467857
-0.2152984 0.21096922 0.09228026 -0.06432757 0.002231634 0.18895654 -0.083349645 -0.25103888
0.13590737 -0.30190572 0.08551253 0.24728741 -0.36139113 0.11845946 -0.041320663 0.0953132
0.18461539 0.15821588 -0.18019064 -0.059749123 0.11887449 0.087671116 0.11827815 0.091136314
0.22593142 0.15034592 -0.18870418 -0.22004463 0.24176535 0.07300437 0.2625812 0.06519999
0.13116564 -0.09673507 0.016381653 0.116790995 0.13905269 -0.13790576 -0.08871549 -0.038213
-0.14700279 0.1540117 0.038584847 -0.24895181 -0.18916202 0.10131589 0.09998704 -0.029202156
0.2668125 0.26613697 0.26849964 0.10902894 0.16395216 0.12044093 -0.12195427 -0.20548698
-0.19390725 0.15776102 0.03269905 0.16544741 0.1822206 -0.19936138 -0.23558633 0.22701018
0.05829375 -0.14669117 -0.30986217 -0.009410875 0.08362962 -0.21612029 -0.13913059 0.10275715
0.09577051 0.18164387 -0.06972185 0.24040484 -0.23135412 0.11246426 0.23921773 -0.0133827785
00000000: 2731 433d 6dc2 b1bd 5b35 5dbe 523e 553e
00000010: ea06 063e 7cc7 393d 5934 d3bb af2e a7bd
00000020: a530 93bd 0aed 3ebd 67b0 073e ea36 69be
00000030: c249 e13d e22f 5bbd 1e1c e9bd 2a08 213e
00000040: 6f68 3dbe 1e79 553d eae4 55bd 8c90 63be
00000050: 316a 683e be29 f6b9 4562 04be fbea 003e
00000060: 9b2b bdbd 908c b5be 6329 2abe 5e35 4cbe
00000070: c536 3fbe d076 f8bd 35a4 bc3d dabc 2bbe
00000080: c844 223e 0476 3c3e 7433 0abe fbf7 c03d
00000090: d93a 313e f094 2cbe 75a2 13be dcb1 403d
000000a0: 9392 2bbe bfc7 85be 2308 31be cbb0 223c
000000b0: a33a 3b3e cff9 8f3e 1bb6 86bd a96e 993c
000000c0: ad05 de3b bf83 1bbb 1935 65be f4db 84bd
000000d0: 8675 fd3d 319f 093e 7529 febd 145f d13d
000000e0: 17c1 153e 46c8 5f3d 13a9 083e 046c 053e
000000f0: 70ab 85bd 884b f4bd 527e 07be 4c63 2e3e
00000100: 1a2d 273e 21b6 f9bc e89d 473d 7a5a 853e
00000110: 3861 4cbe d70c d73c 4716 75be abe1 4bbe
00000120: ef53 b1bc 605e 7d3e 1e95 6d3d 43c9 233d
00000130: 4993 4bbe 8d96 17bc a8fd 893d a395 123d
00000140: 50b9 7b3e 34ac 79be 8220 4bbd 8449 513c
00000150: 3338 033e 3ce3 0cbd 6e1e 9f3d 018f 2dbe
00000160: 76c6 833d 5f07 6ebe 8ef0 853d ca9b b4bd
00000170: 8859 c53d f822 60be fa40 cb3d 143f 2f3e
00000180: 42a5 eab9 28a0 863d 2c31 a0be 917e 8e3e
00000190: 9677 683e aa23 233e 3e19 bbbd f522 89be
000001a0: e29e 46bd 221b 17bd c02e 0cbe b6dc f4bd
000001b0: 47b9 f63d 2707 2c3e d13b 0cbe 286c 503e
000001c0: f489 02be 0eb1 2e3e 0663 4cbe 1709 13be
000001d0: b1ca 76bd c7f4 76be e2a3 4d3e 721f 75be
000001e0: 772b 983c 909b 793d 2a2a 1e3e f5a8 cf3d
000001f0: 02e9 1c3e 6e49 99bc 901a 453e 9bd3 5d3d
00000200: 536e ccbd e9be 303e 0689 6f3d 7439 04bd
00000210: 13ae da3c 8e98 3f3e e94d 3b3d cb41 543d
00000220: 5a46 17be b875 14be 93c0 32bc 3585 a3bd
00000230: 2d87 28be a874 813d d97b 063e 86eb 803e
00000240: dab6 9ebd 683b 433c 3f44 ee3b 1e55 00be
00000250: 8834 64bc cc7f 213e 4c9d 3ebe 087e 06be
00000260: dc99 c5bd 955d f23d 6d34 30bd a140 2e3e
00000270: 3f7e 0ebe ac9e 07be bbf4 4fbe 19a9 683e
00000280: 6c30 0abe 1856 3fbd aec3 133e ed9c 1c3e
00000290: e971 643e 058c 62be 4e8d ed3c 51e8 363c
000002a0: 6ed9 63be 51e4 d5bd 0785 6d3d cf43 8dbd
000002b0: bb0e 78be c869 f8bd 10ff e5bd 80a1 28be
000002c0: 2f77 5cbe 5108 583e 6ffd bc3d 2cbe 83bd
000002d0: 9b40 123b d37d 413e 38b3 aabd 2b88 80be
000002e0: 4d2b 0b3e 6393 9abe 3121 af3d e938 7d3e
000002f0: 4208 b9be e09a f23d db3f 29bd 9133 c33d
00000300: d10b 3d3e 5803 223e e583 38be 7fbb 74bd
00000310: 7874 f33d ea8c b33d d13b f23d ada5 ba3d
00000320: 915a 673e 48f4 193e ab3b 41be 6153 61be
00000330: 5691 773e 5183 953d 0b71 863e 9387 853d
00000340: 4950 063e 091d c6bd d132 863c 1e30 ef3d
00000350: d463 0e3e 2b37 0dbe 78b0 b5bd 3c85 1cbd
00000360: e687 16be 3eb5 1d3e 250b 1e3d 39ed 7ebe
00000370: b0b3 41be b57e cf3d 01c6 cc3d 5c39 efbc
00000380: a69b 883e 1b43 883e c978 893e 914a df3d
00000390: 13e3 273e bca9 f63d 29c3 f9bd 2e6b 52be
000003a0: 9f8f 46be 1b8c 213e 70ef 053d 0c6b 293e
000003b0: 0998 3a3e 6425 4cbe 8b3d 71be 5b75 683e
000003c0: 6dc5 6e3d 3636 16be 41a6 9ebe 1230 1abc
000003d0: 0246 ab3d a34e 5dbe 4078 0ebe 5772 d23d
000003e0: 5423 c43d da00 3a3e 54ca 8ebd b02c 763e
000003f0: 18e8 6cbe a953 e63d 7ef5 743e 7143 5bbc

lstm1_1.bias_ih_l0 f4 [64]
-0.07942411 -0.059953507 -0.012144339 -0.106361225 0.11838345 0.15520361 0.14729849 -0.16176143
-0.064220086 -0.035232108 -0.23821524 -0.14661545 0.24220355 0.20334512 -0.21131875 -0.046426397
-0.14192241 -0.20811202 0.0036962016 -0.2539055 0.22225164 -0.100756936 0.19481204 0.0071582375
-0.0533726 -0.020329323 0.026816614 -0.0845013 -0.053820193 0.27344126 -0.10233815 -0.05222512
0.073293775 -0.11355476 -0.13677724 -0.17895588 0.18245094 0.24566343 -0.15664975 0.04910125
0.12535661 0.23152587 -0.015355905 0.15778485 0.13049811 -0.061776258 0.16004461 0.16355646
0.04436523 0.18612276 -0.18306594 0.068590745 0.15470102 0.105804116 0.06568601 0.1603244
-0.05403982 0.22222908 0.022322688 -0.022282941 0.04980266 0.124062866 0.1626221 0.2144247
00000000: 1ca9 a2bd cf91 75bd 0df9 46bc ead3 d9bd
00000010: 0673 f23d b2ed 1e3e 6ad5 163e caa4 25be
00000020: d285 83bd 8b4f 10bd b2ee 73be 5c22 16be
00000030: 3504 783e b439 503e f163 58be 9b29 3ebd
00000040: 1c54 11be 511b 55be f93b 723b e7ff 81be
00000050: ef95 633e a759 cebd cf7c 473e a68f ea3b
00000060: 3a9d 5abd ae89 a6bc 84ae db3c 040f adbd
00000070: 9072 5cbd 7e00 8c3e aa96 d1bd 02ea 55bd
00000080: 0c1b 963d 668f e8bd 550f 0cbe 3640 37be
00000090: 6bd4 3a3e 328f 7b3e cb68 20be 641e 493d
000000a0: 7c5d 003e 1e15 6d3e 5597 7bbc 5a92 213e
000000b0: 4ca1 053e 1a09 7dbd bce2 233e 587b 273e
000000c0: 51b8 353d f796 3e3e a375 3bbe 4e79 8c3d
000000d0: f269 1e3e d4af d83d 6386 863d 142c 243e
000000e0: dc58 5dbd 0590 633e 12de b63c b78a b6bc
000000f0: e0fd 4b3d ac14 fe3d 6886 263e 2692 5b3e

lstm1_1.bias_hh_l0 f4 [64]
-0.109511435 -0.19004866 -0.16171773 -0.13552551 0.16306865 0.13305822 -0.031520344 0.07552429
0.0065705283 0.014898327 -0.18049061 0.13693911 0.001529961 0.03891182 -0.12801269 -0.082300335
0.0126883965 -0.23329923 -0.11958177 0.055733636 0.17394267 0.025953414 -0.2733701 0.12118618
0.15264383 0.031228883 -0.20793197 -0.15812187 -0.22994632 0.11324989 -0.24965718 0.11571887
-0.23655468 0.025266534 0.21356462 -0.21247983 0.09647186 0.054406285 0.1628763 0.22054628
-0.1733349 -0.13860893 0.033715628 -0.09521365 0.17371376 0.19605212 0.19218096 -0.14677772
0.25168777 -0.054856975 0.22139974 0.09779082 0.037625168 0.0015718323 -0.04773925 0.21394321
0.20941 0.25923708 -0.25211307 0.073742464 -0.15616794 -0.0027526119 0.057548203 -0.09853612
00000000: 8847 e0bd 1e9c 42be 5599 25be 33c7 0abe
00000010: 78fb 263e 6a40 083e 7a1b 01bd 7bac 9a3d
00000020: 964d d73b 1d18 743c 88d2 38be c439 0c3e
00000030: f988 c83a 0062 1f3d c215 03be 148d a8bd
00000040: fee2 4f3c fee5 6ebe 49e7 f4bd f448 643d
00000050: 071e 323e 419c d43c 2af7 8bbe 7630 f83d
00000060: aa4e 1c3e b7d3 ff3c 1eec 54be b3ea 21be
00000070: 0c77 6bbe 8fef e73d 22a6 7fbe 04fe ec3d
00000080: 643b 72be c3fb ce3c afb0 5a3e 5094 59be
00000090: 0a93 c53d 20d9 5e3d 0bc9 263e e2d6 613e
000000a0: b47e 31be 80ef 0dbe 6619 0a3d 60ff c2bd
000000b0: 05e2 313e e3c1 483e 16cb 443e e64c 16be
000000c0: 38dd 803e b5b1 60bd 9db6 623e 8e46 c83d
000000d0: d91c 1a3d f105 ce3a 3b8a 43bd ee13 5b3e
000000e0: 936f 563e b9ba 843e f714 81be 4a06 973d
000000f0: 7dea 1fbe 2a65 34bb aab7 6b3d 4ecd c9bd

lstm1_1.weight_ih_l0_reverse f4 [64, 32]
0.082488194 0.18779646 -0.09952548 0.1678712 -0.21864422 -0.030485153 0.27380192 0.16985436
-0.11898598 0.016194975 0.01830176 -0.06985777 0.065772764 -0.16091684 0.1097753 0.122741245
0.1573785 -0.12491289 -0.12235856 0.08726806 0.054824945 -0.23585227 -0.17679207 0.14499292
-0.12726001 -0.042371213 0.14284715 -0.06476569 -0.12598413 0.113257885 -0.12613195 0.31981212
0.1507606 -0.030209193 0.2791224 -0.19671108 0.11859852 -0.23364872 -0.060486935 -0.21844158
0.24684231 -0.061858706 -0.042163678 0.22321782 -0.14573245 -0.12735583 0.07658808 0.026040938
-0.18990195 -0.0040414035 0.19669542 -0.049226783 0.18011771 -0.1510917 0.13853781 0.03723932
0.09163033 0.13236532 0.19090608 0.06606403 -0.19279277 0.12435238 -0.0527139 -0.12529562
-0.02134042 0.12938075 0.07142721 -0.20175113 -0.14472121 -0.068761796 -0.3407888 -0.06892528
0.23240495 0.07401247 -0.089470476 0.16860972 -0.19717646 0.057391554 0.17614552 -0.15594661
-0.14989406 -0.005811572 0.08293533 0.046706613 -0.25825304 -0.22654563 0.021775214 0.030406434
-0.21043172 0.22557384 -0.032206267 -0.21233869 0.16880989 0.18812817 -0.18916121 -0.1435652
-0.14860816 -0.061523054 0.00056672737 -0.005838161 0.136117 -0.12944365 0.31564823 -0.14154549
-0.12866718 -0.11959778 0.26513097 -0.0727065 0.24559797 0.15455991 0.088073924 -0.06932916
-0.037073642 0.13600585 -0.007357627 -0.047742195 -0.027369183 0.20107603 -0.25022936 0.17906897
0.20346144 0.12759203 0.11991322 -0.12160212 -0.23372155 -0.17298375 -0.02751875 0.21619433
-0.088844284 -0.22724771 0.17829385 0.1750222 0.22724283 -0.15831754 0.29523247 -0.21196847
0.228775 0.22422162 0.3500842 0.21651061 0.29909712 0.07129249 0.06414533 -0.048405405
-0.024386317 -0.16188398 -0.18349215 0.19856116 0.20158547 -0.02850917 0.081347376 -0.058141083
0.18679094 0.19622907 -0.12514925 0.07007164 -0.22479182 -0.073194996 0.032339394 0.42622876
0.15704201 0.26763228 0.16253124 0.082355894 0.30232042 0.036522657 0.32348526 0.07493758
0.1862264 0.12861241 0.38975802 0.017727602 -0.023299182 -0.0043775938 -0.17918329 0.024720026
-0.24948081 -0.21742976 -0.07793173 0.0025772816 0.16577111 0.20703411 0.023223676 0.2319405
0.18152748 0.0580585 -0.060512066 0.070289075 -0.09552854 -0.13257523 -0.23729452 0.22933333
-0.16953933 -0.05335371 0.33235642 0.04992801 0.05944198 -0.03872329 0.020421444 -0.026494965
-0.19151732 -0.24515933 0.03452098 -0.099806905 0.17139378 -0.06580718 -0.07784329 -0.15263471
-0.23114324 -0.0482018 -0.19106257 0.06731759 -0.07453482 -0.19939163 -0.23115288 -0.1673911
-0.0038113117 0.0040857196 0.040355057 -0.22537419 -0.17095307 -0.02969962 -0.019948661 0.16995725
0.035324227 0.26744503 0.1778391 0.21829917 0.26973554 -0.004304558 0.050651364 -0.17037223
0.0681363 0.20871918 -0.15186687 -0.25357655 -0.08442158 0.050915748 -0.059178445 0.013215568
0.24216601 0.084940344 -0.23395056 -0.05245149 0.2845402 0.1529395 0.13097833 0.15390778
0.010323627 -0.11124906 -0.21958828 0.15063772 0.10763514 -0.20459014 0.16566 -0.10260665
00000000: 92ef a83d b74d 403e 04d4 cbbd 6ee6 2b3e
00000010: 45e4 5fbe 00bc f9bc c42f 8c3e 4dee 2d3e
00000020: ecae f3bd 53ab 843c 93ed 953c 9711 8fbd
00000030: dfb3 863d 62c7 24be dfd1 e03d c35f fb3d
00000040: d427 213e 54d2 ffbd 2097 fabd 99b9 b23d
00000050: 1f90 603d 4283 71be fb08 35be 0679 143e
00000060: 7350 02be 708d 2dbd 8646 123e e0a3 84bd
00000070: fc01 01be c0f3 e73d bc28 01be 6abe a33e
00000080: fd60 1a3e 4579 f7bc 22e9 8e3e a16e 49be
00000090: c8e3 f23d 9c41 6fbe 26c1 77bd 26af 5fbe
000000a0: 3bc4 7c3e 8e5f 7dbd d2b3 2cbd 3693 643e
000000b0: e33a 15be 9169 02be 36da 9c3d ce53 d53c
000000c0: a875 42be c06d 84bb 866a 493e 06a2 49bd
000000d0: c770 383e c8b7 1abe dbdc 0d3e 4288 183d
000000e0: afa8 bb3d c68a 073e e27c 433e 944c 873d
000000f0: 786b 45be 76ac fe3d 88ea 57bd 7f4d 00be
00000100: 1bd2 aebc 637c 043e 6e48 923d d997 4ebe
00000110: cc31 14be fcd2 8cbd df7b aebe b228 8dbd
00000120: 90fb 6d3e da93 973d 4c3c b7bd 07a8 2c3e
00000130: a0e8 49be 6813 6b3d 7e5f 343e 78b0 1fbe
00000140: d47d 19be 006f bebb 00da a93d 6f4f 3f3d
00000150: be39 84be 94fb 67be ef61 b23c ea16 f93c
00000160: 6a7b 57be d4fc 663e b8ea 03bd 506f 59be
00000170: 80dc 2c3e aca4 403e 7ab3 41be c102 13be
00000180: bd2c 18be 99ff 7bbd 6e90 143a 0b4e bfbb
00000190: 4162 0b3e e08c 04be a59c a13e 4df1 10be
000001a0: 54c1 03be aeef f4bd 3fbf 873e 25e7 94bd
000001b0: 097e 7b3e f444 1e3e 1a60 b43d 72fc 8dbd
000001c0: 88da 17bd 1e45 0b3e 4018 f1bb 528d 43bd
000001d0: 5635 e0bc e0e6 4d3e 101e 80be db5d 373e
000001e0: 3258 503e 7ca7 023e 1095 f53d 880a f9bd
000001f0: b454 6fbe a722 31be 006f e1bc 0c62 5d3e
00000200: fef3 b5bd a0b3 68be aa92 363e 0539 333e
00000210: 58b2 683e fe1d 22be b628 973e 430e 59be
00000220: fe43 6a3e 5a9a 653e 3c3e b33e f5b4 5d3e
00000230: 4223 993e cc01 923d a05e 833d bf44 46bd
00000240: d0c5 c7bc eac4 25be 5ee5 3bbe 9e53 4b3e
00000250: 6c6c 4e3e 108c e9bc 7499 a63d 5825 6ebd
00000260: 2046 3f3e 46f0 483e 2027 00be b881 8f3d
00000270: d42f 66be 42e7 95bd 5076 043d a83a da3e
00000280: 9fcf 203e 1907 893e 976e 263e 35aa a83d
00000290: bec9 9a3e c898 153d dc9f a53e e078 993d
000002a0: 22b2 3e3e f9b2 033e 5d8e c73e 7a39 913c
000002b0: eddd bebc eb71 8fbb d37b 37be a781 ca3c
000002c0: e677 7fbe e8a5 5ebe ac9a 9fbd 9ce7 283b
000002d0: e7bf 293e c000 543e 943f be3c cf81 6d3e
000002e0: 57e2 393e c0ce 6d3d 80db 77bd b8f3 8f3d
000002f0: 78a4 c3bd cdc1 07be 56fd 72be 5bd6 6a3e
00000300: b89b 2dbe 6b89 5abd 9f2a aa3e 5081 4c3d
00000310: 6f79 733d 509c 1ebd df4a a73c f80b d9bc
00000320: 1e1d 44be 0c0b 7bbe df65 0d3d 9067 ccbd
00000330: da81 2f3e eac5 86bd 4e6c 9fbd 464c 1cbe
00000340: d0b0 6cbe 406f 45bd e8a5 43be cedd 893d
00000350: b6a5 98bd 522d 4cbe 57b3 6cbe 9368 2bbe
00000360: 33c7 79bb 80e1 853b 584b 253d 7ec8 66be
00000370: 520e 2fbe 9e4c f3bc 606b a3bc 4609 2e3e
00000380: 23b0 103d 8eee 883e 741b 363e d189 5f3e
00000390: c71a 8a3e 400d 8dbb ce77 4f3d 0f76 2ebe
000003a0: 0b8b 8b3d 7bba 553e fd82 1bbe c9d4 81be
000003b0: 39e5 acbd 088d 503d 1965 72bd 1c86 583c
000003c0: 5efa 773e 34f5 ad3d bc90 6fbe 60d7 56bd
000003d0: 41af 913e 2c9c 1c3e 2f1f 063e 009a 1d3e
000003e0: 6e24 293c 8cd6 e3bd c0db 60be c640 1a3e
000003f0: d06f dc3d 1480 51be c6a2 293e 6f23 d2bd

lstm1_1.weight_hh_l0_reverse f4 [64, 16]
-0.014340695 -0.12653542 0.14547175 0.085785605 0.097172804 -0.2725196 0.06845067 0.06357588
-0.12912336 0.16546428 0.19340336 0.1574688 -0.018925559 -0.121502966 0.14932658 0.029227044
-0.011352946 0.1306386 -0.13600957 -0.2485022 0.19087288 -0.27213123 -0.019960435 0.012649633
0.23210265 0.09042693 -0.107633494 -0.107016414 -0.21921262 0.37685385 -0.14534551 -0.046917725
0.16474643 0.026665702 -0.120810635 0.03243947 0.07659872 -0.018331423 0.106188565 0.10642577
-0.17268693 -0.15286987 -0.076999344 0.021106262 0.02633905 0.24393296 -0.0064958013 -0.1917252
0.22027656 0.16759656 -0.22083531 -0.07496244 0.15119669 0.023280192 0.11440385 -0.11611152
0.1325805 0.053348616 -0.013019463 0.2246857 0.19212852 0.029508507 0.021308249 -0.24342307
0.024212541 0.13268282 -0.07949688 -0.25717086 -0.07086541 -0.26810223 -0.19833814 0.098625846
0.109309025 -0.025433175 0.16742727 -0.16558181 -0.12147507 -0.07688547 -0.02056414 -0.014074246
-0.24130912 -0.12697385 -0.06783247 0.08879304 0.17684142 0.21029896 -0.118805945 -0.016574902
0.17536241 -0.07002983 0.2199466 -0.1409718 -0.17639801 -0.0018589026 -0.037840907 -0.09000313
0.06684917 -0.23463444 -0.121847734 0.0006372038 0.06260428 -0.1871277 0.06709933 0.12509981
0.26847863 -0.28701055 0.26128355 -0.0043923054 0.21457003 -0.21993579 0.18330118 -0.19531858
-0.21767522 0.016869329 0.041646007 0.26100424 -0.12898469 0.22403075 -0.030502843 -0.08877019
-0.12680674 0.13789074 -0.082519054 -0.0009769085 0.09715633 -0.17063414 -0.18420985 -0.15016021
-0.1932905 0.27820525 0.19164376 -0.20673217 0.16133527 -0.01993237 -0.018510807 0.23477086
0.2781198 0.2085618 0.10837262 -0.0035126398 0.07442758 0.18319748 -0.21950985 0.23464686
-0.11320881 0.21190053 -0.014645517 -0.11094518 0.25406826 -0.01417069 0.12778346 -0.058826115
0.09004356 0.12929869 0.08224666 -0.15893365 -0.069179885 -0.06093955 0.1791322 -0.3116573
0.06852074 -0.17620759 -0.20659512 0.16557772 -0.19024865 -0.17987138 0.16819465 0.21151185
0.09476741 -0.11373484 0.18956539 0.21376012 -0.2268239 0.17131914 -0.18686788 0.21707876
-0.20174536 0.21251094 -0.065507725 -0.049285516 -0.15695679 0.10756931 -0.10225906 -0.1448503
-0.013481341 0.13646393 -0.050308935 0.028037637 0.15979052 0.084158905 0.011860474 0.14729378
0.26255333 0.1911658 -0.24114968 0.07925584 0.0930862 0.1073769 -0.057301696 -0.09222379
-0.039470453 -0.073610224 0.095069654 -0.10818979 -0.100600906 0.2418263 -0.14670701 0.13770932
-0.019986449 -0.12791102 0.10987977 -0.07191213 -0.08636085 -0.11015092 -0.13973048 -0.28678963
0.0131594455 -0.16776714 0.04237447 0.02784208 0.21178168 -0.07311308 -0.0020466868 -0.21683395
-0.2250925 -0.045161884 -0.17338142 0.16578038 0.025400825 0.015915368 -0.20651124 -0.12117302
-0.25105795 0.20496179 -0.10952562 0.08122716 0.12168564 0.03125971 0.23618998 -0.10634705
-0.099851236 0.11349951 0.10485068 -0.108954936 0.176181 -0.03536992 0.20309007 -0.031284932
0.09598411 -0.03458534 -0.07766738 -0.22782907 0.18705241 0.086458296 -0.18170655 0.12670706
00000000: 3cf5 6abc 8092 01be 8cf6 143e 5db0 af3d
00000010: 8902 c73d b087 8bbe dd2f 8c3d 1234 823d
00000020: ea38 04be 786f 293e 880b 463e 803f 213e
00000030: c609 9bbc 8cd6 f8bd 11e9 183e 8e6d ef3c
00000040: b501 3abc 20c6 053e 1846 0bbe 5c77 7ebe
00000050: 2e74 433e c954 8bbe 1184 a3bc 6840 4f3c
00000060: 51ac 6d3e c131 b93d f36e dcbd 6c2b dbbd
00000070: 4679 60be fdf2 c03e 74d5 14be cd2c 40bd
00000080: 4ab3 283e 0872 da3c 916b f7bd 40df 043d
00000090: cadf 9c3d c82b 96bc 6479 d93d c1f5 d93d
000000a0: d8d4 30be eb89 1cbe d5b1 9dbd 0ae7 ac3c
000000b0: fec4 d73c 90c9 793e bbda d4bb 9c53 44be
000000c0: 2e90 613e 6f9e 2b3e a722 62be e885 99bd
000000d0: 4ed3 1a3e 1ab6 be3c 914c ea3d e0cb edbd
000000e0: 2fc3 073e 1484 5a3d 964f 55bc 0214 663e
000000f0: 57bd 443e d3bb f13c a38e ae3c e643 79be
00000100: 6159 c63c 01de 073e 43cf a2bd e6ab 83be
00000110: e221 91bd b244 89be 2719 4bbe 59fc c93d
00000120: 69dd df3d 3c59 d0bc 0e72 2b3e 478e 29be
00000130: ecc7 f8bd 2176 9dbd 2176 a8bc ab97 66bc
00000140: bd19 77be 6f05 02be c0eb 8abd 20d9 b53d
00000150: eb15 353e 9c58 573e 8850 f3bd 17c8 87bc
00000160: 3492 333e cd6b 8fbd ae39 613e e95a 10be
00000170: aea1 34be 6ca6 f3ba 11ff 1abd 9053 b8bd
00000180: 38e8 883d 0344 70be 4e8b f9bd 060a 273a
00000190: ac36 803d 679e 3fbe 606b 893d 2a1a 003e
000001a0: 0876 893e 0cf3 92be f5c6 853e 54ed 8fbb
000001b0: 3fb8 5b3e d936 61be 4eb3 3b3e 9801 48be
000001c0: 41e6 5ebe 8c31 8a3c 0195 2a3d 59a2 853e
000001d0: 9014 04be 5168 653e 19e1 f9bc 25cd b5bd
000001e0: a0d9 01be 3b33 0d3e c0ff a8bd 9c0b 80ba
000001f0: e6f9 c63d b7ba 2ebe 82a1 3cbe 99c3 19be
00000200: f2ed 45be eb70 8e3e 433e 443e 99b1 53be
00000210: 1335 253e 3649 a3bc faa3 97bc c667 703e
00000220: b865 8e3e 3991 553e 77f2 dd3d 5134 66bb
00000230: 7d6d 983d 1f98 3b3e 31c7 60be 4447 703e
00000240: 05da e7bd 74fc 583e c0f3 6fbc 3a37 e3bd
00000250: 3c15 823e 2f2c 68bc abd9 023e a7f3 70bd
00000260: c268 b83d e066 043e f070 a83d 81bf 22be
00000270: 2fae 8dbd c09b 79bd 6e6e 373e 8c91 9fbe
00000280: 9a54 8c3d c36f 34be ac8d 53be 358d 293e
00000290: 8bd0 42be 3430 38be 383b 2c3e 9096 583e
000002a0: 6a15 c23d d0ed e8bd 6e1d 423e efe3 5a3e
000002b0: 8644 68be 496e 2f3e 4b5a 3fbe e549 5e3e
000002c0: 5696 4ebe 789c 593e ea28 86bd 9cdf 49bd
000002d0: 48b9 20be 4c4d dc3d 336d d1bd a353 14be
000002e0: d8e0 5cbc 33bd 0b3e be10 4ebd 30af e53c
000002f0: 20a0 233e 815b ac3d 6f52 423c 2ed4 163e
00000300: 646d 863e f8c0 433e f1ef 76be e350 a23d
00000310: faa3 be3d 6ce8 db3d 2fb5 6abd d4df bcbd
00000320: c5ab 21bd f5c0 96bd e1b3 c23d 9c92 ddbd
00000330: d907 cebd 50a1 773e 5d3a 16be ac03 0d3e
00000340: 9fba a3bc 1bfb 02be a508 e13d ab46 93bd
00000350: f5dd b0bd ce96 e1bd 8215 0fbe 17d6 92be
00000360: b79a 573c 26cb 2bbe da90 2d3d 1315 e43c
00000370: 4cdd 583e 4fbc 95bd b521 06bb b809 5ebe
00000380: a67e 66be abfb 38bd e68a 31be 55c2 293e
00000390: 6415 d03c f260 823c af77 53be 8f29 f8bd
000003a0: ab8a 80be 81e1 513e f84e e0bd 6d5a a63d
000003b0: 5236 f93d 2f0a 003d c9db 713e 7bcc d9bd
000003c0: ce7e ccbd 6e72 e83d f4bb d63d c423 dfbd
000003d0: cb68 343e 0de0 10bd d8f6 4f3e a124 00bd
000003e0: 5193 c43d 5ca9 0dbd 1310 9fbd 064c 69be
000003f0: ab8a 3f3e 0c11 b13d 4811 3abe 7fbf 013e

lstm1_1.bias_ih_l0_reverse f4 [64]
-0.031433992 0.17297517 -0.18200321 0.20152554 -0.09779259 0.2326864 -0.10880528 0.17268494
0.07877676 0.1730086 0.12197287 -0.08549789 -0.10606366 -0.1750045 0.100458734 0.23825656
-0.17675363 -0.1293353 0.21233869 -0.096421346 0.25104025 0.10530599 0.13045737 0.2273539
-0.014217901 0.19399647 -0.09812399 -0.12940921 -0.08941095 0.014380038 -0.0008378116 -0.10056499
-0.11356215 -0.13465784 -0.21667883 -0.09605826 0.12674814 -0.053275883 0.027563035 -0.11328399
-0.09254788 0.105100214 0.18163082 -0.13227053 -0.13257073 0.019730594 0.053277258 -0.08749256
0.11265155 0.1681188 -0.14102077 -0.07060971 0.10976498 0.35094646 -0.09994902 0.029793805
-0.19249019 -0.06115866 0.07184658 -0.038632244 -0.1355754 0.11043141 -0.08567733 -0.13373098
00000000: eec0 00bd 6720 313e 0d5f 3abe b65c 4e3e
00000010: 7b47 c8bd 5845 6e3e 4dd5 debd 52d4 303e
00000020: b655 a13d 2b29 313e e9cc f93d 8519 afbd
00000030: e737 d9bd 6134 33be 4fbd cd3d 87f9 733e
00000040: e7fe 34be 7970 04be 506f 593e 8e78 c5bd
00000050: 5988 803e abaa d73d 9e96 053e 76cf 683e
00000060: 33f2 68bc 03a7 463e 3bf5 c8bd d983 04be
00000070: 171d b7bd 409a 6b3c 96a0 5bba 04f5 cdbd
00000080: 4693 e8bd bfe3 09be 0ee1 5dbe 31ba c4bd
00000090: 44ca 013e d037 5abd e0cb e13c 7001 e8bd
000000a0: be89 bdbd c83e d73d 6efd 393e ed71 07be
000000b0: 9fc0 07be 0ea2 a13c 4139 5a3d 4d2f b3bd
000000c0: dbb5 e63d 5627 2c3e c067 10be d39b 90bd
000000d0: 76cc e03d 41af b33e 12b2 ccbd 2312 f43c
000000e0: 261c 45be 8181 7abd 4d24 933d d83c 1ebd
000000f0: 47d4 0abe dd29 e23d 9977 afbd c6f0 08be

lstm1_1.bias_hh_l0_reverse f4 [64]
-0.10599681 0.26067758 0.047220785 0.14028637 0.07950222 0.16484573 -0.201167 0.28137967
0.23917316 0.23310636 -0.028094366 0.043582704 0.01842894 -0.18316586 -0.18820843 0.15067871
0.24057521 0.07431155 0.22692278 -0.13030002 0.29198816 0.15964782 -0.1212033 -0.046553485
-0.07158462 0.3351997 -0.20194902 0.081959836 -0.18115829 0.07520712 0.08126006 0.23202421
0.028088694 -0.12644741 -0.013207259 0.11875927 -0.08407049 0.19614902 0.14845185 -0.121996135
-0.09897797 0.052162264 -0.047942862 -0.063258626 -0.09085724 0.086647734 0.21126184 -0.18959033
0.09435006 -0.061646737 -0.17372286 -0.003099281 -0.14685139 0.018157216 0.047322392 0.17440392
-0.069217645 0.24903765 -0.1653214 0.14245275 0.012516085 -0.024165358 -0.073230244 -0.030161165
00000000: db14 d9bd 8877 853e 956a 413d 3ba7 0f3e
00000010: 0fd2 a23d 52cd 283e b9fe 4dbe ff10 903e
00000020: cfe9 743e 6fb3 6e3e 2826 e6bc c783 323d
00000030: 4af8 963c d58f 3bbe b6b9 40be 854b 1a3e
00000040: 5959 763e a730 983d 725e 683e 5e6d 05be
00000050: 797f 953e b87a 233e 7039 f8bd deae 3ebd
00000060: f59a 92bd 4c9f ab3e b9cb 4ebe 8fda a73d
00000070: 8f81 39be 3106 9a3d ad6b a63d c197 6d3e
00000080: 431a e63c 6e7b 01be 4263 58bc 0f38 f33d
00000090: 262d acbd 4adb 483e c303 183e 1cd9 f9bd
000000a0: f6b4 cabd 19a8 553d bc5f 44bd bd8d 81bd
000000b0: 5c13 babd 5e74 b13d 0655 583e f823 42be
000000c0: 9b3a c13d 4a81 7cbd 68e4 31be 4f1d 4bbb
000000d0: 3660 16be 71be 943c 20d5 413d f196 323e
000000e0: fbc1 8dbd ba03 7f3e 034a 29be 22df 113e
000000f0: 4410 4d3c 6ef6 c5bc bdf9 95bd 8c14 f7bc

lstm1_2.0.weight f4 [32, 32]
-0.024752354 -0.020273801 0.18417409 0.012678263 -0.13036293 -0.03488316 0.055862647 -0.19399737
-0.1725381 0.15624358 -0.099288836 0.17038758 0.0609438 -0.021944774 -0.14159724 -0.037467323
0.08320058 0.08386768 0.1271101 0.062185507 0.009558817 -0.0951268 -0.07287705 0.16434142
0.097887084 0.14116673 -0.029243775 0.15103202 -0.10868984 0.13492703 -0.14164858 0.14464155
-0.12552366 0.13206942 0.1267787 0.15919511 -0.13785118 -0.09504677 -0.06766694 0.037608918
0.09120723 0.028549707 0.11544672 0.13834009 -0.030966967 -0.15449648 0.16437659 -0.10902505
0.16348156 0.042087425 0.09561762 -0.053853143 -0.061634723 0.02556041 0.13762015 0.010421002
0.123651125 0.035473723 0.01669208 -0.15284026 0.013907497 0.16300556 0.1730401 0.08252472
0.1560892 0.106213965 -0.0025316684 -0.058926728 0.15659957 -0.1182526 0.11095858 -0.028709238
-0.13872343 -0.0010103594 -0.16880299 -0.033595026 -0.15976498 0.07741506 0.14203575 -0.119573474
-0.079482794 0.13861693 0.020077791 -0.14613591 -0.022090875 -0.13879733 -0.032594625 -0.13859673
0.09298094 -0.005572689 -0.046115443 -0.10089437 -0.01581714 -0.19293146 -0.19486494 0.17178802
0.1574826 0.12152598 0.106837094 0.06382367 0.078904994 -0.035860144 -0.16382122 0.07137388
0.06476453 -0.15646595 0.13892639 -0.08058359 0.051976923 0.14273687 -0.08539283 -0.015210226
-0.2216773 -0.06736083 0.05587796 0.11257208 -0.01959869 -0.11303824 0.054107945 0.13500631
0.04482286 0.03358253 -0.15538493 0.11426803 -0.11910101 -0.10393528 0.1442697 -0.13868237
-0.10753442 -0.05048339 0.013139473 -0.004338183 -0.18768023 0.04975271 -0.1131652 -0.085209265
0.1368201 0.055929683 -0.018568352 -0.06759085 -0.0732293 0.0840856 0.092535205 -0.026397264
0.06661859 -0.06217767 -0.16383703 0.16601555 0.097044796 0.015103013 -0.089174934 0.15706174
0.05040953 -0.10169148 -0.02610675 0.002500008 0.08436434 0.05840979 -0.1301422 -0.07615605
-0.028660256 -0.07912021 0.077208474 -0.14939815 -0.02306009 0.16220626 0.15095642 -0.09484472
0.15291293 0.2128004 -0.08682408 0.10225409 0.06817802 -0.12393929 0.17321095 -0.10376138
-0.047193058 0.38220334 -0.026672581 0.31767517 0.07432414 0.3162227 -0.21014388 -0.23504572
-0.062522136 0.52257615 -0.075926706 -0.08767209 0.25393486 -0.26495883 0.20969175 0.100514404
-0.1655639 0.17381816 -0.18031879 0.15475592 -0.053867392 0.021857254 0.20340788 -0.12157505
0.0025067779 -0.113635466 0.10848203 0.18853141 0.023792382 0.24749462 0.088309675 0.19070113
0.0038789748 0.030152144 0.11831804 0.062220335 0.07313507 -0.25179306 0.22069538 0.13479814
0.21351098 -0.08551655 0.15703955 -0.075463265 -0.28931874 0.20391478 0.13608614 -0.08832053
-0.08919648 -0.08742406 0.03600324 -0.0324862 -0.17373118 0.03723358 -0.15496114 0.061780978
0.0069056363 -0.030604368 0.037095275 -0.014231588 0.13439403 -0.17264953 -0.16320257 0.008922459
0.060114603 -0.019535039 0.14716637 -0.13263088 -0.16055882 0.046988413 0.09634771 -0.108197115
-0.053777885 -0.08548981 0.06019429 -0.027389757 0.105026 -0.051790472 0.034235306 0.09263498
00000000: 73c5 cabc 3e15 a6bc 2298 3c3e 7db8 4f3c
00000010: dc7d 05be a5e1 0ebd 3bd0 643d 3fa7 46be
00000020: d4ad 30be 51fe 1f3e f257 cbbd 157a 2e3e
00000030: 35a0 793d 87c5 b3bc defe 10be 5677 19bd
00000040: 1165 aa3d d1c2 ab3d 2629 023e 3bb6 7e3d
00000050: 969c 1c3c d7d1 c2bd 9040 95bd 1e49 283e
00000060: 0679 c83d 038e 103e a490 efbc 23a8 1a3e
00000070: c798 debd 502a 0a3e 530c 11be ea1c 143e
00000080: 4689 00be 353d 073e 47d2 013e 0b04 233e
00000090: dc28 0dbe e2a7 c2bd f794 8abd cf0b 1a3d
000000a0: dbca ba3d 13e1 e93c 546f ec3d 06a9 0d3e
000000b0: 70ae fdbc 5334 1ebe 5652 283e 8748 dfbd
000000c0: b667 273e dd63 2c3d 2cd3 c33d 1d95 5cbd
000000d0: b174 7cbd 1164 d13c 4cec 0c3e dabc 2a3c
000000e0: cd3c fd3d e54c 113d d4bd 883c 2882 1cbe
000000f0: 45dc 633c eeea 263e 6d31 313e b802 a93d
00000100: d9d5 1f3e b586 d93d 59ea 25bb 275d 71bd
00000110: a35b 203e 6b2e f2bd 413e e33d a32f ebbc
00000120: 840d 0ebe 096e 84ba b1da 2cbe f09a 09bd
00000130: 6e99 23be c98b 9e3d d271 113e f0e2 f4bd
00000140: e0c7 a2bd 99f1 0d3e 2e7a a43c a7a4 15be
00000150: ecf7 b4bc e320 0ebe f181 05bd 4dec 0dbe
00000160: cb6c be3d 1b9b b6bb 8ce3 3cbd b5a1 cebd
00000170: f292 81bc d38f 45be ad8a 47be 33e9 2f3e
00000180: 1e43 213e 9de2 f83d 68cd da3d fcb5 823d
00000190: f198 a13d 16e2 12bd c0c0 27be 782c 923d
000001a0: 44a3 843d 9c38 20be b842 0e3e 0209 a5bd
000001b0: c1e5 543d 9d29 123e 70e2 aebd 5034 79bc
000001c0: 60ff 62be 7af4 89bd 4ae0 643d 318c e63d
000001d0: 6f8d a0bc 9880 e7bd 4ba0 5d3d 183f 0a3e
000001e0: 2d98 373d d68d 093d 3a1d 1fbe 5b05 ea3d
000001f0: 3beb f3bd 05dc d4bd 70bb 133e c002 0ebe
00000200: 023b dcbd acc7 4ebd f246 573c 5127 8ebb
00000210: 3f2f 40be 7fc9 4b3d 28c3 e7bd 3282 aebd
00000220: 911a 0c3e 8616 653d a81c 98bc 126d 8abd
00000230: 3ef9 95bd 1235 ac3d 1983 bd3d 133f d8bc
00000240: 546f 883d 03ae 7ebd e5c4 27be fbff 293e
00000250: 6cbf c63d a172 773c 59a1 b6bd cbd4 203e
00000260: 397a 4e3d 9f43 d0bd d3dd d5bc 2dd7 233b
00000270: 36c7 ac3d 1b3f 6f3d ff43 05be b4f7 9bbd
00000280: eac8 eabc c709 a2bd 7a1f 9e3d d4fb 18be
00000290: 84e8 bcbc 6619 263e 5294 1a3e f33d c2bd
000002a0: 3595 1c3e 59e8 593e d3d0 b1bd 986a d13d
000002b0: eba0 8b3d e2d3 fdbd 365e 313e d980 d4bd
000002c0: 824d 41bd 28b0 c33e 7580 dabc 52a6 a23e
000002d0: 4137 983d f1e7 a13e f52f 57be d3af 70be
000002e0: 9b0b 80bd 8dc7 053f 767f 9bbd 6d8d b3bd
000002f0: c003 823e afa8 87be 6fb9 563e 7fda cd3d
00000300: 9589 29be 63fd 313e 7da5 38be 5678 1e3e
00000310: 0ea4 5cbd fc0d b33c 284a 503e 57fc f8bd
00000320: c148 243b b6b9 e8bd d42b de3d 610e 413e
00000330: 3ee8 c23c 3b6f 7d3e b4db b43d 2847 433e
00000340: 6636 7e3b a101 f73c bb50 f23d c0da 7e3d
00000350: d7c7 953d 05eb 80be f8fd 613e 8608 0a3e
00000360: 9fa2 5a3e 4d23 afbd face 203e 7c8c 9abd
00000370: 9621 94be 09cf 503e 2a5a 0b3e 65e1 b4bd
00000380: a5ac b6bd 630b b3bd 2278 133d 4010 05bd
00000390: 96e6 31be 3d82 183d 22ae 1ebe 0d0e 7d3d
000003a0: ad48 e23b 03b6 fabc 37f1 173d 9b2b 69bc
000003b0: 979e 093e 0acb 30be 931e 27be 812f 123c
000003c0: bb3a 763d f207 a0bc c8b2 163e 64d0 07be
000003d0: 8869 24be ec76 403d f351 c53d 7396 ddbd
000003e0: 3346 5cbd 4815 afbd 4a8e 763d 7c60 e0bc
000003f0: df17 d73d 3f22 54bd 523a 0c3d 69b7 bd3d

lstm1_2.0.bias f4 [32]
0.061446052 -0.18020073 -0.11905973 0.050611503 -0.11644327 0.07214987 -0.014212578 -0.19788122
0.160329 -0.14629184 0.001412099 0.10270732 -0.15425253 -0.110758856 -0.014423808 -0.11286375
-0.10159616 0.17540526 0.15795459 0.12091254 -0.03899758 -0.12967724 -0.060101196 0.048334923
0.09917684 0.1305672 -0.082457386 0.07044381 -0.123201646 0.13317327 0.14257702 0.061960537
00000000: dbae 7b3d 8a86 38be 96d5 f3bd 024e 4f3d
00000010: cf79 eebd 50c3 933d dfdb 68bc 60a1 4abe
00000020: 492d 243e 87cd 15be 2e16 b93a 3758 d23d
00000030: 60f4 1dbe 8ad5 e2bd d651 6cbc 1c25 e7bd
00000040: a611 d0bd 709d 333e d9be 213e fea0 f73d
00000050: edbb 1fbd 1cca 04be ac2c 76bd d7fa 453d
00000060: 3a1d cb3d 68b3 053e 6bdf a8bd d844 903d
00000070: 2551 fcbd 935e 083e b6ff 113e 55ca 7d3d
