results/pretraining_samples_effect_results/Dataset 5/pre_rate=0.3/Experiment4(3C-6)/from_Dataset 5_ft_model.pth (torch, 95756 bytes, 27 tensors)

cnn1.0.weight f4 [16, 1, 3]
00000000: 3a90 353e d0ba a63d 47b6 54be 632a abbe
00000010: fc9a 64bd 13ce 8ebe 29af 293e 0229 0c3f
00000020: 3226 b5be 0587 40bd ac0d a9be 1727 063f
00000030: a7b6 0a3f 72ef c83e dc81 7b3e f008 04bf
00000040: 8cb4 49be 04eb af3d 8ed4 ed3e 07eb 3c3f
00000050: 3c08 2cbe 08ca 883d 95da 0e3f 0b18 f63d
00000060: c96e 2b3e 204d fabd 3748 d83e 3a09 fbbe
00000070: e7b8 38be f516 00bf 2c7e c03e c2b4 0abf
00000080: ac2b f0be 6a2d acbe 0e0c 38be dab0 0e3f
00000090: 9996 31be 69b5 c2be b8fd ef3e 8538 a33e
000000a0: 0712 153f 623f 3dbe 189d fc3e b047 893e
000000b0: 5bd7 10bf e249 a3bd 3264 d0bd a12c 3f3e
0.177308 0.081411004 -0.20772658 -0.33430776 -0.055811867 -0.27891597 0.16570725 0.5475007
-0.35380703 -0.047003765 -0.33018243 0.52403396 0.54184955 0.39245182 0.24561256 -0.5157614
-0.1969778 0.085897475 0.4645123 0.73796123 -0.16800016 0.066791594 0.5580228 0.120163046
0.1674148 -0.12221742 0.42242596 -0.49030477 -0.18039285 -0.5003503 0.37596262 -0.54182065
-0.4690832 -0.33628398 -0.17973348 0.55738604 -0.17342605 -0.3802903 0.4687326 0.31879058
0.5823063 -0.1848121 0.49338603 0.26812506 -0.56578606 -0.079730764 -0.10175361 0.18669368

cnn1.0.bias f4 [16]
00000000: 1066 dd3d 76c8 d93e 6bbc 443e d813 03bf
00000010: a49f e2be cde6 d2be 3488 bcbe 65dc 2f3d
00000020: 9bb7 1ebe 9449 aabe be85 e8be df7f 093f
00000030: 9ed9 0cbf 16f0 2bbb 9e3a 61be 9a9a e63e
0.108104825 0.42535752 0.19212501 -0.51202154 -0.4426242 -0.41191712 -0.36822665 0.042934794
-0.15499727 -0.3325926 -0.45414537 0.5371074 -0.5501956 -0.0026235632 -0.21995017 0.45039827

cnn2.0.weight f4 [32, 16, 3]
00000000: b473 e3bd 7d49 843d 6694 19ba 9fdf c63d
00000010: d4ad e2bd 97e4 78bd 4e68 84bd cf0a ff3b
00000020: b7c8 f9bb 4412 703d 750c 0bbe 606d dbbd
00000030: c15f da3d a73e 6fbd 73bd 6e3d 1f8a 8c3c
00000040: 07c3 403d 24e5 6dbc 3200 7abd 64c6 f9bd
00000050: 54d8 1d3d 8c34 3f3d 4930 69bd fd45 e8bd
00000060: bf12 99bd e302 61bc 6965 a8bd 5c67 773d
00000070: 62ca 8438 a3bf 8cbc f2b0 07be 6f41 f7bd
00000080: d447 19bd 4a66 6e3d 5936 9cbc 96b8 c7bd
00000090: 484e aabd df62 e6bd 4613 363d ec97 8a3d
000000a0: 34bb 163b 2943 e03d 52bc ad3b 1235 cabd
000000b0: 5630 19bd 68ea b3bc 51c3 3ebd 2dc9 923d
000000c0: 3038 cebc c76c f03d ac87 0c3e 6a9e dcbd
000000d0: 3724 1ebd 50f3 143d 47e3 f2bd 550c e43d
000000e0: fef1 583c ab3e d53c 63c9 64bd 6a9a 6e3d
000000f0: 9b16 f1bd 6299 02be c4f6 fe3d b0f4 63bc
00000100: 4103 1e3c ee47 013e 558f 20bd 4965 9f3d
00000110: 9669 02bd 6450 c4bd 0af1 033e 225c 8bbd
00000120: ff43 aa3d f8ae 77bd 5e2f ec3c 1385 5bbd
00000130: 44d7 b7bd b975 fa3d 0184 093d 9a9e 0ebe
00000140: a858 89bd 501f 593c ad97 92bd cac9 1ebb
00000150: 8eec 1bbc f3e8 d1bc 0d97 053e a9c3 11be
00000160: cb51 d5bc d7a4 0a3d a12f c9bd 7035 14bb
00000170: 13f7 b73d be69 eebd e685 d53c fceb 72bd
00000180: 7d7b d4bc 71f8 813c c4d4 103e 82ca c23d
00000190: cc83 18bd 0381 bfbd a65d 0cbd 1e44 573d
000001a0: dc87 81bc 99f1 9f3d ce83 86bc 5565 13be
000001b0: 06e9 80bd 715b 063e 2907 02be eafb d6bb
000001c0: b079 8c3d 1984 dbbc 09d5 f33d 28c7 d2ba
000001d0: da23 993d 5b01 d9bd 5353 923d 2099 01be
000001e0: ce36 f13d c1ef fe3d 27f6 c13d 3a80 7e3d
000001f0: 4e0a b6bc 3246 b33d 527e edbd 2857 ddbd
00000200: 7b08 103e 7cbb 3c3d e8b8 bdbc 7ff3 0a3e
00000210: a6cb a2bd 4d64 35bd bf0c 573d ef7d e1bc
00000220: 32c8 493d fd5f e7bd a01c 813d 160c 7c3c
00000230: ff1c cebd 28ee fcbd 193e 93bd 78b3 1ebd
00000240: 942f 113d c83c 9cbd 3692 1dbe 2b31 a1bd
00000250: 91d1 8d3d 1319 e43d 6a95 07be 18ca b23d
00000260: 8cf0 0e39 eae9 883d 41d2 0abe 67f8 c8bd
00000270: 352e 7fbd aa64 c93d 2bfb 443d 1e28 8e3a
00000280: d05c 1d3d ef06 b63d 7995 0cbd 7ae5 fbbd
00000290: 70e8 993c efbb 12be a953 1ebe ad11 5dbd
000002a0: 1465 b33d 3163 d9bc 4b35 dfbd 80eb ce3d
000002b0: f335 11be ff5c d43c b57e aa3c 10fd 043e
000002c0: 7087 dabc 3614 92bc 08a7 a93d ba35 e23d
000002d0: 4523 d43d 2848 693d c789 ef3c 02db c2bd
000002e0: 1de6 f43d a6b9 5ebd 3634 9fbd aa70 ff3d
000002f0: 33ac 10be f09f c23d ee6d c93d 92b0 81bd
00000300: 9170 433d 0ae9 d4bd 3e58 443c 2ba9 783d
00000310: 408f 39be 3140 ffbd 1093 0d3d 1608 2b3d
00000320: 0c67 54bc 70f9 c53d 932e baba 0f25 8c3d
00000330: fbc7 c2bc d259 763e ee23 933d 90e9 023e
00000340: 2de2 bc3d 08bc babd 1f96 b23e b2a9 253e
00000350: 7eea 5e3e 946c e03c e6c9 f73d 40a2 bb3d
00000360: f774 fcbb 4c73 b1bc 3f11 f1bb def2 a7bd
00000370: c8d5 09be ee7c 073e b8c1 613d bc3e 8fbd
00000380: 3a37 303d b26b 8e3d 5809 033e 8a10 c1bd
00000390: ab87 f2bd 0d02 b43d 5564 cbbd 54e3 55bc
000003a0: 94ee dc3d 6876 b23d ccf1 453d eedf babc
000003b0: 245e 0bbe c534 b33d 821b e03d 0f7c e2bd
000003c0: 5d61 ba3d aa86 943d 9428 99bc 48f5 5e3c
000003d0: 0d61 32bd 1c03 05bc a96f 9f3d 6135 0d3d
000003e0: 2822 81bd b44f beba bbdf 0b3d dd45 023d
000003f0: 9d5e 7ebd 86ca 493d 1b22 3abd 0a8c 143d
-0.11106053 0.06459329 -0.00058586 0.09710621 -0.11068311 -0.060764875 -0.06465207 0.007783271
-0.007622804 0.05861117 -0.1357897 -0.10714221 0.10662795 -0.05840936 0.05828614 0.017155705
0.047060993 -0.014519963 -0.061035343 -0.12196043 0.038536385 0.046680972 -0.056930814 -0.11341474
-0.07474279 -0.013733598 -0.082224675 0.060401306 6.331947e-05 -0.017181223 -0.13251093 -0.12073027
-0.037422016 0.05820302 -0.019068884 -0.09752004 -0.08315712 -0.11249327 0.044451974 0.06767258
0.0022999765 0.1095031 0.0053019905 -0.098734036 -0.037399612 -0.02196236 -0.046572987 0.071672775
-0.025173277 0.11739498 0.1372363 -0.107724026 -0.038608756 0.036364853 -0.11859756 0.11135165
0.013241289 0.026030859 -0.05585612 0.05825273 -0.1177189 -0.12753823 0.124494106 -0.0139133185
0.0096443305 0.12625095 -0.039199192 0.077829905 -0.031838976 -0.09585646 0.12884918 -0.06804682
0.083137505 -0.060469598 0.02883118 -0.053593706 -0.089766055 0.12229485 0.033573154 -0.13927689
-0.06706363 0.013252094 -0.07157836 -0.0024229162 -0.009516848 -0.025623774 0.13045903 -0.14234795
-0.026039978 0.03384861 -0.098235376 -0.002261486 0.089826725 -0.116412625 0.026064824 -0.059307083
-0.02593779 0.015865536 0.14143664 0.095112815 -0.037235066 -0.09350779 -0.034268998 0.052555196
-0.015811853 0.07809753 -0.016420271 -0.14394124 -0.06294446 0.1312082 -0.12698044 -0.006560792
0.068591475 -0.026796388 0.119058676 -0.0016081082 0.07477541 -0.10595962 0.07144799 -0.12656069
0.11778031 0.12448073 0.09470778 0.062134005 -0.02222171 0.08753623 -0.11596359 -0.10807639
0.14065735 0.046077237 -0.02315946 0.13569449 -0.07948999 -0.044285107 0.05250239 -0.02752587
0.049263187 -0.11297605 0.06304288 0.015383741 -0.10064124 -0.12350112 -0.071895786 -0.038745373
0.035445765 -0.076287806 -0.15387806 -0.07870706 0.06924737 0.11137595 -0.1324059 0.087299526
0.00013631786 0.066852406 -0.13556768 -0.09813004 -0.062299926 0.09833653 0.048091095 0.0010845696
0.03841859 0.08888041 -0.034322236 -0.122996286 0.018787593 -0.14329503 -0.15461601 -0.053971935
0.087595135 -0.026536556 -0.10898837 0.10103512 -0.14180736 0.02592325 0.020812372 0.1298716
-0.02667591 -0.017831903 0.08283812 0.11045404 0.1035829 0.05695358 0.029240502 -0.09514429
0.11957953 -0.054376267 -0.0777363 0.12472661 -0.14128189 0.09503162 0.098354205 -0.06332506
0.047714774 -0.10396011 0.011983929 0.060708206 -0.18121052 -0.124634154 0.034564078 0.04175576
-0.012964021 0.09666717 -0.0014204554 0.06843006 -0.023776999 0.24057701 0.071845874 0.1278441
0.09222827 -0.09117895 0.34880158 0.16178015 0.21769139 0.027395524 0.12099056 0.09161806
-0.007704373 -0.021661423 -0.007356792 -0.0820062 -0.13460457 0.1323125 0.055116385 -0.069943875
0.04302142 0.06954135 0.12796533 -0.09426983 -0.11842283 0.08789454 -0.09931246 -0.0130546875
0.10787693 0.087139904 0.0483263 -0.022811856 -0.1361013 0.08750299 0.10942747 -0.110588185
0.09100602 0.07252248 -0.018696107 0.013608284 -0.043549586 -0.008118417 0.07784969 0.034474734
-0.06305343 -0.0014519603 0.034148913 0.031804908 -0.06210195 0.049265407 -0.04544268 0.036266364

cnn2.0.bias f4 [32]
00000000: d5d8 31bd f5ad aabd 0339 eebd d03b e6bd
00000010: 558f f8bd d09f 5f3d 5f14 473c 5cfc c2bb
00000020: 0d57 22bd 1cac 313d 6365 35bc 1234 2abd
00000030: cdf6 5abd f29b 233d 3479 0abe 047a 13bc
00000040: 9425 f13c 1249 dbbd 03fe d43d d9df 46bd
00000050: 77a2 cabd 93c0 5c3d 7429 ac3d ea7e b5bc
00000060: b569 1c3d 763e a2bd 2995 07be aae1 933c
00000070: 5792 803d 5fc9 45bd 8bea 0e3d 2bfc 5abd
-0.043419678 -0.08333961 -0.11631968 -0.11241877 -0.121367134 0.05459577 0.012150853 -0.0059504937
-0.0396338 0.043377027 -0.011071536 -0.041553564 -0.053458024 0.039943643 -0.13522798 -0.009001259
0.029436864 -0.107072964 0.104000114 -0.04855332 -0.09894269 0.05389459 0.08406344 -0.022155244
0.038186748 -0.0792207 -0.13240494 0.018051941 0.06277912 -0.048287746 0.034891646 -0.053463142

lstm1_1.weight_ih_l0 f4 [64, 32]
00000000: 3612 19be c8f6 013d 003c c03d 9ec9 7e3e
00000010: 8db2 883e 84c5 fbbd 3e9b 1ebe 0bc6 f33b
00000020: 5c97 bd3d 7b30 a93c 4c7e 713e 1615 683e
00000030: d7e4 213e 6cf8 5dbe c03d bebb f083 0d3e
00000040: 6799 15be af0f bb3c 4738 043e 0b8c ff3d
00000050: 0a62 1fbe 9452 343c f5dd e0bd 79b7 5cbe
00000060: 0bb4 2e3c 002b 6abb 201f 4fbd 198b 12be
00000070: 48df 96bd f2ef 253e 9ab7 6cbe 04ae 9dbd
00000080: d071 d5bc 0674 61be 5450 c4bd 5f6b 6dbe
00000090: ae79 693c bc60 663e b4f2 cfbd 0dd8 2a3e
000000a0: aecd 20be 11cf 973d e290 223d 38cb 88bd
000000b0: b028 89bd b28f 31be 0001 58bd f0f8 a03d
000000c0: 0dbf dfbd 566d 61be 7140 133e 93d5 47bd
000000d0: 3f1e 603e 1175 0c3e b346 20be 37dc ea3d
000000e0: 2273 853e b0ea 0fbe 63f7 c2bd 7ef5 723e
000000f0: 3d0c 833c b867 8dbc 30f3 18be 5804 493d
00000100: 90d2 92bc c048 77be b4fb 9cbd a916 ae3d
00000110: 554b 22bd 2a57 393e 011e fa3d 4b55 e2bd
00000120: 736f 89be 9d07 ea3d 0d87 1cbd f11e 0abc
00000130: 707d 783b 7638 adbd f001 4abd 72a2 7bbe
00000140: 4fae 05be fe23 87bd 0ceb 803d 552c 79be
00000150: b2c6 27be 9742 bf3c 5d21 74be e06f f0bd
00000160: 8e4f 48be 5c06 2abe 0538 793d 8f3f 1f3e
00000170: e164 43be 7d9c 143e 6082 debd 6a0e 033e
00000180: 68e2 343e 685c 703d 5629 20be 37c7 66be
00000190: 4703 a43d 7634 31be 0d48 d53d 208f 2dbe
000001a0: 4e7c b73d 2636 63bd 5ca2 4e3d 9e8e 91bc
000001b0: 90b2 d03d b692 cdbd 10aa 5e3d be85 5bbe
000001c0: 30c4 a43c df2e 023e fe40 ea3d fa6f 243e
000001d0: cf7a 61bd f58e 02be 0da5 73bd ccb7 17be
000001e0: 32c5 643e 0e12 533e 3388 5bbd f769 efbd
000001f0: a678 0abe 01d3 bbbd 940e dc3d 26c4 43be
00000200: 70ba c43d 5221 22be 40ce d33b bd2c e3bd
00000210: c0bf 203e 9c49 d0bd bcd4 333e 5d7e 4bbe
00000220: ef0c 17be c877 863e 09ca 5cbe 2892 f43d
00000230: 0507 713e 2f84 cbbc 9899 c93d 4af6 343e
00000240: f41f f43d 2e86 52be 4796 de3d 9cd6 22bd
00000250: e45a 833d 09e7 223e 32f8 44be 3ea5 2dbe
00000260: 851c 5d3d 5a54 5fbe 5a42 46bb 0cb7 cebd
00000270: c67e 10bd 6fca d5bd 800b 31be de22 0e3e
00000280: 906b 2fbe 1a75 5dbe 744a 603e fc2a 15bc
00000290: 3a50 863d 8e2f 653e 528f 53be e4a2 1d3e
000002a0: 9533 823e a2b5 843c caf9 6e3d 8711 3fbe
000002b0: 6cb6 5ebe 37fd 6d3d a691 123e 283e ac3d
000002c0: a06d 823e 2411 503e 4686 493e 3004 3cbe
000002d0: 4cbb 3ebe 92b1 3eba d33b 46bd c8c9 2dbe
000002e0: 31d0 cabd 984f de3d b511 9a3c 0e68 a93d
000002f0: 20a6 b83c dc26 8ebd c039 5bbe c63f 37be
00000300: 8472 623e e04a bc3c 9006 e1bc 2a07 823e
00000310: 6476 03be 90be 82bc 10b0 403e 554a bdbd
00000320: 0fd1 2c3d e28a e63d 5521 a0bd caad 383d
00000330: a3af 023e b074 3fbd e84f 693d bc0b c53d
00000340: 73dc 46bd f7eb 5f3e ca7b 5f3e 08d5 383c
00000350: 88f0 6ebe e9e3 a5bd 4978 0d3e 104c 4abe
00000360: c90b ccbc 90ef c23c d436 6dbd e418 6b3e
00000370: f39a 79be 654e 3e3e 502b 4fbd 122f 77be
00000380: 5c48 2f3e 6c0c bb3d de96 083e a00f 8bbe
00000390: a7dc f73d 9c05 48be 3369 18bd a5a7 f43d
000003a0: 34d7 313e 75f4 463e 174e f63c b65b 003e
000003b0: 4a23 0d3e 6fdf 283e 22d3 5ebe e8de 433d
000003c0: 8b88 4abd 66e5 e6bb 2955 17be 0095 96bc
000003d0: c765 053e da91 5c3e 3ea8 263e bc31 1dbe
000003e0: 84df 9ebd 0895 08be d3d5 34be 1fc2 88bd
000003f0: 581c 16bd 5e0b e6bc 0082 2ebe 40b9 ec3b
-0.14948353 0.03172949 0.09386444 0.24881598 0.26698723 -0.122935325 -0.15488908 0.00743938
0.09257385 0.020653 0.23583335 0.22664294 0.15809952 -0.21676797 -0.005805701 0.13819861
-0.146093 0.022834627 0.12912093 0.12477883 -0.15564743 0.011006016 -0.10979835 -0.21554364
0.010663043 -0.0035731196 -0.050566792 -0.14310874 -0.07366806 0.16204813 -0.23116913 -0.076992065
-0.026055247 -0.22016916 -0.09585634 -0.2318549 0.014250202 0.22497839 -0.10153714 0.1668398
-0.1570346 0.07412542 0.039688952 -0.06679386 -0.06697214 -0.17339972 -0.05273533 0.07859981
-0.10925112 -0.22014365 0.14380051 -0.048787665 0.21886538 0.13716532 -0.1565197 0.11467784
0.26064402 -0.1405437 -0.095198415 0.2372646 0.015997047 -0.017261371 -0.14936519 0.04907641
-0.01792267 -0.24148846 -0.07665196 0.08500416 -0.039622623 0.18099657 0.12212754 -0.110514246
-0.26842842 0.11427233 -0.038214732 -0.008430229 0.0037916563 -0.08458035 -0.049318254 -0.24573687
-0.13054775 -0.06598662 0.06294832 -0.24333318 -0.1638439 0.023347182 -0.23840852 -0.117400885
-0.19561598 -0.16603988 0.06084444 0.1555159 -0.19081451 0.1451282 -0.10864711 0.12798467
0.17664492 0.058681875 -0.15640768 -0.22536932 0.080084376 -0.17305169 0.10414133 -0.16949129
0.08959256 -0.05547156 0.050447807 -0.0177682 0.10190308 -0.100377485 0.054361403 -0.21437737
0.02011308 0.12713192 0.114381775 0.1605834 -0.05504876 -0.12749846 -0.059483577 -0.14816207
0.22340849 0.20612356 -0.053596687 -0.11690133 -0.13522586 -0.09171105 0.10744968 -0.19117793
0.09605873 -0.15833023 0.006463796 -0.110925175 0.15698147 -0.1017029 0.1756162 -0.19872423
-0.14751028 0.2626326 -0.21561445 0.119419396 0.23537834 -0.024843303 0.09843749 0.17672077
0.11920157 -0.20558998 0.10868507 -0.03975545 0.064138204 0.15908445 -0.19235304 -0.16957566
0.053982276 -0.21809521 -0.003025195 -0.10093507 -0.03527715 -0.10439002 -0.17289543 0.13880488
-0.17130876 -0.21626702 0.21903402 -0.009104487 0.06558271 0.22381422 -0.20660141 0.15394169
0.2542998 0.01619989 0.058343686 -0.1865903 -0.21749276 0.058102813 0.14313373 0.08410293
0.25474262 0.20319039 0.19680128 -0.18360972 -0.18626136 -0.0007274385 -0.048396897 -0.16971505
-0.099029906 0.10855025 0.018807271 0.082718 0.022540152 -0.069410056 -0.21408749 -0.17895421
0.22113997 0.022984922 -0.02746895 0.2539609 -0.12838131 -0.015960008 0.18817163 -0.09242693
0.04219156 0.112569585 -0.078188576 0.045087613 0.12762313 -0.04674214 0.05696097 0.09621379
-0.04855008 0.21867357 0.21824566 0.011281259 -0.23333943 -0.08100111 0.13815416 -0.19755578
-0.024907963 0.023795873 -0.057913616 0.22958714 -0.24375515 0.18584593 -0.050578415 -0.2413905
0.17117447 0.09133229 0.13338801 -0.27160358 0.12102633 -0.1953339 -0.0372097 0.11946038
0.1736725 0.1942919 0.030066533 0.12534985 0.13782993 0.16491483 -0.21760228 0.04782
-0.049446624 -0.0070463894 -0.1477858 -0.018381596 0.13027106 0.21540013 0.16275117 -0.15351003
-0.07757476 -0.13338101 -0.17659692 -0.06677651 -0.036648124 -0.028081592 -0.17041779 0.007224232

lstm1_1.weight_hh_l0 f4 [64, 16]
00000000: 1a04 753e c6b9 b4bd 54e3 d63d 4578 fb3c
00000010: 1b4b 883d 26d8 fcbd bbc0 cbbd 7e93 db3d
00000020: b01c 543b 6f0a 1c3e 5e00 21be 5033 7e3d
00000030: 9157 c43d d180 fa3c 4a2d 32be bcbb 283e
00000040: c1fc 38be 84dd 083d 8848 5e3e 747b fe3d
00000050: f6b7 51be 388d 8bbe b517 23be 8ca5 e5bc
00000060: bc07 70bd 973c f03d e258 143e 1e99 d53c
00000070: 054e 3e3d 1ddc 3e3e b75b aa3c 0909 123e
00000080: 7100 b9bd ccd3 8e3d 5b5e 3cbe a94f e43d
00000090: f271 ed3d cd63 22bd 37c2 c93d 7ec0 3d3d
000000a0: 486e 543e b605 de3d 93b6 08be 4157 453e
000000b0: 9f22 293e fd34 5dbe b27d 0dbe bd2b 53bd
000000c0: 613f 013e 19cd 423a 8adf babd 5c86 e53d
000000d0: 07a5 493e be96 f33d 0545 31be 288e ab3d
000000e0: 4ad7 453b 4366 25be e445 323e 8c9e 55be
000000f0: 8d3e 17be 1dd6 2bbe 7f9d a4bd cb8f 6f3e
00000100: 7e9a c3bd 7d12 0a3d bd97 853e 82c9 11be
00000110: ca41 bf3d 3d3c b13c 1701 38be 3f25 15bd
00000120: b31e 403d a945 1ebe c4db 5c3e fb7b f43d
00000130: ddd8 40be 64cb ba3d 7ecf 683d 1ae3 8c3d
00000140: e64b 943d 347b afbd 6bdc 843d 0085 2bbe
00000150: 8d11 67be d607 183d d71a 843e 18da 80bd
00000160: e721 59bd 80af 51bd 2602 5b3e 5dcd 10be
00000170: 2769 b6bd 3e3a 14be 677a 023e 58cd 3bbd
00000180: c26c 34be b884 5d3d 0e9e 4fbe 0868 283d
00000190: 8287 fdbd 1ac3 0cbe dc00 453e e8cd a6bc
000001a0: 97df 5ebe 18ec cf3d 37bf aebd 8d7a ff3d
000001b0: aefb 4a3e f22a 873d 1da1 0abe 47c4 58bd
000001c0: a3ac 1abd 84f4 30be 544f fcbd c024 f23c
000001d0: bf27 e5bd 0be9 ee3d 5bff 9d3c db62 13be
000001e0: 00aa 473e 4309 a23c d763 473b 7483 5ebc
000001f0: ab3d 183e 5078 96bc 3833 b83d b1c5 6b3d
00000200: f683 583e 6481 2fbd e168 3fbe 3adf c73d
00000210: 7012 6e3e 9121 1f3e 3a16 083e 325b ca3d
00000220: 046f 19be 7e86 04be 0543 67be f6fe 5abe
00000230: 7ec3 033e 61db 3dbd faf9 4a3e 71e8 1abe
00000240: 4c10 b0bd 4b7f 1d3c a2e2 46be d2ac 493e
00000250: 451b d63d 2e1b aebe b42d a4bb 2e21 553d
00000260: 0c4e 54be e97a 68be 3b61 5f3c fe1c 703e
00000270: 5e55 07be e7ad c53c 7c04 0abe c2be aebc
00000280: 959f 433e 45a4 24bd 2daf 473d cc13 22be
00000290: 0df1 ecbd 3366 893d 54c2 31bd abea 94bd
000002a0: 5ca5 05be 8097 37be 13af 06be 6a3c 933d
000002b0: 3bf0 c2bd be9c 4ebd 42dd b5bd 58a1 5dbe
000002c0: 4427 543e 9e75 0f3e 2d07 563e 4398 fa3d
000002d0: 104c 7abe 51cc 87be 1a90 113e 4d2e 2e3e
000002e0: f0a8 113e 26eb 5ebe 2b1f c9bd f368 0abd
000002f0: b756 1b3e 6b99 4c3e 5f20 643e 3820 1f3e
00000300: b186 afbd 6f3f 6bbe c73e 703e 5458 eabd
00000310: c44c f5bd 6b44 7cbc 5af5 d13d 0e16 f13d
00000320: 13be f13c 373b 49be d9e9 d83d b1a8 a53d
00000330: b961 7e3c 06ed d73d 3bec 123d dde1 19be
00000340: 3b6b 153e acba e03d 176a e4bc db39 c0bc
00000350: 29e8 3f3d ff5b 8b3e 180d c83d 4d46 593e
00000360: 95f3 ce3b 57ca aabd 2931 5abe 1946 3abe
00000370: 40e9 dcbb 4c64 7c3e 91ba 3fbe 7acb 6abd
00000380: 64e4 c73d 7e26 7bbe a017 8a3d bcba 303e
00000390: fee8 113d 4229 3abd 795b 3c3d 872a 643e
000003a0: c29c 93bd b760 35be 2f00 d1bd cfa7 d5bd
000003b0: c54c 253e bc6a d3bd 5f68 8a3d d652 49be
000003c0: 6e0e 8a3d 2bed 643d 1ba7 063e 095c 7b3e
000003d0: 9a38 543d 9ff5 b43d af9d c73b 840f 123e
000003e0: cbc8 c6bd eac3 17be 3fa6 fd3d f351 703e
000003f0: 1fc5 debd b21a 22be de6b 46be c715 d2bc
0.23927346 -0.08824496 0.10492578 0.030696997 0.0665495 -0.123459145 -0.0994887 0.10721491
0.0032365732 0.15238355 -0.15722796 0.062060654 0.095870145 0.030579003 -0.17400089 0.16477865
-0.18065168 0.03341438 0.21707356 0.124258906 -0.20480332 -0.2725618 -0.15927012 -0.02803304
-0.058601126 0.117303066 0.14487031 0.026073989 0.046461124 0.18638654 0.020795686 0.14261259
-0.09033287 0.06973991 -0.18395369 0.111480065 0.11593999 -0.03964596 0.09851497 0.046326153
0.20745194 0.10840933 -0.13350897 0.19271566 0.16517113 -0.21602245 -0.1381748 -0.051555384
0.12621833 0.00074310746 -0.09124668 0.11207268 0.19691859 0.11893986 -0.17311485 0.083767235
0.0030188137 -0.16152291 0.17409474 -0.20861262 -0.14769955 -0.16780896 -0.080378525 0.23394696
-0.095509514 0.033709038 0.2609233 -0.14237025 0.0933872 0.02163517 -0.17969166 -0.036412474
0.046904277 -0.1545626 0.21568209 0.1193771 -0.18832727 0.09120825 0.056838505 0.06879254
0.07241039 -0.08568421 0.06487354 -0.16749954 -0.22565289 0.037116848 0.25801727 -0.06291598
-0.053010847 -0.05119276 0.21387538 -0.1414084 -0.08906775 -0.14475343 0.12742005 -0.045850128
-0.17619613 0.05408165 -0.20275137 0.041114837 -0.12379362 -0.137463 0.19238609 -0.020361856
-0.2176498 0.10152453 -0.08532565 0.124745466 0.1982257 0.06599988 -0.13538022 -0.05292156
-0.037762295 -0.17280775 -0.12319818 0.02955854 -0.111892216 0.11665543 0.019286802 -0.14393179
0.19498444 0.019779807 0.00304245 -0.013581146 0.14867274 -0.018367916 0.08994144 0.05756158
0.21144089 -0.042848006 -0.18692352 0.09759374 0.23249221 0.15540148 0.13289729 0.098806754
-0.14983755 -0.1294193 -0.2258416 -0.21386322 0.12867543 -0.046351794 0.19821921 -0.15127732
-0.085968584 0.009612869 -0.19422391 0.19694832 0.1045442 -0.3400511 -0.005010331 0.052033596
-0.20732898 -0.22703137 0.013634021 0.2344856 -0.13216159 0.024130775 -0.13478273 -0.021331195
0.19103844 -0.040195722 0.048751045 -0.15827864 -0.11569414 0.06708946 -0.043398216 -0.07271322
-0.13051361 -0.17928886 -0.13152723 0.071892574 -0.095184766 -0.05044245 -0.08880092 -0.21643579
0.20718104 0.14009711 0.20901175 0.12236073 -0.24443078 -0.2652307 0.14215127 0.1700985
0.14224601 -0.2176939 -0.09820398 -0.033791494 0.15169798 0.199804 0.22277974 0.15539634
-0.08570612 -0.22973417 0.23461448 -0.114426285 -0.119775325 -0.0153971715 0.10251875 0.11771785
0.02950958 -0.19651495 0.10591478 0.08088816 0.015526229 0.105432555 0.03586982 -0.15027566
0.14591686 0.10973105 -0.027882619 -0.023465088 0.046852265 0.27218625 0.097681224 0.21218224
0.0063156583 -0.083393745 -0.21307816 -0.18190803 -0.0067416728 0.24647635 -0.18723513 -0.057322957
0.09760359 -0.24526402 0.06742787 0.17258734 0.03562259 -0.045449503 0.045985673 0.22281848
-0.072076336 -0.17712675 -0.10205113 -0.104323976 0.16142567 -0.10323092 0.067581885 -0.19660506
0.067410335 0.055890244 0.13149683 0.24546827 0.051811792 0.08835911 0.0060917954 0.14263731
-0.09706267 -0.14820829 0.123852246 0.23468761 -0.108774416 -0.15830496 -0.19377086 -0.02564515

lstm1_1.bias_ih_l0 f4 [64]
00000000: 2eff 11be 0742 563e 676e 743d e5e1 263e
00000010: 5a8c ee3d 3114 533b 94f2 533e 5354 81bd
00000020: 4bcf 3d3e 089d babd 96c3 2dbe 91fd 13bc
00000030: 6fee 223d 4c1c f63d 98e4 2fbe a664 7f3c
00000040: 7ad3 1a3e 83de 553e 945c 3fbe cd8a e3bc
00000050: e08a 4c3e 423e 67be aecc e43d 677a 25bd
00000060: ea90 59be 6a40 04bd 3bb3 9d3d 7f60 4dbd
00000070: bdae 99bd 3ecd 233e 72cd 5b3e 58f0 2cbd
00000080: 0529 b83c 1cd3 6f3e bcea 62bd ff0d c93d
00000090: ce51 613e 233c 23bd 71a7 27be 311e 3b3e
000000a0: cd29 32bb 930c 803e 7719 14be c0a0 a43d
000000b0: 7f08 283c dcd2 953b 1a76 fbbd 5646 3dbd
000000c0: 6c43 a23d a3f8 7ebe 1dcf ae3d 1300 6c3e
000000d0: edb0 b43b d09b 703e 8677 29be fd6c 053d
000000e0: 648c 0e3e 58cd d33d 5501 07bd 6ced 0ebc
000000f0: 9ecf 793e 5630 433e c8bc a23d b827 453e
-0.142575 0.20923625 0.0596756 0.1629711 0.11647864 0.003220808 0.20698005 -0.06314912
0.18536107 -0.091119826 -0.16969141 -0.009032623 0.03977817 0.12017116 -0.17177045 0.015587961
0.15119734 0.20885663 -0.1868766 -0.027776146 0.19974852 -0.22582343 0.11171852 -0.040399935
-0.21246687 -0.032287993 0.07700201 -0.050140854 -0.07504032 0.15996262 0.2146509 -0.042221397
0.022480497 0.23420376 -0.05539964 0.09817123 0.22003862 -0.039852273 -0.16372468 0.18273236
-0.002718556 0.25009593 -0.14462839 0.08038473 0.010255932 0.0045722555 -0.122783855 -0.046209656
0.07923016 -0.24899535 0.085355975 0.23046903 0.0055142553 0.23496938 -0.16549501 0.032574642
0.13920742 0.103419006 -0.032960255 -0.008723598 0.24395606 0.19061407 0.079461634 0.19253433

lstm1_1.bias_hh_l0 f4 [64]
00000000: 5497 45be 1d44 283e b4a7 5e3d 15a9 413e
00000010: d666 f43c cd2c db3d 2096 063e c30b 533e
00000020: cf2c 2bbe 3f5b be3c a86b 35be 086c 1b3c
00000030: d039 ed3d d45e ea3d 084f 7cbe 0b95 29be
00000040: 8443 50be 7cad c9bd 2ef6 263e 84c4 463e
00000050: 840f d43d 4063 4d3e 8e88 3e3c 05be 70be
00000060: da79 553e 5e10 40be ca93 2bbc f227 28be
00000070: b240 6bbe 0c2b 393b 9785 f23d 5220 6c3d
00000080: 81b8 553e 357b 313d e763 d7bd 8929 b5bd
00000090: 47e5 e8bd 84e3 113e 2cbb e73d 010b 91bc
000000a0: eac4 ddbd ec8b 36be f51d 4dbe c0db cc3d
000000b0: 4c0f 72bd 9237 83be c252 853d d087 d5bc
000000c0: 3679 613e 3d23 753d c4dd 88bd 528e 2d3d
000000d0: 7c16 623e a3ee 1a3e 25fa f7bd 6079 783e
000000e0: 9b78 ee3d fc6d d43c e10a 67be 7a41 fc3c
000000f0: f672 8ebd 04b6 553e 117c c53c 433b 1c3d
-0.19296008 0.16432233 0.054359153 0.18912156 0.029834192 0.107019044 0.13143206 0.20609955
-0.16716312 0.023236869 -0.17716849 0.009486206 0.115832925 0.11443868 -0.24639523 -0.16560762
-0.20338255 -0.09847543 0.16304848 0.19410902 0.10354522 0.20057392 0.011629237 -0.23509987
0.20847264 -0.18756244 -0.010472247 -0.16421488 -0.22973898 0.0028254418 0.118418865 0.05764801
0.20871164 0.04333039 -0.10517102 -0.08845813 -0.11371856 0.14246947 0.11314997 -0.017705442
-0.10828574 -0.17826813 -0.20030959 0.100028515 -0.05909662 -0.25628334 0.065099254 -0.026065737
0.22018895 0.05984806 -0.066829234 0.042372055 0.2207889 0.15130095 -0.12108258 0.24265051
0.116440974 0.02593135 -0.22562744 0.03079294 -0.06955521 0.20870215 0.024107011 0.038142454

lstm1_1.weight_ih_l0_reverse f4 [64, 32]
00000000: f09a 80bc 1a29 173e bea5 113e b551 0abc
00000010: 4fd3 efbd b039 49be 519d 1cbe 0b25 263c
00000020: 66a7 e03d 8c79 dbbd 4619 283e e9ad b6bc
00000030: fbe5 7cbe dff5 e2bd 06c1 55be 68e9 c9bd
00000040: 3b7e 4ebc b2db 583e e573 79be 7f23 453e
00000050: 4a2a 703e 67f0 eebd 2573 62be 1a30 323e
00000060: 0ac5 2abd 06bb 0ebe a5f8 00be a9ae 4c3e
00000070: 13a3 65be 8ee9 773e 00d2 4abc 100d 5bbe
00000080: 3285 3f3e 5843 52be 18af 3abd 0daf f33d
00000090: 80f6 053e c8e9 b83d a4db 2fbe 129f 973d
000000a0: e557 7e3d a0dd 8f3e 02ff e1bd 9ccf e2bd
000000b0: d0d7 e8bd 2f80 2ebe dc93 2c3e 7062 df3c
000000c0: 1c5e ce3d 5a00 ca3c a171 843e fa16 9ebd
000000d0: 5438 94bc 48a3 b23a 8ca4 3cbd 5430 7abe
000000e0: 6f3f a8bd f4cc 493e 57da 133e 0bb7 01be
000000f0: e688 20be 72b1 2dbe 5c05 fcbd b082 1c3d
00000100: 6023 c53c 527f 1f3e c820 293e 7136 5fbe
00000110: ed88 dd3d f874 193d b912 7b3d 5fe4 6bbd
00000120: 41dd 2d3b 5dad e93d cd33 5c3e 8584 c7bd
00000130: 8109 213e f805 10be 80fd 083b b48a d83d
00000140: 6a31 2bbd 9cfb 5b3e 02ba 87bd 83d6 edbd
00000150: a597 193e 885b 103b 7f6b 193e 2c98 52be
00000160: 444c 883c d86c 42be 0632 ae3d 8697 713e
00000170: 2796 833d aaa8 4ebe 1826 90bd 4853 bbbd
00000180: 5c88 9d3d ba34 563e 40a5 9b3d a06f 06be
00000190: ac53 6d3e e20c 0abe a10d 4f3e 4a3b b1bb
000001a0: c4a6 1abe fd97 1abe 54b6 573d 9da6 ee3d
000001b0: 63e1 33bd 3bb3 42be 8087 d9bd 8606 11be
000001c0: 0e46 f4bc e642 1abe 2cdb 773e 1837 883e
000001d0: 3dce 1b3d 8897 583d aaf8 7c3d 100a 6abe
000001e0: b27e 3ebe 7e33 7cbe afae 05be 57af 9f3d
000001f0: d892 943d 208c ffbd 6c3a 393e 304f c53c
00000200: d0c0 0dbd b2e5 163e d485 35be ada3 e13d
00000210: 8d95 d8bb ec7a 763e 201a 08be 77fb 5a3e
00000220: 1883 f63d 4692 953d 1a33 50be c2a0 10be
00000230: 9a4b 02be 7e14 03be 36c2 743e b835 ed3d
00000240: 1c81 733c d37c 05be 88bb 73bd fd34 533e
00000250: 7836 28be bed6 4c3d 65ec 453e eaf7 8d3d
00000260: 1344 4d3b c04c d3bb a807 23bd ab2c d33d
00000270: daba 253e 7fee 603d 1844 1b3d 846b 78be
00000280: 10fb e7bc 6a85 55be 90f6 cebd 0e20 f93d
00000290: b63d d93d 1a96 1f3e db9c 4dbd 21d9 cebb
000002a0: 7554 f83d cb74 573e 3289 943e baa5 c3bd
000002b0: 7324 3dbe 6921 343e b4de 8ebd d288 383e
000002c0: 6d48 893e 3d4d 8c3d 6bff 6d3e 04c7 14bc
000002d0: 5ba9 c13c 895c 7d3e 5fb3 71bd 9767 543c
000002e0: 2fec 9e3d d8da 90bd afa1 06be 42b7 99bd
000002f0: c272 f1bc 2eab f63b b4e5 f73d 9035 e8bc
00000300: 18b9 30be 6814 153d 947e 90bd d8ab 623e
00000310: 5315 d43d 80e4 a33d cfdc 89bd 4049 583c
00000320: 62bd 123e 2f28 f8bc 3a3a 65bd 4cf7 663e
00000330: c12a 7ebe 2fd6 f4bd 5a74 4cbe 68ab 553e
00000340: 82f4 13bd 3490 043d 39e8 383d 4612 b03d
00000350: 6d7f dfbc 96e2 c73b c296 babd 57e8 02bd
00000360: b552 fabd 32ae 06be 31de 7a3e 3902 3b3e
00000370: 881c 493e 1c56 633d 1085 84bd 8a5d 67be
00000380: c8d5 6c3d d8aa 31be cc09 04be 796d a63d
00000390: 59ca 893e 86ed 063e b7bd 0c3d 7ffd ad3d
000003a0: 84d2 193e 8279 803e daec 6dbc 0417 5c3e
000003b0: bda1 06bd 9d35 ff3d c88e 5abd 2c67 7d3e
000003c0: 289b 483e 3289 e8bd a11b 553d 00ae 903d
000003d0: 6555 a5bd 2640 b4bc 1ecc 72bd b249 16be
000003e0: 681b 37bd 6880 8d3d 50dd f7bd 917d 16be
000003f0: 39b8 f4bc 668a aa3d 04b0 5fbe e880 7f3e
-0.01569888 0.14761773 0.14223382 -0.008442332 -0.11710226 -0.19650912 -0.15294386 0.010140668
0.10969429 -0.107165426 0.16415891 -0.022299724 -0.24697106 -0.110820524 -0.20874414 -0.09858972
-0.012603338 0.21177557 -0.24360617 0.19251822 0.23453632 -0.11666947 -0.22114237 0.17401162
-0.041691817 -0.13938531 -0.1259485 0.19988503 -0.22425489 0.24210188 -0.012379169 -0.21391702
0.18703154 -0.20533502 -0.04557714 0.11898623 0.13082314 0.09028965 -0.1717363 0.07403387
0.06209554 0.28098774 -0.11034967 -0.110747546 -0.11369288 -0.17041086 0.16853279 0.027268618
0.10076544 0.02465837 0.25867942 -0.07719226 -0.018093266 0.0013628984 -0.04605536 -0.24432498
-0.08215224 0.1970709 0.14438759 -0.12667482 -0.15677223 -0.16962221 -0.1230571 0.03821057
0.02406472 0.15575913 0.16516411 -0.21798111 0.10817132 0.037465066 0.061297152 -0.05759084
0.0026529583 0.114100195 0.21504135 -0.09742073 0.15726282 -0.14064777 0.002090305 0.105733305
-0.04179517 0.214827 -0.06627275 -0.116131805 0.14999254 0.0022027213 0.14982413 -0.20565861
0.016637929 -0.18986833 0.08505635 0.23592958 0.06425124 -0.20181528 -0.07038516 -0.09146744
0.07692024 0.20918551 0.07599878 -0.13128519 0.2317645 -0.13481477 0.20220043 -0.005408679
-0.15102679 -0.15097041 0.052664116 0.11652873 -0.043916117 -0.19013683 -0.10621548 -0.14162645
-0.02981856 -0.15064582 0.24204701 0.26604533 0.03803848 0.052878886 0.061760582 -0.22855401
-0.18603018 -0.24629018 -0.13054918 0.07797115 0.07254571 -0.124778986 0.18088692 0.024085611
-0.03460771 0.1473606 -0.17726833 0.11017547 -0.0066096247 0.24070328 -0.13291216 0.21384989
0.12036723 0.0730329 -0.20331994 -0.14123824 -0.12724152 -0.12800786 0.2390221 0.11582512
0.014862325 -0.13035898 -0.059505016 0.20625682 -0.16427028 0.05000948 0.19328459 0.069320515
0.0031321093 -0.0064483583 -0.039802223 0.10311254 0.1618456 0.054914948 0.037906736 -0.24259764
-0.028317958 -0.20851675 -0.10105622 0.12164317 0.106074736 0.15584603 -0.050198417 -0.006312505
0.12125484 0.21040647 0.29010922 -0.09553094 -0.18470936 0.1759087 -0.06976071 0.18020943
0.2681307 0.068506695 0.23241965 -0.009080652 0.023640325 0.2474233 -0.059008952 0.012964151
0.07759892 -0.07072991 -0.13147615 -0.07505657 -0.029473666 0.0075277304 0.12104359 -0.028345853
-0.17258108 0.036396414 -0.07055393 0.22135866 0.1035563 0.08002567 -0.06731569 0.013201058
0.14330056 -0.030292599 -0.055963732 0.22555274 -0.24820997 -0.11954915 -0.1996626 0.20866168
-0.036121853 0.032364085 0.04514334 0.085972354 -0.027282441 0.006100009 -0.09110786 -0.031959858
-0.12222806 -0.13152388 0.24498822 0.18262567 0.1963979 0.055502042 -0.06470692 -0.22594276
0.057821065 -0.17350328 -0.12894362 0.08126349 0.26912192 0.13176546 0.034360614 0.08495616
0.15021712 0.25092703 -0.014521802 0.21493155 -0.03286909 0.12461398 -0.053358823 0.24746388
0.19590437 -0.11354293 0.052028302 0.07064438 -0.08072928 -0.022003245 -0.059276693 -0.1467655
-0.04470387 0.06909257 -0.12102759 -0.14696337 -0.029873 0.08327179 -0.21844488 0.24951518

lstm1_1.weight_hh_l0_reverse f4 [64, 16]
00000000: 8d66 ea3d 9120 633d f59e a83d f935 8cbd
00000010: 3713 e4b9 936f cdbd 0c69 7d3c c495 49be
00000020: b66f 30be ee9e 44be 1ad0 82bd 3ebb 5a3e
00000030: 9a62 413e 7a07 5c3d 95c8 61bd 7715 a03d
00000040: 0f26 ecbc 021a 6bbe 2803 77bd 8ac2 743e
00000050: 14ee 293e 30d0 f83a c455 88be ad36 77bd
00000060: f92c 4ebe 095c 4a3e 2c1d 09be b0ea 953e
00000070: 985c 2abd 8ad5 3b3e da49 763d 57fe 3e3c
00000080: 740c 39be b5b6 dabc 87df 1abe 8106 5c3e
00000090: 9b9f 0abe be2b fe3d 5080 a43d 92b3 23bd
000000a0: 655e b7bd feb4 b83c 3994 ba3d 7332 873e
000000b0: 8a43 cb3d db7e 1cbe 9701 f4ba a8e3 f53d
000000c0: 4b87 f5bc 6a90 01be d22d 633c e664 893e
000000d0: 3aa6 893c 328d b43d 8194 10bd 6139 72be
000000e0: 24ea 54be f100 eabc 930d c9bd e590 6f3e
000000f0: 8727 1e3e f21d 8c3c 1eff 363e 46d5 853d
00000100: 2a06 8ebe 9772 a1bc 881b 8f3d 6101 07bd
00000110: fda0 acbd d62c 91be 7667 8abe f87d 4dbe
00000120: 16b7 8fbe 1f53 693d 7680 583e 1ed7 b93d
00000130: fd9f 0f3e 9dc4 49be 857a a3bd 5239 803c
00000140: 5189 703e b9c7 76bd 6c7f 88be 64c8 a4bd
00000150: da43 0f3e fbf6 e93d fef6 48be 0251 adbd
00000160: e78a 2e3e 1ded b8bd e150 823d f48f 403e
00000170: 5972 e1bd 44c8 093e 7163 ba3d 719a 3f3e
00000180: e82c 28be dc46 f239 d9d3 40be 4223 823c
00000190: c604 a23d 7553 14bd e217 fdbd 885d 103e
000001a0: 74b3 1b3e 9fa6 2cbe eb8f 523c 98c6 d73d
000001b0: 2fce 0cbe 4e96 1fbe 2c83 13bd 1963 b93d
000001c0: 31dd 30be 760a 38be 195a 103e 68a3 85bd
000001d0: 575f 563e 585e b6ba 2cc6 1abe 2637 04be
000001e0: f95c 053c e1fb 6bbd f250 1dbe 006e 1d3e
000001f0: 9550 963c 50fb 58be 0c77 463c 63f7 b5bd
00000200: aa4b 8fbd e06e c43d 6975 a93d d368 66bd
00000210: 9ccf f6bd 52ae 88be 7195 e8bd 3a21 4abe
00000220: bf5a 1a3e 81bb 2e3e c33d 84bd 6f41 7cba
00000230: 0619 513e ac5d 18be 3b05 b4bd 527c 163e
00000240: ebd2 b73d 6659 443e 64ae 4abe cbfa 743e
00000250: aa6a a13d 5da2 753c b225 b1bd 561e 4c3c
00000260: 1d7c 96bd a2e0 7cbd 4c24 423d 2b77 cbbd
00000270: 537e 803e ec82 80be b4b6 663d 22f6 2a3e
00000280: d72e e93d cd45 e23d 19cd ddbd 8212 c33d
00000290: c552 4e3e e3d4 8dbe 9b74 db3d 31e0 bf3c
000002a0: 2ff2 b7bd dafe 83bd 6747 2b3d 3cc2 6a3e
000002b0: ed1f 83bd 881b 3e3e e061 00be da61 44be
000002c0: a6a3 56bd 3b66 e13d 89a7 a3ba ea51 cf3d
000002d0: 8b5e 5cbe 34ff ebbc 07a9 86be 05d8 013d
000002e0: 9c5b 07be 5be3 2dbc cbce dfbc 67ea 25be
000002f0: 1cf3 44be a456 04be 38b6 813e 4c89 933e
00000300: 79e3 47be 542a f1bc 6a81 be3d 6f8d 84bd
00000310: 4556 3bbe b0c6 4e3e 75b0 21bc fb98 9e3d
00000320: 33ca 2b3d 73e1 f43d 4005 4ebe b742 473c
00000330: ea1a ce3a f4c7 713b a742 25be 092c 80be
00000340: 9b84 20be 3b37 f63c f668 47be e0e4 863e
00000350: 6eb6 5c3e 5c39 1e3e f217 87be 345a fe3d
00000360: 7afb f9bd 2c96 1e3e 68d7 243e 589e 15be
00000370: eb46 8ebe 8783 b2bd 9bbf 323d deb6 3f3e
00000380: 1516 68bd cb5f 7abe 3918 17bb e778 74be
00000390: d2ef 6f3e 6426 303d b71e 69bd 0fe3 48bb
000003a0: e0b7 743d e114 523e fa1a 7c3d 021e ea3d
000003b0: 2ced 133e 393f 05be 7f54 eebd 8a63 d03d
000003c0: 3107 6cbd 3d82 1f3e 99e7 323e 895a 053e
000003d0: 16d7 4f3e a330 5ebd af17 6abe 2e54 803c
000003e0: cb12 64ba 452e 073e 171a 75bd fbd7 37bd
000003f0: 55cc ccbc 4f60 57be bda1 203e 4bd8 3e3e
0.11445341 0.05545098 0.08233444 -0.06846232 -0.00043501865 -0.10031047 0.01546694 -0.19686037
-0.17230114 -0.19201252 -0.063873485 0.2136049 0.1888527 0.053718068 -0.05512293 0.07816594
-0.028826742 -0.2295914 -0.060305744 0.23902336 0.16594726 0.0018982943 -0.26627934 -0.060354877
-0.20134343 0.19761671 -0.13390034 0.29280615 -0.04159221 0.18343177 0.060129024 0.011657319
-0.18071157 -0.02669845 -0.15124331 0.21486856 -0.13537447 0.12410687 0.08032286 -0.039966173
-0.08953551 0.022547241 0.091103025 0.26405677 0.099249914 -0.15282767 -0.0018616196 0.120063126
-0.02997174 -0.12652746 0.013865905 0.26834792 0.016802896 0.08815993 -0.035297874 -0.23654701
-0.20792443 -0.028564902 -0.09817042 0.23395117 0.15444766 0.017104123 0.17870757 0.06534819
-0.27739078 -0.019707961 0.06987673 -0.0329603 -0.084291436 -0.2835452 -0.2703206 -0.20067585
-0.2806937 0.056964036 0.21142754 0.090742335 0.14025874 -0.19703908 -0.07982353 0.015652332
0.23489882 -0.060249064 -0.26659715 -0.08046034 0.13990727 0.11424061 -0.1962547 -0.08462717
0.17045175 -0.09029601 0.06363083 0.18804914 -0.11008138 0.13455302 0.09100998 0.18711258
-0.1642338 0.0004621063 -0.18830813 0.015885953 0.07911067 -0.036212403 -0.12358071 0.1409818
0.15205175 -0.16860436 0.0128516955 0.105359256 -0.13750528 -0.1558468 -0.036013767 0.090521045
-0.17271878 -0.1797274 0.1409687 -0.06525308 0.20934807 -0.0013913615 -0.15114659 -0.12911662
0.008139842 -0.057613257 -0.1536291 0.15373993 0.018348971 -0.21189618 0.012113344 -0.08885076
-0.06996854 0.0959146 0.08274347 -0.056252312 -0.12051317 -0.26695496 -0.11356629 -0.19739237
0.1507368 0.17063715 -0.064570926 -0.00096227875 0.20419702 -0.14879483 -0.0879006 0.14695862
0.08975776 0.19174728 -0.19793087 0.23923795 0.07881673 0.014992324 -0.08649768 0.0124584045
-0.073478915 -0.061737664 0.047397897 -0.09934839 0.25096378 -0.25099885 0.056326583 0.16695455
0.11385887 0.1104847 -0.10830135 0.095250145 0.20148762 -0.27701482 0.107156 0.023422332
-0.0898174 -0.064450935 0.04181614 0.22925657 -0.06402574 0.1856519 -0.12537336 -0.19177952
-0.05240216 0.11005827 -0.0012485842 0.10123046 -0.2152044 -0.028808214 -0.26300833 0.031700153
-0.1321854 -0.010613288 -0.027320286 -0.16202699 -0.19233364 -0.12923676 0.25334334 0.28815687
-0.19520368 -0.029439129 0.093020275 -0.06472289 -0.18294628 0.20192981 -0.009868731 0.077440225
0.04194088 0.119570635 -0.2011919 0.012161902 0.0015724574 0.0036892863 -0.16138707 -0.25033596
-0.15675585 0.030055633 -0.19473633 0.26346493 0.21553966 0.15451568 -0.26385456 0.12419549
-0.122061685 0.15486974 0.16097796 -0.14611185 -0.2778848 -0.08716493 0.04363976 0.18722102
-0.056661684 -0.24450605 -0.002305521 -0.23874246 0.23431328 0.043005362 -0.056914058 -0.0030652916
0.05974567 0.20515777 0.061549164 0.11431505 0.14445943 -0.13012399 -0.1163721 0.101752356
-0.057624046 0.15577026 0.1747116 0.13022818 0.20296893 -0.054245602 -0.22860597 0.01566514
-0.000870031 0.13201244 -0.059839334 -0.04488371 -0.024999777 -0.21032833 0.15686698 0.18637197

lstm1_1.bias_ih_l0_reverse f4 [64]
00000000: cbcc 60be 8133 63bd 6641 1abe 1fe2 00be
00000010: 0294 5dbe 5490 16be 6c4d 513e d5c8 e33d
00000020: 5213 18bd 313c 6cbd b618 66bd 3206 183e
00000030: 9bf3 90bd 018a a9bd 4baf 1c3e 38ee 583e
00000040: d022 8abc 289b 863e 701b 133e e917 8bbd
00000050: 9a04 1dbe d58e 3c3e 0884 823d 9990 4fbe
00000060: 4ca6 9b3d 6a31 5a3c 9251 fbbc d77a 973e
00000070: d019 223e 367d e33d bc97 1f3d d75a d73d
00000080: 0578 803e b14e 5fbe 0d24 423e 249a b13c
00000090: d927 0c3e 2543 5cbe 0747 b7bd c852 82bd
000000a0: ecf0 4a3e ee42 74bd 440b 203d 768f fa3c
000000b0: 30df e53d bf2e a7bd 437d 0cbe 2ed7 dbbd
000000c0: 9eb2 2b3e 9bdc 32be 7e18 083e a9c8 893e
000000d0: cfaa adbd 9d81 833e e138 803e 473a 2d3e
000000e0: 31d4 583e b1a8 733e 18c0 023d 97dd d73d
000000f0: df18 3dbe 959f eb3d 9e2a ad3d c61d 59be
-0.21953122 -0.05546904 -0.1506401 -0.12586258 -0.21638492 -0.14703494 0.2043969 0.1112229
-0.0371278 -0.05767459 -0.05617591 0.14846113 -0.07077714 -0.08278275 0.15301244 0.21184623
-0.016862303 0.2629025 0.14365935 -0.0679167 -0.15333787 0.18413861 0.06372839 -0.20270003
0.07600078 0.013317445 -0.030678544 0.29585907 0.15830159 0.111078665 0.038963065 0.10515373
0.25091568 -0.21807362 0.18959065 0.021679945 0.13687076 -0.21509989 -0.08949094 -0.063634455
0.19818467 -0.05963414 0.039073244 0.030585986 0.1122421 -0.08163213 -0.13719659 -0.10734402
0.16767356 -0.17466967 0.13290593 0.26910904 -0.08479845 0.25684825 0.25043395 0.16916762
0.21174695 0.2379482 0.031921476 0.10540312 -0.18466519 0.11505047 0.08455394 -0.21202764

lstm1_1.bias_hh_l0_reverse f4 [64]
00000000: 8f19 8cbd 0050 08be d61c 90bd 68d0 c4bd
00000010: a135 653d 6c75 86bd 9744 bf3d db9a 81bd
00000020: 8ced 003e 2f89 21be 6b42 ebbd f47d c73d
00000030: ed58 9dbb d799 57bd 6522 63be 1a39 1a3e
00000040: f6a5 8abb ec3c b63c 4807 e23d 9752 dc3d
00000050: 581b 3c3e e254 1abc ac80 6d3e a8fa 9b3c
00000060: aa9a 3cbd 7af8 6c3e a42c d03d 69ba 68bb
00000070: 4dbe 863d 6b32 1bbe d6f3 173e 85f2 5bbd
00000080: d52b 303e 84b3 e63c b4f1 97bc 2985 50be
00000090: 3bc6 293e dae9 943d 3ff6 733e eabc 203e
000000a0: 74e2 373e 8c72 3ebe 04c5 5dbd 8005 03be
000000b0: be12 3ebd 37ee 543e 9ad5 9fbc 4e1b 733d
000000c0: f547 bf3d 7789 54be 17f9 8cbd 0b78 463d
000000d0: f12e 753e 8f22 443e 6164 8a3e 18dd 213e
000000e0: 8d32 05bd 48ff 773e d4d1 15be d425 833e
000000f0: ebee 34be c082 b8bd a33d 3ebe 4bb9 d7bd
-0.068408124 -0.13311768 -0.0703675 -0.09610063 0.055959348 -0.06565365 0.09339254 -0.063283645
0.12590617 -0.15774988 -0.114872776 0.097408205 -0.0048018605 -0.052636947 -0.22181089 0.15060845
-0.00423121 0.022245847 0.11036545 0.1075794 0.18369806 -0.009419652 0.23193616 0.01904042
-0.046045937 0.23141661 0.101647645 -0.00355115 0.06579266 -0.15155952 0.1483911 -0.05369808
0.1720422 0.028161772 -0.01854787 -0.20363297 0.16579525 0.07271166 0.23824404 0.15697065
0.17957479 -0.18598384 -0.054142967 -0.12795067 -0.046404593 0.20793997 -0.019511033 0.05935221
0.093398966 -0.20755564 -0.068834476 0.048454326 0.23943688 0.19153808 0.27029708 0.15806997
-0.032518912 0.24218476 -0.14630824 0.25614798 -0.17669265 -0.090093136 -0.185782 -0.10533389

lstm1_2.0.weight f4 [32, 32]
00000000: 7868 a53d f328 30be 1123 ab3d cda9 0ebe
00000010: 6d34 1fbe d162 23be 5365 1a3d 1166 a4bc
00000020: 421c bebc c887 b43d ac67 95bc 8180 adbd
00000030: d5a1 f3bd c36b 1ebe cb47 70bd dbfb 0bbe
00000040: e7d1 67bd 026f 2c3e f0c6 0c3e f29e 28be
00000050: 7c17 f3bd 70df e5bd 87d7 b23c f789 16be
00000060: 1aac 59bd 53f0 f9bb e009 c43d 8f75 023d
00000070: 844e 9b3d de91 debc 0619 72bd 045a 84bd
00000080: 0b06 cc3c 8f84 be3d 5c0d 013e c3d8 91bd
00000090: 3924 66bd 2da6 08be c59f 2f3e e98a c0bc
000000a0: c762 1fbd 8232 473d c014 acb9 9ea1 f6bd
000000b0: 172d a23d 8a27 92bc 02eb 27be cf24 ab3d
000000c0: aad8 cebc 8dfb f23d 0a6b 74bd 7875 00be
000000d0: ee44 b5bd 37e5 91bd 8f23 6f3d b3d9 573d
000000e0: ae00 0c3d ea46 113e c278 f7bd f0eb 83bd
000000f0: 1f2c 1e3e 9007 b0bb 163b 22be fe52 963d
00000100: c760 d73d e846 52bd 75bc 23be d0b1 c2bd
00000110: 9992 a7bd d076 cbbd 899b 253e b85c fcbc
00000120: e988 053d 9ee4 10bc a685 9fbd 61fb debd
00000130: 06fb 173e f3a7 353e 3138 763d b4a0 8e3c
00000140: ccac 1bbe d28a f43c 98bf 013e a8de e3bc
00000150: 9283 243d bca8 f4bd 8040 4b3d d413 0d3e
00000160: f1b9 d1bd c1e3 03be 7431 f43d 5d2a 28be
00000170: 74ee efbd 5277 18bd 6f32 0fbe 1bb0 dbbc
00000180: ce4b b9bd 5cee e6bd 1cd7 0e3e 78cb 9a3d
00000190: b386 22be 3cc8 233e d0ff 0d3e d4e0 82bd
000001a0: 6c93 aa3c 17dc 023e 32fa ac3d fa4e 0fbd
000001b0: 8cc9 ccbd 536c 4d3d 4fd7 a33d 4b14 963d
000001c0: b2ec c13d 621a 913d 9e8b 6a3b e07c 623d
000001d0: f69a 0d3e affa 1bbe dfb7 0c3e 5b3b 5a3d
000001e0: 5684 a93d 0eee c7bd 26d2 0a3e 0dc1 893c
000001f0: d861 303e 8da5 b5bc b1cb ca3c e19b b23d
00000200: e68b 20bd 6a5a 243c 4671 b7bd 243a 6cbd
00000210: 7fc2 63bd 0e70 3d3d 58fb 05be 9d89 923d
00000220: cc7e 1dbe c011 593e 48fd e03d 8913 5fba
00000230: 3507 24be c6ef d8bd 584e 223e 068e 0f3e
00000240: be16 3a3d f95d 2a3e e7e9 c7ba 554f 45be
00000250: 4d65 313c ae78 313d 0a95 f9bd 1a51 2c3e
00000260: 5909 18bd d955 38bd af5f f4bd c7c5 f23d
00000270: 5611 623d 714b 253e db2c 223e ad2d d73c
00000280: f98c 533c c598 65bd 6a24 b7bd 2b30 f5bd
00000290: 688e 9e3d 9806 3bbe 727d 19be 53f3 2ebe
000002a0: f1a3 8dbd 9190 0bbe 2e1d 8bbd 36ed 143e
000002b0: 0108 0b3e b46d 003e 8da7 a53d 2a61 4c3d
000002c0: 4be7 70bd 9048 06bd 7533 c4bd 71e8 983d
000002d0: c254 7cbd cc84 373d 5a1e d3bc 0131 1cbc
000002e0: 96ff a7bc 49ef bc3d f815 2abd 529f 94bd
000002f0: f58a 853b d0d8 223c b7fc 003d e8f2 013e
00000300: f253 773d 8bc2 13be 4840 c03d 82c6 fabb
00000310: fc34 0e3e 0bac ab3d f751 b93d 1d03 edbb
00000320: b158 59bd f7f0 c1bd 8662 fabd 6783 11be
00000330: e793 abbb ee41 a1bd 46c9 35bd 624a 0a3c
00000340: 2072 e33d d883 8ebd f127 a0bd 769e f0bd
00000350: 74a3 2bbe 7e59 a43d 2d5a cf3d 97b5 033e
00000360: a76a c9bd ffd8 043e f78a 29be e995 163d
00000370: d0b1 533d d934 0ebe 6552 33be d3d2 203e
00000380: 68ff 24be 39a4 9cbd d3f6 2ebd c4df 13be
00000390: 5751 023c 40c1 d23d 568e 0d3e daa4 1c3b
000003a0: 0c1d e1b9 406d 183e 9eb5 0bbe 946e 57bd
000003b0: 0770 74bd bad7 cd3d a597 2ebe c7b3 c3bd
000003c0: 2747 473d da62 403b a224 e23c 84f7 243e
000003d0: 0ead ae3d f27a 05bd 0802 9c3c 917c d93d
000003e0: f355 fd3d 3d15 173c b753 22be 8ce5 0e3e
000003f0: d133 13be cf71 ac3c bc97 2fbe 56f5 b43d
0.080765665 -0.17203121 0.08356298 -0.13931961 -0.15547343 -0.15955664 0.037694287 -0.0200682
-0.023206834 0.08814961 -0.018237911 -0.08471776 -0.118961014 -0.15470795 -0.058662217 -0.13670294
-0.056596663 0.16839221 0.13747764 -0.16466883 -0.11869714 -0.11224258 0.021831287 -0.14701067
-0.053142644 -0.007627526 0.09572196 0.031850394 0.07583335 -0.027169164 -0.059105895 -0.064624816
0.024905225 0.09302627 0.12602752 -0.07121422 -0.05618689 -0.13344641 0.17150791 -0.023503738
-0.03891256 0.048632152 -0.00032821856 -0.12042545 0.079187565 -0.01784112 -0.16398242 0.0835663
-0.025249798 0.11864386 -0.059672393 -0.12544811 -0.08851038 -0.071237974 0.05838352 0.05269785
0.034180336 0.14187208 -0.120835796 -0.06441486 0.15446518 -0.0053719953 -0.15842852 0.07340048
0.10516506 -0.051337153 -0.1598986 -0.09506571 -0.08182258 -0.09934771 0.16172613 -0.03080593
0.03260127 -0.008843569 -0.07789163 -0.108877905 0.14841852 0.17739849 0.060112182 0.017410614
-0.15202636 0.029851351 0.12670743 -0.027816132 0.040164538 -0.11946246 0.04962206 0.13777095
-0.10240544 -0.1287985 0.11923495 -0.1642241 -0.11715403 -0.037223168 -0.13984083 -0.026817372
-0.09047662 -0.11275932 0.13949245 0.0755834 -0.15871696 0.15994352 0.13867116 -0.06390539
0.02082225 0.1277927 0.084461585 -0.034987427 -0.099993795 0.050152134 0.08000051 0.07328089
0.09468974 0.0708511 0.0035788785 0.05529487 0.13828644 -0.15232347 0.13742016 0.053279262
0.08277194 -0.09762202 0.13556728 0.016815687 0.17224824 -0.022173667 0.02475533 0.08721138
-0.039195918 0.010031322 -0.08957152 -0.057672635 -0.055605408 0.04624944 -0.13084161 0.07155154
-0.153804 0.21198177 0.109858096 -0.0008509686 -0.16018374 -0.10592608 0.15850198 0.14019021
0.045431845 0.1663741 -0.0015252203 -0.19268544 0.010827375 0.04332798 -0.1218663 0.16827813
-0.03711829 -0.045003746 -0.11932313 0.11854129 0.055192314 0.1614206 0.15837424 0.026266897
0.0129120285 -0.056053896 -0.08942492 -0.11972078 0.077420056 -0.18264234 -0.1498926 -0.17085008
-0.06916035 -0.13629366 -0.06792675 0.14543614 0.13577272 0.12541848 0.080885984 0.04989735
-0.05881433 -0.032784045 -0.09580127 0.0746621 -0.06160427 0.04480438 -0.025771309 -0.009533168
-0.020507615 0.092253275 -0.041524857 -0.072569504 0.004075403 0.009939387 0.031491008 0.12690318
0.06038279 -0.14429681 0.09387261 -0.0076530585 0.138874 0.08382424 0.09048837 -0.007233037
-0.0530631 -0.094697885 -0.12225823 -0.14210282 -0.005236137 -0.07873903 -0.044381402 0.008440586
0.11105752 -0.06958741 -0.07820118 -0.11748974 -0.16761571 0.08024882 0.101246215 0.1286224
-0.098347954 0.12973402 -0.16556917 0.03676406 0.051683247 -0.13887347 -0.175119 0.15705423
-0.16113055 -0.076485105 -0.04271586 -0.14440829 0.007953963 0.10290766 0.13823828 0.002390197
-0.00042936986 0.14885426 -0.136435 -0.05259569 -0.05967715 0.10050912 -0.17050035 -0.09555774
0.04865184 0.0029355795 0.027605359 0.16110045 0.08529101 -0.032587953 0.019043937 0.10619462
0.12369909 0.009221372 -0.15852247 0.13954753 -0.14375235 0.021050362 -0.17147726 0.088358566

lstm1_2.0.bias f4 [32]
00000000: 1367 11be b29b 23be 14d4 5ebd 4739 febd
00000010: a20f d03d 5b45 f33d 2037 c4bd a68a 093e
00000020: 7460 ad3d ac00 4c3d 4b89 823d be94 9b3c
00000030: 50b4 743d d37a d2bd 1ee2 1d3e 640f b1bd
00000040: 6534 c03d 28cd d23d 8e67 dabc d1f7 f83d
00000050: 4f88 173e c488 223e 6595 a5bd d80f f0bd
00000060: f594 c33c 1438 c7bd fb94 e7bd 6aaa 8d3d
00000070: db6b 1b3d 90af b7bd 2784 603d 8d1b 24be
-0.14199476 -0.15977362 -0.054401472 -0.124132685 0.10159232 0.11878463 -0.09580827 0.13431796
0.084656626 0.04980533 0.06373843 0.018991824 0.059742272 -0.10277333 0.15418288 -0.08645514
0.093849935 0.10293037 -0.026660707 0.12156642 0.14798091 0.15872484 -0.08085135 -0.11721772
0.02387474 -0.09727493 -0.11307713 0.069172695 0.037944656 -0.08969033 0.05481353 -0.16026135
