results/voltage_window_effect/V(3.4-3.5)/Experiment4(40-CC-1)/from_Dataset 3_ft_model.pth (torch, 95756 bytes, 27 tensors)

cnn1.0.weight f4 [16, 1, 3]
000000 e9 63 e0 3e 73 c1 29 3d ba 44 11 3f 9f a5 f2 bd
       0.43826225 0.041444253 0.56745493 -0.11847996
000010 ee 2c 35 3d 08 89 7f be 0d ae 2c 3d cb cb 0c bf
       0.0442323 -0.24954617 0.042158175 -0.54998463
000020 4b fc 8c bd 03 b0 c0 3c 6e eb 69 3e 2a 0d 21 3f
       -0.068840586 0.023521429 0.22843716 0.6291071
000030 39 27 18 3e 08 28 c4 3d 66 38 0d 3f f4 05 30 be
       0.14858712 0.09577948 0.5516418 -0.17189771
000040 de 52 4c 3e 3e 51 fc 3d 1f 7b 86 be 5d b0 ab be
       0.19953486 0.12320183 -0.2626581 -0.33532992
000050 fa ef 1f bf bc 58 fc 3e 6f 90 e6 3e 09 64 de 3e
       -0.6247555 0.4928645 0.4503207 0.43435696
000060 fc 6b 14 3f b1 08 c7 3e 84 38 84 3e 2e 7b 13 3f
       0.5797727 0.3887382 0.25824368 0.5760983
000070 74 19 b8 be 18 a7 d1 bd 4a ce 5d be 61 71 65 bd
       -0.3595692 -0.10236949 -0.21660724 -0.05601633
000080 57 70 0b bf f8 fb 9c 3e 0d 61 5d be f7 d7 b0 be
       -0.5446829 0.30660987 -0.21619053 -0.34539768
000090 9b c0 6a 3d 45 83 ac 3e 02 70 0f bf 52 57 ab bd
       0.05731259 0.336939 -0.56030285 -0.083662644
0000a0 13 b1 0b bb e4 d2 0f 3e 40 9e a0 be ba 10 17 3f
       -0.0021315261 0.14045292 -0.31370735 0.590099
0000b0 ae 0f a2 3e da 5d 06 bf 4d 26 dc 3e 77 56 f1 3d
       0.31652588 -0.52486956 0.4299797 0.1178407

cnn1.0.bias f4 [16]
000000 20 fc 2d be b6 18 cd be b0 cf 86 bb 6f 21 a5 be
       -0.1699071 -0.40057915 -0.0041141137 -0.3225207
000010 ca 0d dc 3e 69 93 a9 3e eb df b9 3e cd 29 9c 3c
       0.4297927 0.33120278 0.36303648 0.0190629
000020 c2 7f 84 bd 4b 1a a0 be 64 29 b5 be 34 3e b7 3e
       -0.0646968 -0.3127006 -0.3538314 0.35789645
000030 33 b5 4e be 5c c5 eb be 03 c7 ea 3e 97 37 83 3d
       -0.2018631 -0.4604901 0.4585496 0.06407087

cnn2.0.weight f4 [32, 16, 3]
000000 bc 6e 72 bd e4 53 0e 3d d9 4e 07 3e 9b 26 e8 bd
       -0.059187636 0.034747973 0.13213672 -0.113354884
000010 4f 06 c2 3b e0 e0 bc 3d c0 ed ae bd 76 f5 85 3d
       0.005921162 0.09222579 -0.08541441 0.065409586
000020 ed b5 0b be e0 20 04 be 7a c0 19 3d 90 65 9b bc
       -0.13643618 -0.12903166 0.037537076 -0.018969327
000030 b4 d8 48 3d ae f6 bd 3d 4a e0 ba bc 13 49 f6 bd
       0.04903479 0.09275566 -0.022812027 -0.120256566
000040 b8 da a6 bd ca d2 03 be a5 d2 4d bc 92 d7 7f bd
       -0.08147186 -0.12873378 -0.012562429 -0.062461443
000050 65 46 ab bd 33 da 2d bb 65 64 0b be e0 e3 36 3d
       -0.08363036 -0.0026527762 -0.13612516 0.044650912
000060 e1 31 d9 bd eb b8 05 bd 06 0c 03 be 2f 51 0f 3e
       -0.10605217 -0.032647055 -0.12797555 0.13995813
000070 80 10 d6 3c a4 e0 ea 3d a5 d0 0b be 1b 23 09 be
       0.026130915 0.11468628 -0.1365381 -0.13392298
000080 53 c0 b6 3d 56 3c f4 3d 95 41 95 bc 11 ff c4 3d
       0.08923402 0.11925571 -0.018219749 0.096189626
000090 af d8 b9 3d a2 09 a1 3d 57 5e 2b 3d 14 26 af bd
       0.09074532 0.078631654 0.041838016 -0.08552185
0000a0 2b f7 0a 3a cd d2 c5 bd 20 cc 13 3e 3d e0 12 be
       0.0005301113 -0.09659348 0.14433336 -0.14343353
0000b0 6c 76 e6 bd 60 0f 34 bd 19 9c e9 bd 40 c4 f7 bd
       -0.11253056 -0.043959975 -0.114067264 -0.120979786
0000c0 88 8a 65 bc d4 bb 02 3d 01 03 22 3e 40 30 69 bd
       -0.014010079 0.031917408 0.15821458 -0.05693078
0000d0 f1 c0 94 3d c5 a2 5a 3d 32 26 e6 3d c2 12 c1 3d
       0.07263363 0.053377885 0.11237754 0.09427406
0000e0 20 15 a3 3d 09 5b 88 3b be a6 97 3d e8 95 8c 3e
       0.07963014 0.004161243 0.074048504 0.2745812
0000f0 80 94 8b 3c e9 92 93 3d 51 36 a5 3c d3 7d 69 bd
       0.017038584 0.07205755 0.020167502 -0.05700476
000100 b5 59 cb 3d c4 a3 09 3d 21 6e b2 3d 3a 1d 7c bd
       0.0992922 0.033603445 0.08712412 -0.06155131
000110 ee 47 c9 bd 46 39 de bc 9e 30 5a 3d 77 c7 1b 3e
       -0.098281726 -0.02712692 0.05326902 0.15212809
000120 2a 9c 1a 3e f9 00 3f 3d 2c bf 91 3d 15 43 ca ba
       0.15098634 0.046631787 0.07116541 -0.0015431369
000130 96 7e d7 3d da 90 e5 3d 32 b1 b7 3d 73 ee 92 3d
       0.10522191 0.11209269 0.08969344 0.07174387
000140 b6 3b d5 bc d5 b5 45 bb 69 57 5d 3c 38 35 72 bd
       -0.026029449 -0.0030168195 0.01350961 -0.059132785
000150 7a c2 95 3d aa 42 fd bc 3f 82 c9 3a 69 2c e5 3d
       0.07312484 -0.030915577 0.0015373899 0.11190111
000160 1e 3a 4e 3d 08 17 c1 bd 80 9a ba bd e4 42 7e 3d
       0.050348394 -0.09428221 -0.091115 0.06207551
000170 1c bc 16 3e f4 a3 d0 3d 79 19 f2 bd 96 9d a6 3d
       0.14720196 0.101875216 -0.11821265 0.08135526
000180 0f fd 28 be ca 4e 05 3e 89 1d 72 3d bd 34 13 be
       -0.16502784 0.13018337 0.0591102 -0.14375587
000190 7a f6 66 bd be b0 d6 bd 5f 0d e4 bd d9 83 9f 3d
       -0.056387402 -0.1048293 -0.11135363 0.0778882
0001a0 23 19 b6 bd 26 54 e2 bd dd ad 82 3d e7 01 b8 3e
       -0.08891513 -0.11051206 0.06380818 0.3593895
0001b0 98 8a f5 3d 11 11 d6 3d 22 77 88 3c fd 4c ff bd
       0.11989325 0.10452474 0.01665837 -0.12465856
0001c0 fd f1 14 be 2e 9e 06 be 06 0d e4 3d bb cc 24 3d
       -0.14545436 -0.13146278 0.111352965 0.04023431
0001d0 f2 05 16 be 83 3a 7c bd 88 00 0b 3d 62 a1 48 3d
       -0.14650705 -0.06157924 0.033936054 0.04898203
0001e0 b3 93 2f 3b 92 cf 0f 3e 92 33 55 3e 1a 19 00 be
       0.0026790916 0.14044026 0.20820454 -0.12509575
0001f0 da 19 88 bd d5 85 df bd 1f b6 9a bd d5 db f7 bd
       -0.06645556 -0.10914198 -0.07554268 -0.121024765
000200 4e f2 f0 bd 1b 0f f1 3d ea 7d da bd 30 be 25 be
       -0.11764966 0.11770459 -0.106685475 -0.16185832
000210 63 11 f5 bd 4d 8b ac bc aa 84 f2 bd 11 a9 08 3e
       -0.11966207 -0.021062518 -0.1184171 0.13345744
000220 b9 a0 f4 bd 27 79 bb bd 37 1b 09 be a0 1f fe 3d
       -0.11944718 -0.09153967 -0.13389288 0.12408376
000230 69 70 15 3e 4a 61 d0 3d 72 dd 71 3d ec ed 60 3d
       0.14593662 0.101748064 0.059049077 0.0549144
000240 b3 4f 08 3c ca 6d 02 be 44 3e 4e bd 82 a4 95 3d
       0.008319783 -0.12737194 -0.05035235 0.07306768
000250 cd 04 ca bd 05 07 c0 3d 00 bf 85 bc 33 1f 11 be
       -0.09864197 0.09376339 -0.016326427 -0.14172058
000260 b0 b7 8c 3d 69 67 e8 bd 67 2c 30 3d 9a 95 de bd
       0.06870973 -0.11347849 0.043011095 -0.10868378
000270 bd 63 01 bb c7 e4 35 3d 07 e9 c3 bd 8d 1f 75 bc
       -0.0019743287 0.044407632 -0.09565931 -0.014961136
000280 70 58 10 bc e0 aa b8 3d 6d b6 a4 bd ee 5c 40 3d
       -0.008810148 0.09016967 -0.080426075 0.046963625
000290 ac c4 75 bd b0 73 9a 3d fc 96 c6 bd 17 0a c5 bd
       -0.060002014 0.07541597 -0.09696767 -0.09621065
0002a0 8c 2f 86 3d 84 b9 08 3d 91 b8 df 3b ec 6c e6 bd
       0.065520376 0.033380046 0.006827422 -0.11251244
0002b0 b3 6f e2 3d 3e 6c 55 3c 8a cf c8 3d 3d 63 1e bc
       0.11056461 0.013026295 0.0980521 -0.009667215
0002c0 7f 46 1e 3d de 59 02 3e d3 23 8c 3b 49 f9 76 bd
       0.03864145 0.12729594 0.0042767315 -0.06029633
0002d0 73 17 44 3d c0 f5 44 3d 6a f5 4e 3b 3a b2 84 3d
       0.047873925 0.048085928 0.0031579384 0.064793065
0002e0 8e 57 d0 bd f0 27 f4 3c 74 be e1 37 64 9e a1 3d
       -0.1017295 0.0298042 2.6910777e-05 0.07891539
0002f0 6a b0 e2 bd f0 1e ab bd 4f 32 0f be 3e 52 93 bd
       -0.110688046 -0.0835551 -0.13984035 -0.07193421
000300 31 00 4b bd f1 fc 3e 3d a9 df 8e 3d b5 f6 af bc
       -0.04956073 0.046627942 0.069762535 -0.021479944
000310 7d 35 db 3d 65 57 00 3e 80 37 db bd ff e3 02 3e
       0.107035615 0.12533338 -0.10703945 0.12782286
000320 48 a3 63 3c 2e 76 e4 3d b5 ca fc bd 3e 5a c9 3d
       0.01389391 0.111553535 -0.12343351 0.098316655
000330 4f de 1a bd 34 75 78 3d 56 5c e8 3d 49 85 9e bd
       -0.037809666 0.06065865 0.11345737 -0.07740266
000340 ad 1a d9 bd ff 90 eb bb b7 94 2a 3d 4b 7c c0 bd
       -0.10600791 -0.0071889157 0.04164573 -0.09398707
000350 e3 5a bb bd 23 90 82 3d 89 e2 76 3d 23 64 8f 3d
       -0.09148195 0.06375148 0.060274635 0.070015214
000360 c0 df 6a bd dc 04 9c bc cc 45 1c bd 6a 4a e4 3d
       -0.05734229 -0.019045286 -0.0381525 0.11147006
000370 29 dd 16 3d 40 25 d8 b9 48 4a db bd d3 bc 11 bd
       0.03683201 -0.00041226484 -0.107075274 -0.035580467
000380 84 9a 8d bd 83 87 10 3d 53 2c b6 bd 1f 4e e8 bc
       -0.06914237 0.035285484 -0.08895173 -0.028357564
000390 3c e3 0c 3e 58 e1 08 be 4e 9f 41 bd 01 a7 de 3d
       0.13758558 -0.13367212 -0.047271065 0.10871697
0003a0 c9 b2 d1 3d 0b c9 30 3c c1 bb 00 be 24 14 0c be
       0.10239179 0.01079012 -0.12571622 -0.13679558
0003b0 8f 6d 9a bd fd 82 bb bd a8 51 33 bd 82 93 76 3c
       -0.07540428 -0.091558434 -0.043779045 0.015049817
0003c0 ac 20 c4 bd 31 03 a7 bc 1c 36 de bc 61 f5 b7 bc
       -0.09576544 -0.020387264 -0.02712541 -0.022455873
0003d0 0d 41 a5 bc 9b ef 88 bd 94 86 05 3e ba c4 12 3c
       -0.02017262 -0.06686326 0.13039619 0.008958036
0003e0 d4 26 11 3e 5e b7 11 be 2f ca 79 3d 87 df 78 3d
       0.14174968 -0.14230105 0.060983833 0.060760047
0003f0 02 74 aa bd ef 9f 97 bd 18 15 10 3d 60 68 2e 3d
       -0.08322908 -0.07403552 0.035176367 0.04258001

cnn2.0.bias f4 [32]
000000 72 2a 81 bd 53 30 f9 bd f1 9b 38 bc a4 f3 7a 3c
       -0.06306924 -0.1216742 -0.011267648 0.0153168775
000010 7e 1f 9e bd 7b 33 cd 3d 0a 41 15 3d 82 bb f4 3c
       -0.077208504 0.10019585 0.03643898 0.029874567
000020 ff e2 22 3e ae ed aa bd 0c 13 ab bc ec 0d 8e bd
       0.15906905 -0.08346115 -0.020883106 -0.06936249
000030 05 47 07 be 3f f0 42 3c 2b d8 84 bc c0 43 ce bd
       -0.13210686 0.011898099 -0.016216358 -0.10071516
000040 ba a6 a1 bd 33 bd bf bd 4d db 7e 3d 57 3c 17 3e
       -0.07893129 -0.09362259 0.06222086 0.14769112
000050 b1 54 c6 bd dd 67 ba 3d 88 f6 e7 3d ca 56 15 3e
       -0.09684122 0.091018416 0.11326319 0.14583889
000060 36 52 8a bd 33 97 08 be 26 f0 45 bd fb 84 ba bc
       -0.06753962 -0.13338928 -0.048324727 -0.022768488
000070 8f 06 03 be 2d f7 cf 3d a0 46 ef bc 67 75 d3 bd
       -0.1279547 0.10154567 -0.029208481 -0.10325127

lstm1_1.weight_ih_l0 f4 [64, 32]
000000 d8 16 7b 3e c3 83 87 3e ff a4 2b bd 90 48 bf bc
       0.24520433 0.26467714 -0.0419054 -0.02335003
000010 dc d3 0f be 67 62 13 3e 7c aa 61 be d5 d4 4e 3e
       -0.14045662 0.14393006 -0.22037691 0.20198376
000020 b3 86 39 bd a7 d0 3d 3e d0 73 6d 3e 6e 70 0e be
       -0.045294475 0.18536626 0.2318871 -0.13910076
000030 8e b8 7c be e2 d9 b4 3d 00 9b 80 bb cc 8a a0 3e
       -0.24679777 0.0883062 -0.0039247274 0.31355894
000040 10 05 f0 bd ba a3 07 be 66 47 dc 3d 8d ea 28 3e
       -0.117197156 -0.1324605 0.10755806 0.16495724
000050 ca 48 8c 3d bf aa 18 3d ca 6a 46 be 53 48 02 3e
       0.06849821 0.03727221 -0.19376674 0.12722902
000060 26 c1 05 bd 2a c4 43 3e 71 f7 50 be 14 66 03 3d
       -0.032654904 0.191178 -0.20406891 0.03207977
000070 ee ab 08 be e8 d4 6a be 30 47 aa bc 94 40 cd bd
       -0.13346836 -0.2293278 -0.020785898 -0.10022083
000080 62 d6 37 be 30 4a e9 3d 7e bc 8d 3d 06 52 0b 3e
       -0.17952874 0.11391103 0.06920718 0.13605508
000090 17 b7 74 3e 04 e1 27 3e 56 7e 18 3e 2f 5c 4b 3e
       0.23897968 0.1639443 0.14891943 0.19859384
0000a0 de a0 b3 bc 13 f2 10 3e bc bf 1b 3e 94 c9 5f 3e
       -0.021927293 0.14154844 0.1520986 0.2185424
0000b0 20 bd f5 bd 6a e6 77 3e e4 20 f3 3d 2c 12 9c 3e
       -0.11998963 0.2420899 0.11871508 0.30482614
0000c0 48 3e 72 be 80 e5 96 3d e6 90 90 3e d2 7f 22 be
       -0.23656571 0.073679924 0.2823555 -0.15869072
0000d0 de 47 12 be 77 80 c9 bc 56 84 01 be 27 cd 12 3d
       -0.14285228 -0.02459739 -0.12648138 0.03584018
0000e0 c1 37 17 3c f2 b3 78 3e dd f4 84 3b ea f1 8f bd
       0.009229601 0.24287394 0.0040575103 -0.07028563
0000f0 04 c9 31 3e 2b aa 2a be ee da 74 3e de 45 91 3d
       0.17361838 -0.16666476 0.2391164 0.07093404
000100 48 73 a5 3d d6 75 e6 3d a6 d4 21 bc 08 d1 ce bd
       0.08078629 0.11252944 -0.0098773595 -0.10098463
000110 d7 da 7c be 34 53 df 3d c4 61 10 be f9 91 ff bd
       -0.24692856 0.109045416 -0.14099795 -0.12479014
000120 ad 6c 20 3e ef 47 a2 3e c0 3e 05 3c f0 37 fb bc
       0.15666457 0.31695506 0.008132637 -0.030666322
000130 ec 22 26 be a0 20 b1 3e 5c 6f 6a be ad 67 c8 bc
       -0.16224259 0.34595203 -0.22894043 -0.024463499
000140 a4 14 bd bd 52 5b 72 3e fc 1d 9d 3e 78 85 97 3e
       -0.092324525 0.23667648 0.3068694 0.29594016
000150 cc 0b 92 3e a1 90 4f bd 2c 34 83 3d 98 b3 e0 3d
       0.28524625 -0.05067504 0.06406435 0.10971755
000160 94 d1 3d 3e 80 bf 03 3e 06 39 1e 3e 90 cc b4 3d
       0.18536979 0.1286602 0.1545144 0.0882808
000170 86 3a 13 3e 43 69 43 bd f4 3d 11 be a6 ad 8c 3d
       0.14377794 -0.047707807 -0.1418379 0.06869058
000180 50 18 4e 3e 63 70 06 3c 0f 09 ce 3d 78 22 02 be
       0.20126462 0.008205506 0.100603215 -0.12708461
000190 52 7e 0b be b1 70 38 bd f0 8b 17 bd cf d6 b1 3d
       -0.13622406 -0.045029346 -0.03699869 0.086835496
0001a0 e8 5d 2c bd 9d 57 ae 3d f6 77 51 be 12 ab 54 3e
       -0.042081743 0.08512805 -0.20455918 0.20768383
0001b0 92 13 1c be af 56 9e 3d fc fa a7 bd 93 f9 15 be
       -0.1524184 0.07731377 -0.08202168 -0.14645986
0001c0 64 ed dc 3d 9c 51 0a 3e 63 db 64 bd 94 34 44 3e
       0.10787466 0.13507694 -0.055873286 0.19160682
0001d0 d8 14 5d 3d 33 c9 14 be 62 0c 7d be b1 04 5f 3d
       0.053974956 -0.14529876 -0.24711755 0.054447833
0001e0 34 4b 49 3e bc 12 4d 3e ee ca f2 3d db 77 3d 3e
       0.19657594 0.20026678 0.11855112 0.18502752
0001f0 98 2d cf bd 17 79 30 bd c8 c2 da bd 48 a4 99 3a
       -0.10116118 -0.04308423 -0.10681683 0.0011721933
000200 28 13 20 3d a1 de 71 3e 41 ff 7b bc 20 91 37 bd
       0.03908077 0.23620082 -0.0153806815 -0.044816136
000210 2b 0e 1c bd cf 9a b7 3b e2 2e 24 3e b1 0a 06 bc
       -0.03809945 0.0056031714 0.1603351 -0.00818126
000220 c2 48 c5 bc a6 83 8a 3e 3c 37 ac bd 64 51 8c bd
       -0.024082545 0.27053565 -0.084089726 -0.068514615
000230 9c 5c ab 3d 63 3a 72 3c 28 71 f1 3d 91 cd 99 3e
       0.08367273 0.014784428 0.11789161 0.30039647
000240 c8 1d 0f 3d a0 a5 c4 3d aa 1c f3 3c 8a 23 66 be
       0.03494051 0.09601903 0.029676754 -0.22474495
000250 4c 56 14 3e 5b 2a 14 be aa d9 09 3e b2 98 59 be
       0.14486045 -0.14469282 0.13461939 -0.21249655
000260 33 e8 0b be ee df 03 be fc b6 84 3d c4 57 aa 3d
       -0.13662796 -0.12878391 0.06480214 0.08317521
000270 3c 42 5f be 5c 96 45 3e a0 b5 bd bc b5 dd 18 3d
       -0.2180261 0.19295639 -0.023157895 0.03732081
000280 f8 20 c0 bd 9c ef cb bd 34 49 0e 3e b0 3d 8e 3d
       -0.09381288 -0.09957811 0.13895112 0.0694536
000290 9b f7 f1 ba e0 98 6d 3e 34 e3 3a 3e fd 5a d7 3d
       -0.0018460633 0.23202848 0.18250734 0.105154015
0002a0 0e b5 e2 bd 69 f9 38 bd a4 e6 98 bd 7e e4 5f 3e
       -0.1106969 -0.04515973 -0.07465866 0.21864507
0002b0 44 98 7e 3e 9a f6 a9 3e 48 8e e4 3d 6a 20 ec 3d
       0.24862772 0.33195955 0.111599505 0.1152962
0002c0 80 b1 c0 bc 06 8d 48 be 1d 96 4b 3d 70 1e 36 3e
       -0.023522139 -0.19585046 0.049703706 0.17785048
0002d0 a4 fd 38 3d e5 12 94 3e 80 79 01 be 27 8b 82 3d
       0.045163766 0.28920665 -0.12644005 0.063741975
0002e0 ee f4 9c 3e d4 fc 0d be 3c 4a ae 3d c1 be 9c bd
       0.30655617 -0.13865978 0.08510253 -0.07653571
0002f0 f0 4b ed 3c e7 4d 51 be 30 45 5a 3d f6 5a 5c 3e
       0.028966874 -0.20439874 0.05328864 0.21519074
000300 d8 c7 c4 3d d8 fd e9 bd a3 46 46 bc 78 9e ea 3d
       0.0960843 -0.1142537 -0.012101802 0.11456007
000310 65 0c 0e be 48 12 90 bd 28 49 5d bd e8 50 2e 3e
       -0.13871916 -0.07034737 -0.054024845 0.17023051
000320 d5 26 57 3e cd a3 1c be f4 fa 61 be f0 14 60 3e
       0.21010907 -0.1529686 -0.22068387 0.21882987
000330 80 64 43 bc ce 62 87 3e 58 88 07 bd 83 26 c8 3d
       -0.011925817 0.2644257 -0.033089012 0.097729705
000340 52 7c 1b be 58 fb 01 bd 91 a5 29 bc 58 75 46 3e
       -0.15184143 -0.03173384 -0.0103544155 0.193807
000350 dc 9b 65 3e c7 5f 9f 3d f2 25 07 be 0d e0 2f be
       0.22422737 0.0778194 -0.13198069 -0.17175312
000360 73 6f 15 be ee 01 06 3e a7 c1 79 3e 5a 15 ef bd
       -0.14593296 0.13086674 0.24390279 -0.11673994
000370 90 b3 05 bd cd 78 43 3e 1e 92 44 be 52 e4 06 3e
       -0.032641947 0.1908905 -0.19196364 0.13173035
000380 d4 a2 64 be 08 93 d4 3d ef 7d 54 3e 08 ac 3e 3d
       -0.22327739 0.103796065 0.20751165 0.04655078
000390 1e 23 52 3e d3 37 45 3d 94 f2 18 be 16 56 18 bc
       0.20521209 0.04814894 -0.14936286 -0.009297868
0003a0 86 7f 32 be 69 de 87 3d d6 fc 4c 3e f0 b9 aa bc
       -0.17431459 0.06634218 0.20018324 -0.020840615
0003b0 2c 29 21 3e 37 f8 42 bd 90 4e 5a 3e fb 6b ba 3d
       0.15738362 -0.047599997 0.21319032 0.09102627
0003c0 88 44 6b bd 90 18 21 3e ea da f7 3d 61 62 79 3c
       -0.057438403 0.15732026 0.121023014 0.015221209
0003d0 32 7c 74 3e 7d bd a2 3d f4 71 45 3e 6c c3 d6 bc
       0.23875502 0.07946298 0.19281751 -0.026216231
0003e0 74 c6 83 3e 1c e6 a3 3d 05 26 13 be 19 08 c1 3d
       0.25737345 0.08002874 -0.14369972 0.09425373
0003f0 c0 e4 66 3e 88 45 ad bd 34 29 02 3e c2 a1 84 3e
       0.22548199 -0.08460528 0.1271103 0.2590466

lstm1_1.weight_hh_l0 f4 [64, 16]
000000 1e 7f 21 3e 14 b9 07 3e 5d 8f bd 3c d1 ec 84 bd
       0.15771148 0.13254195 0.02313965 -0.06490482
000010 9d a9 3c be 65 8c 22 3e b7 02 b8 3d e2 af 6c bd
       -0.18424077 0.15873869 0.08984893 -0.057784922
000020 9b 6b 67 3e e6 23 c0 bd 74 33 a5 bc 2e 50 4d 3e
       0.22599642 -0.09381847 -0.020166136 0.20050117
000030 c6 16 61 3e 7f 80 3a bd b2 4a 30 3e 9d 42 54 be
       0.21981344 -0.0455327 0.17215994 -0.20728536
000040 b2 6c 4c be 82 84 51 3e ed b6 cb bd c0 55 62 3e
       -0.19963339 0.20460704 -0.09947 0.22103024
000050 74 d7 59 3e ba 01 23 bd d9 c4 68 3e aa dd bc 3d
       0.21273595 -0.03979657 0.22731341 0.092219666
000060 3a 1d 16 be ea 3b c2 3d c0 38 da bd 02 a2 b3 bd
       -0.14659587 0.09484084 -0.106553555 -0.08771135
000070 e9 37 53 3e 5b 98 33 be 5d a8 64 bd 57 00 90 3d
       0.20626797 -0.17538588 -0.055824626 0.07031315
000080 68 88 8a 3e 7e 48 03 be b9 34 03 be ab b3 0d be
       0.27057195 -0.12820622 -0.12813081 -0.13838069
000090 b5 52 88 be 18 28 b7 3e b0 8f e7 bd 72 d8 57 3e
       -0.266256 0.35772777 -0.11306703 0.21078661
0000a0 e2 05 5b bd b3 d6 ed bd d1 fd fa bc 16 1d 82 3e
       -0.053472407 -0.11613216 -0.030638607 0.25412816
0000b0 49 af 9c 3c e8 63 0d be d4 85 b2 be 25 84 89 3e
       0.019126551 -0.13807642 -0.34867728 0.2685863
0000c0 fe 3d 03 3e 98 81 58 3d df ae e1 be 98 80 88 3e
       0.12816617 0.052857965 -0.4407873 0.2666061
0000d0 aa 6b d2 3d 76 5b 3b 3e 41 b7 6c be 8a 85 fd 3d
       0.102744415 0.18296608 -0.23116781 0.12378986
0000e0 bb 71 8c 3c e1 a9 ac 3c 05 95 3e bc 94 d2 88 3b
       0.017144075 0.021077098 -0.011632209 0.0041754935
0000f0 4d 31 81 3d 3c 98 b6 3d 29 44 a0 3c 9d 11 b7 bd
       0.063082315 0.08915755 0.019563751 -0.08938906
000100 1a fd 40 3e 26 ab a8 3e eb 80 92 3e 75 0b 08 3e
       0.1884655 0.32943076 0.28613982 0.1328562
000110 ed c2 4b bd d9 89 da 3d 4e aa 72 3e 32 2b 14 bb
       -0.049746443 0.106708236 0.23697779 -0.0022608754
000120 bc 7e 8b 3d f0 f7 8d 3d 73 e1 27 3b dc 07 a0 bd
       0.06811282 0.06932056 0.0025616556 -0.07813999
000130 e6 ce 50 be f2 af 95 bd e5 4a a0 be 34 18 1d 3e
       -0.20391425 -0.073089495 -0.3130714 0.15341264
000140 cd e8 ce 3d 46 8c 87 3d 28 32 9a bd 81 bb da bd
       0.10102997 0.06618552 -0.07529098 -0.10680295
000150 7e 6c e7 bc af 85 57 3e 72 8b ba ba d5 26 bb 3e
       -0.028249975 0.2104709 -0.0014232232 0.36553064
000160 bb 24 e8 3d 4a 63 3b be d8 ed 78 3d 3b 15 2c 3e
       0.11335131 -0.18299595 0.0607737 0.16804974
000170 c4 ef e6 bd 09 76 c2 3d 7c bc 90 3d df b3 59 3d
       -0.112762004 0.0949517 0.070672005 0.053150054
000180 56 82 43 3e 30 39 dd 3c a8 1c 6f 3d bf f0 b0 bd
       0.19092688 0.027004808 0.058376938 -0.08639669
000190 69 59 01 be 98 5c 2a be ad b2 2b be 9a e6 b1 bd
       -0.12631764 -0.16636884 -0.16767378 -0.08686562
0001a0 97 38 44 bd 09 86 c6 bc ce c0 a2 bd a5 48 17 ba
       -0.04790553 -0.024233835 -0.07946931 -0.0005771018
0001b0 2e a5 5f bb 35 b4 bc 3d 2f 81 1b be 4f 22 45 3c
       -0.0034125554 0.09214059 -0.15185998 0.012032106
0001c0 aa e0 fd bb 58 93 09 3e 3d c9 ea 3d 2e 94 a1 be
       -0.0077477293 0.13435113 0.114641644 -0.31558365
0001d0 30 cf fa 3d 7b b5 aa bd bf 5b ee 3d 2f 88 1a 3e
       0.12246549 -0.08335396 0.11638593 0.15091012
0001e0 a2 20 08 be 34 6f c9 bd 76 29 98 3e 79 ae ef 3d
       -0.13293698 -0.098356634 0.29719132 0.117032
0001f0 98 67 3c 3e 27 6a 82 be fb 28 1e be 95 bc 0e 3e
       0.18398893 -0.25471613 -0.1544532 0.13939126
000200 89 8b ca 3c 87 da ac bc 53 3c d9 be 4e 3c 03 3e
       0.024724739 -0.021100296 -0.42428836 0.12815973
000210 2e 6e e6 bd 9c f8 af bd 1c a6 f5 bd b0 21 3e 3e
       -0.11251484 -0.0859234 -0.119945735 0.18567538
000220 ad 69 22 be fb 37 5c be 08 12 86 3e 32 fb 2c 3d
       -0.15860625 -0.2150573 0.26185632 0.042231746
000230 30 86 5d 3e 8e f9 2b 3d 8e 76 0b 3e 92 35 75 bd
       0.2163322 0.04198604 0.13619444 -0.05986554
000240 5d 4e e3 bd 50 2d 32 bd 4b 08 3f 3e fc c2 a3 be
       -0.11098931 -0.043500245 0.18655507 -0.319847
000250 41 93 7d be 60 c0 d9 3d 9e 0d 03 3d 1e 30 2b be
       -0.24763204 0.10632396 0.03199541 -0.16717574
000260 5c 41 1f bc 8b 17 1b bd f3 ae ca 3d d5 46 0d 3e
       -0.009720173 -0.03786425 0.0989665 0.13796552
000270 71 30 c4 3d 96 30 ca bc ed e0 df bd ed 4e 84 bd
       0.09579552 -0.02468137 -0.10931573 -0.064603664
000280 c3 62 64 3e f7 be 48 3e ad 99 4d bd 1e 09 31 3e
       0.223033 0.19604097 -0.050195385 0.17288634
000290 b3 2f 44 3e c9 bc 06 3d 82 21 e9 3d 87 03 be bc
       0.19158821 0.032894883 0.11383344 -0.023195041
0002a0 09 7c 68 be e0 b6 f1 3d b5 c1 4a 3e 93 ac b6 bd
       -0.22703566 0.11802459 0.19800456 -0.08919635
0002b0 69 e9 38 be 07 73 d5 3d a0 f7 29 be a4 c7 a5 bd
       -0.18057789 0.1042233 -0.16598368 -0.08094719
0002c0 f7 a6 3e be 8f de 5a bb e3 1e ac be 0f 3f 3e 3e
       -0.1861838 -0.0033396815 -0.33617315 0.18578742
0002d0 4f 6c 36 3e 40 9c 0c be c2 9e ca 3d f1 3a 65 be
       0.17814754 -0.1373148 0.09893562 -0.22385766
0002e0 61 6f 63 be 0e e9 6b be 92 43 4f 3e 90 b1 d2 bd
       -0.22210456 -0.23038122 0.2024062 -0.102877736
0002f0 66 8f 05 3e 65 be fa 3d 5d d2 59 bd b3 06 3a bd
       0.13042983 0.12243346 -0.053179134 -0.045416545
000300 05 29 88 3e 1a 59 00 be 25 23 11 3e d6 84 d4 3d
       0.26593795 -0.1253399 0.14173563 0.10376899
000310 38 91 29 be b2 cf 03 3e 62 84 18 3e c0 b2 b3 3e
       -0.16559303 0.12872198 0.1489425 0.35097313
000320 20 dd fb bd 31 32 7d 3b b6 ba 32 3e c5 d8 8a 3e
       -0.122980356 0.0038634653 0.17454037 0.27118507
000330 b4 6c 28 3e c0 52 6a 3c 26 98 15 bd f2 89 21 3e
       0.16447717 0.014301956 -0.036522053 0.15775278
000340 51 e9 3e bd e7 fe 9b 3d 98 47 be 3d cc 11 7a be
       -0.046609227 0.07616978 0.09290999 -0.24420851
000350 a6 1c be 3c f8 a1 58 be 09 f2 fa 3d 55 82 0c bb
       0.02320702 -0.21155536 0.12253196 -0.0021439989
000360 1d d5 05 3e 79 fc 86 be 8c 09 86 3e b9 7a 4c 3e
       0.13069578 -0.26364496 0.2617916 0.1996869
000370 eb 80 06 3e 48 e0 6e 3d 78 7f 28 bc 9e 39 5e be
       0.13135116 0.05831936 -0.010284297 -0.21701667
000380 8c f9 84 bc ca 23 9c 3d 7d 0a 4a bd ac e3 f4 bd
       -0.016232274 0.07624014 -0.04932641 -0.119574875
000390 9b e0 57 be f9 b7 16 3d ad e4 0d 3e fc 12 21 be
       -0.21081774 0.036796544 0.13856764 -0.15729898
0003a0 5b 89 00 3e e6 d4 0e be 0f c8 f6 3d ea 72 49 3c
       0.12552397 -0.13948402 0.12049877 0.012295464
0003b0 ea 0d a8 3d 9c cf 27 3e 95 97 0d be cf 63 f5 3c
       0.08205779 0.1638779 -0.13827355 0.029954819
0003c0 55 84 35 be f4 e1 94 bd 5a 3a 43 be be 41 1d 3d
       -0.17726262 -0.0726966 -0.19065228 0.038392775
0003d0 f8 4f 0a bd 2b b5 16 be 38 d6 da 3c 87 02 97 bd
       -0.03376767 -0.14717548 0.026713476 -0.07373529
0003e0 9b 71 35 be 23 82 b7 3d d1 8c 1e be 34 a1 28 3d
       -0.17719118 0.089603685 -0.15483405 0.04116936
0003f0 fb 22 7a bd 19 5d b9 bc a1 74 1d 3b ac 7e 67 3e
       -0.061068516 -0.0226274 0.0024025815 0.22606915

lstm1_1.bias_ih_l0 f4 [64]
000000 66 88 bd bc 4a 28 96 3e 67 91 a8 3d fd e1 ee bd
       -0.023136329 0.29327613 0.08230858 -0.116641976
000010 65 e2 b5 3c ae 25 55 be 05 21 06 be 54 ff 8d 3e
       0.02220268 -0.20815155 -0.13098533 0.27733862
000020 63 d3 6a 3e f5 58 4f be 78 0b 8e 3d 38 1e 08 3e
       0.229322 -0.20248778 0.06935781 0.13292778
000030 11 52 07 bd 2e ee 70 3d 13 62 ff bc 47 af fc bc
       -0.03303725 0.058820896 -0.031174695 -0.030845298
000040 e7 20 ca bd bc 51 88 be 0d 2e 1c be 67 d0 91 bc
       -0.09869557 -0.26624858 -0.15251942 -0.01779957
000050 0a a2 3f 3b 33 bd 6d bd a0 55 62 bc 48 d4 04 3e
       0.002924087 -0.058041763 -0.01381436 0.12971604
000060 40 4f 96 3e 93 ba 5f 3e 08 a3 2d bd 52 9e 5d bc
       0.29357338 0.21848516 -0.042391807 -0.013526516
000070 09 32 31 bd 80 e3 be 3d c8 c3 0a bd d2 93 47 3e
       -0.043260608 0.09320736 -0.033878118 0.19489983
000080 87 f3 93 bc f2 f1 e9 3d 38 09 c5 3d 2c 85 e0 3d
       -0.018060459 0.114231005 0.09620899 0.109629005
000090 31 3e 5d be f4 dd cf bd a7 52 3a 3e ad 3d d1 bd
       -0.21605755 -0.10149756 0.18195592 -0.10216842
0000a0 78 4c 0d bc 28 33 62 be e9 46 25 bc 63 a5 12 3e
       -0.008624189 -0.22089827 -0.010087707 0.14320903
0000b0 39 42 31 3e f8 88 cc bd 73 c7 50 bd 10 62 9a bb
       0.17310418 -0.09987062 -0.05097146 -0.004711397
0000c0 bc 6c 41 be 0e 5a f2 bd e2 96 8a 3e e8 6a 52 3d
       -0.18889135 -0.11833583 0.2706824 0.051371485
0000d0 2f d9 da bd 23 b0 53 3e 06 50 f5 bd ef 75 7f 3d
       -0.10685956 0.2067266 -0.11978154 0.06236833
0000e0 36 3a 93 bd a2 64 7d be 07 8b 09 3e 75 59 94 bc
       -0.07188837 -0.2474542 0.13431941 -0.018109063
0000f0 32 b6 56 3e d0 53 cd 3c f5 a4 0e bd f3 5a 80 3e
       0.2096794 0.025064379 -0.034825284 0.2506939

lstm1_1.bias_hh_l0 f4 [64]
000000 a5 54 8e 3e b2 01 6a 3e ae af cd 3d 9a 1c da 3d
       0.27798954 0.22852209 0.10043274 0.106499866
000010 42 f5 69 bd ce 97 91 3d bf 47 07 be 1f 13 10 3d
       -0.05711866 0.071090326 -0.13210963 0.035174485
000020 59 2e 6d 3e 68 13 b1 3d de ab 8b bd 30 60 34 3d
       0.23162211 0.086462796 -0.068198904 0.044037044
000030 d8 c3 59 bd 1e ba 40 be c3 2a 3e 3e d5 7a 34 bb
       -0.053165287 -0.18820998 0.18571 -0.0027539034
000040 1f 05 66 be c9 40 82 be dd 55 15 be 0c 5a 9b bd
       -0.22462891 -0.25440052 -0.14583535 -0.075855345
000050 0e d5 03 bd 93 b5 08 3e 21 5e cc 3d 06 9d 00 3e
       -0.032185607 0.13350515 0.09978891 0.125599
000060 58 74 01 be 9e 3d 68 3e 7b 22 11 be ce 2c 19 3b
       -0.12642038 0.22679755 -0.1417331 0.0023372653
000070 07 5a 0c 3e 73 8a 74 be a1 e4 e6 bd 12 41 3b be
       0.13706218 -0.23880939 -0.11274076 -0.18286541
000080 87 ce c4 3d f9 5f 73 be f7 94 36 be 16 e3 b6 3d
       0.096097045 -0.2376708 -0.17830263 0.08930032
000090 35 43 ad ba a8 a2 d0 3c 1b cb a0 3c e5 46 32 3d
       -0.0013218882 0.025468186 0.019628098 0.04352464
0000a0 8c e3 52 3d 20 ac 00 3e aa dc 7d 3e 01 b2 25 3e
       0.051486537 0.1256566 0.24791208 0.16181184
0000b0 e5 51 59 3e 3d fe 4e 3e 2e 2c 20 bc a7 88 48 3e
       0.21222647 0.20214172 -0.009776158 0.19583379
0000c0 8c 53 2b be ee 02 0d 3e ba d7 65 3e 21 8d 9c 3d
       -0.1673109 0.13770649 0.22445574 0.07644106
0000d0 2b 58 03 be 0b 0f b7 3d 66 23 0a be 13 74 8f 3e
       -0.12826602 0.08938416 -0.13490066 0.28018245
0000e0 5c b9 16 be b5 e9 db 3d 84 ee a1 3d 90 16 c0 3d
       -0.14719146 0.107379355 0.07906821 0.093793035
0000f0 96 90 a3 3d 6c ad 13 be 4e ed 6a 3e b2 93 68 be
       0.07986562 -0.14421624 0.22942087 -0.22712591

lstm1_1.weight_ih_l0_reverse f4 [64, 32]
000000 04 be 75 3e 8f 58 a4 3e 8e d5 95 3e 50 41 34 be
       0.23998266 0.32098815 0.29264492 -0.1760304
000010 2f d3 67 bd 82 d4 8a bc 70 b9 e4 bc b3 63 07 be
       -0.056597885 -0.016947035 -0.027920455 -0.13221626
000020 3f 15 19 3e 3c 9f 0c 3d 46 9d 22 3e 20 19 45 bc
       0.14949511 0.034331545 0.15880308 -0.012029916
000030 a0 01 61 3d 55 eb 94 3e 40 4a 43 3c f7 ea 23 be
       0.05493319 0.29085794 0.011919558 -0.160076
000040 7c 79 f6 bd 08 09 35 bd 2c d5 ec bc 1a c9 a5 bd
       -0.1203489 -0.044198066 -0.028910242 -0.08094998
000050 11 42 77 3d 52 c9 06 bd 54 cc 0e be cb c9 7f 3e
       0.06036574 -0.032906838 -0.13945132 0.24979322
000060 c0 65 e2 3d 04 49 55 3e 98 a2 b4 3d 3a 8e 6b 3e
       0.110545635 0.20828635 0.08820075 0.23003474
000070 da 31 24 3e 1a fc a6 3d c4 92 57 be 40 f3 06 be
       0.16034642 0.08153553 -0.2105208 -0.1317873
000080 b4 3a 2b be a8 fe 4f 3e 3b 0c 27 3e 80 7d 61 3c
       -0.16721612 0.20311987 0.1631326 0.013762832
000090 0a 41 9b bd f9 bf 0c 3e 10 53 81 bc fb 6c 2c be
       -0.075807646 0.13745107 -0.015786678 -0.16838448
0000a0 e6 15 07 be b9 b8 1a 3d e4 8f ad 3d e6 c3 14 be
       -0.13191947 0.03777382 0.084747106 -0.14527854
0000b0 a8 50 1e 3d c0 0a 8a 3d 80 eb d7 bd b4 06 66 be
       0.03865114 0.06740332 -0.10542965 -0.22463495
0000c0 d8 1e 5e 3d bc 7f 20 3e e5 ca 4d 3d 87 a0 d2 bd
       0.054228634 0.15673727 0.050242323 -0.102845244
0000d0 07 b3 28 be 71 28 7f be 80 7b f0 bb fa cc 61 be
       -0.16474544 -0.24917771 -0.007338941 -0.22050849
0000e0 45 ea 1d be 28 26 67 be df 75 76 3e f5 4d 08 3e
       -0.15421398 -0.22573149 0.24068402 0.13310988
0000f0 e8 3c 3c bd f9 11 a3 3c 44 47 b1 bd ba 2d 94 3d
       -0.045956522 0.019906031 -0.08656171 0.07235284
000100 d0 21 6c 3d d3 03 50 3e 51 f0 8f 3e 40 ba fa bc
       0.057649434 0.20313959 0.28113034 -0.030606389
000110 60 d9 a3 3d cc c6 b4 3d 70 2b 3b 3e 82 44 4b be
       0.08000445 0.0882698 0.18278289 -0.19850352
000120 05 26 3f be d6 55 7b 3e 88 5b 63 3d 94 f1 0c 3e
       -0.18666847 0.24544463 0.055507213 0.1376403
000130 12 c7 3c be af aa af 3e dc 3b fd bd ab ec 84 bb
       -0.18435314 0.3430991 -0.12364933 -0.0040565333
000140 70 7a 5c bd 02 bd 5e be 7c b8 65 3e 6b 3a 10 3e
       -0.053827703 -0.21751788 0.22433656 0.14084785
000150 3e 12 bb 3e 8e 6d 0d 3e 88 1c b3 bd 69 81 85 3e
       0.36537355 0.13811323 -0.08745676 0.26075295
000160 ef 9e 4c be 34 1c d0 bd d9 4d 28 3e 74 6a 7e bb
       -0.19982503 -0.10161629 0.16435947 -0.0038820775
000170 60 9b 6f bc 94 99 a2 3d cc c9 48 3e 8e fa 05 3d
       -0.014624447 0.07939449 0.1960823 0.03270965
000180 f8 8e 7c bd e1 34 ad 3e 9d 71 4a 3d 78 4d 94 3d
       -0.061659783 0.33829406 0.049424756 0.072413385
000190 62 13 61 be a2 c1 d3 bd f2 f2 2b 3e 9a 4c 09 3e
       -0.2198005 -0.10339667 0.16791895 0.13408127
0001a0 c1 22 fe bd 54 56 24 bb 98 f5 66 3e 80 ac c7 3b
       -0.124089725 -0.002507587 0.22554624 0.0060935616
0001b0 e0 f3 14 3d 96 e1 15 3d 9a c3 66 be af e7 b4 3e
       0.03636539 0.03659209 -0.22535554 0.3533301
0001c0 a8 04 ea 3d 18 e9 02 bd f1 1a bf 3c 4b 84 aa bd
       0.11426669 -0.031960577 0.023328276 -0.08326014
0001d0 6d ab 05 bd 86 72 53 3e 72 be 13 3e 45 fd 98 3d
       -0.032634187 0.20649156 0.14428118 0.07470182
0001e0 1f c4 75 bd 20 c3 2b 3c 6b 56 cb bc ee be 95 3e
       -0.06000149 0.010483533 -0.02482148 0.2924723
0001f0 c8 c8 1e bd af dd 81 3d 88 24 39 3e 06 19 0b 3e
       -0.0387657 0.06341111 0.18080342 0.13583764
000200 c2 b7 3e be fe fe 94 3c cf 12 09 b9 b6 bf 54 be
       -0.18624786 0.018187996 -0.00013072345 -0.20776257
000210 65 69 5a bc 42 3d 73 3e 70 41 be 3d cb a3 b5 bd
       -0.013330792 0.23753837 0.09289825 -0.08869132
000220 2c 16 92 be d5 1f 61 3e f0 a7 b0 3c 24 37 b1 3d
       -0.2853254 0.21984799 0.021564454 0.08653095
000230 5c fd e2 bd 17 f9 e5 bd 56 e7 4a be d5 87 18 3e
       -0.11083481 -0.11229151 -0.1981481 0.14895566
000240 cc 60 a8 bd 84 6b c5 3d d8 ce a1 3d 1e 5b d2 bd
       -0.082215875 0.096396476 0.079007804 -0.102712855
000250 2e 7b d5 bb 66 11 07 3e 64 bd 33 3e cd 74 72 bd
       -0.0065149283 0.1319023 0.17552716 -0.05919342
000260 a3 47 83 bd 44 7d ea bd 93 b9 7d be 96 84 e1 bd
       -0.06410148 -0.11449674 -0.24777822 -0.11011617
000270 f0 3a 1c 3e 80 22 e4 3c 54 9d d1 3d 1a 4f 2e 3d
       0.15256858 0.027848482 0.10235086 0.042555906
000280 12 bc 49 3e 30 e3 99 be 4a 62 52 bd d4 1a 63 3e
       0.1970065 -0.30056143 -0.051363267 0.22178203
000290 c7 cb 08 bc e7 0e 51 3e 6a a5 5b 3e 15 c9 28 bd
       -0.008349366 0.20415841 0.21449819 -0.04120739
0002a0 6b 54 85 3e e2 af 66 bc 60 eb ad 3c 08 6e 51 3e
       0.26040968 -0.01408002 0.0212304 0.2045213
0002b0 68 2e 4f bd 96 1c 9b be 2c 7c d4 bd cc 03 b6 be
       -0.050581366 -0.30295247 -0.103752464 -0.35549772
0002c0 00 5b 2b be a0 95 3b bd 10 3a 5f bd 93 0b ee 3d
       -0.16733932 -0.04579699 -0.054498732 0.11623301
0002d0 09 d0 b1 bd 82 bb b6 3d a8 54 d0 bd b4 b7 3a be
       -0.08682258 0.08922483 -0.10172397 -0.1823414
0002e0 5a 19 cd bd 0a 43 1c 3e 3e e3 4c be e7 d7 4c 3d
       -0.10014601 0.15259948 -0.20008561 0.050010588
0002f0 18 ae 55 bd cb 7c 73 be 1c 17 8c bd 3c 8d 31 3d
       -0.052167982 -0.23778073 -0.06840345 0.043347582
000300 f0 71 48 be 77 53 75 3e e5 a9 82 bd 2c fa d7 3d
       -0.19574714 0.2395762 -0.06380061 0.105457634
000310 f4 18 b4 bd 54 6f 4d be e0 c7 37 bc 45 22 1e be
       -0.08793822 -0.20062 -0.0112170875 -0.1544276
000320 2e 24 52 3e c1 f6 6b bd de f0 45 3e e0 a7 a1 bc
       0.20521614 -0.05760837 0.19330165 -0.01973337
000330 c8 ad 90 bd ab 0e 15 bd a0 9d 4b be 2c d7 a5 3e
       -0.07064396 -0.03639094 -0.19884348 0.32390726
000340 e8 34 4c 3d 5c da ba 3d 4c ca 6e 3e 4e 48 80 3e
       0.049855143 0.0912368 0.23319358 0.25055164
000350 4a 0e 3e 3e 27 78 3e 3d ba db 10 3e 93 55 00 3e
       0.18560138 0.046501305 0.14146319 0.12532644
000360 d9 0c a7 bd 7c 67 c8 3d 3b 5c 30 3e 15 a3 ea 3c
       -0.08156747 0.09785363 0.17222683 0.028642217
000370 00 39 56 3d 74 cd 5a 3e a0 a5 60 3c ba ae 23 3e
       0.052300453 0.21367437 0.013711363 0.15984622
000380 26 59 0f 3e d6 4e e0 3c aa 46 9f 3e 78 98 2e be
       0.13998851 0.027381342 0.311086 -0.1705035
000390 cf aa de bd cf 9c 52 3e cc 68 6d be e3 8c a4 bc
       -0.10872423 0.2056763 -0.23184508 -0.020086711
0003a0 ad 6d eb bd ac b6 a6 3e a8 ac 68 3e 5c 39 ae bd
       -0.11495528 0.32561243 0.22722113 -0.08507034
0003b0 4c 19 48 be bf 44 23 3e 00 46 2a bb 6e f4 9e bd
       -0.195409 0.15944193 -0.0025981665 -0.07761465
0003c0 80 13 54 be 58 4f 3f 3d 23 f4 8b 3e bb 8d 1c 3e
       -0.20710564 0.046706527 0.273347 0.15288441
0003d0 85 d0 2e 3e a8 4b ae bd 74 7b 6f 3e fe 00 85 3e
       0.17071731 -0.08510524 0.23386937 0.2597732
0003e0 94 3b 91 3b a0 42 89 3c 15 8d 51 3d 3a 25 1c be
       0.004432151 0.016755402 0.051159937 -0.15248576
0003f0 e0 c6 01 3e 1d f0 a5 bd 0c 50 9a bd 07 26 44 3d
       0.12673521 -0.081024386 -0.07534799 0.04788783

lstm1_1.weight_hh_l0_reverse f4 [64, 16]
000000 5c 12 7b 3e 23 e4 36 be 12 6a f1 bb d0 45 39 be
       0.24518722 -0.17860465 -0.007367381 -0.18093038
000010 88 46 4d be 6f 15 42 3e 98 10 02 3e a5 5c ef 3c
       -0.20046437 0.18953489 0.12701643 0.029218981
000020 ad 16 20 be 14 e2 29 be a7 e7 5b 3d a7 c4 05 be
       -0.1563365 -0.16590148 0.053687718 -0.13063298
000030 8e 8e ca 3d f4 f4 18 be cb 40 b4 bc b4 00 14 be
       0.098904714 -0.14937192 -0.022003552 -0.14453393
000040 40 06 91 3c ef 88 0e bc 90 94 82 3e 9c 96 5d 3e
       0.017703176 -0.00869964 0.2550397 0.21639484
000050 c5 21 0a bd 32 6d 16 be a5 89 2b 3e f3 bc 53 3d
       -0.03372361 -0.14690092 0.16751726 0.051693868
000060 10 38 32 3e e0 2a 5e bd d6 5e b5 bd f7 1c 21 be
       0.17404199 -0.054240108 -0.08855979 -0.15733705
000070 7c 89 22 be 70 59 20 3d 21 ff a0 bc 39 38 87 be
       -0.15872759 0.039147794 -0.019652905 -0.26410082
000080 38 97 61 3d f6 51 fe 3d 82 4e 20 be 61 58 53 3e
       0.055075854 0.124179766 -0.15654948 0.20639183
000090 39 28 c9 3d 78 fd 5b 3e 28 2e ef 3d ac ad 05 3e
       0.09822125 0.2148341 0.116787255 0.13054532
0000a0 27 ac 88 3e ac e6 4c 3e 87 12 0a 3e 07 af 4c 3e
       0.26693842 0.2000987 0.1348363 0.19988643
0000b0 cc 37 48 3e 91 d5 91 3d 4f 26 8b be fa 90 1a be
       0.19552535 0.07120813 -0.27177665 -0.15094367
0000c0 ce 90 b4 bd 5c 1f 4a be 95 64 81 3d 9e e1 76 be
       -0.08816682 -0.19738525 0.063180126 -0.24109504
0000d0 ca c2 7a 3c 8e 11 db 3d 37 79 1a be 31 50 63 be
       0.01530523 0.10696708 -0.15085302 -0.2219856
0000e0 81 aa 5a 3e 20 9e 34 bc ee eb 88 be ba f6 13 be
       0.21354105 -0.011024028 -0.267425 -0.14449587
0000f0 09 75 ef bd b4 08 1c bd 3c f0 22 3e fd c6 40 3e
       -0.116922446 -0.038094237 0.15911955 0.18825908
000100 86 21 85 be ac 8c 6f bd d6 1c b9 be c7 73 03 3e
       -0.2600214 -0.058483765 -0.36154813 0.12837134
000110 d9 a4 35 be e3 83 65 be 9e 9f 82 3e 23 4a e4 3d
       -0.17738666 -0.22413592 0.25512403 0.11146953
000120 78 95 cf bc 9d 65 99 bd 0d 18 55 be fb 60 92 bd
       -0.025339827 -0.07490084 -0.20809956 -0.07147404
000130 4c 75 87 be ff d3 a1 bd 7c ad 9c bd 96 b6 e9 bd
       -0.26456678 -0.07901763 -0.07650277 -0.11411779
000140 24 1d 84 3e ae 61 c7 bd 47 05 00 be 40 da 4f bd
       0.25803483 -0.09735428 -0.12502013 -0.05074525
000150 cb fe 6a be 48 e3 76 be 4d 62 6c 3c 84 6a 8a bc
       -0.22948758 -0.24110138 0.014427734 -0.016896494
000160 e1 19 29 3e 85 80 9f bd 73 c7 90 be 04 8e 56 3e
       0.16513778 -0.07788185 -0.28277168 0.20952612
000170 5e 22 39 3e 52 5a 77 be d4 a2 57 3e 83 65 8a be
       0.18079516 -0.24155548 0.21058208 -0.27030572
000180 b3 fe 81 be 56 bb 32 be 6c f9 a3 bd 64 63 03 3d
       -0.25389633 -0.17454275 -0.08006558 0.03207721
000190 4d 31 6f 3e d6 1e 4d 3e 27 14 78 3d 4b fd 66 be
       0.2335865 0.20031294 0.060566094 -0.22557561
0001a0 13 f0 69 3e 68 3d 09 be 92 ab 65 3e 2f fa 95 be
       0.22845487 -0.13402331 0.2242873 -0.29292437
0001b0 ff ee 6b be 6c c8 a1 3b 13 f6 47 3e 3c f9 ba 3e
       -0.23040389 0.004937222 0.19527464 0.36518276
0001c0 7a 9c 3f 3e 09 4a 84 3e 17 e0 3a 3e af 53 13 3d
       0.18712035 0.25837734 0.18249546 0.03596848
0001d0 3a 1c d2 bd c1 99 bf bd 58 c0 03 3e 24 cd e5 bd
       -0.1025929 -0.09355498 0.12866342 -0.11220768
0001e0 68 3e 9e bc 7f d3 02 3e f1 54 a9 3d 3c be 15 bd
       -0.019316867 0.12775992 0.082681544 -0.036558375
0001f0 93 5b 77 be 9a 93 2b 3c a0 20 ad bb ed 76 56 3e
       -0.24156027 0.010472203 -0.00528343 0.20943804
000200 d4 2d 96 3d a9 8d ee bd e3 8e 05 3e 89 49 89 3d
       0.0733296 -0.11648113 0.13042788 0.06703479
000210 69 92 a7 3c 5a 80 5f 3e 6b 73 09 3e 09 ff cc bb
       0.020455556 0.21826306 0.13422935 -0.0062559885
000220 92 b1 3a ba 03 1f 9a 3d 0f 41 64 3e 9e 3b 6e be
       -0.0007121797 0.07525446 0.22290443 -0.2326493
000230 df 02 6f 3e d6 ab f4 bd de e3 c3 3d 61 b2 e6 3d
       0.23340939 -0.119468376 0.095649466 0.11264492
000240 cb 5d 68 be ad ef 42 3e cb a9 33 be 88 fa 83 3d
       -0.22692029 0.19036742 -0.1754524 0.064442694
000250 6a 89 99 bd bb d6 48 3e f3 b3 03 bd 7f 24 d6 3c
       -0.07496913 0.19613163 -0.032154035 0.02614045
000260 7c 4c 98 3c 20 62 8c be 25 cc c1 3d 4c 45 43 be
       0.018591158 -0.27418613 0.094627656 -0.19069403
000270 13 19 1b 3d 40 59 3d 3e b2 56 f7 bd c9 88 83 bc
       0.03786571 0.18491077 -0.12077083 -0.016056435
000280 dc 03 35 3e a8 8e a0 3d d8 42 8a 3e 4a 32 87 be
       0.17677253 0.078397095 0.27004123 -0.26405555
000290 ae 06 62 3c e4 a4 a2 bd 04 88 18 be 86 0a dc bc
       0.013795538 -0.07941607 -0.14895636 -0.026860487
0002a0 db b8 45 3e d8 0f 58 3d 86 71 3b 3e 75 68 6b be
       0.19308798 0.052749485 0.18305025 -0.22989066
0002b0 f0 1d 0b 3e a0 b0 3f 3d 73 dc a4 bd 2a 2f d7 bd
       0.13585639 0.046799302 -0.0804986 -0.10507043
0002c0 06 3c d6 3c 25 37 40 3e 5b f9 be bd f2 a2 56 3b
       0.026151668 0.18771036 -0.093249045 0.0032750932
0002d0 08 08 c4 bd 29 53 94 be c3 aa 21 bd ce 48 31 3e
       -0.09571844 -0.28969696 -0.03946949 0.17312929
0002e0 91 9c 7c 3e e7 ed 16 be cb 3d 4f 3d 7f d1 2b be
       0.246691 -0.1473919 0.05059604 -0.16779135
0002f0 1a a7 46 bc 4f 52 66 be a5 47 80 3c 72 e2 80 3e
       -0.012124801 -0.22492336 0.015659163 0.25172764
000300 3a 08 11 be 64 a1 48 be 9d 88 f0 3d 54 65 64 3d
       -0.14163294 -0.19592816 0.11744807 0.055760697
000310 c1 c0 b0 3d 90 56 68 3e f2 b0 c5 bd ac ae 45 bd
       0.08630515 0.22689271 -0.0965289 -0.048262283
000320 36 40 9a 3d 36 e1 36 3e 02 aa 90 3d d2 4b 18 3e
       0.075317785 0.17859349 0.070636764 0.14872673
000330 d1 07 b1 3d bc 61 76 3b c1 3f 4e 3e 2b 31 a2 3e
       0.08644069 0.0037594875 0.20141508 0.31678137
000340 2c 8c cb bd 00 64 bf 3d 26 f6 61 bd 8d df 0d 3e
       -0.09938845 0.09345245 -0.055166386 0.13854809
000350 89 2a a9 3d 10 3f 3c be fe 15 72 be 07 82 65 3d
       0.08260066 -0.18383431 -0.23641202 0.056032207
000360 8e 4a 36 be 34 6f 5f be 19 ce 0c 3e e8 4d fc 3d
       -0.17801878 -0.21819764 0.13750495 0.12319547
000370 7a 7e b3 3c 4c e3 b3 bd 64 d9 4f bc bc 32 36 bd
       0.021910895 -0.08783588 -0.012686107 -0.044481978
000380 cb 8b 81 bd 4c 48 50 be d6 cf 07 3d 06 c4 a5 3d
       -0.063254915 -0.20340079 0.033157192 0.08094029
000390 2f 01 93 3d 09 23 83 be 68 f0 b6 3d b9 37 9a 3c
       0.0717796 -0.25612667 0.089325726 0.018825399
0003a0 07 51 43 3e 95 ca 1a be df f2 f2 3d d5 e2 07 3e
       0.19073878 -0.15116341 0.1186273 0.13270123
0003b0 28 63 06 be bc b1 7d be 25 47 15 be 24 1b 89 bd
       -0.13123763 -0.24774832 -0.1457792 -0.0669463
0003c0 ea 05 6b 3e af a9 53 bc 55 77 f2 bd 71 27 7f 3e
       0.22951475 -0.012918874 -0.11839167 0.2491739
0003d0 e7 2d e1 3d bc a6 86 3e b7 4d 09 bd 3a 0a b8 bc
       0.10995083 0.26299083 -0.03352138 -0.022465814
0003e0 13 fa 6e 3e f0 35 fb 3d 0d 06 a2 3c 7d e9 7e 3e
       0.23337583 0.12266147 0.019778276 0.24893756
0003f0 62 7e 36 be 0a f3 f4 3d f6 43 27 be 28 78 84 be
       -0.17821649 0.119604185 -0.16334519 -0.25872922

lstm1_1.bias_ih_l0_reverse f4 [64]
000000 6a 40 7a 3e 33 ba 6c be ca 88 44 3e 2d 6d 47 bd
       0.24438635 -0.23117904 0.19192806 -0.048688103
000010 6b 7a e6 bd e0 4d 04 be 76 82 fb bd 5d 50 4e 3e
       -0.11253818 -0.12920332 -0.12280743 0.20147844
000020 4a f0 35 3e b4 6f 23 3d 85 ea 98 bd dd 82 da 3d
       0.17767444 0.03990145 -0.07466606 0.106694914
000030 c9 57 15 3c b5 b7 59 3c 4b ca 83 bd c2 53 42 3e
       0.009115168 0.013288428 -0.06435069 0.18977264
000040 8f 40 18 3e e4 05 ec 3c 68 50 17 3e ed 43 f8 bc
       0.14868377 0.028811403 0.14776766 -0.030305827
000050 17 1f d1 bc a0 48 42 bd 99 3c 6b 3c 9b 02 db 3d
       -0.02552752 -0.04743254 0.014357709 0.10693856
000060 98 ed 31 be 52 db ba 3d 31 83 6f bd 79 a4 31 3e
       -0.17375791 0.09123863 -0.058474723 0.17347898
000070 d7 26 2e 3e d0 38 f8 3d 08 6d 30 be 13 13 f7 3d
       0.17007004 0.12120211 -0.17229092 0.12064185
000080 2b 1f 81 3e a9 e3 83 be 06 e5 08 3e ea 4d 8f 3c
       0.25219092 -0.25759628 0.13368616 0.017493207
000090 79 75 e2 3d 6d 28 54 3e 9d 78 07 be bb e6 b9 3c
       0.110575624 0.20718546 -0.13229604 0.022693029
0000a0 4a 87 56 be ac 36 1b be c4 e9 d6 3d e4 e0 77 bd
       -0.20950046 -0.15157574 0.10493806 -0.060517207
0000b0 28 a5 17 3e a5 f9 ee bb f1 13 65 3e c2 f3 4e 3e
       0.14809096 -0.0072929435 0.22370888 0.20210174
0000c0 d0 d6 ab bd 69 7b c2 bd 19 68 3e be 44 13 62 3e
       -0.083905816 -0.09496195 -0.18594398 0.22077662
0000d0 1c 47 0a 3e f3 ef a1 bd 3a 67 70 3d ce 8d 9c 3e
       0.13503689 -0.07907095 0.058692195 0.30576938
0000e0 a8 c2 57 bd 6a 63 22 be 5e 6e 7a 3d 4b a8 d4 bd
       -0.052675873 -0.15858236 0.06114041 -0.10383662
0000f0 b7 62 70 be ed b6 5c 3e 3e e4 3c be 40 90 a9 3e
       -0.23475157 0.21554156 -0.18446442 0.33117867

lstm1_1.bias_hh_l0_reverse f4 [64]
000000 9d 70 0f be c4 b3 a4 bd 4c 69 24 3e 04 ae 0e 3e
       -0.14007802 -0.080421 0.16055793 0.13933569
000010 96 d3 13 bc c1 92 52 3e d0 69 2b bd 53 8d 55 3e
       -0.009022614 0.20563795 -0.041848958 0.20854692
000020 cc b3 31 be b1 77 cd 3d ce 21 39 3e ff ee 32 be
       -0.17353743 0.10032595 0.18079302 -0.17473982
000030 4c 64 95 3d fa 7b 1a be 50 12 40 bc 35 7e 4e bd
       0.07294521 -0.15086356 -0.011723116 -0.05041333
000040 27 c7 00 3e 2e 2f 25 3e 23 8b 14 be f8 3c d8 bd
       0.1257597 0.16131279 -0.14506201 -0.10558504
000050 91 87 95 bd ef 18 a2 bc 22 f3 ac bd 2b c1 c5 3d
       -0.07301248 -0.01978728 -0.084448114 0.096559845
000060 84 dc c3 3d 47 b0 cb bb 17 67 60 be 52 75 7e 3d
       0.095635444 -0.0062160823 -0.21914326 0.062123604
000070 84 e4 bf bd c7 21 48 be 2e 19 28 3e f1 38 09 3e
       -0.09369758 -0.19544135 0.16415855 0.13400628
000080 08 a8 db 3d ea 2e 17 3e c9 a8 7d 3e 3d bb 2e 3d
       0.10725409 0.1476399 0.24771418 0.042659033
000090 9e fc d5 bd 30 83 b5 3d bd 75 e5 3d 62 7b 00 be
       -0.104485735 0.08862913 0.112040974 -0.12547067
0000a0 58 7e 22 be 8c 0f 3e bc 73 e7 27 be c5 10 1b be
       -0.15868509 -0.011600386 -0.16396885 -0.15143116
0000b0 58 76 28 3e 88 16 58 3e 47 f1 c4 bd be c5 88 be
       0.16451395 0.21102345 -0.096163325 -0.26713365
0000c0 14 34 0a 3e 8d 2a ac bd 86 20 7b bd e9 e1 73 3e
       0.13496429 -0.084065534 -0.061310314 0.23816647
0000d0 64 29 1c be 42 14 ab 3d 29 13 8a 3e b6 1e e9 bd
       -0.15250164 0.08353473 0.26967743 -0.11382811
0000e0 fe 93 32 3e ee 41 23 3e f9 68 2d 3e da 6b 96 3e
       0.17439267 0.15943119 0.16934575 0.2937916
0000f0 0f 4e c4 bd 0c b9 d3 3d 14 b7 ba bd 23 6e a9 3e
       -0.09585201 0.10338029 -0.09116951 0.3309184
