results/fine_tuning_samples_effect_results/Dataset 3/ft_num=all/Experiment3(25-CC-1)/from_Dataset 3_ft_model.pth (torch, 95756 bytes, 27 tensors)

cnn1.0.weight f4 [16, 1, 3]
000000 81 b6 c6 3d 0c 42 a4 bc 1a 8f f4 3e e4 87 db 3e
       0.097027786 -0.020051025 0.47765428 0.42877114
000010 2e b2 03 bd d6 3d 85 3e 52 f0 c6 3e b3 c1 fa be
       -0.032152347 0.2602374 0.38855225 -0.48975906
000020 b6 30 e2 be 64 19 a6 3e 92 0a d7 3d a8 f6 01 3f
       -0.44177788 0.32441247 0.10500063 0.5076699
000030 1b 9d ab 3e 8b e4 00 3f bd a1 cb be e4 09 ec 3e
       0.335183 0.5034873 -0.39771834 0.46101296
000040 1a ef ea be 0a c0 86 3e e6 1a 08 3c 97 81 b7 be
       -0.45885545 0.2631839 0.008307194 -0.35841057
000050 37 a0 0d bf c9 f9 e3 3e 79 35 ec be 7f c2 7b be
       -0.55322593 0.44526508 -0.46134546 -0.24585913
000060 44 23 95 3e eb 62 cd 3e 3e 28 63 bd c6 ee 82 be
       0.29128468 0.4011453 -0.0554583 -0.25572795
000070 fb 0a 8b 3d 5d 92 ad be 36 9d 70 3e 6e 64 cc bd
       0.06789204 -0.3390073 0.23497471 -0.09980093
000080 46 1b 1e 3e ee c3 d9 3e 55 25 e6 be 3f d8 c2 3d
       0.15440091 0.42532295 -0.44950357 0.09513902
000090 39 10 fe 3e 16 00 9e 3e 7a 7c 93 3e a5 57 b1 be
       0.49621752 0.3085944 0.28805906 -0.3463718
0000a0 e3 44 b7 be b2 4e 83 3d 5b 3b 95 3e 7c 0a fa 3e
       -0.35794744 0.06411494 0.29146847 0.48836124
0000b0 90 5e 8b 3e 25 5e cb be 5e c9 79 3d 92 69 6b be
       0.27220583 -0.39720264 0.060983054 -0.2298949

cnn1.0.bias f4 [16]
000000 4e dc 84 3e 99 49 9f be d0 3a 11 be 23 a4 a0 be
       0.2594933 -0.31110838 -0.14182591 -0.31375226
000010 83 d3 04 bf 9d 19 8d 3e 34 85 68 3e 8e 1a 85 3e
       -0.5188524 0.27558604 0.22707063 0.25996822
000020 22 b8 47 be 0b b4 cc be 49 6c f6 3d 04 c2 0a bf
       -0.19503835 -0.39981112 0.120323725 -0.54202294
000030 ec 51 9e be 13 8b e1 3d 3f b0 c9 3e 43 a2 a1 bd
       -0.30921876 0.110128544 0.39392278 -0.07892277

cnn2.0.weight f4 [32, 16, 3]
000000 f1 81 ed bd 74 d7 9c bc 52 16 58 3d c6 4d ed 3d
       -0.1159705 -0.019145705 0.05275566 0.115871
000010 9f 4c 86 3d c6 c5 38 3d 0c 19 dc bd 39 1d 02 3e
       0.06557583 0.045110486 -0.10746965 0.1270646
000020 ef 08 ff 3d 18 5a 9c bc a6 bc c5 bd 35 36 a2 3d
       0.12452876 -0.019085929 -0.096551225 0.079204954
000030 47 5c d6 bc 4f ea 83 3d 98 83 11 be bd cd 27 3b
       -0.026167048 0.06441175 -0.14210355 0.0025604807
000040 a1 4b 9b 3d 65 07 61 3d 29 c5 0b be 99 f6 88 3d
       0.075827844 0.054938693 -0.1364943 0.0668766
000050 a9 d4 e6 3c 55 84 04 bd 4e 13 f7 bd ca 92 12 bd
       0.028177576 -0.032352764 -0.12064229 -0.03578452
000060 22 b2 54 3d 2c dd af 3d 16 96 a1 3c 72 62 ae 3d
       0.051927693 0.08587107 0.019724887 0.08514871
000070 94 42 a9 bd e7 2f cd 3b c9 19 86 3d a1 ab d5 bd
       -0.08264652 0.006261814 0.06547887 -0.10433126
000080 29 f0 d2 3d cb 4e 91 3d f2 16 9e bd 48 0d f2 bd
       0.10299713 0.07095107 -0.0771922 -0.118189394
000090 33 61 3c 3e a8 fd 3e 3d e0 bc a7 3d 1c 1b bf 3d
       0.18396454 0.046628624 0.08190322 0.093313426
0000a0 87 57 04 be 1e 4d 19 3d 2a 62 b4 bd 12 78 b9 3d
       -0.12924014 0.03742706 -0.08807786 0.09056105
0000b0 bb f0 ea 3d 93 f2 79 3a 49 9c 83 bc 6a 9e cd 3d
       0.11471697 0.00095347426 -0.016065734 0.10039981
0000c0 58 d5 e8 3d 00 90 b8 3c 97 78 8a 3d dd 50 28 3d
       0.11368817 0.022529602 0.06761282 0.041092742
0000d0 41 d6 94 bd af 25 c2 3d 46 27 79 3d 3b e1 cc bd
       -0.07267428 0.09479844 0.06082847 -0.10003897
0000e0 88 aa ec bd 97 41 18 3d 7b 82 0c be 8f 0a 26 3d
       -0.11555964 0.037171926 -0.1372165 0.040537413
0000f0 e0 df bd 3d 3d 6f f1 bd fa e3 0f 3d d9 34 8a 3c
       0.092712164 -0.11788795 0.035129525 0.016870903
000100 ec f7 e0 3b 1c 1f fb 3d 0e 2e ad bd 9c 6e 9b 3d
       0.006865492 0.12261793 -0.0845605 0.075894564
000110 89 1a d8 3d c5 a6 c5 bd 05 c3 de bc 88 e7 e3 bd
       0.10551936 -0.096509494 -0.027192602 -0.111281455
000120 b7 b9 ee bd 50 10 2b be 9a c2 8a bd 21 66 40 bd
       -0.11656516 -0.16705441 -0.067753986 -0.046972398
000130 7a e5 08 3e 94 48 11 be d3 76 50 bd 6b bd 1c bb
       0.13368788 -0.14187843 -0.05089457 -0.0023916613
000140 97 6d 5b 3d ec 33 0f be 3a b6 00 bd fb 97 0c bd
       0.05357131 -0.1398465 -0.031423785 -0.034324627
000150 6a 6b 67 be b5 fa 0a be b4 95 13 be b2 ba e5 3d
       -0.22599569 -0.135722 -0.14412576 0.1121725
000160 77 f6 ce 3c 57 07 03 bd bf f4 15 be 5f 00 f7 3d
       0.025264008 -0.03198942 -0.14644144 0.12060618
000170 f8 2d 73 3d 52 d4 97 bd fc 74 7a bc 30 21 d6 3d
       0.05937001 -0.07413544 -0.01528668 0.10455549
000180 15 7f 40 bd f4 01 05 be 51 e4 f5 bd 5d 46 10 be
       -0.046996195 -0.12989026 -0.120064385 -0.14089341
000190 cd b4 a4 3d 48 b7 b0 bd 16 6b 05 bd 5f 63 5b bd
       0.080422975 -0.08628708 -0.03257283 -0.053561565
0001a0 35 91 90 3d 92 61 01 be 43 18 06 be c8 bc d5 3d
       0.07058946 -0.12634876 -0.13095193 0.10436398
0001b0 2a 71 36 bd 8d b2 aa bd 72 e2 c7 bc 87 7d b2 3d
       -0.044541515 -0.08334837 -0.02439997 0.08715349
0001c0 98 6a 63 bd 46 d0 0e 3c 53 52 30 bc d5 63 00 be
       -0.055521578 0.008716648 -0.010761815 -0.12538083
0001d0 cf 0b af bd 89 74 e3 bd 3e 20 00 be fd 0b 3e 3d
       -0.08547174 -0.11106212 -0.125123 0.04639815
0001e0 74 71 e8 3d e1 c5 f2 bd 15 e9 e8 3d dd f5 34 3c
       0.113497645 -0.11854149 0.11372582 0.0110449465
0001f0 50 de 5d bd e3 d9 fd bd c4 d1 6c 3d 49 7d cb bd
       -0.05416709 -0.12395074 0.057817236 -0.099360056
000200 1b da dc bd ce 18 2e bd 22 01 2c 3c 60 27 e0 bd
       -0.10783788 -0.042504124 0.010498317 -0.1094501
000210 2f 7c 01 be 0d 97 b5 3c b2 86 0e 3e c9 74 00 be
       -0.12645029 0.022166753 0.1391857 -0.1254455
000220 b1 de 12 3d c7 f6 12 bd a8 3b fe bd 45 af 0d 3e
       0.035856906 -0.035879876 -0.12413722 0.13836391
000230 14 33 e2 bd ec a5 ed 3c 12 3e 52 3d 72 72 1b bb
       -0.11044899 0.029009782 0.051328726 -0.0023719338
000240 19 47 cd bd 41 b9 9e bd c6 e1 43 bd 27 45 bb bd
       -0.100233264 -0.07750178 -0.047822736 -0.09144049
000250 6a 97 86 bd d3 68 32 bd 7b 10 8c bd ff 02 ff bd
       -0.06571849 -0.043557 -0.06839081 -0.12451743
000260 0f ca 02 3d 61 4d a1 3d bb ef 92 3d ba 6e b3 3d
       0.03193098 0.07876087 0.07174631 0.08761354
000270 5b 74 98 3d 7f 42 a5 bb a1 1b b8 3d 6c e4 ca bd
       0.07444068 -0.0050433273 0.08989645 -0.09906849
000280 77 96 81 3d 5f c1 9c 3d 17 e4 fc 3d ce 73 56 bd
       0.06327527 0.0765407 0.12348192 -0.052356534
000290 4f 18 6a bd 8d 6e d3 3c 0b e3 fd bd 69 2d c6 3d
       -0.05715209 0.02580955 -0.12396821 0.0967663
0002a0 a6 1f 9d bd e5 93 00 3c 1a e2 fa bd b5 22 73 3d
       -0.07672052 0.007847761 -0.12250157 0.05935927
0002b0 f9 c1 07 be 6a 04 0e 3d fe 97 df 3d e7 b4 bf bc
       -0.13257588 0.03467218 0.10917662 -0.02340169
0002c0 9a 6b 97 bd 95 63 d2 bd f1 70 03 be ba d3 1c bd
       -0.0739357 -0.102729 -0.12836052 -0.038287856
0002d0 c5 d6 5b bd 40 07 ae 3d 81 5b 07 be d7 1c e2 bd
       -0.053671617 0.084974766 -0.132185 -0.11040657
0002e0 66 cc 62 3d c5 8a df bd 47 10 d9 bd f9 6d 88 3d
       0.05537071 -0.1091514 -0.10598808 0.066616006
0002f0 35 e5 fc bc 45 6d a0 bd d5 73 68 3d 2e 18 08 be
       -0.030871013 -0.078333415 0.05675109 -0.13290474
000300 97 7f 0f 3d 9c 29 e7 bc 79 72 f6 bd db 6b ae bd
       0.03503379 -0.028218083 -0.12033553 -0.085166655
000310 f3 f8 01 be ab a0 b6 3b 7e 98 ff bd c1 f4 81 bd
       -0.12692623 0.0055733523 -0.124802575 -0.06345511
000320 90 de 0e 3b 49 92 8a bd 38 05 ec bc b5 5d 11 bd
       0.0021800138 -0.06766183 -0.028811082 -0.035489757
000330 65 b7 f5 bd 52 31 59 3d e7 b3 0c be d0 bd d8 3c
       -0.1199787 0.05302555 -0.13740502 0.026457697
000340 3d ce ba bd ed 09 07 be 94 dc ff 3d 78 92 7e bd
       -0.09121368 -0.1318738 0.12493244 -0.062151402
000350 99 b0 33 3c 2f fe e0 3d 8e 52 72 3b d0 8a 76 3d
       0.010967397 0.10985982 0.0036975476 0.060190976
000360 87 e1 d6 3d 2c 4f 1e bd 29 3e 04 bd de 19 83 3d
       0.10492235 -0.038649723 -0.032285843 0.06401418
000370 76 0d f4 bd d4 68 05 be c5 2d 44 bd d5 44 06 3e
       -0.1191663 -0.1302827 -0.04789521 0.13112195
000380 cc 48 b8 3d e9 2f 01 be c1 2c 89 bb bf 43 c8 bd
       0.0899826 -0.12615933 -0.0041862433 -0.097785465
000390 08 37 b2 bd 77 0b ef 3d e3 88 0b be 91 ca c7 3d
       -0.08701903 0.116721086 -0.13626437 0.09755433
0003a0 35 71 0b bd ed 30 00 3e fb 2f 6c bd 37 60 11 bd
       -0.03404351 0.12518664 -0.057662945 -0.03549215
0003b0 d3 ea a0 bd fb 37 91 3c c9 2d 0e bd 0b bb f0 3d
       -0.07857289 0.017726889 -0.034711633 0.117544256
0003c0 af 82 ce 3d 02 e6 b8 3d 17 d2 57 bd 98 d5 99 3d
       0.1008352 0.090282455 -0.05269059 0.07511443
0003d0 5a 54 87 bd da ce a0 bd f5 52 63 3d 37 e2 c1 bd
       -0.06607886 -0.07851954 0.055499036 -0.09466975
0003e0 72 d7 cf 3c 75 9d 33 3d e7 97 94 3d d8 65 42 3d
       0.025371287 0.043851335 0.072555356 0.047460407
0003f0 97 21 2d bd 70 43 09 3e 97 27 39 bb fe 93 31 3d
       -0.042268362 0.13404632 -0.0028252357 0.043354027

cnn2.0.bias f4 [32]
000000 f5 81 c9 bd ab 65 84 3d c1 74 cf bc 9d 86 e6 bd
       -0.098392405 0.06464704 -0.025324227 -0.11256144
000010 33 8b 52 bd d1 3c 3b 3d dd 39 06 3e ed a2 dc 3d
       -0.051402282 0.045712296 0.1310801 0.10773263
000020 6a b4 97 3a d0 51 41 3d e2 8b 9e bd 1b 8e 9d 3d
       0.0011574153 0.047197163 -0.07741524 0.0769312
000030 01 21 8e bd 52 6f 0b 3e e1 42 9f bd 22 fc fa 3d
       -0.06939889 0.13616684 -0.07776428 0.12255122
000040 76 8b b9 bd 6c 2b c5 3d bb a0 b2 bd 5d d3 8a bd
       -0.09059803 0.09627423 -0.08722063 -0.067785956
000050 38 67 4a 3d bc 72 e9 bd 35 18 a7 3c 2c 05 77 bd
       0.049414843 -0.11398837 0.020397285 -0.060307667
000060 22 49 82 3d 69 c5 ce 3d 8d 0c 73 3d c6 e7 e7 ba
       0.06361605 0.10096247 0.05933814 -0.0017692975
000070 e3 40 22 3a 5d 4e 10 be d2 56 84 3d 7f d2 2a bc
       0.00061894784 -0.14092393 0.06461872 -0.010426163

lstm1_1.weight_ih_l0 f4 [64, 32]
000000 9d 18 54 3e fb 73 34 3e 02 1f 31 3e 2c a1 78 3e
       0.20712514 0.17622368 0.17296985 0.24280232
000010 88 6b c5 3d 58 2d 8c bd 88 7b 79 3e ba d8 2c be
       0.096396506 -0.06844586 0.2436353 -0.1687955
000020 ad c9 83 3c 94 1f 29 be a9 a9 30 3d c9 05 94 3e
       0.016087377 -0.16515952 0.04313055 0.28910664
000030 a0 1c 65 be 9f 2f 04 be 26 cc 18 be 50 be f7 3d
       -0.22374201 -0.12908791 -0.14921626 0.12096846
000040 09 94 35 3e 7b 08 31 3d b4 bb e4 3d a7 67 5d bd
       0.17732252 0.04322098 0.11168614 -0.05405393
000050 4c f2 49 3e 1c 9d 50 be 87 6c e5 3d 0b 07 48 be
       0.19721335 -0.20372432 0.112023406 -0.19533937
000060 03 01 ef 3d fa 7c 25 3e 63 b7 86 3e 34 82 db bd
       0.11670115 0.16160956 0.26311788 -0.10718194
000070 1c 75 5a be 4a c7 8d 3e d2 83 68 3e 50 c4 7a bd
       -0.21333736 0.27691108 0.22706535 -0.061222374
000080 5f 08 9e bd de af bc bd 00 0e 86 3d 4a 54 1a 3e
       -0.077164404 -0.092132315 0.06545639 0.15071216
000090 fc 3e 29 3e 0e e1 7b be 7c d1 52 be f0 e2 1a be
       0.16527933 -0.2459757 -0.20587724 -0.15125632
0000a0 6e 26 6e be 8d ba d6 bc bf a8 d6 3d 7b 52 c7 bd
       -0.23256847 -0.026212001 0.104814045 -0.09732529
0000b0 03 9d 42 3e ea 2a 21 bd ec 43 dc 3d 6a 3f 1b 3d
       0.19005208 -0.039347567 0.107551426 0.037902273
0000c0 02 e2 6b 3e 4e 6f 62 be 40 1c 61 bd ad 23 1c be
       0.23035434 -0.22112772 -0.054958582 -0.15247984
0000d0 d2 1f 28 3e 34 2b 66 be bf 83 31 be b0 07 53 bc
       0.16418388 -0.22477418 -0.17335413 -0.012880251
0000e0 a4 6d 4e be 90 ce c4 ba 78 94 6e be 86 0e 24 3e
       -0.20159012 -0.0015015174 -0.23298824 0.16021165
0000f0 80 3e 1c bd e9 33 e5 bd a3 8a 9f 3d 10 f7 9a 3d
       -0.038145542 -0.11191542 0.07790115 0.07566655
000100 1e 6c 23 3d e9 87 58 3e f4 cc 6d be 00 02 60 bd
       0.03989803 0.21145596 -0.23222715 -0.054689407
000110 78 ad ca bd 68 b5 7a 3e f0 34 48 bc 70 42 82 3d
       -0.09896368 0.24483263 -0.0122196525 0.06360328
000120 2c 89 96 3b c6 ca c8 3c 33 07 26 be a4 50 8d bd
       0.004593989 0.024510752 -0.16213684 -0.069001466
000130 51 f7 1d 3d 40 d6 08 3e c0 ea 62 3c 90 11 89 bd
       0.038565937 0.1336298 0.013849914 -0.06692803
000140 18 d4 27 be 6d bc 50 be 6c ae 8d bd 64 48 98 bc
       -0.16389501 -0.20384379 -0.06918034 -0.018589206
000150 f8 f0 78 3e 3e 4a 48 3e 55 5c 45 3e d6 98 39 3e
       0.24310672 0.19559571 0.19273503 0.18124709
000160 0f 8a 03 be 43 24 97 bc 8b 9b 99 bc c0 fd 84 3b
       -0.12845634 -0.018449908 -0.018750926 0.0040585697
000170 f0 f0 01 3d 21 9c 44 bd bc ad 83 3d fc 36 6b be
       0.031723917 -0.04800046 0.064296216 -0.22970194
000180 19 2d ea 3d 63 e7 f7 3d 0e 29 69 be ec 49 f8 3d
       0.11434383 0.121046804 -0.22769567 0.121234745
000190 b6 16 0d 3e 3f a4 11 be 70 d8 e9 bb 38 44 ac 3d
       0.13778195 -0.14222811 -0.007136397 0.08411449
0001a0 01 38 ba bd e8 9f 83 3c c3 19 e0 bd 30 d3 57 3e
       -0.09092713 0.01606746 -0.10942414 0.21076655
0001b0 a0 1d c7 bd 97 d0 ab 3d 40 23 2c 3d ac d2 f2 bc
       -0.097224474 0.08389395 0.042025805 -0.029641472
0001c0 b5 8f 88 3d 63 07 7e bd d4 e5 b0 3d 6c 6d 32 bd
       0.06668035 -0.062018763 0.08637586 -0.043561384
0001d0 d0 ba 2c 3d f2 d0 0f be 56 7d c6 bd b6 75 dd 3c
       0.042170346 -0.1404455 -0.09691875 0.027033668
0001e0 17 ae 95 3e 82 cc 18 3e d9 c1 38 be 2a 19 4b 3e
       0.29234383 0.14921764 -0.18042697 0.19833818
0001f0 84 c6 f4 bd d4 a8 df 3c 53 5f 2b 3e f4 7c ac 3e
       -0.11951926 0.027302183 0.16735582 0.33689082
000200 de c2 7a 3e cd f2 2f be bc 85 72 be aa f0 2f 3e
       0.24488398 -0.17182465 -0.23683828 0.1718165
000210 9c 93 0e 3e 60 0c bb bc 29 cf 0b be d0 b8 c8 3d
       0.13923496 -0.02283305 -0.13653244 0.09800875
000220 be 87 33 3e 5d 87 4a be 6e e2 5f be 04 83 ac bd
       0.1753225 -0.197782 -0.2186372 -0.08423427
000230 eb 7d 3e bd 3f ac c1 3d f8 fa e9 bd 65 14 a9 3d
       -0.046506803 0.094566815 -0.114248216 0.08255843
000240 44 b9 f5 bd 84 49 cc 3d 38 9e 4b bd 40 f0 ad bc
       -0.11998227 0.099749595 -0.049711436 -0.021232724
000250 56 05 ea bb 76 83 73 3e be e8 77 bb fb 12 0b be
       -0.0071417494 0.23780617 -0.0037827934 -0.13581459
000260 bc 77 57 bd ec 5e 84 3c b6 db 07 be c8 2e 9b 3d
       -0.052604422 0.016158544 -0.13267407 0.07577282
000270 c4 c8 02 3e 8d 06 05 be f2 2d 4e be 95 a4 c4 3d
       0.12771899 -0.1299078 -0.20134714 0.09601704
000280 dc 8d 07 3e b9 4d fc 3d bc c1 4e be 70 db 28 3e
       0.13237709 0.12319512 -0.20191091 0.16489959
000290 24 98 72 be aa 5e 85 be d9 e7 43 be 7a 9c 6c be
       -0.2369085 -0.26048785 -0.19131412 -0.23106566
0002a0 bd d1 5c 3e d8 a3 1d be bc 74 06 be 74 85 c5 bc
       0.21564384 -0.15394533 -0.13130468 -0.024111487
0002b0 59 c7 c7 3d 3f 4f 69 3e b0 07 06 bd ef 01 ce bd
       0.097548194 0.22784136 -0.032722175 -0.100589626
0002c0 04 13 a0 bd 0c f9 b9 3d 30 97 1b 3e 52 f0 3b 3e
       -0.07816127 0.09080705 0.15194392 0.18353394
0002d0 a3 9f 43 3e 1c 83 8b 3d 82 35 21 bc 7a bb 11 bc
       0.19103865 0.068121165 -0.009839417 -0.008894796
0002e0 e4 5a 4a 3e 1d fd 95 3d b3 9a 51 be 3e 73 5a 3e
       0.19761235 0.07323668 -0.2046917 0.21333024
0002f0 56 c9 09 be e0 7d 21 be a6 4a 9b bd de 69 19 be
       -0.1345571 -0.15770674 -0.075825974 -0.14981791
000300 c8 3d 01 3e 8a ed 4e bd 78 82 6d be 14 71 d3 bd
       0.12621224 -0.050519504 -0.23194301 -0.10324302
000310 f8 33 46 be ee 4b aa 3c a2 a0 53 be 64 6a e7 3d
       -0.19355762 0.02078816 -0.20666745 0.11299589
000320 a2 45 1c be de 30 2d be e3 f1 f3 3d a3 06 76 3b
       -0.15260938 -0.16913173 0.119113706 0.0037540577
000330 eb c9 28 3e bb cd bd 3c ac cf 57 3e b0 2d 6b be
       0.16483276 0.023169389 0.21075314 -0.22966647
000340 7f cb 27 3e 9a bb 5f 3d 34 74 e4 bd 11 99 63 be
       0.16386221 0.05462227 -0.111549765 -0.22226359
000350 af e3 39 bc 5a b0 7c 3e 90 7b e1 bc 50 f7 81 3e
       -0.011345788 0.24676648 -0.02752474 0.25383997
000360 06 bc 08 3d 36 68 ff bd cf 1f e3 3d f8 61 b6 bd
       0.033382438 -0.124710485 0.110900514 -0.08905405
000370 80 e0 45 be bf 08 54 3e c9 ff d5 bd eb a5 04 3e
       -0.19323921 0.20706461 -0.10449178 0.12953918
000380 62 f1 e6 3d c1 cb 1c 3e c0 6d 08 be 52 8a 36 be
       0.11276509 0.15312101 -0.13323116 -0.17826203
000390 c0 0d 61 bc 80 e4 67 bd 54 2d cb bd f2 9f 45 3e
       -0.013736188 -0.0566144 -0.09920755 0.19299296
0003a0 52 59 a3 bd 33 f7 6f 3e 69 46 73 bd 19 fe 18 be
       -0.07976021 0.23434143 -0.05939332 -0.1494068
0003b0 0b bd 79 be df 2a 66 be 40 d1 8c 3b 77 b6 e5 3d
       -0.2438852 -0.22477292 0.0042974055 0.11216443
0003c0 d4 2f 45 3d d5 e5 2f 3d c8 fc 55 3d 95 e4 30 bd
       0.048141316 0.042943794 0.052243024 -0.043186743
0003d0 26 f2 b3 bd 94 28 73 be 50 9d 46 be f7 3e 4e be
       -0.087864205 -0.23745948 -0.19395947 -0.20141207
0003e0 9e ef 64 3e d6 5b 1f 3e 6c 2d 98 bd 80 11 3a bb
       0.22357032 0.15562376 -0.074305385 -0.0028391778
0003f0 bc 67 41 be d4 1a fb 3d d3 c2 df bc 86 e3 c9 bd
       -0.18887228 0.122609764 -0.02731458 -0.0985785

lstm1_1.weight_hh_l0 f4 [64, 16]
000000 1e 21 42 3e 10 83 5a 3d b3 c7 03 3d f4 12 8b be
       0.18957946 0.053347647 0.03217287 -0.27162898
000010 3f ea 16 3e c2 72 11 be cb c9 5b 3d db 33 11 be
       0.14737795 -0.14203933 0.05365924 -0.14179938
000020 dc 77 7e 3d 42 69 d9 bd 3e 31 a4 be 79 bd a7 bd
       0.062126026 -0.106157795 -0.3206882 -0.08190436
000030 a3 b4 56 3e d8 88 6d be 44 71 0d 3e b6 52 02 3e
       0.20967345 -0.23196733 0.13812739 0.12726864
000040 72 ec e1 bc 09 d7 49 bc b0 6a a1 bd 60 f4 c7 3b
       -0.027578566 -0.012319335 -0.07881677 0.00610213
000050 4a 16 35 be 70 0c 7a 3e c5 9e 70 3d 81 61 e5 3d
       -0.17684284 0.24418807 0.058745164 0.11200238
000060 a5 b6 d6 bd 16 f6 d6 bd 24 85 49 be 9e be e3 bc
       -0.104840554 -0.10496156 -0.19679695 -0.027800854
000070 c8 eb 9f bd 3c c5 5c 3d 4f 77 51 be e9 14 2f 3e
       -0.078086436 0.053899035 -0.20455669 0.1709782
000080 d6 9c c6 bd 67 d7 9e 3d a3 90 e0 bd 96 1c 32 3d
       -0.09697883 0.077559285 -0.10965087 0.043484293
000090 9c 14 6d ba 0d 46 6a 3e 4c ce 23 be cb 89 19 bd
       -0.00090439036 0.22878285 -0.15996665 -0.037484925
0000a0 37 03 83 3d 7f b9 bf bc 10 a2 4b 3c af c7 11 be
       0.063970976 -0.023403881 0.012428775 -0.1423633
0000b0 16 a5 6f be 31 a3 61 be b5 76 14 3e 23 50 8e bc
       -0.23402819 -0.22034909 0.14498408 -0.017372197
0000c0 50 b8 1b bd 0e f6 25 3d 8e 9b 3f 3e f4 a9 ba bc
       -0.03801757 0.04051786 0.18711683 -0.022786118
0000d0 26 b8 f5 bd b1 f6 e1 bd f8 04 5b 3d ae 69 23 3e
       -0.11998014 -0.11033381 0.053471535 0.15958282
0000e0 d2 88 97 be 30 b1 45 be ae e8 a4 be 12 4e 8d be
       -0.29596573 -0.19305873 -0.3220877 -0.27598625
0000f0 58 4b 74 3e 80 bd 92 bc 4a 25 93 3e 39 25 37 3d
       0.23856866 -0.017912626 0.28739387 0.044713233
000100 d0 50 57 be 4e 4c 18 be c6 26 e2 3d fb e6 cc bd
       -0.21026921 -0.14872858 0.11042552 -0.100049935
000110 0f e8 71 be 16 38 87 3d 27 fd 80 3e 43 b7 3c 3e
       -0.2362368 0.066024944 0.2519314 0.18429284
000120 4a 84 91 be 10 86 e0 3d 3c d9 d0 bd 91 d8 02 3d
       -0.2842124 0.109630704 -0.10197684 0.031944815
000130 5d 1d 9b 3e b9 28 00 bc b3 45 ec 3d 5b c6 70 3e
       0.3029584 -0.007822209 0.115367316 0.23513167
000140 b2 51 66 bd aa b3 8d ba 27 67 18 3e a3 2b 18 bc
       -0.056230254 -0.001081099 0.148831 -0.009287748
000150 12 05 b9 3c 60 96 39 bd a1 0b bb 3c b5 d3 4d 3c
       0.022585426 -0.045309424 0.022832694 0.012562682
000160 05 52 13 3e 44 e0 9f bc d5 6a be 3c ed 22 08 bc
       0.14386757 -0.019516118 0.0232443 -0.008309108
000170 2a 3d 32 bd 01 60 69 3e 3a a6 09 3d d0 57 20 3d
       -0.04351536 0.22790529 0.03360579 0.039146245
000180 2f 58 4c 3e 26 e0 82 3e c3 6e 32 be c3 84 be 3a
       0.19955514 0.25561637 -0.17425065 0.0014535416
000190 d2 49 26 3c 93 00 27 3e ba 83 ce bd 44 de 47 3e
       0.010149436 0.16308813 -0.100837186 0.19518381
0001a0 29 e2 7d be 0e cb 80 3d f3 11 a3 be b2 b8 80 3e
       -0.24793305 0.062887296 -0.31849632 0.2514091
0001b0 23 06 15 3d 3f f9 6a 3e a9 ed c3 bc a9 72 22 3e
       0.036382806 0.22946642 -0.023917036 0.15864052
0001c0 4a 2b 6f 3e bc 3d 4a 3c 48 10 5d be 8c ae 63 be
       0.23356357 0.01234382 -0.21588242 -0.22234553
0001d0 7e 08 2d 3e 0c 26 84 3d 9e 97 9f 3d 7e 63 12 be
       0.16897771 0.06452569 0.077925906 -0.14295766
0001e0 aa 97 60 3e 9c 41 a8 bd a7 03 92 bd f6 66 30 3e
       0.21932855 -0.08215639 -0.07129603 0.17226776
0001f0 9b 75 43 3b ee bc e4 b9 50 b3 3b be a8 8b 07 3d
       0.0029824737 -0.00043628312 -0.18330121 0.03309217
000200 18 ca a5 3d 9e 4d 5f 3e 74 43 d0 bd 8e cc 5d 3d
       0.08095187 0.21806952 -0.10169116 0.054150157
000210 ad 18 c0 bd 9f 3b 9b 3d 6e 60 19 be e3 ea 70 be
       -0.093797065 0.07579731 -0.14978191 -0.23527102
000220 ce 78 05 bd 52 ba 30 be 8a f7 6b bd 24 7a 58 3e
       -0.03258591 -0.17258576 -0.05760912 0.21140343
000230 17 89 8a be 2f 04 68 be 01 ac e5 bd d6 e8 87 bd
       -0.27057716 -0.22657846 -0.11214448 -0.06636207
000240 52 5c 48 3d b8 fa 8b bd 25 97 73 3d fd 0d 28 be
       0.04891617 -0.0683493 0.059470315 -0.16411586
000250 91 60 e4 3d 25 af 01 be b2 cb f6 bd 29 68 ae 3d
       0.11151231 -0.12664469 -0.120505705 0.08515961
000260 5a d0 9f 3d ca af 20 be 5d e9 ee 3b 76 25 88 3e
       0.07803412 -0.15692058 0.0072910027 0.2659108
000270 11 a6 d3 bd 0a 98 19 be a7 0d 37 3e 1c a6 37 3d
       -0.10334409 -0.14999405 0.17876302 0.04483615
000280 8b be 03 bd 0b 51 7d 3d 33 d8 06 bc 8b ef 49 3c
       -0.032164138 0.061844867 -0.008230257 0.012325178
000290 01 bd 98 bc 2f 62 bc bd 4b 46 41 3b cf 3f d5 bd
       -0.018644812 -0.091984145 0.002949136 -0.10412561
0002a0 41 9c 64 be 7c 93 b1 3d 25 16 43 be 00 c7 00 3e
       -0.22325231 0.086707085 -0.19051416 0.12575912
0002b0 3e 86 02 3e 6d 38 17 be 23 b2 05 be e3 f6 e0 3d
       0.12746522 -0.14767618 -0.13056235 0.1098459
0002c0 37 72 97 bd b5 d5 bf 3c 1a 1b cb bd 14 84 22 3e
       -0.07394832 0.023417333 -0.099172786 0.15870696
0002d0 20 74 1c be 4c 9b ac 3d b6 26 2f be ed bf a3 3d
       -0.15278673 0.08428058 -0.17104611 0.07995591
0002e0 5a f6 48 bc 82 91 49 3e ec 5b 26 3e f9 27 05 be
       -0.012265766 0.19684413 0.16246003 -0.1300353
0002f0 3a b2 49 3e 66 c2 f6 bd 6f 50 03 bd bc 1c 89 be
       0.19696894 -0.12048797 -0.03205913 -0.26779735
000300 29 5c 72 3d cb 1e b0 bc 6c 8c de bd 2d 03 06 be
       0.059169922 -0.021499058 -0.10866627 -0.13087149
000310 c2 76 69 3c e9 25 11 be 52 8b d1 3d b5 fe aa bd
       0.0142495055 -0.14174618 0.10231651 -0.08349363
000320 06 9d e3 3d 6b 4a e6 bd 73 32 6d 3d fd 34 bc 3d
       0.11113934 -0.11244663 0.05790944 0.09189794
000330 2a df 48 be 4b 94 ee 3c d3 14 1a be c3 5a 92 bc
       -0.1961638 0.029123446 -0.15047006 -0.017865544
000340 53 2b 9a bd 0a a8 83 bd e7 5f 01 3e 6e 13 58 3e
       -0.07527795 -0.06428535 0.1263424 0.21101162
000350 a2 e5 8a 3c 6a 7e d0 3c a5 e5 33 3e 80 d6 84 3e
       0.0169552 0.025450904 0.17568071 0.259449
000360 3d 94 58 be a8 31 44 be 15 ab 89 be db 54 9c 3d
       -0.21150298 -0.19159567 -0.26888338 0.076333724
000370 e5 36 97 3e 13 13 3e 3e 2a 67 42 be 04 b6 70 bd
       0.2953407 0.18561964 -0.18984666 -0.058767334
000380 02 19 ec bd 34 5a 62 3d 6c cd 3c bc 52 96 1f be
       -0.11528207 0.055261806 -0.011523586 -0.15584686
000390 3f ed 08 be fd 83 19 be b6 ee 00 3e e2 fc 30 be
       -0.13371752 -0.14991756 0.12591061 -0.17283967
0003a0 ca c4 1e 3e df 39 46 be b6 50 91 be 96 a4 1b be
       0.15504757 -0.19358014 -0.2838189 -0.15199503
0003b0 23 d2 a7 3e b1 8a 69 3d 28 5b 8b 3e 73 c5 01 be
       0.3277751 0.057017032 0.27217984 -0.12672977
0003c0 09 f1 f4 3a 34 b0 66 3e 0e c8 cb bd 1a 5d 0a be
       0.0018687557 0.22528154 -0.09950267 -0.13512078
0003d0 99 35 8e bd d9 ba 02 be 6e 27 1a 3e e6 ed 74 be
       -0.06943817 -0.12766589 0.15054104 -0.23918876
0003e0 e2 e2 e0 3c ec ea 80 bd a5 f2 82 be f0 21 2c 3d
       0.027451936 -0.06294808 -0.25575748 0.042024553
0003f0 63 ae 79 bd f4 70 91 bc 56 0c 55 3e 65 6c 1a be
       -0.060957324 -0.017754056 0.20805487 -0.15080412

lstm1_1.bias_ih_l0 f4 [64]
000000 b4 4c c6 3c 5b f6 f2 3d 63 be 70 bd 7e 76 7c 3e
       0.024206497 0.11863395 -0.058775317 0.24654576
000010 9c 89 23 3e c9 bb b8 bd 6e 20 ea 3d 2e f2 76 bc
       0.15970463 -0.09020192 0.11431967 -0.015072389
000020 0d 49 c1 bd 7f ec e8 3c cd 28 8f 3a 9f cf 2b be
       -0.094377615 0.028433083 0.0010922194 -0.1677842
000030 ed df 1e 3e 7d ef 50 be 3d 46 93 3e fc 16 0b 3c
       0.15515108 -0.20403858 0.28764525 0.008489367
000040 31 1e 21 be b8 eb 65 be 37 c1 f9 bd 55 47 31 be
       -0.15734173 -0.22453201 -0.12195056 -0.17312367
000050 b2 dc d9 bb 35 28 04 3e b3 7f c7 3c 93 77 07 bd
       -0.0066486234 0.12905963 0.024352884 -0.03307302
000060 91 24 25 bc bd e0 7c be 57 e4 97 3e b3 f3 8b bc
       -0.010079519 -0.24695106 0.29666397 -0.017083978
000070 68 dc 29 be be b7 c4 bd 63 5c 69 3e 63 4e 83 3e
       -0.16587985 -0.096053585 0.22789149 0.25645742
000080 c4 c1 fb bc 25 c3 47 3e 92 c9 c6 3d 61 71 9b 3d
       -0.030732043 0.19508035 0.09706415 0.07589985
000090 19 14 fd 3d 9f 8c 06 3d 09 ff dc 3d ec 8a 33 3e
       0.12357349 0.03284895 0.107908316 0.17533463
0000a0 14 2b e2 bd 73 39 2f ba 51 53 98 3e 6d 99 80 bd
       -0.11043373 -0.0006684281 0.29751065 -0.06279264
0000b0 03 4a ea 3c a3 04 a5 bd 8b 8f b3 3d b5 97 22 3e
       0.028599745 -0.08057525 0.08767613 0.15878184
0000c0 09 df 45 3c 8a e6 71 be cd fc 1e be f3 f3 02 3e
       0.0120771015 -0.236231 -0.15526123 0.12788372
0000d0 2d 63 71 3e c3 f1 17 3c 1a 0d 1e 3e 28 d7 e5 3d
       0.23572989 0.009273949 0.15434685 0.112226784
0000e0 02 7a 07 3d 0d 4a 05 3e a6 6e 66 3e 57 34 0d be
       0.03307534 0.1301653 0.22503147 -0.13789497
0000f0 d4 00 33 3e 3c 7c 6a 3d 8c 26 6c 3e 49 17 72 be
       0.17480785 0.057247385 0.2306158 -0.23641695

lstm1_1.bias_hh_l0 f4 [64]
000000 fd 54 59 be 45 08 c2 bd 30 0a 3a 3e 2c 81 90 3e
       -0.21223827 -0.094742335 0.18167949 0.2822355
000010 dd 7a 64 3c 4d 5e ee bd 52 9c e3 bd 2f 68 0a be
       0.0139453085 -0.1163908 -0.111138 -0.13516305
000020 68 df 30 be 07 0f 57 3e bf 19 95 3e 3b 0b 10 bd
       -0.17272723 0.21001826 0.29121205 -0.03516696
000030 5f d7 39 3e 3a 61 ef 3d 84 63 80 3e 81 51 86 3d
       0.18148564 0.11688466 0.25075924 0.065585144
000040 2f 7d c0 3d 8c 0c 62 be 45 6f f6 3d 65 5c 85 3e
       0.09398877 -0.22075099 0.12032942 0.26047054
000050 61 25 b0 3d 97 b1 88 3d 0d a0 28 be 93 a9 a9 bd
       0.086008795 0.066744976 -0.16467305 -0.08284297
000060 b1 f6 31 be be 8c 3e 3d 5d 95 04 3e 23 86 a0 bb
       -0.17379262 0.04652094 0.12947603 -0.004898803
000070 58 f8 7d be 05 c4 80 be 3f fb 9c 3d 6a b1 4a bc
       -0.24801767 -0.2514955 0.07665109 -0.0123714
000080 66 2e 66 be 52 64 38 3c cc 7a 11 3e 87 00 03 3e
       -0.22478637 0.011254387 0.14207 0.1279317
000090 5b 55 05 be 75 20 e1 bd d0 fc 2c 3e f2 21 c9 3d
       -0.13020842 -0.10992519 0.16893315 0.09820928
0000a0 3b d6 71 be b1 5a 20 be 78 e2 f3 3c 20 90 0c be
       -0.23616879 -0.15659596 0.029771075 -0.13726854
0000b0 a8 42 8e bd ea b9 2a bd 5b 5a 9a bc 11 24 7d 3e
       -0.069463074 -0.041681208 -0.018841913 0.2472079
0000c0 3f 69 27 be be ff 3b 3e bd a4 9f 3d f6 df 11 3d
       -0.16348742 0.18359277 0.07795093 0.035613976
0000d0 b4 cf 6d 3d c7 f1 2a be d9 6c e1 bd 5d 3d 34 3e
       0.05805941 -0.16693793 -0.11007089 0.17601533
0000e0 3d da 10 be 62 21 64 bc e9 f3 b1 bd f2 32 74 3d
       -0.14145751 -0.013923975 -0.086891 0.059618898
0000f0 72 4e ce 3d bf 39 40 be b2 28 1b 3e 0d fa 73 3e
       0.10073556 -0.18772028 0.15152243 0.23825856

lstm1_1.weight_ih_l0_reverse f4 [64, 32]
000000 e2 db 40 3e f9 a2 d9 3d ac cf d0 3d e0 41 67 3c
       0.18833879 0.10626788 0.1019586 0.014114827
000010 54 5e 36 be f8 a5 01 be 34 70 62 be d0 d9 af bd
       -0.17809421 -0.12660968 -0.22113115 -0.08586466
000020 7d df 70 be e8 74 c3 3d 27 59 22 3e 43 68 0f 3e
       -0.23522754 0.095437825 0.15854321 0.14004616
000030 a1 d3 fb bd 55 ff fc bd c6 26 6d 3e 3a b5 cd 3d
       -0.122962244 -0.12353388 0.23159322 0.10044332
000040 33 d5 31 3e df 31 4a 3e 78 0f 90 bd 0a 3c 17 be
       0.17366485 0.19745587 -0.070342004 -0.14768997
000050 c8 29 08 3e b8 87 38 3d de 9e 9c bd 31 8a 62 3e
       0.13297188 0.045051306 -0.07647489 0.22123028
000060 5a 4b f7 3d c7 a0 7d 3e 48 e0 69 3e a6 be 6f 3e
       0.12074919 0.24768363 0.22839463 0.2341257
000070 ea 1a 1e 3e 8e 49 8d bc 70 89 1d be da 83 9f 3e
       0.15439954 -0.017246988 -0.1538446 0.31155282
000080 fa 2b 12 3e 9f cb 95 bd 62 9d 70 3e 04 1a 53 3e
       0.14274588 -0.07314228 0.23497537 0.20615393
000090 d0 29 f0 3c 59 f3 5a be 93 07 08 be 7c 55 53 3e
       0.029316813 -0.21381892 -0.1328414 0.20638078
0000a0 ef 82 91 bd ea ad b2 3c ae 9a 87 3d 3d 01 53 3e
       -0.07105052 0.021811444 0.066213 0.20605941
0000b0 14 0c be bd ec d0 f0 3c 62 29 6d 3e 9e c1 67 3e
       -0.092796475 0.029396497 0.23160318 0.22632453
0000c0 4e 11 7c be 8b 7e 3f 3e c0 83 4b 3d 4f bd 19 be
       -0.24615976 0.18700616 0.049686193 -0.15013622
0000d0 b7 84 8f 3e 34 85 e0 bd b5 a3 9f bd eb a4 4f 3e
       0.2803094 -0.109629065 -0.077948965 0.20277755
0000e0 e6 01 5c be 6b ae 3b 3e f4 6b 55 be b4 eb ba bd
       -0.21485099 0.18328254 -0.20841962 -0.09126988
0000f0 54 6a 33 3e 93 25 8f 3e 7a 7c af 3d ab fb 99 3e
       0.1752103 0.27958354 0.08568664 0.3007482
000100 69 14 51 be 25 9b 49 be 68 99 32 be d6 dc 75 be
       -0.20417942 -0.19688089 -0.17441332 -0.24010023
000110 88 45 78 3d 16 27 12 be d6 7b 52 be 74 30 e4 bd
       0.060613185 -0.14272723 -0.20555052 -0.11142054
000120 3a be f0 bd 57 1a 17 3c 5d 38 6c bc 4c 8d b0 bd
       -0.11755033 0.0092225885 -0.014417735 -0.086207
000130 b7 6e 4a be 1e 52 ff bd 70 d9 d3 bc 99 87 fc 3d
       -0.19768797 -0.124668345 -0.025860518 0.12330551
000140 e1 10 01 3e 5d 73 aa 3d d2 51 67 be e2 6a fc 3d
       0.12604095 0.08322785 -0.22589806 0.12325074
000150 b7 f7 5a 3a 84 3f cc 3d 48 d9 3e be 8c 3e 27 be
       0.00083529524 0.09973052 -0.18637574 -0.16332453
000160 26 17 77 be be ff 16 bc de 1a e9 3d 64 31 9d 3d
       -0.24129924 -0.009216247 0.11382078 0.07675436
000170 20 85 cc 3d 74 16 4b bd 7f 8e 1b 3d 14 c0 2a bc
       0.09986329 -0.04958196 0.03797769 -0.010421772
000180 6f ff 72 be b7 ca 47 3c 9c d3 27 3e 08 f7 90 3d
       -0.23730253 0.012194327 0.16389316 0.070783675
000190 34 c7 cd 3d f7 8b e1 3c de e0 3f 3e 0c 9b e5 bd
       0.100477606 0.02753256 0.18738124 -0.112112135
0001a0 42 94 b5 b8 d6 79 27 3d 87 92 05 3e 36 e5 9b 3e
       -8.658368e-05 0.040887676 0.13044177 0.30448312
0001b0 ed d6 07 be b9 5c 7c bc a4 d9 b6 bd f0 b4 11 bb
       -0.13265581 -0.015402966 -0.089282304 -0.0022233091
0001c0 1e 1a 72 3e 6b ed bb 3b 94 03 2f 3e 85 4d 0d 3e
       0.23642775 0.0057350895 0.17091209 0.13799103
0001d0 f4 2b 4c be 88 d4 68 be ab 69 24 be 55 20 70 3e
       -0.19938642 -0.22737324 -0.16055934 0.23449834
0001e0 e4 11 42 bd 7c 04 cf 3b 47 87 d0 3d c2 e6 72 3e
       -0.047380343 0.0063176733 0.10182052 0.2372084
0001f0 00 4a 38 bc 01 6a 64 3e f7 ae 00 3e b7 12 12 be
       -0.011248112 0.22306062 0.12566744 -0.14264952
000200 a3 05 6a 3e 08 54 6e be 8c ab 31 be e6 f6 62 be
       0.22853713 -0.23274243 -0.17350596 -0.22164497
000210 54 d2 0d 3e af ba 3c 3e da c9 43 3e 18 0c fc 3d
       0.13849765 0.18430589 0.19119969 0.12306994
000220 d8 02 19 bd 66 12 40 3d 76 96 37 be ee 8d 16 3c
       -0.037356228 0.046892546 -0.1792849 0.009189112
000230 50 c6 3e 3e 23 9e 8c bd d6 a2 12 be 96 61 48 3d
       0.18630338 -0.068661 -0.1431993 0.04892119
000240 f3 38 bf 3d e8 41 70 bd 60 7b 57 3c 9c fd 19 3d
       0.09337034 -0.058656603 0.0131519735 0.037595376
000250 e0 7a bf bc e4 2b e6 3d be 64 28 be e3 f2 9c bd
       -0.023374021 0.1123884 -0.1644468 -0.076635145
000260 cb 9c f0 3c 27 66 4b be 32 60 65 bd 58 4e 5a be
       0.02937164 -0.19863187 -0.055999942 -0.21318948
000270 5a da 10 be 7f cb 53 3e b5 8e 56 bd 43 07 eb 3c
       -0.14145795 0.20683096 -0.05238219 0.028689986
000280 62 50 81 bd 16 c8 0b 3d 04 3e 87 3d ea fc 58 be
       -0.0631416 0.034126364 0.066036254 -0.21190229
000290 a0 c9 58 be ee 5d af bd 02 95 14 bb de 2b 06 3e
       -0.21170664 -0.085628375 -0.0022671823 0.13102672
0002a0 d3 a1 2c be 60 9f f1 3c ca 5d c0 ba a7 ec 49 3d
       -0.16858606 0.029494941 -0.0014676389 0.049297955
0002b0 06 53 4a 3e d2 c4 c9 bc ac 03 51 3e ba de 1d be
       0.19758233 -0.024629984 0.20411557 -0.15416995
0002c0 09 cc 03 3c 6b 53 21 3e 80 9b ae bd b7 78 6d 3d
       0.008044251 0.15754478 -0.08525753 0.05797645
0002d0 9b 29 c6 3d b8 7d 81 3d e8 6f 57 be 2c e2 22 3c
       0.09675904 0.06322807 -0.21038783 0.009941619
0002e0 93 c6 22 be d5 e0 6b 3e dc b9 be 3c 20 28 7d be
       -0.15896063 0.23034985 0.023281984 -0.24722338
0002f0 d6 80 6d 3e c4 5f 33 3b 6d 99 19 3e 36 f3 9b bd
       0.23193678 0.0027370313 0.14999934 -0.07614748
000300 4d 8e 19 3e 40 d6 3b be ac 84 d8 3d 56 fc 0b 3e
       0.1499569 -0.18343449 0.1057218 0.13670477
000310 f6 4d 31 3e c8 1c a4 bd 84 e4 2d bd 78 e8 2c 3e
       0.17314896 -0.08013302 -0.042454258 0.16885555
000320 6f 4d 54 3e 6f 3b 4b 3e 17 ae 39 3d a7 2d 0d 3e
       0.20732664 0.19846891 0.04533204 0.13786946
000330 83 ea 47 3e 65 36 23 3e c0 a3 0d 3e 5d 6e e4 bd
       0.19523053 0.15938719 0.13831997 -0.111538626
000340 c7 5a 00 3e b7 52 af bd 30 df 17 be e9 2f 87 bc
       0.12534629 -0.085606985 -0.14831233 -0.016502338
000350 c4 c7 5d bd de 27 6c 3e 85 11 3a bd cf e6 78 3e
       -0.05414559 0.23062083 -0.045426864 0.24306796
000360 b1 4d b6 bc 87 2d a4 3d dc f8 32 be f0 c8 b0 3c
       -0.022253843 0.08016496 -0.17477745 0.02158019
000370 24 87 73 be 26 c6 ab 3e 44 0b 66 3d 99 25 3f 3d
       -0.23782021 0.33549613 0.056163087 0.046666715
000380 7b 81 75 3e 4c 57 c7 3d 60 b6 19 bd ee a3 20 be
       0.23975174 0.097334474 -0.037527442 -0.15687534
000390 c0 04 48 3c 9d b5 65 bd 8d b8 3c 3d a6 4e 0b be
       0.012208164 -0.056081403 0.04607444 -0.13604221
0003a0 db 24 a9 bd 53 ee 6b be 4c 74 4b 3e 33 79 6f 3e
       -0.08258983 -0.23040132 0.19868582 0.23386078
0003b0 fd df d8 bd 47 7d 73 bd 10 39 3e 3d 52 04 2e be
       -0.105895974 -0.059445646 0.046441138 -0.16993836
0003c0 f6 64 ea 3d 75 9b 00 be 7c 9a 60 3e f9 13 47 be
       0.11445038 -0.12559302 0.21933931 -0.19441213
0003d0 3b 96 10 3e 04 9a ec 3d db ad 42 3e 0d 7f 71 bd
       0.14119808 0.11552814 0.19011633 -0.058959056
0003e0 55 8d 33 3e 9e 36 7f 3d b3 b1 27 be b8 0e 52 bd
       0.17534383 0.062307946 -0.1637638 -0.05128357
0003f0 38 8d 72 3e aa 40 09 3e 45 f2 64 3e a1 9b 7a 3e
       0.23686683 0.13403574 0.22358043 0.2447343

lstm1_1.weight_hh_l0_reverse f4 [64, 16]
000000 bb 9b ed 3d ba 2f 2f bd 99 c7 fd bd ee 0c 00 3d
       0.11601969 -0.042770125 -0.12391586 0.03126233
000010 c6 67 00 3d 0d a0 3e bc 29 94 d5 3b 43 e4 c8 3c
       0.031348966 -0.011634839 0.006517906 0.024522906
000020 bc 4f c3 3d ea b4 ad 3d bb 51 ba bd 97 d8 84 3e
       0.095366925 0.08481772 -0.0909762 0.25946495
000030 23 ac 57 3e c2 2f 0b be 14 e8 2d be 0c 84 52 3e
       0.21061759 -0.13592437 -0.16983062 0.20558184
000040 53 29 2a 3e 36 55 94 be 57 07 59 be 22 d2 99 be
       0.16617326 -0.2897126 -0.21194206 -0.3004313
000050 44 3e 8d 3b 2c 2a fb bc 56 c5 69 3b bf 88 a7 bd
       0.004310401 -0.030659758 0.00356706 -0.08180379
000060 f4 90 5f bc b6 f7 3a 3e 59 73 8e 3d fc ed 5b 3e
       -0.013645399 0.18258557 0.069555946 0.21477503
000070 ec 10 9a 3e b9 8d 23 bd 9a 6c a9 3d 29 16 00 3c
       0.30091035 -0.03993008 0.08272667 0.007817783
000080 76 ca 61 be 95 8e f5 bd 0c 9f 69 3e d0 6b 83 3d
       -0.22049889 -0.11990086 0.22814578 0.06417048
000090 82 2c b8 3d 98 cd 74 be 33 b6 4d 3c 56 ef 1f 3e
       0.08992864 -0.23906553 0.012555647 0.15618643
0000a0 67 1a b4 3d 1b 7a 31 3e b0 8a 71 be 17 76 76 3b
       0.08794098 0.17331736 -0.23588061 0.0037607008
0000b0 c3 cf 33 3e 00 c3 6a bb 18 6e 25 3d b6 a9 04 bd
       0.17559724 -0.0035821795 0.040388197 -0.03238841
0000c0 52 09 33 3e 61 a1 4c 3e 0c 7b ee bd b2 f8 c8 3d
       0.17484024 0.19983436 -0.11644563 0.0981306
0000d0 1a b8 9b 3d a6 8e 37 3d 0c 11 7e be 76 be 49 be
       0.07603474 0.044813775 -0.2481119 -0.19701561
0000e0 33 60 89 3a 73 5e 82 3e e3 e0 3a be bf 2f cf 3d
       0.001048094 0.25462684 -0.1824985 0.10116529
0000f0 57 44 91 bb e1 66 4f 3e 86 01 af 3d a0 8b 32 be
       -0.0044331956 0.20254089 0.085452124 -0.17436075
000100 27 d1 b9 3d 96 c1 22 be a4 b5 4a be 34 ef ec 3d
       0.09073096 -0.1589416 -0.19795853 0.11569062
000110 15 f3 f0 3b 79 5d e4 bd e1 24 6a 3d ba 3a ee bd
       0.0073531964 -0.11150641 0.057164077 -0.11632295
000120 5b 7f 4b be 32 41 b4 3d d0 14 3c bd 52 95 10 be
       -0.19872801 0.088014975 -0.045918286 -0.14119461
000130 5d 7e 5e be 81 05 46 be 19 de 41 bd 91 b7 81 3d
       -0.21727891 -0.19338037 -0.04733095 0.06333841
000140 1e 4d 29 3e ee d0 28 3e fc 18 30 be 31 4d fa 3b
       0.16533324 0.1648595 -0.17197031 0.0076385965
000150 d4 44 08 be 20 78 05 3e bb 49 03 3e fe 1d 08 3e
       -0.13307506 0.13034105 0.12821095 0.13292691
000160 86 1a e1 3b 1d df 5a 3e 28 01 bd bd 91 8d 6d be
       0.006869617 0.21374173 -0.09228736 -0.23198535
000170 5f 16 6c be 64 96 2b be e6 63 19 bd 19 7d 81 3d
       -0.23055409 -0.16756588 -0.037448786 0.063226886
000180 01 f8 92 bd ee c0 11 3e 75 ce 9c 3c 34 27 3b be
       -0.07176209 0.14233753 0.019141415 -0.18276674
000190 cd 71 a8 bd 03 97 ef bd f9 a3 9a 3d 23 f4 f0 3d
       -0.08224831 -0.11698725 0.075508066 0.117653154
0001a0 23 99 a9 3d 3c 60 87 3d 12 39 21 3e fa 45 94 39
       0.08281162 0.06610152 0.15744427 0.00028280896
0001b0 fe 66 11 3e 45 32 08 3e 3b 36 8c 3b 42 70 bc 3d
       0.14199445 0.13300426 0.0042789257 0.09201099
0001c0 e9 6e e9 3c 80 c6 38 be 57 5d ea bd 80 02 96 bd
       0.028495269 -0.18044472 -0.114435844 -0.073246956
0001d0 b6 3a 9b bd c0 12 e8 3d 77 78 07 3e a0 83 a0 bd
       -0.075795576 0.11331701 0.13229547 -0.078376055
0001e0 12 fd 54 3e e4 1c 04 bd d7 fc 37 bb 63 38 30 bd
       0.20799664 -0.032254115 -0.0028074288 -0.043022525
0001f0 70 1c 56 3e b7 7c 62 3e be f4 94 3c 30 13 88 be
       0.20909286 0.22117887 0.018183108 -0.2657714
000200 59 ab 2f be af 13 ca bc 9f ad 22 be b2 0f 0d 3e
       -0.17155208 -0.024667589 -0.15886544 0.13775519
000210 35 5e 30 bd 70 f3 35 3d 7b 7d 8c bd 19 8c e9 bc
       -0.043058593 0.044421613 -0.06859871 -0.028509187
000220 db c7 be 3d 24 49 fe 3d 3e f3 29 3d 65 ba 59 3e
       0.09315463 0.12416294 0.04149174 0.2126251
000230 a3 b4 0c 3e ac 07 e6 3d f2 ee 31 be 05 8a b3 bd
       0.13740782 0.11231932 -0.17376307 -0.087665595
000240 a2 eb 9b 3d ab 68 29 be f5 ae 1a 3e 0c 99 28 3e
       0.07613303 -0.16543834 0.15105803 0.16464633
000250 49 69 ad bc 68 86 20 be 3a 9a 22 be de 72 b4 bb
       -0.021168368 -0.15676272 -0.15879145 -0.0055068573
000260 85 4c 08 3d 7f 80 2a be 1d 06 91 3c 78 11 ee bc
       0.0332761 -0.1665058 0.01770311 -0.029061064
000270 bb ae 49 be 96 ed 24 be 47 2d 13 3e 94 0e 41 be
       -0.1969556 -0.16106257 0.1437274 -0.18853217
000280 2a 77 8d bc a2 3c d9 3b ad 9d 53 be 36 69 5e 3d
       -0.017268736 0.0066295424 -0.20665617 0.054299556
000290 15 8d 2a be b8 68 2b be 87 c4 10 bd 5d b9 bb bc
       -0.16655381 -0.16739166 -0.035343673 -0.022915537
0002a0 5f 1b 62 bd 98 c3 86 3e 03 a1 c8 3d 30 a3 ca bd
       -0.055201884 0.263211 0.097963355 -0.09894407
0002b0 e5 15 9b 3d 51 0d 81 3e 2b 40 8d be 48 d0 92 3e
       0.075725354 0.25205472 -0.2758802 0.2867453
0002c0 c8 ac dd bc 54 b4 46 3e 19 29 43 be 58 8f 70 3e
       -0.027059928 0.19404727 -0.19058646 0.23492181
0002d0 40 3b 1a 3e f4 37 88 bd f2 b1 3b 3e 23 76 7a 3e
       0.15061665 -0.06651297 0.183296 0.24459128
0002e0 c1 5b 23 be eb 3c 63 be 36 1a 76 be dc 03 3a be
       -0.1595297 -0.22191207 -0.24033436 -0.18165535
0002f0 f6 5b 86 bd fd 67 83 be a5 d0 95 3d 1f b0 89 3d
       -0.06560509 -0.25665274 0.073151864 0.067230456
000300 4f 9e 8d 3e 92 64 84 be 9b 39 87 3c 44 22 38 bd
       0.27659842 -0.2585798 0.01650696 -0.044954553
000310 65 37 03 be 4a 56 f0 3d fb be 8b bd d1 63 06 bd
       -0.128141 0.11735208 -0.06823536 -0.032810036
000320 68 66 c5 bd b0 98 28 be 7a ed b0 bd 7a 8b 7d 3e
       -0.09638673 -0.16464496 -0.08639045 0.24760237
000330 95 69 9f 3c 12 e9 04 bd 4b e3 21 be 2b c9 1a be
       0.019459525 -0.032448836 -0.15809362 -0.15115802
000340 ff 81 9f 3e fe eb a9 3d e5 87 1c 3e 30 d0 c0 3c
       0.31153867 0.08296965 0.15286215 0.023536772
000350 c2 81 0f 3e 9e 47 82 3e ca c2 2f be 46 d4 a7 3d
       0.14014342 0.25445265 -0.1716415 0.08194785
000360 31 a9 64 be d2 f2 c9 3d c3 54 12 b9 a8 84 a1 3d
       -0.22330166 0.098607674 -0.00013955221 0.0788663
000370 20 a5 ba bc 07 57 04 be f3 10 50 3e eb c7 2b 3e
       -0.022783816 -0.12923823 0.20318966 0.16775481
000380 d9 b0 28 be 3e 84 10 be 67 e0 5c 3e f5 55 11 3e
       -0.16473712 -0.14112946 0.21569978 0.14192946
000390 26 8f 3f 3d 13 ca a4 3d 31 72 8f bd 3d 58 07 be
       0.046767376 0.08046355 -0.07004202 -0.13217254
0003a0 4f bb 5d 3d b6 12 57 3e 04 58 9d bd 34 55 12 bd
       0.05413371 0.21003231 -0.07682803 -0.035725787
0003b0 d0 c0 22 bd f9 05 a5 3d 06 7f 2f 3e ad 2b 3c be
       -0.03973466 0.0805778 0.171383 -0.18376036
0003c0 49 d3 e6 3d e1 d3 2c 3e 8f af 04 be cf 8d 3b be
       0.11270768 0.168777 -0.12957595 -0.18315814
0003d0 58 65 77 be 30 14 83 3e a8 4b a1 3d 73 c9 93 3e
       -0.24159753 0.2560134 0.078757584 0.2886463
0003e0 95 28 bf bd 81 c1 9e bd 84 ec 39 bd 95 3a 27 3d
       -0.09333912 -0.07751752 -0.045391575 0.040827353
0003f0 26 7d 2c be 6c 58 7c 3e 91 2e a9 bd 85 ac 2c 3e
       -0.16844615 0.24643105 -0.08260835 0.16862686

lstm1_1.bias_ih_l0_reverse f4 [64]
000000 0f af dc bd 37 64 8a bd 36 fe 9b 3d 9d c2 4c 3e
       -0.10775577 -0.06757396 0.07616846 0.19996114
000010 ba e4 73 3e 2b fd 62 be 28 07 86 bd 3c 4a 2f 3b
       0.23817721 -0.22166888 -0.06544334 0.0026747128
000020 22 c3 90 bd 6e 7b 32 3d 55 5e cf 3b 12 e6 7c be
       -0.07068469 0.043574743 0.006328384 -0.2469714
000030 02 12 da bd dd df 2e be 08 c7 74 be 24 ac 45 3e
       -0.10647966 -0.17077585 -0.2390405 0.19303948
000040 5f b5 44 3e d6 a0 87 3e b4 c0 d5 bd 6f f5 d9 bd
       0.19209813 0.26489896 -0.10437146 -0.10642516
000050 22 8e 26 3d 53 0d f9 bd 19 98 02 be a1 14 15 be
       0.040662892 -0.121607445 -0.12753333 -0.1455865
000060 44 51 ff bb 8b 9a 01 bd 81 99 fd bd 14 47 d8 3d
       -0.00779167 -0.031641524 -0.12382794 0.10560432
000070 d2 4d 11 bd 81 4a cd 3d 4f bf 29 3e e9 7e 80 be
       -0.035474606 0.10023976 0.16576885 -0.25096825
000080 bd 0d 06 be 7e 65 ce 3d 71 0b 65 3e e4 18 09 bd
       -0.13091178 0.10077952 0.22367646 -0.033471003
000090 14 e5 2b 3e 25 d5 a0 bc 24 e0 08 be d3 44 7a be
       0.16786605 -0.019632885 -0.13366753 -0.24440317
0000a0 a9 46 ce 3c fd 3a 67 be a6 53 a3 bd e7 c2 8e bd
       0.025180178 -0.22581096 -0.07974939 -0.069707684
0000b0 85 e0 94 bd 1d ea 17 bd 29 b2 19 3e 0a 81 91 3d
       -0.07269386 -0.037088502 0.15009369 0.071046904
0000c0 0f ec df 3d 27 5f 51 3e cd 96 73 be f7 47 ce bd
       0.109336965 0.20446454 -0.23787995 -0.1007232
0000d0 25 02 64 3e 68 f0 d6 3d 76 98 56 3e 0b 58 c1 bd
       0.22266443 0.104950726 0.20956597 -0.09440621
0000e0 dd ac 13 3e 17 b1 85 bd d9 e6 d9 3b 71 e7 46 be
       0.14421411 -0.06527918 0.0066498336 -0.19424225
0000f0 ec 70 26 be 38 69 04 3e f7 e3 aa 3c 25 df 4a be
       -0.16254014 0.12930763 0.020860655 -0.19811685

lstm1_1.bias_hh_l0_reverse f4 [64]
000000 b5 d3 99 3e 97 18 07 3e fa 2a 29 bd 85 aa 9b bc
       0.30044332 0.13192974 -0.04130075 -0.019002208
000010 90 39 a6 bd bf 08 69 3e 84 5e 43 be 3e ee b0 bc
       -0.08116448 0.22757243 -0.19079024 -0.021597978
000020 5d 84 2c be c5 f0 c7 bd 00 75 6f be 96 4f fd bd
       -0.16847368 -0.0976272 -0.23384476 -0.123686954
000030 7f 08 f6 3d 62 46 af bd d3 c7 72 3e 06 34 19 be
       0.12013339 -0.08558346 0.2370904 -0.14961252
000040 f5 a6 f6 3d 88 11 41 3e be 68 27 3e 87 55 16 3e
       0.12043563 0.18854344 0.1634855 0.14681064
000050 27 a5 a8 3c 6c 66 34 bd 56 e0 2d be 2f 03 34 be
       0.020586563 -0.04404299 -0.16980109 -0.1757934
000060 5b da 25 3d e1 da b8 3d 29 c9 fa bd c0 7b c3 bd
       0.040491443 0.09026123 -0.122453995 -0.09545088
000070 f6 e1 e8 3c 65 8e 41 bc ed 51 39 3e b2 f7 79 be
       0.02842806 -0.011813735 0.18097658 -0.24410895
000080 05 a6 17 be 20 39 02 be 72 5e 9a bd dc 4f 59 3e
       -0.14809425 -0.12717104 -0.07537545 0.2122187
000090 f5 e3 81 bd fe c7 6b be 70 ef 1a bd eb de be bd
       -0.063423075 -0.2302551 -0.037826 -0.09319862
0000a0 b0 d2 ea bd 01 10 8c bd 5b 01 2a 3d de d8 98 bc
       -0.11465967 -0.0683899 0.0415052 -0.018658098
0000b0 f6 0a 61 3e 2e 5d 50 3d 67 6d 38 3e 37 c9 07 3d
       0.21976838 0.050870113 0.18010484 0.033150878
0000c0 a3 57 61 3d b0 f0 24 3d 22 e4 80 3c 35 32 b1 bc
       0.055015218 0.0402686 0.015733782 -0.021630386
0000d0 0e 3b 79 3d fe 9f 82 3d 4c dd 25 3e 7c 10 24 be
       0.060847335 0.06378172 0.161977 -0.16021913
0000e0 49 63 6f 3e 41 a4 3b be 12 34 ae bd 69 f4 1d 3e
       0.23377718 -0.18324377 -0.085060254 0.15425266
0000f0 91 c2 f4 3d f0 cb 40 3c e2 76 2c 3e 0e b8 6f bd
       0.11951173 0.0117673725 0.16842225 -0.058525138
