results/soh_cross_laboratory_datasets_results/Dataset 2/transfer from Dataset 5/Experiment2(1C-5)/from_Dataset 5_ft_model.pth (torch, 95756 bytes, 27 tensors)

cnn1.0.weight f4 [16, 1, 3]
000000 01 43 61 3e 83 9b b0 3d 76 26 cc 3e d8 94 9c be
       0.21998216 0.086234115 0.39873093 -0.3058231
000010 c8 94 9a be 3c 7b c2 3d 6b 93 2c be ac df 02 be
       -0.30191636 0.09496161 -0.1685311 -0.12780637
000020 0a e7 23 3e f6 05 16 3f 37 5b 2a be c3 38 00 be
       0.16006103 0.58602846 -0.16636358 -0.12521653
000030 63 d2 02 3f 2f 9e 0f 3e 47 c4 f5 3e 0c 0a 59 3e
       0.51102275 0.14025186 0.4800131 0.21195239
000040 94 2d 0d 3f d7 cf b3 be 5b c9 f8 be f7 86 3f 3e
       0.5514767 -0.35119507 -0.48591122 0.18703829
000050 10 a0 ff be 6c 0e e1 be ee 90 ae 3d c8 d8 a8 be
       -0.49926805 -0.43956316 0.08523737 -0.3297789
000060 8a 22 88 3e 33 87 d6 be ee e0 95 bd 5e 4c 90 3e
       0.2658885 -0.41900024 -0.073182926 0.28183264
000070 f1 f3 fe be 1a 70 06 3e 46 9b 95 be ae f5 09 3f
       -0.49795488 0.13128701 -0.29220027 0.538905
000080 4a 87 68 be 4d 72 9f bd cb ab 46 3d 68 5e b0 3e
       -0.22707859 -0.07785473 0.04850368 0.34447026
000090 76 ec e9 be fa cd d7 be 3e 88 dc bd d4 1e 84 be
       -0.45688218 -0.42149335 -0.10768174 -0.2580477
0000a0 47 15 d1 bd 82 ab fc 3e 31 fe 03 3e 03 08 de 3e
       -0.102091365 0.493496 0.12889935 0.43365487
0000b0 69 52 a7 3d 26 d4 03 3f 38 99 28 3e 69 00 be 3c
       0.08170015 0.5149559 0.16464698 0.023193555

cnn1.0.bias f4 [16]
000000 83 41 4b 3e 17 7e 15 3f 6f 9f da bd 1d 7e 17 3e
       0.1984921 0.5839552 -0.10674941 0.14794202
000010 2c d6 aa 3d 2c 34 2e 3e 49 bb 70 be 16 dc 22 be
       0.08341631 0.1701209 -0.23508944 -0.15904269
000020 9c 62 e2 be 0b 99 c9 be c9 85 80 3e 4d 12 12 bf
       -0.44215858 -0.39374575 0.2510207 -0.57059175
000030 04 aa ea 3e 4b 0b a2 be 63 77 05 bd f1 47 82 be
       0.45832837 -0.3164924 -0.03258456 -0.25445512

cnn2.0.weight f4 [32, 16, 3]
000000 92 fb ca bd b9 bc b4 bd a2 13 9c 3d b5 b6 11 3e
       -0.099112645 -0.088250585 0.07620932 0.14229853
000010 d2 ca 0e 3e 8b 24 bd bd 07 70 02 3e 94 fd 9d 3d
       0.13944557 -0.09235486 0.12738048 0.07714382
000020 85 bf 4d bc 0b 3c 8b 3d 69 02 a5 bc dd 11 a8 bd
       -0.012557869 0.06798562 -0.02014275 -0.08206532
000030 6d 3a 03 bc 29 0b 06 be fc 07 0b 3c 04 a0 7d 3d
       -0.008009535 -0.13090195 0.00848579 0.06192018
000040 14 c6 07 3e 4d 08 68 bd 4c ec 05 3e 0e 07 03 be
       0.13259155 -0.05664854 0.13078421 -0.1279566
000050 83 0c fb bd 2b 38 ce 3d 63 d6 d6 bb 48 e2 ac bd
       -0.12258246 0.10069307 -0.0065563186 -0.08441597
000060 99 32 3e 3d 05 52 cc bc aa 6f 00 3c d2 c6 ab bc
       0.046434972 -0.024941454 0.007839123 -0.020968828
000070 df a8 b9 3d 21 77 dc bc c1 c4 04 3d 59 6d f6 bd
       0.09065413 -0.026912274 0.0324142 -0.12032575
000080 44 fb f1 bc d5 f2 9c 3d 05 0b 10 bd 95 a2 1c bd
       -0.029538758 0.07663504 -0.03516676 -0.038240988
000090 ed 7f ee bd f8 04 23 bc 95 ae ba bd f2 f5 d1 bd
       -0.11645494 -0.009949915 -0.0911533 -0.102519885
0000a0 9b 9d 02 be 9b 59 fb bd 60 16 db 3d 58 80 98 bd
       -0.12755434 -0.1227295 0.10697627 -0.07446355
0000b0 79 15 11 be 7e eb 08 be b7 32 93 bc f0 52 14 bd
       -0.14168347 -0.13371083 -0.017968519 -0.036211908
0000c0 34 35 2e bd 4a 0f 0f be 80 4a 86 bc 51 04 ea 3b
       -0.042531207 -0.13970676 -0.016392946 0.007141628
0000d0 00 17 93 bc 81 ed 08 3e ce db 85 bd a5 9a 9e bd
       -0.017955303 0.1337185 -0.06536065 -0.0774434
0000e0 5a c1 28 bd 54 06 de bc 6d 35 b3 bd e9 26 82 bd
       -0.04120002 -0.027102627 -0.087504245 -0.06355078
0000f0 ba f8 f6 3d 5a fc f6 bd 87 dc df 3d 0f 64 5d bd
       0.120591596 -0.12059851 0.10930734 -0.0540505
000100 d2 8b 02 be c4 4a 96 3b 76 fe bf 3d b2 02 ba 3a
       -0.1274865 0.0045865495 0.093747064 0.0014191477
000110 79 40 d5 bc be 32 d6 3c b9 c2 da 3d 11 84 95 bd
       -0.02603172 0.026147243 0.10681672 -0.0730058
000120 7b 0c 03 be f7 53 d1 bd 22 07 54 bd 55 f7 a8 3d
       -0.1279773 -0.10221093 -0.051764615 0.082503
000130 29 e6 ec bd 5b 62 07 be 67 5a c2 bd 07 44 0e be
       -0.11567337 -0.13221113 -0.09489899 -0.13893138
000140 d5 b8 c8 bd 46 9f e2 3d ed 22 dd 3b d2 6e dd 3d
       -0.09800879 0.11065535 0.0067485482 0.10812153
000150 ad c9 d5 bd 9a 0e ba 3c 94 90 38 3d f2 47 f4 bd
       -0.10438857 0.02271204 0.045059755 -0.11927785
000160 b3 8f f5 bd a2 65 c2 bd f2 4a c6 3a 9d 02 e1 3d
       -0.11990299 -0.09492041 0.0015128537 0.109868266
000170 ca be 98 bd f0 68 52 bd 38 25 95 3d 98 c7 da 38
       -0.07458265 -0.051369607 0.072824895 0.00010432227
000180 f6 ad 1b bc 97 c5 13 be 68 c2 a0 bd a9 e1 c8 3d
       -0.009501925 -0.14430843 -0.0784958 0.09808666
000190 48 c2 6a bb a3 42 e8 3d a8 d3 4e 3d 90 fd d5 3d
       -0.0035821367 0.11340835 0.05049482 0.10448754
0001a0 52 c6 a5 3d ca 72 a4 bd d6 6e b4 3d 8e c0 63 bd
       0.08094467 -0.08029707 0.08810203 -0.055603556
0001b0 1c e6 8e bd 56 9e 61 bd 9f 15 01 be f0 25 bc bd
       -0.06977484 -0.05508264 -0.12605904 -0.091869235
0001c0 ae 1b 84 bd 00 df 5a bd 3d 68 f0 3d 40 28 7b 3c
       -0.06450592 -0.053435326 0.11738632 0.015329421
0001d0 80 96 bf 3d f8 d1 e8 bd c1 22 ac 3d 08 3b 0d be
       0.093548775 -0.11368173 0.08405066 -0.1379205
0001e0 46 30 08 3e 83 04 a5 3d 88 94 3d 3d ad 75 03 3e
       0.13299665 0.08057501 0.04628423 0.12837858
0001f0 6f b0 2d bd 58 ac 0c be 90 b7 b2 bd 55 9a 85 3c
       -0.04240459 -0.13737619 -0.08726418 0.016308943
000200 21 14 cb bd 0a 6e 12 be dd 8a d9 3d 35 e7 d0 3d
       -0.09915949 -0.14299789 0.10622189 0.10200349
000210 03 c0 9b 3d 5f 46 0e bb ac 1b 03 be 62 68 bf bd
       0.07604983 -0.0021709425 -0.12803525 -0.09346081
000220 6f 83 5d 3d c3 2a e8 bd 9c 5c 7c bd dd f7 97 3d
       0.054080423 -0.11336281 -0.061611757 0.07420323
000230 bb b0 6b bd ae a1 1e bd fc 4e 05 be fb 0f 5b 3c
       -0.05754159 -0.03872841 -0.13018411 0.013370509
000240 ed 0b 6e bd 9d 33 03 bd 2d b4 27 bd 0f be f5 3d
       -0.058116842 -0.032031644 -0.040943313 0.119991414
000250 e9 33 21 3e dc e6 da 3c 25 e0 54 3d b8 19 88 3d
       0.15742458 0.02672141 0.051971573 0.066455305
000260 7d 4e d2 bb 9f fd b5 3d d3 e3 f5 3d 79 db dc bd
       -0.006418048 0.08886265 0.12006345 -0.107840486
000270 00 86 15 be 16 eb 54 bd 43 15 6f 3d 9c 31 0a 3d
       -0.14601898 -0.051982008 0.058369886 0.033738717
000280 cc f3 5d bc 3f ba f4 3d ce 51 e7 bc 94 f7 9e 3d
       -0.013546895 0.11949586 -0.02823725 0.077620655
000290 a0 d2 d9 3d 6a bd a1 bd 61 f7 1c bd 5b 02 3f bd
       0.10635877 -0.07897456 -0.038321856 -0.046633106
0002a0 75 bd e9 bd 41 46 c6 3d 54 01 be 3d a0 f8 4d 3d
       -0.11413089 0.096813686 0.09277597 0.050285935
0002b0 33 8d bd bd 18 dd 94 3d ee 84 eb bc 45 04 80 3d
       -0.09255447 0.07268733 -0.02874991 0.06250814
0002c0 4e 83 81 bd cb 29 e2 bd bd fe ff bc ea e4 ce bd
       -0.063238725 -0.110431276 -0.031249398 -0.10102256
0002d0 1a f5 18 3e 48 b0 c2 3b d9 c6 25 3d 94 66 c9 3d
       0.14937249 0.0059414245 0.04047284 0.09834018
0002e0 7d e8 14 3d 74 9b 9c bd 51 6b 00 3d 15 d6 25 be
       0.03635453 -0.07646838 0.031352345 -0.16194947
0002f0 de 30 0e ba 2c 8a 7b 3d 9b db 17 be 4c e5 03 3e
       -0.0005424152 0.061411068 -0.14829867 0.12880439
000300 60 32 07 be d6 67 92 bd 73 a1 d4 bd 18 9f b7 3d
       -0.1320281 -0.071487114 -0.103823565 0.089658916
000310 96 a6 be 3d b3 90 84 3d e0 09 d3 bd 4f 84 a0 3d
       0.093091175 0.06472912 -0.10304618 0.07837736
000320 ef 02 dc bd a2 a4 16 be 9e c3 ce 3d e0 6d a1 bb
       -0.10742747 -0.1471124 0.10095905 -0.004926428
000330 56 5f 19 be 2e e2 8b 3b cb fd 0c 3e 00 05 2e bd
       -0.14977774 0.004268906 0.1376869 -0.042485237
000340 4d 7d 7f 3d de 96 eb 3d fd 53 e4 bd 85 01 f6 bd
       0.062375356 0.11503385 -0.11148832 -0.120120086
000350 5b 30 cf 3d 2d 30 0f 3e 33 61 02 be 75 24 f5 3d
       0.10116645 0.13983221 -0.12732391 0.11969844
000360 de ba 04 3d 6b 4e af 3d b0 d9 d4 3d 01 d0 44 bd
       0.032404773 0.08559879 0.10393083 -0.04804993
000370 5d 5d 2a bd f3 28 b3 bd 2b c5 f5 3d ff 83 1f bd
       -0.041592944 -0.08748045 0.120004974 -0.03894424
000380 89 1d 71 bd b6 9b 06 3d c9 ad 81 3c 8a 98 fd bd
       -0.058866058 0.03286334 0.015829938 -0.1238261
000390 44 6f f9 3d b5 32 bc bc 1e 50 0a be ef 26 18 3c
       0.12179425 -0.022973398 -0.13507125 0.009286626
0003a0 3f 63 e9 3d e5 69 86 bc 63 6a 9d bd 85 a9 09 be
       0.11395883 -0.016407916 -0.07686307 -0.13443573
0003b0 18 ae 48 3e ad a4 de bd 7a 14 be bd 57 72 9f 3d
       0.19597661 -0.10871253 -0.09281249 0.077854805
0003c0 63 0a 7b 3d 29 f6 1a bc e3 b1 86 bc fe cc c7 3d
       0.061289202 -0.009458103 -0.016442245 0.09755896
0003d0 f9 2f c3 bd 0a 89 e3 bc a5 f6 ed bd ee a8 16 bd
       -0.095306344 -0.027775306 -0.11619309 -0.036782198
0003e0 e6 fb 25 bd 53 62 2f 3d c0 e1 1b be ec be 89 3c
       -0.040523432 0.04281838 -0.15222836 0.016814671
0003f0 d1 d3 60 3d 95 06 ef bd 30 26 9a 3d 50 da e3 3d
       0.054889504 -0.11671177 0.07526815 0.11125624

cnn2.0.bias f4 [32]
000000 ab 05 e7 bd 10 ce 82 3d ec 98 57 3d 26 28 d3 3d
       -0.11280378 0.063869596 0.052636072 0.10310392
000010 bb ea a5 bd 1d c3 e5 bd ea de 25 bc 8c 02 f0 3d
       -0.08101412 -0.112188555 -0.010123948 0.11719236
000020 b1 19 00 bd 40 f9 b8 3c c3 fa 13 3d 90 8c de bd
       -0.0312745 0.02257979 0.036127817 -0.10866654
000030 db f9 29 3e cc 33 a0 bd 28 a9 c2 3c 58 5b f4 3c
       0.16599219 -0.078223795 0.0237623 0.029828712
000040 60 c3 fa 3d 19 a1 d4 bd 05 cf cd 3d 60 d8 90 bd
       0.12244296 -0.103822894 0.100492515 -0.0707252
000050 42 aa 12 be bf a7 04 be fd c3 ac bd 39 f8 ad bd
       -0.1432276 -0.12954615 -0.08435819 -0.0849461
000060 5c dc 2c be d3 bb 5d bd 0b 0e 1f 3e f1 d2 b3 bd
       -0.16880935 -0.0541342 0.155327 -0.08780468
000070 3b 44 a7 3d e8 81 e3 bd bd b7 41 3e 1e 9f e9 bc
       0.08167311 -0.11108762 0.18917747 -0.028518256

lstm1_1.weight_ih_l0 f4 [64, 32]
000000 4a a1 6a 3e 0c 36 50 3e 8b 31 79 bc 47 47 8b bd
       0.2291309 0.20333117 -0.015209566 -0.068007044
000010 83 77 42 3d fa ef 53 be b6 bf 74 3e e4 24 3a 3e
       0.047477257 -0.20697013 0.23901257 0.18178135
000020 7c 65 af 3d 4f e6 5e bc 02 8e 4b be 90 00 9c bd
       0.085642785 -0.013604715 -0.1987839 -0.07617295
000030 87 df 01 be a4 5a 37 be 34 b6 11 3e 35 f6 0d 3d
       -0.12682925 -0.1790567 0.14229661 0.03465863
000040 c4 8b 9b 3d 30 8a f4 bd 57 18 69 be ea 42 4e 3e
       0.075950176 -0.1194042 -0.22763191 0.20142713
000050 3a a3 b5 3c 3c f0 05 3e 30 e5 73 3d ec 2d 4f 3d
       0.022172559 0.13079923 0.059544742 0.050580904
000060 db 43 1a bd ae c9 5f bd 7e 9d 3d be a2 77 26 3e
       -0.03766237 -0.054635696 -0.1851711 0.16256574
000070 da c3 b7 bd 84 3c 58 3d ed bb 05 be 07 f8 7e be
       -0.089729026 0.052792087 -0.13059969 -0.24899302
000080 c4 bb 25 3e 98 7a 4e 3e 19 d7 7f be 1b 8e 86 be
       0.16184908 0.20163953 -0.24984397 -0.26280293
000090 67 31 15 3e 21 0c 04 3e ac d1 83 3e 6f b6 56 be
       0.14569627 0.12895252 0.25745904 -0.2096803
0000a0 4a ed 2b be 01 66 64 be 93 16 c4 bb 3a 75 0f 3e
       -0.16789737 -0.22304536 -0.0059841364 0.14009562
0000b0 81 c0 1d bd 24 3f 1f be 98 31 36 3e b4 c6 a6 3b
       -0.038513664 -0.1555143 0.17792356 0.005089605
0000c0 a8 4b 5a be 10 f1 18 bd 92 2a a5 3d 28 b7 74 3e
       -0.21317923 -0.03733927 0.0806476 0.23897994
0000d0 21 c6 43 be 69 6d df bd 4c d7 d2 3d 8b d6 a3 3c
       -0.19118549 -0.1090954 0.10294971 0.019999763
0000e0 d3 ee 30 be 60 c4 72 3e 95 cb 65 be 72 26 54 be
       -0.17278604 0.23707724 -0.22440942 -0.2071779
0000f0 57 e1 19 3e ad 4f b8 bd 82 23 cf 3c 0b f5 af 3d
       0.15027367 -0.08999572 0.025285486 0.0859166
000100 8a 63 40 3e 40 e2 d5 3b 35 ea 4d be 74 43 92 bd
       0.18787971 0.0065272152 -0.20108874 -0.07141772
000110 73 c8 fc 3c fd 9a 3b 3e 19 7c 47 3e 29 49 2b 3e
       0.0308573 0.18320842 0.19480933 0.16727127
000120 8a 30 22 be 2d d6 09 3e 7e 04 68 3e d8 45 84 3d
       -0.15838829 0.13460608 0.22657964 0.06458634
000130 4f 38 87 bd fc 8e 25 3e a0 f8 30 bc 63 7c 85 3e
       -0.06602537 0.16167825 -0.010801464 0.26071462
000140 1e 9f 63 3e 20 67 e7 3d f5 24 d5 bd 4c ab 58 3e
       0.22228667 0.112989664 -0.104074396 0.21159095
000150 12 c6 13 be 80 a8 8d 3d 64 73 6c be e4 e5 71 3d
       -0.14431027 0.069169044 -0.23090893 0.05905713
000160 d5 ef cd bd ff d4 9b 3d 59 e2 c0 3d f6 74 51 be
       -0.1005551 0.07608985 0.094181724 -0.20454773
000170 3b f1 b2 3d 41 88 80 3e bc 0d 33 3e d6 a4 40 bd
       0.08737417 0.25103953 0.17485708 -0.0470322
000180 6e ae 54 be a8 3d 2e 3e 77 98 66 3d 40 3b cc 3c
       -0.20769665 0.17015707 0.056297746 0.024930596
000190 a2 1f 63 3c 20 a8 83 3e 20 56 fa 3d 6a 50 a5 bd
       0.013862522 0.25714207 0.12223458 -0.080719784
0001a0 10 f4 ec 3c b5 70 d3 3c d3 40 63 bc b0 ba 83 3d
       0.028924972 0.025810579 -0.013870436 0.06432092
0001b0 64 24 d0 3c 4e 09 45 3e d8 8b 08 3e 74 93 05 be
       0.025407977 0.1924183 0.13334596 -0.1304453
0001c0 d3 42 ac 3d d8 3c 53 bd 67 97 71 3e 58 4f 3e 3d
       0.08411183 -0.051571697 0.23592912 0.046462387
0001d0 af 7c be bd cd 89 82 3e 34 2f 66 be 04 4b 32 bd
       -0.09301125 0.2549576 -0.22478944 -0.04352857
0001e0 4b cb 11 ba 07 59 62 be a8 62 a8 3d 1c 28 9e 3d
       -0.0005561604 -0.22104274 0.08221942 0.07722494
0001f0 7e 63 36 be d3 70 85 3d 79 96 5f 3d d6 bf 07 be
       -0.17811391 0.0651566 0.05458686 -0.13256773
000200 5e 72 00 3e 98 85 21 3e f8 05 33 3e 54 92 ce 3d
       0.12543628 0.15773618 0.17482746 0.100865036
000210 a6 54 af 3e b0 81 84 be 9d 52 11 3e 96 35 23 be
       0.3424427 -0.25880194 0.1419167 -0.1593841
000220 e0 80 7d be 5b 90 1a be 21 22 9d bc 4e d0 37 be
       -0.24756193 -0.1509413 -0.019181313 -0.17950556
000230 84 a3 12 be be 70 04 3e 18 9c e7 3d 4b d2 14 3d
       -0.14320189 0.12933633 0.113090694 0.036333364
000240 80 7b f7 bc 34 45 8f 3d 2b c8 ea 3d 08 0b 3c 3e
       -0.030210257 0.06995621 0.1146396 0.18363583
000250 ec d2 8f 3e 52 9b 1b 3d e2 b8 5d 3e ee 73 9e 3d
       0.28090608 0.037989922 0.21652558 0.077369556
000260 d8 b4 39 3d 9a f1 8e 3d ed f7 7c 3e b6 3d 18 be
       0.04533848 0.069796756 0.24703951 -0.14867291
000270 dd 67 bc bd d8 ca 53 3a a5 60 a7 3e 90 de e1 3d
       -0.09199498 0.00080792373 0.3269092 0.110287786
000280 44 c7 80 bd 12 4c 3c 3e 8d c9 24 3e 37 e9 a6 be
       -0.06288007 0.18388394 0.1609251 -0.32599804
000290 c8 96 a5 3e 9b d7 2e bc 74 be 8a 3c 06 23 3c 3e
       0.323416 -0.010671522 0.016936518 0.18372735
0002a0 60 db 5e bc ed 41 74 be 64 b5 8b 3e 82 1a 41 3e
       -0.013602108 -0.23853274 0.27286828 0.18857768
0002b0 96 22 13 3d d0 7f 32 bd 40 06 ed 3b db 9d 35 bd
       0.035921656 -0.043578923 0.007233411 -0.044339996
0002c0 88 23 94 3e ea 9e 35 3e 83 d0 ec bd f0 72 58 3e
       0.28933358 0.17736402 -0.11563208 0.21137595
0002d0 ae dc 7b bd 79 32 97 3e 70 03 74 be 53 7b 9f bd
       -0.061489753 0.29530695 -0.23829436 -0.07787194
0002e0 3a e0 3b 3c a7 92 ac bd ec 1c 91 3c 50 72 43 3e
       0.011467034 -0.08426409 0.017713986 0.19086576
0002f0 08 b6 ad bd 99 4d 44 3e 55 6c 50 3e dd 6c b1 bd
       -0.08481985 0.19170226 0.20353825 -0.08663342
000300 e8 41 1a 3e a8 cc 1e 3e 3e c6 28 3e bf 35 b0 3c
       0.15064204 0.15507758 0.16481873 0.021510003
000310 17 d1 7c bc 98 ed 36 be 40 1d 32 be 25 78 2b be
       -0.01543071 -0.17864072 -0.1739397 -0.1674505
000320 7a 9d 49 be e5 f5 7c 3e 79 6b 31 be 96 ad 4d 3e
       -0.19688979 0.24703176 -0.17326154 0.20085749
000330 5c 0a 8d 3d 00 3c 94 3d 24 32 53 be c2 50 ea 3d
       0.068867415 0.072380066 -0.20624596 0.114411846
000340 08 6e e5 bd 60 91 f3 3d a7 e8 55 be 80 6d 16 3c
       -0.112026274 0.118929625 -0.20889531 0.00918138
000350 be a8 4d 3e 80 04 1a be 00 15 33 3b ea 4e 3e bc
       0.20083901 -0.15040779 0.002732575 -0.011615494
000360 ea b6 fe 3c 7e eb 85 3d cc 03 72 be 58 c9 6c 3d
       0.03109308 0.06539057 -0.23634261 0.057809204
000370 74 50 53 3e 83 67 5a be f5 a2 af bd 40 db 34 be
       0.20636159 -0.21328549 -0.085760035 -0.17661762
000380 08 ac ce bd e0 dd 27 bc 0e 2d 76 be 4a 3e 54 be
       -0.10091406 -0.01024577 -0.24040624 -0.20726886
000390 b0 a3 e5 bd 72 f8 3d be e8 fd af bc 02 08 9a bb
       -0.112128615 -0.18551806 -0.021483377 -0.0047006616
0003a0 d8 08 16 3e f6 4e 47 3e f5 d9 6b 3e 34 35 bb 3d
       0.14651811 0.19463715 0.23032363 0.09141007
0003b0 aa 58 59 3d a0 5b 60 3d dc 9c 68 be 57 c4 1e be
       0.053063072 0.05477488 -0.22716087 -0.15504585
0003c0 8d df 55 be 8c 99 75 be ad 1e 2a 3d c0 40 1a 3e
       -0.20886059 -0.23984355 0.04153316 0.15063763
0003d0 c8 51 33 3e 59 6a 2f 3d 30 b4 88 3c bd 01 b6 3d
       0.17511666 0.04282603 0.016687483 0.0888705
0003e0 fd 0d bc bb 78 79 85 bc e7 5c 73 be fc 6b 02 3e
       -0.005738972 -0.016293272 -0.23765908 0.12736505
0003f0 89 c1 e8 bc c0 a0 0f be 9d 5b be 3d 2a 4b 82 3c
       -0.028412597 -0.14026165 0.092948176 0.015904982

lstm1_1.weight_hh_l0 f4 [64, 16]
000000 87 ba 39 3d f4 d8 31 3e 6e e2 80 3d da 60 7f 3d
       0.045343902 0.17367917 0.06293188 0.062348224
000010 9b 33 58 3d 51 78 bd 3c f1 ff 28 bd ed 30 8a 3d
       0.05278359 0.02312866 -0.04125971 0.06747613
000020 5c a4 75 3e bc 3d 57 3e 98 19 09 be b1 d8 58 be
       0.2398848 0.21019644 -0.1338867 -0.21176411
000030 c8 82 7d be 88 76 ca bc b5 df 06 3d dc 1c df bb
       -0.2475692 -0.024714723 0.032928187 -0.00680886
000040 7f 66 ab bd b3 9c ad 3d b3 7a 6f 3e a7 a6 68 3e
       -0.08369159 0.08477154 0.2338665 0.22719823
000050 dd 8f be bc 5d 8d cd bd 7e 81 2d 3e ff a0 52 be
       -0.023261959 -0.100367285 0.16943929 -0.20569228
000060 b7 5e 55 3e 0f 3f 38 bd 57 6e 39 bd 28 07 6d 3e
       0.20836912 -0.044982012 -0.045271244 0.23147261
000070 12 f7 da 3d 42 4c a9 bd d5 26 48 be 4f 33 40 3e
       0.10691656 -0.08266498 -0.19546063 0.18769573
000080 4c 6d 51 be 60 dc 50 be 76 40 8f 3d 8f db e1 3d
       -0.2045185 -0.20396566 0.06994717 0.110282056
000090 f6 2c 78 bd 44 86 24 3e 8b 12 e6 bd c6 9e 30 bc
       -0.060589753 0.16066843 -0.112340055 -0.010780042
0000a0 52 3a 97 3d 9b de 0c be 06 c1 3e be c1 29 e4 bd
       0.073841706 -0.13756792 -0.1862832 -0.111407764
0000b0 f6 dc 8a bd 90 cc a5 3d 35 46 0e 3e 78 3d 55 be
       -0.06780426 0.08095658 0.1389397 -0.2082423
0000c0 7c 55 d7 3d d8 83 86 be 0d 32 3d be b2 66 c6 bd
       0.10514352 -0.26272464 -0.18476124 -0.09687556
0000d0 d6 3b a6 bd c5 0d 5a 3e f1 04 33 be e6 7b bc bd
       -0.081168815 0.21294315 -0.17482354 -0.09203319
0000e0 f0 37 29 be a2 f6 82 bd 5b c5 1b 3e 9b 00 2c 3d
       -0.16525245 -0.06394698 0.15212004 0.041992765
0000f0 78 3c 29 be 51 bd 07 3e 6d 1a 2e bd 28 ff 22 be
       -0.16526973 0.13255812 -0.04250567 -0.15917647
000100 9b b6 08 be ab 0e 23 3e 98 9e 33 3e 5e 52 4b 3e
       -0.13350908 0.15923564 0.17540967 0.1985564
000110 10 0e 4d 3e f6 b3 de bd f8 11 23 be 7d 31 8d bc
       0.20024896 -0.108741686 -0.15924823 -0.017235512
000120 d9 98 7c 3e a8 6d 57 3e d6 82 ec 3d b2 37 08 3e
       0.24667682 0.21037924 0.115483925 0.13302496
000130 1c 75 d1 3d 62 bb 78 3e 30 9e bb 3c 49 b3 9a 3d
       0.10227415 0.24290231 0.022902578 0.07553727
000140 fa 29 f7 bd 51 7d f4 3d e1 0b 80 bd 59 81 d2 bd
       -0.12068553 0.11937965 -0.06252266 -0.10278577
000150 96 02 23 be e3 be f2 bd ac 94 17 bd b8 19 54 be
       -0.15918955 -0.11852815 -0.03700702 -0.20712936
000160 38 42 c4 bd a1 0f 1a be 96 d5 60 be f5 2e 89 3d
       -0.09582943 -0.15045024 -0.21956477 0.066984095
000170 ed 2e e7 bd 75 e2 ca 3c c0 6f 80 be a1 35 e8 bd
       -0.11288247 0.024766186 -0.25085258 -0.11338354
000180 bd 7d 73 3d fa 9e 87 3d a4 43 27 be 8d 3c 6b be
       0.059446085 0.06622119 -0.16334397 -0.22972317
000190 84 68 20 3e 10 9d 02 3e f2 82 9e 3c b4 51 22 be
       0.1566487 0.12755227 0.019349549 -0.1585148
0001a0 5b 39 c3 bd a2 fb 0f 3e 58 44 55 be db ae 3a be
       -0.09532424 0.14060834 -0.20826852 -0.18230765
0001b0 5b 1e 2b 3e 44 80 fa 3d 4b c2 a1 3d b4 cd 3d 3e
       0.16710798 0.12231496 0.078983866 0.18535501
0001c0 38 39 77 be d4 64 10 3e b1 aa 01 3e fe e3 6f be
       -0.24142921 0.14100963 0.1266277 -0.23426816
0001d0 c8 01 32 3e e9 06 a2 3d 2b a5 1b 3e cf 66 50 3e
       0.17383492 0.07911474 0.15199725 0.20351718
0001e0 45 32 2d 3e 31 43 11 3e 9b d3 00 be ef 50 d2 bd
       0.16913708 0.14185788 -0.12580721 -0.10269343
0001f0 5b 95 9d bd 12 a5 bd 3d 82 80 86 3e a8 26 11 be
       -0.07694503 0.0926 0.2626992 -0.14174902
000200 7d a8 68 3d bf b5 2c be 79 fc 61 3d 8d 71 fc 3d
       0.056801308 -0.16866206 0.055172417 0.123263456
000210 a3 c9 65 3e 68 ec 7f 3b da cd 0f 3e be 59 03 be
       0.224402 0.0039050821 0.1404337 -0.12827203
000220 2c 7a 20 be 83 ce 09 3e 4c 78 61 be 78 71 6f be
       -0.15671605 0.13457684 -0.22018546 -0.23383129
000230 ac 1c 43 be e3 38 29 bc 48 6b 71 be 7d db 96 be
       -0.19053906 -0.010328504 -0.23576081 -0.2946433
000240 a0 00 77 be de 4b bc 3d 90 4a 2c be 17 e3 88 3e
       -0.24121332 0.09194158 -0.16825318 0.26735756
000250 c4 cf 14 be 38 1e cf bc 1f 2e 85 3e f0 05 cd bd
       -0.14532381 -0.025282964 0.2601175 -0.10010898
000260 fd 47 03 be 92 81 2a 3e 4c 30 b0 3d aa 05 b9 bd
       -0.1282043 0.1665099 0.08602962 -0.090342835
000270 9e 92 5b be 8d 2b 0b be 2c 75 43 be 93 3c 05 3d
       -0.21442649 -0.13590832 -0.19087666 0.03252847
000280 d9 bf d5 bd d5 70 d0 3d 2f 9a 85 bd 8a 81 1d 3e
       -0.10436983 0.10177771 -0.06523549 0.15381446
000290 d5 1e 25 be 77 c9 5c 3e 6e 6e 30 3e 04 b5 54 3e
       -0.16125043 0.21561228 0.17229626 0.20772177
0002a0 21 f6 8a 3d 24 d4 42 be 09 9a ab bc 70 e6 98 3d
       0.067852266 -0.19026238 -0.020947473 0.074658275
0002b0 34 49 39 3e 26 9b 17 3d f9 ab 19 be 99 ab a6 be
       0.18094331 0.037013195 -0.15007009 -0.32552794
0002c0 f1 14 c2 3d 4c c9 ea 3d ba d0 b2 3c 68 16 90 3d
       0.094766505 0.114641756 0.021828044 0.07035524
0002d0 65 a9 ff bd 23 63 27 3d bd 44 dd 3d e5 fb 9c 3d
       -0.12483481 0.04086603 0.108041264 0.076652326
0002e0 29 05 87 3d 76 93 11 be 9e 63 2d 3e d7 45 f3 bd
       0.06592781 -0.14216408 0.16932532 -0.11878555
0002f0 5f c1 a5 bc 5f aa 30 bd e9 f6 19 3e af 39 96 be
       -0.020233808 -0.04313123 0.15035595 -0.29340884
000300 99 07 66 bd c8 f8 7d be 3b 2a 48 3d 83 82 48 3e
       -0.05615959 -0.24801934 0.0488684 0.19581036
000310 4e a7 b7 3d 42 16 29 3d 0c 47 4f 3e 50 3b 2d be
       0.08967458 0.041280992 0.20241946 -0.16917157
000320 ae 4a fd 3d b0 f7 7a be c1 01 30 be f9 0b 59 be
       0.1236776 -0.24508548 -0.17188169 -0.21195973
000330 1e 61 25 be 73 d7 3f 3d 0d 9d 55 be e9 7b 89 3d
       -0.16150329 0.046836328 -0.20860691 0.06713087
000340 08 e5 bf 39 7c d9 1d 3e 81 53 ee bc cc 39 cc bd
       0.00036601 0.15414995 -0.029092552 -0.099719614
000350 2e 30 e4 3d 2c 1d 6b bd 2b fa 7b 3d ed b4 51 be
       0.11142002 -0.057400867 0.061517876 -0.20479174
000360 42 77 a0 3d a9 6a 36 3d 35 da 17 3e ca 36 10 3e
       0.078352466 0.044535313 0.14829333 0.140834
000370 cf c2 58 3e aa ad 32 be 03 3d 6b 3d dd 5d 11 be
       0.21168064 -0.1744906 0.057431232 -0.14195962
000380 33 dc 4f be c0 d8 43 3e 7c a8 1a be 61 02 37 bd
       -0.20298843 0.19125652 -0.15103334 -0.044680003
000390 3b 5b e6 bd 80 5e 68 3e a5 59 ad bd dd b3 f0 3d
       -0.112478696 0.22692299 -0.08464364 0.11753056
0003a0 d4 f8 f6 3d 96 06 1e 3e 2b c4 55 3e be 95 0f bd
       0.12059179 0.154322 0.20875613 -0.035054915
0003b0 c3 d6 2e 3d b9 64 f4 bc 07 c5 33 3e 74 da 15 3e
       0.04268528 -0.029833185 0.17555629 0.14634115
0003c0 b7 2d 0a be 45 43 10 3d fe 4c 09 be e1 e9 0d 3e
       -0.13494001 0.035220403 -0.13408276 0.13858749
0003d0 27 fc 5a 3e 0f 68 7d bd b5 3a 1a 3e cb 05 45 3e
       0.21385251 -0.061866816 0.15061457 0.19240491
0003e0 a9 d4 b9 3d de 33 2d bc be ed 63 3e d0 88 26 3e
       0.09073765 -0.010571448 0.2225866 0.16263127
0003f0 7a d8 31 3e f1 b0 7a be 4b 90 37 3e 44 22 eb 3c
       0.17367736 -0.2448156 0.17926137 0.028702863

lstm1_1.bias_ih_l0 f4 [64]
000000 71 05 38 bd 4f 5d d4 bd 81 15 2b be 13 aa 04 be
       -0.044927064 -0.1036936 -0.16707422 -0.12955503
000010 fc 17 8b b9 f4 04 de bd 6c 18 b7 3d 2c 3a 3b be
       -0.00026530016 -0.108407885 0.08940205 -0.1828391
000020 8f 50 44 3e f8 c6 8c bd 13 c5 99 3e 51 fa 53 3d
       0.19171356 -0.06873888 0.30033168 0.051752392
000030 f8 92 41 be ba 63 3e 3e 29 71 3a 3d 55 aa db 3d
       -0.1890372 0.1859273 0.045518074 0.10725848
000040 86 cb 13 be 8c 3d 26 3e c6 cb 6c 3e 29 8e 17 3d
       -0.14433107 0.16234416 0.23124608 0.03700081
000050 a6 13 42 3e 58 81 31 3e c1 90 42 3e 12 44 89 bc
       0.18952808 0.17334497 0.19000532 -0.016756091
000060 bf da 14 be be f5 2a 3e f1 1a 59 3d 01 52 31 be
       -0.1453657 0.16695306 0.05300421 -0.17316438
000070 ea ef ba 3b cc 77 3d be 0f ef 59 be db 71 1a be
       0.0057048695 -0.1850273 -0.212826 -0.15082495
000080 05 df 3e 3e b8 b8 22 be 21 04 6d 3e 71 b4 41 be
       0.18639763 -0.15890777 0.23146106 -0.18916489
000090 95 33 31 be de 70 3b 3e 76 28 27 be 13 b5 ab bd
       -0.17304833 0.18304774 -0.16324028 -0.083841465
0000a0 29 7b cf 3d 24 02 df bc 67 bf 30 3e 62 47 7b 3e
       0.10130913 -0.0272227 0.17260514 0.24538949
0000b0 d9 a2 a6 bd 61 43 b6 3d 4b 9e 0e be 07 80 f5 bd
       -0.081365295 0.0889957 -0.13927571 -0.1198731
0000c0 d0 51 2a be 5a 26 3a be 35 3b 55 be 84 d4 0d be
       -0.16632771 -0.18178692 -0.20823367 -0.138506
0000d0 d7 91 4c be 3f 65 36 be 5c ee e8 3d 2e c8 87 3c
       -0.19977508 -0.1781206 0.113735884 0.016574945
0000e0 0b 6e 84 3d e7 bb af bd 7f 60 4e 3e 2f e8 3e be
       0.064663015 -0.085807614 0.20153998 -0.18643259
0000f0 33 bf 4d bd 98 ee bc 3d 6b 7d c2 3d 50 f9 3c 3d
       -0.05023117 0.09225196 0.09496578 0.0461362

lstm1_1.bias_hh_l0 f4 [64]
000000 98 e8 10 be f4 21 27 be a7 3d 92 3b 5b 4c 76 3d
       -0.14151227 -0.16321546 0.004462916 0.060131412
000010 0c 34 e4 3d cf 9c 5b bd 34 83 e7 bd 26 80 4d be
       0.1114274 -0.05361634 -0.11304322 -0.20068416
000020 4b 28 50 be 8d 91 95 3d f5 cc d2 bd 18 7a ae bd
       -0.2032787 0.07303152 -0.10292999 -0.08519381
000030 6a 6d 09 be a5 c1 f1 bd 57 9f 05 be 9a 9e d0 bd
       -0.13420644 -0.11804513 -0.13049065 -0.10186501
000040 4c 92 ae 3d 18 48 1d be 66 16 cb 3d 7f f6 6a 3e
       0.08523998 -0.15359533 0.099163815 0.22945593
000050 65 b5 09 3e 20 c7 25 be 52 92 12 bd 55 59 1d be
       0.13448103 -0.16189241 -0.035784073 -0.15366109
000060 68 bc e9 bd 21 a6 54 bd 7e aa a3 bd d4 31 88 3e
       -0.11412889 -0.051916245 -0.07991503 0.26600516
000070 aa ec 8a 3d 50 50 44 3e 2b c9 68 3d 8a 58 09 3e
       0.06783421 0.19171262 0.056832474 0.13412681
000080 0b 61 0a be 7f 90 08 be 4f 89 99 bd 99 8c 37 3e
       -0.13513581 -0.13336371 -0.07496893 0.17924727
000090 aa e4 89 be 13 8c 00 be 00 74 06 be 56 56 13 3e
       -0.2693227 -0.12553434 -0.13130188 0.14388403
0000a0 0f db bf bd 12 e8 15 3e 31 48 51 be 08 8c fb bd
       -0.09367954 0.14639309 -0.20437695 -0.12282568
0000b0 9d 4a 3e 3e b1 59 66 3e 13 7d c8 bd 63 93 c4 bc
       0.1858315 0.22495152 -0.09789481 -0.02399606
0000c0 aa 57 62 bd 0b ff 33 3d b7 6c 27 3e 6d 1e f7 bd
       -0.055259384 0.0439444 0.16350065 -0.1206635
0000d0 f2 d9 a2 bc fa 81 84 3e 88 c1 aa bd 06 b3 8a be
       -0.019879315 0.25880414 -0.083376944 -0.2708971
0000e0 61 19 4d be 58 58 61 be 0d 3e 17 be e0 fd f8 bd
       -0.20029213 -0.22006357 -0.14769764 -0.12157798
0000f0 98 d2 2c 3e 2e 1e 23 be bb f7 0d be 34 2d a9 3d
       0.1687721 -0.15929481 -0.13864033 0.08260575

lstm1_1.weight_ih_l0_reverse f4 [64, 32]
000000 2a d6 25 3e 88 3a 89 bd 6d 94 42 3e f6 00 81 3e
       0.16194978 -0.06700617 0.19001932 0.25196046
000010 c8 a1 ed 3d a6 f6 03 be 0b da 6c 3e dc bf 15 be
       0.11603123 -0.12887058 0.23130052 -0.1462397
000020 a8 1c 01 be 77 f9 db 3d 82 12 ba bd 9e d3 1f 3e
       -0.12608588 0.10740941 -0.09085561 0.1560807
000030 3a 53 9c bd 79 75 88 3d 04 df 64 be 44 9b 32 3e
       -0.07633062 0.06663031 -0.22350699 0.17442042
000040 ac 5b d4 3d 32 b8 35 be 47 cf 1d be 92 9e 6a 3e
       0.103690475 -0.17746046 -0.15411101 0.22912052
000050 fc c8 09 be 13 64 42 be d0 bb 3f 3d e1 3b 07 3e
       -0.13455576 -0.18983488 0.04680997 0.13206436
000060 17 ea 08 be 90 c9 44 3e 92 88 34 3e 62 31 45 be
       -0.13370548 0.19217515 0.17630222 -0.1925712
000070 f7 63 79 bd fa 46 67 3e 37 d6 21 3e b8 06 04 3e
       -0.06088635 0.22585669 0.15804373 0.12893188
000080 62 e1 65 3e d8 a4 15 3d b9 d7 a3 3d 65 0b 1e be
       0.22449258 0.03653416 0.0800013 -0.15434034
000090 c2 55 70 3d 13 56 c5 bd 8a d3 c7 3b e2 fa d1 bd
       0.058675535 -0.09635558 0.0060982155 -0.1025293
0000a0 a6 d1 1a 3e 1e 41 13 3e 4d 20 aa 3d 8a 0e 4a be
       0.15119037 0.14380309 0.08306942 -0.19732109
0000b0 7f de 49 3e 0b a5 66 3e 00 79 b5 ba 0d 88 5a 3b
       0.19713782 0.22523896 -0.0013845265 0.0033345253
0000c0 40 3a 5e be 8e 80 16 be 8a e9 7c be 68 c8 3c 3d
       -0.21701908 -0.14697477 -0.24698463 0.04608956
0000d0 ee 88 60 3e 8a 5b b7 bd 38 8c 72 3e 07 95 f9 bd
       0.21927235 -0.089530066 0.23686302 -0.12186628
0000e0 09 85 89 3e 95 5f 07 be 60 4e 07 3e 34 e6 7f be
       0.2685931 -0.13220055 0.13213491 -0.2499016
0000f0 17 01 d4 bc 4f 98 41 bd 8f d8 2a 3e f6 97 d5 bd
       -0.025879426 -0.047264393 0.16684173 -0.10429375
000100 3c 5e 54 be 08 04 a1 bd 27 cf fd 3a 06 67 b5 bd
       -0.20739073 -0.07862097 0.0019364104 -0.08857541
000110 9d f8 c3 3d 19 8c 34 be 89 c6 94 3e bb 2d b5 bd
       0.095689036 -0.17631568 0.2905772 -0.08846613
000120 18 c0 d7 bd a3 dd 2e be 00 0c 58 3e 56 dc 18 3e
       -0.10534686 -0.17076735 0.21098328 0.14927801
000130 1a 5c 17 3e cf b5 b0 3d 3a 9d 3d 3e ea 56 4e 3e
       0.14781228 0.08628427 0.18517008 0.20150343
000140 20 70 43 bc f0 4b 4d 3e 05 94 0f 3c e8 1c e2 3d
       -0.011928588 0.20048499 0.008763318 0.1104067
000150 8b a9 95 3e 89 6a 75 3e 16 53 7c be c4 c7 06 3e
       0.29230914 0.23966421 -0.2464107 0.13162142
000160 78 b4 08 3e 3f 63 36 3e ba ff c9 bd 76 0c 55 be
       0.13350093 0.17811297 -0.09863229 -0.20805535
000170 55 16 d0 3d 81 12 ea bc 33 52 18 3e 18 42 91 3e
       0.101605095 -0.028573276 0.14875107 0.28370738
000180 f4 0d 95 3d dc cf 2c be 18 a7 2c bd 28 0f 9f 3e
       0.07278052 -0.16876167 -0.04215154 0.3106625
000190 a1 ae 3d 3e 90 30 b2 bd 1b 8e 6b bc 9c 4b 94 3e
       0.18523647 -0.08700669 -0.014377142 0.28963935
0001a0 aa 91 5f be a1 fd 45 be cc c1 46 bc 68 98 03 be
       -0.2183291 -0.19335033 -0.012131166 -0.12851107
0001b0 eb a3 6d 3e 51 47 05 be 6a 9a 41 3e df 39 f7 3c
       0.23207061 -0.13015486 0.1890656 0.030178962
0001c0 a5 17 23 3e 4a b6 7c be 39 ed 8e 3d 4a 7f 58 3e
       0.15926988 -0.24678913 0.069788404 0.21142307
0001d0 2c b4 63 3e 3c 2f c3 3d d0 e9 06 bd 71 ef 8f 3d
       0.22236699 0.095304936 -0.032937825 0.07028092
0001e0 e0 21 3d 3b d2 ae 62 3e 24 fa a8 3b 80 89 56 bb
       0.0028859302 0.22137001 0.005156772 -0.0032735765
0001f0 ee c4 a9 3c 09 93 96 3d 10 a8 09 3e 6d 43 69 3e
       0.020723786 0.073522635 0.13443017 0.22779627
000200 f8 d9 89 bd 6c 00 5a 3e 0e 3b d6 3d 22 8e 02 3d
       -0.06731027 0.21289223 0.104604825 0.03187383
000210 80 5e e4 3c 01 72 43 3e fa f5 84 3d 74 0a 8c 3e
       0.027877092 0.19086458 0.06492229 0.27351725
000220 c8 00 bb bd bd 93 0a 3e 77 b8 8e 3c 6c e9 38 3e
       -0.091310084 0.1353292 0.017421944 0.18057793
000230 19 db b7 3d 84 ed e7 bd b0 52 f4 3d e3 96 26 3d
       0.089773364 -0.113245994 0.11929834 0.04067124
000240 bf 05 25 be 40 7e fa bc 15 ae 11 3e e8 e6 5d be
       -0.16115473 -0.030577779 0.14226563 -0.21670115
000250 9e 95 74 be eb 22 d0 3d be dd 62 3e a1 d1 07 bc
       -0.238852 0.1016291 0.221549 -0.0082897255
000260 41 6f 2e bd 82 c4 fb 3c ad fc 9d 3d c0 61 9c bb
       -0.04258657 0.03073335 0.0771421 -0.004772395
000270 d6 5b 1a bc df 20 0b bd a2 a3 2c 3e 72 7c 9b be
       -0.009421309 -0.033966895 0.16859296 -0.30368382
000280 40 9f c7 bd 32 a5 50 be 72 c7 db 3d 6b d1 58 3e
       -0.097471714 -0.20375517 0.107314005 0.21173637
000290 b6 f2 69 bc 86 0c 3e 3e ea b0 c3 3d 58 d4 34 3c
       -0.014279058 0.18559465 0.09555228 0.011036955
0002a0 fa a3 4f 3e 5e 4f 06 3d 6e 7a 4e bd f6 01 1c be
       0.20277396 0.032790534 -0.050409727 -0.15235123
0002b0 3e 91 2e 3e c4 48 4e 3d f4 0a d8 bd 64 07 18 3e
       0.17047593 0.050362363 -0.10548964 0.1484657
0002c0 9d 34 47 3e 1a 7e 26 3e 5c ec 43 3e 80 f5 de bc
       0.19453664 0.16259041 0.19133133 -0.027216673
0002d0 2f 99 88 3e c2 e8 ad bb ea e1 44 3e 66 00 a5 3e
       0.2667937 -0.005307288 0.19226804 0.32226866
0002e0 ff 27 73 3e f6 71 d6 3d d9 cd 73 be 9e 57 73 3e
       0.23745726 0.10470955 -0.23808993 0.23763892
0002f0 18 aa 50 be ef c1 3c be 5d 5e 56 3e ba ae e5 3d
       -0.20377386 -0.18433355 0.20934434 0.11214967
000300 60 e3 93 3d a4 b6 85 3d 1c 6b 2f be a8 43 ea 3d
       0.07221103 0.065289766 -0.17130703 0.11438686
000310 c4 29 38 bd 70 4c 26 be 82 d8 38 3e d9 2d 53 3e
       -0.044961706 -0.16240096 0.18051341 0.20622958
000320 ae 54 4c 3e ad a1 22 be d6 a7 7b 3e c4 59 51 3e
       0.19954178 -0.15881987 0.24575743 0.20444399
000330 ea be 43 bd 0d 7e d9 ba c0 d1 c0 3b b6 2b a5 3d
       -0.04778949 -0.0016593352 0.005884379 0.08064978
000340 28 3e cb bd ae 04 2d 3e ed 0e 5a 3e d8 e7 c4 bd
       -0.09923965 0.16896316 0.21294756 -0.09614533
000350 6f 9d f8 3d c2 89 35 3e c0 40 df 3b 3f a4 97 bc
       0.12139403 0.17728332 0.0068131387 -0.018510936
000360 0c 87 75 3e 01 50 f8 3d f8 22 56 be f8 69 59 3e
       0.23977298 0.121246345 -0.20911777 0.2123183
000370 c8 cb 52 be 23 fc c1 3e 3b e5 f5 bd 99 6b aa 3d
       -0.20585549 0.37887678 -0.12006613 0.08321304
000380 30 91 40 bd ee d6 1c be fa 85 a2 bc 1b 20 0b 3e
       -0.04701346 -0.15316364 -0.019839276 0.13586466
000390 3f 00 26 3e da 3f 41 be a3 0b 47 3e b3 90 09 3e
       0.16211031 -0.18872014 0.19438033 0.13434105
0003a0 38 32 0b 3d 05 03 85 3d 33 8c bc bd 2e a6 0c be
       0.03398344 0.064947166 -0.092064284 -0.13735268
0003b0 11 f7 f2 bd ed 20 d4 3d 40 8f e6 bb 6f ce aa 3e
       -0.118635304 0.103578426 -0.0070361197 0.3336062
0003c0 7d e2 45 3e 4a bb 3f be 35 fe 10 be 04 44 b0 3d
       0.1932468 -0.18723789 -0.14159472 0.08606723
0003d0 a7 7d a9 bd 67 12 fa 3d 00 b1 c6 bd 2c 0e 02 3e
       -0.082759194 0.12210541 -0.09701729 0.12700719
0003e0 1a 49 6b 3e d6 d3 81 bc 80 42 0c 3e 2c db 7f 3e
       0.22977105 -0.015848082 0.13697243 0.24985951
0003f0 1d 00 69 bd 9d a2 85 3d ca 2f 85 3e 48 5b a3 bd
       -0.056884874 0.06525157 0.26013023 -0.07976395

lstm1_1.weight_hh_l0_reverse f4 [64, 16]
000000 d7 9e 7a be f6 05 17 be 96 6e a5 bd 70 71 09 3d
       -0.24474655 -0.14748368 -0.08077733 0.033555448
000010 09 f6 54 bd 18 42 c6 be 0e 6f d0 3d bb fc 4a 3d
       -0.05199245 -0.387223 0.10177432 0.04955743
000020 15 81 75 bd 0c ba 22 be da f6 a2 bd b2 3d 38 3c
       -0.059937555 -0.15891284 -0.079572394 0.011245178
000030 90 6e d0 3d cb 1b 98 3d 7a af a4 be 91 f3 f5 3e
       0.10177338 0.07427176 -0.32165128 0.4803739
000040 ea 0a be 3d 22 36 64 3d 19 f9 18 3e 0d 65 53 be
       0.092794254 0.055715688 0.14938773 -0.20644017
000050 b9 64 4c be bf b9 11 be d4 a6 02 3d 31 66 08 3e
       -0.19960298 -0.14231013 0.03189738 0.13320233
000060 af 16 32 3e 73 8e 65 bd ac b3 e2 bb a2 29 4b be
       0.17391466 -0.056044053 -0.006918391 -0.198401
000070 91 d2 55 3e 01 4b 27 3e 89 6f 36 be 0e 61 b3 bb
       0.20881106 0.16337205 -0.17815985 -0.0054742163
000080 6a cc a1 3d 69 74 18 be cc 2d 66 be e5 6e 89 3d
       0.07900317 -0.14888157 -0.22478408 0.067106046
000090 38 1f ad 3d 0c d0 b8 bd 63 f1 d3 3d 69 ae 6e be
       0.0845322 -0.09024057 0.10348775 -0.2330872
0000a0 33 37 8f be 12 ec 51 be 04 30 46 bc ae 3f d2 bd
       -0.279718 -0.2050021 -0.012096409 -0.10266052
0000b0 9c cd 0b bc e4 59 35 3e 05 db 89 be ff 08 c1 3d
       -0.008532908 0.17710072 -0.2692491 0.09425544
0000c0 c1 87 17 3e a8 80 b1 bd a0 41 15 be ea b8 32 3e
       0.1479788 -0.08667117 -0.14575815 0.17453352
0000d0 0a 73 bc 3e 80 04 da bd 36 b6 4d 3e fe 46 95 be
       0.36806518 -0.106453896 0.20089039 -0.29155725
0000e0 bf d9 48 be c3 0f 73 be df 72 b5 bc 22 b5 4e be
       -0.19614314 -0.23736481 -0.022149501 -0.20186284
0000f0 30 dd 18 3e bd 3f 76 be 2a 40 9e bd a7 72 52 bd
       0.14928126 -0.24047752 -0.07727082 -0.051378872
000100 01 2c 30 be 9d 5f 1f be 95 2e 0a 3e 99 aa 38 be
       -0.17204286 -0.15563817 0.13494332 -0.18033828
000110 09 8e 00 3e 44 29 2a 3e 65 a6 74 bd 58 57 0f 3e
       0.12554182 0.16617304 -0.059729 0.13998163
000120 a8 22 88 3c b2 07 c4 bd 57 34 68 3e 46 8b b5 bd
       0.016618088 -0.0957178 0.22676216 -0.08864455
000130 52 fc 61 3e 3d fd 04 be c6 fe 17 3e 4b ea 8c be
       0.22068909 -0.12987228 0.14843282 -0.275225
000140 86 e7 b7 bc d5 86 17 be 62 f0 ac 3c 18 ab 87 3c
       -0.022449266 -0.14797528 0.021110717 0.016561076
000150 5d 69 16 3e 9f 3b aa bc d3 4b 21 3e 2f bc ba bc
       0.1468863 -0.020780383 0.15751581 -0.022794811
000160 fd 7e be 3c 53 a0 f4 3d 74 ec 65 3d 4c 80 c5 be
       0.023253912 0.11944642 0.056133702 -0.38574445
000170 89 dc df bc ed d1 37 be bb 81 fe bd b5 e0 78 3e
       -0.027326839 -0.17951174 -0.12427088 0.24304469
000180 b1 ed 0a bd 35 7e 31 be 15 52 87 be 2d 5d 28 3e
       -0.033918086 -0.173333 -0.2642981 0.16441794
000190 5e 47 0d be 2e 95 07 3d 34 94 27 3e 9a 1a 31 be
       -0.13796756 0.033101253 0.16365129 -0.17295304
0001a0 f6 ab 34 3e ca 26 a7 be 41 b6 6d 3c 66 98 5e be
       0.17643723 -0.3264678 0.014508785 -0.21737823
0001b0 2a 95 47 be a9 5f b7 bd b7 d8 5d 3d 35 55 15 bd
       -0.19490495 -0.089537926 0.054161754 -0.036458213
0001c0 b9 28 d1 bd 4e b8 bf bc 7c db cc bc 74 8c 92 3c
       -0.10212845 -0.023403313 -0.025007002 0.017889239
0001d0 3c bf 0e 3e 19 e7 30 3e 01 31 42 be 2f 7b d4 3d
       0.13940138 0.17275657 -0.18964006 0.10375058
0001e0 9e ad 8d bd 9c 5a 2e 3e 8a 26 25 3e 8a cc 0d 3e
       -0.069178805 0.17026752 0.16127983 0.13847557
0001f0 16 4d c5 bd ce 6a 0b bd d9 4c d0 3d f0 8a e3 bd
       -0.096338436 -0.034037404 0.101709075 -0.111104846
000200 3b f9 6f be 91 54 96 be 3b 0c 4b be 2d 19 b4 3e
       -0.23434918 -0.29361394 -0.19828884 0.35175458
000210 d7 8f 73 3e ee ef e1 bb 42 6f e1 3c 67 01 fc bd
       0.2378534 -0.006895057 0.027518872 -0.12304955
000220 44 2a 16 3e 6c 25 23 bd f3 fc f1 bd 9b 48 44 be
       0.1466456 -0.03983061 -0.11815824 -0.19168322
000230 5b f1 ba bd a1 62 12 3d 4d 57 38 bd ac 76 96 3e
       -0.09128066 0.03573859 -0.04500513 0.29387414
000240 38 7f 9a be 39 49 80 3e 60 83 6d 3d 69 a4 57 bd
       -0.30175185 0.25055864 0.057986617 -0.052647028
000250 8a 08 46 bd cb 03 72 be 2f 30 66 3e 40 b6 99 bd
       -0.048347987 -0.2363426 0.22479318 -0.075054646
000260 83 3f 15 be b3 97 bb be 8e ab 36 3e 5a d6 62 bd
       -0.14575009 -0.36639175 0.1783888 -0.055380203
000270 23 26 6c be a0 8b 5b ba 04 f6 10 3e 4b da 84 bd
       -0.23061423 -0.0008374993 0.14156348 -0.064869486
000280 37 2b 99 3e ac 78 52 be 8e 10 b9 3d 82 36 90 3d
       0.29915783 -0.20553845 0.09036361 0.070416465
000290 7b 2e a5 bc 61 1a ca bd 09 b9 31 be a4 8a e7 bd
       -0.020163765 -0.098683126 -0.17355742 -0.113057405
0002a0 89 ed fb 3b 33 4d 12 be 9a 08 43 be 9b 65 3a be
       0.0076882285 -0.14287262 -0.1904625 -0.18202822
0002b0 a8 1c d6 bd a2 9a 42 3e 11 92 52 3d c1 85 3c 3e
       -0.104546845 0.190043 0.05140883 0.18410398
0002c0 70 6e c1 bd 6a 46 9c bd 75 af 7d be b6 b7 b3 bb
       -0.094448924 -0.07630618 -0.24773963 -0.0054845465
0002d0 fa cd a4 bd 0d ba a6 3d fa a0 b2 3d 3f 14 4f be
       -0.080470994 0.08140955 0.0872211 -0.20222567
0002e0 51 5b 39 be ff 0e 91 be 85 c8 eb bc c3 1d 83 3e
       -0.1810124 -0.28331754 -0.028782139 0.25608644
0002f0 3e ed 24 3d 10 5c e1 bd 48 55 52 3e 38 14 6e bb
       0.040265314 -0.11003888 0.20540345 -0.003632797
000300 14 25 97 3d 4a 6c 58 be 43 54 83 be fc 98 26 3e
       0.07380119 -0.21135059 -0.25650224 0.16269296
000310 84 37 8d 3e bc a7 89 3d 13 5a 65 3d 8f 22 52 be
       0.27581418 0.06721446 0.055994105 -0.20520996
000320 be a6 95 be a4 d1 b9 bd a2 a4 76 3e 1f fe 81 be
       -0.29228777 -0.09073189 0.2408624 -0.25389192
000330 5e 8c 12 3e 86 21 3d 3e 02 62 fb bd 21 18 2a 3d
       0.14311358 0.1846982 -0.12274553 0.041526917
000340 29 e0 6a be 18 57 95 3d af bb ae bd 3e b6 a2 3e
       -0.22937073 0.072920024 -0.085318916 0.31779665
000350 25 82 67 3e 1c 53 1e be ca 08 7a 3e 92 58 05 3e
       0.2260824 -0.15461391 0.24417415 0.13022068
000360 ad 55 3a be 12 74 15 3e f4 47 59 bd bc ac 9c be
       -0.18196745 0.14595059 -0.053047135 -0.30600536
000370 90 9c a1 3d e0 e3 26 bd 65 e2 e0 bc 7e c1 10 3e
       0.0789119 -0.040744662 -0.027451703 0.14136311
000380 3f e2 c3 3d ca ae 5e be 49 c1 85 3d 4e 01 91 3b
       0.095646374 -0.21746364 0.06531007 0.0044252044
000390 a3 cf 43 3d 80 15 6c 3d 5e 9d 89 3e b1 3c 8d be
       0.04780544 0.05763769 0.26877874 -0.27585366
0003a0 6a 53 7a be a2 5c 0c bd bf 31 9e 3c 25 d9 21 be
       -0.24445882 -0.03426803 0.01931083 -0.1580549
0003b0 3e 07 15 be db 56 4f bc ca 00 7c be 36 ea 8c 3e
       -0.14553544 -0.012654985 -0.24609676 0.2752244
0003c0 1c 93 03 be 1f 9c 6b 3e dc b3 99 3d 19 d2 3e 3e
       -0.12849087 0.23008774 0.075050086 0.18634833
0003d0 e4 f6 0e 3e 06 6c b3 3d 3e 6e 99 3e 70 d2 f2 3d
       0.13961369 0.08760838 0.2996692 0.11856544
0003e0 fd 18 5b be c3 98 16 be 3e 20 8c 3e b2 5c 86 3d
       -0.21396251 -0.14706711 0.2736835 0.06560649
0003f0 28 2a 5c bb 4b a5 e8 bd 35 be e6 bd 51 15 01 3d
       -0.0033594463 -0.11359652 -0.11266748 0.03151447

lstm1_1.bias_ih_l0_reverse f4 [64]
000000 c8 62 22 3e d8 31 5f bd f6 30 17 3e 66 40 fd 3d
       0.15857995 -0.054490894 0.14764771 0.12365799
000010 82 a3 3d bd fa 95 5d be fa 44 bb bd 19 7d 0c 3e
       -0.04629851 -0.21639243 -0.091440156 0.13719596
000020 e3 74 b3 3d 7b fd 45 3e ba 6b ab bd c1 d9 d5 bd
       0.08762529 0.19334976 -0.083701566 -0.10441924
000030 7d d8 9d 3d 18 b1 48 3e e6 48 e6 bd b6 32 be 3d
       0.077073075 0.19598806 -0.11244373 0.09287016
000040 dc f6 b0 bd aa f7 37 3c 19 3c 43 bc 13 29 c3 3e
       -0.08640835 0.011228481 -0.011916184 0.38117275
000050 69 37 5c bd f9 d0 b9 3d 16 99 b3 3d 8d 7b b4 bd
       -0.05376378 0.090730615 0.08769433 -0.08812628
000060 85 f5 79 3d 9d d8 af 3a b8 54 07 3e 7a 9a b9 3e
       0.06102516 0.0013415996 0.13215911 0.3625067
000070 28 13 07 3e 1e 45 91 3e 18 b4 50 3e af f3 25 3e
       0.13190901 0.28373045 0.203812 0.16206239
000080 4e 96 36 3d ae 2e ec 3d b7 52 42 be b1 a2 40 3e
       0.044576935 0.11532341 -0.18976866 0.18812062
000090 d2 06 8f 3d 6c 10 5f be 77 05 27 3e 53 01 ca bd
       0.06983723 -0.21783608 0.16310678 -0.09863534
0000a0 61 a3 a3 3d 45 21 65 3e 40 ed 55 be d6 f7 39 3d
       0.079901464 0.22375973 -0.20891285 0.04540237
0000b0 49 37 27 3e 34 09 c2 bd d7 71 9e bd d1 5d 18 3d
       0.16329683 -0.094744116 -0.07736557 0.037198845
0000c0 77 cc 46 3e c9 7b d0 3b 33 cf 31 be e7 9d 61 3d
       0.19413935 0.0063624126 -0.17364196 0.055082228
0000d0 57 f1 84 3e 5c 2b 6a 3d 3d 96 e6 3c 38 5f 41 3e
       0.25965378 0.057170257 0.028147811 0.1888398
0000e0 8d 01 12 be 7e e0 7e 3d 14 c2 6f 3d 44 19 70 3e
       -0.14258404 0.06222581 0.058534697 0.23447138
0000f0 c2 0c dc bd 7e 87 57 ba 3f 6a 90 3e b8 35 a8 3d
       -0.10744621 -0.0008221789 0.2820606 0.08213371

lstm1_1.bias_hh_l0_reverse f4 [64]
000000 f1 4a 03 3e c1 ba 4d be 9a 97 21 be ae 7d 29 3e
       0.12821557 -0.20090772 -0.15780488 0.16551849
000010 07 f3 dc 3d 02 11 cb 3d 55 68 5a 3d 6c 9b 53 3e
       0.10788541 0.09915353 0.053322155 0.20664757
000020 28 91 98 3d 07 71 2a 3e 47 a7 7b 3d d0 83 62 3e
       0.07449561 0.16644679 0.061438825 0.22120595
000030 58 24 22 3e aa 33 a0 3c 6c 58 62 3e 56 b3 b7 3d
       0.15834177 0.019555885 0.22104043 0.089697525
000040 1a b1 e9 3d 38 d0 38 3e 31 f3 10 bd 6e 4c f2 bc
       0.114107326 0.18048179 -0.035388175 -0.02957746
000050 55 3c 88 3e 90 90 43 3d 6c 5a ff 3d 84 ac 6c 3e
       0.2660853 0.047745287 0.124684185 0.23112684
000060 5a 9a 0f 3e 14 be 50 3d 3d 8b ec 3d a1 2e 9f 3e
       0.14023724 0.050962523 0.11549995 0.31090263
000070 2b 15 0f 3d 4a bf 96 3e f4 c6 a7 bd b9 6c a7 3e
       0.034932297 0.29442817 -0.08192244 0.32700136
000080 e2 c9 24 be 65 f6 0d 3e a1 ff 43 be f3 b9 8e be
       -0.16092637 0.13863523 -0.19140483 -0.27876243
000090 db 2d d9 3d 15 bd b4 bd 1b f9 2a 3b ff 72 2f be
       0.10604449 -0.08825127 0.002608842 -0.17133711
0000a0 7b 06 9c 3c 6f a2 6e be c2 1d 69 3e bb cd 9c 3d
       0.019046059 -0.23304151 0.22765258 0.076564275
0000b0 2d 9c b7 bb 44 b1 a1 3d c4 e4 14 3e 52 cd 31 be
       -0.0056033344 0.07895139 0.14540392 -0.1736348
0000c0 9b 01 90 3e 00 02 15 3b a8 cc b4 bd d1 42 b8 3d
       0.28126225 0.0022736788 -0.088280976 0.08997119
0000d0 5d 9f 4a 3e 76 79 73 3e ac 66 98 3d 95 26 88 3e
       0.19787355 0.23776802 0.07441458 0.26591936
0000e0 62 6b 17 3e 52 bf 93 3e 1c 34 43 be 91 42 85 bd
       0.14787057 0.28856903 -0.19062847 -0.06506837
0000f0 95 36 42 3d e7 cf 1a bb dd c6 4d 3e 38 c5 9c 3e
       0.047415335 -0.0023622455 0.20095392 0.30619216
