results/fine_tuning_samples_effect_results/Dataset 5/ft_num=all/Experiment4(3C-6)/from_Dataset 5_ft_model.pth (torch, 95756 bytes, 27 tensors)

cnn1.0.weight f4 [16, 1, 3]
00000000: 0143 613e 839b b03d 7626 cc3e d894 9cbe
00000010: c894 9abe 3c7b c23d 6b93 2cbe acdf 02be
00000020: 0ae7 233e f605 163f 375b 2abe c338 00be
00000030: 63d2 023f 2f9e 0f3e 47c4 f53e 0c0a 593e
00000040: 942d 0d3f d7cf b3be 5bc9 f8be f786 3f3e
00000050: 10a0 ffbe 6c0e e1be ee90 ae3d c8d8 a8be
00000060: 8a22 883e 3387 d6be eee0 95bd 5e4c 903e
00000070: f1f3 febe 1a70 063e 469b 95be aef5 093f
00000080: 4a87 68be 4d72 9fbd cbab 463d 685e b03e
00000090: 76ec e9be facd d7be 3e88 dcbd d41e 84be
000000a0: 4715 d1bd 82ab fc3e 31fe 033e 0308 de3e
000000b0: 6952 a73d 26d4 033f 3899 283e 6900 be3c
0.21998216 0.086234115 0.39873093 -0.3058231 -0.30191636 0.09496161 -0.1685311 -0.12780637
0.16006103 0.58602846 -0.16636358 -0.12521653 0.51102275 0.14025186 0.4800131 0.21195239
0.5514767 -0.35119507 -0.48591122 0.18703829 -0.49926805 -0.43956316 0.08523737 -0.3297789
0.2658885 -0.41900024 -0.073182926 0.28183264 -0.49795488 0.13128701 -0.29220027 0.538905
-0.22707859 -0.07785473 0.04850368 0.34447026 -0.45688218 -0.42149335 -0.10768174 -0.2580477
-0.102091365 0.493496 0.12889935 0.43365487 0.08170015 0.5149559 0.16464698 0.023193555

cnn1.0.bias f4 [16]
00000000: 8341 4b3e 177e 153f 6f9f dabd 1d7e 173e
00000010: 2cd6 aa3d 2c34 2e3e 49bb 70be 16dc 22be
00000020: 9c62 e2be 0b99 c9be c985 803e 4d12 12bf
00000030: 04aa ea3e 4b0b a2be 6377 05bd f147 82be
0.1984921 0.5839552 -0.10674941 0.14794202 0.08341631 0.1701209 -0.23508944 -0.15904269
-0.44215858 -0.39374575 0.2510207 -0.57059175 0.45832837 -0.3164924 -0.03258456 -0.25445512

cnn2.0.weight f4 [32, 16, 3]
00000000: 92fb cabd b9bc b4bd a213 9c3d b5b6 113e
00000010: d2ca 0e3e 8b24 bdbd 0770 023e 94fd 9d3d
00000020: 85bf 4dbc 0b3c 8b3d 6902 a5bc dd11 a8bd
00000030: 6d3a 03bc 290b 06be fc07 0b3c 04a0 7d3d
00000040: 14c6 073e 4d08 68bd 4cec 053e 0e07 03be
00000050: 830c fbbd 2b38 ce3d 63d6 d6bb 48e2 acbd
00000060: 9932 3e3d 0552 ccbc aa6f 003c d2c6 abbc
00000070: dfa8 b93d 2177 dcbc c1c4 043d 596d f6bd
00000080: 44fb f1bc d5f2 9c3d 050b 10bd 95a2 1cbd
00000090: ed7f eebd f804 23bc 95ae babd f2f5 d1bd
000000a0: 9b9d 02be 9b59 fbbd 6016 db3d 5880 98bd
000000b0: 7915 11be 7eeb 08be b732 93bc f052 14bd
000000c0: 3435 2ebd 4a0f 0fbe 804a 86bc 5104 ea3b
000000d0: 0017 93bc 81ed 083e cedb 85bd a59a 9ebd
000000e0: 5ac1 28bd 5406 debc 6d35 b3bd e926 82bd
000000f0: baf8 f63d 5afc f6bd 87dc df3d 0f64 5dbd
00000100: d28b 02be c44a 963b 76fe bf3d b202 ba3a
00000110: 7940 d5bc be32 d63c b9c2 da3d 1184 95bd
00000120: 7b0c 03be f753 d1bd 2207 54bd 55f7 a83d
00000130: 29e6 ecbd 5b62 07be 675a c2bd 0744 0ebe
00000140: d5b8 c8bd 469f e23d ed22 dd3b d26e dd3d
00000150: adc9 d5bd 9a0e ba3c 9490 383d f247 f4bd
00000160: b38f f5bd a265 c2bd f24a c63a 9d02 e13d
00000170: cabe 98bd f068 52bd 3825 953d 98c7 da38
00000180: f6ad 1bbc 97c5 13be 68c2 a0bd a9e1 c83d
00000190: 48c2 6abb a342 e83d a8d3 4e3d 90fd d53d
000001a0: 52c6 a53d ca72 a4bd d66e b43d 8ec0 63bd
000001b0: 1ce6 8ebd 569e 61bd 9f15 01be f025 bcbd
000001c0: ae1b 84bd 00df 5abd 3d68 f03d 4028 7b3c
000001d0: 8096 bf3d f8d1 e8bd c122 ac3d 083b 0dbe
000001e0: 4630 083e 8304 a53d 8894 3d3d ad75 033e
000001f0: 6fb0 2dbd 58ac 0cbe 90b7 b2bd 559a 853c
00000200: 2114 cbbd 0a6e 12be dd8a d93d 35e7 d03d
00000210: 03c0 9b3d 5f46 0ebb ac1b 03be 6268 bfbd
00000220: 6f83 5d3d c32a e8bd 9c5c 7cbd ddf7 973d
00000230: bbb0 6bbd aea1 1ebd fc4e 05be fb0f 5b3c
00000240: ed0b 6ebd 9d33 03bd 2db4 27bd 0fbe f53d
00000250: e933 213e dce6 da3c 25e0 543d b819 883d
00000260: 7d4e d2bb 9ffd b53d d3e3 f53d 79db dcbd
00000270: 0086 15be 16eb 54bd 4315 6f3d 9c31 0a3d
00000280: ccf3 5dbc 3fba f43d ce51 e7bc 94f7 9e3d
00000290: a0d2 d93d 6abd a1bd 61f7 1cbd 5b02 3fbd
000002a0: 75bd e9bd 4146 c63d 5401 be3d a0f8 4d3d
000002b0: 338d bdbd 18dd 943d ee84 ebbc 4504 803d
000002c0: 4e83 81bd cb29 e2bd bdfe ffbc eae4 cebd
000002d0: 1af5 183e 48b0 c23b d9c6 253d 9466 c93d
000002e0: 7de8 143d 749b 9cbd 516b 003d 15d6 25be
000002f0: de30 0eba 2c8a 7b3d 9bdb 17be 4ce5 033e
00000300: 6032 07be d667 92bd 73a1 d4bd 189f b73d
00000310: 96a6 be3d b390 843d e009 d3bd 4f84 a03d
00000320: ef02 dcbd a2a4 16be 9ec3 ce3d e06d a1bb
00000330: 565f 19be 2ee2 8b3b cbfd 0c3e 0005 2ebd
00000340: 4d7d 7f3d de96 eb3d fd53 e4bd 8501 f6bd
00000350: 5b30 cf3d 2d30 0f3e 3361 02be 7524 f53d
00000360: deba 043d 6b4e af3d b0d9 d43d 01d0 44bd
00000370: 5d5d 2abd f328 b3bd 2bc5 f53d ff83 1fbd
00000380: 891d 71bd b69b 063d c9ad 813c 8a98 fdbd
00000390: 446f f93d b532 bcbc 1e50 0abe ef26 183c
000003a0: 3f63 e93d e569 86bc 636a 9dbd 85a9 09be
000003b0: 18ae 483e ada4 debd 7a14 bebd 5772 9f3d
000003c0: 630a 7b3d 29f6 1abc e3b1 86bc fecc c73d
000003d0: f92f c3bd 0a89 e3bc a5f6 edbd eea8 16bd
000003e0: e6fb 25bd 5362 2f3d c0e1 1bbe ecbe 893c
000003f0: d1d3 603d 9506 efbd 3026 9a3d 50da e33d
-0.099112645 -0.088250585 0.07620932 0.14229853 0.13944557 -0.09235486 0.12738048 0.07714382
-0.012557869 0.06798562 -0.02014275 -0.08206532 -0.008009535 -0.13090195 0.00848579 0.06192018
0.13259155 -0.05664854 0.13078421 -0.1279566 -0.12258246 0.10069307 -0.0065563186 -0.08441597
0.046434972 -0.024941454 0.007839123 -0.020968828 0.09065413 -0.026912274 0.0324142 -0.12032575
-0.029538758 0.07663504 -0.03516676 -0.038240988 -0.11645494 -0.009949915 -0.0911533 -0.102519885
-0.12755434 -0.1227295 0.10697627 -0.07446355 -0.14168347 -0.13371083 -0.017968519 -0.036211908
-0.042531207 -0.13970676 -0.016392946 0.007141628 -0.017955303 0.1337185 -0.06536065 -0.0774434
-0.04120002 -0.027102627 -0.087504245 -0.06355078 0.120591596 -0.12059851 0.10930734 -0.0540505
-0.1274865 0.0045865495 0.093747064 0.0014191477 -0.02603172 0.026147243 0.10681672 -0.0730058
-0.1279773 -0.10221093 -0.051764615 0.082503 -0.11567337 -0.13221113 -0.09489899 -0.13893138
-0.09800879 0.11065535 0.0067485482 0.10812153 -0.10438857 0.02271204 0.045059755 -0.11927785
-0.11990299 -0.09492041 0.0015128537 0.109868266 -0.07458265 -0.051369607 0.072824895 0.00010432227
-0.009501925 -0.14430843 -0.0784958 0.09808666 -0.0035821367 0.11340835 0.05049482 0.10448754
0.08094467 -0.08029707 0.08810203 -0.055603556 -0.06977484 -0.05508264 -0.12605904 -0.091869235
-0.06450592 -0.053435326 0.11738632 0.015329421 0.093548775 -0.11368173 0.08405066 -0.1379205
0.13299665 0.08057501 0.04628423 0.12837858 -0.04240459 -0.13737619 -0.08726418 0.016308943
-0.09915949 -0.14299789 0.10622189 0.10200349 0.07604983 -0.0021709425 -0.12803525 -0.09346081
0.054080423 -0.11336281 -0.061611757 0.07420323 -0.05754159 -0.03872841 -0.13018411 0.013370509
-0.058116842 -0.032031644 -0.040943313 0.119991414 0.15742458 0.02672141 0.051971573 0.066455305
-0.006418048 0.08886265 0.12006345 -0.107840486 -0.14601898 -0.051982008 0.058369886 0.033738717
-0.013546895 0.11949586 -0.02823725 0.077620655 0.10635877 -0.07897456 -0.038321856 -0.046633106
-0.11413089 0.096813686 0.09277597 0.050285935 -0.09255447 0.07268733 -0.02874991 0.06250814
-0.063238725 -0.110431276 -0.031249398 -0.10102256 0.14937249 0.0059414245 0.04047284 0.09834018
0.03635453 -0.07646838 0.031352345 -0.16194947 -0.0005424152 0.061411068 -0.14829867 0.12880439
-0.1320281 -0.071487114 -0.103823565 0.089658916 0.093091175 0.06472912 -0.10304618 0.07837736
-0.10742747 -0.1471124 0.10095905 -0.004926428 -0.14977774 0.004268906 0.1376869 -0.042485237
0.062375356 0.11503385 -0.11148832 -0.120120086 0.10116645 0.13983221 -0.12732391 0.11969844
0.032404773 0.08559879 0.10393083 -0.04804993 -0.041592944 -0.08748045 0.120004974 -0.03894424
-0.058866058 0.03286334 0.015829938 -0.1238261 0.12179425 -0.022973398 -0.13507125 0.009286626
0.11395883 -0.016407916 -0.07686307 -0.13443573 0.19597661 -0.10871253 -0.09281249 0.077854805
0.061289202 -0.009458103 -0.016442245 0.09755896 -0.095306344 -0.027775306 -0.11619309 -0.036782198
-0.040523432 0.04281838 -0.15222836 0.016814671 0.054889504 -0.11671177 0.07526815 0.11125624

cnn2.0.bias f4 [32]
00000000: ab05 e7bd 10ce 823d ec98 573d 2628 d33d
00000010: bbea a5bd 1dc3 e5bd eade 25bc 8c02 f03d
00000020: b119 00bd 40f9 b83c c3fa 133d 908c debd
00000030: dbf9 293e cc33 a0bd 28a9 c23c 585b f43c
00000040: 60c3 fa3d 19a1 d4bd 05cf cd3d 60d8 90bd
00000050: 42aa 12be bfa7 04be fdc3 acbd 39f8 adbd
00000060: 5cdc 2cbe d3bb 5dbd 0b0e 1f3e f1d2 b3bd
00000070: 3b44 a73d e881 e3bd bdb7 413e 1e9f e9bc
-0.11280378 0.063869596 0.052636072 0.10310392 -0.08101412 -0.112188555 -0.010123948 0.11719236
-0.0312745 0.02257979 0.036127817 -0.10866654 0.16599219 -0.078223795 0.0237623 0.029828712
0.12244296 -0.103822894 0.100492515 -0.0707252 -0.1432276 -0.12954615 -0.08435819 -0.0849461
-0.16880935 -0.0541342 0.155327 -0.08780468 0.08167311 -0.11108762 0.18917747 -0.028518256

lstm1_1.weight_ih_l0 f4 [64, 32]
00000000: 4aa1 6a3e 0c36 503e 8b31 79bc c7ca bbbd
00000010: 0ebd a23d faef 53be 79c3 633e 9cb6 2b3e
00000020: 7c65 af3d 4fe6 5ebc 6e11 5abe 9000 9cbd
00000030: 6912 11be a45a 37be 34b6 113e a40c a73c
00000040: f2c3 783d 308a f4bd 5718 69be ea42 4e3e
00000050: 4718 ff3b 7dda e93d 30e5 733d d450 153d
00000060: 8c3f 99bd aec9 5fbd 5107 4fbe a277 263e
00000070: 9c35 d8bd 5269 1b3d 2d68 13be 6aa4 86be
00000080: c4bb 253e 987a 4e3e 19d7 7fbe 5d1c 8fbe
00000090: 9e96 4a3e 210c 043e 04de 913e c57f 45be
000000a0: 4aed 2bbe 0166 64be 6f2b 97bb 3a75 0f3e
000000b0: c37e 6bbd 243f 1fbe 9831 363e 6450 32bc
000000c0: b664 43be 10f1 18bd 922a a53d 28b7 743e
000000d0: 6a25 24be d914 acbd 4cd7 d23d 5bca 533d
000000e0: 4659 28be 60c4 723e cde7 75be 7226 54be
000000f0: 5035 093e a225 83bd 2945 e93b 9158 e33d
00000100: 8a63 403e 40e2 d53b 35ea 4dbe 16eb b7bd
00000110: f275 043e fd9a 3b3e a78b 483e 758d 2d3e
00000120: 8a30 22be 2dd6 093e 049a 683e d845 843d
00000130: 4282 8bbd fc8e 253e a0f8 30bc 691f 843e
00000140: d41b 653e 2067 e73d f524 d5bd 4cab 583e
00000150: 2707 0cbe c3f6 8e3d 6473 6cbe eee2 833d
00000160: 3439 c5bd ffd4 9b3d f7cc ad3d f674 51be
00000170: 3772 a43d 661a 823e 2332 303e 1df8 debc
00000180: 6eae 54be a83d 2e3e 7798 663d 4394 6e3b
00000190: a010 e93d 20a8 833e 2fbd 043e 89d9 94bd
000001a0: 10f4 ec3c b570 d33c 64ea 13bc b0ba 833d
000001b0: 4ecc da3c 4e09 453e d88b 083e 9100 06be
000001c0: 5f2c bb3d d83c 53bd 6797 713e 584f 3e3d
000001d0: e807 a4bd 001b 863e 342f 66be 68d7 02bd
000001e0: 55a0 2f3c 0759 62be f9ed 953d 1c28 9e3d
000001f0: 018d 3cbe 7de0 973d 1992 5b3d 1d79 d8bd
00000200: 5e72 003e 9885 213e f805 333e 60d9 b53d
00000210: b8a1 f03e b081 84be 4402 233e 1757 12be
00000220: e080 7dbe 5b90 1abe 8a98 dbbb 4ed0 37be
00000230: bae9 09be be70 043e 189c e73d bd72 2f3d
00000240: 57a4 66bc 3445 8f3d 2bc8 ea3d 080b 3c3e
00000250: 315f 9c3e eb6d 5f3d e2b8 5d3e 0a32 ce3d
00000260: 638d 7b3d 9af1 8e3d 1a3e 7b3e b63d 18be
00000270: 9b29 babd a23e a43c 563c aa3e b74a 173e
00000280: 44c7 80bd 124c 3c3e 8dc9 243e 256e aebe
00000290: 91c4 d83e 9bd7 2ebc f221 903c cfa7 3f3e
000002a0: 60db 5ebc ed41 74be be9a 8c3e 821a 413e
000002b0: c4a5 123d d07f 32bd 4006 ed3b d00e 39bd
000002c0: 2b2d 953e ea9e 353e 83d0 ecbd f072 583e
000002d0: 83d3 70bd 1655 973e 7003 74be 7101 9abd
000002e0: e0df 6f3c a792 acbd d609 3b3c 5072 433e
000002f0: ab9c b6bd 8a85 453e 1bfc 4f3e 036c 90bd
00000300: e841 1a3e a8cc 1e3e 3ec6 283e 3275 f73c
00000310: 28f7 a3bd 98ed 36be 7e54 09be 63f1 0dbe
00000320: 7a9d 49be e5f5 7c3e 6706 16be 96ad 4d3e
00000330: eff2 b63d 003c 943d 2432 53be 42b1 0b3e
00000340: 0305 a7bd 6091 f33d a7e8 55be 806d 163c
00000350: e1f8 7b3e a0af debd 0015 333b 67bb 083d
00000360: 76ab a33d 7eeb 853d f5a4 60be 58c9 6c3d
00000370: 20a3 643e 42dc 2cbe 9c88 85bd aa92 07be
00000380: 08ac cebd e0dd 27bc 0e2d 76be 1039 45be
00000390: b7fe 4cbe 72f8 3dbe d90c 34bd 607f c2bc
000003a0: d808 163e f64e 473e 3244 5a3e 3435 bb3d
000003b0: 7615 173d a05b 603d dc9c 68be 7328 2dbe
000003c0: 47a5 6abe 8c99 75be ad1e 2a3d c040 1a3e
000003d0: 01f1 1f3e a092 a53c 30b4 883c f960 883d
000003e0: 2525 723b 7879 85bc 2fdf 7cbe fc6b 023e
000003f0: 91fa 24bd 8c5a 26be 2b2e a53d ea3a 383c
0.2291309 0.20333117 -0.015209566 -0.09169536 0.079462156 -0.20697013 0.22242536 0.16768879
0.085642785 -0.013604715 -0.21295711 -0.07617295 -0.14167179 -0.1790567 0.14229661 0.02039177
0.060733743 -0.1194042 -0.22763191 0.20142713 0.0077848765 0.114186265 0.059544742 0.036454037
-0.07482824 -0.054635696 -0.20217635 0.16256574 -0.105571 0.03794224 -0.14395209 -0.26297313
0.16184908 0.20163953 -0.24984397 -0.27951327 0.19784018 0.12895252 0.28489697 -0.19287021
-0.16789737 -0.22304536 -0.004613332 0.14009562 -0.057493936 -0.1555143 0.17792356 -0.010883424
-0.19081387 -0.03733927 0.0806476 0.23897994 -0.16029897 -0.08402414 0.10294971 0.051706653
-0.16440305 0.23707724 -0.24014206 -0.2071779 0.13399243 -0.06403662 0.0071188402 0.11100877
0.18787971 0.0065272152 -0.20108874 -0.08980386 0.12935618 0.18320842 0.19584523 0.16948493
-0.15838829 0.13460608 0.22715002 0.06458634 -0.06811954 0.16167825 -0.010801464 0.25805214
0.22373897 0.112989664 -0.104074396 0.21159095 -0.13674603 0.0698066 -0.23090893 0.06439768
-0.09630051 0.07608985 0.084863596 -0.20454773 0.08029597 0.25410765 0.17206626 -0.027217919
-0.20769665 0.17015707 0.056297746 0.003640429 0.11380124 0.25714207 0.12962793 -0.07268054
0.028924972 0.025810579 -0.009028051 0.06432092 0.026708748 0.1924183 0.13334596 -0.13086154
0.091393225 -0.051571697 0.23592912 0.046462387 -0.080093205 0.26192474 -0.22478944 -0.03194371
0.0107193785 -0.22104274 0.0732078 0.07722494 -0.18413164 0.074158646 0.053606126 -0.105699755
0.12543628 0.15773618 0.17482746 0.088793516 0.46998382 -0.25880194 0.15918833 -0.14291035
-0.24756193 -0.1509413 -0.0067015337 -0.17950556 -0.13468066 0.12933633 0.113090694 0.042834032
-0.014077268 0.06995621 0.1146396 0.18363583 0.30541375 0.054548185 0.21652558 0.10068138
0.061414134 0.069796756 0.24535409 -0.14867291 -0.09089967 0.020049397 0.33249158 0.14774595
-0.06288007 0.18388394 0.1609251 -0.3406841 0.42337468 -0.010671522 0.017594311 0.18716358
-0.013602108 -0.23853274 0.2746181 0.18857768 0.035802618 -0.043578923 0.007233411 -0.045180142
0.29136023 0.17736402 -0.11563208 0.21137595 -0.058795463 0.29557103 -0.23829436 -0.07519806
0.014640778 -0.08426409 0.011415919 0.19086576 -0.08916601 0.19289222 0.20311014 -0.070518516
0.15064204 0.15507758 0.16481873 0.03020725 -0.08006126 -0.17864072 -0.13411137 -0.13861613
-0.19688979 0.24703176 -0.1465088 0.20085749 0.08933055 0.072380066 -0.20624596 0.13641837
-0.08155253 0.118929625 -0.20889531 0.00918138 0.24606659 -0.108733416 0.002732575 0.033381846
0.07991688 0.06539057 -0.21937926 0.057809204 0.22327852 -0.16880897 -0.06520197 -0.13239542
-0.10091406 -0.01024577 -0.24040624 -0.19260049 -0.20019041 -0.18551806 -0.043957565 -0.023742378
0.14651811 0.19463715 0.21315077 0.09141007 0.0368857 0.05477488 -0.22716087 -0.16909961
-0.22914611 -0.23984355 0.04153316 0.15063763 0.1561928 0.020211518 0.016687483 0.06659121
0.003694841 -0.016293272 -0.24694513 0.12736505 -0.04027802 -0.16245478 0.080654465 0.011244515

lstm1_1.weight_hh_l0 f4 [64, 16]
00000000: 3f60 ef3c 06c4 343e 7f24 433d e0a5 a43d
00000010: 09f0 8d3d 3253 183d bd42 15bd df1c a73d
00000020: 90ac 613e 2d24 463e eac7 f3bd ec3a 66be
00000030: 3724 71be abf4 30bd 9950 413d b5c7 0dbd
00000040: 4c68 bfbd e146 d93d 092f 5a3e 8d41 853e
00000050: 114c a53c eed1 a4bd 57f4 343e 1ff1 3fbe
00000060: 7464 383e 9f86 86bd a884 3abc 13c5 593e
00000070: be24 db3d 15d8 e0bd dc17 32be a44f 403e
00000080: 3cd5 54be 2439 53be 5d84 863d 643a f13d
00000090: 55be 64bd 425d 263e 65fd b1bd 2f04 bdbb
000000a0: f013 863d 861f 18be 81dd 3bbe 6697 e4bd
000000b0: 0343 90bd 0be9 943d 8dc9 133e 71ca 67be
000000c0: 84e6 d93d b75e 87be 85ed 3dbe 3f34 bcbd
000000d0: d6e6 a2bd afb6 573e 2d4b 15be 5a65 b7bd
000000e0: df18 2ebe aac8 97bd 2325 1b3e ae16 3b3d
000000f0: 1a69 31be 4bd8 013e ac0d 1fbd c7ea 28be
00000100: 07bc 01be 9df4 1f3e 7410 393e 4dfa 4a3e
00000110: 352b 493e 7857 efbd 6002 12be dd2a a7bc
00000120: da89 7d3e 4321 523e db42 e03d e7c5 113e
00000130: 7820 b33d 75b6 783e 1708 ae3c fb00 993d
00000140: 75c7 f8bd 515a ef3d 57cd 85bd 504b c9bd
00000150: d0f8 20be 2112 f4bd b5ac aebc 025f 4fbe
00000160: 4a43 d0bd f81b 22be 2464 60be 9701 8d3d
00000170: 6d4e f0bd 0414 9e3c 67c6 7cbe 0ea4 fdbd
00000180: d5b0 b63d 7f5b 2c3d c9fe 07be a55a 85be
00000190: c8cf 003e 132c ca3d 24e3 063c cf54 42be
000001a0: 28bf 81bd 46cd 263e 0db5 72be 503c 1fbe
000001b0: c3ce 0e3e a462 1e3e d780 483d 85b3 523e
000001c0: f1ba 84be 6d90 043e 60dc da3d a6b3 61be
000001d0: cf7b 413e c27a c53d a16c fe3d 5259 613e
000001e0: 04e7 183e 99a6 0f3e a1f3 e2bd 4ae6 f2bd
000001f0: 41cf 6abd 1bd8 9e3d 2126 8c3e 8b83 32be
00000200: 5183 3e3d 2ab7 2abe 29f5 333d 1aea 0e3e
00000210: 2e84 733e fffb 623c 90d2 343e 3795 eebd
00000220: c5fc 30be 369d f03d e6fc 55be d9d2 77be
00000230: 8679 3ebe 69bd dcbc 4f42 64be a769 a3be
00000240: cfc2 82be 0d3e da3d b8cb 41be e975 983e
00000250: 4bec eebd 48c2 69bb 7e49 963e 33ef afbd
00000260: 35c6 17be 3b63 0b3e b87d e13d a265 e5bd
00000270: 813f 4cbe 3b5c 2bbe 7dfd 28be 7fc0 ee3c
00000280: c472 debd da82 d33d 8dbf 90bd 06b8 263e
00000290: a886 1ebe 2519 603e a317 3c3e 30b1 5c3e
000002a0: c973 6d3d 5cae 4cbe 8e09 83bc cd8e 943d
000002b0: 0afe 363e dcaa e53c 4b7b 12be ca48 b1be
000002c0: b10b b73d 8f95 ea3d c7c5 803c d102 a23d
000002d0: 648d f2bd eef7 363d e765 f03d 6d84 ac3d
000002e0: ef4a 633d 9102 1cbe 6476 323e f65a f8bd
000002f0: eb0a abbc 683d 55bd 17a5 203e 10d5 a3be
00000300: 50cd 6fbd 1939 82be d5b4 3f3d e7eb 4d3e
00000310: 781e bd3d 6ff4 283d 649f 7b3e 4a83 2abe
00000320: 2f54 ef3d f28a 83be 4243 2fbe dc49 57be
00000330: ef25 29be 84a2 263d 9d1c 53be cd65 493d
00000340: 1cc4 35bb f6d1 193e ea0d 08bd 2c91 c1bd
00000350: 4464 ea3d a4dd 66bd 17da af3d f5f1 4cbe
00000360: 86b6 913d 94ba 0f3d 7a44 193e a0d5 103e
00000370: 141b 573e b57e 39be 588d 7b3d cdc9 22be
00000380: 7d6f 5bbe 6343 423e 6a79 27be b634 f3bc
00000390: cc9a ccbd 88c3 723e abac 8ebd 6034 023e
000003a0: 0ea2 d73d 4dcf 0b3e 0234 603e d47e 31bd
000003b0: 35b9 4d3d 2fea 3fbd d33d 403e 7a33 023e
000003c0: e52a 1ebe 4b01 323d af85 1ebe c708 273e
000003d0: 0a8d 723e d3e2 2abd d2ac 323e e717 573e
000003e0: f399 893d 5bea f2bc bf73 793e e2c6 123e
000003f0: 3803 443e e81a 8abe 053c 4c3e 09d6 cc3b
0.029220698 0.17652902 0.047642227 0.08039451 0.06930549 0.037188716 -0.0364406 0.081598036
0.22038484 0.19349737 -0.11903365 -0.22483414 -0.23548971 -0.043202084 0.047196005 -0.034614284
-0.09346065 0.10609222 0.21307005 0.26026574 0.020177873 -0.080478534 0.17671333 -0.18744324
0.1800707 -0.06568646 -0.011384167 0.21266584 0.107003674 -0.109787144 -0.17391914 0.1878038
-0.20784467 -0.20627266 0.06568215 0.11778715 -0.055845577 0.16246513 -0.08690909 -0.005768321
0.065467715 -0.14855775 -0.18346216 -0.111616895 -0.070440315 0.07271012 0.14432354 -0.22635819
0.106396705 -0.2643945 -0.18547638 -0.09189653 -0.07954185 0.21065782 -0.14579459 -0.08954878
-0.17001675 -0.074113205 0.15150885 0.045675926 -0.1732525 0.12680165 -0.038831398 -0.1649581
-0.12669383 0.15620656 0.18072683 0.19822045 0.19645388 -0.11686605 -0.14258718 -0.020406181
0.24759617 0.20520501 0.10950252 0.1423565 0.08746427 0.24288352 0.021244092 0.0747089
-0.121474184 0.11687148 -0.06533306 -0.09828818 -0.15719914 -0.1191752 -0.021322588 -0.20251086
-0.10169084 -0.15830982 -0.219132 0.06885069 -0.117337085 0.019296654 -0.2468506 -0.123848066
0.08920447 0.042079445 -0.13280787 -0.2604572 0.12579262 0.09871688 0.0082328655 -0.18977664
-0.06335288 0.16289243 -0.23701878 -0.15550351 0.13946061 0.15467316 0.048950996 0.20576294
-0.25923875 0.12945719 0.106865644 -0.22041187 0.18894885 0.09642555 0.12423063 0.22006729
0.14931875 0.14028396 -0.11081625 -0.118603304 -0.05732656 0.077560626 0.2737284 -0.17432992
0.04651195 -0.16671434 0.043934975 0.1395649 0.23780891 0.013854026 0.17658448 -0.11649554
-0.17283924 0.117487356 -0.20897254 -0.24201526 -0.18601045 -0.026945787 -0.2229092 -0.31916544
-0.25539252 0.106563665 -0.18925369 0.29777458 -0.11666163 -0.003566878 0.29352945 -0.085905455
-0.14821704 0.13612072 0.11010307 -0.112010255 -0.199461 -0.16734402 -0.16502948 0.029144524
-0.108617336 0.10327692 -0.070677854 0.16281137 -0.15481055 0.21884592 0.18368392 0.21551967
0.05797175 -0.19988388 -0.015995767 0.072537996 0.17870346 0.028035574 -0.14304845 -0.34625846
0.08937777 0.11454307 0.015719308 0.079106934 -0.11843374 0.044670038 0.11738186 0.08423696
0.055491384 -0.15235354 0.17427975 -0.121267244 -0.02087923 -0.052060515 0.15687977 -0.3199849
-0.05854541 -0.25434187 0.046803314 0.20109521 0.09234327 0.041248735 0.24572521 -0.16651645
0.116859786 -0.25691944 -0.171155 -0.21024269 -0.16518377 0.04068233 -0.20616384 0.04916935
-0.0027735298 0.150215 -0.033216394 -0.094515175 0.114449054 -0.056363717 0.08586519 -0.20014174
0.07114892 0.035090044 0.14967528 0.14143991 0.21006423 -0.18114741 0.061414093 -0.15897293
-0.21429248 0.18971018 -0.1635491 -0.02968822 -0.09990463 0.23707402 -0.069665276 0.12715292
0.10528956 0.13653298 0.2189484 -0.043333843 0.050225455 -0.046854194 0.18773584 0.12714949
-0.1544605 0.043458264 -0.15480684 0.16311942 0.23686615 -0.041720223 0.17448738 0.21005212
0.067188166 -0.029652765 0.2436056 0.1433368 0.19141853 -0.26973653 0.1994477 0.006251101

lstm1_1.bias_ih_l0 f4 [64]
00000000: 6d4f 71bd 8a9b f8bd 7a13 2fbe 3f05 07be
00000010: d7c3 843b 3816 e1bd c02a e03d d5c9 47be
00000020: 5e0f 383e 8064 d5bd 5498 973e 92a2 423d
00000030: e738 42be 7c60 3c3e 94fa f43c d2ff b13d
00000040: ee60 20be b5e2 013e 6135 6f3e 4188 163d
00000050: 2a04 463e 264b 353e 6e54 463e d35f debc
00000060: d1b6 1fbe ede9 003e 3cbe 473d 034c 32be
00000070: ed5b 2b3c 35b4 42be fad4 65be 0245 37be
00000080: 8f56 353e 9419 d7bd 5d73 6e3e 710c 45be
00000090: a89f 3bbe 9a28 3d3e 51f7 33be 9247 a7bd
000000a0: fa05 c63d faee 95bd 1d32 2d3e 0286 7b3e
000000b0: 560e a6bd 0f3e bc3d 7907 febd 052a f9bd
000000c0: ef90 37be 0439 4fbe afac 58be 8d8a 12be
000000d0: 5ff1 4cbe ac43 36be 392a 093e f673 a73b
000000e0: d945 593d 9bf4 f6bd 9b1a 4b3e 8cbd 3fbe
000000f0: 3f5d 4abd 095d b63d 237c a13d 87e8 d63c
-0.058913637 -0.12139042 -0.17097273 -0.13185595 0.0040516662 -0.10990566 0.10945654 -0.19510587
0.17974612 -0.104195595 0.29608405 0.04751832 -0.18967019 0.18396181 0.029904641 0.08691372
-0.15661976 0.12684138 0.23360206 0.036751036 0.19337526 0.17704448 0.19368145 -0.027145302
-0.15597083 0.12589236 0.048765406 -0.17411809 0.0104589285 -0.19014056 -0.22444525 -0.17897418
0.177088 -0.105029255 0.23286195 -0.19243027 -0.18322623 0.1847252 -0.17574812 -0.08167948
0.09669109 -0.07320972 0.16913648 0.24562839 -0.08108203 0.09191524 -0.12403769 -0.12166218
-0.17926382 -0.20236593 -0.21159624 -0.14310665 -0.20013951 -0.17799252 0.13395013 0.005110259
0.053045128 -0.120583735 0.19834368 -0.1872465 -0.049405333 0.08904464 0.07885005 0.026233925

lstm1_1.bias_hh_l0 f4 [64]
00000000: 273b 1fbe f440 39be 5714 143a 65df 6c3d
00000010: 3e0b ed3d 14bf 61bd e070 bebd cf0f 5abe
00000020: 7c69 5cbe 5ee8 193d 9d7f dbbd 0c26 b7bd
00000030: 5913 0abe 3fc8 f5bd 589c 15be 1d49 fabd
00000040: 2a67 953d efa2 41be cae9 cf3d 02b5 6a3e
00000050: e9a5 0d3e 52fd 21be 5b83 03bd e1fc 27be
00000060: 6d74 ffbd a56a bebd 0b59 acbd c6b4 873e
00000070: 6ca9 943d e713 3f3e b731 393d d40a d93d
00000080: 81e9 13be 05c9 a2bd 51aa 96bd 9934 343e
00000090: 931a 8fbe c1a8 fdbd db42 13be e88c 153e
000000a0: 3e50 c9bd a7a1 cd3d 7bd5 54be a90e fbbd
000000b0: c394 3e3e ed56 693e df47 a9bd 843b d3bc
000000c0: 0baa 8bbd c768 bf3c 3dfb 233e 5b45 00be
000000d0: 50d6 a5bc bf92 843e 995b 81bd c691 90be
000000e0: 02ff 58be 437a 82be f183 1abe afa8 fabd
000000f0: 02ab 2d3e ba66 26be 6478 1ebe e06a 803d
-0.15549909 -0.18091184 0.0005648783 0.057830233 0.1157441 -0.055113867 -0.09298873 -0.21295093
-0.21524614 0.03757512 -0.107177 -0.08942804 -0.13483943 -0.120010845 -0.14610422 -0.122209765
0.072950676 -0.1890981 0.101520136 0.22920612 0.13832821 -0.1581929 -0.032107692 -0.1640506
-0.12473378 -0.092976846 -0.08415421 0.26505107 0.07258877 0.18659936 0.045213427 0.105977684
-0.14444543 -0.07948498 -0.07356704 0.1759819 -0.27949962 -0.12385703 -0.14380972 0.14604533
-0.09829758 0.10040598 -0.20784561 -0.122586556 0.18611436 0.22787066 -0.082656614 -0.025785215
-0.068195425 0.023365391 0.16013809 -0.12526457 -0.020243794 0.25893208 -0.06316299 -0.28236216
-0.21191028 -0.25483903 -0.15089394 -0.12239205 0.16959766 -0.16250125 -0.15475613 0.06270385

lstm1_1.weight_ih_l0_reverse f4 [64, 32]
00000000: 2ad6 253e 883a 89bd 6d94 423e 153a 803e
00000010: 308d 843d a6f6 03be 9181 523e adae 36be
00000020: a81c 01be 77f9 db3d 7bf4 f9bd 9ed3 1f3e
00000030: 4868 d9bd 7975 883d 04df 64be 0613 153e
00000040: 2423 933d 32b8 35be 47cf 1dbe 929e 6a3e
00000050: ee71 22be c438 5cbe d0bb 3f3d 6c39 de3d
00000060: bffa 0fbe 90c9 443e 3d18 203e 6231 45be
00000070: d675 adbd 2ab2 513e 994e 053e d443 d73d
00000080: 62e1 653e d8a4 153d b9d7 a33d ab07 2cbe
00000090: d114 87bd 1356 c5bd 9f51 123c 5cb2 d9bd
000000a0: a6d1 1a3e 1e41 133e be67 a23d 8a0e 4abe
000000b0: bc2c 433e 0ba5 663e 0079 b5ba 8229 35bb
000000c0: f89a 5fbe 8e80 16be 8ae9 7cbe 68c8 3c3d
000000d0: d65e 6d3e b63d b1bd 388c 723e 44b2 e8bd
000000e0: 1bc1 983e 955f 07be d596 f93d 34e6 7fbe
000000f0: e4e3 12bd 2ab9 2cbd 37af 213e 2e67 b0bd
00000100: 3c5e 54be 0804 a1bd 27cf fd3a aaf3 cfbd
00000110: 6150 ed3c 198c 34be e45d 963e e65e bbbd
00000120: 18c0 d7bd a3dd 2ebe 54f4 543e 56dc 183e
00000130: 7cd9 113e cfb5 b03d 3a9d 3d3e db25 493e
00000140: ec87 4fbc f04b 4d3e 0594 0f3c e81c e23d
00000150: 8741 9b3e c0ad 783e 1653 7cbe 505f 0e3e
00000160: a685 1f3e 3f63 363e 1363 dabd 760c 55be
00000170: c28e bf3d 4666 c2bc 0a8b 103e 1a7c 973e
00000180: f40d 953d dccf 2cbe 18a7 2cbd c649 8b3e
00000190: da12 513e 9030 b2bd c50a 593b 7e5a 993e
000001a0: aa91 5fbe a1fd 45be b2f2 2ebb 6898 03be
000001b0: af47 723e 5147 05be 6a9a 413e ce4c 113d
000001c0: 6806 303e 4ab6 7cbe 39ed 8e3d 4a7f 583e
000001d0: f086 823e 15be e73d d0e9 06bd cae8 c23d
000001e0: e42b 1f3d d2ae 623e a52d 37b8 8089 56bb
000001f0: 98db 933c 47ec c13d 1159 0b3e ea20 863e
00000200: f8d9 89bd 6c00 5a3e 0e3b d63d 1191 3c3d
00000210: 024b b33d 0172 433e 09c1 683d 5944 8b3e
00000220: c800 bbbd bd93 0a3e 392c 833c 6ce9 383e
00000230: ba4d bb3d 84ed e7bd b052 f43d 42c8 2b3d
00000240: 8222 29be 407e fabc 15ae 113e e8e6 5dbe
00000250: c203 83be 2b4d bf3d bedd 623e cfd0 aebc
00000260: c702 a3bd 82c4 fb3c cde8 ab3d c061 9cbb
00000270: 4245 60bb e4cb 34bd 5a1c 313e 8ef4 a6be
00000280: 409f c7bd 32a5 50be 72c7 db3d 8db1 443e
00000290: 4764 55bd 860c 3e3e 19cb cd3d f228 0c3c
000002a0: faa3 4f3e 5e4f 063d d4b5 59bd f601 1cbe
000002b0: ce92 283e c448 4e3d f40a d8bd 5e61 123e
000002c0: fa3f 473e 1a7e 263e 5cec 433e 80f5 debc
000002d0: 75bd 903e f12e 42b9 eae1 443e bdfe aa3e
000002e0: 4a97 863e f671 d63d dd36 7ebe 9e57 733e
000002f0: 008b 5abe 0792 34be 1cdc 4d3e 7a12 073e
00000300: 60e3 933d a4b6 853d 1c6b 2fbe b2c9 f23d
00000310: b4ee 523d 704c 26be 89ae 513e 1dc0 673e
00000320: ae54 4c3e ada1 22be a7b1 873e c459 513e
00000330: 24d5 09bd 0d7e d9ba c0d1 c03b 4822 c43d
00000340: 95c9 9fbd ae04 2d3e ed0e 5a3e d8e7 c4bd
00000350: 9c4c 3e3e 246a 4e3e c040 df3b 0099 a73c
00000360: eb28 253f 0150 f83d 6f09 51be f869 593e
00000370: c0b9 4abe e151 d23e 5623 dabd 8e6e 773e
00000380: 3091 40bd eed6 1cbe fa85 a2bc 33f0 033e
00000390: e650 ea3d da3f 41be 131d 2d3e 74a7 e23d
000003a0: 3832 0b3d 0503 853d 0ac3 ecbd 2ea6 0cbe
000003b0: 883f 0fbe ed20 d43d 408f e6bb 94d2 9f3e
000003c0: fc21 2c3e 4abb 3fbe 35fe 10be 0444 b03d
000003d0: af4b d4bd 3068 c63d 00b1 c6bd b390 d33d
000003e0: 36ee 293e d6d3 81bc 092e f63d 2cdb 7f3e
000003f0: 5bb2 98bd 482c 2b3d c05b 763e e871 bebd
0.16194978 -0.06700617 0.19001932 0.25044313 0.06472242 -0.12887058 0.20557238 -0.17840071
-0.12608588 0.10740941 -0.12204834 0.1560807 -0.10615593 0.06663031 -0.22350699 0.14558038
0.07184437 -0.17746046 -0.15411101 0.22912052 -0.15863773 -0.2150603 0.04680997 0.10850796
-0.14060496 0.19217515 0.15634246 -0.1925712 -0.08469741 0.2047812 0.13018264 0.10510984
0.22449258 0.03653416 0.0800013 -0.167998 -0.06595767 -0.09635558 0.008930593 -0.106297225
0.15119037 0.14380309 0.079299435 -0.19732109 0.19060034 0.22523896 -0.0013845265 -0.0027643149
-0.2183646 -0.14697477 -0.24698463 0.04608956 0.23180708 -0.086543486 0.23686302 -0.113621265
0.29834828 -0.13220055 0.12186972 -0.2499016 -0.035861865 -0.042168774 0.15789495 -0.0861343
-0.20739073 -0.07862097 0.0019364104 -0.10153897 0.028968992 -0.17631568 0.29368508 -0.0914896
-0.10534686 -0.17076735 0.20796329 0.14927801 0.1424312 0.08628427 0.18517008 0.19643347
-0.012666684 0.20048499 0.008763318 0.1104067 0.3032343 0.2428503 -0.2464107 0.13903546
0.15578327 0.17811297 -0.10663428 -0.20805535 0.09353401 -0.023730408 0.14115539 0.2958687
0.07278052 -0.16876167 -0.04215154 0.27204722 0.20417348 -0.08700669 0.0033117991 0.29951853
-0.2183291 -0.19335033 -0.002669495 -0.12851107 0.23660158 -0.13015486 0.1890656 0.035473637
0.17189944 -0.24678913 0.069788404 0.21142307 0.25493574 0.11315552 -0.032937825 0.09517057
0.038860217 0.22137001 -4.367311e-05 -0.0032735765 0.018049046 0.094688945 0.13608195 0.26196986
-0.06731027 0.21289223 0.104604825 0.046036784 0.08754541 0.19086458 0.056824718 0.27200583
-0.091310084 0.1353292 0.016012298 0.18057793 0.091456845 -0.113245994 0.11929834 0.041939028
-0.1651707 -0.030577779 0.14226563 -0.21670115 -0.25588804 0.093408905 0.221549 -0.021339802
-0.07959514 0.03073335 0.083940126 -0.004772395 -0.0034220968 -0.044139758 0.17295972 -0.32608455
-0.097471714 -0.20375517 0.107314005 0.19208355 -0.052097585 0.18559465 0.100485034 0.008554684
0.20277396 0.032790534 -0.05315192 -0.15235123 0.16462252 0.050362363 -0.10548964 0.14294955
0.19457999 0.16259041 0.19133133 -0.027216673 0.28269544 -0.00018518769 0.19226804 0.33397475
0.262873 0.10470955 -0.24825616 0.23763892 -0.21342087 -0.1763383 0.20103496 0.13190642
0.07221103 0.065289766 -0.17130703 0.118548766 0.051497176 -0.16240096 0.20476736 0.22631879
0.19954178 -0.15881987 0.26502725 0.20444399 -0.033650532 -0.0016593352 0.005884379 0.09576851
-0.078021206 0.16896316 0.21294756 -0.09614533 0.18583912 0.20157677 0.0068131387 0.020458698
0.6451556 0.121246345 -0.20413755 0.2123183 -0.1979742 0.41078094 -0.10651271 0.24163267
-0.04701346 -0.15316364 -0.019839276 0.12884597 0.114412114 -0.18872014 0.16905622 0.110670954
0.03398344 0.064947166 -0.11560638 -0.13735268 -0.13989079 0.103578426 -0.0070361197 0.31215346
0.16809839 -0.18723789 -0.14159472 0.08606723 -0.10365998 0.09687841 -0.09701729 0.103303336
0.16594777 -0.015848082 0.12020499 0.24985951 -0.074558936 0.041790277 0.24058437 -0.0929907

lstm1_1.weight_hh_l0_reverse f4 [64, 16]
00000000: 4c8a 7cbe b6f8 24be 2352 05be c365 923d
00000010: 6f6d 71bd c88c d9be 2bc0 b23d f1d0 3b3d
00000020: ffe0 89bd c6d8 1ebe c001 cebd 176e 97bd
00000030: c6d2 dc3d 05e3 6e3d 7c82 b0be 55b2 123f
00000040: a11c ac3d a6ed 863d f811 223e 2dd1 52be
00000050: e27e 59be 211f 08be 13ea 7c3d 3d04 113e
00000060: 23e7 3c3e 8395 ccbd 7c3a 15bd c0d9 57be
00000070: 5bfb 493e 4c8e 303e 344e 2dbe 4423 c4bb
00000080: d2e3 773d c181 15be 056b 67be 9bd1 9d3d
00000090: 0520 9f3d 2ca9 babd 1f6c f03d 4711 6dbe
000000a0: d7a0 8dbe 6f8d 6dbe b84e 68bd 3592 05be
000000b0: cc92 4cbc 4269 363e fb87 89be b301 d73d
000000c0: b6f8 023e c1fc 9bbd 3fe1 0abe 91ba 313e
000000d0: 1aec b53e c15e c2bd b836 6c3e 8546 90be
000000e0: dd90 3abe 9c65 8cbe 3c7c a2bb 6671 80be
000000f0: 311d 093e f27b 6abe 34fb 87bd c05f 57bd
00000100: 9bd7 21be b030 26be c47a 043e b3b7 3dbe
00000110: c3e5 093e 4a2a 243e 2d56 b4bd c7ae 0a3e
00000120: 4572 253c aaa8 4cbd 4b5f 8f3e 67d0 97bd
00000130: 0972 693e 2f13 0abe 72c4 123e a1a0 8ebe
00000140: 7bc5 45bd ebb2 14be cc49 a33c 2fa0 e73c
00000150: dda6 103e 434d acbc 91b3 2d3e eb41 a8bc
00000160: 7b20 de3c 9fb2 c53d 0e66 363d 6998 d8be
00000170: c340 05bd 1e40 36be d617 fbbd 9402 833e
00000180: d0a3 59bc 554d 30be 9afe 84be efe3 193e
00000190: 1078 0ebe 83dc 203d ec72 2f3e 6e56 2ebe
000001a0: 9c39 373e 7227 a8be c140 f53c a9b7 45be
000001b0: 1b68 49be 126f aebd 984a 6c3d 81a4 4ebd
000001c0: 66f0 09be 589d 08bd 3e37 30bd 6f2e 213d
000001d0: bdcb 123e f5eb 203e a9ad 44be 0b06 ca3d
000001e0: a5ab 9abd 3071 2e3e 0d0f 283e 6dfc da3d
000001f0: 0f9f c1bd 2e01 31bd 4bcb bd3d a620 9fbd
00000200: f6fb 82be fbef 93be 0c7b 47be 3e61 ba3e
00000210: 6801 703e 55fb 82bb 331d ee3c 5eb6 efbd
00000220: b14c 1b3e ba95 3abd 2a82 f3bd 2c57 5dbe
00000230: 82c1 ccbd ba8e 243d 0858 1cbd bcaf 973e
00000240: d176 97be e076 803e 4944 813d 30eb 8dbd
00000250: 0e26 4abd de5b 6abe abfc 743e 865d 97bd
00000260: 3b5e 12be c804 c0be 884e 5f3e a6d3 b2bc
00000270: 9a23 6dbe bee6 503b dc85 133e 03dd a4bd
00000280: 90bb 913e 9154 51be abfa b23d 6b6a 9f3d
00000290: 12f0 b9bc d084 d1bd 509b 2ebe f7b2 ebbd
000002a0: b96b ea3b bfdf 1abe 08c9 47be e41d 48be
000002b0: 1c13 d5bd 5d21 403e 327e 473d f9f4 473e
000002c0: 89be f8bd 9083 a8bd ac8f 83be d698 f83b
000002d0: 9727 9dbd fa26 943d 4ac8 b33d c9ff 57be
000002e0: 8c91 3ebe 12e4 98be 2368 27bd cde9 6c3e
000002f0: 743f 3d3d d209 f1bd de5d 493e db43 513c
00000300: c7ee af3d fdbd 4bbe b1d7 79be 592c 023e
00000310: 98b5 893e 9e49 a23d 9b5c 6c3d fc25 44be
00000320: d749 8fbe eb2e b5bd 7a58 723e 77a3 82be
00000330: 86dc 013e b254 4b3e 42a6 d8bd 6065 50bc
00000340: 4228 84be b2d5 a33d dfa1 a1bd 2897 a63e
00000350: afe8 5f3e 2157 17be addf 823e 2440 0e3e
00000360: 88c4 30be b8f5 053e 9bd7 23bd e96e a9be
00000370: 1bb4 873d eba2 06bd f8d2 94bc 0bee 123e
00000380: 10e6 be3d 3a6f 51be 4d08 9a3d cf08 963b
00000390: 90b7 0c3d fd6d 8b3d 26dd 923e 0b0f 87be
000003a0: 8ed3 6dbe 08f6 76bd a6cb 1ebd 1435 37be
000003b0: c796 23be fb5b 87ba df2a 6fbe 94bd 8b3e
000003c0: c9d6 23be 99c4 623e 74d9 803d 84f9 513e
000003d0: f515 133e 79d1 9b3d a0b9 9e3e 7f9b dd3d
000003e0: cf8b 61be a210 30be 3388 8e3e 97b9 fe3c
000003f0: 0f07 843b 6d94 fcbd 60c6 fdbd 5511 5c3d
-0.24662131 -0.161105 -0.13019614 0.07148316 -0.058942255 -0.4249022 0.087280594 0.04585356
-0.06732368 -0.1551238 -0.100589275 -0.07394045 0.10782389 0.05832197 -0.34474552 0.57303363
0.08403898 0.065882966 0.15827167 -0.20587607 -0.21239808 -0.13293125 0.061746668 0.14161773
0.18447547 -0.099894546 -0.03643273 -0.21079159 0.19724791 0.17241782 -0.16924363 -0.0059856493
0.06052 -0.14600278 -0.22599418 0.07705995 0.07769779 -0.09114298 0.117393725 -0.23151122
-0.27661774 -0.23198484 -0.056715697 -0.13044055 -0.012486171 0.1781359 -0.26861557 0.10498371
0.12790188 -0.07616568 -0.13562487 0.17356326 0.35531694 -0.09490729 0.23067749 -0.28178802
-0.18219323 -0.27421272 -0.0049586575 -0.25086516 0.13390042 -0.22898844 -0.0663971 -0.05258155
-0.15804903 -0.1622951 0.12937456 -0.18527107 0.13466553 0.16031757 -0.08805499 0.13543235
0.010098045 -0.049965538 0.2800239 -0.074127965 0.22797407 -0.1348388 0.1433275 -0.27856925
-0.048284035 -0.14521377 0.01993265 0.028274624 0.14126153 -0.021032935 0.1696303 -0.020539245
0.027115097 0.0965321 0.04453092 -0.4230378 -0.032532465 -0.17797896 -0.12260406 0.25587904
-0.013283685 -0.17217 -0.25975496 0.15028356 -0.13912988 0.039272796 0.17133683 -0.17025158
0.1789307 -0.32842594 0.029938104 -0.19308342 -0.1966862 -0.08517279 0.057688326 -0.050449852
-0.13470611 -0.03335318 -0.043021433 0.039350923 0.14335532 0.1571501 -0.19206871 0.09864434
-0.0755227 0.17035365 0.16411991 0.10692678 -0.09454166 -0.043214016 0.09267291 -0.07769899
-0.25582856 -0.28894028 -0.19480532 0.36402315 0.23438036 -0.0039972463 0.029066658 -0.11704706
0.15165974 -0.045552947 -0.11890061 -0.21615285 -0.09997846 0.040175177 -0.03816989 0.29626262
-0.29582837 0.25090694 0.063118525 -0.06929624 -0.049352698 -0.22886607 0.2392451 -0.07390885
-0.14293759 -0.37503648 0.21807301 -0.021829437 -0.23158112 0.0031875814 0.14406532 -0.08049967
0.2846341 -0.20442416 0.08739217 0.077839695 -0.022697482 -0.1023041 -0.17051435 -0.11508744
0.007153955 -0.15124415 -0.19510281 -0.19542652 -0.104040354 0.18762727 0.048704334 0.19527043
-0.12145717 -0.082282186 -0.2569555 0.007586579 -0.07673567 0.07233997 0.087784365 -0.21093668
-0.18610209 -0.29861504 -0.040870797 0.23136063 0.04620309 -0.11769451 0.19664714 0.012772526
0.08590465 -0.19896694 -0.24398686 0.1271223 0.26896358 0.079241976 0.057705503 -0.19155115
-0.27986023 -0.088468395 0.23666564 -0.2551534 0.1268178 0.19856527 -0.10578586 -0.012719482
-0.25811964 0.079997435 -0.078922026 0.32537198 0.21866105 -0.14779331 0.25561276 0.13891655
-0.1726247 0.13082016 -0.04000054 -0.3309243 0.06626149 -0.032870214 -0.018167004 0.14348619
0.09321225 -0.20452586 0.075211145 0.004578687 0.034354746 0.06808088 0.28684348 -0.26378664
-0.23225233 -0.060293227 -0.038768433 -0.17891341 -0.15975486 -0.0010327095 -0.23356198 0.27293074
-0.15999903 0.22145309 0.06291476 0.20505339 0.14363845 0.07608313 0.31000996 0.10820674
-0.22025989 -0.17193845 0.27838287 0.031094356 0.0040291618 -0.123329975 -0.12391353 0.053727467

lstm1_1.bias_ih_l0_reverse f4 [64]
00000000: c957 063e 8b9f 81bd 539e 0f3e 08db ff3d
00000010: 6a01 2cbd 8f0a 66be 74b1 a1bd 6f5e f13d
00000020: 47ba 993d f15e 573e 796f adbd 2c87 b0bd
00000030: f012 613d aed9 3a3e 19e4 02be 3ec2 cb3d
00000040: 2108 eebd 9156 973a f9bc 83bc 13a8 c73e
00000050: 56f3 33bd 9b7c b33d c091 db3d 7b5b a5bd
00000060: afd1 7c3d 219f ed3c 5cd1 083e df53 cc3e
00000070: e8b1 003e c126 8f3e f34b 463e 5dfc 3a3e
00000080: c7e6 433d f55d 083e bf7c 3abe 0057 313e
00000090: 337c 9a3d 3fcf 53be 9674 243e e0bd afbd
000000a0: f555 c13d b79d 6a3e b43a 4dbe d53a 573d
000000b0: 96a1 173e f008 a4bd 43f6 7cbd ca07 eb3c
000000c0: feb0 2a3e fac2 77bb c59f 36be b618 833d
000000d0: cd43 883e 17bc 4f3d 227f 123d 26eb 313e
000000e0: 8998 15be bb69 953d 7ab3 803d b04d 7b3e
000000f0: 5d6f 04be c02b 08bb 8be5 893e 2dc5 b63d
0.13119425 -0.063292585 0.1402524 0.12492949 -0.041993536 -0.22464965 -0.078951746 0.1178559
0.07506233 0.21032311 -0.08468527 -0.08619532 0.0549497 0.182471 -0.12782325 0.09949158
-0.11622644 0.0011546185 -0.01608132 0.38995418 -0.043933235 0.08764001 0.10721159 -0.08074089
0.061723407 0.029006543 0.13361114 0.3990774 0.12567866 0.27959254 0.1936491 0.18260331
0.04782751 0.13317092 -0.1821165 0.17318344 0.0754322 -0.20684527 0.16060099 -0.08581138
0.09440223 0.22911726 -0.20041925 0.05254634 0.14807734 -0.08009517 -0.06175829 0.028690238
0.1666908 -0.0037805424 -0.17834385 0.064011976 0.26614228 0.050716486 0.035765775 0.17374858
-0.14608969 0.07295557 0.062842324 0.24541354 -0.12933107 -0.002077803 0.2693294 0.08924327

lstm1_1.bias_hh_l0_reverse f4 [64]
00000000: 2880 ce3d 20be 56be 3d2a 29be efca 2a3e
00000010: d9c3 e53d bc27 ba3d a0c7 863d 95cd 3f3e
00000020: f0ac 7d3d 7dd2 3b3e 6b9f 773d 122d 753e
00000030: 967c 0b3e 31e0 c53b 9b98 523e de42 c53d
00000040: d59f ac3d 577f 2e3e 9a02 22bd 5c5a aabc
00000050: fc44 8d3e 21e8 363d a5a9 133e 643c 743e
00000060: 6c51 103e 8007 a13d 1b84 ef3d 06e8 b13e
00000070: a41f eb3c eda0 943e 8c97 bcbd 3df1 b13e
00000080: e275 21be 0a3d 203e a929 3cbe d45f 96be
00000090: 3ca3 e43d a63a 9ebd f9c0 d738 3151 22be
000000a0: 9468 093d fd25 69be 4ed0 713e 566f ab3d
000000b0: 2995 aabc 88b1 bf3d fbdf 243e a583 3abe
000000c0: def3 813e 30ee 00bc ef6d bebd 588c ca3d
000000d0: 7144 513e 9edd 6c3e dc00 a83d 866c 803e
000000e0: 66d4 133e bf3d 993e a3ca 3ebe 41b3 5dbd
000000f0: c724 d13c b319 6dbb 61bd 403e 1069 a03e
0.100830376 -0.20970964 -0.16520019 0.16678976 0.112189956 0.0908961 0.06581044 0.18730767
0.061932504 0.18342014 0.060454767 0.23942974 0.13621745 0.0060386886 0.20566027 0.096318945
0.08428923 0.17040764 -0.039553262 -0.02079504 0.27591693 0.04465497 0.14420183 0.23851162
0.1409356 0.07862759 0.11695119 0.34747332 0.02870161 0.29029027 -0.09208593 0.34754363
-0.15767625 0.15648285 -0.18375267 -0.29369986 0.11163947 -0.0772603 0.00010287943 -0.15851285
0.033547 -0.22768398 0.23614618 0.08370845 -0.020823078 0.09360033 0.16101067 -0.18214281
0.25381368 -0.007869288 -0.09298312 0.0989005 0.20436265 0.23131415 0.08203289 0.25082797
0.14436492 0.2992992 -0.18631987 -0.054126028 0.025530232 -0.0036178648 0.18822242 0.31330156

lstm1_2.0.weight f4 [32, 32]
00000000: c940 f83d 125c 15be aa43 f5bc e82f 983c
00000010: 4e24 1abc 5eb6 863d 468d c33d cd91 a03d
00000020: d32e 26be f535 1d3e 5dfa 12be 6f94 e7bd
00000030: 883d 29be e8db 813d a19f c93d ce12 11bd
00000040: 7fe1 32be 275b 14be f9f4 23bd 62cb ab3d
00000050: 2663 14bd 43a6 d93c b5d9 71bd cedc f8bc
00000060: 8f91 223e d999 85bd de7a 4abc f348 0a3e
00000070: 42c0 12be 027f 96bd a66a e53d c069 b83d
00000080: 1bbb 243d ea61 15bd a8e0 cc3d f894 5bbd
00000090: e482 8cbd 4cff 09be 34b5 813c 9bc7 3fbd
000000a0: abf8 8bbd f743 85bc 2475 83bd 0d78 273e
000000b0: fb8e efbc cc56 f93d e2a4 33be 9f87 093e
000000c0: f5c4 cfbd 877f 1f3e 7a90 483c 3e56 5cbb
000000d0: 56f3 9d3d f2c4 a73d 80ef c3bd 3d2b a53d
000000e0: c013 d1bb 16ff ee3d 0169 403d b3c3 673e
000000f0: ff2f 403d 27a1 bc3d 77dd b4bd c505 17be
00000100: 6d60 dbba b5a0 e1bd f88d c1bd 1a45 fd3d
00000110: ae9e 073e 27a9 273d abad f63d d0ee 42be
00000120: 6db7 babd 1f58 f43d 6501 b23d 68aa 2e3e
00000130: d3db 1c3e 0106 1a3c cb3e f43c a326 62bd
00000140: b837 aa3d 3eb1 15be fb45 f1bd 06c1 133d
00000150: 5ba4 cb3d a4f3 e33c 0e4c 4f3e 4175 ccbd
00000160: 43f9 cbbd 7931 29be a69b c0bd b290 59be
00000170: 791c b83d fc59 c5bc b4de 42be 1455 e53d
00000180: 7d67 3abe ddae d6bd 6f6d 2ebe 0ffa 3a3d
00000190: cc01 05bd 7603 483e 1ece 1f3e e87b d0bd
000001a0: 7d93 b33d 8b7a a03c 6ec4 11be ae2e 693c
000001b0: 01bc 5abd da85 f83d 0c6d 013e 1131 e3bd
000001c0: 318c 143e eff8 96bd 3f90 babc eb9e 993d
000001d0: 66dd babd 2960 313e 21b8 f8bd dfca 0e3e
000001e0: f6ec e33d 1775 0abe f863 cabd 58ac cabd
000001f0: 2e8a 1fbd f914 c3bd 4df9 b43c f113 313c
00000200: ee2a a1bd efb4 a8bd 43fd 063e 8036 e43d
00000210: ab40 a43d 2f2f 23bd b974 a9bd eb6e 16be
00000220: e0d3 1ebc f026 293e c406 0abd 3154 e7bd
00000230: 9512 22be aee3 f8bd 4569 8bbb 0507 16be
00000240: aa28 8ebd 212a 113e 5ff6 c43d b096 7b3d
00000250: d9a5 1abe b936 11bc b34a d2bd 8290 b2bb
00000260: 7109 a53d 9d34 24bc cd1e 2c3e 2e59 19be
00000270: 5f04 e4bb 167b f5bd 43ca 043e 5918 2cbe
00000280: 2cdb f93d 95e0 31bd b91c 0abd 1b8f 48bc
00000290: 6d7d 37be 981e 21be 9730 7abd 1bc1 243d
000002a0: d827 973d 48ba 183e 5cae 54be b599 363e
000002b0: 5450 63bd e86b 963c 92e7 c8bd 8e58 153c
000002c0: ceab 1fbe ad31 533d 6406 e03d 7ce0 b8bd
000002d0: bbf6 953d c0f9 043e aa08 30be 9697 cabb
000002e0: 1a42 2ebd bb44 6a3e 9899 8ebc f09f 253e
000002f0: dbc3 2e3e a161 91ba 2b06 6e3c 62a2 11be
00000300: 4d4b d93d 7e0c 5f3b 95e6 983d a4c6 83bd
00000310: 6d11 0f3e 746d fabc e813 e83d 6684 033e
00000320: 1744 73be d21c 0dbe bfbf ef3c 93a2 91bd
00000330: 8bda 023e 6ea9 b2bd edcd 15bd 8955 f1bd
00000340: c749 53bd 9193 43be ac9c ccbd 4a99 7b3e
00000350: 7886 483d 9a38 8e3d ce61 3a3e 74d3 1dbe
00000360: 9c46 5f3d 4130 1cbe 7365 bdbd cec7 9a3d
00000370: 28ad 653d 841a 083c 48a6 4fbe ab5f 7ebd
00000380: d851 2dbe 5fc2 453e ebd4 26be a39a 9a3d
00000390: 96f8 cdbd 022e f23d 1f28 aabd fee1 b7bd
000003a0: 041c 253d a195 debd abcd b4bd 5ece 223c
000003b0: 74aa e8bd d6ca c33c 5a77 95bc 3ddb 3a3e
000003c0: af56 403e 930e 9bbb 0e92 8239 9316 023e
000003d0: 7a10 38be e144 053e dc21 ce3d 2d22 1fbd
000003e0: 7670 b63c 8aa9 fbbd 0c41 41be b744 0e3d
000003f0: 1685 23be a867 113e c049 0b3e eb0f 2d3b
0.12121732 -0.14585903 -0.029939491 0.018577531 -0.00940807 0.065777525 0.0954843 0.07840309
-0.162288 0.15352614 -0.14353319 -0.11307608 -0.16527379 0.06340772 0.098449 -0.035418324
-0.17468832 -0.14487897 -0.040028546 0.083884016 -0.036227368 0.026568538 -0.059045512 -0.030378725
0.15875839 -0.06523485 -0.012358395 0.1350439 -0.14331153 -0.073484436 0.11201982 0.09004545
0.0402175 -0.03647033 0.10003787 -0.053608865 -0.06860903 -0.13476294 0.015833475 -0.046821218
-0.06834539 -0.01626776 -0.06418827 0.1635439 -0.029242983 0.12174758 -0.17543367 0.13430642
-0.101449884 0.15575992 0.012241477 -0.003362074 0.07712428 0.08191861 -0.095671654 0.08064888
-0.006380528 0.116697475 0.04697514 0.22633247 0.046920773 0.09210425 -0.088313036 -0.14748295
-0.0016737111 -0.110169806 -0.094509065 0.12366696 0.13244125 0.0409328 0.12044843 -0.19036412
-0.09117017 0.1193087 0.08691672 0.17057192 0.15318231 0.0094008455 0.029815098 -0.055212628
0.08311409 -0.14618394 -0.11780926 0.036072753 0.09943458 0.027826138 0.20243856 -0.09983302
-0.09959652 -0.16522779 -0.094046876 -0.21246603 0.08989806 -0.02409076 -0.19030267 0.11197868
-0.1820354 -0.10482571 -0.17033933 0.04564863 -0.032472417 0.1953257 0.15605971 -0.10179883
0.087683655 0.019589683 -0.14235088 0.014232321 -0.05340195 0.12134905 0.12639254 -0.11093343
0.14506604 -0.07371699 -0.02277386 0.07501014 -0.0912426 0.17321838 -0.12144495 0.13944577
0.11129181 -0.13521229 -0.09882349 -0.09896153 -0.038950138 -0.095254846 0.022091532 0.010807977
-0.07869516 -0.08237635 0.13182549 0.111432076 0.08020147 -0.03983992 -0.08274216 -0.1469075
-0.00969407 0.1651876 -0.03369786 -0.11295355 -0.15827401 -0.121528015 -0.0042544925 -0.14651115
-0.0694135 0.14176227 0.09617304 0.061423004 -0.15102328 -0.008863145 -0.10268154 -0.0054493556
0.080584414 -0.01002231 0.16808625 -0.14975426 -0.006958529 -0.119863674 0.12967782 -0.16806163
0.12200007 -0.04342707 -0.0337188 -0.01224115 -0.1791894 -0.15734327 -0.061081495 0.040223222
0.073806465 0.1491481 -0.20769638 0.17832072 -0.05549653 0.018362 -0.098097935 0.009115351
-0.15592882 0.051561046 0.10938719 -0.09027192 0.07322451 0.12985897 -0.17190805 -0.0061826212
-0.042543508 0.22877781 -0.017407224 0.16174293 0.170669 -0.0011091718 0.014527838 -0.142221
0.106100656 0.0034034546 0.07465855 -0.06434372 0.13971491 -0.03056977 0.11331922 0.12843475
-0.23756443 -0.13780525 0.029266236 -0.07111087 0.1277868 -0.087237224 -0.03657334 -0.11783893
-0.05158403 -0.19099261 -0.0999082 0.24570194 0.048956364 0.0694439 0.18201372 -0.15412694
0.054510698 -0.15252782 -0.092478655 0.07557641 0.056073338 0.008307103 -0.20278275 -0.062102955
-0.16925752 0.19312428 -0.1629216 0.07549026 -0.1005718 0.118251815 -0.08308434 -0.089786515
0.04030992 -0.10868383 -0.088282906 0.009936897 -0.11360636 0.02390043 -0.018245388 0.18247695
0.18783067 -0.004731962 0.0002490435 0.12703924 -0.17975035 0.13014556 0.10065052 -0.038850952
0.022270422 -0.122881964 -0.1887247 0.0347335 -0.15968737 0.14199698 0.13602352 0.0026407193

lstm1_2.0.bias f4 [32]
00000000: 33cc d8bd b6e8 303d a9f6 193d 91ac 19bd
00000010: 46ff a9bd 865e 183e 8881 da3c 9826 2cbd
00000020: 69fd 36be 6075 9ebd 4eb4 ca3d f29b 08be
00000030: 961d d43d 5b89 3b3d 2edd 8fbd 6254 40bd
00000040: c316 893c fe0a 20be 40d3 06be 93ea acbd
00000050: eedb 823d 0bea 3fbd 7bc0 d73d e693 32be
00000060: 9719 183e 94f0 343e 11de 1fbd feb4 f2bd
00000070: b3db 36bd 976e 4f3d b214 f63d 4ff5 983d
-0.10585823 0.04319068 0.03758875 -0.037518088 -0.08300643 0.14879808 0.026673093 -0.042028993
-0.17870106 -0.07737231 0.09897672 -0.13340738 0.103572056 0.04578529 -0.070246086 -0.046955474
0.016734486 -0.15629193 -0.13166523 -0.08443179 0.063896045 -0.04685406 0.105347596 -0.17439231
0.14853512 0.17669898 -0.03903014 -0.11850928 -0.044643115 0.050642576 0.12015666 0.07468664
