results/random_six_samples_effect/Dataset 2/random_10/Experiment1(1C-4)/from_Dataset 2_ft_model.pth (torch, 95756 bytes, 27 tensors)

cnn1.0.weight f4 [16, 1, 3]
0	0xbe924828	-0.28570676
1	0x3f178aba	0.59196055
2	0x3ebdbc73	0.37057838
3	0xbea2d0fc	-0.31800067
4	0x3ee14fa9	0.44006088
5	0xbee250c1	-0.44202235
6	0xbf129e99	-0.5727325
7	0xbe241d26	-0.16026744
8	0x3f0cb9ed	0.549712
9	0xbe7d52e3	-0.2473865
10	0xbeec1e19	-0.46116713
11	0x3ed5df5a	0.41771966
12	0x3dec45d0	0.11536753
13	0xbe04d817	-0.12973057
14	0xbe4c27a9	-0.19937004
15	0xbef1ac0d	-0.47201577
16	0x3efb6099	0.49097136
17	0xbe1a8036	-0.15087971
18	0xbdd73b9c	-0.105094165
19	0xbe6c72db	-0.23090689
20	0x3db2ea1e	0.087360606
21	0x3f0347e1	0.51281554
22	0x3d6a41bb	0.05719159
23	0xbeb2f8e2	-0.34955508
24	0x3df7d43d	0.12101028
25	0xbecd94b9	-0.4015253
26	0xbeee9f17	-0.4660575
27	0x3f07f846	0.5311321
28	0x3e97100b	0.29504427
29	0x3e286798	0.16445768
30	0xbef1ca80	-0.47224808
31	0xbd8f1538	-0.06986469
32	0x3d5f94ed	0.054585386
33	0xbdbf70b4	-0.09347668
34	0x3e08df55	0.13366444
35	0xbd78e96d	-0.060769487
36	0x3e7fa041	0.24963476
37	0xbeb678be	-0.35638994
38	0xbedc9ff3	-0.43090782
39	0xbe95ef3e	-0.2928409
40	0xbed189c5	-0.40925422
41	0x3ef923fa	0.4866026
42	0xbd89b283	-0.067235015
43	0x3df100a5	0.11767701
44	0xbe070ea5	-0.1318918
45	0xbe3a1ecc	-0.1817581
46	0x3ed1b18a	0.40955764
47	0x3eeeaa96	0.46614522

cnn1.0.bias f4 [16]
0	0xbe1e0982	-0.15433314
1	0x3efdb8f8	0.49555182
2	0xbdd82536	-0.105539724
3	0x3f04936f	0.51787466
4	0x3e9588a8	0.29205823
5	0xbd46f960	-0.048577666
6	0x3e6880c0	0.22705364
7	0xbeab3059	-0.33435324
8	0x3ed1d033	0.40979156
9	0xbda84387	-0.08216005
10	0x3ee5fecb	0.44920954
11	0xbe967599	-0.29386595
12	0xbdce4f07	-0.10073667
13	0x3eb13d8e	0.34617275
14	0x3ddf60b1	0.10907114
15	0xbcb01674	-0.021495081

cnn2.0.weight f4 [32, 16, 3]
0	0xbd98cef2	-0.07461347
1	0x3d99b2eb	0.07504829
2	0x3d8a7afe	0.0676174
3	0x3dc42922	0.09578158
4	0x3b7c6ff8	0.0038518887
5	0xbe02026e	-0.1269624
6	0x3bc87173	0.00611704
7	0x3c351722	0.011052879
8	0x3defec48	0.11714989
9	0x3cc45fb1	0.02397141
10	0x3d8f1d30	0.06987989
11	0x3b277b79	0.0025555773
12	0xbde2a722	-0.11067034
13	0xbd8af8d9	-0.06785745
14	0x3d773c2b	0.060360115
15	0xbd825eb5	-0.0636572
16	0xbd7d919e	-0.06190645
17	0x3e0562e8	0.13026011
18	0xbde3f7dd	-0.111312605
19	0xbd02b2ed	-0.03190892
20	0x3dcc1cac	0.09966406
21	0x3cd96df1	0.026541682
22	0xbdf693c5	-0.120399036
23	0xbd8a920b	-0.06766137
24	0xbda430fa	-0.08017154
25	0xbdc1a42d	-0.09455142
26	0xbd754936	-0.059884273
27	0x3c1cd4a6	0.009572184
28	0xbccacc58	-0.024755642
29	0xbdf9ba59	-0.12193746
30	0x3e109e5c	0.1412291
31	0xbca046ce	-0.019565012
32	0x3d4bdb52	0.049769707
33	0xbe0e8f5f	-0.13921879
34	0xbd6f434a	-0.05841378
35	0xbb64f69e	-0.0034937034
36	0xbbfda9e7	-0.007741201
37	0xbdc79bbd	-0.097465016
38	0xbd98b969	-0.07457239
39	0x3d98b55a	0.07456465
40	0x3d267667	0.04064026
41	0xbd7780a8	-0.06042543
42	0x3dfe4dbf	0.12417173
43	0xbda07a75	-0.07835857
44	0xbe056041	-0.13024999
45	0xbd9783a0	-0.07398152
46	0x3dbaf558	0.09128827
47	0x3cb945af	0.022616236
48	0x3e27b946	0.1637927
49	0x3da38b85	0.079855956
50	0x3e62e507	0.2215768
51	0xbd12ff41	-0.03588796
52	0xbe08309f	-0.13299797
53	0xbca92aa2	-0.020650212
54	0x3db7e137	0.08978503
55	0x3dfdd6b1	0.12394465
56	0xbd68417f	-0.056703087
57	0x3cd74326	0.026277136
58	0xbd5aa2f8	-0.053378075
59	0x3e05ac43	0.13053994
60	0xbe040abb	-0.12894718
61	0xbe2a8992	-0.16654041
62	0xbe7ec914	-0.24881393
63	0xbe052fab	-0.13006465
64	0xbd61fb13	-0.055171084
65	0xbd291e6a	-0.04128877
66	0x3e09a8dd	0.13443322
67	0xbe1450bf	-0.14483927
68	0x3dbaf48e	0.09128676
69	0xbe08b37f	-0.13349722
70	0x3d54475d	0.05182587
71	0xbba86597	-0.0051390636
72	0xbd25138f	-0.040301856
73	0xbd302427	-0.043003228
74	0x3c6fb726	0.014631068
75	0x3e2f447f	0.17115973
76	0x3c6cc9a6	0.014452374
77	0x3e62119c	0.2207703
78	0xbdb1a502	-0.08674051
79	0x3d3c97e5	0.046043295
80	0xbdbc51c7	-0.09195285
81	0x3d9b56b7	0.07584899
82	0xbde0e58c	-0.109812826
83	0xbdabfa83	-0.08397391
84	0xbd200ec4	-0.03907658
85	0x3d00657d	0.031346787
86	0xbcf62d64	-0.03005094
87	0xbdf10b66	-0.11769752
88	0x3e0f2fba	0.1398305
89	0x3d988e8b	0.07449063
90	0x3c6449ed	0.013933641
91	0xbcb8ae5e	-0.022544082
92	0xbe13dbee	-0.14439365
93	0x3e48de00	0.19615936
94	0x3e816969	0.25275734
95	0x3ebd3da7	0.369611
96	0x3cc04e46	0.023474824
97	0x3d735f66	0.05941715
98	0x3e415829	0.18881287
99	0xbd9864c3	-0.07441094
100	0x3d2c57cc	0.042075917
101	0x3c8bf65e	0.01708525
102	0xbdfa0642	-0.12208225
103	0x3c1b2788	0.009469874
104	0xbdc40b9b	-0.09572526
105	0x3d97d070	0.07412803
106	0x3e09f4d5	0.13472302
107	0xbd6157ee	-0.055015497
108	0xbc86baa1	-0.016446413
109	0x3c85b673	0.01632235
110	0x3e6e9146	0.23297605
111	0xbe07c2ee	-0.13257954
112	0xbe0d37b5	-0.13790782
113	0x3d241146	0.040055536
114	0xbc4d8cb7	-0.012545756
115	0xbd92f9c3	-0.071765445
116	0x3c335891	0.010946409
117	0x3d2a735b	0.041613918
118	0x3d8203ed	0.06348405
119	0xbde21496	-0.11039083
120	0x3e10f49f	0.14155816
121	0x3e0fac7b	0.1403064
122	0x3cdda99c	0.027058415
123	0x3ca3bc15	0.019987145
124	0x3d8dfc75	0.06932918
125	0x3e1a7984	0.15085417
126	0x3dcec0f1	0.100953944
127	0x3cc89da1	0.024489226
128	0xbcf56fb2	-0.029960487
129	0x3d0146d6	0.031561695
130	0xbdc3a056	-0.09552066
131	0x3dff11c8	0.124545634
132	0xbccd7825	-0.025081703
133	0xbb8fd561	-0.0043894504
134	0xbcadb89b	-0.02120619
135	0x3d746862	0.05966986
136	0x3d37d407	0.04487994
137	0xbcda24ad	-0.026628817
138	0xbe0fd228	-0.14045012
139	0xbd9b25e1	-0.07575584
140	0xbd6db4e8	-0.058033854
141	0x3e9d0f3c	0.30675685
142	0x3e803ca5	0.25046268
143	0x3df62354	0.12018457
144	0x3e365f0b	0.17809694
145	0x3db150a1	0.08657957
146	0x3ded995c	0.116015166
147	0x3dea8d92	0.11452784
148	0x3dfede28	0.12444717
149	0x3d32f429	0.04368988
150	0x3d0ff42d	0.035144974
151	0x3df2ede1	0.11861778
152	0xbc2297b5	-0.009923865
153	0xbdcf6048	-0.10125786
154	0xbca5cbaa	-0.020238716
155	0x3e0613eb	0.13093536
156	0xbe1a4769	-0.15066303
157	0xbe56c528	-0.20973647
158	0xbe64f1d7	-0.2235788
159	0x3da8c2c2	0.08240272
160	0xbda4e4f5	-0.080514826
161	0x3e035dec	0.12828797
162	0x3c45ea01	0.012079717
163	0xbd2c9eb4	-0.04214354
164	0x3d25041e	0.04028713
165	0xbdf28f89	-0.118437834
166	0x3e0cb8e3	0.13742404
167	0x3d311902	0.04323674
168	0x3dc810cd	0.097688295
169	0xbdf5ee5a	-0.120083526
170	0x3db087bb	0.086196385
171	0x3dfbfb25	0.123037614
172	0x3b5e0f2b	0.0033883553
173	0xbc9688b7	-0.018375738
174	0x3dd0806e	0.10180746
175	0xbd782c83	-0.060589325
176	0xbe10c9ce	-0.14139482
177	0x3e0209ee	0.126991
178	0xbdd5278c	-0.104079336
179	0x3d529cd9	0.051419113
180	0xbe04b8ad	-0.12961073
181	0x3dd3c445	0.1034017
182	0xbc1f43f8	-0.009720795
183	0x3dc6fdd1	0.097163804
184	0xbcdb68e1	-0.026783409
185	0x3cf3f111	0.029778035
186	0xba8e7e5e	-0.0010871401
187	0xbd130e48	-0.03590229
188	0xb9a23f90	-0.00030946406
189	0x3e14eba1	0.1454301
190	0x3dd7a2d1	0.10529102
191	0x3e9c4420	0.30520725
192	0x3d387f8e	0.04504352
193	0x3cc625ae	0.024187889
194	0xbcef6248	-0.029221669
195	0x3d0d6435	0.034519393
196	0xbd6386e3	-0.05554856
197	0xbd2701e1	-0.040773276
198	0x3d541071	0.051773492
199	0x3dfe4b3a	0.12416692
200	0xbd8876f8	-0.066633165
201	0xbdfe0889	-0.12403972
202	0x3dae8534	0.085215
203	0x3c315120	0.010822564
204	0x3d4c8ee5	0.049940962
205	0x3ea6a83d	0.3255023
206	0x3e680f0d	0.22661991
207	0x3dde169d	0.10844157
208	0x3e07569e	0.13216636
209	0xbdac1678	-0.08402723
210	0xbd8e03a1	-0.06934286
211	0xbc7f1e24	-0.015571151
212	0x3e00aac3	0.1256514
213	0xbd1bab91	-0.038005415
214	0xbe0c8fe9	-0.13726772
215	0xbd782505	-0.06058218
216	0x3de58918	0.11207789
217	0x3dc3198d	0.09526358
218	0x3e133d3f	0.14378832
219	0xbcc91bb5	-0.024549345
220	0xbdae44c5	-0.085092105
221	0x3d8c35d2	0.06846203
222	0xbb97ff9a	-0.0046386244
223	0xbda3a0e7	-0.07989674
224	0x3d1ad8d5	0.037804443
225	0x3bfc79a4	0.0077049304
226	0xbdbc19c1	-0.091846
227	0xbd30454d	-0.04303484
228	0xbc0dc9cb	-0.008654068
229	0x3d250a22	0.040292867
230	0xbe04238b	-0.12904184
231	0x3e081b83	0.13291745
232	0xbdea36aa	-0.114362076
233	0xbce2bb02	-0.027677063
234	0x3d6c5b1a	0.05770407
235	0xbcab12ee	-0.02088305
236	0xbdbbd724	-0.09171894
237	0x3e40f679	0.18844022
238	0xbb535098	-0.0032244083
239	0xbb8cb9a3	-0.0042945906
240	0xbc2dd772	-0.010610448
241	0xbdc4a229	-0.09601242
242	0x3de4e593	0.111766
243	0x3e0cec62	0.13762048
244	0xbdbe70bd	-0.09298847
245	0x3dee2e28	0.11629897
246	0xbd8e4b9e	-0.069480166
247	0xbe0eb5e6	-0.13936576
248	0x3d988ff3	0.07449331
249	0x3d80e355	0.0629336
250	0xbe008160	-0.12549353
251	0x3e102dfa	0.14080039
252	0x3ddb6e23	0.10714366
253	0x3e1181c2	0.14209655
254	0x3e09caa2	0.13456205
255	0xbe116de3	-0.14202075

cnn2.0.bias f4 [32]
0	0xbe0161a8	-0.12634909
1	0xbd83e464	-0.064400464
2	0x3b4ee706	0.0031570806
3	0xbd476ab9	-0.048685763
4	0x3da8b572	0.08237733
5	0x3d65b0c9	0.0560768
6	0xbdf8f520	-0.12156129
7	0xbe022973	-0.12711124
8	0xbe14038e	-0.14454481
9	0xbe0472ff	-0.12934493
10	0x3d7b9d29	0.061429176
11	0xbb221ce6	-0.0024736463
12	0xbe064f41	-0.1311617
13	0x3c815689	0.015788333
14	0x3e161534	0.14656526
15	0x3e0c6293	0.13709478
16	0x3dd5f2b4	0.104466826
17	0x3ddc105e	0.10745309
18	0xbe07e1ac	-0.1326968
19	0xbcf2695c	-0.029591255
20	0xbbf1fcd4	-0.007384876
21	0xbe0b29cf	-0.13590167
22	0xbbabb68f	-0.0052402685
23	0x3dba1eb0	0.090878844
24	0x3e1fe979	0.15616407
25	0xbddf814c	-0.10913333
26	0x3cf88d3b	0.030340781
27	0x3d2f88dc	0.04285513
28	0x3dd274e0	0.102761984
29	0xbe12855c	-0.14308685
30	0x3e01d8d8	0.12680376
31	0xbdbf0d74	-0.09328738

lstm1_1.weight_ih_l0 f4 [64, 32]
0	0x3c265660	0.010152429
1	0x3e1e016f	0.15430234
2	0xbdc31174	-0.09524813
3	0x3d9849c5	0.074359454
4	0x3e1889ee	0.14896366
5	0x3cc22c7c	0.023702852
6	0xbd5c96c0	-0.053854704
7	0x3e1b60a2	0.15173581
8	0xbe17cbb5	-0.14823802
9	0xbd499dd8	-0.049222797
10	0x3d95d87c	0.07316682
11	0xbde2fb2c	-0.110830635
12	0xbe388038	-0.18017662
13	0xbe853d9e	-0.26023573
14	0xbe816ceb	-0.2527841
15	0xbd0ee73e	-0.0348885
16	0xbe71e491	-0.23622347
17	0x3d5fad4c	0.05460863
18	0x3e006e64	0.1254211
19	0xbd8caa64	-0.06868437
20	0x3d7872da	0.060656406
21	0x3d895789	0.06706149
22	0xbe0ba045	-0.13635357
23	0x3e1eb6fe	0.15499493
24	0xbe061a04	-0.13095862
25	0x3e58200a	0.21105972
26	0xbc8e47ea	-0.017368276
27	0x3e3ee2ed	0.18641253
28	0x3da40cc1	0.08010245
29	0x3b9f2f40	0.0048579276
30	0xbe099e6f	-0.13439344
31	0x3dc92e30	0.09823263
32	0xbdaa30f0	-0.08310115
33	0x3e008e3a	0.12554255
34	0xbe3277c5	-0.17428501
35	0xbd46da3b	-0.048547965
36	0x3e0c31b3	0.13690834
37	0xbe2b6c13	-0.16740446
38	0xbe79ed2c	-0.2440688
39	0xbe4f5824	-0.20248467
40	0xbe1abba5	-0.15110643
41	0xbe0e6810	-0.13906884
42	0x3cf3f1e0	0.02977842
43	0x3d0fbabf	0.035090204
44	0x3dc7a1dc	0.09747669
45	0xbe561d01	-0.20909502
46	0xbe3be4eb	-0.18349044
47	0x3e01aec0	0.12664318
48	0xbd53b63a	-0.051687457
49	0x3d0875d6	0.033315502
50	0x3e10e93e	0.14151475
51	0x3e362c56	0.1779035
52	0x3db2d5bc	0.08732173
53	0x3cf0d48a	0.029398222
54	0x3ccf97f9	0.02534102
55	0xbd4e5e00	-0.050382614
56	0xbddc7072	-0.10763635
57	0xbe58ffb2	-0.2119129
58	0x3e31dd68	0.17369616
59	0xbe274c8f	-0.16337799
60	0x3e5d556d	0.21614619
61	0xbe19a56e	-0.15004513
62	0xbd962b10	-0.07332432
63	0xbe1d2eec	-0.1534993
64	0xbd58e748	-0.052954942
65	0x3dfed726	0.1244338
66	0x3d9ecc94	0.07753864
67	0x3e05711e	0.13031432
68	0x3e03351f	0.12813233
69	0x3ddc1091	0.10745347
70	0xbdbc9b54	-0.09209314
71	0xbe472914	-0.19449264
72	0x3e351c19	0.176865
73	0xbe4cbd50	-0.19994092
74	0x3d23b02b	0.03996293
75	0xbe0890f9	-0.13336553
76	0x3e086da0	0.13323069
77	0xbe10eb2e	-0.14152214
78	0x3d5a569d	0.053305257
79	0x3e09f7e3	0.13473468
80	0x3d53a557	0.051671352
81	0x3cc7edd6	0.024405401
82	0x3c8e8880	0.017399073
83	0xbe2919b2	-0.16513708
84	0x3e1107d6	0.14163145
85	0xbe3065b4	-0.17226297
86	0x3cd6facb	0.026242634
87	0xbd2231f8	-0.039598435
88	0xbe1b2ad1	-0.15153052
89	0xbe05da0a	-0.13071457
90	0x3d80ce5d	0.06289361
91	0xbe382295	-0.17981942
92	0xbe72d330	-0.23713374
93	0xbe5302fc	-0.20606607
94	0x3de719d9	0.11284227
95	0x3da9539c	0.082679
96	0xbddeffc8	-0.1088863
97	0x3e5b1d58	0.21397913
98	0xbde3b5a9	-0.11118633
99	0xbc36f81c	-0.011167552
100	0xbd237126	-0.03990283
101	0x3d62fe31	0.055418197
102	0xbe493cae	-0.19652054
103	0x3e7a0e34	0.2441948
104	0x3e07fc66	0.13279876
105	0x3e2a2b92	0.16618183
106	0x3e53ed71	0.20696045
107	0x3dde6838	0.10859722
108	0xbe2f1342	-0.1709719
109	0xbda3ad13	-0.07991996
110	0x3e6c71ac	0.23090237
111	0x3e4813c3	0.19538788
112	0x3e4cc79f	0.19998024
113	0xbd73898f	-0.059457358
114	0x3e0e4728	0.13894331
115	0x3e3e11e6	0.18561515
116	0x3e65fbfe	0.22459409
117	0xbc308312	-0.010773437
118	0x3e780f17	0.24224506
119	0x3d10c8a0	0.03534758
120	0xbe3ecee1	-0.18633606
121	0x3e4f1050	0.20221066
122	0xbe0df7df	-0.13864087
123	0x3e773b51	0.24143721
124	0xbe12e647	-0.14345656
125	0x3caacb10	0.02084878
126	0xbc9fad3c	-0.019491784
127	0xbe0d070c	-0.1377222
128	0x3e376ce8	0.17912638
129	0x3d1d7e4c	0.038450524
130	0x3e2618df	0.16220425
131	0x3e3237d0	0.17404103
132	0x3e428dfd	0.18999477
133	0x3e11f467	0.14253388
134	0xbe4ca872	-0.19986132
135	0x3dc3d674	0.09562388
136	0xbb6fe9a8	-0.0036607776
137	0xbd902ca4	-0.070397645
138	0x3e2501c0	0.16113949
139	0x3e35d3da	0.17756596
140	0x3d0e7988	0.03478387
141	0x3c30f9bc	0.010801729
142	0xbe01acb8	-0.12663543
143	0x3bb437d2	0.0054998184
144	0x3dd867d7	0.10566681
145	0xbdf1123e	-0.117710575
146	0x3e555376	0.20832619
147	0xbe31b708	-0.17354977
148	0xbe3fb52b	-0.18721454
149	0xbe40056c	-0.18752068
150	0xbe4fd4ef	-0.20296071
151	0xbe1cada2	-0.1530061
152	0xbe122e77	-0.14275537
153	0x3e5512dc	0.20807976
154	0x3d4db5f5	0.050222356
155	0xbde20949	-0.11036927
156	0x3c71a7cd	0.0147494795
157	0xbaefe500	-0.00183025
158	0x3d29e7e7	0.041480925
159	0x3dcae9b4	0.099078566
160	0xbdafc990	-0.08583367
161	0x3ba8bed5	0.005149702
162	0x3dd56f7b	0.10421654
163	0x3e26c99d	0.16287847
164	0x3e054b0a	0.13016906
165	0x3d46f037	0.04856893
166	0x3deaa4d0	0.11457217
167	0x3de61844	0.11235097
168	0x3e675f0c	0.22594851
169	0x3e4a7252	0.19770172
170	0xbdbc3aa6	-0.09190874
171	0xbe17902a	-0.14801088
172	0x3da33c60	0.079705
173	0x3e3b71ba	0.18305102
174	0xbda70e1a	-0.081569865
175	0x3c853291	0.016259464
176	0xbd90d8d4	-0.07072607
177	0xbe08c7f1	-0.13357522
178	0xbd5471d8	-0.051866382
179	0x3e26411e	0.16235778
180	0xbe09bb03	-0.13450246
181	0x3e5f7c0e	0.21824667
182	0x3d30b869	0.043144617
183	0x3e13c2a4	0.14429718
184	0x3cbe52da	0.023232866
185	0xbe3817b6	-0.17977795
186	0x3e8009a8	0.25007367
187	0xbc0c511a	-0.008564258
188	0xbd5ba364	-0.05362262
189	0xbce22c30	-0.02760896
190	0xbe03c4d1	-0.12868048
191	0xbcbe0910	-0.02319768
192	0x3bc12ac0	0.005894989
193	0x3e9ace85	0.30235687
194	0x3da8029c	0.08203623
195	0x3e3c787b	0.18405335
196	0x3d169d03	0.03677083
197	0xbd9e8ed1	-0.07742084
198	0x3de92984	0.113848716
199	0x3d8281d8	0.06372422
200	0xbe50bf18	-0.20385396
201	0x3ce84790	0.028354436
202	0xbe69d78f	-0.22836135
203	0x3e3b89ba	0.18314257
204	0xbd94bce4	-0.072625905
205	0xbdec1e32	-0.11529197
206	0xbd79f268	-0.061022192
207	0xbe042599	-0.12904967
208	0x3e6eec69	0.23332371
209	0xbe559930	-0.20859218
210	0xbe0f659e	-0.14003608
211	0x3d5e2b70	0.054240644
212	0xbda34649	-0.0797239
213	0xbe4fc937	-0.20291601
214	0x3e6b9466	0.23005828
215	0x3ba27540	0.004957825
216	0x3e435552	0.19075516
217	0x3de6a2f4	0.112615496
218	0xbba3ee13	-0.005002746
219	0xbd1cf419	-0.038318727
220	0xbca349c2	-0.019932631
221	0x3bfa45c0	0.0076377094
222	0xbd926fee	-0.07150255
223	0x3e29366e	0.1652467
224	0xbe21ffc4	-0.15820223
225	0x3e57478e	0.2102339
226	0x3e1b1694	0.15145332
227	0xbe0885e6	-0.13332328
228	0x3c5252b0	0.012837097
229	0x3e3da0b8	0.1851834
230	0xbda4d2f8	-0.080480516
231	0xbd56ef68	-0.05247441
232	0xbd9c414c	-0.07629642
233	0x3d384af8	0.04499337
234	0xbd311b73	-0.04323907
235	0x3d8108e4	0.06300524
236	0x3e526ab8	0.20548522
237	0xbe266c0d	-0.16252156
238	0xbe85436c	-0.26028
239	0xbdba3f3f	-0.090940945
240	0xbe2608e0	-0.16214323
241	0x3e4ff42e	0.20307991
242	0xbe666192	-0.22498158
243	0xbd0b1a58	-0.03396067
244	0x3e461208	0.19342816
245	0xbc0fe5e9	-0.008782842
246	0xbb7cd4f1	-0.0038579071
247	0xbe53b272	-0.2067354
248	0xbe836a16	-0.25666875
249	0x3d9908a8	0.07472354
250	0x3dc73c38	0.09728283
251	0x3e1c44bb	0.15260594
252	0x3e3ed61c	0.18636364
253	0x3e511032	0.20416334
254	0xbc9d789c	-0.01922255
255	0xbdfcff44	-0.123533756

lstm1_1.weight_hh_l0 f4 [64, 16]
0	0x3e7460ff	0.23865126
1	0x3e1c8b63	0.15287547
2	0xbe0c6b00	-0.13712692
3	0x3e540cee	0.20708057
4	0x3d8e2fa1	0.06942678
5	0x3c5dad6e	0.013530118
6	0x3d2441a1	0.04010165
7	0x3deeb376	0.11655323
8	0xbdec341b	-0.11533376
9	0x3d94a288	0.07257563
10	0xbe274c33	-0.16337661
11	0xbe0fc940	-0.14041615
12	0xbe146490	-0.14491487
13	0xbe85d476	-0.26138657
14	0xbe1da326	-0.15394267
15	0x3d34c6e2	0.044134982
16	0xbe56fe3f	-0.20995425
17	0xbdbc4b84	-0.09194091
18	0x3d96c92c	0.07362589
19	0x3e64ca7d	0.22342868
20	0xbe44faf4	-0.19236356
21	0xbe2dab42	-0.16959861
22	0xbc0dd646	-0.008657044
23	0xbe626c45	-0.22111614
24	0xbe09fcf0	-0.13475394
25	0xbe56baf4	-0.20969754
26	0x3dd217be	0.10258435
27	0x3e31dc60	0.17369223
28	0x3e2944ff	0.16530226
29	0xbe80c930	-0.25153494
30	0x3e65b758	0.22433221
31	0xbdeb3ce9	-0.11486227
32	0xbe465a75	-0.19370444
33	0xbc21013c	-0.009826954
34	0x3d9ebc21	0.077507265
35	0xbe52451f	-0.2053418
36	0x3ddaf5fc	0.10691449
37	0xbd6254ba	-0.055256583
38	0xbe2b8d5b	-0.16753142
39	0x3e24f16f	0.16107725
40	0xbe450ba6	-0.19242725
41	0x3e6e612b	0.23279254
42	0xbe1ede99	-0.15514602
43	0x3e23da96	0.16001353
44	0xbe54b213	-0.20771055
45	0xbe25f1d0	-0.16205525
46	0x3e1d37cc	0.15353316
47	0xbd986129	-0.07440407
48	0x3d520f04	0.05128385
49	0xbe509b07	-0.20371638
50	0xbdbd29e5	-0.092365064
51	0xbe166c07	-0.14689647
52	0xbe30feb5	-0.17284663
53	0xbd58791c	-0.052849874
54	0x3e93eb03	0.28890237
55	0xbd05f924	-0.032708302
56	0xbe7dafc3	-0.24774079
57	0x3cdf7c52	0.02728096
58	0xbe649379	-0.22321881
59	0xbe6fd4e4	-0.23421055
60	0xbe2ab132	-0.16669157
61	0xbd878b4c	-0.06618366
62	0x3d4c52f9	0.049883816
63	0xbe4debe6	-0.2010952
64	0xbd218f30	-0.039443195
65	0xb9e0daa8	-0.0004288752
66	0x3d146091	0.036224905
67	0x3d9a042a	0.075203255
68	0xbdab19fb	-0.08354565
69	0x3de8a002	0.11358644
70	0xbe43fb7c	-0.19138902
71	0x3e13962d	0.14412756
72	0x3d36094c	0.04444246
73	0x3e5a7661	0.2133422
74	0xbe53983f	-0.20663546
75	0xbd9fefd7	-0.07809418
76	0x3e7b5384	0.24543577
77	0x3d1a3952	0.03765232
78	0xbcd05e15	-0.025435487
79	0x3e01e2da	0.12684193
80	0x3e6eff5a	0.23339596
81	0xbe33b004	-0.17547613
82	0x3e71527d	0.23566623
83	0xbdb9e01c	-0.090759486
84	0x3c21e760	0.009881824
85	0x3e66441f	0.22486924
86	0x3e42ebc7	0.19035254
87	0x3e447755	0.19186147
88	0x3e07de4a	0.1326839
89	0x3e7ead36	0.24870762
90	0xbde38e19	-0.11111087
91	0x3cc7cd07	0.024389757
92	0xbd81f2b3	-0.06345119
93	0xbd0c0692	-0.034185953
94	0xbcaf8d8e	-0.021429803
95	0x3de1637c	0.11005303
96	0x3e4aa3ba	0.19789019
97	0xbe4c75ac	-0.19966763
98	0x3be84eec	0.0070894863
99	0x3e95ef24	0.29284012
100	0xbe88e54c	-0.2673744
101	0x3da15daf	0.07879197
102	0xbd3a4ad3	-0.045481514
103	0xbe007d20	-0.12547731
104	0x3e50d389	0.20393194
105	0xbdc98231	-0.09839285
106	0x3d6c3178	0.057664365
107	0xbd5a4d81	-0.05329657
108	0x3e22dc7a	0.15904418
109	0x3df0c016	0.117553875
110	0x3e490321	0.196301
111	0xbca7a357	-0.020463629
112	0xbd5afbff	-0.05346298
113	0x3e4fa908	0.20279324
114	0xbb9d3b0e	-0.0047982996
115	0x3e3ae8ee	0.18252918
116	0xbe2df1bc	-0.16986746
117	0x3c7d68d7	0.01546689
118	0x3e1f739c	0.15571445
119	0xbe0aae5b	-0.13543074
120	0x3e2ea29e	0.17054221
121	0x3d0344f2	0.032048173
122	0x3df9ee92	0.12203707
123	0xbe4b3125	-0.19842966
124	0xbe7379ae	-0.23776886
125	0x3ddf79e8	0.10911924
126	0x3e18a544	0.14906794
127	0xbdcfbf9e	-0.1014397
128	0x3dc50351	0.09619773
129	0xbe2cbf8b	-0.16869943
130	0x3da0fda8	0.07860881
131	0xbe0db62b	-0.13839023
132	0x3dac1fec	0.08404526
133	0xbb1e8cca	-0.0024192804
134	0x3e04ae44	0.12957102
135	0xbd485639	-0.048910353
136	0xbdcf71f6	-0.10129158
137	0xbe55fd7d	-0.2089748
138	0x3e251ec1	0.16125013
139	0x3d80305e	0.06259225
140	0x3c0c0cc9	0.00854797
141	0x3e17f045	0.1483775
142	0xbe3aa88b	-0.18228357
143	0x3e07feb3	0.13280754
144	0x3e18162b	0.14852206
145	0xbddd951b	-0.10819455
146	0xbd503c6b	-0.05083887
147	0x3e386df0	0.18010688
148	0x3dbfb8b1	0.09361399
149	0xbe60f7c1	-0.2196951
150	0xbe092f37	-0.13396917
151	0xbe6474e3	-0.22310214
152	0xbe18ecb5	-0.14934047
153	0xbdef4084	-0.11682227
154	0xbde57f5c	-0.112059325
155	0xbb932230	-0.0044901595
156	0xbe2e29b4	-0.17008096
157	0x3dab247e	0.0835657
158	0xbe7b1b82	-0.24522212
159	0x3c90f077	0.017692788
160	0x3d3fb05b	0.046799045
161	0x3e7a2eb4	0.24431878
162	0x3e6d6dc4	0.23186404
163	0xbde0b12c	-0.10971293
164	0x3c00e1d3	0.007866341
165	0x3e145e0e	0.14489004
166	0x3e5429b6	0.20719036
167	0xbe1d5ec2	-0.15368178
168	0x3d6b8657	0.057501163
169	0x3dbd0a7d	0.09230516
170	0xbb90c2be	-0.0044177463
171	0x3e040f97	0.12896572
172	0xbe70aed5	-0.23504193
173	0x3e13231e	0.14368865
174	0xbdaa63ee	-0.08319841
175	0x3e2840bf	0.16430949
176	0xbd4a5f6e	-0.049407415
177	0xbc2b6ac4	-0.010462467
178	0xbe940b86	-0.28915042
179	0xbd8a99c0	-0.06767607
180	0x3df7e5b6	0.12104361
181	0x3d87f094	0.066376835
182	0x3d10759d	0.035268415
183	0x3c2320b4	0.0099565275
184	0x3d4786c1	0.048712496
185	0xbdfcc798	-0.12342757
186	0x3e6a772d	0.22897024
187	0xbde214ee	-0.11039148
188	0xbd6a3cfb	-0.05718706
189	0x3e96e51b	0.2947167
190	0x3de54408	0.111946166
191	0x3e8ea68c	0.2786144
192	0xbd8f3166	-0.06991844
193	0xbea45b6c	-0.32101
194	0xbd023315	-0.031786997
195	0x3ea49642	0.32145888
196	0xbe839fd7	-0.25707886
197	0x3e6df711	0.2323878
198	0x3dbe7fee	0.093017444
199	0x3d015ec7	0.031584527
200	0xbb8ff27c	-0.00439292
201	0xbd9f48f7	-0.07777589
202	0x3e9b1a66	0.30293578
203	0x3c8382bc	0.01605355
204	0x3e2dfa8f	0.16990112
205	0x3e1bf32f	0.15229486
206	0xbe91b2ac	-0.28456628
207	0x3e2fdae9	0.17173351
208	0xbea31fa9	-0.31860092
209	0xbdf63e5c	-0.12023613
210	0xbd2f4b84	-0.042796627
211	0x3dcdef9f	0.1005547
212	0x3e445e8f	0.19176696
213	0x3cc5e0b0	0.02415499
214	0xbd02ceea	-0.03193561
215	0x3d76d9f7	0.06026646
216	0x3e79ca41	0.2439356
217	0xbd5a5bcc	-0.0533102
218	0xbdd3f810	-0.103500485
219	0xbd00200b	-0.03128056
220	0xbdf046ef	-0.117322795
221	0xbda20cc6	-0.079125926
222	0xbe253e48	-0.1613704
223	0xbdf2227b	-0.11822983
224	0x3ca8f1d0	0.020623118
225	0xbd959ad5	-0.073049225
226	0x3d4449b3	0.047921848
227	0xbd2312dd	-0.03981291
228	0xbde07213	-0.10959258
229	0x3d34572e	0.044028454
230	0xbdd1207d	-0.10211275
231	0x3e16b2e8	0.14716685
232	0x3e4db3f2	0.20088175
233	0xbe4f1221	-0.2022176
234	0xbe781fc3	-0.24230866
235	0xbe9df491	-0.30850652
236	0xbe5d393f	-0.21603869
237	0xbe51f3f1	-0.20503213
238	0xbd838d60	-0.064234495
239	0xbd5294a9	-0.051411305
240	0xbd8634b3	-0.0655302
241	0xbe4aa7d0	-0.19790578
242	0x3d952e2d	0.07284198
243	0xbd850d94	-0.064967304
244	0x3dacb5f6	0.08433144
245	0x3e27c07b	0.16382019
246	0x3caeb2be	0.021325465
247	0x3d97c6eb	0.074109875
248	0xbe4605b8	-0.19338119
249	0x3d51516d	0.051103044
250	0xbda2bc6c	-0.07946095
251	0x3e4b48ef	0.1985204
252	0xbe2d2418	-0.169083
253	0x3d5c7484	0.053822055
254	0x3e38621f	0.1800618
255	0xbe505615	-0.20345338

lstm1_1.bias_ih_l0 f4 [64]
0	0xbd193cdd	-0.03741156
1	0xbde16269	-0.110050984
2	0xbd8832e8	-0.066503346
3	0xbcb33964	-0.021877952
4	0x3e4c9fd8	0.1998285
5	0xbd911d5b	-0.07085677
6	0x3caf61f7	0.021409018
7	0x3e024725	0.12722452
8	0xbc8b6e7a	-0.017020453
9	0x3e5aca61	0.21366264
10	0xbe29b7eb	-0.16574065
11	0x3e8ce855	0.27521005
12	0x3df149ed	0.11781678
13	0x3e108b6f	0.1411569
14	0x3ce5dbb2	0.02805886
15	0xbe61d94a	-0.22055545
16	0x3de79d38	0.11309284
17	0xbd4d9551	-0.050191227
18	0x3e03f8df	0.12887906
19	0x3d1fd09a	0.039017297
20	0x3e4b74f5	0.19868834
21	0xbbeb592c	-0.007182261
22	0x3ddc1be2	0.10747506
23	0xbba40762	-0.005005763
24	0x3de3dff7	0.11126702
25	0xbcaaa07b	-0.020828476
26	0x3d9b1c9c	0.07573816
27	0xbce70b04	-0.028203495
28	0x3e0e073f	0.13869952
29	0x3d5d2dcd	0.053998757
30	0x3e0ff834	0.14059526
31	0xbd5a1d90	-0.05325085
32	0xbd63a1b6	-0.05557414
33	0xbe63a6ad	-0.2223155
34	0xbe688453	-0.22706728
35	0xbcd6d682	-0.026225332
36	0xbcd0f44e	-0.025507119
37	0x3dacefa9	0.08444149
38	0xba1517d2	-0.00056874484
39	0xbe1e4b8d	-0.15458508
40	0x3d16eca9	0.03684679
41	0xbe65f60d	-0.22457142
42	0xbe5298d5	-0.20566113
43	0x3e257e89	0.1616155
44	0x3e7fa449	0.24965014
45	0xbd94dca5	-0.07268647
46	0xbd1b97f8	-0.037986726
47	0xbe4ac750	-0.19802594
48	0x3e316eb5	0.17327388
49	0x3df15806	0.11784367
50	0xbd722e61	-0.05912626
51	0x3dd022b5	0.1016287
52	0xbd51953f	-0.051167723
53	0x3e2f8c86	0.17143449
54	0x3dfdb306	0.12387662
55	0xbe1132c5	-0.14179523
56	0x3e03cbfc	0.12870783
57	0xbe48a653	-0.19594698
58	0x3e4187ff	0.18899535
59	0xbe66bea9	-0.22533669
60	0x3e823fcb	0.25439295
61	0x3e4f439c	0.20240635
62	0x3e4e4aef	0.20145772
63	0x3e185ef0	0.14879966

lstm1_1.bias_hh_l0 f4 [64]
0	0x3e4dfd2c	0.20116109
1	0xbcb37ed3	-0.02191106
2	0xbe4b064f	-0.19826625
3	0xbe068839	-0.13137902
4	0xbe1ea2a6	-0.15491733
5	0x3e12f318	0.14350545
6	0x3e1dcb96	0.15409693
7	0x3d22a899	0.03971157
8	0x3de77c56	0.11303012
9	0x3e7f2c45	0.24919231
10	0xbe706ecb	-0.23479764
11	0x3e2de3e2	0.16981462
12	0xbd194755	-0.037421543
13	0xbe2ef4e9	-0.17085613
14	0xbdcd1208	-0.10013205
15	0xbd9ed868	-0.0775612
16	0xbe45d806	-0.19320688
17	0x3e7c3850	0.24630857
18	0x3cc0ae85	0.023520717
19	0xbce4765d	-0.027888471
20	0xbe3901ef	-0.18067144
21	0x3e2a4200	0.1662674
22	0xbcfefaa6	-0.031125378
23	0x3d3243e4	0.043521777
24	0xbd05494b	-0.0325406
25	0x3c496765	0.012292718
26	0x3ca554e8	0.020182088
27	0x3d01b2b4	0.031664565
28	0x3e8af12c	0.27137125
29	0x3e3c3ac2	0.1838179
30	0xbe5029c0	-0.20328426
31	0x3b38796f	0.0028148552
32	0xbdafa3da	-0.08576174
33	0xbdf77ed7	-0.1208474
34	0xbe06746f	-0.13130353
35	0x3d590a93	0.0529886
36	0xbe37a314	-0.17933303
37	0xbdd2bdbf	-0.102900974
38	0xbda7676f	-0.08174025
39	0xbcb65ade	-0.022260126
40	0x3e0244c3	0.12721543
41	0xbdf46e96	-0.11935155
42	0x3e597d55	0.21239217
43	0xbe5a8b6d	-0.21342249
44	0xbce03c99	-0.027372645
45	0x3cb1ae5b	0.021689584
46	0xbe2f0aa7	-0.17093907
47	0x3e555348	0.2083255
48	0xbe246d59	-0.16057338
49	0xbe6f06fa	-0.23342505
50	0x3d1bf6ff	0.03807735
51	0x3e2b3b09	0.16721739
52	0xbe21a2dd	-0.15784784
53	0x3e16bc00	0.14720154
54	0xbe266a9e	-0.16251609
55	0x3d3545fe	0.044256203
56	0x3c80ac49	0.015707152
57	0xbd90c237	-0.070682935
58	0x3e4ddf19	0.20104636
59	0xbdf06f9e	-0.11740039
60	0xbe40fa4c	-0.1884548
61	0xbe170c0e	-0.14750692
62	0xbca89312	-0.020577941
63	0x3ca5a309	0.020219343

lstm1_1.weight_ih_l0_reverse f4 [64, 32]
0	0x3d852650	0.06501448
1	0x3ecccf94	0.4000212
2	0xbbb479b9	-0.0055076745
3	0xbdaec662	-0.08533932
4	0x39cc1162	0.00038922863
5	0xbe13d875	-0.1443804
6	0x3dd0210c	0.10162553
7	0xbe660402	-0.22462466
8	0xbdffa8e4	-0.12483385
9	0xbdae577c	-0.0851278
10	0x3e257ead	0.16161604
11	0xbdf8bd8e	-0.1214553
12	0x3de3caa4	0.11122635
13	0x3da7fc97	0.082024746
14	0x3d65eba9	0.056132946
15	0x3c230686	0.009950286
16	0xbda2a64a	-0.07941873
17	0x3e8216cd	0.2540802
18	0xbd86fa50	-0.06590712
19	0x3e6ddf02	0.23229602
20	0x3eafd84d	0.34344712
21	0xbde3f570	-0.11130798
22	0xbd8aa959	-0.06770582
23	0xbd994240	-0.07483339
24	0xbd223e6e	-0.03961032
25	0x3dacb7e0	0.08433509
26	0x3ee295c4	0.44254887
27	0x3e416e06	0.18889627
28	0xbcf43eec	-0.02981516
29	0x3e51448a	0.20436302
30	0x3d3328fa	0.04374025
31	0xbdb0f95c	-0.086413115
32	0xbe03d594	-0.12874442
33	0x3d8e8d5c	0.06960556
34	0x3e576a0d	0.21036549
35	0xbd3e1d33	-0.046414565
36	0x3e57a70d	0.21059819
37	0xbdb9daaf	-0.09074914
38	0x3df9fa98	0.12206
39	0xbe2148ea	-0.15750471
40	0x3ddef39b	0.10886308
41	0xbcdbc380	-0.02682662
42	0x3ceff570	0.029291838
43	0x3e0f7dfe	0.14012906
44	0xbe52f7b2	-0.20602301
45	0x3d843435	0.0645527
46	0xbe09773d	-0.13424392
47	0xbd84a0ba	-0.06475969
48	0x3df4f19e	0.11960147
49	0x3e26076a	0.16213766
50	0xbb97d680	-0.0046337247
51	0x3ca74230	0.020417303
52	0x3c488915	0.012239714
53	0xbd52f6e2	-0.051504977
54	0x3e47a0d0	0.19494939
55	0x3c8a5020	0.01688391
56	0xbe57494b	-0.21024053
57	0xbe7a4662	-0.24440911
58	0x3cc4f9e6	0.024044942
59	0x3e410daf	0.18852876
60	0x3de977a9	0.113997765
61	0x3da61a34	0.081104666
62	0xbde041c1	-0.109500416
63	0xbe79e6f2	-0.24404505
64	0xbd85c260	-0.06531215
65	0x3d8eb512	0.0696813
66	0x3dc21538	0.094767034
67	0x3df18101	0.11792184
68	0xbd9fea85	-0.07808403
69	0x3e8ab9e2	0.27094942
70	0x3c88f100	0.01671648
71	0x3e1f8880	0.15579414
72	0x3db1c247	0.086796336
73	0x3d60b278	0.0548577
74	0xbe750176	-0.23926339
75	0x3e7a58c9	0.24447931
76	0xbe1e6ac8	-0.15470421
77	0x3e874bad	0.26424924
78	0x3e2d218a	0.16907325
79	0xbe251c0a	-0.16123977
80	0xbe1db3a4	-0.15400559
81	0x3d7f6ba9	0.062358532
82	0x3dc25e48	0.09490639
83	0xbdee0ca8	-0.11623508
84	0xbd067a3b	-0.03283141
85	0x3dd50f5f	0.104033224
86	0x3d2cc1f1	0.042177144
87	0x3e4f408c	0.20239466
88	0x3e8dba7c	0.2768134
89	0x3e6b6e16	0.22991213
90	0x3d86ba10	0.06578457
91	0xbd85c8a8	-0.06532413
92	0x3e3291c1	0.17438413
93	0xbd15b228	-0.036546856
94	0x3daedfd7	0.08538788
95	0xbd2831b8	-0.04106304
96	0xbde39bd0	-0.11113703
97	0xbdf20e2b	-0.118191086
98	0x3e15a56f	0.14613889
99	0xbe3f32cc	-0.18671721
100	0x3e2d6977	0.16934763
101	0x3e0cdfe1	0.13757278
102	0xbdf6ba04	-0.120471984
103	0x3e69d042	0.2283335
104	0x3e3f90f8	0.18707645
105	0x3e005908	0.12533963
106	0xbe4aef3b	-0.19817822
107	0xbe0ef597	-0.13960873
108	0xbd4429f8	-0.047891587
109	0xbe5cf5b7	-0.21578108
110	0xbdb05d72	-0.08611573
111	0x3c236e90	0.009975091
112	0x3c1bb53c	0.009503659
113	0x3e72a98a	0.23697487
114	0x3e26aad0	0.16276097
115	0xbe127ea8	-0.14306128
116	0x3eaf6f77	0.34264728
117	0xbdb6900c	-0.089141935
118	0x3d95b87b	0.073105775
119	0x3e061c6c	0.1309678
120	0x3e80d345	0.25161186
121	0x3d35f9e8	0.044427782
122	0xbd934345	-0.07190565
123	0x3e25b4da	0.1618227
124	0x3e49d897	0.19711529
125	0xbe1ae126	-0.1512495
126	0x3e577908	0.21042264
127	0x3e52b7b0	0.20577884
128	0x3dadea20	0.084919214
129	0x3e480e3b	0.19536678
130	0xbd7cb7cd	-0.061698724
131	0xbe6165ea	-0.22011533
132	0x3dac94ff	0.08426856
133	0x3e6f9814	0.23397857
134	0x3b51a300	0.0031988025
135	0xbe47caa8	-0.19510901
136	0x3e0313c2	0.12800506
137	0x3e418d12	0.1890147
138	0xbe6e13ee	-0.2324979
139	0x3e1a0fb9	0.1504506
140	0xbb1d2100	-0.0023975968
141	0xbde830db	-0.113374434
142	0x3dceb807	0.10093694
143	0x3e4fef58	0.20306146
144	0xbc9d9935	-0.019238094
145	0xbe6e6dc3	-0.23284058
146	0xbe47c806	-0.19509897
147	0x3e7f108c	0.24908656
148	0x3e89039e	0.26760572
149	0x3de4ae0b	0.111660086
150	0xbc56c571	-0.013108597
151	0x3e2e28bc	0.17007726
152	0x3d8c7172	0.068575755
153	0xbcfab900	-0.030605793
154	0x3d9b8be2	0.0759504
155	0x3e1dd681	0.15413858
156	0xbe716ee8	-0.23577464
157	0xbcf8bbf0	-0.030363053
158	0xbdf040b1	-0.11731089
159	0x3e5d5670	0.21615005
160	0xbe5e7000	-0.21722412
161	0xbd27bee8	-0.040953547
162	0xbe20ea20	-0.15714312
163	0xbda1d177	-0.079012804
164	0x3e3176e5	0.17330511
165	0xbc4f35e0	-0.012647122
166	0x3e21eb96	0.15812525
167	0xbdb07a20	-0.086170435
168	0x3e6f9e45	0.23400219
169	0xbc9c1390	-0.019052297
170	0xbd10cceb	-0.035351675
171	0x3d65b08f	0.056076583
172	0x3d9fa2c4	0.07794717
173	0x3e26cfa4	0.16290146
174	0x3e2b5e9c	0.1673531
175	0x3dad1f77	0.08453267
176	0xbc171fb6	-0.009223869
177	0x3dff3aa1	0.124623545
178	0xbe6f38f2	-0.23361567
179	0xbe058020	-0.13037157
180	0x3e28772d	0.16451712
181	0x3da9164a	0.082562044
182	0xbe1bf6ec	-0.15230912
183	0x3e52e57a	0.20595351
184	0x3e1c4a5f	0.15262745
185	0x3e526612	0.20546749
186	0x3dc1ded4	0.09466329
187	0x3d56dbdc	0.052455768
188	0x3e79fb77	0.24412332
189	0x3dd4054c	0.10352573
190	0xbda47948	-0.08030945
191	0x3e25b2ea	0.16181532
192	0xbdd266b8	-0.10273498
193	0x3d800826	0.06251554
194	0x3e8cc7de	0.27496237
195	0xbc61f650	-0.013791636
196	0x3e67c58b	0.2263395
197	0x3d233a56	0.039850555
198	0xbe2d5bce	-0.16929552
199	0x3e6364b4	0.22206384
200	0x3e0d4314	0.1379512
201	0x3e2d519c	0.16925663
202	0xbd91e8ef	-0.07124507
203	0xbd850bd4	-0.06496397
204	0x3d9d5cc8	0.07683712
205	0xbe47399e	-0.19455573
206	0x3a8b9ac6	0.0010650984
207	0xbb997578	-0.004683193
208	0x3cfc0c22	0.030767504
209	0xbe1e0100	-0.15430069
210	0x3e6b5756	0.22982535
211	0x3dfaeb94	0.12251964
212	0x3e785f3d	0.2425508
213	0x3e62fad6	0.22165999
214	0x3e216685	0.15761764
215	0x3e3179ca	0.17331615
216	0xbc984359	-0.018586801
217	0x3dd131ac	0.10214552
218	0x3dab6ec5	0.08370737
219	0x3d99e5f8	0.07514566
220	0xbdd52e59	-0.10409231
221	0x3d1ee128	0.038788944
222	0xbd61dd32	-0.05514259
223	0x3e665430	0.22493052
224	0xbe4bcba6	-0.19901904
225	0x3e14f3c8	0.1454612
226	0xbe55c8d6	-0.20877394
227	0x3e7e0cd1	0.24809577
228	0xbda70965	-0.08156089
229	0x3e4dda9c	0.20102924
230	0x3def0c34	0.116722494
231	0xbe20c0b0	-0.15698504
232	0xbda3d0b3	-0.079987906
233	0xbe1f4f9e	-0.15557715
234	0x3de708ad	0.11280952
235	0xbe40d6c3	-0.18831925
236	0x3e10aa3e	0.14127442
237	0x3e3da69b	0.18520586
238	0xbdf342ef	-0.11878001
239	0xbe608bae	-0.21928284
240	0xbe6cbb2b	-0.23118274
241	0xbdfd7a31	-0.12376822
242	0xbd92f858	-0.07176274
243	0x3c23dce0	0.010001391
244	0x3e3281c4	0.17432314
245	0x3e3d8f7b	0.18511765
246	0x3e64069c	0.22268146
247	0xbe307b82	-0.17234614
248	0x3e0554f4	0.13020688
249	0x3c594420	0.013260871
250	0xbde99016	-0.11404435
251	0xbe19b95c	-0.15012115
252	0xbe756ce3	-0.23967318
253	0x3d59c5b0	0.053167045
254	0xbd477a5a	-0.048700668
255	0xbe48f034	-0.1962288

lstm1_1.weight_hh_l0_reverse f4 [64, 16]
0	0xbdd1874e	-0.102308854
1	0x3e7803eb	0.24220245
2	0x3db13fde	0.0865476
3	0xbdad829c	-0.084721774
4	0x3e7b0f98	0.24517667
5	0x3e888fb6	0.26672143
6	0x3c2c7a95	0.010527273
7	0xbe51c204	-0.20484167
8	0xbe2c536e	-0.16828701
9	0x3b30863b	0.0026935476
10	0x3e2a9579	0.16658582
11	0xbdb60360	-0.088873625
12	0xbe8528b3	-0.26007614
13	0x3d079efb	0.0331106
14	0xbe874f5e	-0.2642774
15	0xbd871de7	-0.065975
16	0xbd79a977	-0.06095263
17	0x3df5e082	0.12005712
18	0xbc6bd51c	-0.014394071
19	0x3e86595e	0.26240057
20	0xbd931f69	-0.071837254
21	0x3c822285	0.0158856
22	0x3e59ef08	0.2128259
23	0xbe54b371	-0.20771576
24	0xbe734a4c	-0.23758811
25	0xbe70124e	-0.23444483
26	0xbc6a3fd8	-0.014297448
27	0x3cde329d	0.027123744
28	0xbe639cf0	-0.22227836
29	0x3e53ce0c	0.2068407
30	0xbe5cb09d	-0.21551748
31	0xbdd28d9b	-0.10280915
32	0x3dfc5ab5	0.123219885
33	0x3db4c838	0.08827251
34	0x3e6155be	0.22005364
35	0xbe43cdb4	-0.19121438
36	0xbe37ef75	-0.1796244
37	0x3d53ce61	0.05171049
38	0xbe110095	-0.14160378
39	0x3dd4d8e8	0.10392934
40	0x3e170e08	0.14751446
41	0x3e0d9aa4	0.13828522
42	0x3e2f964a	0.17147174
43	0x3e64cfcf	0.22344898
44	0x3d2cc192	0.04217679
45	0x3dffd87c	0.12492463
46	0x3dda562c	0.10660967
47	0xbd18e151	-0.037324253
48	0xbeb3a547	-0.35087034
49	0x3e5a7945	0.21335323
50	0x3d95f445	0.07321981
51	0xbe6667e7	-0.22500573
52	0xbdf840d2	-0.121217385
53	0xbe4a3c08	-0.19749463
54	0xbe85c15f	-0.26124093
55	0xbd77065d	-0.060308803
56	0x3e65863d	0.22414489
57	0x3e0aa586	0.13539705
58	0xbe2ec527	-0.17067395
59	0x3e51e975	0.20499213
60	0xbe374742	-0.17898276
61	0x3d333684	0.043753162
62	0xbdf25484	-0.11832526
63	0x3e69316a	0.22772756
64	0x3d89faef	0.06737315
65	0xbdf1433f	-0.11780404
66	0xbe98d568	-0.29850316
67	0x3bad1f89	0.0052833003
68	0xbd863e67	-0.06554871
69	0xbe6b0ab5	-0.22953303
70	0x3e3bc0d3	0.18335275
71	0xbe38edfc	-0.18059534
72	0x3a95e501	0.0011436046
73	0xbce994a7	-0.028513266
74	0x3e58c5bb	0.21169178
75	0xbe18e598	-0.14931333
76	0x3e17100a	0.14752212
77	0x3e3f9eeb	0.18712966
78	0x3d9e230b	0.07721528
79	0xbd480504	-0.04883291
80	0xbe1dd095	-0.15411599
81	0x3d046e35	0.032331664
82	0xbe1eb51a	-0.15498772
83	0x3e256238	0.16150749
84	0xbe39ebb6	-0.18156323
85	0xbe327c20	-0.17430162
86	0x3e2f6072	0.17126635
87	0x3e071bd1	0.13194205
88	0xbad4e34c	-0.0016242056
89	0xbb574328	-0.0032846425
90	0xbe0f2aed	-0.13981219
91	0x3d8153b3	0.063147925
92	0x3db7ee8b	0.08981045
93	0xbe1459ba	-0.14487353
94	0x3cfe3c6a	0.031034667
95	0xbe005f4d	-0.12536354
96	0x3e129623	0.14315085
97	0x3e68299d	0.22672124
98	0xbe68d57f	-0.22737692
99	0x3db0e47c	0.0863733
100	0x3e39b261	0.18134452
101	0xbdf84c74	-0.12123957
102	0xbc318a68	-0.010836221
103	0xbe439cee	-0.19102833
104	0x3e630ca2	0.22172788
105	0xbe206b88	-0.1566602
106	0x3e811bd5	0.25216547
107	0xbdd845be	-0.10560177
108	0x3e903c5c	0.2817105
109	0x3da4c374	0.08045092
110	0xbbc8a580	-0.0061232448
111	0x3e0d848c	0.13820094
112	0x3d85d593	0.06534877
113	0x3d98c21e	0.074589
114	0x38f80259	0.00011825999
115	0xbdff5781	-0.12467862
116	0x3c143fa8	0.00904838
117	0xbe19c2d0	-0.15015721
118	0xbe2f1c3a	-0.17100611
119	0x3e7d1562	0.24715188
120	0xbe6fd5c5	-0.2342139
121	0x3e4a2201	0.19739534
122	0xbdd529ae	-0.104083404
123	0x3d730cc4	0.059338346
124	0xbe325a6b	-0.17417304
125	0xbe60a5ab	-0.21938197
126	0xbe1689bc	-0.14700979
127	0x3e5ef898	0.21774518
128	0x3e465a31	0.19370343
129	0x3dc5d4d1	0.09659732
130	0xbe4696bd	-0.1939344
131	0xbd956e54	-0.07296434
132	0x3e74c72b	0.23904102
133	0xbe27632b	-0.16346423
134	0x3e4aea2f	0.19815896
135	0xbda7970b	-0.08183106
136	0xbe471a86	-0.19443712
137	0xbd581fff	-0.05276489
138	0xbdc69004	-0.096954376
139	0xbe1b1151	-0.15143324
140	0x3e0ac884	0.13553053
141	0x3d3da0aa	0.0462958
142	0xbd3a1bff	-0.045436855
143	0x3db1c9b7	0.08681052
144	0x3e0472c2	0.12934402
145	0xbe079006	-0.13238534
146	0x3dc64fde	0.09683202
147	0xbd83c06c	-0.06433186
148	0x3e680ccf	0.22661136
149	0xbd92595d	-0.07145951
150	0xbdabafa9	-0.08383114
151	0xbd6ae206	-0.05734446
152	0x3e0b4a11	0.13602473
153	0xbd367535	-0.04454537
154	0x3e62bb80	0.22141838
155	0xbcf344a4	-0.029695816
156	0xbe0749a6	-0.13211688
157	0xbc0d109b	-0.008609916
158	0x3bc9286b	0.0061388514
159	0xbdb62b67	-0.08894997
160	0xbde7205f	-0.11285471
161	0x3e17963f	0.14803408
162	0xbd5cda85	-0.053919334
163	0x3d8d830d	0.069097616
164	0xbd4a3380	-0.04936552
165	0xbdba1a14	-0.09087005
166	0xbe5031c9	-0.20331492
167	0xbe7421b4	-0.23840982
168	0x3e01d7a4	0.12679917
169	0xbdba1d9f	-0.09087681
170	0x3e243c9f	0.1603875
171	0xbe8870af	-0.2664847
172	0xbda3d475	-0.07999507
173	0xbe2f13cf	-0.170974
174	0x3e15f01d	0.14642377
175	0xbe017f31	-0.12646176
176	0xbe44818c	-0.19190043
177	0xbdb7506b	-0.089508854
178	0xbd245b2c	-0.04012601
179	0xbc903a63	-0.017605966
180	0x3de3d784	0.11125091
181	0x3e08e534	0.13368684
182	0xbe019290	-0.12653565
183	0xbd4ecd58	-0.0504888
184	0x3e2ac5ff	0.16677092
185	0x3e5d0ae8	0.21586192
186	0xbe380094	-0.1796897
187	0xbda56616	-0.08076112
188	0x3ce75f34	0.028243639
189	0x3e522aee	0.20524189
190	0x3e155d28	0.14586318
191	0x3da0f3bb	0.07858988
192	0xbd77fb70	-0.060542524
193	0xbe7a6f29	-0.24456467
194	0x3c1e4c66	0.0096617695
195	0xbc9fb561	-0.019495668
196	0x3bb8d286	0.0056403307
197	0x3e49ef71	0.19720246
198	0x3dbfd787	0.093672805
199	0x3e426f1a	0.18987694
200	0xbe278b9e	-0.16361853
201	0xbc67b3ba	-0.014141971
202	0xbd4099f3	-0.047021817
203	0xbdbf8e12	-0.0935327
204	0x3cee523c	0.029091947
205	0x3e31ee86	0.17376146
206	0xbd3b9489	-0.04579595
207	0xbd566b9d	-0.05234872
208	0xbe595d10	-0.21226907
209	0xbe2f8aff	-0.17142867
210	0x3e4f9c18	0.20274389
211	0xbe22e760	-0.15908575
212	0xbd8fa9b3	-0.070147894
213	0x3d977d3c	0.073969334
214	0x3c510019	0.012756371
215	0x3e7bb101	0.2457924
216	0x3ab237ac	0.0013596914
217	0x3e084a0c	0.13309497
218	0xbe23dec7	-0.16002952
219	0x3e24af40	0.16082478
220	0xbe000435	-0.12501605
221	0xbe34d668	-0.17659914
222	0x3e3c167f	0.18367957
223	0x3e260a9c	0.16214985
224	0xbe82fc25	-0.25582996
225	0xbea54ba5	-0.32284275
226	0xbd8e0ea5	-0.06936387
227	0xbe40ff3d	-0.18847366
228	0x3dc005df	0.0937612
229	0xbd25eda0	-0.04050982
230	0xbe20f62e	-0.1571891
231	0x3caf453d	0.02139532
232	0xbab0b7e4	-0.0013482538
233	0x39d6a32f	0.00040938842
234	0xbe6a34fb	-0.22871773
235	0x3dd31c5e	0.10308145
236	0xbd46f425	-0.048572678
237	0x3d014068	0.031555563
238	0x3d97c770	0.074110866
239	0x3d568a27	0.052377846
240	0xbd7f55ea	-0.062337793
241	0x3e197315	0.14985307
242	0xbcf87492	-0.030329023
243	0x3e11493e	0.14188096
244	0x3d62b615	0.05534943
245	0x3c2d0aed	0.010561687
246	0x3e19a450	0.15004086
247	0x3d4d0c49	0.050060544
248	0x3d31015b	0.043214183
249	0x3d733708	0.059378654
250	0xbd468aba	-0.048472144
251	0x3e1425d4	0.14467555
252	0xbe78eb62	-0.24308541
253	0xbdcba5fe	-0.0994377
254	0xbd39560e	-0.045248084
255	0x3e284d71	0.16435792

lstm1_1.bias_ih_l0_reverse f4 [64]
0	0x3e2589c1	0.1616583
1	0x3e243154	0.16034442
2	0x3d59ff76	0.053222142
3	0xbe432cb1	-0.19060017
4	0xbdfd77a4	-0.12376335
5	0x3e6153b9	0.22004594
6	0x3da02345	0.07819227
7	0x3e0aa5f3	0.13539867
8	0x3e383c99	0.17991866
9	0x3be16913	0.006878981
10	0x3e60b8ed	0.21945544
11	0x3d8e7604	0.069561034
12	0x3d8a5417	0.0675432
13	0xbdcbfa98	-0.09959906
14	0x3e28972b	0.16463916
15	0x3dd099d0	0.101855874
16	0xbd38e2af	-0.045138057
17	0x3e606867	0.21914826
18	0xbe2f5b30	-0.17124629
19	0x3ca1e3cc	0.019761942
20	0x3d91a86c	0.07112202
21	0xbe5b6aeb	-0.21427505
22	0x3e364c83	0.17802624
23	0xbe28965f	-0.16463612
24	0xbe59699b	-0.21231692
25	0x3e321601	0.17391206
26	0xbbb30e1f	-0.00546433
27	0xbc54ecf9	-0.012995952
28	0x3db3a4e1	0.087716825
29	0xbc746e4d	-0.014918876
30	0xbe105791	-0.14095904
31	0x3e85ce9b	0.2613419
32	0xbb28e067	-0.002576852
33	0xbe178e4f	-0.1480038
34	0xbdb7b0ae	-0.08969246
35	0xbe4b7de5	-0.19872244
36	0xbe189503	-0.14900593
37	0x3e4adb1b	0.19810145
38	0x3e173a5e	0.14768359
39	0xbd9ee9fe	-0.07759474
40	0x3c430f69	0.01190553
41	0x3d35cd0e	0.04438501
42	0xbc8a5952	-0.016888294
43	0xbda9997e	-0.082812294
44	0xbda5ace5	-0.08089618
45	0xbdd00de5	-0.101589
46	0xbd6618bb	-0.05617593
47	0xbcafca6c	-0.021458827
48	0x3e014be7	0.1262661
49	0x3d93de19	0.07220096
50	0xbda8ed65	-0.082484044
51	0x3db63c1b	0.08898183
52	0x3e40251c	0.18764156
53	0x3ccf26b5	0.025287012
54	0xbe60f1ff	-0.21967314
55	0x3cdfa74f	0.027301459
56	0x3dabca29	0.08388168
57	0x3c0450f0	0.008075938
58	0x3e18f5f9	0.14937581
59	0xbe648ca1	-0.2231927
60	0x3cf790a2	0.030220333
61	0xbdb8abfa	-0.09017177
62	0x3e53010b	0.20605867
63	0x3ce563b7	0.02800165

lstm1_1.bias_hh_l0_reverse f4 [64]
0	0x3e8570d9	0.26062658
1	0x3e4e0e56	0.20122656
2	0x3e33efe9	0.17571987
3	0x3e6b0619	0.22951545
4	0x3e1b3389	0.15156378
5	0xbe23b4ad	-0.15986891
6	0x3e0667f7	0.13125597
7	0x3e50c82f	0.20388864
8	0x3cfbb626	0.030726504
9	0x3e0d0b1e	0.13773772
10	0xbcc76aae	-0.024342861
11	0x3da5d0e8	0.08096486
12	0xbd9a7ea6	-0.075436875
13	0x3ddebaa8	0.108754456
14	0x3e0f343e	0.13984773
15	0x3e825569	0.25455788
16	0x3ebb2a2a	0.36555606
17	0x3dcbf851	0.09959472
18	0xbe4bfa4e	-0.19919702
19	0x3e46d5df	0.19417523
20	0xbc48bf42	-0.012252631
21	0x3e2ee2f3	0.17078762
22	0x3d6bba32	0.057550617
23	0x3e3a3051	0.18182494
24	0x3e3e96ab	0.18612163
25	0x3e3af171	0.18256165
26	0x3e3da37e	0.18519399
27	0x3c186d8f	0.009303465
28	0x3c8c62a9	0.017136889
29	0xbe615e09	-0.22008528
30	0x3e7b3e09	0.24535383
31	0x3e92260b	0.2854465
32	0x3d30a702	0.04312802
33	0xbd47cdeb	-0.048780363
34	0x3e629f7b	0.2213115
35	0x3dec682d	0.115433075
36	0xbe6e45d3	-0.23268823
37	0x3c6e3adc	0.0145404
38	0xbc54ab94	-0.012980361
39	0xbe0378ea	-0.12839094
40	0x3e49e2ee	0.19715473
41	0x3e44e0c7	0.19226371
42	0x3e09e328	0.1346556
43	0x3e6af6c3	0.22945695
44	0xbe84d099	-0.25940397
45	0x3e3ac92e	0.18240806
46	0xbe1e54c3	-0.15462022
47	0xbe264857	-0.16238533
48	0x3e936bfe	0.2879333
49	0x3cb91785	0.022594223
50	0xbdf2a5ef	-0.118480556
51	0xbcde9e77	-0.027175171
52	0x3da7739f	0.0817635
53	0x3e7e9f1b	0.24865381
54	0xbe1c4458	-0.15260446
55	0x3e5a72d4	0.21332866
56	0x3cbc94a2	0.023020092
57	0xbd65508d	-0.055985022
58	0x3dde0a08	0.10841757
59	0x3e0add57	0.13560997
60	0x3dc34633	0.09534874
61	0xbde405aa	-0.11133893
62	0xbd060928	-0.032723576
63	0x3e52de68	0.20592654

lstm1_2.0.weight f4 [32, 32]
0	0xbcdf758e	-0.027277734
1	0xbd13141c	-0.03590785
2	0x3d591af2	0.053004213
3	0xbd9c5bc0	-0.076346874
4	0x3dc066b4	0.09394589
5	0x3e147a69	0.14499821
6	0x3e24b6e5	0.16085394
7	0xbd3f2be2	-0.04667271
8	0xbc9c2519	-0.019060658
9	0x3e11195a	0.14169827
10	0xbdf09959	-0.11747999
11	0xbd7ffcc8	-0.06249693
12	0x3d15d5ba	0.03658078
13	0x3c9a6ba4	0.018850155
14	0x3e05789a	0.13034287
15	0xbdf05847	-0.117355876
16	0xbddc1452	-0.10746063
17	0xbd599fc0	-0.053130865
18	0x3cd856d9	0.0264086
19	0xbd5fed84	-0.054669872
20	0xbd88ddde	-0.06682943
21	0xbc871cf1	-0.016493293
22	0x3d5ceaa5	0.053934712
23	0xbb69853b	-0.003563239
24	0x3c133ef5	0.008987178
25	0x3de65a9d	0.11247752
26	0x3e18825b	0.14893477
27	0x3e004d7c	0.12529558
28	0xbc2f15f3	-0.010686385
29	0xbd54536f	-0.05183738
30	0xbe2ae4a9	-0.1668879
31	0x3e18f13e	0.14935777
32	0x3dfc2946	0.1231256
33	0xbe3570f0	-0.17718863
34	0xbe106d86	-0.1410428
35	0x3e180a9b	0.14847796
36	0xbe0be8fa	-0.13663092
37	0xbd966472	-0.07343377
38	0x3e378e12	0.1792529
39	0xbdd85552	-0.105631486
40	0x3e326418	0.17420995
41	0xbdf5a6b3	-0.11994686
42	0xbe19f6e3	-0.15035586
43	0xbe23f2b1	-0.16010548
44	0xbdadebb4	-0.084922224
45	0x3d02ddea	0.031949915
46	0x3dca5d81	0.09881116
47	0x3e0f0258	0.13965738
48	0xbddaa52e	-0.10676037
49	0x3a97b101	0.0011573137
50	0x3cfd6640	0.030932546
51	0x3dec9d42	0.11553432
52	0x39c61e38	0.00037788018
53	0x3de42717	0.11140268
54	0x3e22dedc	0.15905327
55	0xbdf9ddfa	-0.12200542
56	0xbe00959e	-0.12557074
57	0xbe1db51c	-0.15401119
58	0x3e1e399e	0.15451667
59	0x3dbe1428	0.09281188
60	0x3e20e9cd	0.15714188
61	0xbcd6c867	-0.026218606
62	0xbd13c7de	-0.03607928
63	0xbd237270	-0.039904058
64	0x3e2e999d	0.17050786
65	0x3d07494b	0.033028882
66	0xbd570932	-0.052499004
67	0x3d036995	0.032083113
68	0x3daed11d	0.08535979
69	0xbd0bd6b2	-0.034140296
70	0xbd202aa2	-0.039103158
71	0xbda4a354	-0.08038965
72	0xbdc4713f	-0.095919125
73	0xbdce11bf	-0.100619785
74	0x3ce1ac77	0.027548058
75	0xbe0fe120	-0.14050722
76	0xbe1cd39a	-0.15315095
77	0xbb752ce6	-0.0037410795
78	0x3db24e63	0.08706357
79	0xbda3ea4b	-0.08003672
80	0xbd2bf140	-0.04197812
81	0x3e087f31	0.1332977
82	0xbd960dc8	-0.07326847
83	0x3de25524	0.110513955
84	0x3d13fbc2	0.036128767
85	0xbde6f0a6	-0.11276369
86	0xbdd3b3b9	-0.10337014
87	0x3d627145	0.055283803
88	0xbd9afeb8	-0.07568115
89	0xbde4dd19	-0.111749835
90	0xbe0a8d7f	-0.13530539
91	0x3e0dd833	0.13852005
92	0x3e019bab	0.12657039
93	0x3b917b11	0.0044397195
94	0xbd61276c	-0.054969236
95	0x3ddc1b45	0.10747389
96	0x3d20b0e7	0.039231207
97	0x3dcd7b52	0.10033287
98	0xbdc3d516	-0.09562127
99	0xbd9ecfd2	-0.07754482
100	0xbe10e188	-0.14148533
101	0xbd9724fe	-0.073801026
102	0x3de192de	0.11014341
103	0x3e185817	0.14877354
104	0x3debf75b	0.11521789
105	0x3ccc17a2	0.024913613
106	0xbdb9a80b	-0.09065255
107	0xbbaab573	-0.0052096187
108	0x3dd72fae	0.10507141
109	0x3d973d54	0.07384744
110	0x3d9b3b2b	0.07579645
111	0x3d99fb09	0.07518584
112	0x3db98224	0.090580255
113	0xbdb825e7	-0.08991604
114	0x3e12cd52	0.14336136
115	0x3e043706	0.12911615
116	0x3c232237	0.009956888
117	0x3e21e7ee	0.1581113
118	0xbe2379b6	-0.15964398
119	0xbdbe10ca	-0.09280546
120	0xbdc4568f	-0.09586822
121	0xbd838b34	-0.06423035
122	0x3d015e92	0.03158433
123	0xbdc09e29	-0.09405167
124	0x3e21f262	0.15815118
125	0x3deb20cc	0.11480865
126	0xbe563218	-0.20917547
127	0x3d71df15	0.05905064
128	0x3d939416	0.072059795
129	0x3dccdbec	0.10002884
130	0xbcb44be9	-0.022008853
131	0x3e0b0b9b	0.13578646
132	0x3da13cc0	0.07872915
133	0xbe0b3c94	-0.13597327
134	0xbe0053c4	-0.12531954
135	0x3db01bc8	0.08599049
136	0x3e1e1e6a	0.1544129
137	0x3df31dcb	0.11870917
138	0xbdc01dd7	-0.093806915
139	0x3c52af5d	0.012859193
140	0xbd211749	-0.039328847
141	0xbe2a743a	-0.166459
142	0x3e15bc93	0.14622717
143	0x3cafe93e	0.021473523
144	0x3d1f2c28	0.03886047
145	0xbd67e515	-0.056614954
146	0x3d1ff5ec	0.03905289
147	0xbdd8cd7f	-0.1058607
148	0x3d1952db	0.037432533
149	0xbd3893ba	-0.045062758
150	0xbdbca1b9	-0.09210534
151	0xbd90d96e	-0.070727214
152	0xbd417a33	-0.04723568
153	0xbd768849	-0.060188565
154	0xbe2f0973	-0.17093448
155	0xbcea86ef	-0.028628794
156	0xbdf749f4	-0.12074652
157	0xbc460082	-0.012085082
158	0xbb7887b3	-0.003792268
159	0xbda0d918	-0.07853907
160	0xbe0c106c	-0.1367814
161	0x3dd4a8c8	0.10383755
162	0xbde0eeb6	-0.109830305
163	0xbe0772d1	-0.13227393
164	0xbd340c7a	-0.04395721
165	0x3e07f47b	0.13276856
166	0xbdd0c614	-0.101940304
167	0xbdd5b82f	-0.10435521
168	0xbdc51a92	-0.096242085
169	0x3e181ca8	0.14854681
170	0xbda9ffb2	-0.08300723
171	0xbe05efad	-0.1307971
172	0xbca3e36e	-0.020005908
173	0x3a1afd2b	0.0005912359
174	0x3db15974	0.0865964
175	0xbde7a93c	-0.11311576
176	0x3de1e16e	0.110293254
177	0xbdb952eb	-0.090490185
178	0xbdc8398a	-0.097766
179	0xbdd37a9d	-0.10326121
180	0x3c55cae1	0.013048858
181	0xbe211d7c	-0.15733904
182	0x3dc2edad	0.09517989
183	0x3de14069	0.109986134
184	0xbd98c66f	-0.07459723
185	0xbe029144	-0.12750727
186	0x3db30d0f	0.08742725
187	0x3cf24685	0.029574642
188	0x3dc9a63e	0.09846161
189	0x3b9db9e9	0.004813422
190	0xbe138464	-0.14405972
191	0x3d8416fe	0.06449698
192	0xbda80a0b	-0.082050405
193	0xbddd05f4	-0.10792151
194	0xbcb158ee	-0.02164885
195	0xbdc91ffc	-0.09820554
196	0x3d99b5c3	0.075053714
197	0x39e643b3	0.00043919458
198	0xbd82ac22	-0.06380488
199	0x3db38599	0.08765716
200	0xbe393d8a	-0.18089882
201	0x3de3e75e	0.11128114
202	0xbe0a6c4a	-0.13517871
203	0x3e34ffbb	0.17675678
204	0xbe3bf9c1	-0.18356992
205	0x3d0f43fc	0.034976944
206	0xbd118678	-0.03552863
207	0xbdd77b95	-0.10521618
208	0x3e2b3b74	0.16721898
209	0x3e110963	0.14163737
210	0x3d962783	0.07331755
211	0xbd33d8ba	-0.04390786
212	0xbe00d92e	-0.12582847
213	0x3ba0b4c4	0.0049043614
214	0xbdde3639	-0.10850186
215	0xbbfe8f20	-0.0077685267
216	0x3bebed15	0.0071998932
217	0xbe271e27	-0.16320096
218	0x3e0cbd94	0.13744193
219	0x3ca23d57	0.01980464
220	0x3e3cb305	0.18427666
221	0xbdbc6da2	-0.09200598
222	0xbdfcf8e7	-0.12352162
223	0x3d97d091	0.07412828
224	0x3e1b9b05	0.15195854
225	0x3df2ff43	0.118650936
226	0x3e2e2ba9	0.17008843
227	0x3dccc432	0.09998359
228	0xbddcf7b7	-0.10789435
229	0xbe169e64	-0.14708859
230	0xbded6a7e	-0.115925774
231	0xbda51ce9	-0.08062155
232	0x3df39d54	0.11895242
233	0xbd55906e	-0.052139692
234	0x3af8896e	0.0018961856
235	0x3d8e2d24	0.06942204
236	0x3e1914b1	0.149493
237	0xbe0bbf38	-0.13647163
238	0xbdcf8c71	-0.10134209
239	0x3d3ee828	0.04660812
240	0xbd9461fe	-0.07245253
241	0xbd75339e	-0.05986368
242	0x3db04560	0.08606982
243	0xbe1a38af	-0.15060686
244	0xbdee0be5	-0.116233625
245	0xbdcee71a	-0.10102673
246	0x3d58d336	0.0529358
247	0x3dac98c7	0.084275775
248	0xbdb692bb	-0.08914705
249	0x3e258d0c	0.16167086
250	0xbd7d4cbc	-0.061840758
251	0xbda427f2	-0.080154315
252	0x3d7d58a3	0.06185211
253	0xbcab188b	-0.020885726
254	0x3d1d8e2d	0.038465668
255	0x3e33bbfc	0.17552179
