results/pretraining_samples_effect_results/Dataset 2/pre_rate=0.4/Experiment2(1C-5)/from_Dataset 2_ft_model.pth (torch, 95756 bytes, 27 tensors)

cnn1.0.weight f4 [16, 1, 3]
0	0xbea78d56	-0.32725018
1	0xbeab20d0	-0.3342347
2	0x3dac1598	0.08402556
3	0xbe9e08ea	-0.30866176
4	0x3ee91ee6	0.45531386
5	0xbec8c560	-0.39213085
6	0xbe76e25c	-0.24109787
7	0xbcde2150	-0.027115494
8	0x3e0802bb	0.13282292
9	0xbe87e2eb	-0.26540312
10	0x3efaa55c	0.48954284
11	0x3f17f3be	0.59356296
12	0x3eff183d	0.4982318
13	0x3c553c21	0.013014824
14	0x3f1800f9	0.59376484
15	0x3ddbf972	0.10740937
16	0xbed46be2	-0.41488558
17	0x3ec3e3b2	0.38259655
18	0x3f219040	0.63110733
19	0xbe563554	-0.2091878
20	0x3efd08a7	0.49420664
21	0x3d9dda39	0.07707638
22	0xbef53df6	-0.47898835
23	0x3e9e9218	0.30970836
24	0xbe2d9a38	-0.16953361
25	0x3e2bdfcd	0.16784592
26	0x3e8c8eba	0.27452642
27	0x3b8fc614	0.0043876264
28	0xbe861397	-0.2618682
29	0xbf066ed1	-0.5251284
30	0xbbdb5228	-0.0066931434
31	0xbd328b60	-0.04358995
32	0x3ee312a1	0.4435015
33	0x3ee0723e	0.4383716
34	0xbe03be38	-0.12865531
35	0x3ea5e664	0.32402337
36	0xbcdf86d5	-0.027285973
37	0xbe8c964a	-0.2745841
38	0xbee476fe	-0.44622034
39	0x3eac74e0	0.3368292
40	0x3d86e290	0.06586182
41	0xbed6d475	-0.41958967
42	0x3eba1493	0.36343822
43	0x3eae5930	0.3405242
44	0xbdff4451	-0.12464202
45	0x3ef4aece	0.47789615
46	0xbebeb68e	-0.37248653
47	0xbdc8766b	-0.097882114

cnn1.0.bias f4 [16]
0	0xbd8d388e	-0.068955526
1	0x3e7181b5	0.23584636
2	0x3e019e78	0.12658107
3	0x3ec9936e	0.39370292
4	0xbec45139	-0.38343218
5	0xbe8112d0	-0.25209665
6	0xbe9241f7	-0.28565952
7	0xbd8aef3b	-0.06783911
8	0x3e6afe2c	0.22948521
9	0xbf028e43	-0.50998324
10	0xbf047765	-0.5174468
11	0x3d590b45	0.052989263
12	0x3ea82d19	0.32846907
13	0xbe96e33b	-0.29470238
14	0xbdc1700d	-0.094452
15	0x3f118f1a	0.5685898

cnn2.0.weight f4 [32, 16, 3]
0	0x3d158da1	0.03651202
1	0x3dab70a4	0.08371094
2	0xbdc3f7dc	-0.0956876
3	0xbbd3f156	-0.0064679785
4	0xbc74fde1	-0.014953108
5	0xbc1280d9	-0.0089418525
6	0x3dd1e4eb	0.10248741
7	0x3d8bbcc5	0.06823114
8	0x3dddf5b6	0.10837881
9	0xbd9c3cbe	-0.07628773
10	0x3d8ac545	0.067759074
11	0x3d8e6732	0.06953277
12	0x3d086d48	0.033307344
13	0x3d843239	0.06454892
14	0xbb8c79f3	-0.0042869984
15	0x3c94b0fe	0.018150803
16	0x3e1014ba	0.14070407
17	0xbdd70221	-0.10498453
18	0x3dd104b8	0.10205978
19	0x3e7f4362	0.24928048
20	0x3e83dfb1	0.257566
21	0xbdea6386	-0.11444764
22	0x3d4c9fcd	0.049957085
23	0x3d12c962	0.035836585
24	0x3ca8abd8	0.020589754
25	0x3e0cf41e	0.13764998
26	0x3d37c17f	0.044862267
27	0xbdf3215d	-0.11871598
28	0xbc609b9c	-0.013708975
29	0xbcb9ce03	-0.022681242
30	0x3e0a18ab	0.13485973
31	0xbd8348f0	-0.06410396
32	0xbdb1e4fc	-0.086862534
33	0xbdbc5349	-0.09195573
34	0x3d95b9e9	0.0731085
35	0xbd939a44	-0.07207158
36	0xbddda96b	-0.108233295
37	0x3dd61455	0.10453097
38	0x3d6bfcbd	0.057614077
39	0xbd825113	-0.0636312
40	0xbdd0ed52	-0.10201515
41	0x3d58507a	0.052811123
42	0x3d758177	0.05993792
43	0xb8ac4f7b	-8.2164035e-05
44	0x3e1ebb89	0.15501226
45	0x3b0a88ed	0.0021138743
46	0x3d304ed3	0.043043923
47	0xbe0ca7c3	-0.13735871
48	0x3e082ab4	0.1329754
49	0xbd93c939	-0.072161146
50	0x3d8660f2	0.065614596
51	0x3d19821a	0.03747759
52	0x3d935bc2	0.07195236
53	0x3dc00593	0.09376063
54	0xbdc53c52	-0.09630646
55	0xbda19170	-0.07889068
56	0x3c74df54	0.014945824
57	0x3dcd0b1a	0.10011883
58	0xbe19bcf1	-0.15013482
59	0x3d062665	0.03275146
60	0x3dbd3128	0.092378914
61	0xbdf7d503	-0.12101176
62	0xbcc2eec1	-0.023795487
63	0x3dbd9ff4	0.09259024
64	0xbacb6c6a	-0.0015519981
65	0xbdbe454d	-0.09290562
66	0xbde84998	-0.11342162
67	0xbde4251c	-0.111398906
68	0x3c9edac8	0.019391432
69	0xbe007937	-0.1254624
70	0x3d98ca15	0.07460419
71	0x3dd9d6cb	0.10636672
72	0xbd890d98	-0.06692046
73	0x3da049a2	0.07826544
74	0xbe039854	-0.12851077
75	0x3dca8e66	0.098904416
76	0x3dc9a6ed	0.09846292
77	0xbdc982c0	-0.09839392
78	0x3cb84430	0.022493452
79	0x3d841526	0.06449346
80	0x3d5700c0	0.05249095
81	0x3d23aeed	0.039961744
82	0xbb5b78ef	-0.003348883
83	0x3d9772d1	0.07394946
84	0x3c64b71d	0.013959673
85	0x3d0f32a3	0.0349604
86	0x3dce7301	0.10080529
87	0xbd3df157	-0.046372738
88	0xbd51be1e	-0.0512067
89	0x3d8ce17e	0.06878947
90	0x3c28b0e1	0.0102960775
91	0x3dbc915c	0.092074126
92	0x3db704a0	0.08936429
93	0xbe191484	-0.14949232
94	0xbdf5e50b	-0.12006577
95	0x3d5124de	0.05106055
96	0xbc0b982d	-0.008520168
97	0xbdefcf8e	-0.1170951
98	0xbdd4dd8c	-0.10393819
99	0x3d98c1b5	0.07458822
100	0xbd8295a2	-0.063761964
101	0xbd8077a0	-0.06272817
102	0x3db458d0	0.08806002
103	0xbccf66dd	-0.025317604
104	0x3e0f9c14	0.14024383
105	0x3de2ebaf	0.11080109
106	0x3e0341bd	0.12818046
107	0xbc39603c	-0.011314448
108	0xbd6beb83	-0.05759765
109	0xbe244381	-0.16041376
110	0xbdd18227	-0.10229903
111	0x3d06e532	0.03293342
112	0xbdeddad7	-0.11614006
113	0x3e03428d	0.12818356
114	0xbda810fb	-0.08206364
115	0x3d7b9cb6	0.061428748
116	0xbdcb6016	-0.09930436
117	0xbd343b2e	-0.04400175
118	0xbe002361	-0.12513496
119	0xbe1281f3	-0.14307384
120	0x3da866a6	0.08222704
121	0xbdab7848	-0.08372551
122	0xbd08b526	-0.03337588
123	0xbdc43fbf	-0.09582471
124	0xbe05db0c	-0.13071841
125	0xbda90458	-0.08252782
126	0xbd631cf5	-0.055447537
127	0xbd2335c1	-0.039846186
128	0xbd5d7046	-0.05406215
129	0x3d151d1a	0.036404707
130	0x3de08785	0.10963348
131	0x3e113170	0.14179015
132	0xbb153df3	-0.002277252
133	0x3d07bb94	0.033137873
134	0x3d617412	0.055042334
135	0xbd83d7d5	-0.06437651
136	0xbe0bd87a	-0.13656798
137	0x3d5b34c4	0.053517118
138	0xbdb9461f	-0.09046578
139	0x3d9dcb76	0.07704823
140	0xbe06164f	-0.13094448
141	0xbb5312b6	-0.0032207198
142	0xbc7fbd1b	-0.015609051
143	0xbda6104d	-0.08108578
144	0xbda288b7	-0.079362325
145	0x3cec533c	0.028848283
146	0x3db999b0	0.09062517
147	0xbcb473b5	-0.02202783
148	0x3df27ad0	0.11839831
149	0xbd07e4fb	-0.033177357
150	0xbdecf790	-0.11570656
151	0xbe041250	-0.1289761
152	0xbda67ca1	-0.0812924
153	0xbdd8fb0f	-0.105947606
154	0xbc0ed0a2	-0.008716734
155	0x3df1cc28	0.11806518
156	0x3d2387bd	0.039924372
157	0x3dcf2e4f	0.101162545
158	0xbdfeb352	-0.124365464
159	0xbc6ba7b0	-0.0143832415
160	0xbd8c21cb	-0.06842383
161	0x3e04ea42	0.12979987
162	0xbce3ccbe	-0.02780759
163	0xbb34f6e0	-0.002761297
164	0x3d262e5c	0.040571555
165	0x3db64913	0.089006566
166	0xbd993154	-0.07480112
167	0xbd0aad04	-0.033856407
168	0xbdbcff12	-0.09228338
169	0xbdf25b45	-0.118338145
170	0x3d25de1c	0.040495023
171	0x3e03ae50	0.12859464
172	0x3c2055c7	0.009786076
173	0xbdc34223	-0.09534099
174	0x3e0ce11f	0.13757752
175	0x3b775728	0.0037741158
176	0x3df470ee	0.11935602
177	0x3d2d5b41	0.042323355
178	0xbd386c5e	-0.045025222
179	0x3d18248e	0.037144236
180	0x3e0ef04c	0.13958853
181	0xbd959b7f	-0.07305049
182	0x3d109837	0.035301413
183	0x3d73a82a	0.059486546
184	0xbdc81838	-0.09770244
185	0xbc2a0d38	-0.010379128
186	0x3be823d1	0.007084348
187	0xbd0c41a1	-0.034242276
188	0x3d0b72fe	0.034045212
189	0xbd547c68	-0.051876456
190	0xbe129c0d	-0.14317341
191	0xbc0413f1	-0.008061395
192	0x3e0e7d36	0.13914952
193	0xbda93f09	-0.08263976
194	0xbd6b7a0b	-0.057489436
195	0xbe0c0de2	-0.13677171
196	0x3dd4fe14	0.10400024
197	0x3dd9a49a	0.106270984
198	0x3d8129a1	0.06306768
199	0xbd9e7842	-0.07737781
200	0xbd34ba81	-0.044123176
201	0xbde6c796	-0.11268537
202	0x3d2893f9	0.041156743
203	0xbbf3c533	-0.0074392795
204	0x3d92b2fd	0.071630456
205	0xbddb650e	-0.10712634
206	0xbd5a46f1	-0.05329031
207	0x3df84ee3	0.121244214
208	0x3c6ce041	0.014457763
209	0xbdf9829f	-0.12183117
210	0x3ddb7103	0.10714915
211	0xbdb3a54e	-0.08771764
212	0xbb9b8371	-0.0047458936
213	0xbbd4a3e7	-0.0064892652
214	0xbdc5da78	-0.0966081
215	0xbcb511e7	-0.022103263
216	0xbc958b85	-0.018255005
217	0xbd36f338	-0.044665545
218	0x3cc30dee	0.023810353
219	0x3dc08cd4	0.09401861
220	0x3d90ea5f	0.07075953
221	0x3b3e3e62	0.0029028882
222	0x3d46c5a6	0.048528336
223	0x3da4ba4b	0.08043345
224	0xbd260997	-0.04053649
225	0xbe0decaa	-0.13859811
226	0x3de79abf	0.11308812
227	0x3e0f11f9	0.139717
228	0xbcff8b2a	-0.031194288
229	0xbe014ccd	-0.12626953
230	0x3dfe0ce3	0.12404802
231	0x3dcce6e1	0.10004974
232	0xbde44996	-0.11146848
233	0xbd2e39dc	-0.042535648
234	0xbd3cf5ff	-0.046133038
235	0x3b1c2376	0.0023824847
236	0xbc2adea5	-0.010429059
237	0x3d82032a	0.0634826
238	0x3d2cd2f7	0.04219338
239	0x3dd7a899	0.10530204
240	0xbd90fdd0	-0.07079661
241	0xbe01dd8d	-0.12682171
242	0x3ddcb004	0.1077576
243	0xbe038dd2	-0.12847069
244	0xbc52387b	-0.012830849
245	0x3e18630c	0.14881533
246	0x3df87299	0.12131233
247	0xbd17b077	-0.037033524
248	0x3dc90130	0.098146796
249	0x3d65437f	0.055972572
250	0xbc959790	-0.018260747
251	0xbc20c326	-0.009812152
252	0xbe2350da	-0.15948811
253	0x3d1ad0d8	0.037796825
254	0xbcdbdf5f	-0.02683991
255	0xbd4d7e9b	-0.05016957

cnn2.0.bias f4 [32]
0	0x3d1b46c4	0.037909284
1	0xbd30d616	-0.04317292
2	0x3bf8b660	0.0075901
3	0xbd7494ea	-0.059712328
4	0x3dcfbd44	0.101435214
5	0xbcdf6435	-0.027269462
6	0x3e1db8d6	0.1540254
7	0x3d0c2115	0.034211237
8	0x3e13bd7e	0.14427754
9	0xbe04a26a	-0.12952581
10	0x3c2a3b51	0.010390119
11	0xbdfa388f	-0.12217819
12	0xbdfa0e2c	-0.12209734
13	0xbd5b75cf	-0.053579148
14	0xbb6243a6	-0.0034525185
15	0xbdc1020d	-0.09424219
16	0x3dae6822	0.085159555
17	0x3e1306b3	0.14358024
18	0x3de3ce93	0.11123385
19	0xbdf9c000	-0.12194824
20	0xbdc680d8	-0.09692544
21	0x3df6447b	0.1202478
22	0xbe00028f	-0.12500976
23	0xbce0cd17	-0.027441544
24	0xbdcb6185	-0.0993071
25	0x3e2974d1	0.16548468
26	0x3cd47006	0.025932323
27	0xbda861c9	-0.08221776
28	0xbce2a0c6	-0.027664553
29	0x3da54c4e	0.080711946
30	0xbd9f8df8	-0.0779075
31	0xbcfd2603	-0.030901914

lstm1_1.weight_ih_l0 f4 [64, 32]
0	0x3e642716	0.22280535
1	0xbe19113f	-0.14947985
2	0xbd876861	-0.066117056
3	0x3d16d188	0.03682092
4	0x3de923f1	0.113838084
5	0x3e6b44a6	0.22975406
6	0xbe40b1ff	-0.188179
7	0x3e335358	0.17512262
8	0xbe762c77	-0.240404
9	0x3ddfd0c4	0.10928491
10	0x3e45a3e6	0.19300804
11	0x3df40226	0.11914472
12	0xbdf4586c	-0.11930928
13	0x3d6ebdd0	0.058286488
14	0x3dfecb0c	0.12441072
15	0x3c84c25d	0.01620596
16	0x3daad708	0.08341795
17	0xbe5e81fa	-0.2172927
18	0x3e0ad41c	0.13557476
19	0xbd914f10	-0.07095158
20	0x3e6ea4cc	0.23305053
21	0xbd6ea92a	-0.058266796
22	0x3d58cd6f	0.05293029
23	0xbe593da7	-0.21214925
24	0x3b255300	0.0025226474
25	0x3e2cc103	0.16870503
26	0xbd2c25b2	-0.042028137
27	0x3e2aec99	0.16691817
28	0xbe7fdc36	-0.24986348
29	0xbd9a1a31	-0.07524527
30	0xbdf028c0	-0.117265224
31	0xbb689c0c	-0.0035493402
32	0xbdf7bb15	-0.1209623
33	0xbe2b0487	-0.16700946
34	0xbe59ce24	-0.21270043
35	0xbe6dc784	-0.2322064
36	0x3def8aa0	0.116963625
37	0x3e75481c	0.23953289
38	0x3e07bd43	0.13255791
39	0xbe2a9684	-0.1665898
40	0x3e09b333	0.13447265
41	0x3df7d6c0	0.12101507
42	0x3c543c13	0.012953776
43	0x3e117088	0.14203084
44	0xbe03f87a	-0.12887755
45	0x3df9d258	0.12198323
46	0x3d93a5be	0.07209347
47	0x3db068aa	0.08613713
48	0x3e8031b1	0.25037912
49	0xbe7d24d2	-0.24721077
50	0x3cbf1b72	0.023328517
51	0xbe6070ec	-0.21918076
52	0xbabb6d00	-0.0014299452
53	0x3d98aee5	0.074552335
54	0x3e08b682	0.13350871
55	0xbdf1a0d1	-0.117982514
56	0xbe2b6234	-0.1673668
57	0x3aedb029	0.0018134165
58	0x3b82b044	0.0039882977
59	0x3da8f796	0.08250348
60	0x3dbe851f	0.093027346
61	0xbd57d458	-0.05269274
62	0x3d9ad4bd	0.07560108
63	0xbe43a443	-0.1910563
64	0xbe1203b9	-0.14259233
65	0xbd499f01	-0.049223904
66	0x3d3e5d40	0.04647565
67	0xbe3f2c6c	-0.1866929
68	0x3da937e4	0.082626134
69	0x3e71160c	0.23543566
70	0x3e55c478	0.20875728
71	0xbddcc964	-0.107806
72	0x3e6eda84	0.23325545
73	0x3e76ec40	0.2411356
74	0x3e6e2522	0.23256353
75	0xbdd52bcf	-0.104087465
76	0xbe107850	-0.14108396
77	0xbe7a3736	-0.24435124
78	0xbdc1c9d8	-0.09462327
79	0x3e1b8040	0.15185642
80	0xbd519970	-0.05117172
81	0x3df0a87c	0.11750886
82	0x3d65d182	0.056108005
83	0x3dade461	0.084908254
84	0x3e0970fc	0.13422006
85	0xbdbd8d6d	-0.092554905
86	0x3d0a332b	0.033740204
87	0xbe07f701	-0.13277818
88	0x3e693444	0.22773844
89	0xbe2c8a27	-0.16849576
90	0xbe09f81e	-0.13473555
91	0xbc81268c	-0.01576545
92	0xbd49b3bf	-0.049243685
93	0xbd92469b	-0.07142373
94	0xbd468e12	-0.048475333
95	0xbe3add38	-0.18248451
96	0x3c83eab7	0.016103132
97	0x3d24b35e	0.04021012
98	0x3daa544d	0.0831686
99	0xbd9c34dc	-0.076272696
100	0x3c7fb7ea	0.015607813
101	0x3e4e8ce4	0.20170933
102	0x3e10de48	0.14147294
103	0x3e576f14	0.21038467
104	0xbe2652db	-0.16242544
105	0x3d27f6c0	0.041006804
106	0x3e7e738e	0.24848768
107	0x3bbca9b5	0.0057575353
108	0xbcc49840	-0.02399838
109	0x3e5b50d0	0.21417546
110	0x3e1c337b	0.15254013
111	0x3d7355f4	0.059408143
112	0x3e2c30c4	0.16815478
113	0x3d1dfc10	0.038570464
114	0xbc22d159	-0.009937608
115	0xbc964349	-0.018342631
116	0xbd3bf728	-0.045890003
117	0x3e352276	0.17688927
118	0xbdb8ca0a	-0.09022911
119	0xbd98860c	-0.074474424
120	0x3e50d308	0.20393002
121	0xbe6fc07b	-0.23413269
122	0xbd9c6a02	-0.07637407
123	0xbe15a4d8	-0.14613664
124	0xbd9360ae	-0.071961746
125	0xbe09a6ae	-0.1344249
126	0x3dbae87f	0.09126376
127	0x3e067580	0.1313076
128	0x3dc68b8b	0.096945845
129	0xbcbe757f	-0.023249386
130	0x3d9db1e4	0.076999456
131	0x3e2edda2	0.17076734
132	0xbe366b4a	-0.17814365
133	0x3d1b3384	0.037890926
134	0xbe3ef338	-0.18647468
135	0xbe44bfec	-0.19213837
136	0xbe758c84	-0.23979384
137	0xbe1d931e	-0.15388152
138	0xbd88af02	-0.06674005
139	0x3e043c2a	0.12913576
140	0x3e51d35e	0.20490786
141	0x3becfb80	0.0072321296
142	0xbe5c9114	-0.21539718
143	0xbdf378f4	-0.11888304
144	0xbde6ced9	-0.11269922
145	0x3e01065e	0.12600085
146	0x3e54833c	0.20753187
147	0xbd840205	-0.06445698
148	0x3d484778	0.048896283
149	0xbe4e7f73	-0.20165806
150	0x3c9fccc6	0.019506823
151	0x3e7f53b9	0.24934281
152	0xbdeea404	-0.11652377
153	0x3d49b922	0.049248822
154	0xbe6c736f	-0.2309091
155	0x3e55ac0d	0.20866413
156	0xbd8ebfec	-0.069702
157	0xbe94e74d	-0.29082718
158	0x3e4a8398	0.19776762
159	0x3e4e119f	0.2012391
160	0x3e1a9f32	0.1509979
161	0xbca67664	-0.020320125
162	0xbc8f945e	-0.017526802
163	0x3cc9dea0	0.024642289
164	0xbe0cbb7d	-0.13743396
165	0xbd884b41	-0.066549785
166	0xbe4a5773	-0.19759922
167	0xbe1470ce	-0.14496157
168	0xbd548fc4	-0.051894918
169	0x3e353732	0.17696837
170	0x3e5c87f0	0.21536231
171	0x3df5356d	0.11973081
172	0x3dcf352c	0.101175636
173	0x3e2ef8e2	0.17087129
174	0x3e199f0e	0.15002081
175	0xbd9f95d1	-0.07792247
176	0xbde04f35	-0.109526075
177	0x3c540be0	0.012942284
178	0xbe5ef690	-0.21773744
179	0xbe0fe99a	-0.14053956
180	0xbe7281d2	-0.23682335
181	0x3e03a16a	0.12854543
182	0x3e6cb842	0.23117164
183	0x3d2d949d	0.042378057
184	0x3e08c7e0	0.13357496
185	0xbe6088e8	-0.21927226
186	0x3e511e20	0.20421648
187	0xbdd2d3ca	-0.10294302
188	0x3e5c0d47	0.2148944
189	0xbded5060	-0.11587596
190	0xbe384213	-0.17993955
191	0xbbfe5af3	-0.007762307
192	0x3c9c641b	0.019090703
193	0xbe817d83	-0.2529107
194	0xbe84e771	-0.25957826
195	0xbcf2db40	-0.029645562
196	0x3e19e405	0.15028389
197	0x3e54b10a	0.2077066
198	0x3dd8b17c	0.105807275
199	0xba960000	-0.0011444092
200	0xbd93e991	-0.07222284
201	0xbe3366ca	-0.1751968
202	0x3d46920e	0.048479132
203	0x3dc870eb	0.097871624
204	0x3d2e2c98	0.042522997
205	0x3e23c750	0.15994
206	0x3d753b9a	0.059871294
207	0x3e28f67b	0.16500275
208	0x3e3b5b86	0.18296632
209	0xbd40dd90	-0.0470863
210	0xbd672f54	-0.05644162
211	0xbd8822eb	-0.06647285
212	0xbe10507c	-0.14093202
213	0x3dd09eb7	0.101865225
214	0x3e697dda	0.22801915
215	0xbe85233e	-0.2600345
216	0xbe016c12	-0.12638882
217	0xbdaa56a0	-0.08317304
218	0x3dc5a1e0	0.09650016
219	0x3e62e3ef	0.22157262
220	0xbe6882cd	-0.22706147
221	0x3daa4adb	0.08315059
222	0x3db1c0c7	0.086793475
223	0xbdd5f5a4	-0.10447243
224	0x3e99a2ea	0.30007106
225	0xbe5bcce4	-0.21464878
226	0xbd11a663	-0.03555907
227	0xbcd531e0	-0.026024759
228	0xbe1b6f57	-0.15179192
229	0xbe0dff4a	-0.13866916
230	0x3e0360a0	0.12829828
231	0x3e6be38a	0.23036018
232	0x3db5cdad	0.0887712
233	0xbe54d75a	-0.20785275
234	0xbe7d1f92	-0.24719074
235	0xbc21d9f1	-0.009878621
236	0x3e167192	0.14691761
237	0x3e5a128a	0.21296135
238	0x3e0e3186	0.13886079
239	0xbe8350fe	-0.2564773
240	0x3df6c319	0.12048931
241	0x3e510b9c	0.20414585
242	0x3e00a2dc	0.12562126
243	0xbe3c3ac0	-0.18381786
244	0x3e7a05aa	0.24416223
245	0x3d3c6749	0.045996938
246	0x3e86ecc8	0.26352525
247	0x3e51c2e8	0.20484507
248	0xbe69237a	-0.2276744
249	0x3e3d0b28	0.18461287
250	0xbd41ed7b	-0.04734562
251	0x3df90245	0.12158636
252	0x3d93f5ac	0.072245926
253	0x3e4fae77	0.20281397
254	0x3ea2394e	0.31684345
255	0xbd666995	-0.056253035

lstm1_1.weight_hh_l0 f4 [64, 16]
0	0x3dfbf4de	0.12302564
1	0x3d740808	0.05957797
2	0xbb09ab4a	-0.0021006637
3	0x3e822270	0.254169
4	0xbd50c62a	-0.050970234
5	0x3e44f4dc	0.19234031
6	0x3e1d781c	0.1537785
7	0xbc1a9f82	-0.009437444
8	0x3e44084d	0.19143791
9	0x3e3378d2	0.17526558
10	0x3e76ac86	0.2408925
11	0x3e0253ad	0.12727232
12	0x3e341f53	0.17590074
13	0xbb01f7b4	-0.001983148
14	0xbe6ebc54	-0.23314029
15	0xbe15f379	-0.14643659
16	0xbe255363	-0.16145091
17	0x3e2b3c9a	0.16722336
18	0x3af8670b	0.0018951608
19	0xbde470ce	-0.11154328
20	0xbe3c80b9	-0.18408479
21	0xbde2f76f	-0.110823505
22	0xbe04b97c	-0.12961382
23	0x3e9a1c0a	0.30099517
24	0x3e5b926a	0.21442571
25	0x3e634e4e	0.2219784
26	0xbe1976e1	-0.14986755
27	0xbe6d029a	-0.23145524
28	0xbdc22b50	-0.094809175
29	0x3d79dc48	0.061001092
30	0x3e160c63	0.14653163
31	0xbdcb6d1e	-0.09932922
32	0xbe6120a4	-0.21985108
33	0xbe8306b4	-0.25591052
34	0x3e397b23	0.18113379
35	0xbbcf9a14	-0.006335506
36	0x3e0c490d	0.13699742
37	0xbde4884c	-0.11158809
38	0xbd64ab39	-0.055827353
39	0x3e05e4d0	0.13075566
40	0x3e2f7985	0.171362
41	0xbdcbfc7e	-0.099602684
42	0x3e215b26	0.15757427
43	0x3df05885	0.11735634
44	0xbe3f368c	-0.18673152
45	0x3d3702ac	0.044680282
46	0xbdd721bc	-0.10504481
47	0x3d96bb5e	0.07359956
48	0xbc7ab302	-0.015301468
49	0xbe56167b	-0.20907013
50	0x3d962bb3	0.07332554
51	0x3d6fc2ea	0.058535494
52	0xbe847087	-0.25867102
53	0xbe7d320d	-0.24726124
54	0xbd5b0aec	-0.053477213
55	0x3c201483	0.009770515
56	0x3d29e0b3	0.041474055
57	0xbe3d26ef	-0.18471883
58	0x3d42dbda	0.047572948
59	0x3df30c5e	0.11867593
60	0xbe1dcb68	-0.15409625
61	0x3e0045a7	0.1252657
62	0x3e2f5a66	0.17124328
63	0xbe4f2573	-0.2022913
64	0xbcdb0442	-0.026735429
65	0xbe12bd32	-0.14329985
66	0xbd0ba587	-0.034093406
67	0x3d483169	0.048875246
68	0xbe6c06b8	-0.23049438
69	0x3e493558	0.19649255
70	0xbe117638	-0.14205253
71	0xbd928fd6	-0.07156341
72	0xbd0cd9ac	-0.034387276
73	0xbe67f47e	-0.2265186
74	0xbe1b969f	-0.15194176
75	0x3d8ce84a	0.06880243
76	0xbe1c5304	-0.15266043
77	0xbe60c9ee	-0.2195203
78	0xbda58e06	-0.080837294
79	0x3e77da5f	0.24204396
80	0xbe476b88	-0.19474614
81	0xbe08a235	-0.13343127
82	0xbe1dc2db	-0.15406363
83	0x3e4c1496	0.19929728
84	0x3e64b10a	0.2233316
85	0x3e21b213	0.15790586
86	0x3e30875f	0.1723914
87	0x3deb50c3	0.114900135
88	0x3e288640	0.16457462
89	0xbd8be3c2	-0.06830551
90	0x3e3aa727	0.18227826
91	0xbe816c0c	-0.25277746
92	0x3e59d4be	0.21272561
93	0x3dcc7957	0.09984081
94	0xbce9634e	-0.028489735
95	0x3e170f19	0.14751853
96	0x3e3da80d	0.18521138
97	0x3de69d73	0.112605
98	0x3e7219b3	0.23642616
99	0xbd29d8bc	-0.04146646
100	0xbdb3ff57	-0.087889366
101	0x3e74bd48	0.2390033
102	0xbe528c7c	-0.20561403
103	0xbdb996b4	-0.090619475
104	0xbdfeb70a	-0.12437256
105	0xbda4c56e	-0.08045469
106	0xbdea7bd5	-0.114494
107	0xbe37ea5c	-0.17960495
108	0x3c3c0114	0.011474866
109	0x3e572b61	0.21012641
110	0x3e4309d0	0.19046712
111	0x3e77f093	0.24212866
112	0xbdafbf0b	-0.085813604
113	0xbc3c6f0e	-0.011501087
114	0xbe48118a	-0.1953794
115	0xbea94619	-0.33061293
116	0x3d09d337	0.033648696
117	0x3e27d2a7	0.16388951
118	0xbdf7d03e	-0.12100266
119	0x3ec25801	0.37957767
120	0xbdd6fb7b	-0.10497185
121	0x3e987b65	0.29781643
122	0xbdfa608e	-0.122254476
123	0xbc820258	-0.015870258
124	0xbdb0c837	-0.08631938
125	0x3e3bff9b	0.18359224
126	0x3ca35b50	0.019941002
127	0xbddd8085	-0.10815529
128	0x3e2fab99	0.17155303
129	0x3e37a53d	0.17934127
130	0x3e5c643e	0.21522614
131	0x3d8018a0	0.06254697
132	0xbcb1f7ef	-0.02172467
133	0xbe1aea00	-0.15128326
134	0x3e40510d	0.18780918
135	0x3e3e45f6	0.18581375
136	0xbd0cf789	-0.034415755
137	0xbdf9e6c8	-0.12202221
138	0xbe2e211f	-0.17004822
139	0xbe953765	-0.29143825
140	0x3e3eb75c	0.18624634
141	0xbd81c222	-0.06335856
142	0x3dd503ef	0.10401141
143	0xbdc32ad5	-0.09529654
144	0x3e55f25d	0.20893236
145	0xbe25aaa5	-0.16178377
146	0xbe5a1153	-0.21295671
147	0x3e18d0c6	0.14923391
148	0x3e19289e	0.149569
149	0x3e750641	0.23928167
150	0xbd317e68	-0.04333344
151	0xbe27ff7b	-0.16406052
152	0xbe299e1f	-0.16564225
153	0xbe0b1c5a	-0.13585034
154	0x3d7c8add	0.061655868
155	0xbd456244	-0.048189417
156	0xbe2d81ca	-0.16944042
157	0x3e688aed	0.22709246
158	0xbca2ce6c	-0.01987382
159	0xbe503d52	-0.20335892
160	0xbe2653d2	-0.16242912
161	0x3d0f31b7	0.03495952
162	0x3d8dad1d	0.06917784
163	0x3d83ce90	0.06435883
164	0x3e1ed5d3	0.15511255
165	0x3e2f0d98	0.1709503
166	0xbd8ab6dd	-0.0677316
167	0x3e59884e	0.21243402
168	0x3cc62614	0.024188079
169	0x3daf9391	0.08573068
170	0x3dadeb08	0.08492094
171	0x3e15f101	0.14642717
172	0xbe2235b6	-0.15840802
173	0x3ca66eaf	0.02031645
174	0x3e863ff7	0.26220676
175	0x3db3f193	0.08786311
176	0x3da0302e	0.078216895
177	0xbdcd36f9	-0.10020251
178	0xbe2bf6d5	-0.16793378
179	0xbe8c519a	-0.27406007
180	0x3db94f0e	0.090482816
181	0xbd88e65d	-0.06684563
182	0xbe3ae4fa	-0.1825141
183	0x3cc7ef69	0.024406152
184	0x3bf52222	0.0074808756
185	0xbdcca406	-0.099922225
186	0x3e3ebd99	0.18627013
187	0xbdf51a6f	-0.119679324
188	0x3ea63eb7	0.32469723
189	0xbe69cea5	-0.22832735
190	0x3d7d8f11	0.061904017
191	0x3eafac10	0.3431096
192	0xbd0a90f3	-0.03382964
193	0xbde9301d	-0.1138613
194	0x3e0b7153	0.13617449
195	0xbd538f48	-0.051650316
196	0x3e12e3a8	0.14344656
197	0xbe5171aa	-0.20453516
198	0x3bec1ed7	0.007205825
199	0x3e928d69	0.28623512
200	0xbe11d4d4	-0.14241344
201	0xbe201fbf	-0.1563711
202	0x3e699f45	0.22814663
203	0x3da254f3	0.07926359
204	0x3e21544a	0.1575481
205	0x3c05fa1a	0.008177305
206	0x3dc4a703	0.096021675
207	0x3e2af00f	0.16693138
208	0xbd8673e2	-0.06565072
209	0xbe2b27a9	-0.16714348
210	0x3db51a80	0.08842945
211	0x3ce3860d	0.027773881
212	0x3e468180	0.19385338
213	0x3ac16e22	0.0014757554
214	0x3ca47aa3	0.020078009
215	0x3e4a7e3c	0.19774717
216	0xbe361343	-0.17780785
217	0x3ca3f402	0.020013813
218	0xbe479ca2	-0.19493344
219	0xbda718bf	-0.08159017
220	0xbe02e214	-0.12781554
221	0x3df933d3	0.12168088
222	0x3dcf6405	0.10126499
223	0x3d88e887	0.06684976
224	0x3bd1267b	0.006382761
225	0x3e456f0a	0.1928064
226	0x3deddc6d	0.116143085
227	0xbddb3397	-0.10703199
228	0x3e115db8	0.14195907
229	0x3e2ce848	0.16885483
230	0xbd8b7456	-0.06809299
231	0xbe83a78f	-0.25713775
232	0x3d24ff32	0.040282436
233	0x3d35c8c7	0.04438093
234	0xbca9eab3	-0.020741796
235	0xbb21eb76	-0.0024706996
236	0x3dbf95cd	0.09354744
237	0xbd8c9b79	-0.068655916
238	0x3d0326c0	0.032019377
239	0x3e01f36a	0.12690511
240	0x3cdcc2c1	0.026948335
241	0xbdc6b65e	-0.097027525
242	0x3dcaceb3	0.09902706
243	0xbe32219c	-0.17395633
244	0xbe1abac2	-0.15110305
245	0xbe00a9a4	-0.12564713
246	0x3e3c24c6	0.18373403
247	0x3bbac1c8	0.00569937
248	0x3cdea1c4	0.027176745
249	0xbdcab098	-0.09896964
250	0x3dd1f224	0.10251263
251	0xbe7a144c	-0.24421805
252	0xbded6944	-0.115923434
253	0x3d82fa3d	0.063953854
254	0xbe676863	-0.22598414
255	0xbd4a3a35	-0.049371917

lstm1_1.bias_ih_l0 f4 [64]
0	0xbde77fa5	-0.11303643
1	0x3dce7aa7	0.10081988
2	0xbe162fee	-0.14666721
3	0xbd1e7c50	-0.038692772
4	0x3da73212	0.08163847
5	0xbe30213e	-0.17200181
6	0x3d1dc2e4	0.03851594
7	0x3e5945a9	0.2121798
8	0xbe6c3b39	-0.23069467
9	0xbc3e61a1	-0.011619956
10	0xbe6c78ab	-0.23092906
11	0x3d713612	0.058889456
12	0x3e769569	0.24080433
13	0x3dfe869b	0.12428018
14	0x3deb510f	0.1149007
15	0x3e55c995	0.20877679
16	0xbe73df99	-0.23815764
17	0xb910e592	-0.00013818432
18	0xbe108376	-0.14112648
19	0x3dd75cff	0.105157845
20	0xbdd2519c	-0.10269472
21	0x3e3eb0d4	0.18622142
22	0x3de12ab7	0.10994475
23	0x3e10dd8e	0.14147016
24	0x3e0bd261	0.13654472
25	0xbccfff48	-0.025390282
26	0x3dc4bd0a	0.09606369
27	0xbe815725	-0.25261799
28	0x3cf08b0a	0.029363174
29	0xbe10e9da	-0.14151707
30	0x3e3afc1b	0.18260233
31	0x3e09b443	0.1344767
32	0x3ca408e7	0.020023776
33	0x3e5e0688	0.21682179
34	0x3aae41b3	0.0013294726
35	0xbde8183d	-0.11332748
36	0x3e2c5a9a	0.16831437
37	0x3e382449	0.17982592
38	0xbe566823	-0.20938163
39	0x3d5b7c15	0.05358513
40	0xbd48e8c7	-0.04905012
41	0x3e0fd10f	0.14044593
42	0xbddab8fd	-0.10679815
43	0x3e287570	0.16451049
44	0x3defe151	0.117128976
45	0xbdd3fa73	-0.10350504
46	0x3d169f91	0.036773268
47	0xbd85378b	-0.065047346
48	0x3e108e61	0.14116813
49	0x3d0457a6	0.03231015
50	0x3a36d8e1	0.00069750665
51	0xbcbd934e	-0.02314153
52	0xbd931b58	-0.0718295
53	0xbe0055bf	-0.1253271
54	0x3e691bde	0.22764537
55	0x3e25193b	0.16122906
56	0xbc381cc4	-0.011237327
57	0x3e603830	0.21896434
58	0xbcb592d3	-0.022164738
59	0x3cbc59a1	0.022991957
60	0x3e2932fb	0.16523354
61	0x3d48d8ca	0.04903487
62	0x3e1aa3bb	0.1510152
63	0xbe687664	-0.22701412

lstm1_1.bias_hh_l0 f4 [64]
0	0x3d90de37	0.07073634
1	0xbe4e67a9	-0.2015673
2	0x3e30c4a0	0.17262506
3	0x3e6f7ca9	0.23387398
4	0xbbbe1787	-0.0058011445
5	0xbc1b9859	-0.009496772
6	0x3dc31886	0.09526162
7	0x3e80c216	0.25148076
8	0xbcee0931	-0.029057117
9	0x3e540a0f	0.20706962
10	0x3d9f2fdf	0.077728026
11	0xbdb72e9c	-0.08944437
12	0x3e768bc9	0.24076761
13	0xbe21560e	-0.15755484
14	0xbe6544e5	-0.22389562
15	0xbe8043a6	-0.25051612
16	0x3e3a560b	0.18196885
17	0xbe33d65c	-0.1756224
18	0x3c46dc06	0.012137419
19	0x3d89d533	0.06730118
20	0xbe4170af	-0.18890642
21	0xbe491714	-0.1963771
22	0xbd967caa	-0.073479965
23	0x3e3b9f59	0.18322505
24	0x3bcd5256	0.0062659187
25	0xbe096340	-0.13416767
26	0xbe44ecfd	-0.19231029
27	0xbe351156	-0.17682394
28	0xbdbcb7cb	-0.09214743
29	0x3e1c0846	0.15237531
30	0xbd99b3bc	-0.07504985
31	0xbe3f3d4d	-0.18675728
32	0x3d9784d9	0.073983856
33	0xbdf4fbce	-0.119620904
34	0xbe1d8af5	-0.15385039
35	0xbdf161c2	-0.11786224
36	0x3deb4801	0.11488343
37	0xbdeb0276	-0.11475079
38	0x3ddcaf56	0.1077563
39	0xbcbfe489	-0.023424404
40	0x3c68ed83	0.014216783
41	0x3e793d23	0.24339728
42	0xbe4b322b	-0.19843356
43	0xbe539552	-0.2066243
44	0x3e389c3e	0.18028352
45	0xbdef35ff	-0.11680221
46	0xbc9be3be	-0.019029494
47	0x3d10b68b	0.035330337
48	0x3e6dcd2d	0.232228
49	0xbd88c0d9	-0.06677408
50	0x3e6490f3	0.22320919
51	0x3dbc7279	0.092015214
52	0x3e623a88	0.2209264
53	0xbaaedec1	-0.0013341532
54	0x3c36973a	0.011144454
55	0x3e01b685	0.12667282
56	0x3e632514	0.22182113
57	0x3cf95ca7	0.030439688
58	0x3ce577da	0.028011251
59	0xbdd54f75	-0.10415546
60	0xbd984c91	-0.07436479
61	0xbe4f328b	-0.20234124
62	0xbe752c71	-0.23942734
63	0x3e636962	0.22208169

lstm1_1.weight_ih_l0_reverse f4 [64, 32]
0	0x3dd4fac8	0.10399395
1	0x3dd5424a	0.10413034
2	0x3e38d8c8	0.18051445
3	0x3d7a0130	0.06103629
4	0x3e0cb29d	0.1374001
5	0x3dc3aba9	0.09554226
6	0x3e0ffa5c	0.14060348
7	0x3de9d980	0.11418438
8	0xbe80e147	-0.25171873
9	0x3d1380a8	0.036011368
10	0x3e2e8085	0.17041214
11	0x3da02dac	0.07821211
12	0x3c701b20	0.014654905
13	0x3d867408	0.065651
14	0xbd1aa194	-0.03775175
15	0x3cc3d5f5	0.023905734
16	0x3dae349e	0.0850613
17	0xbe75bc0a	-0.23997512
18	0xbe0e7b00	-0.13914108
19	0xbdbf72a7	-0.0934804
20	0x3e486e1c	0.19573253
21	0xbd29ee17	-0.041486826
22	0x3e1d9a6a	0.15390936
23	0xbd0725b8	-0.032994956
24	0xbd941d60	-0.07232165
25	0x3e26ed07	0.16301356
26	0x3d0faeb0	0.035078704
27	0xbe7303d9	-0.23731937
28	0xbe344323	-0.17603736
29	0xbd6440af	-0.05572575
30	0x3d4b9aff	0.049708363
31	0xbcba8aef	-0.022771327
32	0xbe2f0ac5	-0.17093952
33	0x3e6b600a	0.22985855
34	0xbc892b4f	-0.016744284
35	0x3e4de19c	0.20105594
36	0x3db852b7	0.090001516
37	0x3e664651	0.22487761
38	0x3e0f1434	0.1397255
39	0x3d341ce8	0.04397288
40	0xbda53a7a	-0.08067794
41	0xbdb2ec50	-0.08736479
42	0x3d38c302	0.04510785
43	0xbd7cb80a	-0.06169895
44	0x3e36fdaa	0.17870203
45	0x3e1d7d54	0.1537984
46	0x3e4a14e1	0.19734527
47	0xbd017fc5	-0.03161599
48	0xbe677287	-0.22602282
49	0xbd854de8	-0.06509
50	0xbe7f7e91	-0.24950625
51	0xbde1c9f3	-0.11024847
52	0xbe248266	-0.16065368
53	0x3e30f1d4	0.1727975
54	0x3d402540	0.046910524
55	0xbe026939	-0.12735452
56	0x3d72a1f8	0.059236497
57	0x3e171ca2	0.14757016
58	0x3e713842	0.23556617
59	0x3c4140f7	0.011795274
60	0xbe4f80b1	-0.20263936
61	0x3dc5efce	0.0966488
62	0xbd6da4af	-0.058018383
63	0x3e15a658	0.14614236
64	0x3e0ba888	0.13638508
65	0x3e14238c	0.14466685
66	0x3d293052	0.041305847
67	0xbd920f60	-0.07131839
68	0xba8117f1	-0.0009849054
69	0xbe2ee255	-0.17078526
70	0xbe12c860	-0.1433425
71	0x3e434a80	0.19071388
72	0x3e5d9d0e	0.21641943
73	0x3e4fbfc2	0.20287994
74	0x3d6864c7	0.056736734
75	0x3e459902	0.19296649
76	0xbda9bd20	-0.08288026
77	0xbe61135e	-0.21980044
78	0xbc9e4c5e	-0.019323524
79	0xbabcb250	-0.0014396403
80	0x3dfe94d1	0.12430728
81	0x3e7d6640	0.24746037
82	0xbe515627	-0.20443021
83	0x3cfa96d8	0.030589506
84	0xbd8e824c	-0.06958446
85	0xbda7f4b1	-0.08200968
86	0xbda8fd3a	-0.08251424
87	0xbb750285	-0.0037385535
88	0x3e4a1170	0.19733214
89	0x3cc6d56b	0.024271687
90	0xbd87130b	-0.06595429
91	0x3e9fa0e7	0.31177446
92	0x3d1b6e55	0.037947018
93	0x3cdfc7f2	0.027317021
94	0x3e80cdcc	0.2515701
95	0xbe1c7e92	-0.15282658
96	0x3e63c234	0.22242051
97	0x3da44235	0.080204405
98	0xbdb42500	-0.0879612
99	0x3e2d4b98	0.16923368
100	0x3e722842	0.2364817
101	0xbd6856a7	-0.056723263
102	0xbd80eebd	-0.06295536
103	0xbd3c5a70	-0.045984685
104	0x3e142492	0.14467075
105	0xbe578f3c	-0.21050733
106	0xbddf1803	-0.10893252
107	0xbdc3e50d	-0.09565172
108	0xbdb65524	-0.08902958
109	0xbdec1378	-0.11527151
110	0xbd4a3374	-0.049365476
111	0xbdac00c1	-0.08398581
112	0x3e47ecea	0.1952397
113	0x3e0ee3ea	0.1395413
114	0xbc8286a1	-0.015933337
115	0x3e571c13	0.21006803
116	0xbbccaac0	-0.006245941
117	0xbd65780e	-0.056022696
118	0x3dc95f8e	0.09832679
119	0x3b6cced5	0.0036134024
120	0xbcef14e0	-0.029184759
121	0x3e8143e5	0.25247112
122	0xbddfbaed	-0.10924325
123	0x3d6dcfde	0.058059566
124	0xbe4192b1	-0.18903615
125	0x3d651a5a	0.055933334
126	0xbe5d78a9	-0.2162806
127	0xbcf11bbd	-0.029432172
128	0x3e921b91	0.28536656
129	0x3e0ac933	0.13553314
130	0xbe0ac67a	-0.13552275
131	0xbde305cc	-0.1108509
132	0xbc94cb41	-0.018163325
133	0xbe535843	-0.20639138
134	0xbe516c29	-0.20451416
135	0xbe767496	-0.24067912
136	0xbe041c10	-0.1290133
137	0x3e018e50	0.12651944
138	0x3d320c7c	0.043468937
139	0x3e3f0b38	0.18656623
140	0xbe11e71a	-0.14248314
141	0xbd0bdab8	-0.034144133
142	0xbdb06ceb	-0.086145245
143	0x3d0e1eee	0.034697466
144	0x3d1fa396	0.038974367
145	0xbda0f844	-0.07859853
146	0xbe619ce9	-0.22032513
147	0xbe08adfa	-0.13347617
148	0xbe028f02	-0.12749866
149	0x3e683e14	0.22679931
150	0x3d98ad8d	0.07454977
151	0x3e1b65f3	0.1517561
152	0x3d89bc28	0.06725341
153	0xbdb09e6e	-0.08623968
154	0x3e676337	0.22596441
155	0xbdfbc988	-0.122942984
156	0xbd7836c6	-0.06059911
157	0x3e12251e	0.14271972
158	0x3da9ae90	0.08285248
159	0x3dfde870	0.123978496
160	0x3eb51da0	0.35374165
161	0xbc518d5d	-0.012790051
162	0x3d7132a4	0.058886185
163	0xbd1ddf80	-0.038543224
164	0xbd23308b	-0.039841216
165	0xbe59c67b	-0.2126712
166	0x3e4823bc	0.19544882
167	0xbdefcfc8	-0.11709553
168	0x3e63eafe	0.22257611
169	0xbce882d0	-0.028382689
170	0x3e7cff87	0.24706851
171	0x3ebfd5e7	0.37467882
172	0xbdd0d5ec	-0.10197052
173	0x3e1f5c8c	0.15562648
174	0x3e32e896	0.17471537
175	0x3de8736b	0.11350139
176	0x3e3ac28a	0.18238273
177	0x3e17a12e	0.14807579
178	0x3dbde152	0.09271492
179	0xbd9ce0d5	-0.07660071
180	0x3d830c38	0.06398815
181	0xbe5efd38	-0.21776283
182	0x3e14191f	0.14462708
183	0x3e1d945b	0.15388624
184	0x3d087560	0.033315063
185	0x3e909d3c	0.2824496
186	0xbe741e38	-0.23839653
187	0x3eb8419c	0.35987556
188	0x3e5d342a	0.2160193
189	0xbe156945	-0.14590938
190	0x3ddaf70b	0.10691651
191	0x3ea29806	0.3175661
192	0x3e4c51e1	0.1995311
193	0xbdf89040	-0.121368885
194	0x3d17ef85	0.037093658
195	0xbd6b5e40	-0.05746293
196	0x3e82d610	0.25553942
197	0x3e0bee67	0.13665162
198	0xbd818c79	-0.06325621
199	0xbba6ae80	-0.00508672
200	0xbcce8533	-0.025209999
201	0xbe2cc1e8	-0.16870844
202	0xbe0f9c47	-0.14024459
203	0x3d05e1e4	0.03268613
204	0xbd05f660	-0.032705665
205	0x3d5b6df0	0.05357164
206	0xbb26677e	-0.0025391276
207	0x3e5c456e	0.2151086
208	0x3e5816d4	0.21102458
209	0xbc3bb760	-0.011457294
210	0xbdf1e394	-0.11810985
211	0xbe5eeed4	-0.21770793
212	0x3e189d0a	0.14903656
213	0xbd0f0619	-0.034917925
214	0x3e99d879	0.30047968
215	0x3e2ad10c	0.16681308
216	0xbd006dd0	-0.031354725
217	0xbd21b632	-0.039480396
218	0x3dd72363	0.10504796
219	0x3df9d510	0.121988416
220	0x3e4f0844	0.20217997
221	0x3c82cd26	0.015966963
222	0x3d80be01	0.0628624
223	0xbe5547fc	-0.20828241
224	0xbe3d439b	-0.1848282
225	0x3e25f643	0.16207223
226	0xbe2f29f0	-0.17105842
227	0x3e31e6ca	0.17373195
228	0xbd252eb1	-0.04032773
229	0xbe3c74ef	-0.18403982
230	0x3d00a456	0.031406723
231	0xbe667fc2	-0.22509673
232	0xbe797477	-0.24360834
233	0x3ca35f60	0.01994294
234	0x3d3ddbdf	0.046352264
235	0x3e8c672a	0.27422458
236	0xbe57eeba	-0.2108716
237	0x3e062f92	0.13104084
238	0x3e70fdc9	0.23534311
239	0xbd8a0347	-0.06738906
240	0x3e3983ff	0.18116759
241	0xbd711080	-0.058853626
242	0x3e53a43d	0.2066812
243	0xbd68fe7b	-0.056883316
244	0x3cd3f6e0	0.025874555
245	0xbe49418c	-0.1965391
246	0xbe15a4c4	-0.14613634
247	0xbe10c709	-0.14138426
248	0xbe6d2132	-0.23157194
249	0xbe661a60	-0.22470999
250	0xbe697035	-0.2279671
251	0x3e262363	0.16224436
252	0xbe467f83	-0.1938458
253	0xbd763ea7	-0.060118344
254	0x3d52e2e1	0.0514859
255	0x3e0b558a	0.1360685

lstm1_1.weight_hh_l0_reverse f4 [64, 16]
0	0xbdd3d83a	-0.10343976
1	0xbe1ff704	-0.15621573
2	0x3e8716f5	0.26384702
3	0x3dd4e3fd	0.10395048
4	0xbe433f78	-0.1906718
5	0x3dabb0fc	0.083833665
6	0x3dcfa872	0.1013955
7	0x3d467882	0.04845477
8	0x3dbebac5	0.09312967
9	0x3ca71556	0.020395916
10	0x3d9862f9	0.074407525
11	0xbe5c3acd	-0.21506806
12	0x3de8115f	0.11331438
13	0x3e0b2616	0.13588747
14	0x3c2a742a	0.010403672
15	0xbdd0203c	-0.10162398
16	0x3e2ed8b2	0.1707485
17	0xbe051057	-0.12994514
18	0x3e812baf	0.2522864
19	0x3e595475	0.21223624
20	0xbe1a1fa1	-0.15051128
21	0xbeb2da42	-0.34932142
22	0xbe649600	-0.22322845
23	0xbd1d2a6c	-0.038370535
24	0xbdf10bfa	-0.117698625
25	0xbe3d8a13	-0.18509702
26	0x3e450b12	0.19242504
27	0xbdd97b7b	-0.10619255
28	0xbe566360	-0.20936346
29	0xbe0bb45f	-0.13643025
30	0x3e4d8e63	0.20073847
31	0x3e0e68eb	0.1390721
32	0x3df4ba0f	0.1194955
33	0x3c64f2dc	0.013973918
34	0x3e3c582a	0.18393007
35	0xbe8d7844	-0.27630818
36	0x3de9dad4	0.11418691
37	0xbd15b552	-0.036549874
38	0x3e7b9e2f	0.24572061
39	0x3dfe0e95	0.12405125
40	0x3bbb33eb	0.005712976
41	0x3e6a2125	0.22864206
42	0x3e0f7ac3	0.14011674
43	0x3e221363	0.15827708
44	0xbda87bf0	-0.08226764
45	0x3b1afae1	0.002364807
46	0xbe60eba3	-0.21964888
47	0x3e3f1822	0.1866155
48	0x3e143818	0.14474523
49	0xbd447370	-0.047961652
50	0xbdc85a99	-0.09782905
51	0x3e5613f0	0.20906043
52	0xbe1d75e5	-0.15377004
53	0x3db76884	0.08955482
54	0x3e364e25	0.17803247
55	0x3cc3012a	0.023804266
56	0x3e865671	0.26237825
57	0x3d3775ea	0.044790186
58	0xbe0c5422	-0.13703969
59	0xbd650e68	-0.055921942
60	0xbe20c6a3	-0.15700774
61	0x3ddddb96	0.10832898
62	0x3d41d677	0.04732367
63	0x3e0d9932	0.1382797
64	0xbe6e37ce	-0.23263475
65	0xbc8b323f	-0.016991733
66	0x3e0c73e1	0.1371608
67	0x3d5d556d	0.054036546
68	0xbdd3c30e	-0.10339938
69	0xbe1d3a4f	-0.15354274
70	0x3ea17484	0.31534207
71	0x3e580cb1	0.21098591
72	0xbe21b621	-0.15792133
73	0xbd34c9b0	-0.044137657
74	0xbdf40c5e	-0.11916421
75	0xbd8ca259	-0.06866903
76	0x3e295a5b	0.16538374
77	0x3cd822de	0.026383813
78	0xbe85f249	-0.2616141
79	0x3e733b15	0.23753007
80	0x3e4935ac	0.1964938
81	0xbc6cf4e4	-0.014462683
82	0x3d33400d	0.043762255
83	0x3c3f660a	0.011682043
84	0xbdeb5465	-0.11490706
85	0x3e154912	0.14578655
86	0xbe0a16b1	-0.13485219
87	0x3e7f0731	0.24905087
88	0x3da65ab3	0.08122768
89	0xbccc2724	-0.024921007
90	0x3c7b7906	0.015348678
91	0x3c7c115e	0.015385
92	0x3e37b095	0.17938454
93	0xbe4e51a4	-0.20148331
94	0xbca68e3c	-0.020331495
95	0xbd180203	-0.037111294
96	0x3e38d6cb	0.18050687
97	0x3e3d464e	0.1848385
98	0x3e06cbab	0.1316363
99	0x3df112fd	0.117712
100	0xbe99bf8e	-0.30028957
101	0x3c3f5f36	0.011680415
102	0x3eb6812e	0.3564543
103	0x3ea28ebd	0.31749526
104	0xbdc0c8cb	-0.09413298
105	0xbd95abde	-0.07308172
106	0x3df396c9	0.11893994
107	0x3e0c1bd4	0.1368249
108	0xbe637389	-0.22212042
109	0x3e30d7bc	0.17269796
110	0x3d5432d9	0.051806305
111	0xbe86d6b8	-0.26335692
112	0xbe5c2b68	-0.21500933
113	0x3e394e3c	0.1809625
114	0xbe1e05df	-0.15431927
115	0x3e261916	0.16220507
116	0x3da7f3c1	0.08200789
117	0xbd88ae2b	-0.06673845
118	0x3d16349c	0.036671266
119	0xbdd37fdf	-0.10327124
120	0x3e3e803a	0.18603602
121	0xbdf0b883	-0.11753943
122	0xbe460a6a	-0.1933991
123	0x3e45c8b1	0.19314839
124	0x3dbf53d5	0.093421616
125	0xbe6e51bf	-0.23273371
126	0xbdb87483	-0.09006598
127	0xbc0d3244	-0.008617941
128	0x3d8d6a65	0.06905059
129	0xbe13e8fc	-0.14444345
130	0xbe3cfce2	-0.18455842
131	0xbe890363	-0.26760396
132	0x3cceea7d	0.025258297
133	0x3e158c39	0.14604272
134	0x3e6848e0	0.2268405
135	0x3ce4c3a3	0.027925318
136	0xbcfef87a	-0.031124342
137	0x3e9b9c7f	0.30392835
138	0x3e3ab34d	0.1823246
139	0xbe978520	-0.29593754
140	0xbe1ee9fd	-0.15518947
141	0x3d6dba48	0.05803898
142	0x3da5030e	0.08057223
143	0x3c2ecbe4	0.0106687285
144	0xbdee2985	-0.11629013
145	0xbe3b4536	-0.1828812
146	0xbe5f3dca	-0.21800914
147	0x3c4c4c33	0.012469339
148	0x3e105d21	0.14098026
149	0x3e2b71b4	0.16742593
150	0x3d90e565	0.070750035
151	0x3e0d4767	0.13796769
152	0x3da7351a	0.08164425
153	0xbe217115	-0.15765794
154	0xbe51577c	-0.20443529
155	0xbdec0776	-0.115248606
156	0x3e7454ce	0.23860475
157	0xbd04c7b9	-0.032417033
158	0x3e538077	0.20654474
159	0xb94ce9ae	-0.00019542009
160	0xbe635f4c	-0.22204322
161	0xbe728edb	-0.23687308
162	0xbd821c10	-0.06353009
163	0x3e02244b	0.12709157
164	0x3e03ac10	0.12858605
165	0x3dc7d4e6	0.09757404
166	0x3e901a79	0.28145197
167	0x3e47812e	0.19482872
168	0x3e871386	0.26382083
169	0x3da603a6	0.08106165
170	0x3e309e89	0.17247976
171	0xbe120176	-0.1425837
172	0x3ddebdb1	0.108760245
173	0xbe2951a4	-0.1653505
174	0x3df51cd3	0.119683884
175	0x3e04325d	0.12909837
176	0xbd9b51c0	-0.07583952
177	0x3ddff8b2	0.10936107
178	0xbdf23ede	-0.11828397
179	0x3df18705	0.11793331
180	0xbe8bf3d3	-0.2733446
181	0x3d0d6399	0.03451881
182	0x3d856d5f	0.065150015
183	0xbdd0447c	-0.10169312
184	0xbe17786b	-0.1479203
185	0xbe21b300	-0.1579094
186	0xbc3963c7	-0.011315293
187	0x3d2c5413	0.042072367
188	0xbe6423dd	-0.22279306
189	0x3d1969ce	0.03745442
190	0x3e262468	0.16224825
191	0xbdb539b1	-0.088488944
192	0x3e86f336	0.2635743
193	0xbe169dbf	-0.14708613
194	0x3e383e4a	0.17992511
195	0x3d0eb8b6	0.034844123
196	0x3a873114	0.0010314309
197	0x3bb4dd86	0.0055195717
198	0xbcc70503	-0.024294382
199	0x3d889908	0.066698134
200	0xbd8829f1	-0.06648625
201	0xbe17d98f	-0.14829086
202	0xbe77594e	-0.24155161
203	0xbd108ec6	-0.03529241
204	0xbda1f2fb	-0.07907673
205	0xbd3d14ba	-0.046162345
206	0x3db737f3	0.08946218
207	0xbe04d238	-0.12970817
208	0xbe3a0c6a	-0.18168798
209	0xbd8db29e	-0.06918834
210	0x3dcd338e	0.10019599
211	0x3e32b1a3	0.17450576
212	0xbe65e91e	-0.22452208
213	0x3e87d53a	0.26529866
214	0xbdf976eb	-0.12180885
215	0x3e39c985	0.1814328
216	0xbd4dcc5c	-0.05024372
217	0xbe031339	-0.12800302
218	0xbd354489	-0.044254813
219	0xbe031323	-0.12800269
220	0xbd6b8b41	-0.05750585
221	0xbc52cfa0	-0.0128668845
222	0xbd578b5a	-0.05262313
223	0x3d938870	0.07203758
224	0xbc6f8e97	-0.014621398
225	0x3cf6c505	0.030123243
226	0xbdd52a36	-0.10408442
227	0x3cbaa737	0.022784812
228	0xbde60219	-0.11230869
229	0xbe93aaba	-0.28841192
230	0xbe9a87b5	-0.3018166
231	0x3bbcfa43	0.005767138
232	0xbe261512	-0.16218975
233	0x3b2ead63	0.002665364
234	0x3e1dbd10	0.15404153
235	0xbd2cb1f0	-0.042161882
236	0xbd9836d0	-0.0743233
237	0xbe80570a	-0.25066406
238	0x3da6e8fc	0.08149907
239	0xbe67c4ce	-0.22633669
240	0xbe4ff0aa	-0.2030665
241	0x3e275df6	0.16344437
242	0xbe20801b	-0.15673868
243	0x3e5ca659	0.21547832
244	0xbe1f9a86	-0.1558629
245	0x3e86a623	0.26298627
246	0xbdbdb742	-0.09263469
247	0x3d8b03c3	0.06787827
248	0xbe28292d	-0.16421957
249	0xbe58a9f1	-0.21158578
250	0xbc90fd4b	-0.017698904
251	0xbc3497db	-0.011022533
252	0x3d9b39d0	0.07579386
253	0xbd674d65	-0.056470294
254	0xbe16c257	-0.14722572
255	0xbe6ba036	-0.23010334

lstm1_1.bias_ih_l0_reverse f4 [64]
0	0xbdd3df27	-0.10345297
1	0xbddaf10d	-0.10690508
2	0xbd566532	-0.0523426
3	0x3e5d5a18	0.216164
4	0x3e0e0033	0.13867263
5	0xbdbd2fb1	-0.09237612
6	0x3e00def7	0.12585054
7	0xbc0f5829	-0.008749046
8	0x3e8c7e1e	0.2743997
9	0x3d995248	0.07486397
10	0xbd88860b	-0.06666192
11	0xbc64c7a4	-0.013963614
12	0xbe008604	-0.12551123
13	0xbe0178b6	-0.12643704
14	0xbd71a91f	-0.058999177
15	0x3df02ef9	0.11727709
16	0x3d83d5c6	0.064372584
17	0x3e1c82fa	0.15284339
18	0xbe3644c3	-0.17799668
19	0x3e643d69	0.22289051
20	0xbc9f22fb	-0.01942586
21	0x3e635874	0.22201711
22	0x3de112f8	0.10989946
23	0xbe220d89	-0.15825476
24	0xbdfc46fa	-0.12318225
25	0xbdda1450	-0.106484056
26	0x3c2fac3c	0.010722216
27	0x3d6bb00a	0.05754093
28	0x3d4bc148	0.049744874
29	0x3d14bd1a	0.036313154
30	0x3e3bc5fa	0.18337241
31	0x3e4f4521	0.20241214
32	0x3d96247c	0.073311776
33	0x3e48d136	0.19611058
34	0x3d817429	0.06320984
35	0x3e08cc5e	0.1335921
36	0x3e4b6e9d	0.19866414
37	0x3dd7e088	0.10540873
38	0xbc54c2e8	-0.012985922
39	0x3d2c5896	0.04207667
40	0xbcb3f330	-0.021966547
41	0x3dccae0b	0.099941336
42	0x3e111a70	0.14170241
43	0x3e3c14aa	0.18367258
44	0xbdd2bbfc	-0.102897614
45	0x3e3e3f89	0.18578924
46	0xbe319f06	-0.17345819
47	0xbe6ae695	-0.22939523
48	0x3e0ef04d	0.13958855
49	0x3dc9bc19	0.0985033
50	0x3e27ccaf	0.16386674
51	0xbd1839e7	-0.037164595
52	0x3e1947fb	0.14968865
53	0x3eb5415f	0.35401437
54	0x3dd64683	0.10462668
55	0x3e1a1129	0.15045609
56	0xbdba48c1	-0.09095908
57	0x3e31219e	0.1729798
58	0x3dddb323	0.10825183
59	0x3ddd2ea9	0.10799915
60	0x3e607d21	0.21922733
61	0x3e3c6ff9	0.18402089
62	0xbd84e992	-0.064898625
63	0x3decd32b	0.115637146

lstm1_1.bias_hh_l0_reverse f4 [64]
0	0xbdbee723	-0.093214296
1	0x3e517c75	0.20457633
2	0x3dd0dfab	0.10198911
3	0x3e29f7c6	0.16598424
4	0xbe7079c0	-0.23483944
5	0x3c853325	0.01625974
6	0xbe128666	-0.14309081
7	0x3d6bf02b	0.05760209
8	0x3d956800	0.07295227
9	0xbd5e0d8d	-0.05421214
10	0xbe62fb71	-0.2216623
11	0xbd89a861	-0.06721569
12	0x3de76e1f	0.11300301
13	0xbe074135	-0.13208468
14	0x3e392d41	0.18083669
15	0xbd9161cf	-0.07098734
16	0xbdf37369	-0.11887247
17	0xbe7100f4	-0.2353552
18	0x3e831ec2	0.25609404
19	0xbde1f96a	-0.110339
20	0xbd8dfa92	-0.06932558
21	0x3e4741e6	0.19458732
22	0x3e82a707	0.25518057
23	0xbdeca388	-0.115546286
24	0x3e02030e	0.12696478
25	0xbcac1514	-0.021006145
26	0xbe4837a1	-0.1955247
27	0xbe2bb0df	-0.1676669
28	0xbe420f2c	-0.189511
29	0x3e190460	0.14943075
30	0x3e0e78b3	0.1391323
31	0x3c1061e8	0.008812405
32	0x3e651737	0.22372137
33	0x3e1a09ae	0.15042755
34	0xbd8e9cd3	-0.069635056
35	0x3dca2857	0.098709755
36	0xbdd93d2c	-0.10607371
37	0x3c369510	0.011143938
38	0xbe049682	-0.12948039
39	0xbd7ac0cd	-0.061219025
40	0xbd2a74dd	-0.041615356
41	0xbb833b00	-0.004004836
42	0x3d34ca40	0.044138193
43	0xbe474ea2	-0.1946359
44	0xbc74c9cb	-0.014940689
45	0x3b28683c	0.0025696894
46	0x3e5d0f06	0.21587762
47	0xbd119ad7	-0.035548057
48	0xbe49051f	-0.1963086
49	0xbd7cf5a0	-0.061757684
50	0xbe509983	-0.2037106
51	0x3e38b0b5	0.18036158
52	0x3dd1ca4d	0.10243664
53	0x3dd1e203	0.102481864
54	0xbd060737	-0.032721724
55	0x3d783c44	0.06060435
56	0xbd02cdf0	-0.03193468
57	0x3d74fffd	0.059814442
58	0x3c6edd75	0.014579167
59	0x3c9fb2e4	0.019494481
60	0x3e0ca417	0.1373447
61	0x3e7eee9c	0.2489571
62	0x3c437301	0.011929275
63	0x3d90e29f	0.070744745

lstm1_2.0.weight f4 [32, 32]
0	0xbdc86c19	-0.09786243
1	0x3e51696f	0.20450376
2	0xbd8d9a47	-0.06914192
3	0x3dc548a8	0.09632999
4	0xbdaef776	-0.08543293
5	0xbe4e7a3a	-0.20163813
6	0xbd557cc7	-0.05212095
7	0xbd5f88b0	-0.054573715
8	0x3e2ca94e	0.1686146
9	0x3dcd3e1d	0.10021613
10	0x3d54a6cb	0.05191688
11	0xbd43dff9	-0.04782102
12	0xbe162783	-0.1466351
13	0xbdffd9a8	-0.124926865
14	0xbdb45e2f	-0.088070266
15	0xbe272e7f	-0.1632633
16	0x3e313842	0.17306617
17	0x3d671579	0.056416962
18	0x3e0670ef	0.13129018
19	0xbd10951e	-0.03529846
20	0xbdebabff	-0.11507415
21	0x3dc1f9f2	0.094715014
22	0x3dbab37c	0.09116265
23	0x3cbd2b76	0.023092013
24	0xbd00a714	-0.031409338
25	0xbd278347	-0.04089668
26	0x3d67ce00	0.05659294
27	0xbd3df811	-0.046379153
28	0x3cc26237	0.023728473
29	0xbde02d61	-0.10946155
30	0x3e2f1a05	0.1709977
31	0x3b96ddc1	0.004604072
32	0xbcf56acb	-0.02995815
33	0x3ba78a25	0.0051129037
34	0x3df5695f	0.119829886
35	0x3df8cf70	0.121489406
36	0xbd828f1f	-0.063749544
37	0x3d8c5f02	0.06854059
38	0xbca4d6f2	-0.020122025
39	0x3e1917ba	0.14950457
40	0xbd91cf84	-0.071196586
41	0xbd8ad4d0	-0.06778872
42	0x3e02ae9d	0.12761922
43	0x3e243bdc	0.1603846
44	0xbe33f308	-0.17573178
45	0xbc0f7f2f	-0.00875835
46	0xbe3e5dd9	-0.18590488
47	0xbd9537b5	-0.07286016
48	0xbd9b536a	-0.07584269
49	0xbd67c09d	-0.056580175
50	0x3d9e9f9e	0.07745288
51	0xbe1a150c	-0.15047091
52	0xbe18a9f2	-0.14908579
53	0xbe08501c	-0.1331181
54	0xbd8c95ef	-0.06864535
55	0x3e0603a0	0.1308732
56	0xbe049320	-0.12946749
57	0x3cc31a2f	0.023816196
58	0x3c641630	0.013921306
59	0x3dd5ae93	0.10433688
60	0x3ce6041c	0.028078131
61	0xbcfe5e7e	-0.031050917
62	0x3dae3a35	0.08507196
63	0x3e1373c1	0.14399625
64	0x3e222b6d	0.15836878
65	0x3dff40d2	0.12463535
66	0xbcaea02c	-0.02131661
67	0xbd91372d	-0.07090602
68	0xbe2c2f21	-0.16814853
69	0xbdbeeca5	-0.0932248
70	0x3ce6e96b	0.028187474
71	0xbca14a87	-0.019688858
72	0xbdb3bc4a	-0.08776148
73	0x3db52e5c	0.08846733
74	0xbc514855	-0.012773593
75	0x3e2b67fb	0.16738884
76	0xbd036ba7	-0.032085087
77	0xbdc0f81d	-0.09422324
78	0xbdd33836	-0.10313456
79	0x3d6111c1	0.054948572
80	0xbd61115c	-0.054948196
81	0xbcba9795	-0.022777358
82	0x3deb5bf6	0.114921495
83	0x3e052d31	0.1300552
84	0x3d937d0c	0.07201585
85	0xbdb7815e	-0.08960222
86	0x3c3abedf	0.011398046
87	0xbd7b6114	-0.061371878
88	0x3d8fb0f7	0.07016175
89	0x3dc119d0	0.094287515
90	0xbe298e34	-0.16558152
91	0xbdf5b243	-0.11996891
92	0x3e0b223d	0.1358728
93	0x3cd2b86d	0.025722707
94	0xbe2fa6f8	-0.17153537
95	0x3e0ea42e	0.13929817
96	0xbe291a09	-0.16513838
97	0x3d908f2e	0.07058559
98	0x3e39903e	0.1812143
99	0x3e179264	0.14801937
100	0xbd8bc09a	-0.06823845
101	0xbe12fb5f	-0.14353703
102	0x3e2f90df	0.17145108
103	0x3c811ac1	0.015759828
104	0x3dd22d21	0.10262514
105	0xbe3e770c	-0.186001
106	0xbd5e2b1d	-0.054240335
107	0x3bb0565e	0.0053813895
108	0x3cc59173	0.024117207
109	0x3c621216	0.013798257
110	0xbe19869d	-0.14992757
111	0x3d9bb9ce	0.07603799
112	0xbc4a363d	-0.012342033
113	0x3d8a3ee0	0.06750274
114	0xbcbeb3ab	-0.023279032
115	0xbc16b586	-0.009198552
116	0xbc808617	-0.015688939
117	0xbe3c9644	-0.18416697
118	0xbc6c315f	-0.014416068
119	0xbc75376d	-0.014966828
120	0xbd9788dc	-0.07399151
121	0x3e004117	0.1252483
122	0xbd495682	-0.049154766
123	0xbdf0debc	-0.11761233
124	0x3b4d9c7b	0.0031373787
125	0x3dd3b5bc	0.103373975
126	0x3df8977d	0.12138269
127	0xbdc96ad0	-0.09834826
128	0x3bba9f51	0.0056952615
129	0x3de2e65f	0.11079096
130	0x3d93770b	0.0720044
131	0xbd873b00	-0.0660305
132	0xbce0d7e0	-0.027446687
133	0x3ddc3806	0.10752873
134	0xbc09d7ac	-0.008413237
135	0x3e1f764f	0.15572475
136	0x3e0f4f24	0.13995034
137	0x3d0b6bc3	0.034038316
138	0xbc3ea9e4	-0.011637185
139	0x3db053e1	0.08609749
140	0xbe0d3c37	-0.13792501
141	0x3df9d9c1	0.121997364
142	0x3d97eb42	0.07417919
143	0x3d419743	0.047263395
144	0x3d6194bb	0.05507348
145	0x3d1baa63	0.03800429
146	0x3e078e38	0.13237846
147	0xbe2ff50d	-0.17183323
148	0x3d0abafb	0.033869725
149	0xbb941b5b	-0.0045198626
150	0xbcd3c449	-0.025850432
151	0xbdda7d58	-0.10668439
152	0x3d8811bb	0.06644007
153	0x3cfdce96	0.030982297
154	0xbd4d8774	-0.050178006
155	0xbe22395c	-0.15842193
156	0x3dc01dc0	0.09380674
157	0x3dca3978	0.098742425
158	0x3e05ebee	0.13078281
159	0x3e17cc35	0.14823993
160	0xbda8eff4	-0.082488924
161	0xbe47a6dc	-0.19497246
162	0xbde9f9f1	-0.11424626
163	0x3dbb27c8	0.09138447
164	0xbb7b1165	-0.0038309928
165	0xbcaebf2b	-0.02133139
166	0xbc5f4124	-0.013626371
167	0x3c707a02	0.014677526
168	0xbd2c9913	-0.04213817
169	0xbbb0fb13	-0.005401024
170	0x3da31020	0.0796206
171	0x3dfce156	0.12347667
172	0xbe1f921c	-0.1558308
173	0xbca763b1	-0.020433279
174	0x3e0cafd7	0.13738953
175	0x3df48de5	0.11941127
176	0xbdb979fb	-0.09056469
177	0x3d00306b	0.031296175
178	0x3d9ca63a	0.07648893
179	0x3b8fe96e	0.0043918407
180	0xbd7ece23	-0.062208306
181	0x3d983b28	0.07433158
182	0xbcf353a1	-0.029702963
183	0xbd6432e2	-0.055712588
184	0xbdf2abea	-0.11849196
185	0x3dd744ec	0.10511193
186	0xbd0eb5b9	-0.034841273
187	0xbdb0889a	-0.08619805
188	0x3d283916	0.041070066
189	0x3d905ceb	0.07048973
190	0x3dce9bbb	0.10088297
191	0x3d02a90c	0.031899497
192	0xbe13bc66	-0.14427337
193	0xbdcc984b	-0.09989985
194	0x3dc0a344	0.094061404
195	0x3defe1d6	0.11712997
196	0x3df4c5cc	0.11951789
197	0x3e1e4916	0.15457568
198	0x3da15758	0.078779876
199	0xbdacbfd7	-0.08435028
200	0xbe1c9d4c	-0.15294379
201	0xbda2419f	-0.079226725
202	0xbd1b18a5	-0.0378653
203	0x3d921785	0.07133392
204	0xbdad0755	-0.08448664
205	0x3be81796	0.00708289
206	0xbda56b11	-0.08077062
207	0xbdf7a7c6	-0.12092547
208	0xbd877085	-0.06613258
209	0x3d1410c2	0.036148794
210	0x3d53b814	0.051689222
211	0x3dfd86a1	0.12379194
212	0x3d9f3e7d	0.077755906
213	0x3dff33fd	0.12461088
214	0xbe0e9112	-0.13922527
215	0xbe2e6d6a	-0.17033926
216	0x3e16bee6	0.1472126
217	0xbdf9acde	-0.12191175
218	0xbdcca33d	-0.09992073
219	0x3d389b66	0.045070074
220	0x3d854f4b	0.065092646
221	0x3d2fdc06	0.04293444
222	0x3de4a95e	0.11165117
223	0xbe2cd1bf	-0.16876887
224	0xbe0cd9c6	-0.13754949
225	0xbb5a80c1	-0.0033340903
226	0x3c8253b4	0.015909053
227	0x3c792b7d	0.015208122
228	0x3d1a75b6	0.037709914
229	0x3e8a9b03	0.2707139
230	0x3da39033	0.07986488
231	0x3e1d9259	0.15387858
232	0xbd731fb9	-0.059356425
233	0xbe50ceef	-0.20391439
234	0x3df84327	0.12122183
235	0xbe57aa09	-0.21060957
236	0x3d0139be	0.031549208
237	0x3c692be5	0.014231657
238	0x3e1de010	0.15417504
239	0x3d313154	0.043259934
240	0x3db18c6f	0.08669364
241	0xbc62ba44	-0.0138383545
242	0x3d064edd	0.032790054
243	0xbbc2c346	-0.0059436886
244	0xbd2a706e	-0.041611128
245	0x3e42cc0c	0.1902315
246	0x3d3a4865	0.045479197
247	0xbd366c18	-0.04453668
248	0xbc26d293	-0.010182041
249	0x3e2f33f6	0.17109665
250	0xbd2563bb	-0.040378314
251	0xbe7fc901	-0.2497902
252	0x3bf23287	0.0073912772
253	0x3d2f8721	0.04285348
254	0x3de0046f	0.10938346
255	0xbcaadcb5	-0.020857194
