results/voltage_window_effect/V(3.7-4.0)/Experiment3(25-CC-1)/from_Dataset 3_ft_model.pth (torch, 95756 bytes, 27 tensors)

cnn1.0.weight f4 [16, 1, 3]
00000000: c3d1 503e 5450 053c 68fd 67be df24 a93e
00000010: 2b67 ccbd 9788 01bf 7d54 0c3e 0507 09bf
00000020: 876b a33e 8437 61be 30cd 293e 16ae 913d
00000030: 8a3c a1bd a610 5bbe 8b47 aebe d57b cbbe
00000040: a1fd 04bf 77c0 a3be 5a86 d73e d542 893e
00000050: 6541 12bd 7cae 143f 5d85 7dbd ad65 483d
00000060: 9096 223f 0b08 9bbe 5d31 1f3f 74d4 51be
00000070: b26b b2bd 5af4 943e a283 44be 8b79 5b3e
00000080: 6b30 c03d 2e6a 1ebe adca 4ebe 4e7e 3b3e
00000090: 6537 c33e 5904 d93e a1e9 bbbd e786 9ebd
000000a0: 18c7 c33d 5a47 9abe 82bf 113e 00df 933e
000000b0: 2ba3 92bd 5e14 6f3d bc04 0d3f cd63 a93d
0.20392518 0.0081368275 -0.2265526 0.33035943 -0.09980615 -0.50599045 0.13704105 -0.53526336
0.31917974 -0.21993834 0.16582179 0.071132824 -0.07872875 -0.2139307 -0.34038958 -0.39742914
-0.51949507 -0.31982777 0.4209469 0.268088 -0.035706896 0.5807874 -0.061894763 0.04892509
0.6351099 -0.30279574 0.621847 -0.204912 -0.087119475 0.29092675 -0.19190839 0.21433084
0.09384235 -0.15470192 -0.20194502 0.183099 0.381282 0.4238613 -0.091754206 -0.07740574
0.095594585 -0.30132562 0.1423321 0.28881073 -0.07160028 0.058369033 0.5508535 0.082709886

cnn1.0.bias f4 [16]
00000000: 800b a0be 2fb6 c3be 5a74 cd3c ab5f 57be
00000010: bc17 b0be f6ec 42be cfe1 b3be 43c6 9e3e
00000020: e55b eebe e588 6ebd b9d1 b3be 943e 6f3e
00000030: 149f 44be e993 9b3e 811b ba3e 31a6 483e
-0.31258774 -0.38224933 0.025079895 -0.21032588 -0.34393108 -0.19035706 -0.35133216 0.31010637
-0.46554485 -0.05823602 -0.35120943 0.23363715 -0.19201308 0.30386284 0.3634911 0.19594647

cnn2.0.weight f4 [32, 16, 3]
00000000: 7899 653d 1407 9e3d a521 9f3d 9c2e c53d
00000010: f83e 003e b0ff 593c 4e96 c93d ec32 78bd
00000020: d94e babd 3f1b f1bd bf63 8a3d 2b5e 543d
00000030: 09b8 843d 5188 703d b83a 9b3d 14d7 15bd
00000040: e27e d93d 5ecc 843c 17cf 503e b7c1 af3e
00000050: 9806 093e 0dcb 85bd d5b8 8cbd 338e f83d
00000060: 435c d23e 66e1 a73e a365 8f3e c585 e8bd
00000070: 1ee8 53bd dfdf d13d b16c ed3d 6a5d 6f3d
00000080: e35f 283d a2a5 63bd 544e c4bd 09b4 4dbd
00000090: 70b9 ed3d 3bf5 003e 5484 273e e7fe 22be
000000a0: d2fa b2bc b9e9 6bbe b235 c5bc 64e4 413d
000000b0: da25 ab3d 6e1d 103e 226f 373e e993 603d
000000c0: 37f2 ae3c 1443 e13d 2716 953d 19e8 4d3d
000000d0: 8df8 b3b9 1037 943c 557f c13d 7261 f9bd
000000e0: ec67 82bd 8ecf 963d 7360 ec3d 3891 e23c
000000f0: 6beb 01be ba45 83bd 3642 dfbd a96d 18bd
00000100: 1196 0ebd bd39 9cbc b526 773d 200f 413e
00000110: ed49 643e c888 e9bd 82a3 063e 080a e83d
00000120: c101 003d f0fa 233e e99d 9e3d 218b 52bd
00000130: aa21 d2bd 3f80 1abd 827f f4bd 9c9c d03b
00000140: cd76 a6bd 4f52 16be 7d86 b73d 5dd4 a9bd
00000150: aba1 dc3d 53fb fbbd 232f b1bd 9707 67be
00000160: c1f5 42bf e44d 43bf 56c1 bcbd 26cf c23b
00000170: 7135 f33d 9ec8 e8bb fb04 de3d e8be 203a
00000180: 97cd fd3d 9cf4 ddbd 2d67 a63d f8ad f83d
00000190: 2333 e9bc 4d1c 5c3c 703b 09be 61b4 efbd
000001a0: 4989 a1bc 7b1b 103e c050 bfbd b48e 0fbe
000001b0: 4889 5fbd 83a5 423d add6 6f3d 99f9 f23d
000001c0: 930f 86bc 4d84 95bd f42c 433e 2039 383e
000001d0: 00ba 3b3e 11a8 013e 50fa 173e 01a1 6b3d
000001e0: 34d5 373d 92c4 33bc 8f0e 61ba 32a0 e2bb
000001f0: a33b dfbd 0228 e13d cee3 b7bd 2443 85bd
00000200: 516c a23d 3690 7e3d b2d0 24be 5fd1 a63d
00000210: bddb d83d 48b8 f1bd 3328 643d 8912 7abc
00000220: 30c9 41be a9ea 31bf 569f e1bd 30fc 4abd
00000230: 3d3e 1cbd a4b9 593c 044a c83c 2f29 94bc
00000240: 1eee 45bd 2d17 3fbc 484b 0b3d 23e6 a53d
00000250: 8284 1e3d ac55 fabd cc3f 53bd 885a 2fbc
00000260: 3118 9bbd a1b1 4f3c 05c4 d5bd 509c 033e
00000270: 01db 3e3d cfe9 99bc 4310 05be 6961 9bbb
00000280: c532 e13d 6cd4 aabd 4d7c 613d 50c3 613d
00000290: e465 fabd 2948 b43d 3106 13bd 6cd6 963d
000002a0: f262 b9bd 0c29 083e 3de6 513d c2a9 c73c
000002b0: 0522 3dbd 7027 ad3d 66a8 103e 154f 4fbd
000002c0: 2ced 3cbd 55d3 8d3d 75c6 bc3c 352e bebb
000002d0: d515 e33b 11e8 b6bd 5e1c 81bd 52a6 533d
000002e0: 3355 2dbe 6555 61be df3f cdbd e879 1cbe
000002f0: 11c4 e83d 75dd 8dbd db25 f9bc 2ba7 933d
00000300: 9be4 f3bc 5836 10be 6b01 59bd c514 11be
00000310: cc0a a4bd 613d 4cbd 4189 e1bd b54e bbbc
00000320: 95c1 d7bc 2f30 423d 17cc ba3d 2833 93bd
00000330: 6978 863d d7c8 c4bb 5d7d b83d 4af4 eebd
00000340: b3d2 02bd b58d f83d 3ac0 c53d 2809 093e
00000350: ebbf 333d 5f83 ebbd 2379 e73c 9c19 05be
00000360: dd13 ad3d 8aab a6bd 919a 7c3d 4110 2d3d
00000370: 76c9 f2bd 8998 6f3b 71b4 33bd 63ba b6bd
00000380: 4ac6 52bb 3ca5 353d ac93 443d ec54 f93c
00000390: edbc ac3d 7426 f5bd af99 4a3b 8d8d 743b
000003a0: 262d 953d f24a 13bd c1eb babd 7f5e 0ebe
000003b0: 9f4a 96ba c89f af3c 6bd4 d7b9 6c14 ac3d
000003c0: 1237 87bc 69f3 b63c 6906 c43d 7670 dfbd
000003d0: 618f c83d f508 aebd e0b8 dd3d b77a dc3c
000003e0: 6d01 a1bd a93b 043e 0dee 4ebd a25c 4e3d
000003f0: 23bb 043d 8770 ee3d e2c3 fb3d 8e1d a83d
0.056054562 0.07716194 0.07770089 0.09628031 0.1252402 0.01330559 0.098431215 -0.060595438
-0.0909707 -0.11772775 0.06757306 0.051847618 0.064804144 0.05872375 0.07579559 -0.036582068
0.10619904 0.016210731 0.20391499 0.3432748 0.13381422 -0.065328695 -0.068711914 0.12136497
0.41086015 0.32789153 0.2800723 -0.113536395 -0.051735036 0.10247778 0.11592997 0.058438696
0.04110707 -0.05557788 -0.095852524 -0.050220523 0.11607635 0.12593548 0.16359073 -0.1591755
-0.021848116 -0.23038377 -0.024073455 0.04733695 0.08356829 0.14073727 0.17913488 0.054828558
0.021355731 0.10999122 0.07279616 0.050270174 -0.00034326725 0.018092662 0.09448115 -0.12176789
-0.06367478 0.07363807 0.11541834 0.027657136 -0.12687461 -0.06409784 -0.109013006 -0.037213955
-0.034811083 -0.0190705 0.06033965 0.18853426 0.22293825 -0.11403042 0.13148311 0.11330038
0.031251673 0.16013694 0.07744963 -0.051402215 -0.10260327 -0.03771996 -0.11938383 0.0063663255
-0.08128128 -0.14679836 0.089611985 -0.08292458 0.10773023 -0.12303796 -0.08651569 -0.22561489
-0.7615624 -0.76290727 -0.092165634 0.005945104 0.118754275 -0.0071039936 0.10840794 0.0006131963
0.12392729 -0.10837671 0.08125148 0.12142557 -0.028466767 0.013434482 -0.1340158 -0.117043264
-0.019718783 0.14072983 -0.09341574 -0.1401928 -0.05457428 0.047521126 0.05855434 0.11864013
-0.016364848 -0.07300625 0.19060117 0.17990541 0.18332672 0.12661768 0.1484158 0.057526592
0.04488106 -0.010972159 -0.0008585238 -0.0069160694 -0.10900047 0.10993959 -0.08978997 -0.06506947
0.07930816 0.06214925 -0.16095236 0.08145403 0.10588787 -0.11802727 0.0557024 -0.015263208
-0.18924403 -0.6949869 -0.11016719 -0.04955691 -0.038145293 0.013288889 0.024449356 -0.018086044
-0.04832279 -0.01166324 0.03400734 0.08100536 0.038700588 -0.12223372 -0.051574513 -0.010702737
-0.075729735 0.012676627 -0.104377784 0.12852597 0.046595577 -0.018788246 -0.12994485 -0.004741837
0.10996012 -0.083412975 0.055050183 0.055117905 -0.12226465 0.08802826 -0.035894576 0.073651165
-0.090520754 0.13296908 0.051244963 0.024372939 -0.04617502 0.08454788 0.14126739 -0.050612528
-0.046124622 0.06925074 0.02304385 -0.005803848 0.006930093 -0.08930982 -0.06304239 0.051672287
-0.16927032 -0.22005232 -0.10021948 -0.15280879 0.11365522 -0.06927005 -0.030413559 0.07209619
-0.029772094 -0.1408323 -0.052979868 -0.14168079 -0.08009872 -0.049863223 -0.11012507 -0.022864679
-0.026337424 0.047409233 0.09120958 -0.07187492 0.06565935 -0.0060053873 0.09008286 -0.11667688
-0.03193922 0.121364035 0.09655805 0.13382399 0.0438842 -0.114996664 0.028256005 -0.1299805
0.08451054 -0.08138187 0.061670844 0.04225183 -0.11854832 0.0036559424 -0.043873254 -0.08922269
-0.0032161647 0.044347033 0.047992393 0.030436002 0.08434472 -0.11970225 0.0030914356 0.0037315816
0.07284002 -0.035960145 -0.09126998 -0.13903235 -0.0011466331 0.021438494 -0.0004116626 0.08402333
-0.016505752 0.022332864 0.09571535 -0.10910122 0.09792972 -0.08497802 0.10826278 0.026913984
-0.078616 0.12913384 -0.05051999 0.05038131 0.03240503 0.11642557 0.12293221 0.08208762

cnn2.0.bias f4 [32]
00000000: 0b92 23bd cbbe 95bd 7746 a03d ce48 0d3c
00000010: a910 e3bd 717f 91bd 0357 01be 450e e2bc
00000020: 3ece a9bd 090c 1a3d ee5d f13d 5f1d 07be
00000030: 3e10 ccbd b33f 3abd 156b 8fbd 05e3 79bd
00000040: d566 d73d 8fb6 163c 9aca 50bd 9382 95bd
00000050: 949c 98bd aae2 bfbd 39e1 c2bb 083b c13d
00000060: e9a1 7dbd 58ec a7ba a6d3 83bd c4ce 69bc
00000070: 074e d43d 387a 3f3d 6ac9 d43c 75e6 9f3c
-0.0399342 -0.073117815 0.0782594 0.008623315 -0.11087162 -0.07104386 -0.12630849 -0.027594695
-0.08291291 0.037609134 0.11785494 -0.13194798 -0.099640355 -0.045470905 -0.07002846 -0.06100752
0.105176605 0.009198799 -0.050974466 -0.07300296 -0.0745174 -0.093694046 -0.005947259 0.094350874
-0.061921988 -0.0012811525 -0.06436853 -0.014270488 0.10366445 0.046747416 0.025974948 0.01951907

lstm1_1.weight_ih_l0 f4 [64, 32]
00000000: 3324 89bd 797c 673d 2ac8 c33c f88e d03d
00000010: f0d8 863c 0bb0 21be 38cd 05bd 5992 783e
00000020: 42b9 5abe 128f 4bbe 1bd9 86bc 7e20 52be
00000030: 5573 26be bfdc f73d cc79 fa3d 8353 5a3e
00000040: d016 c3bd ca3d fc3d b800 7f3e 19aa c6bd
00000050: 8884 59be da1a 24be c6c6 153e 2f82 403e
00000060: 7ce6 f9bd 809d 5bbe 003c 36bb 1259 443e
00000070: 7438 c13d 115f 9c3d c389 dd3d d496 7fbe
00000080: a349 a3bd b73b 163e c14f 48be 1167 01bd
00000090: 9ca2 abbd 49a4 da3d b485 c6bd 5fd0 d8bd
000000a0: 7c0b 89bd 102d 32bd 8b55 88be 68d4 6bbd
000000b0: 88a7 fcbd 521f 823e 78d6 01be 805a 80bd
000000c0: 63b9 e63d 1e18 7dbd 921e 063e 0185 75be
000000d0: 124b 1e3e 0080 3d3b df36 d0bc efcc 37be
000000e0: aca9 8fbd ec59 81bd 22d7 663e 5ade 04be
000000f0: 8aa7 b03b 4949 23be 2c51 dcbd 5a4b 103e
00000100: a013 d8bd e342 7c3e 166f d6bc 78c2 84ba
00000110: 2a86 04be 6d30 6f3e c09c 1d3d 4874 c1bd
00000120: 6481 18be 50be 0f3e 25a1 0c3e 660a 303e
00000130: 711f 343e 49f4 82be 9839 7cbe 3877 143e
00000140: 53fe 833d 3826 02be 620f 5fbe 4fe3 c33d
00000150: d4c9 923d 5432 033e 1528 6dbd d1f8 3c3e
00000160: ec00 24be 6e7a 7cbe 760e 103e 1092 2d3d
00000170: a873 4dbe be13 aabd d641 4b3e 0002 0fbe
00000180: 3e78 58bd aada 403e 2e4e 14be 0d39 1c3e
00000190: 0c0e a13d b55b 29be 7062 8dbc fc0d 34bd
000001a0: 5c8d 783e c003 d43d 3f7d 023f 6a3c 37be
000001b0: 6d32 673e 927f 76be 5c3c acbd cf7d 2a3d
000001c0: d623 d43d 789e 263e e0e8 bcbd 3aed 903d
000001d0: d09f 58be d0e4 d43c a937 833e 0a8c 05be
000001e0: f09b 8bbd 1078 b5bd f269 76be 761e 56be
000001f0: 25c2 653e 8ce9 ab3d 8e24 b0bd 40ab fd3d
00000200: 8b08 4d3e f57d 553d e7a0 61bd 1811 65be
00000210: d23a 27be ba4d d53d 20f6 f1bc 0b3b edbc
00000220: bcfc acbd 0017 abbc 12bb 4b3e e00b 4a3d
00000230: f985 893b e7f0 b2bc 7032 103d 80e8 7bbe
00000240: f9b6 be3b bc3f 4dbe 8403 e1bd ad62 a5bb
00000250: d0d9 fd3c 4c43 5dbe c6be 0c3e 8694 c5bd
00000260: b028 24bd c850 6a3d e84e 4f3e 20b3 ec3c
00000270: 414a 7c3e 7d21 c33d e093 1cbc 7619 63be
00000280: e641 2c3b 8fd6 1fbe ee17 48be 4ae4 d6bd
00000290: a8b6 cfbd a2e8 2d3e 400a 373e 02a6 563e
000002a0: b655 503e a8a1 55be 2de3 e63e 8c48 a0bd
000002b0: aa5e 5a3e acd7 68be a8fd 71bd afdb 793e
000002c0: 6b8e 573e ed2a 243e 80c5 b93d 6a13 283e
000002d0: 94c9 cd3d b4dc c2bd c18f a93d df05 4fbe
000002e0: 6862 7bbd c805 d8bd 7ccb 9abd 0ea1 05be
000002f0: c6cc 1e3e eff3 183e 4bcc 0bbe d09d 913c
00000300: cb54 e43e 7a0f 19bd a91c f43c 91df 4b3e
00000310: b8b5 4f3e 899f 213e badc 21be 137c 5fbe
00000320: 8ed6 0b3e 28e6 383d 64e4 0bbe b23f 5bbe
00000330: 77a2 333e b1da e3bc 52e2 1b3e bfcf b93e
00000340: 606b a83d 6856 823e b86e 5fbe 98ff c4bd
00000350: 5ed1 5e3e 2209 1ebe 1dd0 083e 6790 1cbe
00000360: 5049 dabd 1c6d 72be 8029 7e3b 2209 04be
00000370: c1d6 403d b62b 4c3e bc54 163e e8b8 653e
00000380: 51d1 413e ccad 563e cc97 883d ca20 0e3d
00000390: 408e 97bb ce44 aa3d 8001 413d 08c1 3f3e
000003a0: c0cd a5bb 98c9 61bd bd4b 0b3f 745c 22be
000003b0: f958 113e 4f5b 573e 2488 d03d 26e3 763e
000003c0: af84 493a fa04 323e b085 01be 7375 8fbd
000003d0: 9cdf 05be bc70 30be a261 a1bd 385d a2bd
000003e0: de90 69be 20c7 a83d 36b7 2b3e bc3e 953d
000003f0: 800b f6bd 29d2 2ebe e259 823c 24ce 42be
-0.066963576 0.05651519 0.023899157 0.10183519 0.016460866 -0.15789811 -0.032666415 0.24274577
-0.21359733 -0.19878796 -0.016460946 -0.20520207 -0.16254933 0.12102651 0.12230262 0.2132092
-0.095258355 0.12316473 0.24902618 -0.09700412 -0.21241963 -0.16025868 0.14626607 0.18799661
-0.122021645 -0.214468 -0.002780676 0.19174603 0.09434596 0.0763532 0.108172916 -0.2495988
-0.079730295 0.14671217 -0.19561674 -0.031592432 -0.08380625 0.10675866 -0.096934706 -0.10586619
-0.066916436 -0.043500006 -0.26627764 -0.057575613 -0.123366416 0.2541452 -0.1267947 -0.062672615
0.112658285 -0.061790578 0.13097599 -0.23976518 0.15458325 0.0028915405 -0.02541679 -0.1794927
-0.07014784 -0.06315979 0.22543004 -0.12975445 0.005391066 -0.15945925 -0.1075767 0.14091244
-0.10550618 0.2463489 -0.026176017 -0.0010128757 -0.12941805 0.23358317 0.038479567 -0.09446007
-0.14893109 0.14037442 0.13733347 0.17191467 0.17590119 -0.25577 -0.24631345 0.14498603
0.06444993 -0.12709892 -0.21783212 0.0956484 0.07167402 0.12812167 -0.057899553 0.18454291
-0.16015977 -0.24656078 0.14068016 0.042375624 -0.2006365 -0.08304547 0.19849333 -0.13965607
-0.052849047 0.18833414 -0.14482948 0.15256138 0.07864007 -0.1653889 -0.017258853 -0.04395865
0.24272674 0.10352278 0.5097236 -0.1789414 0.2257783 -0.24072102 -0.0840995 0.041623887
0.10358398 0.16271389 -0.09224105 0.070764974 -0.21154714 0.025988013 0.25628403 -0.13041702
-0.06816852 -0.08860791 -0.24063852 -0.20910057 0.22437342 0.08394155 -0.08600722 0.12386179
0.2002279 0.052122075 -0.05508509 -0.22369802 -0.16331032 0.10415216 -0.029536307 -0.028958818
-0.08446643 -0.02088499 0.1989558 0.04932773 0.004196879 -0.021843387 0.03520435 -0.2460041
0.005820152 -0.20043844 -0.10986999 -0.0050471635 0.03098765 -0.21607703 0.1374465 -0.09647469
-0.040077865 0.057205945 0.20244944 0.028894007 0.246377 0.09527872 -0.0095567405 -0.22177681
0.0026284396 -0.15609191 -0.19540378 -0.104927614 -0.10142261 0.16983274 0.17875004 0.20961764
0.20345196 -0.20862448 0.45095196 -0.07826337 0.21325174 -0.22738522 -0.059079796 0.24400209
0.21050422 0.16032 0.09070873 0.16413656 0.100482136 -0.09514752 0.08279372 -0.20217083
-0.061373144 -0.10547978 -0.07558343 -0.13049719 0.15507802 0.14936803 -0.1365215 0.017775446
0.44595942 -0.037368275 0.029798822 0.19909503 0.20284164 0.15783514 -0.15806857 -0.21824674
0.13656065 0.04514137 -0.13661343 -0.21411017 0.17542444 -0.027814241 0.15223053 0.3629131
0.08223605 0.25456548 -0.2181958 -0.09619063 0.21759555 -0.15433171 0.13360639 -0.1528946
-0.106585145 -0.23674434 0.003878206 -0.12894109 0.047079805 0.1993855 0.14680761 0.22433817
0.18927504 0.20964736 0.06669578 0.03469924 -0.004625112 0.08313905 0.04712057 0.1872598
-0.0050599277 -0.055123895 0.5441244 -0.1585558 0.14194097 0.21030925 0.10182217 0.24110088
0.0007687313 0.17384711 -0.12648654 -0.070048235 -0.13073581 -0.17230505 -0.0787995 -0.07927936
-0.22809169 0.08241105 0.16769108 0.07287356 -0.12013912 -0.17072357 0.015912 -0.19023949

lstm1_1.weight_hh_l0 f4 [64, 16]
00000000: 2bf2 303e d597 ed3d 6190 c23a 96cb 1f3e
00000010: 8776 b63d 37c9 d83d f735 67be e681 6b3e
00000020: 7b6d 503e 39e3 4a3e e2b1 15bd 51f0 6dbe
00000030: 4d57 0fbe e482 803d 584b 863e 8629 18be
00000040: 8648 0cbe b35e 5b3e e759 843d 878b 263e
00000050: 1558 4dbe 7f12 00be c3a9 d2bd ddb5 eebb
00000060: bf12 223d 4a39 363d 6504 4dbe cca5 37be
00000070: 654c bc3c d7ee e13d 8654 2abe 5f75 a1bd
00000080: 90f0 833e 3494 fa3d d48f c4bd 3a6c 3d3e
00000090: fc97 2f3d 004e 4c3d fd61 87bd 2232 6f3d
000000a0: c948 7e3e f362 3ebe 499a 41be f093 78be
000000b0: fa20 0bbc 4591 763e e0fc 3dbe 2243 ddbd
000000c0: c72e 9a3d ae8d 483e 2823 a93d 262e 22be
000000d0: e001 3a3e 9617 a53d a7a2 393e cb94 a0bd
000000e0: f180 48bd 63fb 88bd fa67 df3c 3860 6dbe
000000f0: 2352 3e3e bc4f 36bd 6cf0 a13c 7a9e 293e
00000100: 97c1 f9bb 1852 5e3e d591 b4bd 08da 853d
00000110: 1cce 963d f3e2 35bd f6c3 c63d efaa 32be
00000120: 508a d2bd c900 073e 35bb 153e d2e8 c23d
00000130: d4b5 043d 5808 28be 33de 64be d388 97bd
00000140: 2b90 cc3d 2a14 33be 0002 133d 23c0 083d
00000150: 41fb ea3d 3726 acbd f9e7 1d3e da19 a5be
00000160: eefe 2c3e 4545 143d 23da e03b 41c1 863e
00000170: b1d6 93bb e5a5 d63d 2b6a 0bbd a892 403d
00000180: bf55 26bc 15ec 583e 4d0f fbbc 4cb4 60be
00000190: fe54 31bd a1bf 883b cae2 0bbe d005 52bd
000001a0: 181a 313e 5f31 ec3b c70c 4f3e 46f2 3fbc
000001b0: 41c6 5cbe 4273 f33d c5b2 25be 3575 0ebe
000001c0: 9a87 c63d 0158 4fbd bebe fbbd e6dc 673e
000001d0: 2f6f 293d 4d1e 963d bb99 59bd 930e 6dbe
000001e0: 5acd 3c3e b381 c83d 1375 84be 1d5b 86be
000001f0: 3d7f 5dbd f28f 94be 10c0 0c3e f750 163e
00000200: 4c78 b93d f04b ba3d bac5 4cbc cecd c63d
00000210: 8d42 0f3e e9b1 dfbd 7a4a 163e 2f08 7b3e
00000220: 3ece 06be cea2 21bd 4e6b 6cbd a845 15be
00000230: 8bc7 0f3e c39a 523e 7604 46bd 208e 103e
00000240: b0cd 17bd 429d 82be 7e92 0bbe b7bf c93c
00000250: 03f8 813e d505 8b3d b65b 0b3e 8296 90be
00000260: 4294 013e f4c0 9f3d ddf8 c83d 5cb2 c9bd
00000270: 1a2e 19be 4a66 f33d 435f 1b3e cbd1 bcbd
00000280: c218 28be 5d61 51bd f9b3 cf3d 4b69 aa3d
00000290: eae9 813e 2a73 423e 2169 1e3c cca1 ad39
000002a0: 2b45 efbd e1c1 1c3e 9719 c63d 94d4 123d
000002b0: aef1 c13d ee5b 3a3d 1fd0 503e 28f4 253e
000002c0: 3725 233e daa7 2b3d 7500 f73d 026c 3abe
000002d0: e104 a5bd 0c4c 43be e3b5 913d 6ba7 f5bd
000002e0: 4574 48bc a658 3d3e 5c82 54be 1dd6 563e
000002f0: 8fb4 dbbd bf3a 553c 8740 8dbd 3755 6ebe
00000300: c6dc 2c3e 0e0c 323e c7bf d6bd dc7c 153e
00000310: 990a c9bd fda0 653e 6433 a2bc d633 233d
00000320: 44a6 8a3d d7c8 263e 39cd 84bd 1813 d03d
00000330: f7de 3c3d 53cb 4c3d 7e38 c7bd 8ea0 ca3d
00000340: a447 fcbc 0e08 153d 07c6 453e 1253 943d
00000350: f4e3 7ebe 3cac 89bd 0035 0d3e 4b58 a2bd
00000360: c158 51be 41be b13d 5348 5a3d 8140 2dbe
00000370: 23de 0abd 2f1f b53d b8da 3dbe b05c 6b3e
00000380: e79e 10be 2208 743e b6ab ccbb fd82 62bd
00000390: 54f1 8c3c c912 3abe 8afd 693e 3487 0c3e
000003a0: 2cf7 59be 3dac 1dbe 3755 383e 5b81 553e
000003b0: 3c2f b53d ac46 773d c8d6 0b3d 0b0a aabd
000003c0: 164a 1fbe f556 08be fff9 c43c 635d 803e
000003d0: 463e 60be 93fb bebc f644 b3bd 8b21 893c
000003e0: f397 e0bd 681a a3bc b62b 473e c3d2 573e
000003f0: 11e5 5dbe d456 fdbd 45f2 723e 1bf5 6c3e
0.1727988 0.11601225 0.0014844054 0.15605006 0.08909326 0.10585254 -0.2257918 0.22998771
0.20354263 0.19813241 -0.036546595 -0.23236205 -0.13998146 0.062749654 0.26229358 -0.1485959
-0.1369954 0.21422844 0.0646246 0.16264163 -0.20053132 -0.12507056 -0.10286286 -0.0072848634
0.03956866 0.04448823 -0.20021208 -0.1793434 0.022985647 0.11031883 -0.16633806 -0.07883715
0.25769472 0.12235299 -0.095977455 0.18498316 0.042869553 0.049879074 -0.06610487 0.05839742
0.24832453 -0.18592434 -0.18906511 -0.24275184 -0.008491749 0.24078853 -0.18553495 -0.1080382
0.07528453 0.19585297 0.08258659 -0.15837917 0.18164778 0.08061139 0.18128453 -0.0784088
-0.048951093 -0.06688573 0.02727126 -0.23181236 0.1858602 -0.044509634 0.019767962 0.1656436
-0.0076219547 0.21711004 -0.08816878 0.06535727 0.07363531 -0.04440589 0.09705345 -0.17448018
-0.10280287 0.13183893 0.14622195 0.09517063 0.032399967 -0.16409433 -0.22350387 -0.07399144
0.09988435 -0.1748816 0.03589058 0.03338636 0.11473704 -0.084057264 0.15420522 -0.32246286
0.16894123 0.036198873 0.0068619414 0.26319316 -0.004511677 0.104808606 -0.034036797 0.047014862
-0.010152279 0.21183808 -0.030646944 -0.21943778 -0.043293945 0.0041732346 -0.13660732 -0.051275074
0.1729511 0.007208034 0.20219718 -0.011715477 -0.21560003 0.11887218 -0.16181476 -0.13911898
0.09693833 -0.050621036 -0.122922406 0.2264286 0.0413658 0.07329998 -0.053125124 -0.23150091
0.1843771 0.09790363 -0.2587057 -0.2624139 -0.054076422 -0.29016072 0.13745141 0.14679323
0.09056148 0.09096515 -0.012498314 0.09707223 0.13990231 -0.109226055 0.14676848 0.2451484
-0.13164613 -0.039461903 -0.05771952 -0.14577353 0.14040963 0.2056685 -0.048344098 0.14116716
-0.037061393 -0.25510603 -0.13630101 0.02462755 0.2538453 0.06788222 0.13609204 -0.28239828
0.12654212 0.07800475 0.09813092 -0.098484725 -0.14958993 0.118847445 0.15173058 -0.09219702
-0.16415694 -0.051118243 0.10141749 0.08320864 0.25373775 0.18989244 0.009668619 0.0003311768
-0.116831146 0.15308334 0.096728496 0.03584726 0.09469925 0.045497827 0.20391892 0.1620642
0.15932165 0.041908123 0.12060634 -0.18205264 -0.08057571 -0.19071978 0.0711477 -0.11994823
-0.012234752 0.18490848 -0.20752853 0.20980115 -0.10727798 0.013014494 -0.06897073 -0.23274694
0.16881093 0.17387411 -0.104857974 0.14598411 -0.098164745 0.22424693 -0.019799896 0.039844356
0.06769994 0.16287552 -0.064844556 0.10159892 0.046111073 0.049998593 -0.09727572 0.098939046
-0.03079588 0.036384635 0.19313823 0.07242407 -0.24891645 -0.06722304 0.13789749 -0.07926997
-0.20444013 0.08678866 0.05329163 -0.16919138 -0.033903252 0.088438384 -0.18540466 0.22984576
-0.14123116 0.23831227 -0.0062460555 -0.0553007 0.017204918 -0.18171228 0.22850624 0.13723451
-0.21285695 -0.15397735 0.18001257 0.20850126 0.088469 0.060370132 0.03414038 -0.08302697
-0.15555605 -0.13314421 0.024044989 0.25071248 -0.21898755 -0.02331332 -0.08753388 0.016739627
-0.10966482 -0.019910052 0.19450268 0.21076493 -0.21669413 -0.12370077 0.23725231 0.23140375

lstm1_1.bias_ih_l0 f4 [64]
00000000: 7cbd 073e fc07 e43d f2e0 42be 7e89 373d
00000010: f3d8 74ba 6887 4d3d adc8 8f3c 12a8 43be
00000020: d793 183d cac5 dd3d 9c2f 7b3e ca8d 7ebd
00000030: 5f14 453c fd7b 043e c1ab 9dbd 31f0 44be
00000040: 3e23 a53d cfa8 103e 3de3 14be 1a84 6c3d
00000050: a342 8cbd d0c4 c33d 9968 39be 6117 053e
00000060: e896 1bbe e863 be3d 836f 46be 2435 39be
00000070: 97da 3b3e 25b6 b2bc 7b52 ad3c ffda 99bd
00000080: 9146 8b3c 954c fcba 40fd 31bd e591 d63d
00000090: 5a45 fc3d 7a24 62be d74b 343b 3574 15bb
000000a0: d235 073d 6cb3 313e b055 50bc 97ea cabd
000000b0: 3ae5 593e bbf8 42be ea32 57be 5421 053e
000000c0: 8b2b a83d 4499 223d f860 80be 4149 543e
000000d0: bcc2 f4bd 4332 5dbe 06e7 0a3e a668 e83d
000000e0: a141 283e 4679 543e b073 abbc 5019 6d3d
000000f0: fc64 893d 6863 b9bd 4120 003e 18e2 673e
0.13255876 0.111343354 -0.19031122 0.044808857 -0.0009340189 0.05017796 0.017551744 -0.19107082
0.037250366 0.10828741 0.2452988 -0.06214694 0.012028783 0.12937923 -0.07698775 -0.19232251
0.080633625 0.14126895 -0.1453981 0.05774317 -0.068486474 0.095590234 -0.18106307 0.129972
-0.15194285 0.09296399 -0.19378476 -0.18086678 0.18345104 -0.021815369 0.021157494 -0.07512473
0.017001422 -0.0019248897 -0.04345441 0.10477046 0.12317915 -0.22084227 0.0027511024 -0.002280486
0.03301031 0.173536 -0.012715742 -0.09908026 0.21278849 -0.19040196 -0.21015516 0.13000995
0.0821143 0.039696947 -0.2507398 0.20731069 -0.11951205 -0.21601205 0.13564691 0.11348085
0.16431285 0.20749387 -0.020929188 0.057885468 0.06708714 -0.09052163 0.12512304 0.22644842

lstm1_1.bias_hh_l0 f4 [64]
00000000: 3c1d 18be 70a5 5c3e 669f 3fbe 1a23 de3d
00000010: 2cdf e03d 0253 72bd 02fa 353c 0b0f 933c
00000020: 5630 863d 511d fdbd b642 e63d 0d1b a0bd
00000030: 741c e4bb be98 08be ccdf 4bbe cb26 ff3d
00000040: f209 22be f923 173e 71f8 59be 1bda 55be
00000050: 8bd2 353e e0a6 cfbc c26a 963d 153c edbd
00000060: 4aaa 61be 8004 f73d e96b 883d b4b7 633e
00000070: 49f6 143e 6895 0dbe 3bc1 abbb 9057 edbd
00000080: 68e6 6ebe 0a31 833e be46 0abe c95a 103e
00000090: 36ac 93bd 3c9b d53d 4fb9 00be 9902 9cbd
000000a0: d897 673e 1a25 cdbd 4bd7 98bd 2003 4fbe
000000b0: 2c10 59be a77f b63d 908d 0dbe 542d 3e3e
000000c0: c5d9 dbbd fe9d 073e bb8d a73d adc8 113e
000000d0: 746a 22be c5d6 d4bd 717b 12be 7053 31be
000000e0: 7714 563e 7cf7 1c3e 082f 4f3e 3b87 1e3e
000000f0: bba3 2fbd faa0 2ebe 6fb8 6ebe 4388 98bd
-0.14854902 0.21547484 -0.1871315 0.10846539 0.10980067 -0.059161194 0.01110697 0.017951509
0.06552188 -0.12359107 0.11243193 -0.078176595 -0.0069613997 -0.13339517 -0.1990959 0.12458571
-0.15824106 0.14759816 -0.21286179 -0.20883982 0.17756097 -0.025348127 0.07344581 -0.11583725
-0.22037616 0.12061405 0.06661207 0.22238046 0.14547075 -0.13826525 -0.0052415407 -0.11588967
-0.2333008 0.2562335 -0.13503549 0.14097132 -0.07210581 0.10429999 -0.1257069 -0.07617683
0.22616518 -0.10016842 -0.07462939 -0.20216036 -0.21197575 0.089110665 -0.13823533 0.18571979
-0.107348956 0.13243863 0.0818133 0.14236708 -0.15860921 -0.103925265 -0.14304902 -0.17316985
0.20906244 0.15328783 0.20232785 0.15481274 -0.042880755 -0.17053595 -0.23312543 -0.07447865

lstm1_1.weight_ih_l0_reverse f4 [64, 32]
00000000: fe26 a6bb 74f5 193e 0389 94bd 089a d33d
00000010: 7851 893d 88bd 343e c297 25be 2a53 233d
00000020: e235 34be dc2f de3d 6ce8 a6be c873 6a3e
00000030: 867a df3d 1df6 33be d846 fa3d a6f3 503e
00000040: c7dc ee3d de80 4fbe a001 24be 459b 66bc
00000050: 1cc0 473e 10b7 cc3c 107b 033e a454 68be
00000060: 385c 6b3e 90d1 333d 40ab 3a3c f0dc 0ebd
00000070: acf6 3fbe dac3 003d dfeb 533d 2cae efbd
00000080: ddf3 603e afdb dcbd bb63 753d b863 07bd
00000090: da2c 39be 63c3 523e dcef e83d 197a bd3d
000000a0: d021 3e3d 761b 0abe 6b09 8cbc 14b7 433e
000000b0: ce9b 083e ff3b edbd bc3e 43be 1fc5 50bd
000000c0: 9325 50bc 44d7 59be d0d0 4ebe 81fb a93d
000000d0: b803 863d c49c 1a3e d352 943e bccc 5ebd
000000e0: 98a9 a8bd 9491 81bd ac9e dabd 3080 e73c
000000f0: 27dc ae3d d05a 1e3e 1fe7 1d3e 5af8 47be
00000100: 54d0 2d3d 064f b4bd 652c 213e b824 1bbe
00000110: c00a 553d 62a0 b3bd f0cc 703d 8998 98bd
00000120: 78a4 57be b8e1 88bd 963f bcbe a498 53be
00000130: 4c94 db3e f892 e43c 6817 523d 0eff f33e
00000140: 5cac 283b 919c 9d3e 1826 62be 46d8 0ebe
00000150: ace8 723e 90e8 0cbe ade3 8c3e edc1 e33d
00000160: 080c 6d3e c0f9 a03b 9e73 283e 50e1 5cbd
00000170: 0a6d 463e c49d ffbd 6c0a 603e 860d 04be
00000180: 20c8 89bc 6aa9 4e3e 7bc4 443e 6d63 05be
00000190: a06a 2bbd 2085 2fbb e8b4 e03d 1d91 22be
000001a0: 7027 933c 12fd 30be cbef af3e da8f 18be
000001b0: 97b9 443e 0cd6 58bd 2e24 5f3e b11f 96bd
000001c0: 566b 00bc 6189 b6bb e059 d2bd f711 7abd
000001d0: e8e4 313e c02e c3bb bbe5 29be 3a82 c4bd
000001e0: 8845 6ebd 7439 9abd 6afb 04be 9c57 003e
000001f0: 6b81 e43d d528 8abd 7445 2c3d 8446 25be
00000200: d83a cd3e 586d d33d 75fe 7b3e 3122 a83d
00000210: 6c97 2ebe 54a9 6c3e a04d af3c 7a22 8f3e
00000220: 0627 0fbe 68ae 95bd 64fd 133f 1adf 7fbe
00000230: 5d55 66be 9729 613e c22e 123e 73ad 13be
00000240: 13eb 403e c10d 00be 60a1 a9bd 7a55 953e
00000250: 502c fc3c 149e 9cbd 8011 883e e20c b2bd
00000260: 8269 043e 6ab4 473e 8cec aa3d 66b2 443e
00000270: bca0 303d 9e12 0a3e 3433 573e ec11 913d
00000280: ac42 45bd 43f8 6cbe bafd 42bd fb03 623e
00000290: fc5f 38be 4c90 a4bd 386c 5ebd b7ed 253e
000002a0: 3e49 3f3e 2207 7f3e a2c3 693e e012 f03c
000002b0: 3859 c03a ad9a 353d 802b 873d c607 8f3d
000002c0: 50db 65be 27cc 123d b477 19be 94ca b93d
000002d0: 4050 e63b 58cf 33be 0d02 6dbe 5c1a 30be
000002e0: a07b be3d 5053 953d 86d2 193e 886d ad3d
000002f0: 824d a23d 1b99 dcbd 9d98 44be fc06 b03d
00000300: 0c02 8b3e 9d8a 0f3e 9ad9 d6bd 9cfc 783d
00000310: 6a55 2a3e aad7 34bc fe80 233e bae1 32be
00000320: b05c 16be 9e3c 613e c0db 70bd 6e3a 19be
00000330: b688 c13e 9f7b 4dbc 4025 0a3c 9d1a 41bd
00000340: 99f1 5d3e f9ea 0dbe 98d1 093e 6c55 fe3d
00000350: 84df 943d 80e4 b0bc e68e 223e 6f6f 263e
00000360: 8077 043b bec5 1f3e 4c42 1cbe 90d1 d7bd
00000370: 0052 3b3e d2f0 01be 792c cf3d 0017 36bb
00000380: bf72 fb3e e5f3 06be 58ee 88bd 5bbd 84be
00000390: 0e5e 4dbe cc0a ae3d e493 44be 005a 81be
000003a0: 8c8f 0a3e 940d ecbd 7eec 313e f01c e33d
000003b0: a74d 183e 3347 6f3e 823c 1e3e 7c07 a53e
000003c0: db92 e33d 45e6 983d 7c3f 06be 8058 39be
000003d0: 60a1 6ebe e039 06bc 2d05 113e 84ca 84be
000003e0: 5039 40bd ba60 59be e413 51be 6c74 eb3d
000003f0: 73d7 513e a73e 693e e21a 4abe 8a15 65be
-0.005070566 0.15035039 -0.072526954 0.103321135 0.06704992 0.17650425 -0.16171172 0.039874233
-0.1759868 0.10848972 -0.325992 0.2289573 0.10912041 -0.17574354 0.122205436 0.20405445
0.11663204 -0.20264003 -0.16016245 -0.014075105 0.19506878 0.024989635 0.12839913 -0.22688538
0.22984397 0.043901026 0.011393368 -0.03487867 -0.18746442 0.03143678 0.051738616 -0.117031425
0.21968026 -0.10784089 0.059909564 -0.033054084 -0.18083516 0.20582347 0.113738745 0.09251804
0.046418965 -0.13487038 -0.017094335 0.19112808 0.13340685 -0.11583709 -0.190669 -0.05096924
-0.012704271 -0.21273524 -0.20196843 0.08299924 0.06543678 0.15098864 0.2896944 -0.05439447
-0.082354724 -0.06326595 -0.106747955 0.028259367 0.085380845 0.1546433 0.15420197 -0.19528332
0.042435005 -0.08804135 0.15739591 -0.15150726 0.052012205 -0.08770825 0.058789194 -0.07450969
-0.21058834 -0.066836774 -0.36767262 -0.20663697 0.4288658 0.027902111 0.051291853 0.4765553
0.00257375 0.30783513 -0.22084844 -0.1394969 0.2372157 -0.1376059 0.27517453 0.11120973
0.23149121 0.004912585 0.16450354 -0.053925812 0.19377533 -0.12481263 0.21878976 -0.12895784
-0.01681906 0.20181814 0.19215576 -0.13026209 -0.041849732 -0.002678223 0.10972005 -0.15875669
0.017963141 -0.17284039 0.34362635 -0.14898625 0.19211422 -0.052938506 0.21791145 -0.073302634
-0.007838091 -0.005570576 -0.102710485 -0.06105229 0.17372477 -0.005956501 -0.16591541 -0.09595151
-0.05817178 -0.075304896 -0.12986532 0.1253342 0.11157497 -0.06746069 0.042058423 -0.16140181
0.40083957 0.1032359 0.24608786 0.082096465 -0.1704995 0.23111469 0.02139932 0.2795599
-0.1397973 -0.07308656 0.5780852 -0.2498745 -0.22493501 0.21988522 0.14275649 -0.14421634
0.18839674 -0.12505247 -0.08282733 0.29166776 0.030782849 -0.076473385 0.2657585 -0.086938635
0.12930873 0.19502416 0.08345899 0.19208679 0.04312204 0.13483664 0.21015626 0.070834965
-0.048159286 -0.2314158 -0.047605254 0.22071831 -0.18005365 -0.08035335 -0.054302424 0.16203962
0.18680283 0.24905065 0.22828534 0.029305875 0.0014675027 0.044336963 0.06600094 0.069839045
-0.22446942 0.035839226 -0.1498707 0.09071842 0.0070286095 -0.17559564 -0.23145314 -0.17197555
0.09300923 0.07291281 0.15021715 0.08468157 0.0792494 -0.1077139 -0.19198842 0.08595082
0.2715 0.1401772 -0.10490723 0.060787782 0.16634145 -0.011037746 0.15967175 -0.1746892
-0.14683795 0.2199578 -0.05880332 -0.14963695 0.37799615 -0.012541681 0.008431733 -0.04714452
0.21674193 -0.13859166 0.1345886 0.12418637 0.07269195 -0.021593332 0.15874824 0.16253446
0.002021283 0.15602776 -0.15259665 -0.10538018 0.18293 -0.12689522 0.10115904 -0.0027784705
0.49110982 -0.13178976 -0.066860855 -0.25925717 -0.2005541 0.08498153 -0.19197041 -0.25263977
0.13531321 -0.11526027 0.17375371 0.11089504 0.14873372 0.23367004 0.1545277 0.32232273
0.11111995 0.074657954 -0.13110155 -0.18100166 -0.23303747 -0.008192509 0.1416213 -0.25935757
-0.046929657 -0.21228305 -0.20417744 0.11496815 0.20492344 0.22777806 -0.19736817 -0.22371498

lstm1_1.weight_hh_l0_reverse f4 [64, 16]
00000000: 99dd b3bd 13d7 fdbd 70b5 57be e35a 81be
00000010: 1a5a 79be 2d0c f03d 0070 153e f49e 523e
00000020: 8b1a afbc 870c e5bd e3af d8bd 89f3 163e
00000030: 685e 113e b43b 08be 3a1f 523e afc1 26bd
00000040: da26 3fbe 06e4 463d b70c 1d3e 4329 ecbd
00000050: 3d89 24be 5e89 9ebd 08bb 67bd 8b28 6d3e
00000060: 7208 53be 2834 153e afc0 20be 1a41 443e
00000070: 0180 073e 9166 65be c8c9 19bd 1c92 073e
00000080: 1f3f 14be e0e8 913c 4db1 2c3e 822f 653e
00000090: 57e3 dfbc b5a7 39be a498 94be fc60 89be
000000a0: b357 1f3e 5430 743e e870 903e c6c7 23bd
000000b0: ac10 33be b9ed bcbd 822e 64be b292 5dbe
000000c0: 2d0f f2bd dbbc 003e 4b59 9abd b559 1bbc
000000d0: e9d7 15be 4460 17be 05e2 853c 6622 b83c
000000e0: c5fd 40be 68f4 ce3d 74c2 9abd a466 563e
000000f0: 0e88 f23d 612c b4bd 37fe 393e dbb1 84bd
00000100: 7147 273d 17a6 12be 9867 8bbd 2536 8bbd
00000110: e010 d7bb 4143 653e 21f1 3dbc 5860 243e
00000120: 90cd 603e 61ce e63d 53a5 8c3d 0811 9abd
00000130: 03fc 1ebd 92f7 a83c 10e8 d13e 6582 e7be
00000140: 121a 213d fb22 5f3e c421 7f3d 0f8c 11be
00000150: 2d15 123e 9634 1dbe 75af 3e3e 3b61 0fbe
00000160: fdde e2bc a0e0 ffbd 18f7 69bd de33 88be
00000170: 9438 85be c959 473e ec3a df3e 7f44 7abe
00000180: 54e7 bfbc c8ce 82be 6c3b a5be d269 3d3e
00000190: 1f7c 49be ed9b 7abd 1546 383e 7c79 69be
000001a0: 88a7 fcbd 4e72 963c 07e8 313e f17c 0bbe
000001b0: 11c8 3a3d d7f2 293e c25b a8be ca66 01be
000001c0: 58ab 17be 07f5 0c3e f2d1 963c ad6d 313d
000001d0: 1d57 41be b79c acbd ca10 d03d c778 03ba
000001e0: 1480 b53a cf1b 52bd 60d0 9b3c 79d7 293e
000001f0: edff 0c3e cb65 6ebe d30c 903e 7610 8cbe
00000200: 4bb6 30bd 2b4c 2c3e 0006 29bd 7c46 fe3d
00000210: 1dc5 b5bd 92ee 803d 6903 233d ea30 29be
00000220: 70fd f3bd d339 2a3e 8cbf 453e 3c5b bdbd
00000230: d50b 2c3e 2e89 04be 1a0c 84be 3506 80be
00000240: 2a98 6d3e f927 483e d3dc f0bd 6d8e 7c3d
00000250: fe67 f6bc b6c2 1a3e 32c9 303e a648 873d
00000260: f5f2 f9b8 1a52 d7bc a460 4c3e a287 633e
00000270: d15f 08be bb37 3f3e abd5 913e 8a89 30be
00000280: 1954 35bd 83c0 e5bd 7b00 9f3d a0b2 663e
00000290: 3171 79be 2f4c 183d 50ab 57be b61e 08bd
000002a0: 4204 11be e5af e33d a4bc 733e 9109 f53d
000002b0: e673 503e 6f6c 1cbe d756 013e 6cb7 3abc
000002c0: 4a06 3b3e 4b16 523d ed1d 923d 49b2 12be
000002d0: 9a9d 583d 2106 16be 873c 0d3e 4911 293e
000002e0: 25fc 0c3d c325 4a3d bd5b a8bd 2d5f 573e
000002f0: 0137 b4bc 70de 84be dda2 e23d a255 d93c
00000300: bc9c 0cbe 7958 23bd e50a 2b3d 1d27 46bd
00000310: 5473 7e3e 1c2f ff3d aa18 503e b4ca 613e
00000320: a7f0 0dbe bcd1 5a3e fa34 e23d e295 283e
00000330: a98f 02be 2a55 9ebd 7e90 42be fc72 683e
00000340: acc6 79bd 1e00 893d 6458 493e 2322 883d
00000350: 3855 84bd c973 36be 2dc2 2abe 4724 423e
00000360: 780b be3c 7963 6e3d a547 0c3e 5799 463e
00000370: 34e1 a43d 44ed 5d3e 3ad6 97bd f44e 05bc
00000380: 792b 29be 2c02 073e 7256 813e f6f0 72be
00000390: 32c2 803d a0f3 fabc 0e23 6c3e 8721 3dbd
000003a0: aabf 49be 7955 e33d 5049 fb3c eaa4 15be
000003b0: 9cf0 f8bc 8633 483e affc 4a3e d8e1 d2bc
000003c0: 1aae 0bbd c06c 2a3e 4b21 713e 0e30 31be
000003d0: 5025 8cbd a24a 1c3d 2f65 b63d a66f 633e
000003e0: 0cb0 0c3d 4c28 f33d 3f40 37be adb0 4d3e
000003f0: e0e9 18be 295d 273c 1a12 d2bd b23e a5be
-0.08782501 -0.12394538 -0.21065307 -0.25264654 -0.24350777 0.11721072 0.14593506 0.20568448
-0.021374961 -0.1118403 -0.10580423 0.14741339 0.1419617 -0.13304025 0.20519724 -0.040712055
-0.18667164 0.048557304 0.15336882 -0.115313075 -0.16067977 -0.077410445 -0.05657485 0.23159997
-0.2060869 0.14570677 -0.15698503 0.1916546 0.13232423 -0.22402407 -0.03754595 0.1323933
-0.14477204 0.017811239 0.1686451 0.22381404 -0.027330084 -0.18130381 -0.29022706 -0.26831806
0.15560798 0.2384656 0.2821114 -0.03998544 -0.17486829 -0.092250295 -0.22283366 -0.21637991
-0.11819301 0.12572043 -0.075365625 -0.009481837 -0.14633144 -0.14782816 0.016343126 0.02247734
-0.18846805 0.101052105 -0.0755662 0.20937592 0.118423566 -0.08797527 0.18163382 -0.06479236
0.040839616 -0.14321171 -0.06806868 -0.067974366 -0.006563291 0.22388937 -0.011593134 0.16052377
0.21953416 0.112698324 0.068674706 -0.0752278 -0.038814556 0.020625863 0.40997362 -0.4521667
0.039331503 0.21790688 0.06228806 -0.14213584 0.1426589 -0.15352091 0.18621619 -0.14001934
-0.02769422 -0.12494016 -0.057120413 -0.26602072 -0.26019728 0.19467844 0.4359964 -0.24440192
-0.023425736 -0.25548387 -0.32271898 0.18497398 -0.19676255 -0.06118386 0.17995484 -0.22800249
-0.123366416 0.018365052 0.17373668 -0.1362188 0.045600954 0.16596542 -0.32882506 -0.12636867
-0.14811456 0.13765346 0.018410657 0.043317486 -0.18880887 -0.084283285 0.10159452 -0.00050152506
0.0013847374 -0.05129605 0.01902026 0.16586103 0.13769503 -0.23281018 0.28134784 -0.2735631
-0.043142598 0.16825931 -0.041265488 0.124157876 -0.08875487 0.06295504 0.039798174 -0.16522565
-0.11913574 0.1662362 0.1931135 -0.09245917 0.16801389 -0.12942955 -0.25790483 -0.25004736
0.23202577 0.19546498 -0.11760869 0.061659265 -0.030078884 0.15113339 0.1726425 0.066056535
-0.000119184995 -0.026284266 0.1995874 0.22219709 -0.13317801 0.18673603 0.28483328 -0.17239967
-0.044269655 -0.11218359 0.077637635 0.22529078 -0.24359585 0.03718203 -0.21061444 -0.033232413
-0.1416178 0.111175336 0.2380243 0.11964715 0.20356712 -0.15275739 0.12630783 -0.01139627
0.18264118 0.05129079 0.07134614 -0.14325823 0.052884676 -0.14650775 0.1379262 0.165105
0.03442015 0.04935242 -0.08220623 0.210324 -0.021998884 -0.25950956 0.1106622 0.02653009
-0.13731664 -0.039879296 0.041758437 -0.048377145 0.24848682 0.12460157 0.20321909 0.22049981
-0.13861333 0.2136907 0.11045261 0.16463426 -0.12750115 -0.077310875 -0.19000432 0.22700113
-0.060980484 0.066894755 0.19662625 0.06647136 -0.06461567 -0.17817606 -0.16675635 0.18959151
0.023198828 0.058200333 0.13699205 0.19394432 0.080507666 0.21672541 -0.07413907 -0.0081365
-0.1652049 0.13184422 0.25261265 -0.23724732 0.0628704 -0.030633748 0.23060247 -0.046174552
-0.1970202 0.11100287 0.030674607 -0.14613691 -0.030388169 0.19550905 0.19822954 -0.025742456
-0.034101583 0.16643047 0.23547857 -0.17303488 -0.06843054 0.038157113 0.08906018 0.22210559
0.03434758 0.118729204 -0.17895602 0.20086928 -0.14932966 0.010215082 -0.10257359 -0.32274395

lstm1_1.bias_ih_l0_reverse f4 [64]
00000000: c1ae 59be 00b1 ac3d 2586 9d3d 55d1 e6bb
00000010: 2747 c83d 01c8 133d ae5e 893e 23a0 ab3d
00000020: 84f9 213e 33ad 90bc c724 18bd d5ba 47bd
00000030: 1d52 22be e879 783e 1279 a43e b88b ffbd
00000040: 9a90 a3bd 7079 823e 8b8e 903e 8634 99bd
00000050: 7f33 e6bd da5a ff3d cbcd 7e3e a32c af3d
00000060: 9494 b3bd 94f7 d93d 8088 38be 4610 b23d
00000070: 5cdb 863d e72c 6c3e 3a23 e53d 44b4 edbd
00000080: 54e3 edbd b0ae 1bbe f252 63be c4ae 933d
00000090: c945 783e 254d 6b3e 37b1 0bbe b5d5 8fbd
000000a0: 3d5b e63b 581b 543d 9829 763e 4067 333d
000000b0: c175 943d e00f 323e a8c9 1cbe 4922 db3d
000000c0: dfea 3c3d 60c5 703e 419d ecbd 7c94 4ebe
000000d0: 7491 c33c b4a2 533e 395f 893e 85ec 01bc
000000e0: 2132 6c3e 9ff2 02be cd69 4a3e 259f 573e
000000f0: 8012 a83d 528d 64be ec78 26be b116 6b3d
-0.2125807 0.084321976 0.07691602 -0.0070439973 0.09779196 0.03607941 0.26830047 0.08380153
0.15817839 -0.017660713 -0.03714445 -0.04876216 -0.15851636 0.24265254 0.3212362 -0.12477821
-0.07986565 0.25483274 0.28233752 -0.07480721 -0.11240291 0.124685004 0.24883191 0.08553436
-0.087685734 0.10642925 -0.1802082 0.0869451 0.06584808 0.23064004 0.111883596 -0.116066486
-0.11615625 -0.15203357 -0.2219961 0.07211068 0.24245371 0.22978647 -0.13641821 -0.07023183
0.0070299194 0.05178389 0.24039304 0.04379964 0.07249022 0.17388868 -0.15311301 0.10699899
0.046122428 0.23512793 -0.11553431 -0.2017383 0.023873068 0.20667535 0.26830462 -0.007929926
0.23065998 -0.12787865 0.19766922 0.21056803 0.082066536 -0.22319534 -0.16257066 0.057394687

lstm1_1.bias_hh_l0_reverse f4 [64]
00000000: a642 b43d 128d 283c 8a2f 1c3e ab31 7cbe
00000010: c11a 76bc 1c38 58be 9485 48be 2ada bd3b
00000020: 6c74 cebd 0556 61be e535 1c3e 9011 923d
00000030: 0079 923d 46ef d4bc e7a4 18be bf4b 413e
00000040: c458 2bbe 9f52 943c f35a bc3d 973f 073d
00000050: 5e7f 9cbc 224f da3c e532 3bbe 7ace 823d
00000060: 1072 51be e7ca 343e 9221 183d a133 6e3e
00000070: 4d53 4bbe 83c3 44be 3e91 c43d 993c d639
00000080: e299 10be e81f 903d d68b cfbd 1d25 213e
00000090: 7179 0e3e 91e5 223e eda0 27be 6f3f fcbb
000000a0: 3d4a 6ebe a7af a83d 6a9b b4bd 381d 8e3d
000000b0: 7dee 973d fa97 7c3e 8698 583e 5b72 29be
000000c0: 2252 ae3d b0f6 02be 7a2b 903e 957b dc3d
000000d0: cca6 23be 28a3 5fbe a744 32bd 3879 ca3d
000000e0: 6916 0f3e 7779 003b af77 f5bc d72c c53d
000000f0: 783b bfbd ecf3 493e e9ca 133e 1fb0 25be
0.08801775 0.01028754 0.1525251 -0.24628322 -0.015021027 -0.21115154 -0.19582206 0.0057938294
-0.100807995 -0.2200547 0.15254934 0.07132256 0.07151985 -0.025993 -0.14906655 0.18876551
-0.1673308 0.018105803 0.09197035 0.03301963 -0.019103702 0.026649062 -0.18281133 0.063870385
-0.20453668 0.17655526 0.03714139 0.23261882 -0.19855995 -0.19215207 0.09598015 0.0004086241
-0.14121202 0.07037336 -0.101340935 0.15736814 0.13913514 0.15907885 -0.16369982 -0.0076979916
-0.23270507 0.08236628 -0.088187054 0.06939167 0.07418535 0.2466735 0.21151933 -0.1654753
0.08511759 -0.12789416 0.2815817 0.10765759 -0.15981597 -0.21839583 -0.043522503 0.09886402
0.13973393 0.0019603649 -0.029964296 0.09627693 -0.09337515 0.19721955 0.14432873 -0.16180466

lstm1_2.0.weight f4 [32, 32]
00000000: 526d 953b 1a31 f5bc 0ce2 74bd 8cbe b63d
00000010: 2f22 30be eaf8 273e 3034 753d 36d5 243e
00000020: 111d 53bd e744 8e3d b2b4 783d dd66 35be
00000030: 5373 653d d963 193e d6b2 e0bd 2427 08be
00000040: 755c 3ebd 1063 1abe b62e df3d 6942 d93d
00000050: 81ab a1bd 54c3 0b3e 2735 0e3e a3f3 78bd
00000060: 95a7 583d 160b 8b39 1663 9f3d 5f0b 16be
00000070: e78c d8bc ba42 70bd 8338 e4bd c81c d33d
00000080: 4ecc 24be 1a1d 0e3e d004 2fbd 56ac 88bd
00000090: 0a6b 0e3e 7138 8a3c 86ad 363e f4d3 013e
000000a0: f51c dbbd f4dd 8e3d e09a df3c df79 303e
000000b0: d8bc 053d 3924 5ebd e4d8 803d c106 a5bd
000000c0: cd78 bfbd c3d8 d4bc b052 1b3d d522 1a3e
000000d0: 6c5c 43bd d57c 16be 61f0 de3d 3f1a ecbd
000000e0: e70c 353e bb31 373d 97b6 e63d 4426 7c3d
000000f0: 8c6e 7f3d b0f9 223d 2bf5 bcbc b830 38bd
00000100: 1771 55bc ddfc c6bc 4b60 253e 9374 163e
00000110: d8d5 143e 4ae9 ebbd 4b0f 9e3d 3c3e cebd
00000120: d011 eb3d 866d cfbd a166 d0bc d9ec 463d
00000130: 09ab d8bd 7bb0 1a3c 96c8 10be 3fe7 93bd
00000140: 0703 ca3d 5691 d73d 2bcf 99bd 077f 143e
00000150: 5b3c 393e e096 223e 0f81 2d3e 1001 933c
00000160: d5dd ccbd 8d77 cbbd 45ce ecbc d9e1 c7bd
00000170: aedc 2fbd 0e92 70bd 5da8 bd3d 85e7 5cbc
00000180: 4842 98bd a19f 10bd 5b29 df3b a8dc 4ebe
00000190: 91d1 0f3e 6b59 913c 8cf8 1b3e b33a a93d
000001a0: 61c3 06be c6e4 30be 84bf 083e 1682 dd3d
000001b0: a4a8 1c3e 8690 c9bd 4e44 4b3e 2066 113e
000001c0: 9d52 c9bd baa4 673d 36e1 2f39 af11 083e
000001d0: 81b4 103e 6674 053e 81a2 813b 2310 263e
000001e0: 2969 293c 1829 1a3e 0162 953d 7c40 143e
000001f0: 1138 a53d 2a2b 2cbe 47a8 473e f96a 34be
00000200: 6cb7 b13d d9f2 c93b 20c8 5a3e c13b 05be
00000210: a9ce 2f3e af13 50be d855 9abe 4037 373d
00000220: 0676 643d ff9a 003e 728b d7bc 6ffe 8f3c
00000230: f3d9 1abe 189e b8bd 5a79 1abd f956 cc3d
00000240: 7f1c e33c 0c7f babe 6a51 03bd 6baa 78be
00000250: a548 6ebd 87f4 523e 2b5e 81be 0060 cbbd
00000260: c400 823d 6637 6a3e 8b7b b43d 3b1c 923e
00000270: c6e5 68bd 9ddd 953d fab2 eabd ef5a 553e
00000280: 5342 27bd 0a99 04be d570 1dbe 6a83 d13d
00000290: d9a0 15be a3c1 b9bc 7f0b d9bd 98ed eb3d
000002a0: 78e4 dabc edbd 86bd 284e febd 0801 10be
000002b0: 1610 72bd b0c4 7b3d f090 343e d29a 62bd
000002c0: dac2 03be acd1 93bb 5de1 1b3d 91c3 c8bd
000002d0: 05ce d7bd 91cf e23d a5c7 fc3d 67fb 173d
000002e0: 4000 3f3e 68b6 19bd 03de bcbd c01e a0bd
000002f0: c3f7 833a 082d 093d 4b30 ca3c 0bb7 833d
00000300: fb92 e23c 752a e0bd c728 1bbe ea0c 8a3c
00000310: 5e67 2abe df81 d1bd 4050 99bd 00f4 d43d
00000320: 6e20 6dbd b271 8cbd 8fe3 5e3d 66f8 3e3e
00000330: 85e7 bf3a 4307 f3bd 86bc e3bd 45ef b6bc
00000340: 9e0f f63d a93c c03d 8487 e83c 03b5 8a3d
00000350: 55a5 36be 8f9d f4bd 63bd a93b 40d6 dd3d
00000360: a1b9 2d3e 1b72 b5bd f2c8 1f3d 9f40 7c3d
00000370: 5748 17be a5b7 83bd 386c 98bd 8d47 d7bd
00000380: 4d81 fdbd c170 0d3d 12a4 4ebd 20ab 003e
00000390: 9638 05bd e608 453e 3f20 2abe b6ee a7bd
000003a0: e51d dbbd 6f3b 123e 69c7 cb3c 5b14 1b3e
000003b0: c8ee bc3d de03 b83d 1fc3 26be 73bb f93c
000003c0: 8444 1bbe 8ecc a53c e8cd a23c aeb4 f13d
000003d0: 6dbc d0bc 19cb 6f3c da26 1ebe 7023 14be
000003e0: 5182 f9bc 3d72 9bbd e157 1cbe 57ac 7cbd
000003f0: 50e1 963d bfc3 f83b d9e2 b7bd 5926 24bd
0.004560151 -0.02993064 -0.059785888 0.08923063 -0.1720054 0.16403547 0.059864223 0.16096959
-0.05154139 0.06946736 0.0607192 -0.1771502 0.056018185 0.14979495 -0.1097161 -0.13296181
-0.046474893 -0.15076852 0.10897581 0.1060837 -0.0789404 0.1364873 0.13887464 -0.060779225
0.052894194 0.00026520406 0.07782571 -0.14652775 -0.026434375 -0.058657385 -0.11143591 0.10308224
-0.16093561 0.13878289 -0.0427292 -0.066734955 0.1390802 0.016872616 0.17839631 0.1267851
-0.106988825 0.06975928 0.02729553 0.1723399 0.0326508 -0.054233763 0.062913686 -0.08057929
-0.09349213 -0.025982266 0.037920654 0.1505235 -0.047695562 -0.14696057 0.108856924 -0.115284435
0.17680703 0.04472516 0.11265295 0.06155993 0.062361285 0.0397889 -0.023066124 -0.044968337
-0.013027451 -0.024290496 0.16150014 0.14692907 0.145347 -0.11519106 0.07717761 -0.10070464
0.11478007 -0.10128312 -0.025439562 0.04856572 -0.10579497 0.00944149 -0.14139017 -0.07221841
0.09863859 0.105257675 -0.07510217 0.14501582 0.1808943 0.15877867 0.16943763 0.017944843
-0.100032486 -0.09934912 -0.02890695 -0.09759874 -0.042935066 -0.05873304 0.09260628 -0.013482933
-0.07434517 -0.035308484 0.00681035 -0.20201361 0.14044787 0.017742833 0.15231532 0.08263149
-0.13160469 -0.1727477 0.13354307 0.108158275 0.15298706 -0.09842019 0.19850275 0.14199114
-0.0983021 0.05655358 0.00016773198 0.13287996 0.14131357 0.13032684 0.0039561396 0.16217093
0.010340014 0.15054739 0.072940834 0.14477724 0.080673344 -0.16813341 0.19497786 -0.17618932
0.08677563 0.006162983 0.21365404 -0.13011076 0.17168678 -0.20320009 -0.3014362 0.044730425
0.05577662 0.12559126 -0.02631161 0.017577378 -0.15122204 -0.09014529 -0.037713386 0.09977526
0.027723549 -0.36425054 -0.032060064 -0.2428376 -0.058174748 0.20601092 -0.25267157 -0.0993042
0.06347802 0.22872695 0.088126265 0.28537163 -0.056859754 0.0731766 -0.11459918 0.2083547
-0.040834736 -0.12949005 -0.15375073 0.10230143 -0.1461214 -0.022675341 -0.10597896 0.11519927
-0.02672027 -0.06579194 -0.12417251 -0.14062893 -0.059097372 0.061466873 0.17633414 -0.05532343
-0.12867299 -0.004511079 0.03805672 -0.09802926 -0.10537342 0.110747464 0.12342767 0.03710499
0.18652439 -0.03752747 -0.09222033 -0.07818365 0.0010068346 0.03349021 0.024681231 0.06431397
0.027657976 -0.10945598 -0.15152274 0.016851861 -0.16640994 -0.10229849 -0.074860096 0.10398102
-0.057892255 -0.06857623 0.054416236 0.18649444 0.0014641142 -0.118666194 -0.11119942 -0.02233089
0.120146975 0.0938657 0.028384931 0.067728065 -0.17836507 -0.119441144 0.0051800474 0.108318806
0.16965343 -0.088596545 0.039009996 0.061585065 -0.14773689 -0.06431512 -0.07442516 -0.10511694
-0.12378178 0.03453136 -0.05044944 0.12565279 -0.032524668 0.19241676 -0.16613863 -0.081998274
-0.10699061 0.14280485 0.02487536 0.15144484 0.092252314 0.089851126 -0.1628537 0.03048489
-0.15162855 0.02023914 0.019873574 0.1180204 -0.025480473 0.014635825 -0.15444508 -0.14466643
-0.030457648 -0.075901486 -0.15267898 -0.061687794 0.07367194 0.007591694 -0.08978815 -0.040075634

lstm1_2.0.bias f4 [32]
00000000: fdaf 9f3d 855e 7f3c 3a2a 473c ead1 80bd
00000010: b1ae bebc 3d0f 45bd a257 a13d 6ffd 00be
00000020: 9b24 083d cfbc 96bd 55e2 90bd dcf9 31be
00000030: 6d9a 95bd 02ab 3dbe 8303 a3bc 5bf9 68bd
00000040: 5e38 30be 686d 0dbe fd11 84bd bcd8 263e
00000050: be83 f8bd 2896 b1bd a26c c1bd 72ab 41be
00000060: f0d5 21be bf39 9e3d 8a8f 253c 8113 623d
00000070: 7286 803d d555 9c3d b90e 23bc 4b00 163e
0.07797239 0.0155865 0.012156064 -0.06290038 -0.023276659 -0.048110235 0.07878043 -0.12596677
0.033238035 -0.07360231 -0.070744194 -0.1738047 -0.07304845 -0.18522266 -0.019899135 -0.05687843
-0.17209002 -0.13811266 -0.064487435 0.16293615 -0.12134503 -0.08671218 -0.09444548 -0.18913057
-0.15804267 0.07725858 0.010105023 0.05519438 0.062756434 0.07633559 -0.009952241 0.1464855
