results/pretraining_samples_effect_results/Dataset 2/pre_rate=0.5/Experiment4(3C-4)/from_Dataset 2_ft_model.pth (torch, 95756 bytes, 27 tensors)

cnn1.0.weight f4 [16, 1, 3]
0	0xbe962ff8	-0.29333472
1	0xbe81d191	-0.253552
2	0x3e888475	0.26663557
3	0xbd52148a	-0.05128912
4	0x3c360bb7	0.0111111915
5	0x3e9654fa	0.29361707
6	0xbf0bb113	-0.5456707
7	0xbefcdaac	-0.49385583
8	0x3eb11950	0.34589624
9	0x3da4981d	0.08036826
10	0xbe8893cc	-0.2667526
11	0x3e9656ce	0.29363102
12	0x3edbf87e	0.42963022
13	0x3e1ab3b2	0.15107611
14	0x3d40b246	0.047045015
15	0xbedf2ec8	-0.4359038
16	0xbd5fe3df	-0.054660674
17	0xbeeffa63	-0.46870717
18	0xbec1c3d5	-0.3784472
19	0xbe5c3df8	-0.21508014
20	0xbc375b71	-0.011191235
21	0xbde63ca8	-0.11242038
22	0xbdfb6dcf	-0.12276804
23	0xbec72f2d	-0.3890318
24	0xbf16af3c	-0.58861136
25	0xbe911934	-0.2833954
26	0xbeb9c560	-0.36283398
27	0x3f066b4f	0.5250749
28	0x3ee3af8e	0.44469875
29	0xbe60dc13	-0.21958952
30	0xbee38146	-0.44434565
31	0x3f060f64	0.52367234
32	0x3eef8b37	0.467859
33	0x3e806393	0.2507597
34	0x3f15d4f7	0.58528084
35	0x3e45ae8b	0.19304864
36	0x3e681755	0.2266515
37	0xbe9ab9fd	-0.30220023
38	0xbecfe37b	-0.4060324
39	0x3ea68365	0.3252212
40	0x3ee8bf22	0.45458323
41	0x3ecd5567	0.4010422
42	0x3bc0651f	0.0058714296
43	0x3d8061cb	0.062686525
44	0xbe655efc	-0.22399515
45	0x3efe4844	0.4966451
46	0xbdab874b	-0.083754145
47	0x3f3f9810	0.74841404

cnn1.0.bias f4 [16]
0	0x3e97c4da	0.29642373
1	0xbef6dfb3	-0.48217544
2	0xbf1257e0	-0.57165337
3	0x3d996881	0.07490636
4	0x3e71e271	0.23621537
5	0xbe9f1416	-0.31070012
6	0xbe98daf8	-0.2985456
7	0x3e37e891	0.17959811
8	0x3e81e0fd	0.25366965
9	0x3f175569	0.591147
10	0x3f07b017	0.53003067
11	0xbe07d757	-0.1326574
12	0xbe226f54	-0.15862781
13	0x3ec62a93	0.38704357
14	0x3da2736f	0.079321735
15	0xbe7f22ba	-0.24915591

cnn2.0.weight f4 [32, 16, 3]
0	0xbd2ec0bc	-0.042664275
1	0x3d267ffe	0.040649407
2	0x3e0a7dda	0.13524571
3	0xba281cd8	-0.00064129895
4	0x3dfb5219	0.12271518
5	0x3d4d4a1f	0.050119516
6	0xbddbc9e5	-0.10731868
7	0xbde67ba0	-0.11254048
8	0xbd9468b2	-0.072465315
9	0xbd4d1996	-0.05007323
10	0xbd02da09	-0.031946216
11	0xbcb4fcd2	-0.02209321
12	0x3e0bf94b	0.13669316
13	0x3d4034b3	0.046925258
14	0xbd151736	-0.03639909
15	0x3d654b79	0.05598018
16	0x3d943720	0.07237077
17	0x3db632c2	0.088964
18	0x3cc09d65	0.023512552
19	0xbd61fd38	-0.05517313
20	0x3d8a8166	0.06762962
21	0x3e396bc4	0.18107516
22	0x3e0b0521	0.13576175
23	0x3e52ca5a	0.20585003
24	0x3e266324	0.16248757
25	0x3cbb538e	0.02286699
26	0xbc525bbb	-0.012839253
27	0x3dd3f6f6	0.103498384
28	0x3dd7a681	0.10529805
29	0xbd8eb18f	-0.0696746
30	0x3e0333cd	0.12812729
31	0xbd2f46a3	-0.042791974
32	0xbc860f58	-0.016364738
33	0xbd3a2790	-0.045447886
34	0xbd09ca56	-0.03364023
35	0x3da97bca	0.08275564
36	0xbde6138d	-0.11234198
37	0xbe1016d8	-0.14071214
38	0x3d234ae7	0.039866354
39	0xbd737db2	-0.059446044
40	0x3e24e89d	0.1610436
41	0x3da2a0ce	0.07940827
42	0x3e483e1c	0.19554943
43	0x3e098ccb	0.13432615
44	0x3dc61716	0.09672372
45	0xbda0276e	-0.078200206
46	0xbd8c4416	-0.06848924
47	0xbdadd82f	-0.084884994
48	0xb97e5188	-0.000242537
49	0x3d7e4502	0.06207753
50	0x3dbea1a9	0.09308178
51	0x3d70a20c	0.05874829
52	0x3defd9b0	0.117114425
53	0x3e02b626	0.12764797
54	0xbc86b472	-0.016443465
55	0x3d482bf8	0.048870057
56	0xbce5357a	-0.027979601
57	0x3c0ebee3	0.008712503
58	0x3cad6879	0.02116798
59	0xbc3589e8	-0.011080243
60	0xbdc9b8bc	-0.098496884
61	0x3c883301	0.016625883
62	0xbda69a3c	-0.081348866
63	0x3d3534e7	0.044239905
64	0xbd7d6ff8	-0.06187436
65	0xbd0964d4	-0.033543423
66	0xbd8c34b6	-0.06845991
67	0x3e0f6432	0.14003065
68	0xbd5a18bf	-0.053246256
69	0x3dbc44f0	0.09192836
70	0x3cfa9476	0.03058837
71	0x3db00568	0.08594781
72	0xbce15e07	-0.027510656
73	0x3dcff809	0.10154731
74	0x3dd7296c	0.105059475
75	0xbcc6f650	-0.024287373
76	0x3ddb1c95	0.10698811
77	0x3e12f9d7	0.14353119
78	0x3dceec98	0.101037204
79	0xbd128de3	-0.035779845
80	0x3e0f8b4a	0.14017978
81	0xbdc8a233	-0.09796562
82	0xbd3c08f0	-0.04590696
83	0xbdcb7ba6	-0.099356934
84	0xbc1a4941	-0.009416879
85	0x3cac7566	0.021052074
86	0x3b64cf12	0.0034913463
87	0xbdd19301	-0.10233117
88	0x3d1ad66c	0.037802145
89	0x3d7570a0	0.05992186
90	0x3e083ac1	0.13303663
91	0x3d62e6bc	0.055395827
92	0x3d6c58eb	0.057701986
93	0xbc05b5ca	-0.008161018
94	0xbd08040b	-0.03320698
95	0xbe2eab61	-0.17057563
96	0xbdbded40	-0.092737675
97	0x3dc21525	0.09476689
98	0xba0f9f8a	-0.000547879
99	0x3d3398ed	0.043847013
100	0x3d67089c	0.056404695
101	0x3df3b4d0	0.118997216
102	0x3de13c16	0.109977886
103	0x3e047afe	0.12937543
104	0x3de66d4f	0.11251318
105	0xbd09e857	-0.033668842
106	0x3cfb89a2	0.030705277
107	0x3bd7136c	0.0065635946
108	0x3dcb2d94	0.09920803
109	0x3d861144	0.06546262
110	0xbda36683	-0.07978537
111	0xbd097093	-0.033554625
112	0x3e0f9da0	0.14024973
113	0xbd878843	-0.06617787
114	0x3d6cf45a	0.05785022
115	0x3e050768	0.12991107
116	0x3db10884	0.08644202
117	0xbcbd9950	-0.023144394
118	0xbe912f72	-0.2835651
119	0xbe633acc	-0.22190398
120	0x3d100352	0.035159416
121	0xbdafa3ed	-0.08576188
122	0xbdd68904	-0.104753524
123	0x3d002095	0.031281073
124	0xba6bcf85	-0.00089954614
125	0xbcef0acb	-0.029179951
126	0xbd9bc4ea	-0.07605918
127	0xbd8d93f1	-0.06912983
128	0xbddb189d	-0.10698054
129	0x3e3900f5	0.18066771
130	0x3d637b6e	0.055537634
131	0xbc3c9d87	-0.011512167
132	0x3d5a3902	0.053277023
133	0xbdf3f301	-0.11911584
134	0x3dd675da	0.10471697
135	0x3e23e9a3	0.16007094
136	0x3dd3d5e9	0.103435345
137	0x3dd78166	0.10522728
138	0x3dd31eb7	0.10308593
139	0xbd3bc609	-0.045843158
140	0xbcbce337	-0.023057563
141	0x3e5525d6	0.20815215
142	0x3d913f4a	0.070921496
143	0x3e9382f2	0.2881084
144	0xbe3558d2	-0.17709664
145	0x3be1bc05	0.0068888688
146	0xbe3c29d1	-0.18375327
147	0x3d8c53ca	0.06851919
148	0xbdf1e862	-0.11811902
149	0x3e07801f	0.13232468
150	0xbd919acc	-0.07109603
151	0x3c45972c	0.012059968
152	0xbe06aefe	-0.13152692
153	0x3d9f46c5	0.0777717
154	0x3dc24ebe	0.09487675
155	0x3dce29b6	0.100665495
156	0xbda3fda2	-0.08007361
157	0xbdc5c037	-0.09655803
158	0x3df1e813	0.11811843
159	0x3e043976	0.12912545
160	0xbdcd6a41	-0.10030032
161	0xbe128639	-0.14309014
162	0x3dbd3d2e	0.09240185
163	0x3c8d057f	0.017214535
164	0x3e0435b7	0.12911116
165	0xbd9d3bf8	-0.07677454
166	0xbe8f6df6	-0.2801358
167	0xbdea302d	-0.1143497
168	0x3d0d4758	0.034491867
169	0x3da5c57e	0.08094309
170	0x3ae8ee3c	0.0017771195
171	0xbe1c0653	-0.15236787
172	0x3d636035	0.055511672
173	0x3c865a6c	0.016400538
174	0xbe01b284	-0.12665755
175	0xbb33aa8b	-0.0027414884
176	0x3daa3788	0.08311373
177	0x3e120f5b	0.1426367
178	0x3dc8c9ca	0.09804113
179	0x3b95a819	0.004567158
180	0x3d43fa06	0.047845863
181	0xbd57c085	-0.052673835
182	0xbe0bbbd3	-0.13645868
183	0x3dc1d7c3	0.094649814
184	0x3d798f13	0.06092746
185	0x3dbca31b	0.092107974
186	0xbcd3ac85	-0.0258391
187	0x3d821a06	0.0635262
188	0xbda2d978	-0.07951635
189	0x3e497dfa	0.19676962
190	0x3eacfc5c	0.33786285
191	0x3e9a5b7c	0.30147922
192	0xba14693c	-0.0005661433
193	0xbe30f802	-0.17282107
194	0xbcab64bb	-0.020922055
195	0x3d867d48	0.06566864
196	0xbdff8c07	-0.1247788
197	0x3d3d17d8	0.046165317
198	0x3dde3f68	0.108519375
199	0x3dbcd53b	0.09220358
200	0xbdf956f1	-0.12174786
201	0xbd87d94f	-0.06633245
202	0x3c661a36	0.014044335
203	0xbddfce59	-0.109280296
204	0xbe1c9449	-0.15290941
205	0xbdbd3d4a	-0.092402056
206	0xbd86cd2d	-0.06582103
207	0x3d87c6d2	0.06629719
208	0x3d863632	0.06553306
209	0xbdc26325	-0.094915666
210	0xbdc9244d	-0.09821377
211	0x3df36840	0.118851185
212	0x3d20c084	0.039246097
213	0xbcc8f22f	-0.024529545
214	0xbcc79c86	-0.024366628
215	0x3d8e57da	0.0695035
216	0x3d14aa21	0.03629506
217	0x3d67a166	0.056550406
218	0xbd13c42a	-0.03607575
219	0x3d845c1d	0.06462882
220	0x3d9e2bdd	0.0772321
221	0x3dd4a4e6	0.103830144
222	0xbd3f200e	-0.04666143
223	0x3de2c0b9	0.11071915
224	0xbd7559fc	-0.05990027
225	0x3d504059	0.050842617
226	0xbd47e594	-0.048802927
227	0x3c7e4049	0.015518256
228	0xbde5cbce	-0.11220513
229	0x3df8908b	0.121369444
230	0x3d967a88	0.0734759
231	0x3d286046	0.04110744
232	0xbcf6b119	-0.030113744
233	0xbe33f2ac	-0.1757304
234	0xbe2beced	-0.16789599
235	0xbde09b77	-0.109671526
236	0x3dc81b3b	0.09770819
237	0x3db4152d	0.087931015
238	0xbcf7d09b	-0.030250838
239	0xbdfcefa8	-0.12350398
240	0xbd8f606c	-0.07000813
241	0x3d1fc112	0.039002486
242	0x3dad242d	0.084541656
243	0xb9744a94	-0.00023297436
244	0x3e0b463d	0.13601013
245	0xbca746af	-0.020419447
246	0x3d91c52b	0.07117685
247	0xbd64a712	-0.055823393
248	0xbe03c8af	-0.12869523
249	0x3dbac482	0.09119512
250	0xbe1c2932	-0.1525009
251	0xbdfd97e9	-0.1238249
252	0x3d4e07fd	0.050300587
253	0x3b9993e5	0.00468682
254	0xbdbf4ea2	-0.0934117
255	0x3dfd963a	0.12382169

cnn2.0.bias f4 [32]
0	0x3d76af90	0.060226023
1	0x3dad0ccb	0.08449706
2	0x3d06ae2b	0.032880943
3	0x3c29cbb5	0.010363509
4	0x3d5096f8	0.050925225
5	0x3d1ed906	0.03878119
6	0xbdcc570e	-0.09977542
7	0xbe12bb27	-0.14329205
8	0x3d02946b	0.031879824
9	0x3da38b8a	0.07985599
10	0xbdf6a846	-0.12043814
11	0xbdb9fa63	-0.090809606
12	0x3da75e5a	0.08172293
13	0x3ba2967b	0.0049617863
14	0x3cb0c204	0.021576889
15	0xbc7ad9e0	-0.0153107345
16	0x3dd386bf	0.10328435
17	0xbdc777c1	-0.09739638
18	0xbc435175	-0.011921276
19	0x3da7c2b1	0.08191431
20	0xbda786fe	-0.081800446
21	0x3d6e0f7d	0.05812024
22	0x3cd3392f	0.025784103
23	0xbd85f072	-0.06540002
24	0xbd60a50d	-0.054844905
25	0x3d2a742e	0.041614704
26	0xbc958487	-0.01825167
27	0x3ddffcfc	0.10936925
28	0x3dd43fa2	0.103636995
29	0x3d997bef	0.074943416
30	0xbd8d11d6	-0.068881676
31	0xbd8b4bae	-0.06801544

lstm1_1.weight_ih_l0 f4 [64, 32]
0	0x3e6382d8	0.22217882
1	0x3e09d9aa	0.13461939
2	0xbe17a195	-0.14807732
3	0x3e5358ec	0.2063939
4	0x3e0c705f	0.13714741
5	0x3e67d12d	0.22638388
6	0x3de941b6	0.113894865
7	0xbe86204c	-0.26196516
8	0xbd8c1034	-0.06839028
9	0xbd502130	-0.0508129
10	0xbce8ecd0	-0.028433233
11	0x3e397e2e	0.1811454
12	0xbda01621	-0.07816721
13	0xbe74fe88	-0.23925221
14	0xbe7ae44d	-0.24501152
15	0xbe1df7d0	-0.15426564
16	0x3d95b4a1	0.07309843
17	0x3e4c1b22	0.19932225
18	0x3dee46b8	0.11634582
19	0x3e4629ed	0.19351931
20	0x3e5d88ce	0.21634218
21	0x3cde4d68	0.02713652
22	0x3d6ddf40	0.058074236
23	0xbe107234	-0.14106065
24	0x3e36900e	0.1782839
25	0xbc2c332f	-0.01051025
26	0xbe4048ed	-0.18777819
27	0xbe043efa	-0.12914649
28	0x3e026045	0.12732036
29	0x3e6d290a	0.23160186
30	0x3e24fe5c	0.16112655
31	0xbe842ab5	-0.25813833
32	0xbe3f67e9	-0.18691982
33	0x3e5cd2ba	0.21564761
34	0xbde1cdc0	-0.11025572
35	0x3de80941	0.1132989
36	0x3e622cfd	0.22087474
37	0xbe11ddf4	-0.14244825
38	0xbd0ef76b	-0.034903925
39	0xbe7ee6fd	-0.24892803
40	0xbd79dfe8	-0.06100455
41	0x3e3d9d1c	0.18516964
42	0xbe4b05b4	-0.19826394
43	0x3dabf854	0.08396974
44	0x3e82e9be	0.25568956
45	0xbd4227a0	-0.04740107
46	0x3e07a9a9	0.13248314
47	0x3d2412b8	0.040056914
48	0x3da59022	0.08084132
49	0xbcf50530	-0.0299097
50	0xbe18a50e	-0.14906713
51	0x3e87f7c9	0.26556233
52	0xbe1594ee	-0.14607593
53	0xbdc52b86	-0.09627442
54	0xbe2a03ea	-0.16603056
55	0xbd71ee31	-0.059065048
56	0xbe25e5cc	-0.16200942
57	0xbde2ef00	-0.11080742
58	0xbdc53691	-0.09629548
59	0xbe117ebe	-0.14208505
60	0x3c2fe8b5	0.010736634
61	0xbda39b3c	-0.07988593
62	0xbe6a8f18	-0.22906148
63	0xbe4ebfef	-0.20190404
64	0xbe2368cc	-0.15957946
65	0x3d715d54	0.058926895
66	0x3e9694bc	0.2941035
67	0x3e5a0c92	0.21293858
68	0xbd442d7f	-0.04789495
69	0x3da5ea92	0.08101381
70	0x3e77b5cb	0.24190442
71	0x3e0478b3	0.12936668
72	0x3de65ef8	0.112485826
73	0xbddcfaac	-0.10789999
74	0xbe207cb2	-0.15672567
75	0xbd67a040	-0.05654931
76	0xbe2d6a27	-0.16935025
77	0xbdf4b348	-0.11948258
78	0x3e60f551	0.21968581
79	0xbde2da2c	-0.11076769
80	0xbe39e0b2	-0.1815212
81	0x3e52dca4	0.2059198
82	0x3d832d5f	0.06405138
83	0xbe3b2433	-0.18275528
84	0x3d829088	0.063752234
85	0x3db59be5	0.08867625
86	0xbe332300	-0.1749382
87	0x3de87bd9	0.11351747
88	0x3de72090	0.11285508
89	0x3e02d33f	0.12775896
90	0x3a152d7a	0.00056906755
91	0xbe5cb614	-0.21553832
92	0x3e5e9c8a	0.21739402
93	0x3df64284	0.120244056
94	0xbe6ef332	-0.23334959
95	0x3cc760ec	0.024338208
96	0xbb93917f	-0.0045034285
97	0xbe109ee8	-0.14123118
98	0x3dc5c09c	0.09655878
99	0x3c598fc3	0.013278904
100	0x3e607072	0.21917894
101	0xbd0e231b	-0.034701448
102	0xbe3f9864	-0.18710476
103	0x3d64ce88	0.055861026
104	0xbcb695b0	-0.022288173
105	0x39abe400	0.00032785535
106	0xbe432e8c	-0.19060725
107	0xbde273c0	-0.11057234
108	0xbe5d5372	-0.21613863
109	0x3d698b28	0.057017475
110	0xbe561247	-0.2090541
111	0x3dd5ddf0	0.10442722
112	0x3e4e1446	0.20124921
113	0xbe30b29e	-0.17255637
114	0xbe09a08a	-0.13440147
115	0xbe703ae8	-0.23459971
116	0x3e2242d4	0.15845805
117	0x3b0e30e3	0.002169662
118	0xbe39b860	-0.1813674
119	0xbe85da7c	-0.26143253
120	0xbcc7510c	-0.024330638
121	0xbcfbad99	-0.030722426
122	0x3e3dd019	0.18536414
123	0xbe2a98b9	-0.16659822
124	0xbe7f80cf	-0.2495148
125	0xbd3ca810	-0.046058714
126	0x3dc1079c	0.094252795
127	0xbca5a8e1	-0.02022213
128	0xbe644f57	-0.22295891
129	0x3d8d639c	0.069037646
130	0xbde806fb	-0.113294564
131	0xbc40618b	-0.011742006
132	0x3e75dfbf	0.24011134
133	0x3e2cd1a4	0.16876847
134	0x3d823d33	0.06359329
135	0xbc894d81	-0.01676059
136	0xbe0740ce	-0.13208315
137	0x3e34c890	0.17654634
138	0xbce46bb0	-0.02788338
139	0xbd8c95bc	-0.06864497
140	0xbe6cafb4	-0.231139
141	0x3cd9afd0	0.026573092
142	0x3dda667d	0.10664079
143	0x3dd53c18	0.104118526
144	0xbdcdb657	-0.10044544
145	0xbe3427d6	-0.17593321
146	0xbe53afb2	-0.20672491
147	0x3e02b0af	0.12762712
148	0x3c9b3240	0.01894486
149	0x3e1bd778	0.15218914
150	0xbdbae498	-0.09125632
151	0x3e30d6ed	0.17269488
152	0xbe15a6e0	-0.14614439
153	0xbe5fe1c2	-0.21863464
154	0xbe0d8616	-0.13820681
155	0x3d948be9	0.07253248
156	0x3e02a6f6	0.12759003
157	0xbe7088cc	-0.23489684
158	0xbda372c8	-0.07980877
159	0x3e10f50c	0.14155978
160	0xbde36901	-0.11104012
161	0xbdded847	-0.108810954
162	0xbcedcf95	-0.029029647
163	0x3e5cd893	0.21566992
164	0x3e7e15a8	0.24812949
165	0x3e2cc404	0.16871649
166	0x3dab7d64	0.08373526
167	0xbe305fd8	-0.17224061
168	0xbe78f782	-0.24313167
169	0x3e097460	0.134233
170	0x3e7eb388	0.24873173
171	0xbe6a2ea4	-0.22869354
172	0x3b2a735e	0.0026008706
173	0x3d1cccf8	0.03828141
174	0x3db40840	0.08790636
175	0xbe1edea0	-0.15514612
176	0xbc63f6c0	-0.01391381
177	0xbe26fafe	-0.16306683
178	0xbd696e53	-0.05698998
179	0x3e5375da	0.20650426
180	0x3e752914	0.23941451
181	0xbe052c23	-0.13005118
182	0xbddc51d8	-0.10757798
183	0xbe08e841	-0.13369848
184	0xbe01e54e	-0.12685129
185	0xbe086e90	-0.13323426
186	0x3db3fea7	0.087888055
187	0xbe6b59ec	-0.22983521
188	0x3bb5e85d	0.0055513815
189	0xbe4ba906	-0.19888696
190	0xbd333548	-0.043751985
191	0xbd0b091d	-0.033944238
192	0x3e74b06e	0.23895428
193	0xbdb81097	-0.08987539
194	0x3e84dbcc	0.25948942
195	0x3e64d309	0.22346129
196	0xbda56d47	-0.080774836
197	0xbce8ab1a	-0.0284019
198	0x3d4d0ca8	0.050060898
199	0xbe4a794f	-0.19772838
200	0xbe661952	-0.22470596
201	0x3d0c3468	0.034229666
202	0x3cd11ab0	0.02552542
203	0xbdb14ba4	-0.086570054
204	0x3de5c314	0.11218849
205	0xbe060cbc	-0.13090795
206	0x3dfabb1b	0.12242719
207	0xbce30f50	-0.027717263
208	0xbd275450	-0.04085189
209	0x3dca1fec	0.0986937
210	0xbdbc50f3	-0.09195127
211	0xbca835b7	-0.020533426
212	0xbe150394	-0.14552146
213	0xbe174e33	-0.14775924
214	0x3c1f77a0	0.009733111
215	0x3b3fdef6	0.0029277182
216	0xbe05deb2	-0.13073233
217	0x3dd67d8e	0.104731664
218	0xbd1ca6d6	-0.038245045
219	0xbe389b5c	-0.18028015
220	0xbe7c5961	-0.2464347
221	0x3e393436	0.18086323
222	0x3dd0c468	0.101937115
223	0x3de7fbb1	0.11327303
224	0x3e6ad174	0.22931463
225	0xbe1c9319	-0.15290488
226	0xbddd1fd6	-0.10797088
227	0x3e52d738	0.20589912
228	0xbd4f2a09	-0.050577197
229	0x3e858eab	0.2608541
230	0xbe57f1a9	-0.2108828
231	0x3e4e5949	0.20151247
232	0x3e04353a	0.1291093
233	0xbe6f1bd8	-0.23350465
234	0xbdf465b0	-0.11933458
235	0xbd09bfe8	-0.03363028
236	0xbe06b362	-0.13154367
237	0x3d4febf8	0.050762147
238	0xbdf2d6fa	-0.1185741
239	0xbe7832fe	-0.24238202
240	0x3d53fc53	0.051754307
241	0x3e032ed4	0.12810832
242	0x3e71e95a	0.23624173
243	0x3e1e2f85	0.15447815
244	0xbe2aa87c	-0.16665834
245	0x3dbb33d6	0.09140746
246	0x3df19344	0.11795667
247	0xbe175d31	-0.14781643
248	0x3d8f591b	0.069994174
249	0xbd3dc548	-0.04633072
250	0xbe13479e	-0.14382789
251	0xbce7ccc7	-0.028295888
252	0x3e7beb7a	0.24601546
253	0xbe7926c4	-0.24331194
254	0x3d4c28c0	0.04984355
255	0xbcca1112	-0.024666343

lstm1_1.weight_hh_l0 f4 [64, 16]
0	0xbd3f0a8f	-0.04664093
1	0xbe4bafa6	-0.19891223
2	0xbe063f04	-0.13109976
3	0x3c843a99	0.016141223
4	0x3dcf5298	0.101231754
5	0x3def5847	0.116867594
6	0xbe451492	-0.19246128
7	0x3d0b16ad	0.033957172
8	0x3e831569	0.25602272
9	0xbd9c76a7	-0.07639819
10	0xbd7e0727	-0.06201854
11	0xbe29d447	-0.16584884
12	0xbe418626	-0.1889883
13	0xbe437f49	-0.19091524
14	0xbcc78419	-0.024354981
15	0x3e3c2417	0.18373142
16	0x3decc2e5	0.11560611
17	0xbe17a3db	-0.148086
18	0x3ce74e65	0.028235624
19	0xbe37d375	-0.17951758
20	0xbdd4b67c	-0.10386369
21	0xbc07f3d7	-0.008297882
22	0x3db7cead	0.08974967
23	0xbe19dc93	-0.15025549
24	0xbd13d04f	-0.03608733
25	0x3e832889	0.25616863
26	0xbeaa4c90	-0.33261538
27	0xbdeb0658	-0.11475819
28	0x3b855b0e	0.0040696925
29	0xbdd47267	-0.10373383
30	0x3d7e501c	0.062088117
31	0x3cae8b3e	0.02130663
32	0x3dba2dab	0.09090742
33	0x3c5e2bad	0.013560218
34	0xbe0ef0d7	-0.1395906
35	0xbdc9768d	-0.09837065
36	0x3c5a2801	0.013315202
37	0x3e6dbb80	0.23216057
38	0x3e38c999	0.18045653
39	0xbe09e0f0	-0.13464713
40	0x3db31bf4	0.08745566
41	0xbdfbf1ab	-0.12301954
42	0xbddb164d	-0.10697613
43	0xbe7f29bd	-0.24918266
44	0xbb8fb14f	-0.0043851505
45	0xbe1788a0	-0.14798212
46	0xbda404c5	-0.08008722
47	0x3e8a85ee	0.27055305
48	0x3e8d4b58	0.27596545
49	0x3df27ef9	0.11840624
50	0xbdcd6ba0	-0.100302935
51	0xbe87bde7	-0.26512071
52	0xb9e7ef25	-0.0004423793
53	0xbc119862	-0.008886429
54	0x3dd188a5	0.10231141
55	0x3e258667	0.16164552
56	0xbe5fe9a8	-0.21866477
57	0xbc8ac608	-0.016940132
58	0x3dd9dac0	0.106374264
59	0x3ddc9b7a	0.10771842
60	0x3e3af9ab	0.18259303
61	0xbca579c3	-0.020199662
62	0xbdc50506	-0.09620099
63	0xbe6840f6	-0.2268103
64	0xbe3abb34	-0.18235475
65	0x3dc5e09c	0.096619815
66	0xbe245373	-0.16047458
67	0xbe319af3	-0.17344265
68	0x3e02ef4a	0.12786594
69	0x3df6f4a3	0.120583795
70	0x3e3e6c97	0.18596111
71	0xbe894b01	-0.26815036
72	0xbe5ea7d8	-0.21743715
73	0xbe7d5203	-0.24738316
74	0x3e41d144	0.18927485
75	0x3e0c3c8d	0.13694973
76	0x3e0bd929	0.13657059
77	0x3e1af136	0.15131077
78	0x3e5349d8	0.20633638
79	0xbdcb9ac8	-0.099416316
80	0xbe9b493f	-0.3032932
81	0xbea204f0	-0.31644392
82	0x3e282d86	0.16423616
83	0x3d5f8995	0.054574568
84	0x3e7032c3	0.23456864
85	0x3d9258a9	0.07145817
86	0xbe1e6521	-0.15468265
87	0xbd83bda7	-0.06432658
88	0x3cf42c4a	0.029806275
89	0x3dccfb1c	0.10008833
90	0xbdc7974c	-0.097456545
91	0x3e0f0008	0.13964856
92	0x3ce76855	0.028247992
93	0xbe43dcd0	-0.19127202
94	0xbd9a37a1	-0.075301416
95	0x3d3360f5	0.043793637
96	0xbd84d43b	-0.06485792
97	0x3e29b3bd	0.16572471
98	0xbe7fdfb4	-0.2498768
99	0xbe4957f9	-0.19662465
100	0x3d841f53	0.06451287
101	0x3e47e14a	0.19519535
102	0xbd5c768a	-0.053823985
103	0x3e333ee0	0.17504454
104	0xbd405f62	-0.046965964
105	0x3c950bae	0.018194046
106	0x3d987fa5	0.07446221
107	0x3dbe5dd7	0.09295242
108	0xbe2e6b54	-0.1703313
109	0xbd60fc46	-0.054928087
110	0xbdd27ace	-0.102773294
111	0xbc1dbdb2	-0.009627746
112	0x3d8522b3	0.06500759
113	0xbe6487fa	-0.22317496
114	0xbde03184	-0.10946944
115	0xbdea68de	-0.11445783
116	0x3d8cd8e2	0.068773046
117	0x3d8e6576	0.06952946
118	0xbe1c8b48	-0.15287507
119	0xbde819e2	-0.11333062
120	0xbe21deaf	-0.15807603
121	0x3e4ae180	0.19812584
122	0xbd5cd847	-0.053917196
123	0xbdf8a3f2	-0.12140645
124	0x3c24f82d	0.010068935
125	0xbe2988eb	-0.16556136
126	0x3e837218	0.25672984
127	0xbdabb68a	-0.08384426
128	0xbe6790c0	-0.22613811
129	0xbe505d5b	-0.20348112
130	0x3d88b11d	0.06674407
131	0x3e606a10	0.2191546
132	0x3e060529	0.13087906
133	0x3d4439e7	0.047906782
134	0x3d202a3d	0.03910278
135	0x3d697fe3	0.057006728
136	0x3dadae2b	0.084804855
137	0xbe6d93c6	-0.23200902
138	0x3e0b94a4	0.1363092
139	0x3e86e5ac	0.263471
140	0x3dffbe77	0.124875
141	0xbcb013b1	-0.021493765
142	0x3df17ac0	0.11790991
143	0xbe44c1d4	-0.19214565
144	0xbdd49ba5	-0.10381249
145	0xbe854155	-0.26026407
146	0xbd29fdc3	-0.04150177
147	0x3e18a062	0.14904931
148	0xbe2641a3	-0.16235976
149	0x3e31c683	0.17360882
150	0xbe12d1ab	-0.14337794
151	0xbe5cdea5	-0.21569307
152	0xbe60bb93	-0.21946554
153	0x3e06397e	0.13107869
154	0x3e33862a	0.17531648
155	0x3baeff75	0.0053405114
156	0xbe093fba	-0.13403216
157	0xbe020504	-0.12697226
158	0x3d8adc0d	0.067802526
159	0x3ccb8cc3	0.024847394
160	0x3e7ad2ff	0.24494551
161	0xbe3d6042	-0.1849375
162	0x3ecbcac3	0.39803132
163	0xbe1bb372	-0.15205172
164	0x3e986064	0.2976104
165	0xbc8f3a18	-0.017483756
166	0xbe19c64a	-0.15017048
167	0xbdab9bb6	-0.08379309
168	0x3e9f7cbf	0.3114986
169	0x3dc6e0a4	0.097108155
170	0xbeb8dcbc	-0.36105907
171	0xbe668e0f	-0.22515129
172	0x3e632c18	0.22184789
173	0xbcedaf18	-0.029014155
174	0xbe065b8a	-0.13120857
175	0xbd9054b1	-0.070474036
176	0xbd586be0	-0.052837253
177	0xbe48406c	-0.19555825
178	0xbe14e557	-0.14540611
179	0x3cc4f2bd	0.024041528
180	0xbc5cb3d6	-0.013470611
181	0xbc4f6d6f	-0.012660368
182	0xbdf55855	-0.119797386
183	0x3e34bf10	0.1765101
184	0xbc507994	-0.012724299
185	0xbe875044	-0.26428425
186	0x3de4ed15	0.11178032
187	0x3e407628	0.18795073
188	0xbdb1ccca	-0.086816385
189	0x3e361937	0.17783056
190	0x3d52e4f3	0.051487874
191	0xbdd4ac1b	-0.10384389
192	0xbe70301f	-0.23455857
193	0xbdb3cd0f	-0.08779346
194	0xbe2f9904	-0.17148215
195	0xbe52a4e5	-0.20570715
196	0xbe56bc73	-0.20970325
197	0x3cb40176	0.021973353
198	0xbe4e6e86	-0.20159349
199	0xbe7075f9	-0.23482503
200	0x3e74cb9c	0.23905796
201	0x3e5945ef	0.21218084
202	0xbe85d2c7	-0.26137373
203	0xbe0028bd	-0.1251554
204	0xbdd27134	-0.10275498
205	0x3cd89432	0.026437853
206	0x3dce27f8	0.10066217
207	0x3e65748f	0.22407745
208	0x3e69aa0e	0.22818777
209	0xbd995135	-0.07486192
210	0xbe08bf99	-0.13354339
211	0xbddbae65	-0.107266225
212	0x3ccefd77	0.025267346
213	0x3e637fdd	0.22216745
214	0x3e02536a	0.12727132
215	0x3cacaf5a	0.021079708
216	0x3db85f7e	0.09002589
217	0x3e62e425	0.22157343
218	0x3c4b8347	0.012421436
219	0x3e7fa190	0.24963975
220	0xbc98c910	-0.018650562
221	0x3e89eb69	0.26937416
222	0xbde98336	-0.114019796
223	0xbe238beb	-0.15971343
224	0x3e5fd58f	0.2185881
225	0xbd9c6ad7	-0.076375656
226	0x3e6c2228	0.23059905
227	0xbc2b59fe	-0.0104584675
228	0x3dbe9c89	0.093072005
229	0xbe4f37f4	-0.20236188
230	0x3dbbbf15	0.091673054
231	0x3cad01ec	0.02111908
232	0xbe72fe87	-0.23729907
233	0xbd973da2	-0.073848024
234	0x3dc33ed0	0.09533465
235	0x3d5e611c	0.05429183
236	0x3d9da8ae	0.07698189
237	0xbd048776	-0.032355748
238	0xbe213297	-0.15741955
239	0x3e19ec42	0.15031531
240	0x3ccc97b4	0.024974681
241	0x3ca8854c	0.020571373
242	0xbd65a4cc	-0.056065366
243	0xbd3d18c0	-0.04616618
244	0xbd8831a6	-0.06650095
245	0xbb80dae6	-0.0039323447
246	0xbe14d3f5	-0.1453398
247	0xbe82500c	-0.25451696
248	0x3baa2982	0.0051929364
249	0xbdf8da2b	-0.12150987
250	0xbe74fa64	-0.23923641
251	0xbde6812e	-0.11255108
252	0xbdeef768	-0.11668283
253	0xbdb2dd24	-0.087335855
254	0x3e267630	0.16256022
255	0x3e202e5e	0.15642688

lstm1_1.bias_ih_l0 f4 [64]
0	0x3d919eba	0.07110353
1	0xbd82cfae	-0.06387268
2	0x3cdfa51f	0.027300416
3	0xbe6af170	-0.22943664
4	0xbda9e5e2	-0.082958
5	0x3e724bd5	0.2366174
6	0x3d461b3e	0.048365824
7	0x3e3579a3	0.17722182
8	0xbe48adf6	-0.19597611
9	0xbe0bba2f	-0.13645242
10	0x3e28d915	0.1648906
11	0x3e688f99	0.22711028
12	0xbe7c52de	-0.24640986
13	0x3d909d4a	0.070612505
14	0x3e4cb959	0.1999258
15	0x3e51ac59	0.20475902
16	0x3db5a083	0.08868506
17	0x3e19e8c4	0.150302
18	0xbe50a582	-0.20375636
19	0xbe749f0e	-0.238888
20	0xbd9675eb	-0.0734671
21	0x3e08477a	0.13308516
22	0x3e104ddd	0.14092202
23	0xbc38c45a	-0.011277283
24	0xbe66a95b	-0.22525541
25	0x3e02326f	0.12714551
26	0xbd8cb577	-0.06870549
27	0x3e026c64	0.1273666
28	0xbc89b20f	-0.016808538
29	0xbe80861b	-0.25102314
30	0x3e6ad272	0.22931841
31	0xbe5b19cb	-0.21396558
32	0xbd891ebb	-0.066953145
33	0x3e1b8849	0.15188707
34	0x3d9082d2	0.07056202
35	0x3bfa9460	0.007647082
36	0x3dbe1198	0.092806995
37	0xbd8b04a8	-0.067879975
38	0x3e4814e1	0.19539215
39	0x3beb6450	0.007183589
40	0x3d30d12a	0.043168224
41	0xbc20a77a	-0.0098055545
42	0x3db0de6b	0.08636173
43	0x3ad01cbc	0.0015877704
44	0x3e6cb8da	0.2311739
45	0xbe374fbd	-0.17901511
46	0x3db51b12	0.08843054
47	0xbdfdef20	-0.12399125
48	0x3d095482	0.03352786
49	0xbc85350a	-0.016260643
50	0xbd99066a	-0.074719265
51	0xbe04f86d	-0.12985392
52	0x3e42cd30	0.19023585
53	0x3dcb9fa5	0.09942559
54	0x3e3179e3	0.17331652
55	0x3d404222	0.04693807
56	0x3d796463	0.06088675
57	0x3d564f93	0.05232198
58	0x3e67c694	0.22634345
59	0xbe1a1c2f	-0.15049814
60	0x3ddaaee7	0.10677891
61	0x3e0747de	0.13211009
62	0xbd9ea420	-0.07746148
63	0xbde4d042	-0.111725345

lstm1_1.bias_hh_l0 f4 [64]
0	0xbe39822a	-0.1811606
1	0x3e334423	0.17506461
2	0xbd43104d	-0.047622968
3	0xbdae0d60	-0.08498645
4	0x3bf8d43a	0.0075936588
5	0xbe431561	-0.19051124
6	0x3bc4df7e	0.0060080877
7	0x3e09319b	0.13397829
8	0x3e56d9de	0.20981547
9	0x3e113ff1	0.14184548
10	0x3e75053c	0.23927778
11	0x3dcb238b	0.09918889
12	0xbd085014	-0.033279493
13	0xbb8c8994	-0.0042888615
14	0xbe580939	-0.21097268
15	0xbe5ee077	-0.21765314
16	0xbe177a66	-0.14792785
17	0x3e2511a5	0.16120012
18	0xbe56bb2a	-0.20969835
19	0x3e1d55ce	0.15364763
20	0xbe835916	-0.25653905
21	0x3d269074	0.040665105
22	0x3d960b80	0.07326412
23	0x3d18062c	0.03711526
24	0xbbf30cac	-0.007417282
25	0x3e3656ab	0.17806499
26	0x3e3858fb	0.18002693
27	0x3e17c9c0	0.14823055
28	0xbe68fe94	-0.22753364
29	0x3e32a2ae	0.1744487
30	0x3bf0ac27	0.007344741
31	0xbd991223	-0.074741624
32	0x3e266456	0.16249213
33	0xbcb96c49	-0.022634642
34	0xbe0d7812	-0.13815334
35	0x3d9f2bae	0.07772003
36	0x3dd041d4	0.10168806
37	0x3d8f837a	0.07007499
38	0x3e0b33db	0.13594
39	0x3e3a4c1b	0.18193094
40	0x3e0744f0	0.13209891
41	0x3dee365c	0.11631462
42	0xbe396dd5	-0.18108304
43	0xbc72f727	-0.0148294335
44	0xbdc822b4	-0.09772244
45	0xbe2ac181	-0.16675378
46	0xbe2672e3	-0.16254763
47	0x3e338fe3	0.17535357
48	0x3ad72368	0.001641375
49	0x3dda005a	0.10644598
50	0x3e73cbc3	0.23808198
51	0xbe16d471	-0.14729477
52	0x3c6276ba	0.013822252
53	0xbdcde010	-0.10052502
54	0xbd70da6e	-0.05880206
55	0x3d708d74	0.05872865
56	0xbe42dd7f	-0.19029807
57	0x3e3fc46a	0.1872727
58	0x3e138e8a	0.14409843
59	0x3c75e88f	0.01500906
60	0xbd39fc21	-0.045406464
61	0x3e6886de	0.22707698
62	0x3cb726f5	0.022357443
63	0x3d8b6a7b	0.06807419

lstm1_1.weight_ih_l0_reverse f4 [64, 32]
0	0x3deef492	0.11667742
1	0x3df9f0b2	0.12204112
2	0xbe5d0701	-0.21584703
3	0x3d8a1bf4	0.06743613
4	0x3e753280	0.23945045
5	0x3e652b82	0.22379878
6	0xbd9e73a3	-0.077369
7	0x3e0e255a	0.13881436
8	0xbdaf65e8	-0.08564359
9	0xbdadcc78	-0.08486265
10	0x3b27ca00	0.002560258
11	0x3e2c3866	0.1681839
12	0xbd288bc4	-0.041148916
13	0x3e133244	0.14374644
14	0x3e642653	0.22280245
15	0xbe3425a8	-0.1759249
16	0xbd980758	-0.07423276
17	0x3da9bc3c	0.08287856
18	0x3e061477	0.13093744
19	0x3c12b6ca	0.008954713
20	0xbbdd1ac0	-0.0067475736
21	0xbdf35926	-0.11882238
22	0x3de63b08	0.11241728
23	0x3d8d3f54	0.068968445
24	0x3e7f1da7	0.24913655
25	0x3d4c76f2	0.049918123
26	0xbdb28ebb	-0.0871863
27	0xbe0b9f4b	-0.13634984
28	0x3d5505d0	0.052007496
29	0x3e32a218	0.17444646
30	0x3def82f0	0.11694896
31	0x3de27837	0.110580854
32	0xbe314852	-0.17312744
33	0xbe3f2351	-0.18665816
34	0xbdc96ae7	-0.09834843
35	0xbe558f0c	-0.2085535
36	0x3e03e398	0.12879789
37	0x3dd62b4e	0.104574785
38	0xbe7d868b	-0.24758355
39	0x3d9255b8	0.07145256
40	0x3d8089e0	0.062762976
41	0x3e6beab6	0.23038754
42	0xbe3cc448	-0.1843425
43	0x3e1f9c16	0.15586886
44	0xbdf66661	-0.12031246
45	0x3de7bb20	0.11314988
46	0x3dd8800d	0.10571299
47	0x3e0dea70	0.13858962
48	0x3da924df	0.08258986
49	0x3d17ef78	0.03709361
50	0xbdbada11	-0.09123624
51	0xbe10e753	-0.14150743
52	0xbc955cf0	-0.018232793
53	0x3ded4b14	0.11586586
54	0x3e65dcde	0.22447535
55	0xbde37297	-0.11105841
56	0x3dfb4bd9	0.12270326
57	0xbe3a03a4	-0.18165451
58	0xbe11727f	-0.14203833
59	0x3e10e6fe	0.14150617
60	0xbd5e7350	-0.05430919
61	0xbdea4d44	-0.114405185
62	0xbe389bba	-0.18028155
63	0xbd19b432	-0.037525363
64	0xbc484f1a	-0.0122258905
65	0x3e42820e	0.18994924
66	0x3ea6b98c	0.32563436
67	0x3e03fe7c	0.12890047
68	0xbe1444e1	-0.144794
69	0x3bacc47f	0.0052724476
70	0x3db58afc	0.088644
71	0x3da52103	0.08062937
72	0xbe0c311c	-0.13690609
73	0x3b358c00	0.0027701855
74	0x3d98fd34	0.0747017
75	0x3dc1e1a0	0.09466863
76	0xbe02d058	-0.1277479
77	0x3e0d703a	0.13812342
78	0x3dc905c0	0.0981555
79	0xbdfb0d50	-0.122583985
80	0x3e179fbe	0.1480703
81	0xbdfd6e5c	-0.12374565
82	0x3dbe45cf	0.09290659
83	0x3d9b8b4f	0.075949304
84	0x3e41eb8a	0.18937507
85	0x3dd6946c	0.10477528
86	0xbe3ff2ee	-0.18745014
87	0x3e0210f6	0.12701783
88	0x3d439ecf	0.047758874
89	0x3e6437d3	0.2228692
90	0x3de77dfa	0.11303325
91	0xbe1ac0d7	-0.15112625
92	0x3ea0664c	0.31328046
93	0x3da7bfbc	0.08190867
94	0xbe14c270	-0.14527297
95	0x3e90433e	0.28176302
96	0x3e3d2df9	0.18474568
97	0x3bd7b1ed	0.0065824897
98	0x3e2ee619	0.17079963
99	0x3e526721	0.20547153
100	0x3e3c4c31	0.1838844
101	0x3b4cb885	0.0031237912
102	0xbe1a1a07	-0.15048991
103	0xbddfd06d	-0.10928426
104	0x3cf66fc0	0.030082583
105	0x3e22dd04	0.15904623
106	0x3e24c880	0.1609211
107	0xbe5b572c	-0.21419972
108	0xbe398564	-0.1811729
109	0xbe3853fc	-0.18000787
110	0xbe8074f7	-0.25089237
111	0xbdb26b00	-0.08711815
112	0x3e3dd4b7	0.18538176
113	0xbe03f6e0	-0.12887144
114	0x3e40d596	0.18831477
115	0xbd423d23	-0.047421586
116	0x3dd69b6c	0.10478863
117	0xbdb87d05	-0.090082206
118	0x3c9486e0	0.01813072
119	0x3bed1920	0.007235661
120	0x3cacedd9	0.021109508
121	0xbe158108	-0.14600003
122	0xbe0c2aa8	-0.13688147
123	0x3e5da921	0.21646549
124	0x3e39c7c2	0.18142608
125	0x3d797818	0.060905546
126	0x3da5d550	0.08097327
127	0x3e5f58ba	0.2181119
128	0x3cf44f8f	0.029823093
129	0x3d3af6a5	0.045645375
130	0x3da09d3f	0.07842492
131	0xbd69b78d	-0.057059813
132	0x3d60ca53	0.05488045
133	0x3e17d582	0.1482754
134	0xbe2095a4	-0.15682083
135	0xbe5059e6	-0.20346794
136	0xbc8bafb0	-0.017051548
137	0xbe57e2c0	-0.21082592
138	0xbe51753a	-0.20454875
139	0x3d169c40	0.036770105
140	0x3e3a0219	0.18164863
141	0x3b55c280	0.0032617152
142	0xbdf122ac	-0.11774191
143	0x3e2f0f6c	0.17095727
144	0x3e3ac499	0.18239059
145	0x3e06a548	0.13148987
146	0xbd816798	-0.06318587
147	0xbb13133a	-0.002244188
148	0x3e08f692	0.13375309
149	0x3c1ea9ef	0.00968407
150	0xbc1dc980	-0.009630561
151	0xbe6332a6	-0.2218729
152	0xbd80159a	-0.0625412
153	0x3c8bcdd7	0.017065926
154	0xbd585f38	-0.052825183
155	0x3dd1a21a	0.102359965
156	0x3e453c0f	0.19261192
157	0x3e1972fe	0.14985272
158	0xbd32dab8	-0.043665618
159	0x3df4fce6	0.11962299
160	0xbcd8247e	-0.026384588
161	0x3d89afbc	0.06722972
162	0x3cd6712d	0.026177013
163	0x3e84af1d	0.2591485
164	0xbca73003	-0.020408636
165	0xbdf3abd8	-0.11898011
166	0x3e1d4220	0.15357256
167	0x3e18aaf3	0.14908962
168	0xbcbc7b60	-0.023008049
169	0xbe1b033a	-0.1513795
170	0x3d542138	0.051789492
171	0x3d2f3d70	0.0427832
172	0x3d1a53cd	0.037677575
173	0xbd86a054	-0.06573549
174	0xbe28354b	-0.1642658
175	0x3d633ed0	0.055479825
176	0xbe1b124b	-0.15143697
177	0x3e67cd1e	0.2263684
178	0x3e475596	0.19466242
179	0xbe0dfe7a	-0.13866606
180	0xbde01ee8	-0.10943395
181	0x3e0b13bf	0.13581751
182	0xbd938064	-0.07202223
183	0xbe54b708	-0.20772946
184	0x3d9c0806	0.07618718
185	0xbd6ab526	-0.057301663
186	0x3e0364ff	0.12831496
187	0x3e2a3ace	0.16623995
188	0x3e46e1c4	0.1942206
189	0xbe031356	-0.12800345
190	0x3e3258c4	0.17416674
191	0xbda01cfe	-0.0781803
192	0xbd0c5bc1	-0.03426719
193	0xbd919902	-0.07109262
194	0x3ddd4e9a	0.10806008
195	0xbe36f7d5	-0.17867978
196	0xbe2d13a4	-0.16902024
197	0xbe6af703	-0.2294579
198	0x3e6d7780	0.23190117
199	0x3d7516d8	0.05983624
200	0xbd8a1c70	-0.06743705
201	0xbe5d995e	-0.21640536
202	0xbdd62aec	-0.104574054
203	0x3d828148	0.06372315
204	0x3e3537af	0.17697023
205	0x3e1ad4be	0.15120217
206	0xbe677992	-0.22604969
207	0x3e31885a	0.1733717
208	0x3d41f68f	0.047354277
209	0xbe47c1c4	-0.1950751
210	0xbdb8e9a8	-0.090289414
211	0x3d814266	0.063114926
212	0xbdd3a91c	-0.103349894
213	0xbe249378	-0.1607188
214	0x3dc94310	0.09827244
215	0x3e80b480	0.2513771
216	0x3e02e51f	0.12782715
217	0x3e211930	0.15732265
218	0x3d002a1e	0.031290166
219	0x3e4bffa2	0.19921735
220	0x3b0d0ca3	0.0021522425
221	0x3e5935f4	0.21211988
222	0x3d47ddd0	0.04879552
223	0x3dad812f	0.084719054
224	0x3e4bc3ec	0.19898957
225	0x3c9fcf00	0.019507885
226	0x3e554661	0.20827629
227	0x3d6892ad	0.056780506
228	0xbdde5456	-0.108559296
229	0xbe65333c	-0.22382826
230	0x3d9f056a	0.077647045
231	0x3dff3b49	0.124624796
232	0x3ccd1300	0.025033474
233	0xbe52d6dc	-0.20589775
234	0xbe4873f4	-0.19575483
235	0xbe03366c	-0.12813729
236	0x3d484ea5	0.048903126
237	0x3daa6a80	0.083210945
238	0xbe5a7009	-0.213318
239	0x3e28bd24	0.16478401
240	0x3e81b46f	0.25332972
241	0xbd6f61c8	-0.05844286
242	0x3e42823d	0.18994994
243	0x3cf6e52b	0.030138573
244	0x3df6cd98	0.12050933
245	0xbd1b70f6	-0.037949525
246	0xbe1c6a78	-0.1527499
247	0x3e9c21ba	0.3049448
248	0xbdd99bd7	-0.10625427
249	0xbd390f01	-0.045180324
250	0x3e109571	0.14119507
251	0xbe2264c4	-0.15858752
252	0x3e863050	0.26208735
253	0x3e2b80c2	0.16748336
254	0xbd885628	-0.06657058
255	0x3e0597b1	0.13046147

lstm1_1.weight_hh_l0_reverse f4 [64, 16]
0	0xbe05b3f8	-0.13056934
1	0xbdbfad48	-0.09359223
2	0xbe124633	-0.14284591
3	0xbe0f7e62	-0.14013055
4	0xbe2124a4	-0.15736634
5	0x3cad2247	0.021134509
6	0x3e43a08d	0.19104214
7	0xbd99469f	-0.07484173
8	0x3db58f49	0.0886522
9	0x3d31ee37	0.04344007
10	0xba66883d	-0.0008794105
11	0x3dc8d5d2	0.09806408
12	0x3e1cafac	0.15301389
13	0xbd0dc543	-0.03461195
14	0xbe3be378	-0.18348491
15	0x3a4761fc	0.00076058484
16	0x3e245dd2	0.16051415
17	0xbd8c6904	-0.06855968
18	0x3e05645f	0.1302657
19	0xbd210832	-0.039314456
20	0xbe80777f	-0.25091168
21	0x3dee9d37	0.1165108
22	0x3dade5c0	0.08491087
23	0xbcce471b	-0.02518039
24	0xbdfca069	-0.12335283
25	0x3e54cb8d	0.20780773
26	0xbe4a8bce	-0.19779894
27	0xbdb23014	-0.087005764
28	0xbe507957	-0.20358787
29	0xbdc16ec3	-0.09444954
30	0x3e1daa7b	0.15397064
31	0x3e7635c9	0.24043955
32	0x3d630045	0.05542018
33	0xbe903fa3	-0.2817355
34	0x3d4af148	0.04954651
35	0xbd9fb574	-0.07798281
36	0xbd9cda7b	-0.07658859
37	0xbe117b32	-0.14207152
38	0x3e4f2ba1	0.20231487
39	0x3e688e11	0.22710444
40	0x3dde41a5	0.108523645
41	0x3bc11396	0.0058922274
42	0x3e170712	0.14748791
43	0x3e0dd9c7	0.13852607
44	0x3e786df7	0.24260698
45	0xbe121ac7	-0.14268027
46	0xbe99cb62	-0.3003798
47	0xbe928845	-0.2861959
48	0x3e769b92	0.24082783
49	0x3e355d18	0.17711294
50	0xbe561971	-0.20908143
51	0x3d639694	0.055563524
52	0xbe75271c	-0.239407
53	0x3b618830	0.003441345
54	0x3e5c4b84	0.21513182
55	0x3da73225	0.08163861
56	0xbe7c173c	-0.24618238
57	0x3dcb1b23	0.09917285
58	0xbe15b186	-0.14618501
59	0xbc97ab23	-0.018514222
60	0x3e18eb2f	0.14933465
61	0x3d476b96	0.048686586
62	0xbd5dceb2	-0.054152198
63	0x3e6f6548	0.2337848
64	0x3d4fd4c4	0.05074002
65	0x3e176c5d	0.14787431
66	0xbe2cdeeb	-0.16881911
67	0x3e2b41ab	0.16724269
68	0xbe322d9a	-0.17400208
69	0x3e2fc872	0.17166308
70	0xbe738174	-0.23779851
71	0xbcb622f4	-0.022233464
72	0xbdae85d3	-0.08521619
73	0x3e463b62	0.1935859
74	0x3dc7ee3e	0.09762238
75	0x3da211fa	0.07913585
76	0xbe6b989d	-0.23007436
77	0xbe623c91	-0.22093417
78	0x3e4e47d8	0.20144594
79	0xbcd591d5	-0.026070515
80	0x3dc0452e	0.09388195
81	0xbe6b06db	-0.22951834
82	0x3ea6fcbf	0.32614705
83	0xbd87813c	-0.066164464
84	0x3cc1bd58	0.023649856
85	0xbd7c6b38	-0.06162569
86	0xbe24fb7f	-0.16111563
87	0xbea25b9a	-0.3171051
88	0x3ddd18e5	0.10795764
89	0xbd0f270a	-0.03494934
90	0x3e4dac46	0.20085248
91	0x3e9c5922	0.30536753
92	0x3e1efb37	0.15525518
93	0x3dbfab81	0.09358884
94	0x3db192c3	0.08670571
95	0xbe469f24	-0.19396645
96	0xbe210657	-0.15725075
97	0xbdbc7458	-0.09201878
98	0x3e48e214	0.19617492
99	0xbd15d520	-0.036580205
100	0xbe3466e0	-0.17617369
101	0xbe1ed4c3	-0.1551085
102	0xbe2c5841	-0.16830541
103	0xbb51b6e8	-0.003199989
104	0x3d734992	0.059396334
105	0x3e8f4cb7	0.27988216
106	0xbe13d338	-0.14436042
107	0xbdc143e7	-0.094367795
108	0xbe68df80	-0.22741508
109	0xbd9aa4d2	-0.07550968
110	0x3d3d3092	0.0461889
111	0x3de253e8	0.1105116
112	0x3cca778c	0.024715208
113	0x3d5fef44	0.05467154
114	0x3d1e50b5	0.038651187
115	0xbe82e3d5	-0.25564447
116	0xbda943e3	-0.082649015
117	0x3de2f51b	0.110819064
118	0x3e205bbd	0.15659995
119	0xbe2f6d57	-0.17131554
120	0x3dc5e04f	0.09661924
121	0xbe1e0e27	-0.15435086
122	0xbdf655c5	-0.12028078
123	0x3e16abd4	0.14713985
124	0xbddfb0d4	-0.10922399
125	0xbc95fac7	-0.018308057
126	0xbbc65c8b	-0.0060535125
127	0xbe93f724	-0.2889949
128	0x3e92002e	0.28515762
129	0x3dd81570	0.10550964
130	0xbe284372	-0.16431978
131	0xbe437930	-0.19089198
132	0xbe3ac04f	-0.18237422
133	0x3bf493f0	0.0074639246
134	0x3ab175e7	0.0013539166
135	0x3e5d75b8	0.21626937
136	0x3ba80b36	0.0051282896
137	0xbc4764fb	-0.012170072
138	0x3dd319ab	0.1030763
139	0xbe3a66a8	-0.18203223
140	0x3e3557ce	0.17709276
141	0x3ccd4221	0.025055947
142	0x3e531aad	0.20615645
143	0xbe2be4b9	-0.1678647
144	0x3cb3b349	0.021936076
145	0x3e394725	0.18093546
146	0x3e5347de	0.20632884
147	0xbe493e32	-0.19652632
148	0x3dcbdb4f	0.09953939
149	0x3e63d049	0.22247423
150	0x3dc44d59	0.095850654
151	0x3d6d791e	0.057976834
152	0xbd02682f	-0.03183764
153	0x3dee7fca	0.116454676
154	0x3e05ff9e	0.13085791
155	0x3d99c1ac	0.07507643
156	0x3d72a4d1	0.059239212
157	0x3c2fa19e	0.010719685
158	0x3e908cab	0.2823232
159	0x3e2c138a	0.16804329
160	0xbc9472de	-0.01812118
161	0xbdb9228e	-0.09039794
162	0x3e2128c8	0.15738213
163	0xbd84eb80	-0.064902306
164	0xbd267382	-0.0406375
165	0x3d81b81f	0.063339464
166	0x3e49b856	0.19699225
167	0xbbe2d58d	-0.00692243
168	0xbd2a4e30	-0.04157847
169	0xbdd6c45f	-0.104866736
170	0xbe3053ce	-0.17219469
171	0x3d2f910a	0.04286293
172	0x3decb78e	0.11558448
173	0x3d0ef103	0.034897815
174	0xbe030f51	-0.12798811
175	0xbe0214ea	-0.1270329
176	0x3df34c85	0.11879829
177	0xbe2a5d62	-0.16637185
178	0xbd9cc664	-0.076550275
179	0xbd43f91b	-0.047844987
180	0x3e4796ee	0.19491169
181	0x3d781610	0.060567915
182	0x3e15d419	0.1463169
183	0xbe06efc3	-0.131774
184	0x3d6aae63	0.057295214
185	0x3e8610da	0.26184732
186	0xbe526b97	-0.20548855
187	0xbdd21d17	-0.10259455
188	0x3dc3eafc	0.09566304
189	0xbd373af3	-0.044733953
190	0xbe452bda	-0.1925501
191	0x3e1a5bc0	0.15074062
192	0xbe4a35ee	-0.19747135
193	0x3db3a1c5	0.087710895
194	0x3cc9fe16	0.02465729
195	0xbcd514bd	-0.026010865
196	0x3c8cb294	0.017174996
197	0x3e6d2ddb	0.23162024
198	0x3e02285f	0.12710713
199	0x3cd6c057	0.026214762
200	0x3ddf67b0	0.10908449
201	0xbc9b2fa2	-0.018943612
202	0x3e05ff45	0.13085659
203	0xbde5c325	-0.112188615
204	0x3e489bf5	0.19590743
205	0x3dc083fe	0.094001755
206	0x3e097b3e	0.1342592
207	0xbde334f9	-0.11094088
208	0xbccdeb24	-0.025136538
209	0xbdd76c36	-0.105186865
210	0xbda522bf	-0.08063268
211	0xbdfbb6dc	-0.12290737
212	0xbe82fb88	-0.25582528
213	0x3e9683d3	0.2939745
214	0x3d5a3874	0.053276494
215	0xbc36da0b	-0.011160384
216	0xbe275a8a	-0.16343132
217	0xbdc2e678	-0.09516615
218	0xbde52e79	-0.111905046
219	0x3e17d4dd	0.14827295
220	0x3dc11e66	0.09429626
221	0xbe001d23	-0.12511115
222	0xbe57982c	-0.21054143
223	0xbe842856	-0.25812024
224	0x3db47767	0.08811837
225	0x3bf0b0b7	0.007345285
226	0x3e2258a5	0.15854128
227	0xbe6ab71a	-0.2292141
228	0xbe1883fc	-0.14894098
229	0xbe0c62d0	-0.13709569
230	0x3c2957c7	0.010335869
231	0xbe70f176	-0.2352961
232	0xbe76e4f6	-0.24110779
233	0xbdc2d380	-0.09512997
234	0x3ddb6b76	0.10713856
235	0xbd7fad16	-0.062420927
236	0xbd795098	-0.060867876
237	0x3e77537b	0.24152939
238	0xbe5266b0	-0.20546985
239	0xbc90ed45	-0.017691264
240	0x3bf45a10	0.0074570253
241	0x3d739e86	0.05947735
242	0xbcc33020	-0.023826659
243	0xbdbe32e0	-0.092870474
244	0x3d9beba9	0.07613308
245	0xbe14a24b	-0.14515035
246	0xbd796ee1	-0.060896758
247	0x3cd76fba	0.026298393
248	0xbd9eeca5	-0.0775998
249	0xbdf032fb	-0.11728474
250	0x3cf80d14	0.030279674
251	0x3d0428b3	0.032265376
252	0xbe58d992	-0.21176746
253	0xbe24e091	-0.1610129
254	0xbe3adc86	-0.18248186
255	0xbdf88ba2	-0.12136008

lstm1_1.bias_ih_l0_reverse f4 [64]
0	0xbd365382	-0.044513233
1	0x3e72e10e	0.23718664
2	0x3e6b8724	0.23000771
3	0x3e05fe32	0.13085249
4	0x3d3c0d8b	0.045911353
5	0xbd5705df	-0.052495833
6	0xbd7ad885	-0.061241645
7	0x3dc1fd3e	0.0947213
8	0x3e34b3dc	0.17646736
9	0xbe7ac4c8	-0.24489129
10	0xbe550ee6	-0.20806465
11	0x3e174ead	0.14776106
12	0xbcdf63a1	-0.027269186
13	0x3d2ed257	0.042681064
14	0x3d92b524	0.07163456
15	0x3e789a28	0.24277556
16	0xbdd89ad8	-0.10576409
17	0x3e677757	0.22604118
18	0xbe03e4cc	-0.12880248
19	0x3e4b2543	0.19838433
20	0xbdabfdb4	-0.083979994
21	0x3d8c1ab8	0.06841034
22	0x3d976e56	0.07394092
23	0xbda7a460	-0.08185649
24	0xbd01230e	-0.03152757
25	0xbdcc0323	-0.09961536
26	0xbda66bfd	-0.08126066
27	0xbd9a4790	-0.07533181
28	0x3d4be801	0.049781803
29	0x3e0281d5	0.1274484
30	0xbc1486d4	-0.009065349
31	0x3c8e153a	0.017344106
32	0x3e00ac72	0.12565783
33	0xbe40743a	-0.18794337
34	0x3db44e60	0.08804011
35	0x3e245b4c	0.16050452
36	0xbe7b9fd1	-0.24572684
37	0xbe3835f1	-0.17989327
38	0xbdfab068	-0.12240678
39	0x3d631f85	0.05544998
40	0xbde343ef	-0.11096942
41	0xbdbbef97	-0.091765575
42	0xbb2e6ed6	-0.0026616356
43	0x3cf58c93	0.029974258
44	0xbdcd9958	-0.100390136
45	0xbe573d12	-0.2101939
46	0xbe4981e5	-0.19678457
47	0xbdc6d9ef	-0.09709536
48	0x3e5656a2	0.20931485
49	0x3d967a36	0.07347529
50	0x3e9d389c	0.30707252
51	0xbe059b5a	-0.13047543
52	0x3d64446a	0.055729307
53	0xbdade296	-0.084904835
54	0xbbf6d646	-0.0075328676
55	0x3da5dce7	0.080987744
56	0x3c03dfbf	0.008048951
57	0x3da7f53d	0.08201072
58	0xbcfb464b	-0.030673167
59	0x3e499301	0.19684984
60	0xbe3df465	-0.1855026
61	0xbdf554a3	-0.11979034
62	0x3e370dcd	0.17876358
63	0xbddc7d08	-0.10766035

lstm1_1.bias_hh_l0_reverse f4 [64]
0	0xbe4dde54	-0.20104343
1	0x3b5dd5bd	0.0033849322
2	0x3ea29320	0.31752872
3	0x3db3f5ea	0.08787139
4	0xbd9ab225	-0.075535096
5	0x3e62048c	0.22072047
6	0xbe44d043	-0.1922007
7	0x3da24188	0.07922655
8	0xbc5fa3c9	-0.013649889
9	0xbe5d5162	-0.21613076
10	0xbe5a89ac	-0.2134158
11	0x3e70e48d	0.23524685
12	0x3dfa2174	0.12213412
13	0x3e395891	0.18100192
14	0xbca9c888	-0.020725504
15	0xbe62d580	-0.22151756
16	0x3db14309	0.08655364
17	0x3d023858	0.031792015
18	0x3e99ad67	0.30015108
19	0x3e28202d	0.16418524
20	0x3e3bc7a1	0.18337871
21	0xbdb9c88b	-0.09071454
22	0xbd7a230a	-0.061068572
23	0xbc6e7348	-0.014553852
24	0x3e920d43	0.28525743
25	0xbe078d4e	-0.13237497
26	0xbdcd1361	-0.10013462
27	0x3d19f4d8	0.037587017
28	0xbe64f96a	-0.22360769
29	0x3e4de0d2	0.20105293
30	0xbd1e477c	-0.03864239
31	0x3e2960ea	0.16540876
32	0xbd4c4a78	-0.049875706
33	0x3da8ae61	0.08236385
34	0x3e664433	0.22486953
35	0x3dfcc452	0.12342133
36	0xbe7df677	-0.2480105
37	0x3e0d738f	0.13813613
38	0x3e5f4d93	0.21806936
39	0xbe20a90b	-0.15689485
40	0xbb9f49b6	-0.004861082
41	0x3c9c898c	0.019108556
42	0x3e45bb26	0.19309673
43	0x3caefdf7	0.021361334
44	0xbda16d91	-0.07882226
45	0x3e7e9ab2	0.24863699
46	0x3e5b82bf	0.21436594
47	0xbc80d5d6	-0.015726965
48	0x3df5965e	0.11991571
49	0xbdc1d77f	-0.09464931
50	0xbca545d4	-0.020174898
51	0x3e6c8d86	0.23100862
52	0x3d913057	0.07089298
53	0xbdc18b17	-0.094503574
54	0x3df938fd	0.12169073
55	0xbdeda5d9	-0.116038986
56	0x3de67fdc	0.11254856
57	0x3df25e0c	0.11834344
58	0xbdbe9535	-0.09305803
59	0x3e7ca945	0.24673946
60	0xbe542223	-0.20716147
61	0x3e1c3acf	0.15256809
62	0xbd5c8539	-0.05383799
63	0xbdbe6c9c	-0.09298059

lstm1_2.0.weight f4 [32, 32]
0	0xbe24fa1b	-0.16111033
1	0x3e379fa9	0.17932
2	0x3db766c3	0.08955147
3	0xbd8993ae	-0.06717621
4	0xbd8b3998	-0.067980945
5	0xbcb892fa	-0.022531021
6	0xbe201149	-0.15631594
7	0xbda2ce84	-0.07949546
8	0xbcf91f48	-0.030410424
9	0x3e08caea	0.13358656
10	0xbdb22f7d	-0.08700464
11	0x3e444736	0.1916779
12	0x3ccba336	0.024858098
13	0x3d8407b6	0.06446783
14	0x3d7553ce	0.059894376
15	0x3c6a51bb	0.014301713
16	0xbe082cef	-0.13298391
17	0xbd47ecbd	-0.048809756
18	0xbe15f76c	-0.14645165
19	0xbe0c1ca4	-0.136828
20	0x3e3e496b	0.18582694
21	0xbe276382	-0.16346553
22	0x3e06e809	0.13174452
23	0xbe0f4d41	-0.13994314
24	0xbe559379	-0.20857038
25	0xbe196202	-0.14978793
26	0x3c2651ad	0.010151309
27	0x3d1de273	0.038546037
28	0x3d595c8f	0.053066786
29	0xbd5e9eaf	-0.05435055
30	0xbe01986d	-0.12655802
31	0xbdebd0ab	-0.1151441
32	0x3dad1452	0.084511414
33	0x3d9b15ee	0.07572542
34	0xbdfdc09f	-0.12390255
35	0x3e17b207	0.14814006
36	0xbdb8b9a9	-0.09019787
37	0xbe15f375	-0.14643653
38	0x3de2f42a	0.11081727
39	0xbde9554f	-0.113932244
40	0x3dd3fabe	0.1035056
41	0xbe073363	-0.13203196
42	0x3d504b0a	0.050852813
43	0xbdcb4a0c	-0.09926233
44	0x3df5541a	0.11978932
45	0xbd9cc6e9	-0.076551266
46	0x3d85f4fb	0.06540867
47	0xbdf827d0	-0.12116969
48	0x3d0bc990	0.03412777
49	0xbe115a3e	-0.14194581
50	0x3e28a1aa	0.1646792
51	0x3d02e2c2	0.031954534
52	0xbdd5da6c	-0.10442051
53	0xbe418221	-0.18897296
54	0xbbb1f687	-0.0054309997
55	0x3d6f09e6	0.05835905
56	0xbd5e5910	-0.054284155
57	0x3d0c22a7	0.034212735
58	0xbe232efa	-0.15935889
59	0xbe00efc5	-0.12591465
60	0x3d517d73	0.05114503
61	0x3cde657c	0.027148
62	0xbd0a9e00	-0.033842087
63	0x3d8d69e7	0.06904965
64	0xbd2cd3b6	-0.04219409
65	0xbdad394b	-0.084581934
66	0x3de22ce6	0.1104372
67	0x3d2db853	0.042412113
68	0x3dae316e	0.08505522
69	0xbd0953e4	-0.03352727
70	0x3e055617	0.13021122
71	0xbd9de05d	-0.077088095
72	0xbd3d2d03	-0.046185505
73	0xbda7fb71	-0.082022555
74	0xbd4d5e53	-0.050138783
75	0x3e20767b	0.15670197
76	0x3da94737	0.08265536
77	0xbbd3e8b1	-0.006466948
78	0xbe101707	-0.14071284
79	0x3cf458a5	0.029827425
80	0xbdf3b93e	-0.119005665
81	0xbc41f914	-0.01183917
82	0xbd25d10c	-0.040482566
83	0x3dc57ab5	0.09642545
84	0x3d6bf6a3	0.057608258
85	0x3dd84bb9	0.10561318
86	0x3de0983e	0.10966538
87	0x3e00acb8	0.12565887
88	0x3cf69b2c	0.030103289
89	0xbe2d0dfb	-0.16899864
90	0x3de275d2	0.11057629
91	0x3e23eb71	0.16007783
92	0x3d718623	0.058965813
93	0xbe005b62	-0.1253486
94	0x3c0387d9	0.008027994
95	0x3d3a8dac	0.045545265
96	0xbe2d0cc1	-0.16899396
97	0xbdba467d	-0.09095476
98	0x3db63c51	0.08898223
99	0xbd9ec9b1	-0.07753313
100	0x3d0303df	0.031986114
101	0x3d8cfc02	0.06884004
102	0x3d8f1407	0.06986242
103	0x3d87c6f7	0.066297464
104	0x3e6256f3	0.22103481
105	0x3def37be	0.11680554
106	0xbdd6e2d5	-0.104924835
107	0x3dfb1359	0.1225955
108	0xbc91b646	-0.01778711
109	0x3e74a8f4	0.23892576
110	0x3d19aef9	0.037520383
111	0x3e0e1186	0.13873872
112	0x3e6ecf4a	0.23321262
113	0xbd6fed6d	-0.058576036
114	0xbe28421c	-0.16431469
115	0xbde0f44b	-0.10984095
116	0x3dc9df49	0.098570414
117	0x3e7f2f3a	0.24920359
118	0x3cf1dd7b	0.029524555
119	0x3e5f4808	0.21804821
120	0xbd8f03ab	-0.069831215
121	0x3e4245e4	0.18971974
122	0x3e0c8b5f	0.13725041
123	0xbbdafd93	-0.0066830604
124	0x3dd3e92f	0.103472106
125	0x3d107f6e	0.035277776
126	0xbdaca7d1	-0.08430446
127	0x3d4461ae	0.047944717
128	0xbdc0bea7	-0.09411364
129	0xbe211c02	-0.1573334
130	0xbd707090	-0.058701098
131	0xbdb53fa9	-0.08850033
132	0x3d0c8df8	0.03431508
133	0xbd1974dd	-0.037464965
134	0x3d948631	0.072521575
135	0x3cb13491	0.02163151
136	0xbd7d28ec	-0.061806604
137	0xbd51eb41	-0.051249746
138	0x3df5a049	0.119934626
139	0xbdf31886	-0.11869912
140	0xbd6d9285	-0.05800106
141	0x3e01e2c0	0.12684155
142	0xbe27af3a	-0.16375437
143	0xbe007d3d	-0.12547775
144	0xbdf023a7	-0.1172555
145	0xbcb26987	-0.021778835
146	0xbc937a55	-0.018002668
147	0x3bd6569a	0.0065410854
148	0xbd46c85a	-0.048530914
149	0xbd1bc4bc	-0.038029417
150	0xbdd4855c	-0.10376999
151	0xbce9761f	-0.028498707
152	0xbe2f5a66	-0.17124328
153	0x3df0b3bf	0.11753034
154	0xbe1bcb82	-0.15214351
155	0x3e19a12c	0.15002888
156	0xbde408b4	-0.111344725
157	0xbd9683fe	-0.07349394
158	0x3df696ba	0.120404676
159	0xbbd460bb	-0.0064812577
160	0x3d74cbab	0.059764545
161	0xbdcffa28	-0.101551354
162	0x3d75d67e	0.06001901
163	0xbb271e15	-0.0025500108
164	0xbe266040	-0.16247654
165	0x3da83af5	0.0821437
166	0x3cbb7515	0.022882978
167	0xbcc555eb	-0.02408882
168	0xbe07f169	-0.13275684
169	0x3d42d78e	0.04756885
170	0xbc3e2568	-0.011605598
171	0xbba92382	-0.0051617036
172	0x3e199bea	0.15000883
173	0xbe0107e0	-0.1260066
174	0x3e04f5c8	0.12984383
175	0x3cfac6e3	0.030612415
176	0xbe1a534f	-0.15070842
177	0x3da59ec0	0.0808692
178	0x3ca17b95	0.019712249
179	0xbc7e17d0	-0.015508607
180	0xbe0ff766	-0.14059219
181	0x3e0fdd08	0.1404916
182	0x3e29441b	0.16529886
183	0x3d164060	0.036682487
184	0xbd2e55ed	-0.042562414
185	0x3daefcb2	0.085442916
186	0xbd81eefa	-0.06344409
187	0x3df021f9	0.1172523
188	0x3e30a16c	0.17249078
189	0xbdfe6de1	-0.124233015
190	0x3bc1d236	0.0059149517
191	0xbdd2fc70	-0.10302055
192	0xbdcf6196	-0.10126035
193	0x3d0d57ef	0.034507688
194	0x3d8ae5ba	0.06782098
195	0x3e014a2d	0.12625952
196	0x3d89d7a8	0.06730586
197	0x3e1e3064	0.15448147
198	0xbe105a8c	-0.14097041
199	0xbdd3fbb2	-0.103507414
200	0xbd3ec7bb	-0.046577197
201	0x3d8843b6	0.0665354
202	0x3e2cb28c	0.16864985
203	0xbe21a98a	-0.1578733
204	0xbe1dc527	-0.15407239
205	0x3c561b78	0.0130680725
206	0xbd34a238	-0.044100016
207	0xbdc8739c	-0.09787676
208	0x3de0662c	0.10956988
209	0x3da78b05	0.08180813
210	0x3e1698fc	0.14706796
211	0x3d96e56e	0.07367979
212	0x3d021915	0.0317622
213	0x3deaf81d	0.11473105
214	0x3e054929	0.1301619
215	0xbe0bb42e	-0.13642952
216	0xbcac2718	-0.021014735
217	0x3d5abdee	0.053403787
218	0x3c3be43b	0.011467989
219	0xbc7ea1c9	-0.015541502
220	0xbd82f95b	-0.06395217
221	0x3de4180c	0.11137399
222	0xbe0adbc3	-0.13560395
223	0x3de4caf8	0.11171526
224	0x3dab0015	0.08349625
225	0xbe254508	-0.16139615
226	0xbd42a96e	-0.047524862
227	0xbdc5454a	-0.096323565
228	0x3d47f34c	0.04881601
229	0x3cbd3c5a	0.023100067
230	0x3e1da657	0.15395485
231	0xbda8f1a4	-0.08249214
232	0x3e00edd8	0.1259073
233	0xbe1c0594	-0.15236503
234	0x3dcd7244	0.1003156
235	0xbd30d09d	-0.0431677
236	0x3e0064c6	0.12538442
237	0x3e3299ef	0.17441534
238	0xbd726ce9	-0.059185896
239	0xbe0f2654	-0.13979465
240	0x3d3f679a	0.04672966
241	0x3c980e1d	0.018561417
242	0xbd8359da	-0.06413622
243	0xbe27f502	-0.16402057
244	0x3e4d6d9c	0.20061344
245	0xbca65ba6	-0.020307373
246	0x3e1203f9	0.14259328
247	0x3dc1bf42	0.09460308
248	0xbdfc705c	-0.12326118
249	0xbcfd5f34	-0.030929185
250	0x3dd5e54d	0.10444126
251	0xbd7fed19	-0.062481973
252	0x3d835034	0.06411782
253	0xbe28ae64	-0.16472775
254	0x3b52334a	0.0032074028
255	0xbdf82623	-0.12116649
