results/soh_cross_laboratory_datasets_results/Dataset 2/transfer from Dataset 4/Experiment5(3C-8)/from_Dataset 4_ft_model.pth (torch, 95756 bytes, 27 tensors)

cnn1.0.weight f4 [16, 1, 3]
00000000: bafb 0bbf a334 57be 28cf c63d 93ff aebe
00000010: 3154 853e e8af 5b3d a61c bcbe 1232 03be
00000020: a989 873e 8e29 b2be 2eeb d83e 5bcf 783e
00000030: ab25 b9be fe5d 193e 81c9 143f 1bc1 5b3e
00000040: 5609 023f d035 b93e 4803 2ebe 1876 95be
00000050: 65f8 0abd ec60 e2be 100e 08be e0c9 c1be
00000060: 3a53 e2be 2553 92be 5040 26be 5c58 f83e
00000070: cfe2 a13d 8086 1abe 6ebb 553e e682 c1be
00000080: f2e0 dcbe d2e5 8a3e 2d8a 24be 2a36 4dbe
00000090: 143f cdbb 5735 bb3a 3a4f d6be f314 8ebe
000000a0: 0cbd 80be 3fa6 f73e 907c bbbd c22a babe
000000b0: a03f 0fbe 31d7 ef3e fdbd 913e 7bd5 d3be
-0.5468098 -0.21016173 0.09707481 -0.34179363 0.26040795 0.053634554 -0.36740607 -0.12812069
0.26472214 -0.3479733 0.42366928 0.2429785 -0.3616155 0.14977261 0.5811997 0.21460383
0.50795496 0.36173868 -0.16993439 -0.2919166 -0.033928294 -0.4421457 -0.13286614 -0.3784933
-0.44204122 -0.2857906 -0.16235471 0.48504913 0.079045884 -0.1509037 0.2087228 -0.3779518
-0.4314037 0.27128464 -0.16068335 -0.20040193 -0.006263623 0.0014282864 -0.4185732 -0.27750358
-0.2514423 0.48369023 -0.09154618 -0.36360747 -0.13989115 0.46843866 0.28465262 -0.4137381

cnn1.0.bias f4 [16]
00000000: e94c 5cbe b4f0 4dbe 15c7 1cbd b80f 003f
00000010: 8c76 16bd c247 77be 2f4e adbe a0e6 0dbf
00000020: dcfd 07bf 48a5 bb3d 6462 bbbe e0c8 b3be
00000030: 62dd c83e c3b5 38be 70cb 4e3e c692 f23c
-0.21513714 -0.20111352 -0.038275797 0.50023985 -0.03673415 -0.24148467 -0.33848712 -0.5543003
-0.53121734 0.09162384 -0.36598504 -0.35114193 0.39231402 -0.18038087 0.20194793 0.029611003

cnn2.0.weight f4 [32, 16, 3]
00000000: 8c22 f6bd 43e1 503d 81d6 ffbc dd85 083e
00000010: a297 6d3d 60b1 a9bd 8318 f3bc 5bfb e43d
00000020: d7fc c53d 23e5 f83d 4c4c 9d3d 437c e6bd
00000030: f533 083e 595c 823c 204e d83d 3924 ab3d
00000040: 7936 9abd dddd 193e ad61 0f3d 1fd2 e7bb
00000050: cfdc 043e cfaa c0bd b95b b7bd 8f64 c0bd
00000060: c643 9f3d f876 fa3c ebb3 81bc 49d0 d2bd
00000070: 0c6c e8bb d4bd 193e b6fc b3bd 1216 52bd
00000080: cd34 6fbc 3ce0 6bbd cb37 93bd 4a3f 2bbc
00000090: b74d b1bd 82ef f53c 49e0 333d 59ec 0cbe
000000a0: dd1b 013e 3322 983d ba25 ad3c 8bd9 1f3d
000000b0: 5ffa bebd ff1f cebd b967 b63d 233c fdbc
000000c0: 317e f5bd 6513 e2bc ba54 b03d aef1 0f3e
000000d0: f727 b23c 7362 58bb e30e 65bd 1b27 0a3e
000000e0: b161 a6bc 70de a1bd 4ed5 803d 9963 b03d
000000f0: 7cc4 963e 12fa 2c3e 0348 683e ec33 163e
00000100: fe96 823e d59c 0f3e 8db4 023d 0311 173c
00000110: 4009 f73d 6f02 493c fded 743d 66b0 a53d
00000120: 6ac5 01be 98d8 f9bc 2ba9 683d 5cbb edbb
00000130: a267 123e d0b7 82bc c7f2 113e 8fbc d63d
00000140: 8d22 4cbd d826 94bd 9c12 fabd d55a 6e3d
00000150: 5193 77be dd13 87be 5069 5dbe 0b15 85bd
00000160: 944d e0bd 4b09 023e 9a23 96be de37 95be
00000170: 4508 61be 05d6 523e d44f 7d3e 8265 ad3d
00000180: aef6 09bd e086 81bd edb7 d2bd f07b 07be
00000190: 995a 8c3d aa24 cdbd 4ed7 0fbe 2056 12be
000001a0: 980f 87bd 3234 133e 259e 7bbd 57c2 0a3d
000001b0: dd94 99bd ffd5 ffbc 640e 02be b61d 48bd
000001c0: 25c2 c4bd cf42 073d caa1 843c 4f9b 823d
000001d0: 51d9 d73d 07dd a63d b260 ca3d e1e5 6abd
000001e0: 6691 873d 6c61 e93d 2241 bcbd 1e60 95bd
000001f0: eedf 90bc 33ec 39bd 4ade 6f3d 36f9 b6bd
00000200: 5a07 033e 0d8a 06be 4ab9 adba 89ae 413d
00000210: 4c37 b5bd 62fb 993d c67f b83d a90b 3abd
00000220: f4fd 3f3d 2715 8abd 54f6 26bd 26cc 62be
00000230: 7504 26be b635 9c3d 3827 09bd 5e75 c4bd
00000240: 22c5 c3bd 128a 10bd cfa4 093e 0d03 033e
00000250: 1115 e9bd a4db 92bc 45ec d23d f9e0 09be
00000260: 4306 b43d b85b d53d 7adc 83bd d85f 123e
00000270: d584 1e3e 4421 653e 786a 4f3e d69c 303e
00000280: 8fca 66bd 1dcd 2c3c 6da2 e43d 5d50 f6bd
00000290: 60ab cebd c7e3 5cbc f128 ea3d b7e4 073e
000002a0: 5fc0 df3d 53d9 a1bc 91e9 f2bc 898c 053e
000002b0: a92c 9dbb 9612 c73d b17b c4bd 2d92 ed3d
000002c0: 3e21 bfbd ca6a bbbd 94d3 f83d 3e64 04be
000002d0: 0029 6abd 3600 90bd 80f7 133c 4e65 09be
000002e0: 0337 cb3d 12ce 70bc 7ab0 803c 8e2c 49bd
000002f0: 36d9 a33d 0efb 87bb 1059 a43d 6e38 e93d
00000300: 475b 18bd 58fa d73c 2560 2fbd e2dd b33c
00000310: 2a1b a5bc d82a 023e 2186 d0bd 1d43 853d
00000320: cd3d 6a3d e1ae d5bd 7571 c63c 7e28 41bd
00000330: f2bf 11bd 7723 d53d 8165 03be 6e88 cdbd
00000340: 1865 9c3d 25e5 0d3b cae3 c93d 220d 48bd
00000350: b029 8b3b a61a 0cbe ca2e 55bd e2b5 153d
00000360: 5efd cd3c 2edb c43d 4f5d 293d 5cc6 f43c
00000370: 0099 673d 60f8 0bbe 161b 6cbd 22e3 bd3d
00000380: ed98 e3bd a3d4 06be dae3 2a3d a102 c23c
00000390: e966 e43d 9f41 0bbe 720b fbbd 764c af3c
000003a0: 088c 3b3d 0d5b 40bd e3d6 3d3c 4601 093d
000003b0: dcd3 003e 5b8f 73bd 6fbe 913d 282c c1bd
000003c0: 2733 843d f067 c43d 6b40 bdbc 3f34 c4bd
000003d0: 630b d9bd 97c1 c83c add8 553d 7b32 ec3d
000003e0: 76e0 78bd a93b 75bd 6c15 f73c fbc1 84bd
000003f0: b022 8fbc a791 15bd ea3a 23be e475 ca3d
-0.12018308 0.050996076 -0.031230213 0.13332315 0.058005936 -0.08285785 -0.029674774 0.11180755
0.09667366 0.12153079 0.07680568 -0.1125417 0.1330107 0.015913175 0.10561776 0.08356518
-0.07529921 0.1502604 0.03500526 -0.007074609 0.12974857 -0.09407579 -0.089530416 -0.0939418
0.07776599 0.030574307 -0.015832862 -0.102936335 -0.0070929583 0.1501382 -0.08788435 -0.05129058
-0.014599991 -0.057586893 -0.07188376 -0.010452101 -0.08657401 0.030021433 0.043915067 -0.13762034
0.12608285 0.07428398 0.021136153 0.039025825 -0.09325098 -0.100646965 0.08906502 -0.030912464
-0.1198696 -0.027597139 0.0860991 0.14057037 0.021747572 -0.0033017665 -0.0559224 0.1349148
-0.020310255 -0.07903755 0.06290685 0.08612747 0.2944678 0.16892269 0.2268372 0.14668244
0.25505823 0.1402467 0.031910468 0.0092203645 0.12062311 0.012268647 0.059797276 0.08090286
-0.12672964 -0.030498788 0.056801956 -0.007255001 0.14297345 -0.01595679 0.14252768 0.104851834
-0.049837638 -0.07233971 -0.12210581 0.058192093 -0.2417729 -0.26382342 -0.21622205 -0.06498154
-0.10952297 0.12698857 -0.29324037 -0.29144186 -0.21975811 0.20589454 0.24737483 0.08466627
-0.033682518 -0.063245535 -0.10288987 -0.13230872 0.06853218 -0.10016759 -0.14046976 -0.14290667
-0.06594771 0.1437538 -0.061430115 0.033876743 -0.074990965 -0.031229971 -0.12700802 -0.04885646
-0.09607343 0.033022698 0.016190428 0.06377279 0.10539497 0.08147626 0.098817244 -0.057348136
0.066195294 0.11395535 -0.091921106 -0.072937235 -0.017684903 -0.045391273 0.0585616 -0.08934252
0.12795773 -0.131386 -0.0013254073 0.04728559 -0.08848438 0.075186506 0.09008746 -0.045421276
0.046873048 -0.06742316 -0.04076226 -0.22148189 -0.16212638 0.07627432 -0.033484668 -0.095926985
-0.095590845 -0.035287924 0.13441776 0.12794133 -0.11380971 -0.017926998 0.10298971 -0.13464727
0.08790257 0.104178846 -0.06438537 0.14294374 0.15480359 0.22375971 0.20255458 0.17247328
-0.05634552 0.01054695 0.11163793 -0.12027047 -0.10091281 -0.013482041 0.1143359 0.13270842
0.10925364 -0.019756949 -0.029652389 0.13041891 -0.0047965837 0.09720342 -0.09593905 0.116001464
-0.09332512 -0.09151228 0.1214973 -0.12928864 -0.057168007 -0.0703129 0.009031177 -0.13417551
0.09922602 -0.0146975685 0.01570915 -0.049114756 0.08000414 -0.004149801 0.080248 0.11387716
-0.037196424 0.02636449 -0.0428163 0.021956388 -0.020154554 0.12711656 -0.10181833 0.065069415
0.057187844 -0.10433746 0.024224022 -0.047157757 -0.035583444 0.10407155 -0.1283169 -0.100357875
0.076364696 0.0021651473 0.098579004 -0.04884065 0.004246913 -0.1368204 -0.052046575 0.03655041
0.025145229 0.09612118 0.04134875 0.029879741 0.056542397 -0.13668966 -0.05764302 0.09271838
-0.11113153 -0.13167052 0.041721202 0.023682894 0.11152441 -0.13599251 -0.122580424 0.021398764
0.04578784 -0.046961833 0.0115868775 0.03344848 0.12580818 -0.059462886 0.071164005 -0.0943225
0.06455069 0.09590137 -0.023102006 -0.09580278 -0.10597875 0.024506373 0.05220859 0.11533066
-0.060760938 -0.05987135 0.030161582 -0.06482311 -0.017472595 -0.036515858 -0.15940443 0.09885767

cnn2.0.bias f4 [32]
00000000: 4bfa 0dbd c514 ab3d d9ef 123e 37e0 913d
00000010: 42cc ba3d b6b9 d53c 14bf b53d e345 81bc
00000020: 63b2 a4bd 804c 7bbd b296 d4bd 884a 98bd
00000030: 8c91 d53d 4396 89bd c744 953d e20d bf3d
00000040: 73ac 10be 9e6e 0a3e af9d d9bd fb3b 0abe
00000050: a473 fdbd 854b 933c 1118 153e 705f 5dbd
00000060: 2b72 86bd 4247 e6bd 293d 933d 17ea a5bd
00000070: 6737 8aba 10fd 383e 883d 96bd f308 803d
-0.034662526 0.08353571 0.14349307 0.07122844 0.0912099 0.02608953 0.08874336 -0.015780395
-0.08041837 -0.061352253 -0.10380305 -0.07436091 0.104281515 -0.06718113 0.07288509 0.0932882
-0.14128284 0.1351876 -0.10625779 -0.13499443 -0.12375572 0.017980346 0.14559962 -0.054046094
-0.065647446 -0.1124406 0.071894 -0.0810129 -0.0010545076 0.18065286 -0.07335955 0.06251707

lstm1_1.weight_ih_l0 f4 [64, 32]
00000000: c634 133e a8b9 b13e 9db8 b73d 0b8e 943d
00000010: e889 2d3e 4b05 a23d e801 3f3e 3be3 663e
00000020: 0c85 983e 1841 513e 205a 513e b6d2 313e
00000030: 7590 4ebe 4baf 203e becd 4c3e 3647 29be
00000040: f0e0 ac3d 8cf5 283e 8613 7fbe 7084 7fbd
00000050: 6e51 7f3e 0fd7 0abe eb8d 853e 81bc 9bbc
00000060: dd20 27bc 20e2 91bd 1ad5 f33d 1a76 963e
00000070: 0d75 2fbd bee0 c4bd 7480 53be f8d7 6ebd
00000080: 7797 91bb f79a 8c3e fe54 03bd 6f28 e83d
00000090: 89ca 453e c78b b5bd ba30 8a3e ac0f ce3d
000000a0: 39ea d13e c16e d6bd ec07 853d 0116 063e
000000b0: 2fe4 4dbe 53f1 70be 1dcd 01be ce7c 393e
000000c0: 88af 2e3e 4874 04be 3d39 4cbe 5005 7e3e
000000d0: 88f5 1b3d c6fb 2b3e 1b8f 4cbd fc40 3a3e
000000e0: 60fc 243e a021 1e3e 009f c8bc b814 893e
000000f0: e063 d9bd 88f8 95be 845f 653e e823 1ebe
00000100: a8fa e0bd 33f3 4cbe 565f 653e 04ea 853c
00000110: cd5d b6bd 3e57 2cbe 334f 30be 3d15 3b3d
00000120: 6d53 b4bc 44f7 023d 805d 723b bb76 52be
00000130: 5ff7 5bbe 4ae7 9a3d bba7 c2bb ac4e a43d
00000140: 44de 733e 100c 223e 339b dd3a 444b 7a3e
00000150: a0d4 19bd bba0 233e fbeb 063e 271e 6e3e
00000160: d41c 86be 4628 16be 1fb0 40be 1b09 aebc
00000170: 0f91 643e 5227 b4bd ecf8 3bbe b88c 04bd
00000180: cb9d 5e3e 6d50 9e3e a1f3 4f3e 863d 853e
00000190: 7090 153e 38cc 58bd b65e 103d 7317 533e
000001a0: a2b6 1c3e aec0 dd3d 2af5 45be b8ba b6bd
000001b0: 2ee6 56be 1b38 20be 76b0 3d3c b69c 063d
000001c0: 8e3d 163e c29d 34be 3e7a 5bbe 70bc e23c
000001d0: a8b4 5f3d ed96 4a3e d001 bbbb 56d6 e33c
000001e0: 12bb a73d f01c 793d 0269 0fbe 3c6a 673d
000001f0: b9be e3bd 5292 9c3d 18a8 473e 10cb 973d
00000200: 8dc1 763e 0f92 98be 9802 eebd 4edf 8fbc
00000210: 8c06 58be 3bcb 97bd 3a0d 063e 061f 58be
00000220: 5fb1 023d fbe5 b63d a855 043e 7c98 debd
00000230: 2c06 04be 2538 7b3e 97db 333d 5221 5a3e
00000240: 380b 013e ba6f 4bbe 1226 513e a8c3 58bd
00000250: 7005 0cbe 3b09 74be 2fc0 123e 55f6 8abd
00000260: d99b 17be 605a 15bc 3185 04be e5f0 353d
00000270: c389 d63d 58cb cebd acb8 c93d d05d dabc
00000280: b546 983e 8b9d 0ebd 1d94 09be 7af1 5cbd
00000290: efec 4bbe 5035 2c3e 2326 413d 0736 163e
000002a0: 1e28 78bc 653f 643e c4ce 6b3e 4a80 973e
000002b0: 6311 32be dcd2 98bd fa82 1a3e 97ae 39be
000002c0: 1cfa cc3d 96ed 66be 6477 81bd 68a4 39be
000002d0: 9e60 343e eb95 883e d5b5 1a3d 0eba 4bbe
000002e0: b9ad 29be c4d6 afbd b496 eabd 7bcb 2ebe
000002f0: 1fce b23a f276 91bd 905b 86bd 18cf 2e3d
00000300: 86ed 523e 0c3d b3ba f43c a13d ee2f 29bd
00000310: 1255 503e c954 45be 80da 3bbe dbaa e03d
00000320: 7e0e e43e b869 0e3e c2b8 383e f87b 77bd
00000330: 7aef cebd f005 e93d b394 3d3e 16b1 90bd
00000340: b8ca 933d 0866 d7bd 8ae4 e63d 002e e1bd
00000350: c4df 61be 192c 49be 409b 1cbe 1ddf 453e
00000360: c949 2b3e d401 7a3e b38a cebd ef4e ef3d
00000370: 4e86 f43d 80c2 d2bc 6803 3dbe da40 63be
00000380: 11ed 703d d659 aa3d 56a8 4b3c d183 fb3d
00000390: c7cb 693e 628f 1b3e de42 16be 3c7c f5bd
000003a0: a60b 843d e782 3f3e 3c6d 853d 295d a1bd
000003b0: cf6c 8d3c 587e 6b3e 474f 313e 6a67 c2bd
000003c0: 00e2 c53d a8bd 04be fb04 19be 7071 433e
000003d0: 54b0 e1bd 6342 853d 8d44 ae3e 0f06 263e
000003e0: 9062 e83d 782b 5cbe 0d52 a2bb c459 a23c
000003f0: e42e 223e 084f a3be 4c5b 72be 320c 3f3e
0.143756 0.34711957 0.08970759 0.07253655 0.16947138 0.07911166 0.18653071 0.22547619
0.29789007 0.20434988 0.20444536 0.17365536 -0.20172293 0.15691869 0.2000036 -0.16531071
0.08441341 0.16499919 -0.24909791 -0.06238216 0.24933407 -0.13558601 0.26084837 -0.019010784
-0.010200706 -0.07123208 0.1190588 0.2938698 -0.042836238 -0.09613179 -0.2065447 -0.058311433
-0.004443105 0.2746198 -0.032063477 0.11335837 0.19315542 -0.08864551 0.269903 0.10061583
0.4099901 -0.104703434 0.064956516 0.13094331 -0.20106576 -0.23529558 -0.12675901 0.18114015
0.17059147 -0.12934983 -0.1994371 0.24806714 0.038075954 0.16795263 -0.049941164 0.18188852
0.16111898 0.15442514 -0.02448988 0.2677362 -0.10614753 -0.29291177 0.22399718 -0.15443385
-0.10985309 -0.20014648 0.22399649 0.016346939 -0.0890461 -0.16830155 -0.17217712 0.04567455
-0.022012437 0.031974092 0.0036982 -0.20553105 -0.21481083 0.07563646 -0.005940405 0.08022818
0.23815256 0.15824914 0.0016907215 0.24442774 -0.03755629 0.15979283 0.13175957 0.2325369
-0.2619387 -0.146638 -0.18817185 -0.021244576 0.2232096 -0.08796562 -0.18356675 -0.032360762
0.2173988 0.30920735 0.20307781 0.260235 0.1460588 -0.052929133 0.035246573 0.20614414
0.15304044 0.10827766 -0.19331804 -0.089223325 -0.20986244 -0.15646403 0.011577716 0.032864295
0.14671919 -0.17638305 -0.2143335 0.027677745 0.054615647 0.19784136 -0.005707003 0.027812164
0.08189978 0.060818613 -0.14004901 0.056497797 -0.11120362 0.07645096 0.19497716 0.07411778
0.24097271 -0.29798934 -0.116215885 -0.017562535 -0.21096247 -0.0741181 0.13090983 -0.21105585
0.031907436 0.08930584 0.129233 -0.10868928 -0.1289298 0.24533136 0.04391059 0.21301773
0.12601936 -0.19866839 0.20424679 -0.052920967 -0.13673949 -0.23831646 0.14331125 -0.06785265
-0.14805545 -0.009115785 -0.12941433 0.044419188 0.10475495 -0.100973785 0.098496765 -0.026656061
0.29741445 -0.034818213 -0.13435407 -0.053941227 -0.19914602 0.16817212 0.04715551 0.14669047
-0.015146283 0.22289808 0.23028094 0.29590064 -0.17389445 -0.07462093 0.15089026 -0.18133007
0.10008642 -0.2255157 -0.063216 -0.18129122 0.17614982 0.26676878 0.037771065 -0.19895193
-0.16570176 -0.08585885 -0.114545256 -0.17069809 0.0013641751 -0.07102765 -0.06560433 0.04267797
0.2059842 -0.001367481 0.07872954 -0.041305475 0.20344952 -0.19270624 -0.1834507 0.10970088
0.44542307 0.13907516 0.1803923 -0.06042096 -0.1010427 0.113780856 0.18513756 -0.070650265
0.072164 -0.10517508 0.11274059 -0.10995102 -0.22058016 -0.19645728 -0.15293598 0.19323392
0.16727366 0.2441476 -0.100850485 0.11684977 0.11939679 -0.02572751 -0.1845833 -0.22192708
0.058819834 0.08317916 0.012430271 0.12281001 0.22831641 0.15191415 -0.14673945 -0.119865865
0.06447534 0.18702279 0.065149754 -0.07879097 0.017263798 0.22997415 0.17315398 -0.09492381
0.09662247 -0.12962973 -0.14943306 0.19086242 -0.1101996 0.06506803 0.34036675 0.16213249
0.11346924 -0.21500957 -0.004953629 0.019818194 0.158382 -0.31896234 -0.2366764 0.18656996

lstm1_1.weight_hh_l0 f4 [64, 16]
00000000: 6935 67be f66a 2ebe 9e20 3c3e 2e5e 333e
00000010: c050 3ebd 5d50 03be a79b 7a3d 0c10 193e
00000020: bbf2 ba3d c3c2 323e 81f0 95bd 4df6 74bd
00000030: 0edc 5abe 1a06 efbd 600a 4a3d 9107 6abd
00000040: 5da9 853d 72cc f53d 1ae5 71be 619b 5ebd
00000050: bc77 6f3e 71d8 d13a 9575 73be 91f1 503e
00000060: 2f97 cbbd 8fe3 8bbe 9867 363c fa11 833e
00000070: 3aa1 debd d4a8 693e 5985 f0bd a671 d63d
00000080: d63f 633d fd5c 183e d422 69be b652 4c3e
00000090: f542 383e 5ed9 3bbe 02a4 77be f000 af3e
000000a0: 3c91 eb3d 4de9 56be aae9 e13d 032a 8d3e
000000b0: 246f 1abd 205e 033e 3912 11be beba 1fbe
000000c0: 8e21 3ebd d794 84be 9a91 61bd 3c94 6c3e
000000d0: a6b9 d2bd 5def 77bd d5c3 dfbd 70ff 753e
000000e0: 5c69 4fbe 548f 2e3d 65be 633e cb23 8dbd
000000f0: 54b5 3dbd 23cf 063d 5cd2 cc3d 49de 3b3e
00000100: 5d71 d0bb 11cb 583d 7bde dd3d 6ecb 7f3e
00000110: 7f40 6ebe 4194 d33c 44e7 5bbe 6432 58be
00000120: faa3 473e e18a 133e 7cbd 17be 7f7a 213d
00000130: 7ca5 823d c5d5 673e d29e 893d 7290 533e
00000140: 2fe4 e3bd ea03 bbbe 92b1 5f3e 849b 403e
00000150: 6fe6 a5bd 27ce 213e c897 8dbe 1e36 873e
00000160: 9e20 403d 4453 b4bd 372b fdbd 4f92 25be
00000170: d872 01be 8de8 48bd 9621 2d3e 0a00 f43d
00000180: 48fe 573d 1353 253e 35cb ab3d 3a20 2d3e
00000190: 8e82 753e 5242 8bbe 4911 183e bf21 ba3d
000001a0: bcdc 42be 1470 0e3e 99be 8a3e 2f73 5e3d
000001b0: 40ae 523e 04e6 29be 95c8 e23d d103 993d
000001c0: 67b8 98bd 3417 65be 4fca b13c c5c1 463e
000001d0: 3883 14bd 9847 b1bd 7b48 a3bc 40c7 95bd
000001e0: 5e9c 36be 263d 61be d595 a13e d2c3 903e
000001f0: 4147 493c 56e1 853b 967a 0a3e 430d 313e
00000200: cb87 a33e e04a b8be cd5d ccbd d3b5 1f3e
00000210: e066 05be 8274 7f3c 9e02 52be 14d0 d03e
00000220: 800b 1abe 8afe fdbd 759f 37be 74e6 d33e
00000230: 2fb8 493e 1395 f23d 2bcd 063e e8f3 a03d
00000240: 47e3 c5bc f525 75bd 284d 44bc 79d6 2dbd
00000250: b593 8a3d 7851 53be c2c2 443c a655 d83d
00000260: 74c6 383d 216f 1f3e 3168 79bd 8f13 53be
00000270: ff32 f73d 3687 aebd 90dc ab3c ed91 16be
00000280: 6f01 37be d0dc 483d ee68 24bd f061 1f3e
00000290: 6681 58bd a2f2 303e 7a0a 113e 258f d73d
000002a0: 05a0 95bd 8790 553e 1377 c7bd 7182 b83d
000002b0: c6e7 573e 4a92 383e 1581 afbc 2319 543d
000002c0: 649d 1f3e d53a 41be b82c 74be fc20 b53d
000002d0: 9988 193d 8a22 5b3e 62d9 453e 410f c93d
000002e0: f46f dbbe 28e1 e5bd ad55 27bd 7eef bdbd
000002f0: 3056 843e d55b 24be 1b5f 5cbe f539 4e3e
00000300: 9186 893e dccf 97be 9033 5bbe f1a7 23be
00000310: 2527 6b3c 3260 e1bc d499 9cbd 7c7f 9b3e
00000320: 6f01 0cbe 1001 6dbe 035f 0fbe b8da 873c
00000330: a792 5bbd e620 f8bd 3b56 713e cec4 833d
00000340: 6229 143e eaf4 a6bc 8795 ac3d 44ec ebbd
00000350: 27df 73be 769c 7f3e bc20 80bd 76aa 22be
00000360: a037 8abe affc 48be 80ec 49be 8450 1bbe
00000370: be7e 92bd 3b1c 95bd dff0 2e3e 793c 7bbe
00000380: 5cad b4bd aa79 bf3d dbb5 c53d 074c e9bb
00000390: 0991 65be 8130 193e 4ac4 9e3d d2a3 13be
000003a0: f128 26be cad7 133d 2b73 c4bd 5b2a 7bbe
000003b0: 242a 7e3e cba8 183d 49fe b5bd e9fa 52be
000003c0: dc27 03bd c95b 833c 6cbc 48be eee9 b03d
000003d0: 50cb 7cbe d9e6 54bd f8e0 483d 643f b5bd
000003e0: 4efc 19bd 9519 35be eb14 5d3e 6b7b 283e
000003f0: 2657 ae3d 86cf 50bd aa32 61bd e4cd 2d3e
-0.22578968 -0.1703299 0.18371817 0.17516395 -0.046463728 -0.12823625 0.061183598 0.14947528
0.091283284 0.17457108 -0.07321263 -0.059805203 -0.21373007 -0.11671086 0.0493263 -0.057136122
0.06526444 0.120018855 -0.23622552 -0.0543474 0.23385519 0.0016009939 -0.23775323 0.2040465
-0.09940945 -0.2732205 0.011133097 0.25599653 -0.10870595 0.22818309 -0.11744184 0.104708955
0.0554808 0.14879222 -0.22767192 0.19953427 0.17994292 -0.18344638 -0.24183658 0.34180403
0.11502311 -0.20987435 0.11030896 0.27571115 -0.03770365 0.12828875 -0.14167108 -0.1559858
-0.04641872 -0.25894806 -0.055070497 0.23103422 -0.10289316 -0.06053101 -0.10926024 0.24023223
-0.20255035 0.042617157 0.22240598 -0.068915926 -0.046315506 0.032912385 0.1000106 0.18346514
-0.00636117 0.052928034 0.108334504 0.24979946 -0.23266791 0.025827529 -0.2147494 -0.21112972
0.19496146 0.14408447 -0.14818376 0.039423462 0.0637922 0.2264014 0.06719746 0.2066057
-0.11127507 -0.36526424 0.21845081 0.18809325 -0.08100592 0.15801297 -0.27654862 0.26408476
0.046906106 -0.08804944 -0.12361758 -0.16169094 -0.12641466 -0.049049903 0.16907343 0.1191407
0.052732736 0.16144972 0.08388368 0.16906825 0.23975584 -0.27199036 0.14850344 0.09088468
-0.19029516 0.13909942 0.2709854 0.054309066 0.20574284 -0.1659165 0.11073414 0.07471431
-0.07457047 -0.22372133 0.021702914 0.19409855 -0.036257952 -0.086562335 -0.019932022 -0.073133945
-0.17833087 -0.21995983 0.31559625 0.282744 0.012285055 0.0040857 0.13523325 0.17290215
0.3193954 -0.35994625 -0.099788286 0.15596704 -0.13027525 0.0155917425 -0.20508811 0.4078375
-0.1504345 -0.12402065 -0.17931922 0.4138676 0.19699167 0.1184484 0.13164203 0.078590214
-0.024156226 -0.05985065 -0.011981286 -0.042440865 0.06766454 -0.20636547 0.0120093245 0.10563211
0.045111135 0.15569736 -0.06089038 -0.2061293 0.120702736 -0.08521883 0.020979196 -0.14704104
-0.1787164 0.04903871 -0.04013913 0.15564704 -0.05285778 0.17280057 0.14164153 0.105253495
-0.07305912 0.20855914 -0.097395085 0.09009255 0.21084508 0.18024555 -0.021423856 0.051781785
0.15587384 -0.18870099 -0.23845184 0.08844182 0.037483785 0.21399894 0.19321206 0.098173626
-0.4285885 -0.11224586 -0.04085319 -0.09274195 0.25847006 -0.16050656 -0.21520655 0.20139296
0.2686048 -0.29650772 -0.21406388 -0.15982033 0.0143525945 -0.02751169 -0.07646528 0.303707
-0.13672422 -0.23144937 -0.14001088 0.016583785 -0.053606655 -0.1211565 0.2356805 0.06434022
0.14468911 -0.020380456 0.084269576 -0.115196735 -0.23815595 0.24962029 -0.062562436 -0.15885338
-0.26995564 -0.19627641 -0.19719124 -0.15167433 -0.071530804 -0.07280775 0.17084073 -0.24534787
-0.08822128 0.093493775 0.09653827 -0.007119659 -0.22418608 0.14959909 0.07752283 -0.14417961
-0.16226555 0.036094464 -0.09592279 -0.24527876 0.24820763 0.03727035 -0.08886392 -0.20603527
-0.032020435 0.016034978 -0.19603127 0.086383685 -0.24686933 -0.051977966 0.049042672 -0.088499814
-0.037594132 -0.1768554 0.21590011 0.1645333 0.08512716 -0.05097916 -0.054979958 0.16973072

lstm1_1.bias_ih_l0 f4 [64]
00000000: eb78 1f3e 90d3 2e3d 0fdb 42be efd9 b7bd
00000010: 98b0 d1bd 3f27 2ebe ff9a 4d3e cfe1 3a3e
00000020: 52d4 913d bb45 763e 2814 1a3e 96f6 6dbd
00000030: 4421 3c3e 921b 5b3e 0323 423e 308c 61be
00000040: 30ea e9bc 4014 773d 0790 143e 3530 b7bd
00000050: 60a3 9fbd 74ce 763e 9772 9bbd fa80 56be
00000060: 7045 703e 25ce 58be ed5e 633d b48d 7bbe
00000070: dac8 9d3d 4ab5 cd3c 7156 2dbd 83d6 5a3e
00000080: 3e12 36be 6d08 46be 48b8 623e f6ae 163e
00000090: 028c 693e 5415 82bd 7524 81be 6b89 18be
000000a0: e8da 96bd fe8b 46bd 6f07 7c3d 859f febd
000000b0: deef 33be 1c4d 353e e7c0 12be e67b 90bd
000000c0: e5f3 fabb 4dc4 d9bc 2ad9 463d 4b69 c83d
000000d0: d096 68be 36d2 8d3d 0e48 893e 95fd 3f3e
000000e0: ca90 94bd a658 4bbe 2a6f c3bd 2cf1 4a3d
000000f0: 3825 2f3e 7c11 bd3c 8afa 23be 40e0 203e
0.1557347 0.04268223 -0.19028877 -0.089771144 -0.10238761 -0.17007159 0.20078658 0.18250202
0.07120575 0.24050038 0.15046751 -0.05809649 0.18372065 0.21397236 0.18958668 -0.22026134
-0.028554052 0.060322046 0.14508067 -0.08944742 -0.07794833 0.24102193 -0.07590216 -0.20947638
0.23463988 -0.21172388 0.05551045 -0.24565774 0.07704325 0.02511086 -0.042318765 0.21370892
-0.17780396 -0.19339152 0.2214061 0.1471518 0.22807315 -0.06351724 -0.25223127 -0.14896171
-0.07365972 -0.04847335 0.061530527 -0.1243277 -0.17571971 0.17705196 -0.14331399 -0.07054882
-0.007658469 -0.026582861 0.048546948 0.09785708 -0.2271378 0.0692486 0.26812786 0.18749078
-0.07254179 -0.19858035 -0.09542687 0.049546406 0.17104042 0.023079626 -0.16013542 0.15710545

lstm1_1.bias_hh_l0 f4 [64]
00000000: 57a0 52be 84e2 0fbe 0bbd 1bbe 5461 acbc
00000010: 67e1 383e d0b4 d2bd 7f1b 633e fc7d 28be
00000020: 77a2 e8bd 223f 0c3e a2f8 a6bd f3aa 13be
00000030: 2a35 27bd 822d 1bbd ad59 0e3e 326a d2bd
00000040: 5768 cabc 8c83 bf3d dab1 25bd b7f3 2fbe
00000050: 4b09 57be 6574 5cbe 0f53 8c3d 3cd8 4fbe
00000060: cad2 843c 147e c4bc c83f 36be eec5 e4bd
00000070: aee7 e8bd 8c33 40be 0493 72be 93ee 713e
00000080: 4803 28be 8eb9 c53d 1062 2a3c 9afc 74bd
00000090: 1832 f83d 8c66 cbbd 52b6 5dbe 9050 7c3e
000000a0: 44b4 d53d 897a fa3c 7b5c 343e 2168 75be
000000b0: de8f a2bd f8ae 133e 35b8 ebbc 94ba 313e
000000c0: dbdb 3bbe 4272 7a3d 7fd6 28bd c588 2abd
000000d0: 300b 4abe ef84 923e 7614 ca3d dd52 1fbe
000000e0: 9c71 b43a 380b 33be 5ef1 2b3e d89a 063e
000000f0: d8da 5c3e 3900 f8bd 30a7 24be 62e4 1d3e
-0.20568977 -0.14051253 -0.15208833 -0.021042503 0.18054734 -0.102883935 0.22178458 -0.16454309
-0.11359113 0.13695958 -0.08152892 -0.1442068 -0.040822186 -0.037885197 0.13901396 -0.102741614
-0.024707956 0.093512625 -0.040452816 -0.17182814 -0.20999639 -0.21528776 0.0685178 -0.2029733
0.016213793 -0.0239859 -0.17797768 -0.111705646 -0.113723144 -0.18769664 -0.23688895 0.23626165
-0.16407502 0.096545324 0.0103993565 -0.059811212 0.121189296 -0.09931669 -0.21651581 0.24640107
0.104347736 0.030576007 0.17613403 -0.23965503 -0.07937597 0.14422214 -0.02877436 0.1735633
-0.18345587 0.06114412 -0.041220184 -0.04163434 -0.1973083 0.28617045 0.09867184 -0.15558954
0.0013766768 -0.17484748 0.16791293 0.13145006 0.21567857 -0.121094175 -0.16079402 0.15419152

lstm1_1.weight_ih_l0_reverse f4 [64, 32]
00000000: aba4 27be 386b a43d 1842 5fbe 750d 263e
00000010: f277 fabd 585d 923b f6f9 52be 929e 503e
00000020: 94fc 66be 5d19 05bd f0c5 343e 95f8 e8bd
00000030: 5d22 19be 1800 2e3d 090d 853d 51d2 babc
00000040: 1430 f73d ac87 a53d e035 283e 2676 203e
00000050: a496 0f3e c65a 18be 4cf5 5dbe 15ba 263d
00000060: 89fd ce3d 0008 f5bd 8af4 433d f303 49bd
00000070: ae7c f93d 28d9 ec3c 1065 efbc 5a11 74be
00000080: 5990 0abe b22a a33c 6564 4e3e 55ba e8bd
00000090: a0bb 65be 4c1c a4bd 5632 61be 5af1 76be
000000a0: ee45 2c3e 705c b7bd b885 5ebd ceac bc3c
000000b0: 6223 373c 1ea3 bebd fa4b 373e caae 42be
000000c0: a8c4 083d 00f1 793d 37b2 b2bd 786a 883d
000000d0: e296 233e e196 47be ec6e fe3d 406a 353d
000000e0: 113c 8a3e 08d8 fabd 81c5 2abe 8e96 473e
000000f0: bbd7 183d 63cd 2dbe 20a3 44be 1c23 a63d
00000100: 5642 febd 0f78 913d 2437 9d3d 513a 9f3e
00000110: 217d 19be 24f2 0bbe 784e 7b3d 45b2 dcbc
00000120: 1f6c ce3e 7359 133e 80c5 413d e76e 0cbe
00000130: 208f 883d b65f 5bbd 36c8 78bd 97e6 793e
00000140: fce6 a13d f877 bb3d 39df 70bc e6bc 763e
00000150: 081a 3abd e15e 22be 1c48 f33d 73e3 76be
00000160: e48a 343e ac45 babd 4663 afbc f9d3 d1bd
00000170: 68e5 52be 4590 7a3e 6801 95bd 76b7 0f3e
00000180: ae6e 683e 2ba7 34be 4855 1ebd 3631 743e
00000190: 53f8 143b 242a fdbd ba81 17be 6314 633e
000001a0: 3155 babe 4cc6 4ebe e807 463e 7039 e43c
000001b0: 8a55 3bbe a335 14be 5929 78be 1145 663e
000001c0: 0080 c43c 1037 65be f235 2fbe 506e 0cbd
000001d0: 10d1 f83d d9c2 97bd 401d b0bd f61e 793e
000001e0: e9f6 aa3d 1ab2 213e 7b3e 2ebe 19b3 543e
000001f0: 57a0 693e a8b3 5dbe 26be 013e 6e35 71be
00000200: 2506 683e b2c6 5f3e 6eef 843d 3ef8 58bc
00000210: 0c43 04be b3f1 423e 9541 643e 8dc7 c0bd
00000220: 57e2 c73e 9a19 42be b0ca 7abd 1c77 923d
00000230: b083 66be 65ba 83be c672 29bd fe42 013c
00000240: 22fc 2ebe 7881 1fbd 5222 28bd cecb 6cbe
00000250: 9294 68be f290 58bd 4740 8c3e 556b db3c
00000260: 8ef8 7e3d 0c79 2abe 24b6 27be 108c 3dbd
00000270: fee6 913e 430c d5bd 56ff 47be 9040 ee3c
00000280: ee7a 9b3e ace6 b13e c739 03bd da0d 3cbe
00000290: 6be8 3abb d91d 23bb fbfe 763d 933c 053c
000002a0: 587c 9b3e 35b6 e2bc 8697 1e3e e337 55be
000002b0: cd27 5f3d bc29 203e d648 933e e1ac a4bd
000002c0: 8075 11be 762e 373e 2f44 1f3e 0845 b63d
000002d0: 5a29 2fbe 90ca d33c 5f39 ad3d dd55 07be
000002e0: ee53 753e 6864 efbd 1a46 02be a26b 983e
000002f0: 32ee bc3b 5cf8 21be ec87 393e 0452 c53d
00000300: 90ac 803e aec3 ad3e d97c cdbd 5ae5 d93a
00000310: cb07 0cbe 0fdb 093e a175 8b3e e157 053e
00000320: fbe8 813e d9e9 5b3e faee 2d3e ec95 8a3e
00000330: 0d69 c73b 59ab 2c3d 302b cebd cf82 58bd
00000340: 2008 723c f8fe 0f3d bc2a ad3d ac98 9f3d
00000350: 08a6 13bd d53a 07be 59d7 8f3e 3a46 1dbd
00000360: 4ee4 8a3e 6a9f 7f3e 2bd9 f0bb 81d4 643d
00000370: 0490 fb3d 3176 e33b e461 52be 0090 d9b9
00000380: 6820 473e 0e6e 6ebd 23df b33d 0512 bebc
00000390: 0284 a13d 8e04 f7bd 34ee e03d ec72 533b
000003a0: f5d4 b9bc 5fb5 63bd 863b 5ebe 373d 0b3b
000003b0: 9072 c13d 0d4e a63d a296 593e d370 393d
000003c0: ecfd 4c3e e0f2 8fbd 97b5 f5bd 26da 5d3e
000003d0: 5ac1 5f3e 267d 0dbe 1db7 bd3c 252d 2c3e
000003e0: 9593 4e3e a082 233e 9bcc dbbd 1255 aa3e
000003f0: 32d5 953d 6ef9 543d 80a6 673d b45d 833d
-0.1637141 0.08028263 -0.21802557 0.16216071 -0.12229909 0.004466694 -0.20603165 0.2037299
-0.22557288 -0.03249489 0.17653632 -0.11375538 -0.14954515 0.04248056 0.06496627 -0.022805365
0.12069717 0.08082518 0.16426802 0.1567007 0.14022309 -0.14878377 -0.21675605 0.040704805
0.10106952 -0.119644165 0.047840632 -0.049076032 0.12181984 0.028912142 -0.029222995 -0.23834744
-0.13531627 0.01991782 0.20155485 -0.11363665 -0.22434855 -0.0801321 -0.21991858 -0.24115506
0.16823551 -0.08953178 -0.054326743 0.023031618 0.0111778695 -0.09308456 0.17900077 -0.19011989
0.03339067 0.06102085 -0.08725398 0.06660932 0.15975526 -0.1949115 0.124235004 0.04429078
0.26998952 -0.12248236 -0.16676904 0.19491026 0.03731511 -0.1697288 -0.19202852 0.08112165
-0.12414996 0.071029775 0.07676533 0.3109918 -0.14989139 -0.13666588 0.06135413 -0.026940474
0.40316865 0.14389591 0.04730749 -0.13714181 0.06667924 -0.053558074 -0.06073781 0.2440437
0.07905385 0.091537416 -0.014701658 0.24095497 -0.04543498 -0.15856506 0.11878988 -0.24110202
0.17631108 -0.0909532 -0.021409642 -0.10245509 -0.20595324 0.24469097 -0.07275659 0.14034829
0.22698471 -0.17641895 -0.03865555 0.23846897 0.002273102 -0.12361553 -0.1479558 0.22175746
-0.3639312 -0.20192832 0.19338953 0.02785942 -0.1829435 -0.14473586 -0.24234523 0.22487284
0.023986816 -0.22384286 -0.17110422 -0.03428489 0.121492505 -0.07410211 -0.08599329 0.24328217
0.083478756 0.15790597 -0.17016022 0.20771445 0.22815071 -0.21650565 0.12670192 -0.23555538
0.22658594 0.2185314 0.0649098 -0.013242779 -0.12916201 0.19037513 0.22290643 -0.09413061
0.3903987 -0.18955079 -0.061228454 0.071516246 -0.22511172 -0.25728145 -0.041369222 0.007889507
-0.17088369 -0.03894183 -0.041048355 -0.2312462 -0.22712925 -0.052872606 0.2739279 0.026784578
0.06224876 -0.16647738 -0.16378075 -0.046276152 0.28496546 -0.10402729 -0.19530997 0.02908352
0.30367225 0.347463 -0.032037523 -0.18364659 -0.002851988 -0.0024889617 0.060301762 0.008132118
0.30368304 -0.027674774 0.15487489 -0.208221 0.054481316 0.1564092 0.28766507 -0.080407865
-0.14204979 0.17888817 0.15553354 0.088998854 -0.17105618 0.025853425 0.08458208 -0.13216348
0.23957798 -0.11689073 -0.12722054 0.29769617 0.0057657 -0.15817398 0.18118256 0.09634784
0.25131655 0.33938354 -0.100335784 0.0016624138 -0.13674848 0.1346247 0.2723818 0.13021804
0.25373062 0.21475925 0.16985694 0.27067506 0.006085521 0.042155597 -0.10066831 -0.052859124
0.014772445 0.035155267 0.084554166 0.07792792 -0.03604701 -0.13206036 0.28093985 -0.03839705
0.27127308 0.24963155 -0.007350107 0.055866722 0.12283328 0.0069415797 -0.20545155 -0.00041496754
0.19445956 -0.058210425 0.08782794 -0.023201952 0.078865066 -0.120614156 0.10982934 0.0032264544
-0.022684554 -0.05559289 -0.21702394 0.0021246204 0.09445679 0.08120356 0.21248868 0.045273613
0.20018739 -0.070287466 -0.11997526 0.21665248 0.21851102 -0.13817272 0.023158604 0.16814096
0.20173486 0.15967798 -0.10732385 0.33268028 0.073160544 0.051995687 0.05655527 0.06414357

lstm1_1.weight_hh_l0_reverse f4 [64, 16]
00000000: 2c6b a7bc 9c47 3a3e 17c7 65bc 4c16 8c3d
00000010: adaa c0bd e3ec 4e3e c878 8b3d af29 32be
00000020: 5800 373e 31d6 f33d 5f22 31be b0da 373e
00000030: 44d9 293d b931 13bc 3d64 a73c 15e4 ccbc
00000040: 1eb2 86be 99e6 4c3d 1916 193e 7390 aaba
00000050: f43b 0ebe 5562 283e 6cdf f93c 6614 ac3c
00000060: 05bc 4abe 2aff 09be a14b 773e a583 25be
00000070: 7c09 e0bd b419 133e 2f07 6b3e a981 d1bd
00000080: 687d 633e 9818 b53d 8b60 0f3e 5139 f83d
00000090: e1bb a23d 9491 513d e554 f9bd 197e 6dbe
000000a0: 9b40 1fbe fe63 183e d130 903e 8b0f 89be
000000b0: 7aa4 15be 3c59 61bd 9a6d 863e 5411 583d
000000c0: c098 69be 2f97 5f3e 6e19 2f3e 231a c93d
000000d0: 86ba f23d f9a5 0f3d 9fb0 b4bd bdd3 5c3e
000000e0: 6ed1 5a3e e419 36be da76 013e 82ac 27be
000000f0: fc40 e43d fa15 403e 8e44 533e 953e 0fbd
00000100: f390 513e 8eee 843e 588a 6a3e 80ed 283c
00000110: 8986 6cbe 9fe7 e43d ea82 7c3b b931 8fbd
00000120: ce91 1c3e 80b0 5ebe 2792 05be 636f 08bd
00000130: f8d5 05be 9fc9 50bc b5c3 e3bb ad18 2abe
00000140: 290c 3ebd 6811 043e f293 413d 6d95 fe3c
00000150: a22c 93be 22f5 5a3e de3b fdbc db53 2ebe
00000160: 73f3 96bd 474e 67be 5a88 1d3e a202 92be
00000170: aab3 47be 1249 2a3e d012 31be cb3e aebe
00000180: 1bdf d7bd dd04 563e 37b6 5ebd b855 063e
00000190: 8fea 01be 9695 353e 49c3 debc fb4b ff3d
000001a0: 9cfd 4d3b 8eb1 93bd 43b7 07be 735c 21be
000001b0: 1719 2c3d 6e2c c9bd dad1 853c 89bf c73c
000001c0: 535a 6c3e e3ec fdbd 98e8 463e c14c e4bd
000001d0: bddf a9bd d8a7 e43d 7c82 04be 2449 39be
000001e0: 65c9 bebd 913a 813b 6e9e d5bd e6c1 763b
000001f0: d955 b53d 09cd 84be a1eb 083d 4de3 6cbe
00000200: bb54 823d 800f 7abe 5511 25be a2c9 aabc
00000210: 7c23 383e 31c3 bc3c 41a1 a53d 9cd6 483e
00000220: 5864 debd 1695 7e3e 7391 423d 8470 073e
00000230: 913b a63d 2d9f 743e ef23 f93d ff0f 493e
00000240: c332 773e 9800 093d 7997 043e 17ef 62bd
00000250: 3501 8cbe b619 8abd 34b3 1abd abeb 3b3e
00000260: 01f3 323e 86a5 51bd a90e 9f3d f842 35be
00000270: aebe edb9 5fdc 40be c834 083e 4609 3a3e
00000280: bf58 98bd 7a79 8cbd 3f4f 0f3e 0361 52be
00000290: 9163 9bbe 374a 833e a3ab 093e 8cb3 6bbe
000002a0: 7feb ffbd b69a 253e 2f4c 223e 7fb1 6ebc
000002b0: 9681 ae3d 19d5 f6bc a82c e0bd 1563 813d
000002c0: 8fcd fc3c 104f 5abe c175 273e 9335 363e
000002d0: 3cbd 82bd 7f5f 20be a223 7a3e c552 f73d
000002e0: 8e1b 25be bc0a d0bc 31c9 0b3e bb35 303e
000002f0: f5c2 88be 290b 093e 1a23 ecbd e16d 323e
00000300: 1dac 66be dc8f c6bc fd10 16bd 9f9e 543e
00000310: c605 cfba 07e1 1b3e 1b8e c7bd 31a2 f73d
00000320: acbb 7a3e d4ce 9e3d 8e36 abbc 4ef0 f5bd
00000330: bb6c 63be 0966 933c e9de b33d 7055 8fbe
00000340: a4ce 4f3d ee5b 53be 3d2c 2a3e b7b9 afbd
00000350: 06a0 ae3c ce94 c93d 75d3 1c3e 052c 20be
00000360: ef41 7fbd f4d8 4b3e b667 b43d e35a 9e3c
00000370: 3773 e23d a5b5 053e c2cf e83d b835 9a3d
00000380: 2028 123e 99dd fbbd 1b04 113d ebb5 fd3d
00000390: 4d3c 92bd eb79 6abd 3c81 00be 807a 2c3e
000003a0: 0a8e 623e ce78 e93d ecfb 01bd 9e86 d4bd
000003b0: b52a c0bc 2705 6cbe 9fe0 5cbe b4a0 3cbe
000003c0: 74ca 21be 8415 193e 258d 68bd 17b5 27be
000003d0: bdb1 70be bf25 bcbd 59d8 5b3e c4da 173e
000003e0: 1a8d 583d 40de 533e e9cb 8c3e 3963 bb3d
000003f0: e456 32be 3a0c d0bd 51ff e1bd c123 083e
-0.020436846 0.1819138 -0.0140245175 0.0684019 -0.09407554 0.20207553 0.068101466 -0.17398714
0.17871225 0.11906088 -0.17298268 0.17954516 0.041466966 -0.008984023 0.02043354 -0.025011102
-0.26307768 0.050024603 0.14949836 -0.001301302 -0.13890058 0.1644376 0.030502044 0.02100582
-0.19798286 -0.13476244 0.24149944 -0.161635 -0.10939309 0.14365274 0.22951959 -0.10229809
0.22215807 0.088425815 0.14001672 0.12120307 0.07945991 0.051164225 -0.121743955 -0.23192634
-0.15551989 0.14881894 0.28162244 -0.2676967 -0.14613524 -0.05501674 0.26255494 0.0527509
-0.22812176 0.21835016 0.17099544 0.09819438 0.11851983 0.035070393 -0.0882275 0.21565147
0.21368954 -0.17783314 0.12642995 -0.163744 0.11145207 0.18758383 0.2063162 -0.034971792
0.2046545 0.25963253 0.22904336 0.010310531 -0.23098196 0.11176991 0.003853018 -0.06991906
0.15289995 -0.21747017 -0.13044034 -0.03330935 -0.13069904 -0.012743383 -0.0069508203 -0.16610976
-0.046398316 0.12897265 0.047260232 0.031077111 -0.2874499 0.21382573 -0.030912336 -0.17024176
-0.07370653 -0.22588454 0.15384045 -0.28517634 -0.1950213 0.16629437 -0.17292333 -0.34032282
-0.10540601 0.20900293 -0.054372992 0.13118637 -0.12687133 0.17732844 -0.027192729 0.12465664
0.003143168 -0.072116 -0.13253503 -0.15757923 0.042016115 -0.098229274 0.016335417 0.024383323
0.23081331 -0.12398698 0.19424665 -0.11147452 -0.08294628 0.11164826 -0.12940401 -0.18094307
-0.09315757 0.0039437492 -0.10430609 0.0037652194 0.08854265 -0.2593768 0.03342784 -0.23133583
0.06363817 -0.24419975 -0.16119893 -0.0208481 0.17982286 0.023042293 0.08087397 0.19613117
-0.10858983 0.2486156 0.047501992 0.13226515 0.0811683 0.23888846 0.12165057 0.19635008
0.24140458 0.033447832 0.12948407 -0.055403795 -0.2734467 -0.06743185 -0.037768558 0.18351619
0.17475511 -0.051183246 0.07766468 -0.17701328 -0.0004534623 -0.18834065 0.13301384 0.181676
-0.07438802 -0.06859107 0.13995074 -0.2054482 -0.303494 0.2564256 0.1344438 -0.2301771
-0.12496089 0.16172299 0.15849374 -0.014568686 0.0852081 -0.03013091 -0.109460175 0.063177265
0.030859737 -0.21319222 0.16353513 0.17793874 -0.0638375 -0.15661429 0.24427655 0.12076334
-0.16123793 -0.025395744 0.13650967 0.17207997 -0.2671124 0.13383164 -0.115301326 0.17424728
-0.22526594 -0.02423852 -0.036637295 0.20763634 -0.0015794567 0.1522256 -0.09743901 0.120914824
0.24485654 0.07754293 -0.020900037 -0.12008725 -0.22209446 0.01799299 0.08782751 -0.2799487
0.050734177 -0.20640537 0.16618438 -0.08580344 0.02131654 0.09842835 0.1531504 -0.15641792
-0.06231874 0.1990698 0.08808844 0.019330448 0.11057132 0.13057573 0.11367752 0.07529777
0.14273119 -0.12298126 0.035404306 0.12388214 -0.07140408 -0.057245176 -0.12549299 0.16843605
0.22124496 0.11399995 -0.031734392 -0.10377239 -0.023457864 -0.2304884 -0.21570061 -0.18420678
-0.15799886 0.14949614 -0.05677523 -0.16377674 -0.23505302 -0.09186887 0.21469249 0.14829546
0.05286894 0.2069025 0.2749932 0.091497846 -0.17415959 -0.10158582 -0.11035026 0.13294889

lstm1_1.bias_ih_l0_reverse f4 [64]
00000000: 0bad 82bc 0e82 08bd 220c f53c 92ae 543d
00000010: 8483 2c3e 55b3 be3d 0257 10be d5ff b43d
00000020: 3088 3dbe 527a 27be 4bb2 e4bd 10c9 e53d
00000030: 5bf4 e1bd 9234 3dbe 9ecb 623c 1373 eebd
00000040: 089b eebc 366e 31be 5cc6 67bd 7e1a e93d
00000050: f1fc 883e 5dbe 22bd 9f2a 1f3e 5963 68be
00000060: 94c7 3abe 2a95 bbbd f82d 683d e043 1fbe
00000070: 878c 1a3e 0c26 dd3d b875 96bc 8ebc 8fbd
00000080: 1896 6b3d 7b63 3abe 6bce 643e 7f3e 08be
00000090: b138 f53b f89c 1d3e cd7c b1bd 7b5f 71bc
000000a0: c51c 123e e05e 65bd 4639 bdbd fdf4 2e3e
000000b0: 217e 563e cbee 2f3e d43b 5cbe cf95 bcbd
000000c0: f11c 423e 6cef 0dbc d769 13bc 673a a6bc
000000d0: fd7a 6a3d 739a dbbd d294 d8bd 196b 1f3d
000000e0: fa99 52be 63c0 313e 2aa0 38be c0f2 623e
000000f0: b473 da3d cb92 54be 9b64 f9bd 0801 dabb
-0.015951654 -0.033327155 0.029913012 0.051924296 0.16847044 0.093115486 -0.14095691 0.088378586
-0.18508983 -0.16355255 -0.11166819 0.1121999 -0.11032935 -0.18477085 0.013842491 -0.116430424
-0.029126659 -0.17327198 -0.056585655 0.11382006 0.2675548 -0.039732326 0.15543602 -0.22694148
-0.18240196 -0.0915931 0.056684464 -0.15553236 0.1509267 0.107982725 -0.01836668 -0.07018386
0.057516187 -0.18202011 0.22344367 -0.1330509 0.007483565 0.1539191 -0.08666382 -0.014732237
0.14268787 -0.055998683 -0.0923944 0.17085643 0.20946552 0.17180936 -0.21507198 -0.09208261
0.18956353 -0.00866304 -0.008997402 -0.02029152 0.057246197 -0.10722818 -0.1057526 0.038920496
-0.2056655 0.17358546 -0.18029848 0.22162914 0.106666 -0.20759122 -0.12177392 -0.006652955

lstm1_1.bias_hh_l0_reverse f4 [64]
00000000: 7c26 27bd 2021 f23c 54d9 873e a6e3 153e
00000010: 622a cbbd e5dc 52be 98a0 4dbe a4f1 403e
00000020: e643 953d 258f dd3d 3c98 79bd d7f7 66be
00000030: c6c1 463e 3c0b e73d 2412 d93d 20c6 55bc
00000040: 9ea3 7c3d dad1 f6bd cd8d 933c e033 6fbe
00000050: 0866 a63d ade1 443e 38f9 a23d cfdd a43d
00000060: 73bc 923d 5a7d a0bd 859d 873d 6818 593e
00000070: 84b1 593e d82a 9e3d 5d27 223c e5c1 3fbe
00000080: cdf9 e93d b5f1 35be 1fff 40bc 87de 63be
00000090: 8610 74bc cabe 38be 6106 8cbd b289 9c3d
000000a0: 5029 713e 55f5 943d 1565 edbd e6c7 18bd
000000b0: f180 b8bd 405e 67bd aa78 3bbe a6db 073d
000000c0: d6e0 c7bd ef28 a1bd abaf 473c 94a0 e9bd
000000d0: 313b 34be 4783 3fbe 98b9 163e 18aa 55be
000000e0: e05e 95bd aa2a 063e 1e32 773e 181e 223e
000000f0: 2da3 6fbe 4931 40be 9cf5 82be 99b7 4bbd
-0.040808186 0.02955681 0.26532996 0.14637622 -0.09920193 -0.20592077 -0.20080793 0.18842179
0.07288341 0.10818318 -0.060936198 -0.22555481 0.19409856 0.1128144 0.10599163 -0.013047725
0.061679475 -0.12051745 0.018011952 -0.23359632 0.0812493 0.19226713 0.07957691 0.08050119
0.0716485 -0.07836409 0.06621841 0.21200716 0.21259123 0.077230155 0.00989708 -0.18726309
0.11424599 -0.17767985 -0.011779576 -0.22252856 -0.014896518 -0.1804153 -0.06837154 0.07643451
0.23550916 0.07273356 -0.115915455 -0.037300013 -0.090089686 -0.05648637 -0.18307748 0.033168457
-0.09759681 -0.078691356 0.012187879 -0.11407581 -0.17600705 -0.18702422 0.14719236 -0.20865667
-0.072934866 0.13102213 0.24140212 0.15831792 -0.2340209 -0.18768801 -0.2557801 -0.04973564

lstm1_2.0.weight f4 [32, 32]
00000000: 2260 f0bd 8bc4 a6bd 4ffa 883c 25ab 2c3d
00000010: 3c97 f6bd 3f7f c8bd 0b6a 8fbc 88b3 043e
00000020: d246 123e 8d3b 9ebd 92c8 83bd 4277 cebc
00000030: 6e67 a13b 847d d6bd 26df 23be 5d3f dbbd
00000040: db10 e03c ce09 0d3e e7a2 93bd ccf9 3bbc
00000050: 4456 233e c307 bcbd a4f6 19be befb fc3d
00000060: d19f 24be 204e f83d 2e99 2abe 1106 fabc
00000070: 3914 acbd 07c3 303e a7ea 7c3d 396b 1d3e
00000080: 68ff 2cbd 82d5 c03d 0f4d ebbd c6c8 4d3c
00000090: 14ae a7bd cce8 3d3d ca04 143e e2c9 7a3e
000000a0: c9ee 8ebd 109d ff3d 0aaa 01be 21a9 87bd
000000b0: 77a1 1b3d 3472 043e 5292 d8bd a23d 38be
000000c0: a1c9 df3d cbfe 8f3d 9fec d93d 0428 e5bd
000000d0: be71 68bd cd87 103e 5bb3 d3bd e5c6 09bd
000000e0: 6dce a1bc 118d 0e3e 93d7 84bd df92 07be
000000f0: b544 35be ae74 9abd 3ef3 ad3d f011 dbbd
00000100: 0832 91bd 83e6 ab3d 9b68 7abd e8ff a83d
00000110: 7e27 5dbd 1676 24bd f760 863d 886c 0f3e
00000120: d2ae 9fbc 7113 9c3c 516c 013e a29b 8bbd
00000130: 718b 42bd 5221 133d 537f 14be 8992 213e
00000140: 3555 103d 5ed7 79bd 27b4 26bd d43b 70bd
00000150: 6566 1dbe 911c 9b3d b11b 0d3e c67d a2bd
00000160: d111 3d3d 86aa 94bd e62f ddbd 71d2 a23d
00000170: 627f 03bc b2f7 cdbd e2b4 c53c c232 a2bc
00000180: 8957 c13d 94c8 fe3d 0fb2 adbd 5125 523d
00000190: 4526 2cbe 5154 07be 4b5c 4abd 1081 8b3d
000001a0: 7726 c7bc 0602 0a3e 67a2 df3d ff6f b63d
000001b0: 78c2 05be 1dd9 a5bd 8744 803c 0079 c33d
000001c0: 1e32 28be 07e5 7c3d 2160 1d3d 418b 783d
000001d0: 4c69 273e c8e5 193e 4a42 3b3d 03b1 7a3d
000001e0: 2e93 43bd 91ec 323e 3d48 0b3d 12ce f53d
000001f0: 427e 9b3c 4128 7e3d f56e 223e 8eab a2bd
00000200: 1aba 9e3d 468a ccbd 9cdd e7bd 1a81 4f3e
00000210: 5db6 4c39 5778 693c 19dc 33be 762e 803e
00000220: f4f5 3bbe cd6c 35bd a316 b03d 84af 583d
00000230: 6921 bd3d 80f5 333e 6193 ab3b 64b5 f13d
00000240: 7870 89bc b28f 14bd 6030 3e3e 4c03 043e
00000250: a603 8cbe ce06 143e 8ea5 bc3d cd6c 2bbe
00000260: 835b f8bd 8663 023e 6815 303e c57a 3bbe
00000270: 4252 fb3c 8cb9 a3bd ea73 c33b ad43 1cbe
00000280: 8fc9 063e 7072 3bbe de52 81bd 63e5 113d
00000290: ce19 e3bd 5227 2d3c ec28 ca3d 582d 02bb
000002a0: 00d7 513d 4b17 2b3d b1cc a1bd f781 46bc
000002b0: 9859 2ebe 575a 93bd 60d0 20bd e790 143e
000002c0: fdd6 173d b463 d03d 22a0 1d3e 61cb 2e3e
000002d0: 4c1b 10be 6388 b23d e9d5 e33d bc65 d3bd
000002e0: a17f d33c 879f 503a 9002 08be 002b 19be
000002f0: f9be ff3c e333 f2bd 6816 0abd 662b cc3d
00000300: beaf 1fbe afcf 383e 7bde 22be 2e82 0a3e
00000310: 4943 203e a727 2d3e b23d 57bc bb78 3b3d
00000320: 2ced 81bd 882b 073e d348 0cbe e5ff 293e
00000330: b580 8a3c 8abe eebd 2604 f7bd e414 7dbc
00000340: c6a1 e7bd 1796 2abd 84ff 1fbe 8fd0 2fbd
00000350: 5fb3 323e 0fd0 4bbd 8109 933d b1f6 9cbd
00000360: d5c5 973d c417 6cbd 7ead 85bd 245e 923d
00000370: 0262 093e 3415 76ba a81c a93d 29e3 d0bd
00000380: 1ddc b6bd 117e bd3d a781 e63c 3c54 ca3c
00000390: e3c0 843d 89b5 013e 5332 1c3e ce1e 16be
000003a0: b03e ab3d be9c d13c 9d88 303e a977 343d
000003b0: bb29 14be dbe5 f43b 1786 cbbd 522b 9ebc
000003c0: d248 c23d 9cea 1cbe e1c7 9c3d bcfe c43d
000003d0: 2296 0abd 6ba6 62bd 995d 1ebe 5f55 9a3d
000003e0: a7db 25be 7200 b6bd 3e6a 893d e0ea a73c
000003f0: 4532 07be 5bce d8bc 2a4f b7bd 15e7 2e3e
-0.11737086 -0.08142956 0.016720919 0.042155404 -0.120405644 -0.09789895 -0.01750662 0.1295911
0.14284828 -0.07726202 -0.0643474 -0.025203351 0.00492566 -0.10473159 -0.16003093 -0.10705445
0.027351787 0.13773271 -0.072088055 -0.01147313 0.15950876 -0.09181168 -0.15035492 0.123527035
-0.1607659 0.12124276 -0.16659996 -0.03052047 -0.08402295 0.17261897 0.06174722 0.15372933
-0.042235762 0.094157234 -0.11489307 0.012560075 -0.081875 0.04636459 0.14454952 0.24491075
-0.069791384 0.12481129 -0.12662521 -0.06624056 0.03799578 0.1293419 -0.105747834 -0.17992261
0.109271295 0.0703102 0.10640835 -0.11189273 -0.056749098 0.14114304 -0.10336944 -0.033636946
-0.019751752 0.13921 -0.0648643 -0.1323962 -0.17701991 -0.07541786 0.084936604 -0.10696781
-0.07089621 0.08393576 -0.061134916 0.08251935 -0.05399274 -0.040151678 0.06561463 0.14006245
-0.01949254 0.01905224 0.12638976 -0.06816794 -0.047496263 0.03592045 -0.14501695 0.15778555
0.03523751 -0.060996406 -0.04069915 -0.058650807 -0.15371092 0.07573808 0.13780095 -0.07934146
0.04615957 -0.07259087 -0.108001515 0.07950295 -0.008025976 -0.1005701 0.024134103 -0.019799594
0.09440524 0.12440601 -0.084812276 0.05130512 -0.16811474 -0.13215758 -0.049404424 0.06811726
-0.024310334 0.13477334 0.10919648 0.0890808 -0.13062465 -0.08098052 0.015657676 0.09544563
-0.16425368 0.061741855 0.038421754 0.060679678 0.16348761 0.15029061 0.045717515 0.061203968
-0.047747783 0.17473055 0.03400444 0.120021954 0.018981103 0.062050108 0.15862639 -0.07942878
0.0775034 -0.09987311 -0.113215655 0.20264092 0.00019522892 0.014249883 -0.1756443 0.25035447
-0.18355542 -0.044293214 0.085980676 0.05290176 0.09234888 0.1757412 0.005236075 0.11802176
-0.016777262 -0.03626985 0.18573141 0.12891883 -0.27346534 0.14455721 0.092112646 -0.16740723
-0.121268295 0.12733278 0.17195666 -0.18308552 0.030678872 -0.07994375 0.005964746 -0.15260191
0.13162826 -0.18305373 -0.06314634 0.03561915 -0.11088906 0.010568457 0.098710865 -0.0019863453
0.05123043 0.04177026 -0.0790037 -0.012115947 -0.17026365 -0.07194965 -0.039261222 0.14508401
0.037070263 0.10175267 0.15393117 0.1706977 -0.14072913 0.0871742 0.111247845 -0.10322139
0.025817694 0.0007958342 -0.13282228 -0.1495781 0.031218993 -0.11826303 -0.033712775 0.09969215
-0.15594384 0.18047975 -0.15905182 0.13526222 0.15650667 0.16909657 -0.013137268 0.045769434
-0.06344065 0.132002 -0.13699655 0.16601522 0.016907075 -0.11657436 -0.12061338 -0.015446875
-0.11310153 -0.041647043 -0.15624815 -0.042923506 0.17451237 -0.049758967 0.07179547 -0.0766424
0.0741078 -0.057639852 -0.06527232 0.07146862 0.13416293 -0.0009387315 0.08257419 -0.10199577
-0.08928702 0.09252561 0.028137995 0.02469837 0.06482103 0.12666906 0.15253572 -0.14660189
0.08361566 0.025587436 0.17239614 0.04405943 -0.14469044 0.00747369 -0.09937685 -0.019307766
0.094865456 -0.15323871 0.076553114 0.09618899 -0.033834584 -0.05533449 -0.15465392 0.075358145
-0.16197072 -0.08886804 0.06709717 0.02049774 -0.1320277 -0.026465585 -0.08950646 0.17080338

lstm1_2.0.bias f4 [32]
00000000: a2b2 52bd 581e 203e 7227 81bc ecab d6bd
00000010: 85e0 813b e6a7 dcbc f288 ff3b c8cb c5bd
00000020: 9820 17be 8ff7 6f3c 52b0 27bd 8544 da3a
00000030: c2d8 a13d d8d8 8e3c 1e7d c03d 3826 cd3d
00000040: 4fe9 10be 39c6 17bd 7cbf 1dbe 942c 6cbd
00000050: b414 eabd 167e fe3d 239b 953d 8b8b bc3d
00000060: d29f 2fbd 7ca3 023d fa37 8fbc 95f3 3ebb
00000070: 0e27 f33c 9f33 1bbe 727f 4cbc 1128 da3d
-0.05143989 0.15636575 -0.01576588 -0.1048201 0.0039635324 -0.026935529 0.0077983076 -0.09658009
-0.14758527 0.014646425 -0.040939637 0.00166525 0.079026714 0.017437384 0.09398864 0.10017055
-0.141515 -0.037054274 -0.15405077 -0.0576597 -0.1142973 0.12426393 0.073049806 0.09206303
-0.042877026 0.031894192 -0.017482746 -0.0029136885 0.029681709 -0.1515641 -0.012481557 0.10652173
