results/random_six_samples_effect/Dataset 2/random_1/Experiment1(1C-4)/from_Dataset 2_ft_model.pth (torch, 95756 bytes, 27 tensors)

cnn1.0.weight f4 [16, 1, 3]
-0.28570676 0.59196055 0.37057838 -0.31800067 0.44006088 -0.44202235 -0.5727325 -0.16026744
0.549712 -0.2473865 -0.46116713 0.41771966 0.11536753 -0.12973057 -0.19937004 -0.47201577
0.49097136 -0.15087971 -0.105094165 -0.23090689 0.087360606 0.51281554 0.05719159 -0.34955508
0.12101028 -0.4015253 -0.4660575 0.5311321 0.29504427 0.16445768 -0.47224808 -0.06986469
0.054585386 -0.09347668 0.13366444 -0.060769487 0.24963476 -0.35638994 -0.43090782 -0.2928409
-0.40925422 0.4866026 -0.067235015 0.11767701 -0.1318918 -0.1817581 0.40955764 0.46614522
00000000: 2848 92be ba8a 173f 73bc bd3e fcd0 a2be
00000010: a94f e13e c150 e2be 999e 12bf 261d 24be
00000020: edb9 0c3f e352 7dbe 191e ecbe 5adf d53e
00000030: d045 ec3d 17d8 04be a927 4cbe 0dac f1be
00000040: 9960 fb3e 3680 1abe 9c3b d7bd db72 6cbe
00000050: 1eea b23d e147 033f bb41 6a3d e2f8 b2be
00000060: 3dd4 f73d b994 cdbe 179f eebe 46f8 073f
00000070: 0b10 973e 9867 283e 80ca f1be 3815 8fbd
00000080: ed94 5f3d b470 bfbd 55df 083e 6de9 78bd
00000090: 41a0 7f3e be78 b6be f39f dcbe 3eef 95be
000000a0: c589 d1be fa23 f93e 83b2 89bd a500 f13d
000000b0: a50e 07be cc1e 3abe 8ab1 d13e 96aa ee3e

cnn1.0.bias f4 [16]
-0.15433314 0.49555182 -0.105539724 0.51787466 0.29205823 -0.048577666 0.22705364 -0.33435324
0.40979156 -0.08216005 0.44920954 -0.29386595 -0.10073667 0.34617275 0.10907114 -0.021495081
00000000: 8209 1ebe f8b8 fd3e 3625 d8bd 6f93 043f
00000010: a888 953e 60f9 46bd c080 683e 5930 abbe
00000020: 33d0 d13e 8743 a8bd cbfe e53e 9975 96be
00000030: 074f cebd 8e3d b13e b160 df3d 7416 b0bc

cnn2.0.weight f4 [32, 16, 3]
-0.07461347 0.07504829 0.0676174 0.09578158 0.0038518887 -0.1269624 0.00611704 0.011052879
0.11714989 0.02397141 0.06987989 0.0025555773 -0.11067034 -0.06785745 0.060360115 -0.0636572
-0.06190645 0.13026011 -0.111312605 -0.03190892 0.09966406 0.026541682 -0.120399036 -0.06766137
-0.08017154 -0.09455142 -0.059884273 0.009572184 -0.024755642 -0.12193746 0.1412291 -0.019565012
0.049769707 -0.13921879 -0.05841378 -0.0034937034 -0.007741201 -0.097465016 -0.07457239 0.07456465
0.04064026 -0.06042543 0.12417173 -0.07835857 -0.13024999 -0.07398152 0.09128827 0.022616236
0.1637927 0.079855956 0.2215768 -0.03588796 -0.13299797 -0.020650212 0.08978503 0.12394465
-0.056703087 0.026277136 -0.053378075 0.13053994 -0.12894718 -0.16654041 -0.24881393 -0.13006465
-0.055171084 -0.04128877 0.13443322 -0.14483927 0.09128676 -0.13349722 0.05182587 -0.0051390636
-0.040301856 -0.043003228 0.014631068 0.17115973 0.014452374 0.2207703 -0.08674051 0.046043295
-0.09195285 0.07584899 -0.109812826 -0.08397391 -0.03907658 0.031346787 -0.03005094 -0.11769752
0.1398305 0.07449063 0.013933641 -0.022544082 -0.14439365 0.19615936 0.25275734 0.369611
0.023474824 0.05941715 0.18881287 -0.07441094 0.042075917 0.01708525 -0.12208225 0.009469874
-0.09572526 0.07412803 0.13472302 -0.055015497 -0.016446413 0.01632235 0.23297605 -0.13257954
-0.13790782 0.040055536 -0.012545756 -0.071765445 0.010946409 0.041613918 0.06348405 -0.11039083
0.14155816 0.1403064 0.027058415 0.019987145 0.06932918 0.15085417 0.100953944 0.024489226
-0.029960487 0.031561695 -0.09552066 0.124545634 -0.025081703 -0.0043894504 -0.02120619 0.05966986
0.04487994 -0.026628817 -0.14045012 -0.07575584 -0.058033854 0.30675685 0.25046268 0.12018457
0.17809694 0.08657957 0.116015166 0.11452784 0.12444717 0.04368988 0.035144974 0.11861778
-0.009923865 -0.10125786 -0.020238716 0.13093536 -0.15066303 -0.20973647 -0.2235788 0.08240272
-0.080514826 0.12828797 0.012079717 -0.04214354 0.04028713 -0.118437834 0.13742404 0.04323674
0.097688295 -0.120083526 0.086196385 0.123037614 0.0033883553 -0.018375738 0.10180746 -0.060589325
-0.14139482 0.126991 -0.104079336 0.051419113 -0.12961073 0.1034017 -0.009720795 0.097163804
-0.026783409 0.029778035 -0.0010871401 -0.03590229 -0.00030946406 0.1454301 0.10529102 0.30520725
0.04504352 0.024187889 -0.029221669 0.034519393 -0.05554856 -0.040773276 0.051773492 0.12416692
-0.066633165 -0.12403972 0.085215 0.010822564 0.049940962 0.3255023 0.22661991 0.10844157
0.13216636 -0.08402723 -0.06934286 -0.015571151 0.1256514 -0.038005415 -0.13726772 -0.06058218
0.11207789 0.09526358 0.14378832 -0.024549345 -0.085092105 0.06846203 -0.0046386244 -0.07989674
0.037804443 0.0077049304 -0.091846 -0.04303484 -0.008654068 0.040292867 -0.12904184 0.13291745
-0.114362076 -0.027677063 0.05770407 -0.02088305 -0.09171894 0.18844022 -0.0032244083 -0.0042945906
-0.010610448 -0.09601242 0.111766 0.13762048 -0.09298847 0.11629897 -0.069480166 -0.13936576
0.07449331 0.0629336 -0.12549353 0.14080039 0.10714366 0.14209655 0.13456205 -0.14202075
00000000: f2ce 98bd ebb2 993d fe7a 8a3d 2229 c43d
00000010: f86f 7c3b 6e02 02be 7371 c83b 2217 353c
00000020: 48ec ef3d b15f c43c 301d 8f3d 797b 273b
00000030: 22a7 e2bd d9f8 8abd 2b3c 773d b55e 82bd
00000040: 9e91 7dbd e862 053e ddf7 e3bd edb2 02bd
00000050: ac1c cc3d f16d d93c c593 f6bd 0b92 8abd
00000060: fa30 a4bd 2da4 c1bd 3649 75bd a6d4 1c3c
00000070: 58cc cabc 59ba f9bd 5c9e 103e ce46 a0bc
00000080: 52db 4b3d 5f8f 0ebe 4a43 6fbd 9ef6 64bb
00000090: e7a9 fdbb bd9b c7bd 69b9 98bd 5ab5 983d
000000a0: 6776 263d a880 77bd bf4d fe3d 757a a0bd
000000b0: 4160 05be a083 97bd 58f5 ba3d af45 b93c
000000c0: 46b9 273e 858b a33d 07e5 623e 41ff 12bd
000000d0: 9f30 08be a22a a9bc 37e1 b73d b1d6 fd3d
000000e0: 7f41 68bd 2643 d73c f8a2 5abd 43ac 053e
000000f0: bb0a 04be 9289 2abe 14c9 7ebe ab2f 05be
00000100: 13fb 61bd 6a1e 29bd dda8 093e bf50 14be
00000110: 8ef4 ba3d 7fb3 08be 5d47 543d 9765 a8bb
00000120: 8f13 25bd 2724 30bd 26b7 6f3c 7f44 2f3e
00000130: a6c9 6c3c 9c11 623e 02a5 b1bd e597 3c3d
00000140: c751 bcbd b756 9b3d 8ce5 e0bd 83fa abbd
00000150: c40e 20bd 7d65 003d 642d f6bc 660b f1bd
00000160: ba2f 0f3e 8b8e 983d ed49 643c 5eae b8bc
00000170: eedb 13be 00de 483e 6969 813e a73d bd3e
00000180: 464e c03c 665f 733d 2958 413e c364 98bd
00000190: cc57 2c3d 5ef6 8b3c 4206 fabd 8827 1b3c
000001a0: 9b0b c4bd 70d0 973d d5f4 093e ee57 61bd
000001b0: a1ba 86bc 73b6 853c 4691 6e3e eec2 07be
000001c0: b537 0dbe 4611 243d b78c 4dbc c3f9 92bd
000001d0: 9158 333c 5b73 2a3d ed03 823d 9614 e2bd
000001e0: 9ff4 103e 7bac 0f3e 9ca9 dd3c 15bc a33c
000001f0: 75fc 8d3d 8479 1a3e f1c0 ce3d a19d c83c
00000200: b26f f5bc d646 013d 56a0 c3bd c811 ff3d
00000210: 2578 cdbc 61d5 8fbb 9bb8 adbc 6268 743d
00000220: 07d4 373d ad24 dabc 28d2 0fbe e125 9bbd
00000230: e8b4 6dbd 3c0f 9d3e a53c 803e 5423 f63d
00000240: 0b5f 363e a150 b13d 5c99 ed3d 928d ea3d
00000250: 28de fe3d 29f4 323d 2df4 0f3d e1ed f23d
00000260: b597 22bc 4860 cfbd aacb a5bc eb13 063e
00000270: 6947 1abe 28c5 56be d7f1 64be c2c2 a83d
00000280: f5e4 a4bd ec5d 033e 01ea 453c b49e 2cbd
00000290: 1e04 253d 898f f2bd e3b8 0c3e 0219 313d
000002a0: cd10 c83d 5aee f5bd bb87 b03d 25fb fb3d
000002b0: 2b0f 5e3b b788 96bc 6e80 d03d 832c 78bd
000002c0: cec9 10be ee09 023e 8c27 d5bd d99c 523d
000002d0: adb8 04be 45c4 d33d f843 1fbc d1fd c63d
000002e0: e168 dbbc 11f1 f33c 5e7e 8eba 480e 13bd
000002f0: 903f a2b9 a1eb 143e d1a2 d73d 2044 9c3e
00000300: 8e7f 383d ae25 c63c 4862 efbc 3564 0d3d
00000310: e386 63bd e101 27bd 7110 543d 3a4b fe3d
00000320: f876 88bd 8908 febd 3485 ae3d 2051 313c
00000330: e58e 4c3d 3da8 a63e 0d0f 683e 9d16 de3d
00000340: 9e56 073e 7816 acbd a103 8ebd 241e 7fbc
00000350: c3aa 003e 91ab 1bbd e98f 0cbe 0525 78bd
00000360: 1889 e53d 8d19 c33d 3f3d 133e b51b c9bc
00000370: c544 aebd d235 8c3d 9aff 97bb e7a0 a3bd
00000380: d5d8 1a3d a479 fc3b c119 bcbd 4d45 30bd
00000390: cbc9 0dbc 220a 253d 8b23 04be 831b 083e
000003a0: aa36 eabd 02bb e2bc 1a5b 6c3d ee12 abbc
000003b0: 24d7 bbbd 79f6 403e 9850 53bb a3b9 8cbb
000003c0: 72d7 2dbc 29a2 c4bd 93e5 e43d 62ec 0c3e
000003d0: bd70 bebd 282e ee3d 9e4b 8ebd e6b5 0ebe
000003e0: f38f 983d 55e3 803d 6081 00be fa2d 103e
000003f0: 236e db3d c281 113e a2ca 093e e36d 11be

cnn2.0.bias f4 [32]
-0.12634909 -0.064400464 0.0031570806 -0.048685763 0.08237733 0.0560768 -0.12156129 -0.12711124
-0.14454481 -0.12934493 0.061429176 -0.0024736463 -0.1311617 0.015788333 0.14656526 0.13709478
0.104466826 0.10745309 -0.1326968 -0.029591255 -0.007384876 -0.13590167 -0.0052402685 0.090878844
0.15616407 -0.10913333 0.030340781 0.04285513 0.102761984 -0.14308685 0.12680376 -0.09328738
00000000: a861 01be 64e4 83bd 06e7 4e3b b96a 47bd
00000010: 72b5 a83d c9b0 653d 20f5 f8bd 7329 02be
00000020: 8e03 14be ff72 04be 299d 7b3d e61c 22bb
00000030: 414f 06be 8956 813c 3415 163e 9362 0c3e
00000040: b4f2 d53d 5e10 dc3d ace1 07be 5c69 f2bc
00000050: d4fc f1bb cf29 0bbe 8fb6 abbb b01e ba3d
00000060: 79e9 1f3e 4c81 dfbd 3b8d f83c dc88 2f3d
00000070: e074 d23d 5c85 12be d8d8 013e 740d bfbd

lstm1_1.weight_ih_l0 f4 [64, 32]
0.010152429 0.15778132 -0.091852516 0.07787315 0.15207385 0.026685942 -0.053854704 0.15173581
-0.14823802 -0.049222797 0.07316682 -0.10760424 -0.18017662 -0.25727406 -0.24966693 -0.0316693
-0.23622347 0.05779887 0.1254211 -0.06868437 0.06403146 0.06706149 -0.13286813 0.15499493
-0.12877508 0.21105972 -0.013968333 0.18994518 0.083282486 0.0048579276 -0.13147198 0.09823263
-0.08310115 0.12502263 -0.17514054 -0.04918537 0.13571233 -0.16868627 -0.2440688 -0.20248467
-0.15110643 -0.13906884 0.02977842 0.033996608 0.09747669 -0.21036403 -0.18466197 0.12554446
-0.051687457 0.03219535 0.14151475 0.1779035 0.08690181 0.029398222 0.024590757 -0.050382614
-0.10885767 -0.2119129 0.17329952 -0.16403177 0.2150169 -0.15004513 -0.07460129 -0.1534993
-0.052954942 0.12510633 0.07757984 0.13081415 0.12751597 0.10655848 -0.09209314 -0.19449264
0.176865 -0.19994092 0.03996293 -0.13407733 0.13323069 -0.14250028 0.05248405 0.13403289
0.051671352 0.023658501 0.017399073 -0.16513708 0.14246243 -0.17226297 0.026489543 -0.039598435
-0.15290676 -0.13071457 0.063690625 -0.17936128 -0.23789644 -0.20606607 0.11182707 0.082679
-0.1088863 0.21294174 -0.11273153 -0.012390345 -0.041904096 0.053339723 -0.19652054 0.2441948
0.13279876 0.16618183 0.20696045 0.10678943 -0.1709719 -0.08195352 0.22899316 0.193573
0.19998024 -0.06131045 0.13894331 0.18561515 0.22369549 -0.010773437 0.24084224 0.03534758
-0.18801105 0.20221066 -0.13951023 0.24019039 -0.14529628 0.02084878 -0.021528838 -0.1377222
0.17912638 0.03734951 0.16203715 0.1730362 0.19091651 0.14371496 -0.19986132 0.09562388
-0.0036607776 -0.070397645 0.16113949 0.17841953 0.03478387 0.012018841 -0.12561631 0.006330545
0.10566681 -0.11677852 0.20832619 -0.17354977 -0.18832129 -0.18752068 -0.20361282 -0.1530061
-0.14115562 0.20807976 0.04913093 -0.11135276 0.015680192 -0.00183025 0.042740073 0.099078566
-0.08583367 0.005027518 0.103598 0.16264798 0.12931852 0.04772807 0.11457217 0.11235097
0.22594851 0.19770172 -0.09190874 -0.14873952 0.079705 0.18224417 -0.08234171 0.015527463
-0.07072607 -0.13434319 -0.051866382 0.16235778 -0.13456264 0.21824667 0.04273759 0.14429718
0.022538664 -0.17977795 0.25003698 -0.008790898 -0.054377716 -0.02760896 -0.12948635 -0.02319768
0.005894989 0.30265257 0.08201211 0.1843062 0.03650816 -0.07773647 0.113848716 0.06372422
-0.20385396 0.028354436 -0.22836135 0.1829035 -0.072625905 -0.11560772 -0.061297733 -0.12929183
0.23332371 -0.20885791 -0.14003608 0.054240644 -0.079406895 -0.20291601 0.23017587 0.004957825
0.19036506 0.112615496 -0.0046935556 -0.038074378 -0.020204118 0.0076377094 -0.07182978 0.1652467
-0.15820223 0.21350773 0.15421589 -0.12837191 0.007946745 0.18011573 -0.080480516 -0.05247441
-0.07629642 0.04499337 -0.04323907 0.05843382 0.20548522 -0.16736893 -0.2653352 -0.09548832
-0.16214323 0.19819824 -0.22498158 -0.03396067 0.19658199 -0.008782842 0.0010458445 -0.2067354
-0.25934392 0.07472354 0.10047513 0.15765171 0.18150082 0.20416334 -0.023942016 -0.123533756
00000000: 6056 263c 6d91 213e 2c1d bcbd f57b 9f3d
00000010: 3fb9 1b3e 7a9c da3c c096 5cbd a260 1b3e
00000020: b5cb 17be d89d 49bd 7cd8 953d 9d5f dcbd
00000030: 3880 38be 6db9 83be b0a8 7fbe abb7 01bd
00000040: 91e4 71be 82be 6c3d 646e 003e 64aa 8cbd
00000050: ed22 833d 8957 893d 950e 08be feb6 1e3e
00000060: 9ddd 03be 0a20 583e 6fdb 64bc fd80 423e
00000070: 0290 aa3d 402f 9f3b 97a0 06be 302e c93d
00000080: f030 aabd ef05 003e 0b58 33be 9976 49bd
00000090: 2cf8 0a3e 18bc 2cbe 2ced 79be 2458 4fbe
000000a0: a5bb 1abe 1068 0ebe e0f1 f33c 0740 0b3d
000000b0: dca1 c73d ab69 57be 0718 3dbe ba8e 003e
000000c0: 3ab6 53bd 45df 033d 3ee9 103e 562c 363e
000000d0: 93f9 b13d 8ad4 f03c 8e72 c93c 005e 4ebd
000000e0: c5f0 debd b2ff 58be 6e75 313e f2f7 27be
000000f0: 642d 5c3e 6ea5 19be 90c8 98bd ec2e 1dbe
00000100: 48e7 58bd e01b 003e 2ee2 9e3d 25f4 053e
00000110: 8c93 023e 553b da3d 549b bcbd 1429 47be
00000120: 191c 353e 50bd 4cbe 2bb0 233d 914b 09be
00000130: a06d 083e 98eb 11be 84f9 563d eb3f 093e
00000140: 57a5 533d 79cf c13c 8088 8e3c b219 29be
00000150: ace1 113e b465 30be 9900 d93c f831 22bd
00000160: 9793 1cbe 0ada 05be 3b70 823d 7caa 37be
00000170: 209b 73be fc02 53be 9705 e53d 9c53 a93d
00000180: c8ff debd 660d 5a3e cadf e6bd e000 4bbc
00000190: a1a3 2bbd c17a 5a3d ae3c 49be 340e 7a3e
000001a0: 66fc 073e 922b 2a3e 71ed 533e 6bb4 da3d
000001b0: 4213 2fbe 3fd7 a7bd 2f7d 6a3e 0038 463e
000001c0: 9fc7 4c3e ab20 7bbd 2847 0e3e e611 3e3e
000001d0: 6e10 653e 1283 30bc 599f 763e a0c8 103d
000001e0: f885 40be 5010 4f3e c5db 0ebe 78f4 753e
000001f0: 8cc8 14be 10cb aa3c 3f5d b0bc 0c07 0dbe
00000200: e86c 373e cdfb 183d 11ed 253e 6730 313e
00000210: 9e7f 433e 042a 133e 72a8 4cbe 74d6 c33d
00000220: a8e9 6fbb a42c 90bd c001 253e 9cb3 363e
00000230: 8879 0e3d acea 443c 90a1 00be 7670 cf3b
00000240: d767 d83d 9429 efbd 7653 553e 08b7 31be
00000250: 4cd7 40be 6c05 40be e17f 50be a2ad 1cbe
00000260: 198b 10be dc12 553e 843d 493d ea0c e4bd
00000270: bf73 803c 00e5 efba 3710 2f3d b4e9 ca3d
00000280: 90c9 afbd e1bd a43b 302b d43d 318d 263e
00000290: 136c 043e 827e 433d d0a4 ea3d 4418 e63d
000002a0: 0c5f 673e 5272 4a3e a63a bcbd 2c4f 18be
000002b0: 603c a33d 379e 3a3e c5a2 a8bd e666 7e3c
000002c0: d4d8 90bd 4391 09be d871 54bd 1e41 263e
000002d0: caca 09be 0e7c 5f3e 9c0d 2f3d a4c2 133e
000002e0: 01a3 b83c b617 38be d904 803e b307 10bc
000002f0: 2bbb 5ebd 302c e2bc 1298 04be 1009 bebc
00000300: c02a c13b 47f5 9a3e f7f5 a73d c4ba 3c3e
00000310: 9589 153d 4c34 9fbd 8429 e93d d881 823d
00000320: 18bf 50be 9047 e83c 8fd7 69be 0e4b 3b3e
00000330: e4bc 94bd bec3 ecbd 5513 7bbd 1465 04be
00000340: 69ec 6e3e d9de 55be 9e65 0fbe 702b 5e3d
00000350: 15a0 a2bd 37c9 4fbe 39b3 6b3e 4075 a23b
00000360: 0fef 423e f4a2 e63d 66cc 99bb e1f3 1bbd
00000370: 1b83 a5bc c045 fa3b 7e1b 93bd 6e36 293e
00000380: c4ff 21be c5a1 5a3e c5ea 1d3e ed73 03be
00000390: 1033 023c 4270 383e f8d2 a4bd 68ef 56bd
000003a0: 4c41 9cbd f84a 383d 731b 31bd 4d58 6f3d
000003b0: b86a 523e c362 2bbe 04da 87be 618f c3bd
000003c0: e008 26be 7bf4 4a3e 9261 66be 581a 0bbd
000003d0: ca4c 493e e9e5 0fbc b814 893a 72b2 53be
000003e0: bac8 84be a808 993d e8c5 cd3d 736f 213e
000003f0: 5adb 393e 3210 513e 0c22 c4bc 44ff fcbd

lstm1_1.weight_hh_l0 f4 [64, 16]
0.23505594 0.1494424 -0.1408361 0.2104764 0.0650404 0.016914336 0.036409315 0.120180294
-0.11185255 0.06911852 -0.16230501 -0.1368865 -0.14147128 -0.2578621 -0.15185836 0.04790218
-0.20975885 -0.091310106 0.07394464 0.22272643 -0.19216123 -0.17043479 -0.007759642 -0.22221658
-0.13569783 -0.20885968 0.10136434 0.17281187 0.164441 -0.2524102 0.22326888 -0.11579572
-0.19460896 -0.010326297 0.07605083 -0.20473497 0.10587316 -0.05543817 -0.1669624 0.16075987
-0.19305186 0.23287386 -0.15685774 0.15971074 -0.20812897 -0.1624958 0.15824582 -0.07475158
0.051620577 -0.2024148 -0.09178528 -0.1484088 -0.17295761 -0.054507133 0.2903896 -0.03453018
-0.2493202 0.028787788 -0.22433306 -0.23577166 -0.16826434 -0.06772187 0.05004171 -0.20258228
-0.037611093 0.00012254024 0.036933523 0.07522985 -0.08012743 0.11374045 -0.19100408 0.1439168
0.04424656 0.21388786 -0.20611615 -0.07849743 0.2452864 0.03731859 -0.0241867 0.12590489
0.23020782 -0.1750067 0.23552433 -0.0912611 0.009211248 0.22441179 0.19077797 0.19111386
0.13224828 0.24923219 -0.11149599 0.023908978 -0.06388461 -0.03462653 -0.020635722 0.10947113
0.20895934 -0.19987753 0.0064597637 0.29316524 -0.2684168 0.07866344 -0.04521838 -0.12562951
0.20360549 -0.0981565 0.056991592 -0.0535133 0.15882808 0.117323466 0.19836302 -0.020664643
-0.055050083 0.19811946 -0.008224987 0.18664545 -0.17092815 0.01772586 0.15126386 -0.13279188
0.17371953 0.027914656 0.12100753 -0.19420634 -0.23439547 0.11319505 0.1518105 -0.09601377
0.09693027 -0.17016979 0.0772621 -0.13693638 0.084162414 -0.0012577767 0.12840465 -0.047528397
-0.10015166 -0.21039107 0.16204597 0.06383511 0.009747242 0.14959523 -0.18151362 0.13406125
0.14769574 -0.1133775 -0.05265912 0.18556832 0.095126614 -0.21364926 -0.1404094 -0.21715932
-0.14308707 -0.12243181 -0.10612332 0.0015539568 -0.16396141 0.08972892 -0.24390802 0.023949677
0.045547254 0.24463184 0.230613 -0.10998429 0.009901142 0.143539 0.20853344 -0.1551435
0.05609052 0.092999905 -0.0057734065 0.12752268 -0.2364337 0.14227495 -0.08022812 0.16306943
-0.04023132 -0.011817504 -0.2892907 -0.06615158 0.12293709 0.0675766 0.03428647 0.011203747
0.049726773 -0.124618985 0.22976813 -0.10931057 -0.05606424 0.29579428 0.11507182 0.27947935
-0.07255673 -0.3208345 -0.030213112 0.32139486 -0.25626984 0.23247883 0.09298942 0.031848058
-0.0042498433 -0.07786137 0.3035836 0.016094463 0.16998951 0.15235412 -0.28568977 0.17152908
-0.31212178 -0.12084364 -0.04218429 0.101167046 0.19165447 0.024816766 -0.032676436 0.06123157
0.24468867 -0.054089606 -0.10266537 -0.030533805 -0.1166119 -0.078395694 -0.16173896 -0.11732943
0.020731881 -0.07678245 0.04730002 -0.03579798 -0.107754014 0.048525278 -0.10681922 0.15168144
0.20547907 -0.20648888 -0.23734209 -0.3040761 -0.21148793 -0.20048852 -0.06436559 -0.047287837
-0.06532696 -0.19778986 0.07244668 -0.065048374 0.08440187 0.16324505 0.022072483 0.07364788
-0.1942139 0.051518172 -0.08139026 0.19795904 -0.16978545 0.053149045 0.17929465 -0.20396005
00000000: 81b2 703e 6e07 193e 5737 10be 2087 573e
00000010: e733 853d ef8f 8a3c ef21 153d 1621 f63d
00000020: f312 e5bd 038e 8d3d 4933 26be fa2b 0cbe
00000030: d9dd 10be 8006 84be c280 1bbe 1435 443d
00000040: 06cb 56be cb00 bbbd 4a70 973d 6612 643e
00000050: eac5 44be 7586 2ebe 9844 febb be8c 63be
00000060: 5ff4 0abe 50df 55be 1b98 cf3d 98f5 303e
00000070: 3963 283e e93b 81be 99a0 643e 4e26 edbd
00000080: 9247 47be a12f 29bc 8ac0 9b3d 0ba6 51be
00000090: 07d4 d83d 2213 63bd 31f8 2abe 3c9e 243e
000000a0: 63af 45be 7c76 6e3e 519f 20be 368b 233e
000000b0: c31f 55be 4d65 26be 310b 223e 5b17 99bd
000000c0: 1970 533d d345 4fbe ecf9 bbbd 7af8 17be
000000d0: cd1b 31be df42 5fbd f2ad 943e 856f 0dbd
000000e0: cb4d 7fbe 5ed4 eb3c 91b7 65be 206e 71be
000000f0: 7d4d 2cbe c4b1 8abd 89f8 4c3d bb71 4fbe
00000100: 170e 1abd 257e 0039 9b47 173d 1c12 9a3d
00000110: da19 a4bd c1f0 e83d 9396 43be ed5e 133e
00000120: e23b 353d 6b05 5b3e 1d10 53be 43c3 a0bd
00000130: 5c2c 7b3e 61db 183d 3023 c6bc 36ed 003e
00000140: 99bb 6b3e f534 33be 4a2d 713e 19e7 babd
00000150: c6ea 163c 34cc 653e 4d5b 433e 5ab3 433e
00000160: 186c 073e b936 7f3e 0258 e4bd c3dc c33c
00000170: efd5 82bd 8cd4 0dbd 3f0c a9bc 6632 e03d
00000180: 70f9 553e b2ac 4cbe 6dac d33b c119 963e
00000190: ed6d 89be 4c1a a13d e836 39bd 06a5 00be
000001a0: f57d 503e 4606 c9bd 0470 693d c330 5bbd
000001b0: d4a3 223e 4947 f03d ad1f 4b3e e648 a9bc
000001c0: 327c 61bd d4df 4a3e 19c2 06bc fc1f 3f3e
000001d0: ca07 2fbe d335 913c eae4 1a3e 98fa 07be
000001e0: 88e3 313e 47ad e43c ccd2 f73d 07de 46be
000001f0: 5e05 70be ced2 e73d 3674 1b3e dea2 c4bd
00000200: 6183 c63d fd40 2ebe 983b 9e3d 0d39 0cbe
00000210: 585d ac3d fcdb a4ba 827c 033e 23ad 42bd
00000220: 501c cdbd c270 57be 61ef 253e fbbb 823d
00000230: e5b2 1f3c 7e2f 193e b5de 39be 5a47 093e
00000240: 8d3d 173e 7632 e8bd 17b1 57bd 9f05 3e3e
00000250: bed1 c23d dfc6 5abe 7bc7 0fbe 035f 5ebe
00000260: 6b85 12be 87bd fabd 2f57 d9bd 23ae cb3a
00000270: 80e5 27be ccc3 b73d 06c3 79be 1d32 c43c
00000280: c28f 3a3d c580 7a3e d025 6c3e 723f e1bd
00000290: 6638 223c e3fb 123e ca89 553e f0dd 1ebe
000002a0: 2cbf 653d bc76 be3d d82e bdbb 4e95 023e
000002b0: ad1b 72be 86b0 113e a44e a4bd acfb 263e
000002c0: 99c9 24bd 349e 41bc e91d 94be 7b7a 87bd
000002d0: 71c6 fb3d 9a65 8a3d f86f 0c3d ec8f 373c
000002e0: 4dae 4b3d 3d38 ffbd 5648 6b3e 38de dfbd
000002f0: 9ea3 65bd 5972 973e c6aa eb3d eb17 8f3e
00000300: 9f98 94bd 6b44 a4be 7d81 f7bc de8d a43e
00000310: cd35 83be ee0e 6e3e 3d71 be3d 1c73 023d
00000320: 4542 8bbb c875 9fbd 4f6f 9b3e 89d8 833c
00000330: bb11 2e3e b802 1c3e ee45 92be 52a5 2f3e
00000340: 6dce 9fbe df7c f7bd 6fc9 2cbd ab30 cf3d
00000350: 1241 443e 884c cb3c bad7 05bd f4cd 7a3d
00000360: ab8f 7a3e 108d 5dbd 3942 d2bd 0822 fabc
00000370: 38d2 eebd ec8d a0bd e69e 25be 6a4a f0bd
00000380: e8d5 a93c 1e40 9dbd aabd 413d e7a0 12bd
00000390: 23ae dcbd 71c2 463d 09c4 dabd 6152 1b3e
000003a0: 1b69 523e d271 53be ce09 73be ddaf 9bbe
000003b0: 4b90 58be dd4c 4dbe 1bd2 83bd e4b0 41bd
000003c0: 24ca 85bd 6d89 4abe ed5e 943d 1538 85bd
000003d0: e3da ac3d b629 273e 5ad1 b43c b3d4 963d
000003e0: 02e0 46be b804 533d f0af a6bd c6b5 4a3e
000003f0: 3ddc 2dbe d0b2 593d 0499 373e e7da 50be

lstm1_1.bias_ih_l0 f4 [64]
-0.034082122 -0.11105167 -0.066941924 -0.023585528 0.20029724 -0.07154963 0.021233771 0.12600254
-0.015705124 0.21935256 -0.16674712 0.27661148 0.11823587 0.14198665 0.032609053 -0.22124389
0.1132987 -0.05106982 0.12851672 0.037359174 0.19726743 -0.007604832 0.107521355 -0.0013433448
0.11249892 -0.014916355 0.0757315 -0.02708808 0.13809988 0.054689772 0.14126998 -0.053742558
-0.06039156 -0.22064722 -0.22507913 -0.02811116 -0.023549173 0.08381936 -0.0009168495 -0.1538693
0.038219087 -0.23009506 -0.20447694 0.16319096 0.2490389 -0.07207962 -0.038515054 -0.19907583
0.17663096 0.11689275 -0.059666637 0.099968836 -0.050848696 0.17073528 0.123615496 -0.14162998
0.13001832 -0.19043007 0.1879728 -0.22428907 0.25475076 0.20322263 0.2060728 0.14820185
00000000: b299 0bbd 0f6f e3bd d918 89bd 7036 c1bc
00000010: b81a 4d3e 9d88 92bd 72f2 ad3c cf06 013e
00000020: 08a8 80bc f59d 603e c2bf 2abe 05a0 8d3e
00000030: a625 f23d f364 113e 1291 053d c28d 62be
00000040: 2609 e83d 962e 51bd e399 033e ef05 193d
00000050: 7900 4a3e f431 f9bb 2834 dc3d 2c13 b0ba
00000060: d565 e63d ba63 74bc 1e19 9b3d d2e7 ddbc
00000070: 0e6a 0d3e 6202 603d 14a9 103e 2821 5cbd
00000080: 245d 77bd 58f1 61be 257b 66be 6049 e6bc
00000090: 32ea c0bc 7ca9 ab3d ba58 70ba ea8f 1dbe
000000a0: 9e8b 1c3d 0a9e 6bbe 6762 51be 881b 273e
000000b0: 0e04 7f3e 7b9e 93bd f6c1 1dbd 89da 4bbe
000000c0: bfde 343e 7765 ef3d 0165 74bd 76bc cc3d
000000d0: b946 50bd 3bd5 2e3e 1f2a fd3d 7307 11be
000000e0: 8623 053e 1a00 43be f17b 403e 09ac 65be
000000f0: b16e 823e 9819 503e c004 533e 3ac2 173e

lstm1_1.bias_hh_l0 f4 [64]
0.20449048 -0.022911713 -0.19870487 -0.13308664 -0.1544486 0.1428125 0.15392163 0.038489576
0.11434547 0.25488237 -0.23580411 0.17121607 -0.037002474 -0.17002638 -0.095581815 -0.078249596
-0.19300096 0.24542987 0.02315831 -0.029546576 -0.18209235 0.16584478 -0.031079018 0.047184203
-0.03130874 0.018204825 0.020175474 0.032779977 0.2707718 0.18450888 -0.20260954 0.0023231294
-0.090579204 -0.119179115 -0.12931539 0.051102776 -0.17737514 -0.103523105 -0.08208836 -0.021544328
0.12858777 -0.1248752 0.21357636 -0.21184704 -0.027983624 0.02229641 -0.1714674 0.20727561
-0.1572163 -0.23437606 0.037536975 0.16555765 -0.15752874 0.14650233 -0.16277714 0.044421457
0.01701764 -0.065166086 0.20002382 -0.11635281 -0.18809706 -0.14669064 -0.015962925 0.019621452
00000000: f465 513e 58b1 bbbc 4a79 4bbe dd47 08be
00000010: c627 1ebe 713d 123e a29d 1d3e 3fa7 1d3d
00000020: f52d ea3d f17f 823e a276 71be 4453 2f3e
00000030: e88f 17bd 651b 2ebe 66c0 c3bd 5341 a0bd
00000040: 0ba2 45be f851 7b3e 7fb6 bd3c a90b f2bc
00000050: 6b76 3abe 37d3 293e 6d99 febc 3944 413d
00000060: 983d 00bd 4922 953c 0947 a53c 4c44 063d
00000070: 9aa2 8a3e e5ef 3c3e e078 4fbe a53f 183b
00000080: 9781 b9bd 2e14 f4bd 416b 04be 2551 513d
00000090: d4a1 35be ec03 d4bd f11d a8bd bb7d b0bc
000000a0: 83ac 033e 92be ffbd c3b3 5a3e 6eee 58be
000000b0: ea3d e5bc f6a6 b63c 2695 2fbe 0f40 543e
000000c0: 4ffd 20be 4700 70be 5fc0 193d f287 293e
000000d0: 374f 21be b504 163e 0daf 26be 46f3 353d
000000e0: 9468 8b3c cc75 85bd 0bd3 4c3e 624a eebd
000000f0: 849c 40be 1236 16be aec4 82bc 2bbd a03c

lstm1_1.weight_ih_l0_reverse f4 [64, 32]
0.06501448 0.40078148 -0.0040850695 -0.08441965 0.0030677079 -0.14071262 0.10162553 -0.22462466
-0.12483385 -0.0851278 0.16161604 -0.11834007 0.11122635 0.08609003 0.059578653 0.012947964
-0.07941873 0.2572039 -0.06590712 0.23229602 0.34407726 -0.11130798 -0.066523224 -0.07483339
-0.033151478 0.08433509 0.44319195 0.18984646 -0.02669178 0.20436302 0.048001375 -0.086413115
-0.12874442 0.07909021 0.22559127 -0.03621834 0.22792879 -0.07329266 0.12206 -0.15750471
0.10886308 -0.02682662 0.029291838 0.15766281 -0.20602301 0.08212087 -0.11664411 -0.04716938
0.11960147 0.17969325 -0.0046337247 0.020417303 0.02119885 -0.051504977 0.20760137 0.01688391
-0.19369914 -0.24440911 0.033036504 0.1988234 0.13153777 0.081104666 -0.09196273 -0.24404505
-0.06531215 0.07405866 0.099228285 0.1224172 -0.074114785 0.27463734 0.01671648 0.15579414
0.086796336 0.0548577 -0.23926339 0.2485433 -0.15470421 0.26791266 0.1729693 -0.15716413
-0.15400559 0.06633367 0.09490639 -0.11623508 -0.02858513 0.104033224 0.046729594 0.20239466
0.27997196 0.22991213 0.07004357 -0.06079421 0.17835681 -0.036546856 0.088982396 -0.04106304
-0.11113703 -0.11797261 0.14599586 -0.18662235 0.168782 0.13690723 -0.120471984 0.2283335
0.18707645 0.12533963 -0.19817822 -0.14004461 -0.047891587 -0.21644281 -0.086648464 0.009527868
0.009503659 0.23651983 0.16276097 -0.14306128 0.34293365 -0.089141935 0.07308563 0.1309678
0.2512542 0.044427782 -0.07159267 0.16190119 0.19663449 -0.1512495 0.20975582 0.20577884
0.084919214 0.1949071 -0.06272589 -0.2207337 0.08259107 0.23211603 0.0031988025 -0.19510901
0.12800506 0.1890147 -0.2324979 0.14891429 -0.0023975968 -0.115243405 0.09925762 0.20152678
-0.019238094 -0.23442203 -0.19509897 0.24908656 0.26723793 0.111660086 -0.013930103 0.17007726
0.066615365 -0.030605793 0.0756074 0.15349984 -0.23735955 -0.030363053 -0.11920383 0.21615005
-0.21722412 -0.040899854 -0.15734057 -0.079035304 0.17280371 -0.013222581 0.15812525 -0.086170435
0.23400219 -0.019052297 -0.035351675 0.055668946 0.07794717 0.16233835 0.16687058 0.0841081
-0.009223869 0.124190286 -0.23361567 -0.13037157 0.16462079 0.082562044 -0.15241824 0.20595351
0.15235962 0.20546749 0.09477678 0.052418496 0.24367057 0.10352573 -0.08087585 0.16181532
-0.10273498 0.06485844 0.28123972 -0.010851166 0.23501289 0.050517984 -0.16929552 0.22206384
0.1379512 0.16925663 -0.07124507 -0.055681456 0.07683712 -0.18305163 0.011152312 0.0044720285
0.030767504 -0.144891 0.22982535 0.12251964 0.24448073 0.22165999 0.16152121 0.17331615
0.0014625628 0.10214552 0.08563263 0.07820799 -0.09463982 0.038788944 -0.04315303 0.22493052
-0.19901904 0.1446382 -0.20999399 0.24715751 -0.08312332 0.19937861 0.116722494 -0.15698504
-0.079987906 -0.15557715 0.11280952 -0.18982762 0.14127442 0.18354551 -0.12036222 -0.22079913
-0.23118274 -0.12529676 -0.07176274 0.010001391 0.17358494 0.18511765 0.22158636 -0.17234614
0.12848958 0.013260871 -0.11476986 -0.15107632 -0.24120861 0.053167045 -0.05036913 -0.1962288
00000000: 5026 853d 3b33 cd3e 0cdc 85bb 36e4 acbd
00000010: 990b 493b f816 10be 0c21 d03d 0204 66be
00000020: e4a8 ffbd 7c57 aebd ad7e 253e 475c f2bd
00000030: a4ca e33d f84f b03d bf08 743d b223 543c
00000040: 4aa6 a2bd 3bb0 833e 50fa 86bd 02df 6d3e
00000050: e52a b03e 70f5 e3bd 543d 88bd 4042 99bd
00000060: d8c9 07bd e0b7 ac3d 0eea e23e 1c67 423e
00000070: b8a8 dabc 8a44 513e 179d 443d 5cf9 b0bd
00000080: 94d5 03be 0cfa a13d 6601 673e af59 14bd
00000090: 2a66 693e 761a 96bd 98fa f93d ea48 21be
000000a0: 9bf3 de3d 80c3 dbbc 70f5 ef3c 5c72 213e
000000b0: b2f7 52be fd2e a83d 1be3 eebd ae34 41bd
000000c0: 9ef1 f43d 8201 383e 80d6 97bb 3042 a73c
000000d0: 36a9 ad3c e2f6 52bd 7495 543e 2050 8a3c
000000e0: 1159 46be 6246 7abe 4951 073d 5d98 4b3e
000000f0: d6b1 063e 341a a63d f556 bcbd f2e6 79be
00000100: 60c2 85bd 11ac 973d 3338 cb3d deb5 fa3d
00000110: 7ec9 97bd 449d 8c3e 00f1 883c 8088 1f3e
00000120: 47c2 b13d 78b2 603d 7601 75be 2382 7e3e
00000130: c86a 1ebe d92b 893e dd1e 313e a2ef 20be
00000140: a4b3 1dbe f2d9 873d 485e c23d a80c eebd
00000150: 5d2b eabc 5f0f d53d 8867 3f3d 8c40 4f3e
00000160: 7c58 8f3e 166e 6b3e 0173 8f3d 5903 79bd
00000170: 2ba3 363e 28b2 15bd 673c b63d b831 28bd
00000180: d09b e3bd a09b f1bd f07f 153e ee19 3fbe
00000190: 30d5 2c3e 6931 0c3e 04ba f6bd 42d0 693e
000001a0: f890 3f3e 0859 003e 3bef 4abe db67 0fbe
000001b0: f829 44bd 2fa3 5dbe c074 b1bd c61a 1c3c
000001c0: 3cb5 1b3c 4132 723e d0aa 263e a87e 12be
000001d0: 0095 af3e 0c90 b6bd ebad 953d 6c1c 063e
000001e0: 64a4 803e e8f9 353d 2e9f 92bd 6dc9 253e
000001f0: 8d5a 493e 26e1 1abe 3bca 563e b0b7 523e
00000200: 20ea ad3d ba95 473e 6e76 80bd 0408 62be
00000210: 8225 a93d d3af 6d3e 00a3 513b a8ca 47be
00000220: c213 033e 128d 413e ee13 6ebe fd7c 183e
00000230: 0021 1dbb bc04 ecbd 9447 cb3d 095d 4e3e
00000240: 3599 9dbc 540c 70be 06c8 47be 8c10 7f3e
00000250: 69d3 883e 0bae e43d 163b 64bc bc28 2e3e
00000260: a36d 883d 00b9 fabc 0dd8 9a3d 102f 1d3e
00000270: 620e 73be f0bb f8bc 2321 f4bd 7056 5d3e
00000280: 0070 5ebe 9b86 27bd e31d 21be 43dd a1bd
00000290: 75f3 303e 86a3 58bc 96eb 213e 207a b0bd
000002a0: 459e 6f3e 9013 9cbc ebcc 10bd 1f05 643d
000002b0: c4a2 9f3d 063c 263e 1fe0 2a3e de40 ac3d
000002c0: b61f 17bc 7a57 fe3d f238 6fbe 2080 05be
000002d0: 5a92 283e 4a16 a93d 8713 1cbe 7ae5 523e
000002e0: 2904 1c3e 1266 523e 541a c23d c7b4 563d
000002f0: c784 793e 4c05 d43d 3da2 a5bd eab2 253e
00000300: b866 d2bd 80d4 843d a7fe 8f3e 17c9 31bc
00000310: 38a7 703e f2eb 4e3d ce5b 2dbe b464 633e
00000320: 1443 0d3e 9c51 2d3e efe8 91bd 3d12 64bd
00000330: c85c 9d3d e371 3bbe 30b8 363c 188a 923b
00000340: 220c fc3c 4e5e 14be 5657 6b3e 94eb fa3d
00000350: 2859 7a3e d6fa 623e d165 253e ca79 313e
00000360: 77b3 bf3a ac31 d13d 2960 af3d 832b a03d
00000370: 86d2 c1bd 28e1 1e3d 3bc1 30bd 3054 663e
00000380: a6cb 4bbe 091c 143e aa08 57be dc16 7d3e
00000390: 8f3c aabd e829 4c3e 340c ef3d b0c0 20be
000003a0: b3d0 a3bd 9e4f 1fbe ad08 e73d 2c62 42be
000003b0: 3eaa 103e 5bf3 3b3e 7880 f6bd 2b19 62be
000003c0: 2bbb 6cbe cb4d 00be 58f8 92bd e0dc 233c
000003d0: 40c0 313e 7b8f 3d3e 89e7 623e 827b 30be
000003e0: c692 033e 2044 593c 760c ebbd c0b3 1abe
000003f0: 64ff 76be b0c5 593d dc4f 4ebd 34f0 48be

lstm1_1.weight_hh_l0_reverse f4 [64, 16]
-0.10372208 0.24000996 0.08560901 -0.08954386 0.23633046 0.27110165 0.009814262 -0.21736671
-0.16817759 -0.00087452447 0.15276265 -0.090772055 -0.26919255 0.034682114 -0.27242538 -0.062719785
-0.05575216 0.13117419 -0.008664658 0.24765263 -0.08911795 0.028219994 0.2205919 -0.22520655
-0.22859907 -0.24813457 -0.031137066 0.028295511 -0.23945822 0.20761837 -0.23168105 -0.0985487
0.12119987 0.08049707 0.22092804 -0.19696695 -0.1849343 0.05762596 -0.14160071 0.098678276
0.14888066 0.13542345 0.1681958 0.22202499 0.037114337 0.13016793 0.10117799 -0.03345392
-0.3517603 0.21352784 0.07035578 -0.22488406 -0.120649785 -0.19766538 -0.26313195 -0.060034454
0.21996579 0.13462886 -0.16954505 0.20392995 -0.17849316 0.04417271 -0.118247025 0.22797392
0.06655375 -0.119872 -0.30280817 0.0059683654 -0.064217634 -0.23040356 0.18119127 -0.17973457
-0.0038282068 -0.029213544 0.2138108 -0.15026405 0.14867492 0.18707976 0.077859856 -0.049015213
-0.15562062 0.0309464 -0.15904602 0.16089892 -0.18182772 -0.17379315 0.16880967 0.13128144
-0.005614015 -0.0047571217 -0.13944216 0.061251704 0.0894389 -0.14435506 0.030134182 -0.12440669
0.14237012 0.22336094 -0.22490741 0.0788806 0.17084923 -0.113966 -0.009795188 -0.20687737
0.22486956 -0.16047625 0.23526706 -0.10592971 0.27097347 0.08460774 -0.017073177 0.14383052
0.06402533 0.07442775 -0.0039925235 -0.124264486 0.009862251 -0.15073372 -0.17559466 0.2474971
-0.23767318 0.19670992 -0.10258699 0.05772736 -0.17349012 -0.21969566 -0.14683373 0.21778345
0.19393185 0.090853296 -0.18975449 -0.075662866 0.2364216 -0.16065507 0.20043354 -0.083882615
-0.19014482 -0.05435837 -0.09899582 -0.15030773 0.13313456 0.04982308 -0.047146626 0.08906238
0.12899049 -0.12683429 0.09611244 -0.06491724 0.22602868 -0.07129341 -0.08423873 -0.058424376
0.13519944 -0.045683544 0.22112101 -0.030298585 -0.13287579 -0.008376691 0.0056797927 -0.08864962
-0.112908274 0.1515572 -0.05935593 0.06759086 -0.051484045 -0.08915227 -0.21108586 -0.23940954
0.12090651 -0.09107054 0.15622592 -0.2689589 -0.08211365 -0.16803241 0.14650053 -0.12615009
-0.19397685 -0.095762804 -0.04181159 -0.019607047 0.109433725 0.13567534 -0.12822665 -0.052117515
0.1652912 0.21394256 -0.18136308 -0.082817934 0.026522519 0.2072473 0.14384277 0.080693305
-0.05806589 -0.23545662 0.010004419 -0.016840875 0.008086038 0.19437982 0.09359988 0.19142278
-0.16145626 -0.013886167 -0.045863565 -0.09497484 0.03130537 0.17119063 -0.04381102 -0.05516913
-0.21412587 -0.1691763 0.20044363 -0.1615441 -0.07318678 0.0762491 0.010961358 0.24253093
-0.0005948289 0.13069035 -0.16498452 0.15881874 -0.12808919 -0.17489663 0.18085112 0.16439417
-0.2570748 -0.32439858 -0.07392622 -0.18831053 0.094366506 -0.040571894 -0.15944716 0.022143027
-0.0059678224 -0.00022056687 -0.22809385 0.10208541 -0.047979746 0.03219932 0.07423342 0.052835055
-0.06398421 0.15215391 -0.03456719 0.14158954 0.05553748 0.010901952 0.14601083 0.049806796
0.039375953 0.05787952 -0.048254877 0.14219564 -0.24293476 -0.099319614 -0.04629304 0.16531052
00000000: 3e6c d4bd 2cc5 753e c753 af3d c562 b7bd
00000010: 9d00 723e d6cd 8a3e 00cc 203c 6195 5ebe
00000020: bf36 2cbe 5840 65ba d06d 1c3e b3e6 b9bd
00000030: 9bd3 89be d50e 0e3d 577b 8bbe 3b73 80bd
00000040: 605c 64bd 8752 063e 36f6 0dbc a798 7d3e
00000050: 7983 b6bd 9e2d e73c d8e2 613e 8c9c 66be
00000060: e015 6abe fd16 7ebe 2913 ffbc fdcb e73c
00000070: 8934 75be e999 543e cc3d 6dbe e7d3 c9bd
00000080: a337 f83d a6db a43d f63a 623e b4b1 49be
00000090: 6b5f 3dbe 3309 6c3d c7ff 10be d617 ca3d
000000a0: 2c74 183e 72ac 0a3e 853b 2c3e 855a 633e
000000b0: 3405 183d be4a 053e 6836 cf3d fa06 09bd
000000c0: ed19 b4be 0ba7 5a3e b116 903d 0248 66be
000000d0: 3c17 f7bd cb68 4abe 3bb9 86be b0e6 75bd
000000e0: b63e 613e 26dc 093e 389d 2dbe 03d3 503e
000000f0: e9c6 36be 72ee 343d 7f2b f2bd ff71 693e
00000100: 554d 883d 737f f5bd ac09 9bbe 4792 c33b
00000110: 8984 83bd e9ee 6bbe 348a 393e 570c 38be
00000120: a7e2 7abb 3e51 efbc 38f1 5a3e d2de 19be
00000130: 3d3e 183e d691 3f3e fd74 9f3d 2dc4 48bd
00000140: 035b 1fbe 4e83 fd3c f6dc 22be b0c2 243e
00000150: 0c31 3abe d5f6 31be 71dc 2c3e a46e 063e
00000160: c5f5 b7bb a1e1 9bbb edc9 0ebe 11e3 7a3d
00000170: be2b b73d d0d1 13be f6db f63c efc8 febd
00000180: 79c9 113e bbb8 643e 214e 66be 278c a13d
00000190: 1af3 2e3e 0267 e9bd ff7b 20bc a9d7 53be
000001a0: 3544 663e e353 24be d9e9 703e adf1 d8bd
000001b0: 09bd 8a3e d346 ad3d 0cdd 8bbc 4f48 133e
000001c0: b61f 833d 946d 983d b7d3 82bb 617e febd
000001d0: 4795 213c f159 1abe 16cf 33be e16f 7d3e
000001e0: 9960 73be 536e 493e 2119 d2bd 8673 6c3d
000001f0: 65a7 31be e6f7 60be 955b 16be a002 5f3e
00000200: 1296 463e 4b11 ba3d 004f 42be 22f5 9abd
00000210: 8118 723e c382 24be 733e 4d3e a6ca abbd
00000220: 53b5 42be e2a6 5ebd 52be cabd 45ea 19be
00000230: 6d54 083e 4913 4c3d d21c 41bd 5666 b63d
00000240: 1516 043e d9e0 01be 99d6 c43d 54f3 84bd
00000250: 1074 673e 4802 92bd 5b85 acbd 664e 6fbd
00000260: b971 0a3e ab1e 3bbd 8c6d 623e bd34 f8bc
00000270: 9710 08be 633e 09bc 8e1d ba3b ef8d b5bd
00000280: 743c e7bd d031 1b3e 341f 73bd 146d 8a3d
00000290: efe0 52bd 7795 b6bd e426 58be c627 75be
000002a0: d59d f73d 3183 babd b0f9 1f3e fbb4 89be
000002b0: 342b a8bd b010 2cbe 3c04 163e 7d2d 01be
000002c0: dea1 46be 4a1f c4bd a142 2bbd f59e a0bc
000002d0: ca1e e03d 7aee 0a3e d94d 03be 2d79 55bd
000002e0: 1942 293e c213 5b3e 3eb7 39be 739c a9bd
000002f0: c145 d93c a338 543e 854b 133e 8842 a53d
00000300: 80d6 6dbd 8a1b 71be 93e9 233c e0f5 89bc
00000310: 4d7b 043c 810b 473e 4bb1 bf3d 5504 443e
00000320: ca54 25be ce82 63bc 6fdb 3bbd 2b82 c2bd
00000330: 0f3a 003d 994c 2f3e 2f73 33bd 07f9 61bd
00000340: d043 5bbe 8d3c 2dbe 1841 4d3e d16b 25be
00000350: f3e2 95bd 7d28 9c3d 4597 333c 075a 783e
00000360: 4bee 1bba b1d3 053e b4f1 28be 61a1 223e
00000370: d029 03be 1a18 33be 0931 393e f256 283e
00000380: 4f9f 83be 9217 a6be a166 97bd 7ad4 40be
00000390: 3a43 c13d b72e 26bd 1e46 23be 4b65 b53c
000003a0: b98d c3bb f847 67b9 6f91 69be 2812 d13d
000003b0: 6986 44bd 6fe3 033d b107 983d 9269 583d
000003c0: 270a 83bd 3cce 1b3e 5396 0dbd d9fc 103e
000003d0: 457b 633d 1a9e 323c dd83 153e 3602 4c3d
000003e0: ae48 213d 1313 6d3d e8a6 45bd bc9b 113e
000003f0: e4c3 78be 1568 cbbd c59d 3dbd 2947 293e

lstm1_1.bias_ih_l0_reverse f4 [64]
0.16386846 0.17763771 0.057529446 -0.19092621 -0.12508526 0.21969962 0.085919596 0.13399242
0.18325882 0.006969295 0.22206931 0.0701956 0.066868305 -0.09801102 0.16440187 0.10165601
-0.044483416 0.23002502 -0.16860127 0.018663969 0.069231205 -0.21465826 0.18380079 -0.16581653
-0.20859659 0.17445943 -0.0017790197 -0.012238544 0.08606203 -0.013056167 -0.14296961 0.25841632
-0.0015800725 -0.14603151 -0.08885956 -0.19778368 -0.14805007 0.19742118 0.1488849 -0.07627878
0.012140092 0.04573347 -0.020298615 -0.0810158 -0.08137463 -0.1010286 -0.056022193 -0.02441625
0.1276227 0.088994734 -0.07865041 0.08857005 0.18630311 0.024926024 -0.21276547 0.025922645
0.08717753 0.008279462 0.15210028 -0.22245881 0.02800112 -0.088634506 0.20563003 0.027630126
00000000: 22cd 273e a9e6 353e ffa3 6b3d 2982 43be
00000010: 5a16 00be f0f8 603e 9df6 af3d 4f35 093e
00000020: 33a8 3b3e af5e e43b 2366 633e b6c2 8f3d
00000030: 40f2 883d 00ba c8bd f758 283e 0731 d03d
00000040: 3e34 36bd ae8b 6b3e d0a5 2cbe 2ee5 983c
00000050: 17c9 8d3d 60cf 5bbe 4636 3c3e cfcb 29be
00000060: 589a 55be 7ea5 323e ff2d e9ba 2d84 48bc
00000070: 4a41 b03d 89e9 55bc a066 12be 254f 843e
00000080: 6f1a cfba 4989 15be 00fc b5bd ce87 4abe
00000090: 709a 17be c728 4a3e 4975 183e 0d38 9cbd
000000a0: 3de7 463c 0553 3b3d 4849 a6bc 9deb a5bd
000000b0: bea7 a6bd 15e8 cebd 8777 65bd 9604 c8bc
000000c0: 86af 023e df42 b63d 7713 a1bd 3764 b53d
000000d0: 3ec6 3e3e a931 cc3c 31df 59be ba5b d43c
000000e0: 228a b23d 95a6 073c 2dc0 1b3e 3ecc 63be
000000f0: 9b62 e53c 0286 b5bd ae90 523e 9358 e23c

lstm1_1.bias_hh_l0_reverse f4 [64]
0.26283664 0.21851985 0.18002705 0.22918941 0.15024179 -0.16021523 0.13898334 0.20248239
0.03406666 0.13782811 -0.021728842 0.08159943 -0.07611177 0.1103425 0.13961044 0.254358
0.36621058 0.1104715 -0.19655201 0.19307716 -0.014143468 0.1704044 0.063325204 0.18064453
0.18984196 0.18310902 0.18887933 0.01006087 0.015482077 -0.2182225 0.24334326 0.28252092
0.044124793 -0.04680798 0.22214432 0.1163718 -0.23173237 0.013860255 -0.01177903 -0.12707505
0.19738927 0.19361223 0.13124529 0.23125336 -0.25988245 0.18296848 -0.1544664 -0.1653428
0.28928965 0.039388064 -0.11464692 -0.027586931 0.080425166 0.24829282 -0.14569679 0.21194993
0.026315942 -0.055781513 0.111141905 0.13634387 0.0931296 -0.109801665 -0.03315219 0.20555502
00000000: 8692 863e abc3 5f3e 0359 383e a1b0 6a3e
00000010: fcd8 193e 760f 24be a651 0e3e 8b57 4f3e
00000020: 7b89 0b3d d022 0d3e af00 b2bc 9a1d a73d
00000030: 7de0 9bbd 40fb e13d 0af6 0e3e 363b 823e
00000040: f47f bb3e e23e e23d ee44 49be 05b6 453e
00000050: 01ba 67bc 7e7e 2e3e a5b0 813d e1fa 383e
00000060: ee65 423e ee80 3b3e 9569 413e 59d6 243c
00000070: 8aa8 7d3c b875 5fbe fa2e 793e 95a6 903e
00000080: 33bc 343d b9b9 3fbd cd79 633e 5754 ee3d
00000090: 404b 6dbe 1f16 633c d5fc 40bc f61f 02be
000000a0: 6a20 4a3e 4942 463e 2a65 063e aecd 6c3e
000000b0: 500f 85be 175c 3b3e 712c 1ebe 9f4f 29be
000000c0: c61d 943e 6155 213d 01cc eabd fdfd e1bc
000000d0: f3b5 a43d 7940 7e3e 8a31 15be 6709 593e
000000e0: 8894 d73c 287b 64bd 5e9e e33d ba9d 0b3e
000000f0: bbba be3d b2df e0bd 97ca 07bd 047d 523e

lstm1_2.0.weight f4 [32, 32]
-0.027928194 -0.035274774 0.05262148 -0.0771981 0.093191184 0.1434374 0.16070631 -0.047828883
-0.019944286 0.14243893 -0.12418333 -0.06298655 0.03652064 0.01868209 0.13038425 -0.11766296
-0.109397314 -0.055040285 0.023908673 -0.05496681 -0.068012506 -0.01604574 0.05165404 -0.004831149
0.0059322696 0.111431085 0.1504729 0.12297381 -0.011515991 -0.05159671 -0.16861129 0.15192601
0.12000541 -0.18029076 -0.14418845 0.15156394 -0.13978288 -0.0703127 0.17605758 -0.10249479
0.17736587 -0.123063505 -0.1532457 -0.15697287 -0.08175288 0.03511135 0.09584893 0.14280961
-0.10984245 0.004142966 0.027937956 0.112440795 -0.0027242207 0.11450786 0.15598862 -0.12508687
-0.12861969 -0.15706003 0.15139607 0.08974343 0.15405184 -0.023125697 -0.039174177 -0.036810543
0.17050786 0.033028882 -0.052499004 0.032083113 0.08535979 -0.034140296 -0.039103158 -0.08038965
-0.095919125 -0.100619785 0.027548058 -0.14050722 -0.15315095 -0.0037410795 0.08706357 -0.08003672
-0.04197812 0.1332977 -0.07326847 0.110513955 0.036128767 -0.11276369 -0.10337014 0.055283803
-0.07568115 -0.111749835 -0.13530539 0.13852005 0.12657039 0.0044397195 -0.054969236 0.10747389
0.038203336 0.1012316 -0.095599465 -0.0787928 -0.14454383 -0.07525787 0.11118114 0.1473373
0.11402087 0.025859369 -0.09164507 -0.0063587534 0.10389792 0.072734885 0.0757829 0.0742551
0.08783142 -0.09276961 0.13699532 0.12994868 0.011471873 0.15752709 -0.16593361 -0.091178596
-0.10009015 -0.064913176 0.033469528 -0.09698766 0.15958808 0.11452765 -0.20926584 0.060031142
0.072059795 0.10002884 -0.022008853 0.13578646 0.07872915 -0.13597327 -0.12531954 0.08599049
0.1544129 0.11870917 -0.093806915 0.012859193 -0.039328847 -0.166459 0.14622717 0.021473523
0.03886047 -0.056614954 0.03905289 -0.1058607 0.037432533 -0.045062758 -0.09210534 -0.070727214
-0.04723568 -0.060188565 -0.17093448 -0.028628794 -0.12074652 -0.012085082 -0.003792268 -0.07853907
-0.13321263 0.10078051 -0.108458735 -0.12870458 -0.03907427 0.13610256 -0.10477488 -0.101105176
-0.09321999 0.14520006 -0.079432614 -0.1279147 -0.01690872 0.0035827046 0.068481505 -0.11239436
0.11142043 -0.08404027 -0.098304495 -0.1072336 0.008447208 -0.15362008 0.099002495 0.104949705
-0.06926991 -0.13170788 0.08095498 0.027518544 0.09358461 -5.7979185e-05 -0.14846052 0.066784255
-0.08551643 -0.1087562 -0.023635397 -0.09749018 0.07371503 0.0008027575 -0.06424772 0.087819256
-0.18063664 0.11064142 -0.1370475 0.17724474 -0.1831884 0.03543202 -0.034748707 -0.104771614
0.16420242 0.1360579 0.069110245 -0.045399763 -0.1269758 0.006821969 -0.110824905 -0.009242854
0.0044643134 -0.16518709 0.13842577 0.016771588 0.18310376 -0.089056686 -0.12610933 0.07644721
0.15118201 0.11892169 0.16952668 0.09979871 -0.10787941 -0.14730301 -0.115844555 -0.0809956
0.11885396 -0.05193297 0.0028541256 0.069188476 0.14937143 -0.13662978 -0.10041703 0.0461803
-0.072989725 -0.06046523 0.08517403 -0.15031001 -0.11585373 -0.101232745 0.051207732 0.085358664
-0.0920277 0.16178489 -0.062428936 -0.08034698 0.062226735 -0.020683968 0.038332608 0.17617755
00000000: abc9 e4bc 487c 10bd 9f89 573d 0a1a 9ebd
00000010: 05db be3d 41e1 123e 3290 243e 38e8 43bd
00000020: 3362 a3bc 83db 113e d453 febd 18ff 80bd
00000030: ab96 153d 2f0b 993c 7383 053e 47f9 f0bd
00000040: b30b e0bd ec71 61bd 1fdc c33c e124 61bd
00000050: 244a 8bbd 5b72 83bc 3093 533d 9d4e 9ebb
00000060: 7c63 c23b fb35 e43d 9115 1a3e b1d9 fb3d
00000070: 91ad 3cbc 1257 53bd 70a8 2cbe 7e92 1b3e
00000080: 65c5 f53d 249e 38be 23a6 13be 9433 1b3e
00000090: 3e23 0fbe 1b00 90bd 7048 343e cae8 d1bd
000000a0: 669f 353e b808 fcbd 71ec 1cbe 7fbd 20be
000000b0: 0e6e a7bd ebd0 0f3d 724c c43d af3c 123e
000000c0: 14f5 e0bd b8c1 873b 24de e43c 5c47 e63d
000000d0: d788 32bb 1983 ea3d 7bbb 1f3e c616 00be
000000e0: e1b4 03be 58d4 20be 9207 1b3e 67cb b73d
000000f0: c4bf 1d3e 1a72 bdbc 1a75 20bd a7c6 16bd
00000100: 9d99 2e3e 4b49 073d 3209 57bd 9569 033d
00000110: 1dd1 ae3d b2d6 0bbd a22a 20bd 54a3 a4bd
00000120: 3f71 c4bd bf11 cebd 77ac e13c 20e1 0fbe
00000130: 9ad3 1cbe e62c 75bb 634e b23d 4bea a3bd
00000140: 40f1 2bbd 317f 083e c80d 96bd 2455 e23d
00000150: c2fb 133d a6f0 e6bd b9b3 d3bd 4571 623d
00000160: b8fe 9abd 19dd e4bd 7f8d 0abe 33d8 0d3e
00000170: ab9b 013e 117b 913b 6c27 61bd 451b dc3d
00000180: 1a7b 1c3d 8352 cf3d a7c9 c3bd 1f5e a1bd
00000190: 4c03 14be cc20 9abd f0b2 e33d 97df 163e
000001a0: c683 e93d 07d7 d33c 69b0 bbbd 175d d0bb
000001b0: 6fc8 d43d 07f6 943d 1134 9b3d 0f13 983d
000001c0: f6e0 b33d fefd bdbd 8048 0c3e 4411 053e
000001d0: 86f4 3b3c c84e 213e 80ea 29be d8bb babd
000001e0: 11fc ccbd 33f1 84bd 5817 093d 77a1 c6bd
000001f0: 0f6b 233e 798d ea3d c949 56be 37e3 753d
00000200: 1694 933d ecdb cc3d e94b b4bc 9b0b 0b3e
00000210: c03c a13d 943c 0bbe c453 00be c81b b03d
00000220: 6a1e 1e3e cb1d f33d d71d c0bd 5daf 523c
00000230: 4917 21bd 3a74 2abe 93bc 153e 3ee9 af3c
00000240: 282c 1f3d 15e5 67bd ecf5 1f3d 7fcd d8bd
00000250: db52 193d ba93 38bd b9a1 bcbd 6ed9 90bd
00000260: 337a 41bd 4988 76bd 7309 2fbe ef86 eabc
00000270: f449 f7bd 8200 46bc b387 78bb 18d9 a0bd
00000280: e468 08be 0366 ce3d 9d1f debd 22cb 03be
00000290: 570c 20bd 785e 0b3e 3694 d6bd 3b10 cfbd
000002a0: 1fea bebd 53af 143e 91ad a2bd 12fc 02be
000002b0: 2884 8abc cfcb 6a3b 0840 8c3d 042f e6bd
000002c0: 6530 e43d 4e1d acbd de53 c9bd 4a9d dbbd
000002d0: 2966 0a3c 954e 1dbe d2c1 ca3d dfef d63d
000002e0: 62dd 8dbd 6ede 06be b9cb a53d 926e e13c
000002f0: 4aa9 bf3d ad2e 73b8 0906 18be 2fc6 883d
00000300: 3d23 afbd 92bb debd 059f c1bc eea8 c7bd
00000310: e8f7 963d 2570 523a 4f94 83bd 95da b33d
00000320: d0f8 38be f897 e23d 2e56 0cbe a57f 353e
00000330: bd95 3bbe 2a21 113d a954 0ebd 8092 d6bd
00000340: ae24 283e c352 0b3e ac89 8d3d 1af5 39bd
00000350: f205 02be d38a df3b 2bf8 e2bd 576f 17bc
00000360: 6049 923b ce26 29be 7cbf 0d3e 9264 893c
00000370: 8d7f 3b3e 5a63 b6bd ce22 01be 5b90 9c3d
00000380: 75cf 1a3e 378d f33d 6798 2d3e 4463 cc3d
00000390: e1ef dcbd 9ad6 16be e93f edbd 05e1 a5bd
000003a0: b469 f33d aab7 54bd 480c 3b3b b0b2 8d3d
000003b0: d3f4 183e ade8 0bbe 72a7 cdbd 8e27 3d3d
000003c0: a37b 95bd 64aa 77bd b96f ae3d deea 19be
000003d0: b844 edbd 1d53 cfbd 33bf 513d 86d0 ae3d
000003e0: 0579 bcbd f0aa 253e 7cb5 7fbd f58c a4bd
000003f0: 76e1 7e3d 6d71 a9bc a702 1d3d e367 343e

lstm1_2.0.bias f4 [32]
0.15307826 -0.038123284 -0.119346835 0.050450765 -0.09146258 0.016654275 0.14436355 0.18620044
0.119761184 -0.11481352 0.12556835 0.03569086 0.14672372 0.025899539 0.0825229 -0.047679197
0.061279364 -0.058205023 0.0009274184 -0.055623975 0.15577824 -0.006771857 0.054783467 0.0055984976
-0.18932557 0.053800076 -0.10891594 -0.05363504 -0.007333313 -0.025565948 -0.09845642 0.06313302
00000000: 8cc0 1c3e 2927 1cbd 1d6c f4bd 76a5 4e3d
00000010: bc50 bbbd 8c6e 883c 0ad4 133e 54ab 3e3e
00000020: 5a45 f53d 5a23 ebbd fd94 003e 9430 123d
00000030: be3e 163e 452b d43c c401 a93d 434b 43bd
00000040: 1200 7b3d 6468 6ebd ff1d 733a f7d5 63bd
00000050: 5584 1f3e 74e6 ddbb a164 603d 9a73 b73b
00000060: 90de 41be 785d 5c3d 520f dfbd 6ab0 5bbd
00000070: 4a4c f0bb ae6f d1bc 85a3 c9bd e34b 813d
