results/ft_module_effect/Dataset 6/Freeze FC only/Experiment5(35_1a_100)/from_Dataset 6_ft_model.pth (torch, 95756 bytes, 27 tensors)

cnn1.0.weight f4 [16, 1, 3]
00000000: d286 70be 4637 d6be 396a d8be 680d 4e3e
00000010: 25f6 bebe b058 2b3f 6394 08bf 332b 89be
00000020: f496 a7be 1e12 543e d8f1 91be daa1 d0be
00000030: 81e8 a9be 5fb1 1c3e 3bed 23bd 0896 073f
00000040: e481 79be 278d dabd 5998 f1be 9233 aa3e
00000050: 7c9d 59be c526 963e 385a 6ebe 9a75 01bf
00000060: a846 a2be bda2 eebb 41e5 33be e77b 6fbe
00000070: c4be a23e f682 71be 1ac0 bbbd 1bbe b0bd
00000080: 7daf 22be 6e12 adbe cf07 d63e c720 b7be
00000090: 56bb 963d 9c41 5e3e 53f6 f7be 5fef f2be
000000a0: 0c8e 99be 09c9 a2be 9c5f 0a3e 65a0 973e
000000b0: 14f6 febe 65f5 1a3e 1b84 a5bd e7ba b73e
-0.2348893 -0.41839045 -0.4226854 0.20122302 -0.37297168 0.669322 -0.5335142 -0.2679077
-0.32732356 0.20710036 -0.28504825 -0.40748483 -0.331852 0.15302037 -0.040021162 0.52963305
-0.24365956 -0.10671454 -0.47186545 0.3324247 -0.21251482 0.29326454 -0.23276603 -0.5057007
-0.3169453 -0.0072825835 -0.17567922 -0.23387109 0.31786168 -0.23585114 -0.091675 -0.0863001
-0.15887256 -0.33803123 0.41802832 -0.35767195 0.0735995 0.21704715 -0.48430118 -0.4744825
-0.29991186 -0.31794003 0.13513035 0.2961456 -0.49797118 0.15132673 -0.08081838 0.35884783

cnn1.0.bias f4 [16]
00000000: 6792 8bbd ba84 f33e 2ee9 02be 1e82 053f
00000010: 31e5 e93e c1dc 253e bc1a 13bf 1fa7 933b
00000020: b926 f73e 7d99 c0be 2c7c b63e 4eed 493e
00000030: b44e 4d3e 8b4c ca3e 7f8a 093e 0b75 153e
-0.068150334 0.475622 -0.12784263 0.5215167 0.45682672 0.16197492 -0.5746267 0.0045060064
0.4827173 -0.37617102 0.3564161 0.19719431 0.20049554 0.39511523 0.13431738 0.1459543

cnn2.0.weight f4 [32, 16, 3]
00000000: 8d7f b33d 2f72 753d e78e af3d 1952 41bc
00000010: c331 973d 0e8f 2d3e b811 ccbd a997 adbd
00000020: f364 513d beba 48bb e249 7abd b0ff 7abe
00000030: a1bc a53d bd44 69bc a29b b8bd e940 043e
00000040: 089c bbbc c729 5f3d 96a2 8a3b b544 673d
00000050: efc8 463d cfaf b83d a1f2 ac3d ad1e 093e
00000060: d1da 353e 6b53 af3c a381 6bbe 96eb f23d
00000070: 5fc4 be3d 981b 6fbd a359 8bbd 5679 bcbd
00000080: c4df 00be 3daa 6f3e d177 753d abc3 153d
00000090: 7fe6 853e a393 a13d 1dd4 36be 98cc d53d
000000a0: 02e5 743e 333b de3d 2d36 20bd 6197 31be
000000b0: 47b7 ccbe 4461 d9bd 2337 f5bc 245e b93d
000000c0: d78f 24bd 66bd 9a3d 2543 0cbc 95f6 173c
000000d0: 97ab 8b3d 07b0 07be 3444 9c3d fad0 a8bc
000000e0: 9956 c2bc 2eb9 453d 32b9 0c3d cd06 32bd
000000f0: df85 94bc 0d6e 82bd b10e 6b3c 7e63 23bd
00000100: 229f 4c3c c297 94bd 933c 093d 207f 993d
00000110: a140 983b 54cc e23d 37e1 ce3d 146f 5bbd
00000120: 37af 0e3e c84a 9fbd 1640 7e3c f765 b0bd
00000130: a186 7a3d 3e72 103e b87a abbc 75ee a93d
00000140: 210e cb3c 8053 98bd 3d08 41bd a815 873d
00000150: 12c5 773c 41ce ab3c 41b5 10be 7974 b1bd
00000160: 6098 6ebd 99c1 0a3e c2ef 783d 3658 84bd
00000170: 668b c5bd 0f8f 4bbd 0e2c f9bd 86b4 c03c
00000180: d393 0abe 94a9 633d d824 dbbd 09ac d43d
00000190: d82d 893d 97cb d53d c836 87bc c41f 0dbe
000001a0: 77eb 15bd 0355 153e 947e 243e c2fe 573e
000001b0: 2d9b d4bc 7a07 483d f9b9 043e eccd 90bd
000001c0: b2b6 363e 0830 c1bd 4b74 9abd 3658 103e
000001d0: 8002 f33b d9c1 813d 6c4c 133d f3d1 f3bd
000001e0: e34e bdbd 29a4 93bc 22df 56bb a428 ff3d
000001f0: 464d cb3c a00d cd3d 6eba 013e 4016 f03d
00000200: 6653 903d 18be d1bd edd2 14be 39ce 2fbe
00000210: 0cda 76bd 9afa bb3c 545b 623e 8bab 323e
00000220: 7819 c23d 2433 dd3d b93b 0b3e 24dc edbc
00000230: 6888 493e fad8 463d e4e3 8c3d 9a99 0cbe
00000240: ddd2 dc3d 12df f639 19d5 9a3d 376a fcbd
00000250: d847 98bb 5559 93bd 70a2 9fbb c081 983d
00000260: 9a15 a13d b658 033e 93d5 e1bd 4875 94bd
00000270: c5ab 03be 950b babd 9d8d 4d3d 8751 5abd
00000280: 1171 033e 7016 a7bd 7015 1e3d 7ddc 5e3d
00000290: ed69 fd3d 965b 063d b2dc 85bc c868 043e
000002a0: 3641 6f3c 075e 103e 739e f43d f60a c03c
000002b0: 9995 3ebd 49dc be3c 4b0f cc3d 538c 8dbd
000002c0: c445 13be 1fca dabc bd31 2d3d 9c50 9e3d
000002d0: 1baa b73d 6995 f3bd 9b12 9b3d ac7c 9abd
000002e0: 0606 143c 209f 03be ce63 abbc 2c9c bbbd
000002f0: ef80 ab3d 7016 27bb dc4d 11be 0920 0ebb
00000300: 422f 05be 9507 a83d 0dc6 82bc 38ca 18bd
00000310: d6b9 ff3d 688f 86bd 940e 013e 2482 353d
00000320: db88 9fbc 2605 fc3d ca08 04be bcb7 25bd
00000330: ea97 8cbd c7c8 043e 0c4c bebd 3431 983d
00000340: bb7d c4bd 0207 0a3d 1506 18bd 12c1 9bbc
00000350: f005 093e 0390 013e c6f0 8d3d e124 febb
00000360: 1de4 f6bd dd9c 4ebc ae24 043e 2ebc 8d3d
00000370: 57f4 11bd daec aabd e8d3 b03d 6662 9f3d
00000380: 0542 cd3d 6493 033d 52b2 efbd 15ed d4bd
00000390: 023b 733d e90d 4abd d66b 2ebc 011c c1bd
000003a0: 481b e33c b871 e23d 2565 98bd 2d6e a83c
000003b0: 1045 03be 3450 1d3b e7f4 453d e01f f53c
000003c0: 19a6 b53c a112 e63d 8e53 0c3e 076b 82bd
000003d0: 2e58 d33d 7490 d6bc 21e4 85bc 4770 b3bd
000003e0: 7aa3 2cbd 0491 293c 2322 7fbd 648b 063e
000003f0: e6ba 97bc 3df4 01bd 0e45 233c eebd 15bd
0.08764563 0.059923347 0.08572178 -0.011799359 0.07382538 0.16949102 -0.09964317 -0.084761925
0.051121663 -0.0030628885 -0.061105616 -0.245116 0.08092619 -0.01423758 -0.090140596 0.12915386
-0.02290155 0.0544832 0.0042308075 0.05646201 0.04853147 0.09017908 0.08444715 0.13390608
0.17759253 0.021402081 -0.22998671 0.11861341 0.093147986 -0.058375925 -0.06804206 -0.092028305
-0.1258536 0.23404785 0.05992872 0.036563557 0.26152417 0.078894876 -0.17854352 0.10439414
0.23915485 0.10851135 -0.039114166 -0.17342903 -0.3998358 -0.10614255 -0.029933518 0.09051159
-0.04017624 0.07555656 -0.00856093 0.009275098 0.068198375 -0.13250743 0.07630196 -0.02060746
-0.023722934 0.048272304 0.034356304 -0.043463517 -0.018130241 -0.06368647 0.014346764 -0.039889805
0.012489112 -0.07255508 0.033505034 0.0749495 0.0046463762 0.11074129 0.1010155 -0.05357273
0.13934027 -0.07777935 0.015518209 -0.08613198 0.06116355 0.1410608 -0.02093254 0.08297435
0.02478701 -0.07437801 -0.047126997 0.065959275 0.015122669 0.020972373 -0.14131643 -0.086647935
-0.058250785 0.13550414 0.060775526 -0.064621374 -0.09645729 -0.04969698 -0.12166606 0.02352358
-0.13532953 0.055581644 -0.10700387 0.103843756 0.06698197 0.10439222 -0.016505614 -0.13781649
-0.03660151 0.1458321 0.1606391 0.21093276 -0.0259529 0.048835255 0.12961568 -0.070705265
0.1784313 -0.09432989 -0.075417124 0.1409615 0.0074160695 0.06335802 0.035961553 -0.11905279
-0.09243562 -0.018022614 -0.0032786806 0.124589235 0.02481712 0.100123644 0.12668774 0.11722994
0.07047157 -0.10241336 -0.14533587 -0.17168511 -0.06026654 0.022946645 0.22105151 0.17448251
0.09477514 0.1080077 0.13597001 -0.029035635 0.19680941 0.04854677 0.06879404 -0.1373047
0.107824065 0.00047086977 0.075601764 -0.123249464 -0.0046472363 -0.07194773 -0.004871659 0.07446623
0.07865448 0.1282681 -0.11027064 -0.07248932 -0.12858494 -0.0908424 0.05018388 -0.053300407
0.128361 -0.081585765 0.038594663 0.054409493 0.12373719 0.032802187 -0.016340587 0.12930596
0.01460295 0.14098369 0.11944284 0.023442727 -0.046529386 0.0232984 0.099638544 -0.0691153
-0.14382082 -0.026707707 0.042283762 0.07730219 0.08967992 -0.11893732 0.07571908 -0.075433105
0.009034639 -0.1285367 -0.020921614 -0.09160647 0.083742015 -0.0025495552 -0.14189857 -0.0021686575
-0.13006309 0.08204571 -0.015963579 -0.037302226 0.12486617 -0.06570321 0.12603217 0.044313565
-0.019474437 0.123056695 -0.12893978 -0.040458426 -0.06864913 0.12967215 -0.092918485 0.0743126
-0.09594294 0.03369809 -0.037115175 -0.019012962 0.13381171 0.12652592 0.069306895 -0.007755861
-0.12055228 -0.012610641 0.12904617 0.06920658 -0.03563341 -0.08345957 0.08634168 0.0778244
0.10022358 0.032122985 -0.11703934 -0.10396782 0.059382446 -0.049329672 -0.010645827 -0.094291694
0.02772297 0.110568464 -0.07441167 0.020560348 -0.12819314 0.0024004104 0.04832926 0.029922426
0.022173928 0.11234022 0.13703749 -0.0636807 0.10319553 -0.026191927 -0.016344132 -0.087616496
-0.04214809 0.010349516 -0.062288415 0.13139111 -0.018521737 -0.031727064 0.009965194 -0.036558084

cnn2.0.bias f4 [32]
00000000: 676e e43b 1e26 0f3d 4cac b2bd 00d6 0fbe
00000010: 83b0 b6bd 158f 09be 40e4 973c abc0 e6bc
00000020: 8c58 c13c e71d 07bc 0f32 cc3d 0cdf 953d
00000030: 75e8 833c 8942 dcbd 550e 0a3e 83f1 14be
00000040: a4e5 bb3d 97f2 743c f763 2fbd c9ca 213e
00000050: 1ee0 d53d b92f 1dbc 1716 ed3d e177 4ebd
00000060: bf51 ac3d 2a23 f83a bc32 b03d 7d3c f2bb
00000070: 927a cfbc 3470 de3d fa67 e13d 6805 4cbd
0.006971169 0.03494846 -0.08724269 -0.14046478 -0.08920386 -0.13433488 0.018541455 -0.028168043
0.023601793 -0.008246875 0.099704854 0.073179334 0.016102055 -0.10754878 0.1348203 -0.14545254
0.0917466 0.014950416 -0.042819943 0.15800013 0.104431376 -0.0095938975 0.11576479 -0.050407294
0.08414029 0.0018931378 0.08603427 -0.0073924647 -0.025327 0.10861245 0.1100616 -0.049809843

lstm1_1.weight_ih_l0 f4 [64, 32]
00000000: fd6b 7e3e 60fe 32bc f49e 003e 5078 5f3d
00000010: d06b bdbd be68 7b3e 212b a93d 2088 403e
00000020: ca4a 2a3e d1c5 a8bd 6642 68be afcc 603e
00000030: 94de 043e 40b6 bfbc a579 173e 200e fc3d
00000040: 08a3 67bd c621 753e 1643 09be 0da6 51be
00000050: ac46 4fbd cc26 be3e 86e9 623e 9fc1 03be
00000060: bf0c c7ba f30c 79be 658a 273c 4bcc 3d3e
00000070: 6a3f 4cbe d175 2abd acac 58be eeeb 363e
00000080: d648 c83d d42b c33d 48f0 603d 9814 25be
00000090: f8b9 7c3e 5cbd bd3d 9e28 4cbd ea04 a53d
000000a0: 66fd d4bd 5f30 9b3e 08b9 9fbb 885a 34be
000000b0: 0fa1 11be 70c9 2dbd 376b 7a3e 0eac 303d
000000c0: 66ba 7f3e 347e 1dbe b79c dc3d 4be0 1dbe
000000d0: fcc4 8c3d 2ea6 bebb 242b b33d a141 a13e
000000e0: b148 f03c 3659 08be 9e06 94bd cc50 abbc
000000f0: 57b1 8cbd 49ee 103d ae05 53bc e762 4fbd
00000100: 75c7 c1bc 5a88 61be 226b 273e 184c 9d3d
00000110: f43e 813d 54a2 973d 64c9 c13d d63c 393d
00000120: bc57 523d b08f 9fbd 5247 403e 98c7 0ebe
00000130: 7597 0aba 126a 60be a7f7 5abe 273d 24be
00000140: 9431 f3bd d0f1 083e 6bf7 e8bb d006 27be
00000150: 3cec 4a3e 3a1a a13b 146a 8b3c 10b7 e3bc
00000160: 34ac e1bc 0160 323e b984 df3c 1d00 313e
00000170: da29 183e ad9a 6fbd cfdf 4fbe d902 8e3d
00000180: fa4d 18be c053 47be e53b 87be 52dd 4e3e
00000190: 9eed 153e 70b3 46bd e0af f2bd 5fda bd3b
000001a0: 0402 bfbc c655 d9bc 9475 bf3d 99bb 193e
000001b0: 7b73 ce3d c439 c93d c5da 86bd 70e5 8c3d
000001c0: 78eb 09bd be1c 763e aabb 0bbe d41e 70be
000001d0: ce43 3bbe 515a 8abd 233f 653e 8a87 953e
000001e0: 59ac 32be f4cd c53d bb14 e5bb 94c1 40be
000001f0: 07d5 2ebe ef25 ad3d a6d3 713d 9cfb 613e
00000200: 345c 85bc e07b da3d 4157 5a3e 80f6 4ebd
00000210: d0ff 623e 7005 eb3c d972 323d 8114 bd3d
00000220: 63b4 26be c681 01bd 55cd 193e c1dd 813e
00000230: 1ea7 253e bcc7 87bd d8fc 2fbd a3e2 9b3d
00000240: 4a7c 71be a018 20bd 7e42 423e 0989 27be
00000250: 12d8 e4bd 5c8d 58be 6d9a 043d 18e8 3e3e
00000260: 775c 6cbe a5a1 393d 7c88 a8bc 5fab 7ebe
00000270: 7f3a 323e f1dc d4bd 49cb 683e be1d d3bd
00000280: b455 c9bd 3638 0e3e bc70 493e b80b 033d
00000290: b4c7 4e3e bc33 99bd 1e7f b1bd 50be b43d
000002a0: 53f6 2cbe 9ad8 65be 2786 3bbe 850d 5d3e
000002b0: 3c30 e9bb d25f 1abe 0b99 af3d 34f1 b83c
000002c0: 8ae1 453e b0bc 98bc 2049 323d 93dd 253d
000002d0: eb8f 6e3e 9a75 5cbe 1d50 5d3e 1a9b 3cbe
000002e0: 84f4 dfbd 3737 56bc 6005 b83d 97ae 09be
000002f0: b77d 903d a77a e73d 7e39 8dbd 2645 2d3e
00000300: f86f abbe a82a 923d 23af 573d c8d9 0c3e
00000310: 8891 2ebd f038 fdbc 8191 383d ffac a13c
00000320: e14a 25be f97e 6cbe 6922 35be e950 efbd
00000330: 2ec4 d83c f00e 76bd fdf5 4e3e fadf 703b
00000340: 4230 053e dea3 273e e6b9 093e 3d1e 553d
00000350: da0f 94bd 1b7b 9cbd 0400 57be 2555 95be
00000360: 2674 56be 51a2 d73b 8b6b 043e ee37 5e3e
00000370: 7cbb e03d abda 18be 42e7 1b3e c167 c73d
00000380: 6024 963e 7414 07be 7257 7a3c 6483 6e3e
00000390: e80b 87bd 963c 53be d459 193d 5138 69be
000003a0: 025a 7a3e c847 e13e 75f4 793e 2758 c83c
000003b0: dbc1 863e 4885 493d adde 74bd 5f7f 32be
000003c0: e831 7cbe 408c eebc ba1d bc3d bea4 103e
000003d0: 9b55 c7bc e6fa 17be 572e c53d 3feb 683e
000003e0: 1349 b5bd f6b9 be3e e34a a53e b640 66bc
000003f0: ea41 193e fb6b 06be ac41 2d3e d700 22be
0.24845882 -0.010924906 0.12560636 0.0545581 -0.09249079 0.24551675 0.08260179 0.18801928
0.16630092 -0.082408555 -0.22681579 0.2195308 0.12975532 -0.023402333 0.14792497 0.12307382
-0.056551963 0.23938665 -0.13404498 -0.204735 -0.050604507 0.37138975 0.22159395 -0.1286683
-0.0015186294 -0.24321346 0.010225867 0.18534963 -0.19946066 -0.041616265 -0.21159619 0.17863438
0.09779517 0.09529844 0.05491665 -0.16121137 0.24680316 0.09264633 -0.049843423 0.08057578
-0.103998944 0.30310342 -0.0048743524 -0.1761266 -0.14221595 -0.042428434 0.24454962 0.043132834
0.24973449 -0.15380174 0.107720785 -0.15417592 0.06873509 -0.00581815 0.08748463 0.31495383
0.029331537 -0.13315281 -0.07227825 -0.02091255 -0.068697624 0.035383496 -0.012879772 -0.05063143
-0.023654679 -0.2202467 0.16349462 0.07680529 0.063108355 0.074040085 0.0946224 0.045224033
0.0513532 -0.07791078 0.18777207 -0.13943326 -0.0005286851 -0.21915463 -0.21383534 -0.16038953
-0.11874691 0.13373494 -0.0071095726 -0.16311193 0.19816679 0.0049164565 0.017018355 -0.027797252
-0.027547933 0.17419435 0.027284967 0.172852 0.14859715 -0.05849712 -0.2030022 0.06934137
-0.14873496 -0.19465542 -0.26412883 0.20201614 0.14641425 -0.04851097 -0.11849952 0.005793854
-0.02331639 -0.026530158 0.09348598 0.15012969 0.1008062 0.09825471 -0.06584696 0.06879699
-0.033671826 0.24034402 -0.13645807 -0.2344926 -0.18287584 -0.06755508 0.22387366 0.2920497
-0.17448558 0.09658423 -0.0069909967 -0.18823844 -0.17073451 0.08454501 0.059039734 0.22068638
-0.016279317 0.106681585 0.21322347 -0.05052805 0.22167897 0.028689116 0.04356656 0.092324264
-0.1627975 -0.031617902 0.15019734 0.25364497 0.16177031 -0.06629893 -0.04296574 0.07611587
-0.23582569 -0.039085984 0.18970677 -0.16360869 -0.11174025 -0.21147674 0.032373834 0.18643224
-0.23082148 0.045320172 -0.020572893 -0.2487006 0.17405127 -0.10393704 0.22733797 -0.10308407
-0.098308 0.1388863 0.19671911 0.031993598 0.20193368 -0.07480571 -0.08666824 0.08825362
-0.1689084 -0.22445908 -0.18312894 0.21587189 -0.0071163457 -0.15075615 0.085741125 0.022575952
0.19324318 -0.01864466 0.04352677 0.040494513 0.23297088 -0.21529236 0.21612592 -0.18418542
-0.109353095 -0.013074688 0.089854 -0.13445507 0.07055228 0.11302691 -0.068957314 0.1692091
-0.33483863 0.07137042 0.052657258 0.13754952 -0.04261926 -0.030910939 0.04506064 0.019735811
-0.16141845 -0.23095311 -0.17688908 -0.11685354 0.026460733 -0.06007284 0.20211025 0.0036754594
0.1300669 0.16371104 0.13449821 0.05203079 -0.07229586 -0.07640668 -0.209961 -0.29166523
-0.20942745 0.006580629 0.1293165 0.21701023 0.1097326 -0.14927165 0.15224937 0.09736586
0.29324627 -0.13191396 0.015279638 0.23292309 -0.06594068 -0.2062858 0.037439182 -0.22775389
0.24448398 0.44000077 0.24409659 0.024456097 0.26319775 0.049199373 -0.059782673 -0.174314
-0.24628413 -0.02911961 0.091853574 0.14125344 -0.024332812 -0.14841804 0.09627979 0.2274599
-0.088518284 0.37251252 0.32283697 -0.014053514 0.1496655 -0.13127129 0.16919583 -0.15820633

lstm1_1.weight_hh_l0 f4 [64, 16]
00000000: c168 eebd a42d 93bd 86e8 63be 5745 0bba
00000010: c807 a23d 34b5 1cbe 2c82 fe3d 52cd 90bd
00000020: 2b66 323e 89ef 5dbd 334a 163e 7732 92bb
00000030: 7275 a03d 03ef bcbb ed0f 6b3d da33 7a3b
00000040: 40cf 153e 4656 c13d e2e0 57be 64c2 57be
00000050: 742a 48bd 044a c6bc c760 283e c493 88be
00000060: 18d9 313e 4217 f03d e8ee 903e 2417 30bb
00000070: 2dbe 973d 43c6 fabc 7e16 9e3d 97c4 883d
00000080: b0ab babd fc46 42be 7e3b e53d 2ed0 dbbb
00000090: e405 453d 4de9 603e c9c1 463e 69d3 9fbe
000000a0: 1a56 1d3e 0470 3c3e 498e 3e3d 4d57 00be
000000b0: 6ff8 6cbe b95c 8fbd bd0c 26bd 993d 053e
000000c0: a41d 103e b5b6 cf3d 1c17 69be 5c1e 1abd
000000d0: 4d77 483e 9975 44be c134 75be 4721 6fbe
000000e0: 2f40 6f3e af03 7a3d 4bb8 163e 6718 603e
000000f0: 18e6 543c c67c 82bd 285d 1cbe 292e f0bd
00000100: 80ef f53d 782f 123d f20a e5bd 1306 42be
00000110: 3c3b 2ebe ffdb 76be 1deb 43be 2c78 0abe
00000120: 426d 61be f04e 22be 04a4 6cbe 0046 70be
00000130: a28b 053e 90e5 573e 3fca 6d3e b57b 033e
00000140: d3a8 74be 08d9 5b3e 2a7e f63d a25b 9c3d
00000150: e63d 3b3e d825 c93d 80bf bc3d cd05 863d
00000160: 51b4 f23d 05cb 0dbe f0b9 4f3d 8c0f 23be
00000170: 4a12 6a3e d286 f7bd 8dbc 6a3e 37d5 2abc
00000180: 3456 b2bd 4bea 813e cd51 503e 10d8 313b
00000190: 9e2b 15be 620d 87be e461 b53d eb56 2e3e
000001a0: 600b 023e ee50 8e3d 44f7 83bd 4128 2dbe
000001b0: 2e46 e13d 0db9 0fbe c6f2 f43d 0b60 00be
000001c0: 582c 59be b301 b93d 4ac3 a23e bfb1 02be
000001d0: a5a9 023e 1cd8 c63c fe4a 583c 6d77 c33c
000001e0: 1b8a 90be e005 13be 73d5 abbd 403e 20be
000001f0: d6a6 f4bd 9aac a9bc 181a 30be aaaa 0a3d
00000200: 7dfb 423e 23e0 623e c174 ffbd a3f6 5f3e
00000210: 0452 2ebe 5f91 c53d a1e3 ddbd 0646 21be
00000220: 6ed7 0dbd ed41 213e 5d15 39bd 0d2c 48be
00000230: a3e2 3e3e c0a1 80bc d81b 0b3e 7628 803e
00000240: 129a 8dba f866 00be 1930 093c 7953 76be
00000250: 3548 2dbe 2107 c03c f6b2 ecbd dd82 23bd
00000260: 93d0 1f3d 5d8a 39be 2bb1 5a3e 0069 c1bd
00000270: b49b c4bd a5e7 593d d2f0 093e 584b 3fbe
00000280: b5be 4d3e 887e bdbc 1e28 c4bd e002 f03b
00000290: 7150 90bd eadd d63c f787 0bbe a284 813e
000002a0: 89fe 313d f624 a3bc 372a 50be 438d 2cbe
000002b0: 6ee1 243d bab6 8dbd 2750 bd3d 56b9 333e
000002c0: a920 5d3d cd7b c73d 0e62 89bd 8d57 11bd
000002d0: f70e e5bd bc2c 533e 17dd 673e a4ba 5ebe
000002e0: 7828 e93d 5da1 06be 1d09 1b3d 7b34 ccbd
000002f0: 90a2 75bd 4dc0 2b3e 4283 153e c20f 9c3c
00000300: a67d 34be ef56 ab3d 98d5 df3d 0ff2 ddbd
00000310: deae 573e ee2a 3a3e 6d68 d5bd 09ec 173d
00000320: 3bed 91bd d0aa 903d bdd7 53bd 4e2f 023e
00000330: 9679 3f3e 28ce a23c 1fdb 4abd 009e 523d
00000340: bcc7 9dbc c2f3 90be 6b5e 543a 3f3f 063d
00000350: db49 c0bd dcec 5c3e b07d e8bd 2e67 b33e
00000360: 6aa7 4ebd b541 c2bd 4926 8abd 5b76 333e
00000370: 9f8d a43c d7a5 0f3e a9c2 a33d 5f94 773c
00000380: 53b3 983d a3ad 55be 2027 6cbe 95df c3bd
00000390: f668 68be b265 153e 97c3 d33d d5aa 20bb
000003a0: 1ab6 61be 579f 9ebd 0aab bdbd 599a 32be
000003b0: a134 373e 2284 a93d fdbe 793c af21 b9bd
000003c0: 4cd1 91bc 0658 60be 53c6 293e 369a 4d3e
000003d0: 86a5 3bbd ff13 5bbc eb0b 813d cab0 27be
000003e0: f336 a9bb 2ae6 5a3e 3c5f 823d 4a29 853b
000003f0: 6b6c babc d746 443d 36b0 e8bc 0115 f33c
-0.11641074 -0.0718644 -0.2225667 -0.00053127616 0.079116404 -0.15303499 0.12427172 -0.07070412
0.17421786 -0.054183517 0.14676742 -0.0044615823 0.07834901 -0.005765797 0.057388235 0.0038177879
0.14629841 0.094402835 -0.2108188 -0.21070248 -0.04886861 -0.024205215 0.16443168 -0.26675236
0.17367971 0.11723186 0.2830727 -0.0026869262 0.0740932 -0.030612117 0.07719134 0.066781215
-0.09114778 -0.18972391 0.11192988 -0.0067081666 0.04810132 0.21963997 0.1940986 -0.3121598
0.15364876 0.18402106 0.046522412 -0.12533303 -0.23141645 -0.07000107 -0.040539492 0.13011779
0.14073807 0.101422705 -0.22762722 -0.03762661 0.1957676 -0.19185485 -0.23945905 -0.23352538
0.23364328 0.06103867 0.1471874 0.21884309 0.012994312 -0.06371455 -0.15269911 -0.11727554
0.120085716 0.0356898 -0.11183728 -0.1894763 -0.17014784 -0.2410736 -0.19132657 -0.13522404
-0.22014335 -0.15850425 -0.23109442 -0.23464203 0.13041547 0.21083665 0.23221682 0.12840159
-0.23892526 0.2146951 0.12035783 0.07634665 0.18285331 0.09821671 0.09216213 0.06544075
0.11850799 -0.13846977 0.050714433 -0.159239 0.22858539 -0.12086262 0.22923489 -0.010426811
-0.08707848 0.25374064 0.20343705 0.002713684 -0.1456742 -0.26377398 0.08856562 0.17025344
0.12699652 0.0694903 -0.064436466 -0.16909887 0.10999714 -0.14035435 0.11960368 -0.12536637
-0.21208322 0.09033527 0.3178962 -0.12763117 0.12760027 0.02427297 0.013201473 0.023860658
-0.28230366 -0.1435771 -0.083903216 -0.15648746 -0.11945884 -0.020712186 -0.17197454 0.033854164
0.19041248 0.22155814 -0.12473441 0.21871428 -0.17023474 0.09646868 -0.108344324 -0.15749368
-0.034629278 0.15747805 -0.04518639 -0.19548054 0.18641143 -0.015702128 0.1358484 0.2503087
-0.0010803363 -0.1253928 0.008373284 -0.2405528 -0.16922076 0.0234409 -0.115575716 -0.039919723
0.03901727 -0.18119188 0.21356647 -0.09443855 -0.096000105 0.05319943 0.13470772 -0.18681085
0.2009228 -0.023131624 -0.09577964 0.0073245615 -0.07046593 0.026228864 -0.13626085 0.25296503
0.043455634 -0.019915085 -0.20328604 -0.16850762 0.04025405 -0.06919618 0.092438035 0.17551169
0.053986225 0.0974041 -0.067081556 -0.035483886 -0.11184495 0.20622534 0.22642933 -0.21750885
0.11384672 -0.13147493 0.037850488 -0.09970947 -0.059969485 0.16772576 0.14600852 0.019050483
-0.17626056 0.08366191 0.10929412 -0.10837185 0.210628 0.18180439 -0.10420308 0.037090335
-0.07125326 0.0706383 -0.051719416 0.12713358 0.18698725 0.019873694 -0.049525376 0.05142021
-0.01926028 -0.28310972 0.00081012276 0.03277516 -0.09389087 0.2157473 -0.11352098 0.35039657
-0.050452627 -0.09485189 -0.067455836 0.17525618 0.020087061 0.14028107 0.07996113 0.015111058
0.074560784 -0.20867018 -0.230618 -0.09564129 -0.2269629 0.14589575 0.1034004 -0.0024515886
-0.22042122 -0.077452354 -0.09261139 -0.17441691 0.1789117 0.082771555 0.015243289 -0.09039628
-0.017799996 -0.21908578 0.16579561 0.20078358 -0.045812152 -0.013371467 0.06301101 -0.16376033
-0.005164021 0.21376863 0.06365821 0.00406376 -0.022756776 0.04791912 -0.028404336 0.029673101

lstm1_1.bias_ih_l0 f4 [64]
00000000: d798 82bc 873a 1ebe 1f04 583e c71c 5c3d
00000010: e64b 093e 03ab 52be f438 00be 39f9 103e
00000020: 4f2d 82bd 34d5 28be ac9d 2bbe 8c6b 06be
00000030: bdfb abbd eda2 cd3d cd9e 29be b23d 3bbd
00000040: 8e65 313e 5fd6 0ebe ce06 583e 8161 d43c
00000050: 1f10 d03d 7409 7e3d 5532 363d af07 4ebd
00000060: eca1 16be 8912 c83d da6f 4e3d 3189 2b3e
00000070: 2413 67be 6231 e2bd 8c97 d4bd 5f8f cfbd
00000080: ac9c 743e cfa1 14be 04c8 3e3e 27ea ddbc
00000090: 17d9 c03d 2a0b 8a3d 0db8 473e ce60 9f3d
000000a0: d38e 53be 9e17 7bbd fa36 1c3e 01ea 3a3e
000000b0: 718d 83be fd79 71be a7d0 5c3e 9ad5 6c3e
000000c0: 3b5a 34be b2bc 513e 6381 7d3e 0b43 b2ba
000000d0: 5bae 6fbe faa4 3dbd 0736 e23d 5bd8 47bd
000000e0: ef69 29be f439 f43c 0681 1a3d fffc 853c
000000f0: 2b6c c13d 3c0c 08bd 0f13 cfbc b2d5 edb9
-0.01594202 -0.15452014 0.21095322 0.05373838 0.13407859 -0.20573048 -0.12521726 0.14157571
-0.06356298 -0.1648758 -0.16759366 -0.13126963 -0.08397625 0.10040841 -0.16564484 -0.045713134
0.17323896 -0.13948964 0.21096346 0.0259254 0.10159325 0.062020734 0.044481594 -0.050300296
-0.14710206 0.0976916 0.05039964 0.16751553 -0.22565895 -0.11044575 -0.10380468 -0.10134768
0.2388789 -0.1451485 0.18630987 -0.027089192 0.094164066 0.067404106 0.19503804 0.07782136
-0.20659952 -0.06130182 0.15255347 0.18253328 -0.2569385 -0.23581691 0.2156397 0.23128358
-0.17612545 0.20482138 0.24756388 -0.0013600303 -0.23406355 -0.046299912 0.11045461 -0.048790317
-0.16544317 0.02981279 0.037720703 0.01635599 0.094444595 -0.033214793 -0.025277643 -0.00045363378

lstm1_1.bias_hh_l0 f4 [64]
00000000: 446c 32be 39b7 79bd f9f2 3ebe 5205 08be
00000010: d832 453e 6375 283d 4bb2 46be 5d6b 9ebd
00000020: 621d 09be 14e7 513e 1dae c43d f713 273d
00000030: eb6a f23d 0b25 c0bd 277f 30be 42de 81be
00000040: 21f5 4a3d e92d cc3c c311 4abd 1e4f 97bb
00000050: c170 68bd 6f01 b5bd 9e32 6fbe 8c11 063d
00000060: 500c 70bc 92c4 67be 1e70 a0bd 1ad2 983d
00000070: 1ac6 6b3e bb4a c23d e086 403d 4360 1c3d
00000080: f3cb 033e 0f6b 5a3d 6018 043e ca23 443e
00000090: b022 4c3d 9eac 8b3d 51a7 6ebe 5b36 73be
000000a0: eded 70be a02b 343e 8caa ed3d d5e5 f3bd
000000b0: 92e0 4abe 3dab 123e faca c2bd de71 6c3e
000000c0: 4d82 51be e47d 61be 1232 df3d 80b2 313e
000000d0: 4adc fbbd 5081 e3bd e583 cfbd 271f 01be
000000e0: b584 4d3e d9cb c0bc ca61 00be 1600 373e
000000f0: e9bc 64be d83f 4fbd cd1d 1bbe 2e43 5cbe
-0.17424113 -0.06096575 -0.18647374 -0.1328328 0.19257677 0.041127574 -0.19403951 -0.07735322
-0.13390115 0.20498306 0.09603522 0.040790524 0.11836799 -0.093820654 -0.17236005 -0.25364882
0.04955018 0.024924235 -0.049333345 -0.004617586 -0.056748156 -0.08838164 -0.23359153 0.032731578
-0.014651373 -0.2263358 -0.07833885 0.07461949 0.23024788 0.0948691 0.047003627 0.03817774
0.12870769 0.053324755 0.12899923 0.19154277 0.049837768 0.068200335 -0.23306014 -0.23751204
-0.23528261 0.17594767 0.11604795 -0.11909071 -0.1981223 0.14323135 -0.09511371 0.23090312
-0.20459862 -0.2202068 0.10898222 0.17353249 -0.12297876 -0.11108649 -0.10132579 -0.1260954
0.20070155 -0.023534702 -0.12537304 0.17871127 -0.22337689 -0.050597996 -0.15148087 -0.21510002

lstm1_1.weight_ih_l0_reverse f4 [64, 32]
00000000: f18b 1c3e ac10 d33d a2b7 a63e d478 943d
00000010: e899 6abe 7046 b0bd 48b1 013e c275 06be
00000020: 2b8d 823e 355f 54bd 86e5 b7bd 251c 7b3e
00000030: 547d 813d 8088 08bc 3c53 9b3d 9b13 4c3e
00000040: dec3 2dbe 3029 9dbc 4edd 89bd f3e0 903e
00000050: e372 a33e 58b4 5fbe ead0 12be dd5a f1bd
00000060: 6f09 5d3e 57d8 d83d 9d07 403e 12fd 1bbe
00000070: ac87 2f3e d2b4 0f3d c430 0bbd a499 8e3e
00000080: 2ac5 113d 68c7 e13d e7ad 33bc 3047 efbc
00000090: b0b7 ae3d e253 6c3e cfb5 1cbe 4823 dcbd
000000a0: dfb5 c93b e818 51bd ab78 203e 7c0f c8bd
000000b0: 18c2 5b3e 0016 c13a 34eb b73d da16 c63d
000000c0: 80fa 163e d06f 8dbc 6552 653e 61df 4f3e
000000d0: 7eaa 333e 4b33 8f3e 84ae b8bd 2fbd 803e
000000e0: 95b7 2c3d 7522 edbd 8b5a 22be 8ad9 2ebe
000000f0: 705c b0bd c052 0bbd 2375 46be a597 8bbd
00000100: ea01 94bd 408c 2dbd 7f3b 3e3e 886d 343d
00000110: 80d5 663b 00fe 72bb 1970 653e 7750 be3c
00000120: 858f 193d 393c 2ebd b138 6cbe 9a98 1c3e
00000130: 5239 12be 0841 863d 6678 093e 7ab4 11be
00000140: 5433 0fbe 18f0 123e 2d74 8ebc 0066 39bd
00000150: 139a aebd 9152 273d 2b24 11be da2f b0be
00000160: 29ff c2bd 7b57 8e3e 9669 d73d 159c 36bd
00000170: 4ff7 04be 3341 32be ab66 763d e12e 883e
00000180: 3322 8b3e bc3d 0a3e 1448 913c e024 763e
00000190: 8212 0f3e ca0e 383e 93bd 1f3e 81a7 413e
000001a0: 430b 823e 57e9 0b3e dcd4 7cbd 7bce 153d
000001b0: 250e 13bd 20e5 5b3d 5328 08bd f869 753e
000001c0: 809f 2ebb b0fa 8ebd b174 9a3e 1f67 12be
000001d0: f877 e2bd 0132 1d3f b563 20be 5307 623e
000001e0: 12ef 0cbe 0abb 633e 875f 203e 1df1 3b3e
000001f0: 9766 193e 8870 803e 95e3 283d 8661 733e
00000200: 6151 10be c8f2 5e3e fa5b 3ebd ac68 88bd
00000210: 60f4 463e e8dc 6b3d 37cb 913e 1517 8d3d
00000220: 17f4 693e ccd3 e3bd 4c4b 85be 0d53 5bbe
00000230: 4687 c4bd aef3 2ebe 5f83 18be 1f25 373e
00000240: 04a9 da3d 4e4d 4f3e 3784 443e 6ae4 a53c
00000250: 4b8e 3dbe 39b5 50bb ae44 5fbd db97 8abe
00000260: 0011 86be be36 e43d 2be3 613d 1212 1f3d
00000270: 76db a23d 562b e13c d573 e33d cb34 193e
00000280: 09d4 74bc 5041 a9bd 7c58 b23e 78e6 7a3e
00000290: 8e2d 343e e0fc cb3c 1993 783e f6f9 70bd
000002a0: d239 a33e e3f1 2f3d a0b0 943d 6955 b83c
000002b0: c441 533e 50a6 433e 6f73 0b3d 90f1 df3d
000002c0: b643 4cbe 7089 fbbc ef62 ffbc ee15 883e
000002d0: 921b af3d 5d45 0c3e e149 7a3e 632d d53d
000002e0: 2028 bb3c a613 dbbb 25fe 02be 3361 733e
000002f0: 051c 853e a140 1c3e 5b10 563e ddb1 853e
00000300: 4682 823d c01a 65be 0f29 ef3c 566e 09be
00000310: 8acf 293e 60af 57bc 8a33 1fbe bf1c cc3d
00000320: 8231 3abe c09e 173e da9a 1d3e 9eda 523e
00000330: e495 5fbe 2074 1e3e 2363 f73d b27b 5cbd
00000340: 325f 09be e603 1dbe 779d 04bc ff6b 4a3c
00000350: 567d 033e 8c83 20be 9bad c6bd 8764 e4bd
00000360: 4091 3d3e 423a 2fbe ca50 4c3e 48b3 72bd
00000370: 9098 32be 3804 a63d 3fd9 e33d 62f0 ffbd
00000380: 146c 0fbe e8ea d83d 212d 893d a071 b23d
00000390: 38f2 8abd bce0 d1bd 8c61 67be bdeb 0fbe
000003a0: 8958 3fbe c0b0 543d 0105 37bd 87f4 933d
000003b0: fecd 863d e499 4abe d163 b93d 4c57 35bc
000003c0: 88af 2a3e 3889 f33d 00a8 19be 6f2f 31be
000003d0: c2e3 ba3d 10eb 203d 8b1c c33b 2bb2 55bd
000003e0: 4872 9dbd dab2 ba3d 3f87 c2bc 6dd3 293e
000003f0: 93c2 b03d cd16 5abe 6a8e 2f3e ece8 a93a
0.15287758 0.10305914 0.32561976 0.07249609 -0.22910273 -0.08607185 0.12665284 -0.13130859
0.25498328 -0.05184861 -0.08979325 0.24522455 0.063227326 -0.008333325 0.07584235 0.19929354
-0.16969249 -0.019184679 -0.06731664 0.28296623 0.3192359 -0.2184614 -0.14337507 -0.11784909
0.2158563 0.105881386 0.18752904 -0.15233257 0.17141598 0.035084553 -0.033982053 0.27851593
0.03558842 0.11024362 -0.0109667545 -0.02920875 0.08531129 0.23078874 -0.1530373 -0.10748917
0.006155714 -0.051049143 0.15671031 -0.097685784 0.2146076 0.0014731288 0.08980408 0.09672327
0.14743996 -0.01726523 0.22394712 0.20300056 0.17545506 0.2796882 -0.09017661 0.25144336
0.042167265 -0.11578838 -0.15854852 -0.17075172 -0.08611381 -0.034014463 -0.19380622 -0.06816033
-0.072269276 -0.04237008 0.18577383 0.04404977 0.003522247 -0.0037077665 0.22406043 0.023231728
0.037490387 -0.0425379 -0.23068501 0.15292588 -0.14279678 0.065553725 0.13424835 -0.14229003
-0.13984424 0.14349401 -0.017389381 -0.04526329 -0.08525481 0.040850226 -0.14173953 -0.34411508
-0.09521324 0.27801117 0.10518186 -0.044582445 -0.12984966 -0.17407684 0.060156506 0.26598266
0.2717453 0.13500112 0.017734565 0.24037504 0.13971904 0.17974392 0.1559966 0.18911554
0.25399217 0.13663231 -0.061726436 0.03657387 -0.03590216 0.053685308 -0.03324158 0.23966205
-0.0026645362 -0.069814086 0.30167153 -0.1429715 -0.110580385 0.61404425 -0.15663035 0.22073106
-0.13763073 0.22239318 0.15661441 0.18353696 0.14980541 0.25085855 0.041232664 0.23767671
-0.14093544 0.21772301 -0.046474434 -0.066605896 0.19429159 0.05758372 0.28475353 0.06889168
0.22847019 -0.111243814 -0.2603401 -0.214184 -0.09596114 -0.17085144 -0.14893864 0.17885254
0.106767684 0.20244333 0.19191061 0.020250518 -0.18511312 -0.0031846298 -0.054508857 -0.27068982
-0.26184845 0.11143254 0.055148285 0.038835593 0.07952015 0.027486484 0.111060776 0.14961545
-0.014943131 -0.082644105 0.34833133 0.2450198 0.17595503 0.024900854 0.24274863 -0.05883213
0.3188005 0.04295529 0.07260251 0.022501664 0.20630556 0.19106412 0.034045633 0.10934746
-0.19947705 -0.030705184 -0.031175105 0.2657923 0.085501805 0.13698335 0.24442245 0.104090475
0.022846282 -0.006685692 -0.12792261 0.23767547 0.2599794 0.15259029 0.20904677 0.2611226
0.06372504 -0.22373486 0.029194383 -0.13420996 0.16583076 -0.013164371 -0.15547004 0.099664204
-0.18182948 0.14806652 0.15391102 0.20591208 -0.21834522 0.15473986 0.12079456 -0.053828903
-0.1341522 -0.15333518 -0.008094183 0.01235485 0.1284078 -0.15675181 -0.09701081 -0.111519866
0.1851244 -0.17112067 0.19952694 -0.059253007 -0.1744101 0.081062734 0.11125421 -0.12497021
-0.14006072 0.1059168 0.06698061 0.087130785 -0.06784481 -0.10247943 -0.22595805 -0.14054771
-0.18686117 0.051926374 -0.044682506 0.07224374 0.06582259 -0.19785267 0.090522416 -0.0110681765
0.16668522 0.11891407 -0.15005493 -0.1730325 0.091254726 0.039286673 0.0059543303 -0.052171867
-0.07687813 0.091161445 -0.023746131 0.16584559 0.08630862 -0.2129776 0.1714417 0.0012963093

lstm1_1.weight_hh_l0_reverse f4 [64, 16]
00000000: 8d1b febd e00e 01be 65d1 95bd 18ca bbbb
00000010: cb13 edbb 4720 03be 3efe 993d f795 873d
00000020: 8d90 373d 292b 59be e451 41be 99fe debe
00000030: 3416 043e 4e1f 0cbe b752 dd3d 5799 a1bd
00000040: 2c2d 39bd 14d0 0a3e 23a3 083d 6420 4fbd
00000050: c897 a6bd f183 71be 91cf da3c f541 69be
00000060: 7c81 8dbd f34b 683e 66d0 4b3e 82b0 213e
00000070: 074f f5bd 51bd bc3d 259e 5dbe c4a1 d73c
00000080: bed2 933e fc8e 60bd 686e a83d 58ea a73d
00000090: ddc5 8dbe 5a06 41be 6295 6c3e 4951 8bbe
000000a0: 2043 5a3c 090d e6bd 937e 343e 7a4f b6bd
000000b0: 3744 443e 50cd 5d3e bf54 07be 9008 0f3e
000000c0: 5c44 03be 5866 98bc e6dc 0c3e c0a0 d93d
000000d0: cf45 d13c e695 c73c f831 dcbd d6cd 043d
000000e0: a67d 833e 86c0 8bbe c5c8 d1ba d770 af3e
000000f0: d4cc 293e 17a8 f33c 2cf5 96be ac21 0c3e
00000100: 8eb2 28be 2df1 963c f9f9 47bd 92de 8d3b
00000110: dde5 6b3d 02d1 39be 8352 18be ee1c 3dbd
00000120: d67d 1d3e 8bda 27bd 7195 ecba b1fa 24be
00000130: b35d 343e 011e c8bd ddcb 0a3e 377c 863e
00000140: bb49 47be 5ff2 81be 831e f2bd 73af a33d
00000150: 1e2a 1b3e 71a3 103e b746 d53c 724f 0a3e
00000160: 6c5c 25be 5f3e 0cbe e02f 693e eaad 7e3e
00000170: 113a 843e 1a20 553d b47e bd3e 92c6 7bbe
00000180: 6c58 9abb 9a92 50be 8f84 40be 9c4f 63be
00000190: a5f8 313e 12c7 6a3d 2349 123e ece5 4c3e
000001a0: 83be 533c 53cd 813e db42 0d3e b2c7 25bc
000001b0: 6e30 2cbe 37c6 463e dddc 1c3e 10e5 9abd
000001c0: 6b79 91bc 1e87 483e 1bf0 61be 2c84 15be
000001d0: f434 2c3e a9d7 1b3e 008a e73c c229 c23c
000001e0: 8f51 a2be fc94 a1bc f10a 733c aa2e 59be
000001f0: 60c6 a13d fd6a c03d 5bdc d33d ce81 443e
00000200: f738 39be d1c2 fd3d 2404 3c3d 079e 92be
00000210: 9200 8c3e 782a 1c3b 1719 e0bd 7337 0fbe
00000220: 1ba9 d0be a239 193e 1451 8abe 2333 f8bd
00000230: c5ca 92bb e976 0f3e f5b3 3abe 74bc b53e
00000240: 9a4c 1e3e c924 9cbd fde4 4c3e b214 7bbe
00000250: 23f9 0b3e 487f 693e f382 283d 9041 963e
00000260: bc98 0fbe f510 0cbe 2829 3e3d ba32 fdbd
00000270: d3e9 493e 52fc 6ebd 918c 09be 4717 e73d
00000280: 2cfb 713e 0a67 0f3d 22e3 ff3d 78a4 903d
00000290: 4c79 23bd a8c6 d33d bc04 173e 147e aabc
000002a0: cd66 6c3b 317d 04bd e437 36be 47d0 2f3e
000002b0: 304a aebd c4bf 083e 8f74 c63d 2031 153e
000002c0: 05b5 5f3e c0ca 183d e4f2 6d3c 4700 fdbd
000002d0: 3252 023e 8a01 d8bd ad71 37bd dcc5 5bbc
000002e0: d5af 8fbe 41b4 bd3d 84cf 963c a43c 82be
000002f0: 7b4f 663e 2978 29be 4d7c 89be 9590 783e
00000300: 51ae 2b3e 8bb9 63be 62d6 83bd 3bff c8bd
00000310: 7d60 83be 6cce 2ebe 2d14 813e c81a 76be
00000320: d60f 37be f5c5 183e bc6f 4d3e a74e bf3c
00000330: 3cd5 01bc c16a 5b3e 7700 b33d 50a8 27be
00000340: 7dcf 00be febf 0f3e 5892 c23d 5416 89bd
00000350: 6a27 3dbe 8505 c53d f815 133d 6e11 c5bd
00000360: 091b 87be 6685 a2bd cc0b 48be 7c6d 6dbe
00000370: a970 c0bd 8b1b c63d a15d 07be 95eb 15be
00000380: e4d2 1d3e 071a 5fbe 2c98 da3d 9188 2dbe
00000390: b039 35be 82fe 24be a348 543e 3344 74be
000003a0: ab16 a23d cefb de3c b6d4 26bd df14 f4bd
000003b0: 4ebd 48bb eb83 17be d995 293d 8701 fdbd
000003c0: 91c3 e83d e812 023e 5c95 04be f186 8d3d
000003d0: 61f3 4e3e e372 7dbe 253f 0fbe e3f3 12be
000003e0: 8c9b 6cbe 37b4 b5bd b2f1 aabe 03dd bcbd
000003f0: c4c6 45be 3550 743e 9e1b b6bd ef9c 4b3d
-0.12407599 -0.1260333 -0.073153295 -0.0057308786 -0.0072350255 -0.12805282 0.07519196 0.066204004
0.04481559 -0.2120787 -0.18878895 -0.43553618 0.12899095 -0.13683817 0.10806792 -0.078905754
-0.045209095 0.13555938 0.033358704 -0.050568 -0.08134419 -0.23585488 0.026710304 -0.22779067
-0.06909463 0.22685222 0.19903716 0.15789989 -0.11977964 0.09215797 -0.21642359 0.026322253
0.2887172 -0.05482386 0.08224183 0.081989944 -0.2769002 -0.18850079 0.2310386 -0.27210453
0.013321668 -0.11232955 0.17626409 -0.08901878 0.19166647 0.21660352 -0.13215922 0.1396811
-0.12819046 -0.018603489 0.13756141 0.10626364 0.025545983 0.02436347 -0.10751718 0.032422863
0.256818 -0.2729532 -0.0016005269 0.34265777 0.16582042 0.029743237 -0.29483926 0.1368472
-0.16474363 0.018425548 -0.048822377 0.004329511 0.05759226 -0.18146136 -0.14875226 -0.046170168
0.15380034 -0.040979903 -0.0018049908 -0.16111256 0.17613868 -0.09771348 0.1355433 0.26266643
-0.1946172 -0.25380227 -0.11822226 0.07992449 0.15152785 0.14124848 0.026034696 0.13506868
-0.16148537 -0.13695668 0.22772169 0.2487103 0.2582555 0.052032568 0.3701073 -0.24587467
-0.0047102477 -0.20368424 -0.18800567 -0.22198337 0.17380007 0.057318754 0.14285712 0.20009583
0.0129238395 0.25351962 0.13795035 -0.010118412 -0.1681535 0.1941155 0.15318628 -0.075632215
-0.017758092 0.19582793 -0.22064249 -0.14601201 0.16817075 0.15218987 0.028264046 0.023701552
-0.3170285 -0.019724362 0.014834152 -0.21209207 0.07899165 0.093954064 0.10344764 0.19190142
-0.18088137 0.12390674 0.045902386 -0.2863619 0.27344185 0.0023829024 -0.109422855 -0.13985996
-0.40754017 0.14963391 -0.27014983 -0.121191286 -0.0044797384 0.14010204 -0.1823271 0.3549534
0.15458909 -0.07624204 0.20009227 -0.24519613 0.13669257 0.2280246 0.041140508 0.29346895
-0.14023107 -0.13678344 0.04642597 -0.12363191 0.19718103 -0.0583461 -0.13432528 0.11283737
0.2363097 0.035010375 0.12494494 0.0706262 -0.0399106 0.10340625 0.147479 -0.020812072
0.0036072016 -0.032345954 -0.17794758 0.17169295 -0.08510244 0.13354403 0.096902005 0.14569521
0.21846397 0.037302732 0.014523242 -0.123535685 0.12726668 -0.105471686 -0.044786144 -0.013413873
-0.28063837 0.09262896 0.018409498 -0.2543689 0.22491257 -0.16549744 -0.26852646 0.24273904
0.16765715 -0.22238748 -0.06437375 -0.09814306 -0.25659552 -0.17070931 0.25210705 -0.24033654
-0.17877135 0.14919265 0.20062155 0.023352934 -0.007924374 0.21427442 0.08740323 -0.163728
-0.1257915 0.14038083 0.09500569 -0.06693712 -0.18472067 0.096201934 0.035909623 -0.09622465
-0.26387814 -0.079356 -0.1953575 -0.23186296 -0.09396488 0.09673222 -0.1321931 -0.14640649
0.1541248 -0.21787272 0.10673556 -0.16946627 -0.17697787 -0.16112712 0.20730834 -0.23854141
0.0791448 0.02721968 -0.0407302 -0.11918043 -0.0030630413 -0.14796416 0.04140267 -0.12353807
0.11365426 0.12702525 -0.12947601 0.06910504 0.20210029 -0.24750857 -0.13988931 -0.14350848
-0.23106211 -0.08872264 -0.33387524 -0.09221842 -0.19314104 0.23858722 -0.08891986 0.04971021

lstm1_1.bias_ih_l0_reverse f4 [64]
00000000: 44a4 103e a8ae 003e 18b3 b1bd f5f8 65bd
00000010: 4bb5 e13d 0162 d93d e8a0 febd 7cef 01bc
00000020: dfb5 9a3e 01df 47bd 952c b13d d917 cf3d
00000030: 6e35 bdbd 5fb3 4c3e 9b13 28be 2104 573e
00000040: 1a84 06be 2ccd 2c3d a9c4 26be 0b9c 823e
00000050: bc27 39bd 765b 933e 9442 bc3c 408c 71be
00000060: 1dae c13e b7d4 54be 4b9d acbd ffab 143e
00000070: 0b40 cb3d 6c40 3a3e ac7a a63d b82e e83d
00000080: 460a 51be abbe a4bd b329 e73d bd58 2ebc
00000090: e55f 60be 907e e2bc 068c 34be 8ac0 66bc
000000a0: 6f17 4ebe caee 793c 207d f8bd 442d 953d
000000b0: 07bd 33be 89ac 13be ed5b b3bd 203e 45be
000000c0: 825c f93d 9a20 493e 6588 2f3e ad4e 7d3c
000000d0: 5f02 c63c 9e0c a93e 720d 67be ca94 54bd
000000e0: 13d4 93bd de83 32bc 5e7d 713e 71df b83e
000000f0: 8084 22be 2299 6d3d e6fe 3ebc 8b31 c7bd
0.14125162 0.12566626 -0.086767375 -0.056145627 0.11020907 0.10614396 -0.12433034 -0.007930633
0.30216882 -0.048796657 0.086510815 0.101119705 -0.092387065 0.199903 -0.16413729 0.20997669
-0.1313633 0.042187855 -0.16285957 0.25509676 -0.04520391 0.28780717 0.022980966 -0.23588657
0.3782815 -0.2078427 -0.08428439 0.14518736 0.099243246 0.18188637 0.081288666 0.11337036
-0.20414075 -0.080441795 0.1128725 -0.010641274 -0.21911581 -0.02764824 -0.1763154 -0.014083991
-0.20126127 0.015254686 -0.12133241 0.07284024 -0.17552577 -0.14421286 -0.08757768 -0.1926198
0.121758476 0.19641343 0.17141874 0.015460652 0.024171053 0.3301744 -0.22563723 -0.05189971
-0.07218184 -0.010895697 0.2358298 0.36107972 -0.15870857 0.058007367 -0.011657452 -0.097262464

lstm1_1.bias_hh_l0_reverse f4 [64]
00000000: c085 b6bd ae3b 0f3e ce7a 393e b7ab 9a3d
00000010: e1c0 bebd 88cf 47bd 8e68 6c3e c6b4 e4bc
00000020: a3a5 253e 9387 f6bd ea2e bdbd 663a f83d
00000030: ad79 74be dfc1 51be e79c 33be df7d 573e
00000040: dd2a 8f3e cde9 193e 218a 0b3d ca74 003d
00000050: c0e6 00be 8696 bb3d 4d4c 97bc 9b5a 613e
00000060: bea7 7c3e b16f 0a3d 7eb7 673e 196d d53e
00000070: a9c7 9bbd d096 873d a2dc f63d f385 623e
00000080: 9d59 d73d 0949 44be 94c9 883c d84a 32be
00000090: fff4 3abe 0eec d1bd 8f9a 8f3d 2032 59be
000000a0: 6dc2 733e 6395 f23c 580f 59bd 4452 f9bc
000000b0: 403a 57bd a734 803e c0c0 003e fc91 fa3d
000000c0: 2d0a 7abd f878 82bd 983f 793e 5034 42bd
000000d0: fa79 0ebd 876e 87bd 6292 443e d599 c33c
000000e0: e53c 353e 8a6e 003d fa9a 7d3e 9011 163e
000000f0: b2a0 723e 896e e13c f3e0 733e 9333 6cbd
-0.089122295 0.1398761 0.18113253 0.07552283 -0.093141325 -0.0487819 0.2308676 -0.02791823
0.16176467 -0.120375775 -0.09237464 0.121205136 -0.2387454 -0.20484112 -0.17540322 0.2104411
0.2796239 0.15030594 0.034067277 0.03136138 -0.12588024 0.091595694 -0.018469 0.2200722
0.24673364 0.033797923 0.2262859 0.41684797 -0.076064415 0.06620562 0.12053801 0.2212141
0.10515139 -0.19168486 0.016697682 -0.17411363 -0.18257521 -0.10250102 0.070119016 -0.21210527
0.23804636 0.029612249 -0.05299315 -0.030434735 -0.052545786 0.2504017 0.12573528 0.122348756
-0.06104486 -0.06370729 0.24340665 -0.04741317 -0.034784295 -0.06612878 0.19196466 0.023877064
0.1769901 0.03135542 0.2476615 0.14655137 0.23694113 0.027518528 0.2381628 -0.057666373

lstm1_2.0.weight f4 [32, 32]
00000000: b032 e1bc 99f0 933d 8eca 54bd b2d2 35be
00000010: 2991 a9bd 4150 cebd 49ea be3d b086 e9bc
00000020: f277 cebc d73e 163e 9d4b 4b3d 0a9f 933d
00000030: 0648 46bd c325 aebc 0586 b03d 53e7 2bbe
00000040: 5e9d 093d 5b00 c73c e64b 0f3e 6de1 debd
00000050: d673 043e 7220 0e3e 1617 9c3c 6e52 853d
00000060: 6c21 5e3d f14e e43b ac96 263e 3d9e 893d
00000070: 20bb bc3d 7c9b 6e3d 1dd8 8a3d a368 1dbe
00000080: cfe8 24bd fcf0 1b3e 43a6 e2bd 27ca 08be
00000090: 52b9 1dbd 35b9 b4bd 8d64 8b3d 18d5 1dbd
000000a0: a7de d7bd 6617 643d 29ba 3cbe 9ae6 1ebe
000000b0: 6229 1d3e d36d 08bd 9597 a23d 8255 1bbe
000000c0: b2ce 38bc 04df 113c a86e 2f3c 7050 723d
000000d0: 1ebe 02be 7af3 7e3d 6eef f6bc 84c6 2b3d
000000e0: 065b 263e 8a31 2b3e 836f 143e 6732 bbbd
000000f0: fab9 1b3e c55a 863d 0800 193d 1da2 34bc
00000100: 70bc 05bd 95e9 ec3d f57a eebd f80f 923d
00000110: 8a1d 373e a2f2 e73b 6d6b e8bc 639c 103e
00000120: db2c 25be 482d 9dbd ed66 e4bc 7312 2f3d
00000130: a2b5 113e 6f9d 2c3e 3117 103e 8bff a6bd
00000140: 8c7e d3bd 8db4 4d3d f8b0 f1bd 07b6 c4bd
00000150: 5caa 613c f3ad 1d3d ee35 eb3c eb0d 3e3e
00000160: ea82 423e 9a7d 8ebc 5f84 033d 3c5c a3bd
00000170: 5a34 04be 55c0 113e 037d c23d ff24 693d
00000180: 943c 593e 3377 da3d 7909 96bb a844 e53d
00000190: 9a37 ba39 b449 1f3d fb57 c1bd d3da 81be
000001a0: aa5c 44be ef61 e6bc 097e 13bd 3ed1 af3d
000001b0: 0a11 0ebe 8244 d1bd f342 02be fd46 953d
000001c0: 6be5 9b3d bc7d 5a3e 579e 863c 0f76 833d
000001d0: 343c 043d d04b 04be 5e1c cf3d e1c1 153c
000001e0: c46e 3cbe d848 03be 71e0 513e a74d 1ebe
000001f0: c067 c4bd 5dfa a7bc 2b6b 1abe 71c0 943e
00000200: 6c0c 01ba 5864 01bc c574 5c3d 4f82 e8bd
00000210: a118 d9bd 0d78 5cbd 07ac ad3d 79d2 903e
00000220: 91dd 363e a34d 59be 0da3 be3d bd11 b3bd
00000230: b8e7 093e d5e3 b23d 209c 933c cc85 80bd
00000240: b968 83be b49a 1abe 1950 47be 57f7 283d
00000250: 1d4d e93c 1321 a03d 3d68 7fbe c6f1 b83d
00000260: 2ed9 033e 75dc 4ebd 610e 06bf 9398 933e
00000270: da8f 183f 3a12 00bf d3c8 6d3e b9af f8bd
00000280: c3e7 463d 38c8 443d db18 033e a55c debb
00000290: 0190 3dbe d52c 213d f9c4 3fbe a5a4 8fbd
000002a0: a634 1b3e 746c c2bd c5ac 27be e2bc 02be
000002b0: c36b 3f3c 9869 4f3d 246d e13d 9c11 343d
000002c0: 6e02 743d aee1 2f3c 1ba0 233e 0896 dfbd
000002d0: 1fe8 253e 34a4 e8bb a136 b4bd f5d5 30bd
000002e0: 0c78 733b 5390 4cbd 7e2c c7bd dd5a 9b3c
000002f0: f7c6 26be 7d6f f83c f51c 1f3e 617b a0bc
00000300: 5298 3abe 4d63 9b3d e8cf 1fbe be86 97bd
00000310: 1cbd 81ba 5212 00be 6553 e2bc 8608 d33b
00000320: add3 cfbd a88a 02be a9e3 50bd f704 413d
00000330: 346f 363e 68f3 85bc aed2 abbb 0590 983d
00000340: 2bd0 0cbe 93b2 78bd 6e7c 233e 0354 e0bc
00000350: 279d d6bc 8211 cabd d34e 4f3b d356 863d
00000360: fa83 14be d1ef f53d 96f0 3d3d 7c36 d1bd
00000370: 6400 86bc 866b 21be e863 e8bd 1cab 68bd
00000380: a9c2 f53d ae04 f13d 872c 25be 6af4 22be
00000390: f725 933c 0e9e 0e3e f513 34be a9f1 81bb
000003a0: 0002 f6bd 2249 293e be1e 2fbe 4409 163d
000003b0: 0c8d 193e 7886 f9bd e828 f33c b8d5 00be
000003c0: ef4f 0abe 3df6 85bd 6c8e cd3d ca17 12be
000003d0: f5b3 8f3d 63e6 cebd b372 c5bd e9cf c03d
000003e0: c3d6 5b3d aabe 05be 6979 893d e817 c03d
000003f0: 1009 3dbc cd04 fb3d 718f 223c 96be 1b3e
-0.02748999 0.07223625 -0.051950984 -0.17756155 -0.0827964 -0.10073901 0.0932203 -0.028506607
-0.025203679 0.14672409 0.049632657 0.07208069 -0.04840853 -0.02125824 0.08619312 -0.16787462
0.033597343 0.024292162 0.13993797 -0.1088284 0.12934813 0.13879564 0.019053977 0.06509863
0.054231092 0.0069674184 0.16268414 0.06719635 0.09215379 0.05825375 0.067795016 -0.15371947
-0.040261086 0.15228647 -0.11066868 -0.13358365 -0.038506813 -0.08824388 0.06806288 -0.0385333
-0.105405144 0.055686377 -0.1843039 -0.15517655 0.15347818 -0.03330786 0.07939068 -0.15169337
-0.011279749 0.008903269 0.010707535 0.059158742 -0.12767836 0.062243916 -0.030143466 0.041937366
0.1624566 0.16718116 0.14495663 -0.09140473 0.15207663 0.06560282 0.037353545 -0.011024979
-0.03265041 0.1156799 -0.11644546 0.07131952 0.17882362 0.0070784846 -0.028371537 0.14122157
-0.16130392 -0.07674652 -0.02788111 0.042742204 0.14229444 0.16856931 0.14071347 -0.0815421
-0.10326871 0.050221015 -0.11801332 -0.096050315 0.013773527 0.03849597 0.02871224 0.18559997
0.18995252 -0.017393876 0.03210866 -0.07976577 -0.12910596 0.14233525 0.094965 0.056920048
0.21214515 0.10667267 -0.004578766 0.11194736 0.0003551811 0.03888865 -0.09440609 -0.25362262
-0.19175974 -0.02812287 -0.03600887 0.08584832 -0.13873687 -0.10218145 -0.12720852 0.072889306
0.076121174 0.21337026 0.016432924 0.06419002 0.032283977 -0.12919545 0.101128325 0.009140463
-0.18401629 -0.12820756 0.20495774 -0.1545931 -0.09590101 -0.020505125 -0.15079944 0.2905307
-0.00049228105 -0.007897459 0.053822298 -0.113529794 -0.10600401 -0.053825427 0.08480077 0.28285578
0.17857958 -0.21221022 0.09308443 -0.08743618 0.134673 0.08734862 0.018018782 -0.0627552
-0.25665835 -0.15098077 -0.19464149 0.041251507 0.028479153 0.078188084 -0.24942107 0.090304896
0.12875816 -0.050503213 -0.5236569 0.28827342 0.595945 -0.5002781 0.2322114 -0.121428914
0.04856087 0.048042506 0.1280245 -0.0067859464 -0.18511964 0.039349396 -0.18727483 -0.07013825
0.15156803 -0.09493342 -0.163745 -0.12767366 0.011683407 0.05063781 0.11007145 0.043962106
0.05957263 0.010734959 0.15979044 -0.10917288 0.16201828 -0.0070996527 -0.08799482 -0.043172795
0.003715041 -0.049942326 -0.09725283 0.018964225 -0.16286837 0.0303266 0.1553839 -0.019590082
-0.18222168 0.075872995 -0.15606654 -0.07398747 -0.0009898278 -0.12506989 -0.027627656 0.006440225
-0.10147796 -0.12748206 -0.050998364 0.047123875 0.17815858 -0.016351417 -0.005243621 0.074493445
-0.13751285 -0.060717177 0.15965435 -0.02738381 -0.026197983 -0.098666206 0.0031632676 0.06559529
-0.1450347 0.12008632 0.04637202 -0.1021547 -0.016357608 -0.15763673 -0.113471806 -0.056803808
0.12000019 0.11768471 -0.16130267 -0.15913549 0.017962439 0.1392748 -0.17585738 -0.0039655757
-0.120121 0.16531804 -0.17101571 0.03662993 0.14995211 -0.12183851 0.029682592 -0.12581527
-0.13507055 -0.06541107 0.100369304 -0.14266887 0.07016746 -0.101025365 -0.09641018 0.09414656
0.05367161 -0.13061014 0.0671261 0.0937956 -0.011537805 0.12256775 0.009921894 0.15209422

lstm1_2.0.bias f4 [32]
00000000: 178f 31be 65e1 de3d 2c62 bc3d c065 893d
00000010: 7cde fbbd 9ac4 0cbd 6dbc 0e3e ca13 00bd
00000020: d045 1dbe 9e5b 203d ab64 ab3d d6b1 593d
00000030: bebe 30bc d707 cb3d c8b6 e43d 93fb 953c
00000040: a1a3 12be 0122 5cbc af02 473a da9f bfbd
00000050: 5966 f2ba b925 8abd 3a95 8b3c 3541 9ebc
00000060: a397 0ebd 4e08 46bd ab01 0b3d d4f0 edbd
00000070: fb4e 8e3c 3e78 3abe 4489 ea3d 335b fd3d
-0.1733974 0.10882834 0.09198412 0.067088604 -0.12298295 -0.03436718 0.13939066 -0.031268872
-0.15358663 0.039149873 0.0836881 0.053148113 -0.010787664 0.09913605 0.11167675 0.018308436
-0.14320232 -0.013435842 0.00075916474 -0.09356661 -0.0018493637 -0.06745476 0.01703893 -0.019318203
-0.03481258 -0.048347764 0.033937138 -0.116182 0.017371645 -0.18209931 0.114519626 0.123709105
