results/voltage_window_effect/V(3.6-3.9)/Experiment4(40-CC-1)/from_Dataset 3_ft_model.pth (torch, 95756 bytes, 27 tensors)

cnn1.0.weight f4 [16, 1, 3]
00000000: 3325 f2be 8769 37be 42a1 eebe 8af2 04bf
00000010: 21ec 42be 5a9d 1dbe 788e a3be 1fb9 a23e
00000020: b37f 91be d2f6 203e 58f1 e5bd ee2a e13d
00000030: 57c0 fcbe b0db d0bc fd17 42bd cfa5 59bd
00000040: 60da 7b3e 5ea8 2cbe d0d8 7dbd 6c9f ce3d
00000050: 40e2 a73e e556 b6be 6656 5c3e 7612 cfbd
00000060: 02c7 03bd 4faa b7be 0279 c0be 922e a5be
00000070: 5cc7 393d 73bc 05bd e6f7 193f e4dc 433d
00000080: 7e35 313d bf1e dfbe 41ab 0d3f 3f4c c03e
00000090: a436 01be c1e7 b73e 1ec4 c6be 23d0 9a3d
000000a0: c6cf 0fbf 1c85 74bd 48e9 c4be 0f09 ad3d
000000b0: 02a1 fd3e a2d4 8e3d 685c be3e dcfe 173e
-0.47294006 -0.17911349 -0.46607405 -0.51932585 -0.19035389 -0.15392056 -0.31944633 0.3178186
-0.2841774 0.15719154 -0.11227673 0.10994516 -0.49365494 -0.02549538 -0.04738616 -0.053136643
0.24595022 -0.16861102 -0.061974347 0.10089001 0.32789803 -0.3561317 0.21517333 -0.10110943
-0.03217221 -0.35872123 -0.37592322 -0.32262093 0.04535614 -0.032650422 0.6014389 0.04781808
0.043263905 -0.43578145 0.5533944 0.3755817 -0.126185 0.35919002 -0.388215 0.0755923
-0.5617641 -0.059697255 -0.3845923 0.084489934 0.49536902 0.0697415 0.37179875 0.14843315

cnn1.0.bias f4 [16]
00000000: fb19 d53e 15f9 e2be 622c fabe e289 063f
00000010: 72b2 3dbe ff3d a23e 5edf ebbe c0b6 bebe
00000020: 3a4d 103b 2acf 923e bf65 6f3e c7b0 813e
00000030: 62c9 a73e 2d5d 0ebf ed4b 21bc f9ff ee3d
0.41621384 -0.4433066 -0.48861986 0.5255414 -0.18525103 0.31687924 -0.46068853 -0.37248802
0.0022018687 0.2867368 0.23378657 0.25330183 0.3277083 -0.55610925 -0.009844762 0.11669917

cnn2.0.weight f4 [32, 16, 3]
00000000: 86fc cd3d 049a a23b 4b08 843d 8aaf 09bd
00000010: e0c1 eabd ac35 2a3d a525 fd3d 6e50 12be
00000020: c00a 923b 8d87 99bc 63a7 f93d 8cff 18bd
00000030: 7007 503d e179 1ebd ae16 ce3d 681e 633c
00000040: d0a8 45bd a601 29bd 096f 01be f7e2 8ebc
00000050: 5a48 8cbd e4de 2fbd 4e4f 403c d26f c2bd
00000060: 9113 c0bd dfcc 09be 2de8 053e d8fa 873d
00000070: 108b 0d3e ac13 1fbb 5aa3 953d 3ebf 11bd
00000080: 43ba 333d cebb 8abc fbec 6d3d 1ad8 1d3d
00000090: 3820 90bc af93 ebbc 5ed4 2bbd b8c8 113e
000000a0: a71e b0bd 80cf c73d 7ae1 363d fa06 79bc
000000b0: b492 c23d 322c 6c3a d66c 08be a2ef 72bc
000000c0: d0af 80bd 4f97 b8bd 1de7 74bd 43ed a2bd
000000d0: 2697 cb3d f9df aabd 9a2d 26bd 6876 8f3b
000000e0: 6a54 da3b 7417 03be 4886 28bd 3a6b 0dbe
000000f0: 6e3a 10be 0acb cc3d 765c 75bd 2bae 3abc
00000100: 0a92 a23d 8da5 f7bd 8292 c33d 5a2b de3c
00000110: 5c9a bcbd 471d f5bc 6fc4 0b3e 4fef 2f3c
00000120: fad4 f9bd 4300 3d3c 3d32 fe3d 0ba3 913d
00000130: 324f f9bd 2186 d1bd 1ec2 e63d 65fd a73d
00000140: 42eb dfbd f3a6 babc a328 0dbe 7c5a 82bc
00000150: c54e 78bc a12c 0cbb e5a1 e4bd 24ec eb3c
00000160: 6781 683d 3dfe 85bd 5e22 163d 1587 7e3d
00000170: f7d1 573d 4010 f3bd b921 99bd 861a a63d
00000180: 22ee da3c ceb7 263d 10d8 8b3d 8ad9 d1bd
00000190: 5745 68bd 0e9d ad3d 492f 11be 21e6 a53d
000001a0: b6ab 1d3a a892 bebd 0b8f 87bc e117 ae3d
000001b0: 3a8a ba3d fd42 973d a897 5b3c a8c9 f7bc
000001c0: 0ce1 0ebd 4a21 22be 454c 943d b33e f53d
000001d0: 148d afbd 9585 ae3d 86e9 0fbe dd7e 3c3c
000001e0: 607f 76bd 2f3d c23d 0529 f03d 449e bcbd
000001f0: 0c17 10bb 66c0 403d 3b28 d2bd 4164 5f3d
00000200: 6643 a7ba 42d9 983c d605 233d 886c 06ba
00000210: f61c 8ebd 79de 00bc 2f50 8a3d ba53 f4bd
00000220: c7fc dd3d 938f abbc cd44 c5bd fbba e93c
00000230: 8fa5 1dbd b27a bc3d 63d0 6a3d e675 843d
00000240: 1ded fc3d 5bb9 e2bd 2f49 12bb 4e30 89bd
00000250: bc91 e43d 9e2f ebbd 2167 b0bd 2966 883d
00000260: e8a8 c53d 866f c7bb 4617 ac3d 54c4 423d
00000270: 53d8 efbd a450 bebd 3ad1 ee3d f53f 90bb
00000280: f000 ea3c ab95 ccbc 797a 68bd 3d0b fcbd
00000290: b212 dcbd 1f0c e0bd 650f 92bd c6b6 c8bd
000002a0: b14a 783d 9740 163c 1653 013d bf1d 48be
000002b0: 73ca 773c 4d61 cfbd 2391 b83d 4d10 87bd
000002c0: 0ab6 0f3e b69d 02bd 2263 1ebd 767a c33d
000002d0: 02f9 863d f949 2cbd be8e 0bbc fd2b ce3d
000002e0: 636d 933c 8d25 04bb fb41 c03d a251 733d
000002f0: ea09 283e 5cc5 e03c 6a10 023e 7906 8c3c
00000300: 229c c2bc 5c84 cdbd 3ee3 973d 86f0 363d
00000310: d7ab 093e 4557 aebc cee6 0bbe f197 3cbd
00000320: 3a49 a6bc 0006 74bd 0961 9c3c 1df7 c8bd
00000330: 8289 eebd 4ed0 10be e86a eb3d 154b 05be
00000340: fd4a e8bd a919 39bd 8e56 eabd b3a6 8b3d
00000350: 3453 26bd 714a c8bd ed8f 9e3d f1dd d13c
00000360: a1b1 ce3d 57f3 aa3d 8683 e03d b74e 613d
00000370: a604 f6bd 5049 553c 4f1b 90bd 3b44 f43b
00000380: 5272 203d c170 d5bc 4f25 edbd 46c4 5abd
00000390: 7db4 77bd 56b6 d73d 86f0 b6bc a841 1b3b
000003a0: 49db 8d3d 4959 2a3b cb22 fa3d 27b5 883d
000003b0: db92 023e fe09 9fbd a5ab c8bd 8a2e a33c
000003c0: 5c95 80be 1280 3abe 19de bcbc 6bed 0b3e
000003d0: d8ee cabb 8623 013e d414 23bd 8a58 f9bd
000003e0: d8d2 9abc f4d8 f23d 2ef5 943d 19cd 423d
000003f0: 2ac2 f6bc f938 ba3d 2097 d23c 83f0 8b3d
0.10057931 0.0049622077 0.06446894 -0.033614673 -0.1146276 0.04155509 0.12360696 -0.14288494
0.004456848 -0.018741393 0.121901296 -0.037353083 0.050788343 -0.03869045 0.100629196 0.01386223
-0.048256695 -0.041261338 -0.12640013 -0.01744221 -0.068497375 -0.042937174 0.011737658 -0.09493984
-0.09378732 -0.13457058 0.1307685 0.066396415 0.1382258 -0.00242732 0.073065475 -0.035582773
0.043878805 -0.016935255 0.05808733 0.03853617 -0.017593488 -0.028756944 -0.041950576 0.14236724
-0.085995965 0.09756374 0.044648625 -0.015199417 0.09500638 0.0009009271 -0.13322768 -0.014827641
-0.062835336 -0.09013235 -0.05979072 -0.0795541 0.09940939 -0.08343501 -0.040570833 0.004378129
0.006662895 -0.12801915 -0.041143686 -0.13810435 -0.14084789 0.09999664 -0.05990263 -0.011394064
0.07938011 -0.12092123 0.095494285 0.027120281 -0.09209129 -0.029921187 0.13649152 0.010738208
-0.12198825 0.011535707 0.12411926 0.07111176 -0.121733084 -0.10230661 0.11267494 0.08202628
-0.10933544 -0.022784686 -0.13785033 -0.015912287 -0.015155499 -0.0021388906 -0.111636914 0.028799124
0.056764033 -0.06542633 0.03665387 0.062140543 0.052690472 -0.11868334 -0.07477135 0.08110528
0.026724879 0.040702634 0.0682832 -0.102465704 -0.056706753 0.084772214 -0.14178194 0.08100534
0.00060146616 -0.09305316 -0.0165477 0.08500648 0.09108396 0.07385824 0.013402857 -0.030247524
-0.03488259 -0.15833011 0.0724111 0.119748496 -0.085718304 0.085215725 -0.14053926 0.011504856
-0.060180068 0.09484326 0.11726574 -0.09209874 -0.0021986393 0.047058485 -0.102615796 0.05453897
-0.0012761175 0.018658284 0.039800487 -0.0005127867 -0.069391176 -0.007865542 0.06753575 -0.11930032
0.10839229 -0.020942485 -0.09632263 0.028531542 -0.038487967 0.0920309 0.05732764 0.064678
0.12349913 -0.1107051 -0.0022321453 -0.066986665 0.11160609 -0.11483692 -0.0861342 0.066601105
0.09651357 -0.0060862927 0.084028766 0.047550514 -0.117111824 -0.09292725 0.116610005 -0.0044021555
0.0285649 -0.024973711 -0.056757424 -0.12306831 -0.10745753 -0.10939812 -0.071318425 -0.09800486
0.060618106 0.009170673 0.031573378 -0.19542597 0.015123951 -0.101259805 0.09012058 -0.06594906
0.14034286 -0.031888686 -0.03866876 0.09544842 0.06590463 -0.042062733 -0.008517919 0.10066984
0.017996496 -0.0020163984 0.09387585 0.059404023 0.16410032 0.027437858 0.12701574 0.01709293
-0.02375609 -0.10035011 0.0741639 0.044662975 0.13444458 -0.021281848 -0.13662264 -0.04604334
-0.020298589 -0.059576035 0.019089239 -0.09812758 -0.11647321 -0.14141962 0.11495 -0.13016923
-0.11342428 -0.045190487 -0.1144229 0.06818905 -0.040606692 -0.097798236 0.077422954 0.025618525
0.10092474 0.08347195 0.10962586 0.05500671 -0.12012605 0.013017967 -0.07036459 0.007454423
0.039171524 -0.026054742 -0.11579382 -0.053409837 -0.06047486 0.10532825 -0.022331487 0.0023690257
0.06926591 0.002599316 0.122136675 0.06675177 0.12751333 -0.07765578 -0.097983636 0.019919652
-0.25113952 -0.18212917 -0.023055123 0.13664787 -0.006193023 0.12611207 -0.039814785 -0.121750906
-0.018899366 0.11857787 0.07273327 0.047558878 -0.030121882 0.09092898 0.025706828 0.06832983

cnn2.0.bias f4 [32]
00000000: d4c4 2b3d 2838 d8bb 79a3 6cbc 8847 7f3d
00000010: 0e38 95bd 1147 0d3e 37ae da3d 6a5b f53d
00000020: 1a74 0cbe 896e cb3c 1d5c 92bd bd9b 8dbd
00000030: 380c 503d 622f 75bd 5f7b 8fbd 776f d63d
00000040: bad3 4a3d 28fb 05be d60a debd 3e4a 89bd
00000050: 1875 183c b5fe ec3d 4a29 89bc 9c49 b4bc
00000060: 6224 efbc acd4 97bc 2528 cbbc d58f f03c
00000070: e867 b63a a05b b5bd d2a0 013e 7e9a 0f3e
0.041935757 -0.006598491 -0.014443272 0.062324077 -0.07286082 0.13796641 0.1067776 0.119803265
-0.13716164 0.02483298 -0.071464755 -0.0691447 0.050792903 -0.05985964 -0.07005953 0.10470479
0.049518324 -0.1308409 -0.108419105 -0.06703614 0.009305261 0.11572019 -0.016743321 -0.022007756
-0.029192153 -0.018534027 -0.024799416 0.02936546 0.0013916465 -0.08855367 0.12659004 0.14023778

lstm1_1.weight_ih_l0 f4 [64, 32]
00000000: ae45 063e 6835 5c3e d170 383e 6263 6f3d
00000010: 7613 78be 84b8 82be 4209 a7bd e66a 7b3e
00000020: 70f8 a0bc 3d5b 023d 45f8 6ebe 6792 6d3e
00000030: 7468 e73d dfbc 263d 2681 b03e 7c2b 41be
00000040: 58c0 8e3d e4e6 613e 03da f1bd e45a fcbd
00000050: e858 a9bd f3f5 6b3d ec57 97bd 0cf9 7abc
00000060: 5e3c 343e a39b 2ebe 60b4 273e 292f 1fbe
00000070: b325 723e 4713 dc3a 94ba 0bbe 1865 7cbd
00000080: d1b8 29be e8df a43d 9b93 263e a94f 103e
00000090: d6ed 633e 8e21 623e e232 5a3e 16d9 12be
000000a0: 3425 523e 6db3 81be e659 86bd 13dd 743d
000000b0: 988e 2f3e 04db dabd 7788 6ebe c136 5bbc
000000c0: 1cff 95bd 3675 34be e61b 413e 88d0 083e
000000d0: c4f3 b2bd ba68 ce3d cbbf fbbd 74dc c4bd
000000e0: 6442 58be b667 e3bd 9c1a c43d dbb3 6d3e
000000f0: 816d 48be 5f63 af3e ca19 36be 23ae bb3c
00000100: 5d47 61be 4220 6abe b3c3 d83d 564e 7f3c
00000110: c81a 7bbd 06a7 7f3e db0b c73d 21c1 643e
00000120: aadc 3fbe 446c c2bd 792e 62be c580 0a3c
00000130: 6e22 903e 0652 2cbe b4eb f7bd 7527 02be
00000140: d0bc 453e cca9 21be bdf3 313e 20d2 c8bc
00000150: 5e8a 7a3e d9c0 b4bd 7211 6dbe 120d eabd
00000160: f8da 8a3d 87ae 8a3c 3267 693e eb9a edbd
00000170: 16c1 6dbe ef84 29be 2712 3c3d df17 a63d
00000180: 8c4a 023e c0c7 9b3d d3ac 063e cc67 443d
00000190: 10ac 28be 04ea 53be 2bb1 0e3e f4e0 f0bc
000001a0: d6a6 3fbe 9902 85be c977 49bd f6e6 343b
000001b0: 840a 95bd 04da 9abc 8d17 21be a73f 0e3e
000001c0: c4dc db3d 022d 1c3e 43ea a6bd d0cc bdbc
000001d0: 921d 0fbe bf2b 7dbe 54c5 53be bd7d 4fbe
000001e0: 107d 68bd 3057 eebd 1c8d be3d d0b3 b5bd
000001f0: ca68 50be 3895 17be 870e 82bd 3635 18be
00000200: dbd1 2c3b a4ff 24be b1eb 35bd 6b96 e23d
00000210: e422 e23d f89d 5abe 96d2 5abe 5e23 b53d
00000220: 66ec 413e 27c7 91be 523c 2bbd 281b 733e
00000230: 8fd6 1f3e c10b 393c 02f5 3c3d dd18 e43d
00000240: 6094 523d a624 7bbe eb1e 38bd a037 4bbc
00000250: e454 e13d 75c9 92be 816a 30bd 5e89 413e
00000260: 7c8f cb3d 54d1 7fbe 4827 1f3d 8a33 9b3b
00000270: c881 24be 1991 09be 44ac a4bc d102 8bbe
00000280: ae10 2dbe ac8b ccbd 3965 d4bd 709f 503e
00000290: 4c55 c43d fe67 263e 21c9 9f3d 00d7 0bbe
000002a0: 5875 293e 17d2 823d 8ab4 0bbe cd87 943d
000002b0: 9729 37bd 13b5 5bbe 51d6 b23d 86ea 403e
000002c0: 6056 07be 1c9e 283e 4fd7 b8bc 1a2b 56be
000002d0: 7c12 8c3d ffc5 3c3e 7f25 423e c249 2cbe
000002e0: d8d9 17bd 7031 0dbe 20db 253c 4911 b9bc
000002f0: 433e 5dbd 3971 183e 538b 513e 0788 91be
00000300: e7d4 c33d 081e 4ebe 3d6e 6bbe 49a8 1bbe
00000310: a61c 573e d1b7 4fbe 87a3 23be 1ea0 3abd
00000320: 4a2d 033e 77d9 55be 88bf c33c 8002 02be
00000330: ada0 523e ed19 d7bc e641 b23c b48d 68be
00000340: 5c3d f0bd 10ba e1bd 21c8 1c3e 2c85 b13d
00000350: 2e45 3abe 7efa d83d b433 23bd b25e 26ba
00000360: ba47 2d3e 6f68 8f3d 48e5 853d 3216 593e
00000370: eabe 273e 4c88 123e 17d0 733e 4429 9c3d
00000380: f477 243e 00df c0bb 7dac 1bbe 5954 10be
00000390: 8811 583e 2c58 323d 75f8 623d cd31 5fbe
000003a0: 52ae 6fbe 7fb4 d6bd 8162 1bbe 4762 13be
000003b0: 543b 5b3b a249 68be b67c 69be e4f1 cfbd
000003c0: aa0d 70be d07a 383d d5f6 923d c64c 5c3e
000003d0: f8ed 533e 8be2 293e 7d28 5dbc 4fe5 7b3e
000003e0: 6a83 6abe 482c 42be 906b 18bd bdd8 753e
000003f0: 7282 afbd 0bc7 903d 7491 083e 9c94 86be
0.13112518 0.21504748 0.18011786 0.05844439 -0.24226174 -0.255314 -0.08156063 0.24552497
-0.019649714 0.031825293 -0.23336895 0.2320038 0.1129922 0.040707465 0.34473532 -0.18864244
0.069702804 0.22060734 -0.118091606 -0.123220235 -0.08268911 0.057607602 -0.07389817 -0.015318166
0.17601153 -0.17051558 0.16377401 -0.15545334 0.23647194 0.0016790413 -0.13645393 -0.061619848
-0.16574408 0.08050519 0.16267245 0.14092888 0.22258696 0.22083113 0.21308473 -0.14340624
0.20522004 -0.25332204 -0.065601155 0.059781145 0.17144239 -0.10686305 -0.23294245 -0.013379754
-0.07324049 -0.17622837 0.18858299 0.13360798 -0.08737901 0.10078569 -0.12292441 -0.096123606
-0.21119076 -0.11103766 0.09575388 0.2321314 -0.19573022 0.34255502 -0.17783275 0.022910183
-0.21999879 -0.22863868 0.10584202 0.015582642 -0.061304837 0.24966058 0.09719058 0.22339298
-0.1873652 -0.09493306 -0.2208804 0.008453553 0.28151268 -0.16828164 -0.12105504 -0.12710364
0.19310308 -0.15787429 0.17378135 -0.024514258 0.24466845 -0.08825845 -0.23151186 -0.11428274
0.06780046 0.016928924 0.22793272 -0.11601814 -0.23218188 -0.16554616 0.04591575 0.08110022
0.1272375 0.07606459 0.13151865 0.04795055 -0.16471887 -0.20694739 0.13934772 -0.029404141
-0.18715987 -0.25978544 -0.0491865 0.0027603484 -0.07277396 -0.018902786 -0.1573164 0.13891469
0.10735467 0.15251544 -0.081501506 -0.023168951 -0.13976124 -0.24723719 -0.20680743 -0.20262809
-0.056759894 -0.116377234 0.09304258 -0.08872187 -0.20352474 -0.14803016 -0.06350427 -0.14864048
0.00263702 -0.16113144 -0.044414226 0.11063846 0.11041811 -0.21349323 -0.21369395 0.088446364
0.18937835 -0.28472254 -0.041805573 0.23740828 0.15609191 0.011294306 0.046132095 0.11137555
0.051411033 -0.24525699 -0.04495136 -0.012403399 0.1100252 -0.28669325 -0.04307032 0.18900058
0.09939477 -0.24982196 0.03885582 0.0047363685 -0.16065133 -0.13434257 -0.020101674 -0.27150586
-0.16900894 -0.09987578 -0.10370869 0.2037332 0.095865816 0.16250607 0.07802034 -0.13656235
0.1654867 0.06387728 -0.13643089 0.072524644 -0.044717398 -0.21455793 0.08732284 0.18839464
-0.13216543 0.16466564 -0.022563605 -0.2091488 0.06839463 0.18434905 0.18959616 -0.16825011
-0.037072986 -0.1378839 0.010123044 -0.02259125 -0.054014456 0.14886941 0.20463304 -0.28424093
0.09562092 -0.20128644 -0.22991271 -0.15200914 0.21007022 -0.20284964 -0.1598035 -0.045562856
0.12810245 -0.20883738 0.02389504 -0.12696266 0.20569105 -0.02625748 0.021759938 -0.22710305
-0.11730453 -0.11021817 0.15310718 0.08667979 -0.18190452 0.105946526 -0.03984423 -0.0006346508
0.16921893 0.07002341 0.065378726 0.21199873 0.16381422 0.14309806 0.23809849 0.07625058
0.16061383 -0.0058859587 -0.15202518 -0.14094676 0.21100438 0.04354112 0.05541273 -0.21796341
-0.23406342 -0.10483646 -0.15174295 -0.14392959 0.003345211 -0.22684339 -0.2280148 -0.10153559
-0.23442712 0.045038998 0.07175986 0.21513662 0.20696247 0.16590326 -0.013498423 0.24599193
-0.22901693 -0.18962204 -0.037211955 0.2400846 -0.08569802 0.070692144 0.13336736 -0.26285255

lstm1_1.weight_hh_l0 f4 [64, 16]
00000000: c02b 4dbe fa56 653e 8273 be3d 6cbd 133e
00000010: 04b0 01be 1d09 5e3e 1e51 babd 3dc0 863e
00000020: 76ee 1d3e f320 e63d 58f1 85be a1c7 833d
00000030: 5bb8 a4bd dddd 563e dd76 9b3d 7f12 d7bd
00000040: 0dcd 6fbd 2fb3 713e b84d 1b3e 38c0 9c3e
00000050: b1e1 70bd 3128 41be ef4c 17be e6a9 5c3e
00000060: 952d 5b3d e367 23bd 679c 5a3e 932d 333e
00000070: 3112 2fbd d486 dabd 6164 093e 8c06 5ebd
00000080: cc90 3bbe 6e1a d4bd 0baf 403e 44aa 1abe
00000090: ae60 ce3c ce65 06be 20bb a1bd 58cf f73c
000000a0: 71a2 f33d 4931 f73d 102a 25be b064 79be
000000b0: cb65 413e 3a55 363d e68a 7cbe 5540 11be
000000c0: 82fd 6abd 24f7 563e c6f0 1a3d 7825 323e
000000d0: c588 42be 8a81 d83d f372 6c3e bbc2 703e
000000e0: be34 803e 4c8b 043b 3efa e43c df3f cbbd
000000f0: 9ac2 0dbd 6bd5 06be aa49 213d cc6c 57be
00000100: ef49 cb3d 0c6f 36be 2f5f 1d3e 5578 1d3e
00000110: 6f56 cfbd c761 dcbd bd12 5abe c564 13be
00000120: 1a8f 38be f28b 9ebc 803d 0ebe 9b8c 1abe
00000130: 2a30 153d 1cb0 17be b91b 7ebe 9e24 2e3e
00000140: 53c7 94bd 7fe1 263e 7d79 6c3e 6d4f b5bd
00000150: 5d74 65be 0ea4 853d 3514 6c3e b740 5c3d
00000160: c655 073d 734e 9c3d eb4d c8bd 2792 76be
00000170: 7823 2bbe 6c0d 6d3e 57fe 8ebd 270f 883e
00000180: c05a 643e 0b36 91bd 44c0 11bd 6399 30be
00000190: 4674 0cbe 9e7e 59bd 964c 3fbe 088c c8bd
000001a0: 6c6a ecbd 3e5f eb3c 9267 1d3e 8802 31be
000001b0: dbc2 e03c 786b 803d 085b 5b3e 10d5 9c3e
000001c0: 3d75 b1bd c35f 0dbe 5495 7ebe 40d1 d33c
000001d0: 0453 a63d 5de0 0d3d d724 103e 7e41 a33d
000001e0: 692e 543e 534a 013e b2eb debd 89b9 c53c
000001f0: 51a5 24bd 00ab 343e 8618 dbbd 9082 aa3b
00000200: 6f2c 2fbe 9947 21bd 1403 273e 451a b0bd
00000210: 5887 e8bd a50d 71be a266 b63d 6319 65be
00000220: 0bc3 5ebe e36e ee3d c287 82be e726 3b3e
00000230: 5b24 4b3e f4cf 71be 2354 593e 5ee7 54be
00000240: 15e4 18be e98a 7bbe 0735 06be 393d ba3d
00000250: 2021 753e 3b35 dabd 2d7e 81bd 1f15 d4bd
00000260: 9829 263e 8739 55be 27ae 1f3e 63c4 50bc
00000270: fbc9 12be 004b a4bd 9a79 febb a472 ea3d
00000280: 7301 763d 190f e2bd a1a6 d53c 2afa 2e3e
00000290: a673 bebc 8951 a7bd 4302 24be 948d 8fbd
000002a0: 8e58 67be a8f1 68be 411a 663c bbfd dc3d
000002b0: ba72 79bc 8890 f63d 9013 6bbc 4028 513e
000002c0: 6d6c 243e 5fa2 8c3e 5c56 78be 42d4 1e3d
000002d0: c073 d5bd cc2a 273e 4de8 e3bc 3f79 40bd
000002e0: ddb5 85bc 973b 32bd f1dc 71be 50c4 03bd
000002f0: 3179 293e ea88 3c3d 9a3b b8bd 7be2 383e
00000300: 4178 5abe 03c0 a8bd 2b78 2a3d 3f85 7dbd
00000310: 4422 19be 84ca 95bd 2822 71be 8506 5abe
00000320: f91a 233c 398a 8c3d c536 a93d f3a5 7ebc
00000330: 907b 68bb 6d7f 003e 27bc 823e 2d73 ab3c
00000340: b34b 6b3d 0003 02be b53c de3d 56ce 593e
00000350: d87a 7dbc 4fe2 983d 5062 693e df59 923d
00000360: f85c 59be 496b 5dbd b10e 773e c7f3 593d
00000370: 3680 f03c e5e7 81be 2aaa 49be 8080 993d
00000380: c7d3 2cbe 91d2 ff3c d065 38be c468 28be
00000390: 12ff 853d b1a2 653e 0870 4a3e 158c 16be
000003a0: 54c4 46bd 0b88 31be 680d 43be a14b 773e
000003b0: bfe4 e53c cb36 9e3d bbb1 11bd fa41 d03d
000003c0: adee b73d f270 5abe 1a96 6f3b 59f9 83be
000003d0: 5ad5 b1be 36ad 5fbd a48f 4d3d ca60 d83d
000003e0: bf2a ea3d 929f 9dbe fa3f 803e a6e7 11be
000003f0: 4907 0abe cca2 b1be 6d6d 06bb 5c85 09bc
-0.2003622 0.2239646 0.09299375 0.14427727 -0.12664801 0.21683164 -0.09097503 0.2631854
0.15422997 0.11236753 -0.26160693 0.064345606 -0.080429755 0.20983072 0.07591031 -0.10501575
-0.05854516 0.2360351 0.15166366 0.306154 -0.058808986 -0.18862988 -0.14775442 0.21549186
0.053510267 -0.039893996 0.21348725 0.17497854 -0.042741958 -0.10670248 0.13417198 -0.054205462
-0.18316954 -0.103566036 0.18816774 -0.15104014 0.025192585 -0.13124773 -0.078970194 0.030250236
0.118962176 0.12069947 -0.16129327 -0.24354815 0.18886487 0.044514872 -0.2466236 -0.14184697
-0.05737067 0.20992714 0.037827276 0.17397106 -0.18997486 0.105715826 0.23090725 0.23511784
0.2504024 0.002022463 0.027951356 -0.09924292 -0.034609415 -0.1316735 0.039376892 -0.21037596
0.09926211 -0.17815799 0.15368341 0.15377934 -0.10123908 -0.10760837 -0.2129621 -0.1439391
-0.18023339 -0.01935384 -0.13890648 -0.15092699 0.036422886 -0.14813274 -0.24815263 0.17006156
-0.072645806 0.16296957 0.23093219 -0.0885304 -0.2240767 0.065254316 0.23054583 0.053772654
0.033040784 0.076321505 -0.09780487 -0.2407919 -0.16712749 0.23149651 -0.06982105 0.2657406
0.22300243 -0.07090386 -0.03558375 -0.17246012 -0.1371623 -0.053099267 -0.18681559 -0.09792334
-0.11543736 0.028731938 0.1537154 -0.17286122 0.027436664 0.06270498 0.21421444 0.30631304
-0.086649396 -0.13806061 -0.24861652 0.025856614 0.08121303 0.034637798 0.14076553 0.07971476
0.20720829 0.12626009 -0.10884799 0.024136322 -0.04019672 0.17643356 -0.10698037 0.0052035525
-0.17106794 -0.03937492 0.16309768 -0.085987605 -0.1135394 -0.23540361 0.089062944 -0.22372966
-0.2175409 0.11642244 -0.254942 0.18276559 0.19838087 -0.23614484 0.21223502 -0.20791385
-0.14930756 -0.24564709 -0.13106166 0.090937085 0.23938417 -0.10654684 -0.06322894 -0.10355591
0.16226804 -0.20822726 0.15593778 -0.012742135 -0.14334862 -0.080221176 -0.007765961 0.11447647
0.060059976 -0.11038036 0.026080431 0.17087618 -0.023248505 -0.081698485 -0.16016488 -0.07009426
-0.22592375 -0.22748435 0.014044345 0.10790583 -0.015225107 0.12039286 -0.014347926 0.2042551
0.16056986 0.2746763 -0.24251693 0.038776644 -0.10422468 0.1632492 -0.02782073 -0.04699063
-0.01632207 -0.04351386 -0.23619439 -0.03216964 0.16550137 0.04602901 -0.08995743 0.18055145
-0.21334936 -0.08239748 0.041618507 -0.06189465 -0.14954478 -0.073140174 -0.23548186 -0.2129155
0.009955161 0.068623014 0.082623996 -0.015542495 -0.003547404 0.12548609 0.25534174 0.020928944
0.05744524 -0.12696457 0.10851423 0.21270117 -0.015471183 0.0746504 0.2279141 0.07146048
-0.21226871 -0.054057393 0.24126698 0.053211 0.02935801 -0.25372234 -0.19693819 0.074952126
-0.16877662 0.031228336 -0.18007588 -0.16446215 0.065427914 0.22425343 0.19769299 -0.14701875
-0.048527077 -0.17337053 -0.19048083 0.24149944 0.028063176 0.07725295 -0.035569888 0.10168834
0.08981071 -0.21332148 0.0036557973 -0.25776175 -0.34733087 -0.054608546 0.050185814 0.10565336
0.114339344 -0.30785805 0.2504881 -0.14248523 -0.13479342 -0.34694517 -0.0020512 -0.008393612

lstm1_1.bias_ih_l0 f4 [64]
00000000: c17f 963d 4753 eabd dc0a 95bd d6cb d23d
00000010: 047f 803c fc18 9ebd 489b 2ebe d6cc 88bd
00000020: a773 e83d accc b9bd a3d6 84bd 6f9f 5bbd
00000030: 0007 6f3d 3a70 683e bc5f b13c b308 413e
00000040: 49a6 4e3d 81f6 24be 1620 dc3d c8cf 28be
00000050: 2754 07be 2172 e73d 7222 583e a908 a7bd
00000060: 9387 5bbe 5408 03bd 5928 0d3e 330e 0a3e
00000070: 8e96 a13c 62dd f5bd e959 c93d cdc0 a93e
00000080: 9d55 253e 72b5 673d e14e 51be 7f3a 35be
00000090: 3619 7ebd e4a7 c4bc 3691 3c3e 2eb2 0c3e
000000a0: bd08 6d3e b125 efbd b372 e3bc ab0e 373e
000000b0: 6ae9 40be a1e1 0bbd d5cb 3abe c0d1 1abe
000000c0: aff1 dcbd 653f a0bd b67c 47bd 3999 a6bd
000000d0: a167 71bd aa36 86bc 756b 513e d7c8 763e
000000e0: edf4 503e 68bb 423e d056 173d 839d 70be
000000f0: adaa 7bbe 25e7 f13d f1c2 32be e386 1cbd
0.07348586 -0.11441665 -0.07277462 0.10292785 0.015685566 -0.07719609 -0.17051423 -0.06679694
0.11350184 -0.09072241 -0.06486251 -0.053618845 0.058356285 0.22699061 0.021652095 0.18850975
0.05045155 -0.16109659 0.107483074 -0.16485512 -0.13215695 0.11301065 0.2110689 -0.08155949
-0.21438436 -0.031990364 0.13784923 0.13481979 0.01972511 -0.12005116 0.09831602 0.33154908
0.1614594 0.056569524 -0.20440246 -0.17698096 -0.06203576 -0.024005838 0.18414769 0.13739845
0.23147865 -0.11677111 -0.027764654 0.17876689 -0.1883904 -0.034150723 -0.18241818 -0.15119076
-0.10788285 -0.078245915 -0.048702918 -0.08134694 -0.05893672 -0.016383488 0.20451148 0.24100052
0.20405932 0.19016802 0.036948025 -0.23497586 -0.24576826 0.118116654 -0.17457177 -0.038214575

lstm1_1.bias_hh_l0 f4 [64]
00000000: eeee f5bb 9048 c43d 8962 56bd bc29 c93d
00000010: 444a 92be 47d7 0b3e 496d e53c e207 d83d
00000020: bf69 84be 4f4d 6fbe ccf7 003d 7dc9 d23c
00000030: e1fb 24bd f83c 42be 1a4a 383e 8f26 9b3e
00000040: b6fa 3cbd f656 8bbd 42cb 823d eb51 8dbd
00000050: f3a7 08be 4285 6abe 0f39 e83c 41bd efbd
00000060: 1b84 9bbd cb64 4cbe f108 6e3d a4d7 c4ba
00000070: 2e55 743d 32a0 c63d 19f7 15bd 4824 c4bd
00000080: cbd3 663e 1a91 0abe e581 263e 8750 c13d
00000090: 8d8e b0bd 3a3e 7cbe 3c52 01bd 20f2 09be
000000a0: 125b fcbd b430 c5bd eda9 913d 550b 62bd
000000b0: e972 99bd 0c12 43be 13a5 4e3e acb0 ce3d
000000c0: 83f1 0b3e e8e6 bd3d e8e4 78be 673f 1ebd
000000d0: 6a53 92bd fa98 803d 0b7b 683e 7166 00be
000000e0: e9f6 253e aa84 bbbc a512 ac3d 15fb 153e
000000f0: f857 db3c bc8b f7bd 6063 99bc 7fb9 6c3c
-0.0075052893 0.09584153 -0.052340064 0.09822413 -0.28572285 0.1365634 0.028006213 0.105483785
-0.25861928 -0.23369335 0.031486318 0.025730843 -0.040279273 -0.1896857 0.17997018 0.30302855
-0.046137534 -0.06803696 0.063864246 -0.0690039 -0.13345318 -0.22902396 0.02834752 -0.11706019
-0.075935565 -0.19960324 0.058113996 -0.0015017879 0.059651546 0.096985236 -0.036612604 -0.095772326
0.2254173 -0.13531914 0.16260488 0.094391875 -0.086209394 -0.24633113 -0.031572565 -0.1347127
-0.12322058 -0.0962843 0.07112489 -0.05518659 -0.074926205 -0.19049853 0.20180158 0.10092291
0.13666348 0.092725575 -0.24306071 -0.038634684 -0.07144816 0.06279178 0.22703187 -0.12539078
0.1620747 -0.022890408 0.08401994 0.14646561 0.026775345 -0.12087199 -0.018724144 0.014448523

lstm1_1.weight_ih_l0_reverse f4 [64, 32]
00000000: b6ea 5abe b045 e6bd 42f7 14be 56cc 833e
00000010: 8aa6 043e e6ee fdbd eb46 343e 722f 5d3e
00000020: 38c4 d03d 6dcc 05be 4cf2 94bd a76f e43d
00000030: 9d5c b8bd d991 5abe faf1 363c af0a 47be
00000040: 9ca8 613e ba75 63be 8a6d 763d d85e 0f3d
00000050: 5800 e8bd 601c 993b ff2a 5c3e f5ce 883e
00000060: 64b1 5dbe 35ee afbd b2a9 553e d97e d5bc
00000070: 4af3 423e cbad 913d fa2f 2fbe 65c9 45be
00000080: c3b8 8abd 2294 12be da4d 81bc 4fab 71be
00000090: 5cda 953d dde7 473c d482 333e 4c74 233e
000000a0: deb5 22be 9294 e3bd 9971 75be 6e40 373d
000000b0: e33c 1abe 69ee 1fbc 7383 133e 056f e53c
000000c0: f4ac 02be cadd 733e b4b1 e53b b098 afbd
000000d0: 24bc c63d 22ea 6c3e dfa6 22bd 5443 f4bd
000000e0: 7818 7ebd 76f5 39be d0fb a1bd 66e7 cf3d
000000f0: 4bcd 4abe c2b5 46be 873a 20be 8441 013d
00000100: f84a 19be 942c f3bd 0330 103d 5fec 4b3d
00000110: e00a 15be c068 0abe 0d9d 9cbd 7620 27bd
00000120: 3a6b 423e 9c83 2a3e 7813 393e 4bff 593e
00000130: 812d ddbc 4711 e93c 9086 48bc 688a 3dbe
00000140: 843c 24be e08a eebd ebc9 ac3d 0c10 be3d
00000150: 581d db3d cbfb 65be dffe 683d dcf3 cdbc
00000160: 641c 0dbe 7b5a aa3d f06c 16be e863 2abe
00000170: 7daa 13be 6a6a 58bc 519f 44bd e33f 81bc
00000180: 725c 40be 2063 5d3e 994d 81be b517 fa3d
00000190: 48c8 193d b33b cf3d 4ad9 d6bd 8fb1 07be
000001a0: 2a13 673e bdee 3fbe e440 553e 1468 9eba
000001b0: f487 553e 0f6a 36be 1f63 3dbd 65a3 5ebd
000001c0: a89d 333d 663f 69be a771 8d3d acb0 afbd
000001d0: b089 66be e91c 0e3d b95f b13d b5a2 cbbc
000001e0: 740e c5bd 0233 563c 6043 69bc 0944 e6bd
000001f0: 3df8 5c3e c441 923c 5412 783e 8969 553e
00000200: 90a7 63be 080c 443e 94b0 473e 8bfa 873d
00000210: d834 4ebd c7fd df3d 1db2 3b3e d598 f23b
00000220: 161f 633e 7f49 f4bc 646e 90bc 2f6e dfbd
00000230: 151c 7bbd 7733 973d 207d 223d e95b 2bbe
00000240: a643 3e3e d661 073e 804a 83bd 387b 3b3e
00000250: d8ca 73be e919 b83d 5cc2 08be de54 0ebd
00000260: 80c8 72bc 939c 57be 6064 6abc 431d 40be
00000270: a5ee 2c3e 81a3 97bc bd09 58be 8369 633e
00000280: 6449 3a3d 988b 14bd 31bc a1bd 338e 393e
00000290: 9ec6 093e 7bca 82bd 5990 4e3e 45b2 cb3d
000002a0: b007 c0bd 0c1e a13e 9d32 253e 25fb 70be
000002b0: 3eb4 adbd a9cb 1dbd 63cd 8f3c 53e5 e4bd
000002c0: d42b cabd 4c89 153e cbb6 2a3e cc4c c13d
000002d0: ded7 17be 7be1 5b3e a69a 10be 6479 923e
000002e0: 40ed f6bc d1af 613e 109d 643d 8baf b23e
000002f0: 668e 1fbe e157 d33e 4c25 d33b b21e 80be
00000300: b88c 0c3e b082 3d3e 19bd ad3d 3b34 79bd
00000310: c40d 35be f19d 4f3e 759c 463e e38a 9b3a
00000320: 5053 8f3c 2e39 dfbd 072f 803d bf22 b13c
00000330: d03e 6a3e 5aa7 22be 282e 58bd 45db 453d
00000340: 40a1 ff3c 2893 2d3e 75a9 9cbd 906c 543d
00000350: d417 f8bd e6f6 0d3e f3f4 9ebd 2cd2 063d
00000360: 0e3c 773e f0ab 9c3b 12ea 393e 54c8 24be
00000370: 86cc 123e 1652 493e cc7d 473d 2ad6 e63d
00000380: 60d6 5b3e 1057 073d db3c 2bbe a436 503d
00000390: 400c cd3b eb1c 35be 8f93 333d 3d5c aa3c
000003a0: b84f 6e3e f103 423d 4c76 70bd f839 133e
000003b0: 3128 62bd d1f7 10bd 2d53 66be 9444 c93d
000003c0: 44e0 5b3e 50ef 0cbe fbe5 603e 8098 59bd
000003d0: c6db 033e 450e ab3b 93c5 17bb 3360 47bd
000003e0: 0202 233e 9c80 3dbe 4c8b b33d 51dd 50be
000003f0: 819a 813d bc91 623d 9ab4 a73d 5982 023e
-0.21378598 -0.112437606 -0.14547446 0.25741833 0.12954155 -0.12399082 0.17605178 0.2160013
0.10193676 -0.13066263 -0.07272777 0.111541085 -0.090020396 -0.21344699 0.01116609 -0.19437669
0.22036976 -0.22212878 0.06016306 0.03500256 -0.113281906 0.004672572 0.21500777 0.26720396
-0.216497 -0.08590356 0.20865515 -0.026061462 0.1903812 0.071132265 -0.17108145 -0.19315107
-0.06773522 -0.1431432 -0.015784193 -0.23600505 0.07317039 0.012201277 0.17530376 0.15962332
-0.1588969 -0.11112322 -0.23969115 0.04473918 -0.15062289 -0.009761431 0.14405613 0.02800704
-0.12761289 0.23815075 0.0070097093 -0.08574045 0.09703854 0.2313619 -0.039709922 -0.11926904
-0.062035054 -0.18160042 -0.079093575 0.101515576 -0.19804876 -0.19405273 -0.15647326 0.03155662
-0.14970005 -0.11873737 0.035202038 0.049785968 -0.1455493 -0.13516521 -0.076471426 -0.04080244
0.18986216 0.16651767 0.18073833 0.21288793 -0.026999237 0.028450621 -0.012239113 -0.18509829
-0.1603871 -0.11647582 0.0843695 0.092804044 0.10698956 -0.22459333 0.05688369 -0.025140695
-0.13780361 0.08318039 -0.14689994 -0.16639674 -0.14420505 -0.013208965 -0.0480035 -0.015777534
-0.18785265 0.21619844 -0.25254515 0.12211553 0.03754452 0.101188086 -0.10490663 -0.13251327
0.22565904 -0.18743415 0.20825535 -0.0012085461 0.20852643 -0.17813896 -0.046237107 -0.054355044
0.043851525 -0.22778091 0.06906443 -0.08578619 -0.22513461 0.03469554 0.08660836 -0.024857858
-0.09621897 0.013073685 -0.014237255 -0.112434454 0.2157907 0.017853625 0.24225742 0.2084104
-0.22231889 0.19145215 0.19500953 0.06639584 -0.050343364 0.10937076 0.18329664 0.007403473
0.22179827 -0.029820202 -0.017630763 -0.10909688 -0.061306078 0.07382863 0.03967011 -0.1673428
0.18580493 0.13220915 -0.06410694 0.18308723 -0.23807847 0.08989317 -0.13355392 -0.034748904
-0.014818311 -0.21055822 -0.014306158 -0.18761162 0.1688791 -0.018510582 -0.21097465 0.22208218
0.045480147 -0.03626594 -0.07897223 0.18120651 0.13454673 -0.06386276 0.20172252 0.099461116
-0.09376466 0.31468236 0.16132589 -0.23533304 -0.08481644 -0.038524304 0.01755399 -0.111765526
-0.09871641 0.14603156 0.16671292 0.09438476 -0.1482844 0.21472733 -0.14121494 0.2860824
-0.030142426 0.22039725 0.05581385 0.34899554 -0.15581664 0.41277984 0.006443655 -0.2502342
0.13725555 0.18506885 0.08483333 -0.060840826 -0.17681032 0.20275094 0.19395621 0.0011866953
0.017495781 -0.10899578 0.0625897 0.021623014 0.22875524 -0.15884152 -0.052778393 0.048304815
0.03120482 0.16950667 -0.07649509 0.051861346 -0.1211392 0.13863716 -0.07761564 0.03291528
0.24144003 0.0047812387 0.18155697 -0.16092044 0.14335832 0.1966022 0.048703954 0.11271317
0.21468496 0.033042014 -0.16722433 0.05083336 0.006257564 -0.17686813 0.043841895 0.020795936
0.23272598 0.04736704 -0.058706567 0.14377582 -0.05521411 -0.035392586 -0.22492667 0.09827533
0.2147227 -0.13763165 0.2196273 -0.05312395 0.12876806 0.005220207 -0.0023158535 -0.048675727
0.15918735 -0.18506092 0.08766803 -0.20396926 0.063282974 0.055314764 0.08188744 0.12745036

lstm1_1.weight_hh_l0_reverse f4 [64, 16]
00000000: 8c79 1c3e 58b6 003d b11e 923d e498 903b
00000010: f04f 783c cdb9 c13e 7de3 803e 8e0a eb3c
00000020: e933 573e 9fb1 b43d 3deb 8abd aa90 303e
00000030: 307b b8bc 46fe 0b3e b7e5 8bbc da5f 1abe
00000040: d347 adbd 79bb 7d3e 6e81 82be eb12 463d
00000050: b486 c53c c5b8 debd ff8a e3bd a921 eb3c
00000060: 99b7 963d 6830 653d b5f1 3abe 90c4 063e
00000070: 0f27 95bd 81e6 e63d fd29 f13d 4f55 5a3e
00000080: a46e 5d3d 3839 1fbe 0f6d ed3d 2704 51be
00000090: 311c 6bbe 32c3 433e 1165 03be 6c20 c33d
000000a0: faf4 cebd 503d a6bd f63b 423d 08ef f5bc
000000b0: c6a7 213d eb4d dcbd 7db1 b83d 9623 07be
000000c0: e902 49be 6d85 42bd c9c0 37bb ec8a 413e
000000d0: e7d9 5b3e a0a6 adbe 400d 2c3d 2663 18be
000000e0: 4747 32bd 5da1 883d 1603 82be a5e1 8bbd
000000f0: 3637 5cbe 98ba 2f3e fdbf 75be 0c7e eabd
00000100: e4a8 c23d 8d4b 85bc 4fa2 f13d d986 ac3b
00000110: ccd1 6bbe c035 063e 9137 74be 3ff3 4c3e
00000120: 9eb6 72be 0c94 f73c 7ad3 7f3c 2bf6 523e
00000130: a606 35be f525 633c 43dc 93bd a509 26be
00000140: 35a9 1fbe 8255 a03e 4923 84be 9b52 f43d
00000150: 1e41 e8bd f5e2 343d 0d9d f93c 3848 cd3d
00000160: e8d6 93be 72c7 70be 6522 1cbd 36ac ae3e
00000170: 1a69 ffbd c6e5 953e c8bd e23d d899 06be
00000180: 8086 b43d 5da5 523e 0072 313e b71d 5e3e
00000190: d50a 70bd 8616 ef3c a813 a5bd 74ec 12bd
000001a0: cd0c 5fbd 9e6f a23d 9d9c 27be 214a 16bc
000001b0: 0bee 653e b20c 4ebe 31f7 7cbc b994 173e
000001c0: fb9a c83c 8f88 59be 4788 2dbe efbc 43be
000001d0: 28e1 713d 1ea4 23be ca9e 833b 15c4 15bc
000001e0: d8c0 1b3e 7c2b 4e3e 8fa4 14bc f2aa 4bbe
000001f0: d385 42be c8ec 3cbe 2df7 5a3c 3570 3bbe
00000200: 5889 13bd 4557 29bc 7bef 96bc f6bb 5a3e
00000210: 04be 0b3e f44c c1bd 6f61 0bbe 9e72 6ebe
00000220: 26be e23d 36ca ca3d 72f9 2cbd 5ccf 303d
00000230: 45cc 473e 367e 4e3b c042 713e 86c6 40be
00000240: 2079 cdbc 0f92 5ebe 19f5 ebbd 288c adbd
00000250: ea43 ab3c 18f0 dc3e 9df5 2a3e 27b4 8a3b
00000260: e385 fe3c d5f4 37be ff9c 25be 8a48 1d3c
00000270: 5e45 54be 9edd 483e ef79 d2bd 361b 5e3e
00000280: baed 19bd 8f54 71be 9df5 f6bd c2d1 8d3d
00000290: 4bc3 483c 0153 00bd 3fdd 89bd ff9c 793c
000002a0: 78c7 5abe 166d 2f3e 811b 49be 7011 18be
000002b0: 3805 cebd 9315 0dbd aaf5 623d 1e2e 453e
000002c0: 7880 0abd ce1c fb3c 88f3 823d d481 263e
000002d0: de55 62be 676d 51bc aef2 323e c9c4 3dbe
000002e0: a02a e13d 9238 e9bc f91d 67be f692 efbd
000002f0: 96e8 0fbc bbc7 08bd 52fe d63d 948c 033d
00000300: 5fa7 683d 1858 75be 6832 553e 094c 5d3e
00000310: ba48 34be 32f5 3dbe 58c0 44be 7ad0 24be
00000320: 47da 3bbe 9d82 423e 80b2 3c3e aac7 403e
00000330: 65b1 0c3d 998a b13d 8191 ee3d 9ae8 f93d
00000340: 8dab 163e bbff cebd 4b25 383e d1f2 093e
00000350: b90a 22bd ae1f 5cbe 5898 e43d 5148 cbbc
00000360: 1f2a 2b3e e331 38be b668 313e dc2a b5bc
00000370: 3087 613e 6458 23bd afdd 16be 4793 66bd
00000380: 11bb 533e a9f8 53bd aac6 553e bdce 423e
00000390: 10a5 e8bc d9d4 3e3d 6a7e 423e d619 64be
000003a0: ca08 8c3d f6fe 72be 502d 1ebe d887 0a3e
000003b0: 8900 7dbe 76e7 513d 3db8 a4bc 0a96 edbd
000003c0: 52e8 423d ae62 dd3d b3c5 253c fc13 f33d
000003d0: 582c 39bd 8f9f b23e bfb1 693d ff24 0cbd
000003e0: d95b 4cbe cb59 9a3d 1c77 99bd 5926 4d3e
000003f0: aab5 263e 8e29 bdbd 6613 0fbe 895d 4fbe
0.15280741 0.031423897 0.0713476 0.004412757 0.015155777 0.37837067 0.2517356 0.028691556
0.21015896 0.08822941 -0.067831494 0.17242685 -0.022519678 0.13671216 -0.01707731 -0.15075627
-0.08460965 0.24778546 -0.25489372 0.048357885 0.024112083 -0.10875086 -0.11110496 0.028702574
0.07359237 0.055954367 -0.18256266 0.1316092 -0.072828405 0.11274434 0.11775587 0.21321605
0.054060593 -0.15549171 0.11593067 -0.2041174 -0.22959973 0.1911743 -0.12831523 0.09527668
-0.10105319 -0.08117163 0.047420464 -0.030021206 0.03946664 -0.10757049 0.09018228 -0.13197169
-0.19630016 -0.047490526 -0.0028038493 0.1890065 0.21469842 -0.33916187 0.042004824 -0.14881572
-0.043525007 0.066714026 -0.2539298 -0.06830148 -0.21505436 0.17161024 -0.23999019 -0.11449823
0.095048696 -0.016271377 0.11798536 0.0052650985 -0.2302925 0.13106441 -0.23849322 0.20014666
-0.23702475 0.030221961 0.015614385 0.20601718 -0.17678317 0.01386403 -0.07219746 -0.16214617
-0.15591891 0.31315237 -0.2580817 0.11929818 -0.11340545 0.044161756 0.030470395 0.1002354
-0.28874898 -0.23513582 -0.03811874 0.34115762 -0.124712184 0.29276866 0.11071354 -0.13144624
0.08814716 0.20570894 0.17328644 0.21691023 -0.05860408 0.029185545 -0.0806039 -0.03587003
-0.054455567 0.079314455 -0.16368337 -0.009172947 0.22454087 -0.2012203 -0.015439794 0.14802827
0.024487963 -0.21243499 -0.16946517 -0.19115041 0.059052616 -0.15980574 0.004016732 -0.009140988
0.15210283 0.20133775 -0.009072437 -0.19889429 -0.18996362 -0.184497 0.013364595 -0.18304522
-0.036019653 -0.010335748 -0.01842474 0.21360764 0.13646704 -0.09438506 -0.13611387 -0.2328591
0.11071424 0.0990185 -0.042230077 0.043166503 0.19511516 0.0031508333 0.2356062 -0.1882573
-0.025082171 -0.21735404 -0.11521358 -0.08473998 0.020906407 0.43151927 0.16695257 0.0042329016
0.031069702 -0.1796449 -0.1617317 0.009599814 -0.20729586 0.1961579 -0.10277163 0.21690068
-0.03758023 -0.23567413 -0.12058566 0.06924774 0.012253593 -0.03132916 -0.067316525 0.015235185
-0.21365154 0.17131457 -0.19639398 -0.14850402 -0.10059589 -0.034444403 0.055410065 0.19255874
-0.033813924 0.030653384 0.06394106 0.16260463 -0.22103068 -0.012782431 0.17475387 -0.18532099
0.10994458 -0.028469358 -0.22570027 -0.116979524 -0.00878348 -0.033393603 0.104977265 0.032116488
0.056800243 -0.23959386 0.2082001 0.21611036 -0.17605868 -0.18550566 -0.19213998 -0.16095152
-0.18344985 0.18995138 0.18427467 0.18826166 0.034348864 0.086690135 0.116488464 0.12202568
0.14713879 -0.101073705 0.17982976 0.13471533 -0.039561007 -0.2149646 0.1116187 -0.024814757
0.16715287 -0.1798778 0.173251 -0.022115164 0.22024226 -0.039879218 -0.14733003 -0.0562928
0.20676829 -0.051750813 0.20876566 0.19024177 -0.02839902 0.046589706 0.18993536 -0.2227548
0.06837614 -0.23730072 -0.15446973 0.13528383 -0.24707235 0.05124613 -0.020107383 -0.11600883
0.04758484 0.10809837 0.010117936 0.11869046 -0.045208305 0.3488736 0.057054278 -0.03421497
-0.19956912 0.07536658 -0.074934214 0.2003416 0.16280237 -0.092364416 -0.13972244 -0.20250525

lstm1_1.bias_ih_l0_reverse f4 [64]
00000000: 0e99 37be 50ff 0e3e 7989 573e 2f11 b03d
00000010: 4d4d 42be 6619 8d3e b624 62be 40b2 143e
00000020: 1460 433e f4be cabd a53e c5bd 3641 163e
00000030: 9684 c03d 0b36 04be a525 e9bc 4f61 5f3e
00000040: 6b09 603e d814 73be 6714 62be cdf0 463d
00000050: da8a 053e 684e 013e d2d5 c0bd 6c2a 6abd
00000060: f89c 123d 2273 38be 0f2a 7abe 74c8 d73d
00000070: eda8 52bd 2592 283e 8de5 1dbe d7dd 50be
00000080: 0be6 62bd 6990 3f3d ab70 0f3e d6a4 683e
00000090: a6f1 383e 7c44 79be a6f7 5e3d e7bd 363e
000000a0: 1e9e cc3d 0b4d 28be 06ce fbbd 7b3a 6a3d
000000b0: 8064 0fbe baa1 813e 85b0 c3bd 347a e33d
000000c0: 33de 843e 9966 2b3e 0e40 7f3e 8044 8b3e
000000d0: c3d5 053e 5dae b43e 6f60 4b3e 96c4 223c
000000e0: 2ebe 753e fd8d 7abd 69ed 6e3d b244 3cbd
000000f0: 95be 1d3e ae00 82bd 13a4 21be 75ef 843c
-0.1792948 0.13964581 0.21048535 0.085970275 -0.189748 0.2755844 -0.22084317 0.14521122
0.1907962 -0.09899703 -0.09631089 0.14673313 0.09400289 -0.12911241 -0.028460333 0.21814464
0.21878593 -0.2373842 -0.22078095 0.04856949 0.13041249 0.12627566 -0.09415783 -0.057169363
0.03579423 -0.1801267 -0.24430107 0.1053628 -0.05143063 0.16462 -0.15419598 -0.20397125
-0.055395167 0.04676858 0.14007823 0.2271913 0.18060932 -0.24342531 0.054435395 0.1784588
0.09991096 -0.1643564 -0.12295155 0.057184678 -0.14003181 0.253187 -0.09555153 0.11107293
0.25950775 0.16738357 0.24926779 0.272007 0.13069825 0.3528928 0.19861005 0.009934565
0.23998329 -0.061170567 0.05833188 -0.04596395 0.15404733 -0.06347786 -0.15785246 0.016227463

lstm1_1.bias_hh_l0_reverse f4 [64]
00000000: b5f2 6bbd ae66 54be 8500 693e c10f 02be
00000010: 1eba 6e3d 772f 4e3e 8f84 6ebe 6c73 dc3d
00000020: 316b 54bd 273d 55be 1ed0 593e 926c 00be
00000030: 3ad3 3d3e 58e8 fcbd d8a7 6d3e b1ff 883e
00000040: 0bd8 02be 8eee 543d 2531 2bbd ee27 d0bd
00000050: 44c2 553e 1f47 6a3d a6dc bb3d 689b 1abe
00000060: a8ed 65be 08e1 5b3e 6662 cb3d 5c2f aa3c
00000070: 55e4 74be 1b31 103c 9ff2 0bbe 3f80 5a3d
00000080: 9ddd 203e 2ae2 233e dd6f 4cbe 5600 493e
00000090: 82f6 5d3e 6993 043c 002d 333d 2aaf d7bd
000000a0: 85bc 06be c73c 3c3e 579e 09be e29c 04be
000000b0: 2a12 43bd a47b 5fbc 1cef 14be ebce 74be
000000c0: 4e57 07be 1d55 7d3d b20c 99bd 5437 4c3e
000000d0: d00a 89be ab21 a13e 0909 91bd 18e7 57be
000000e0: 6f95 513c 8619 803d 1d18 29be 969e 083e
000000f0: a3d8 1b3e f3d1 013e 75b2 783e 8840 253e
-0.05760451 -0.20742294 0.22754104 -0.12701322 0.058282964 0.20135294 -0.23292755 0.107642025
-0.05186004 -0.20824109 0.21270797 -0.12541416 0.18537608 -0.123490036 0.23208559 0.26757577
-0.12777726 0.051985316 -0.041794915 -0.10163866 0.20874888 0.057196733 0.09172945 -0.15098345
-0.2245394 0.21472561 0.099308774 0.020774536 -0.23915227 0.00880077 -0.13666771 0.05334496
0.15709539 0.16004243 -0.19964547 0.19629034 0.21676067 0.008091786 0.043744087 -0.10531457
-0.13157852 0.1838256 -0.13439308 -0.12950471 -0.047624744 -0.013640318 -0.14544338 -0.23907058
-0.13216898 0.06184875 -0.074731246 0.19942981 -0.26766062 0.31471 -0.070818014 -0.21084249
0.012791975 0.06254868 -0.16513105 0.13341746 0.15219359 0.12677746 0.24286826 0.16137898

lstm1_2.0.weight f4 [32, 32]
00000000: e0cc 3abe 985f e73d 115c 7d3d 3e3a c7bd
00000010: 6219 84bd a79f dc3d aa6b 07bd 4891 32be
00000020: 9687 213e 0c4c 46bd 14ab bfbd 9614 cfbb
00000030: c1d3 c3bc eca6 353e 5e01 413d 7c47 fe3d
00000040: 85c8 2bbd df2f 03bc 3e46 87bd 82db ec3d
00000050: 9e12 2abd 65a7 e43b 303a a9bd ec52 0e3e
00000060: 7df0 94bd 7b17 08bd f70f da3d d380 b9bd
00000070: 358b 03be 3851 d43d 6e46 7bbd 9392 d1bd
00000080: f029 c5bd 8d8e b2bd 8b90 c2bc 8a0e 96bd
00000090: faf4 043e 6afc 30be 46e3 06bd e2b3 6b3d
000000a0: 4fee 833d 732a 043e 7f7a 0fbd f896 bc3d
000000b0: 0e81 8ebd 5de4 00be 7f9b 853c 1f5e 1d3e
000000c0: 650c a7bd 9627 0f3e 6d07 203e 166f 1a3e
000000d0: f7a6 e23c fc85 1a3e 9a1b cd3d de32 8abd
000000e0: 06fa debd 10ed 923c 2dc7 253e 4af1 7c3d
000000f0: 3838 c93d 1964 193e 01e7 a6bd e927 f23d
00000100: 2cec c5bc 3d65 033e 2b48 18be 10cd 01be
00000110: 2b7c 35be b11c 0d3d 98e4 bd3d 352b 3a3c
00000120: e390 19be 2706 0fbe cf8c ba3d 0671 b33d
00000130: f2a9 d6bb 6909 c2bd 1649 6e3d b6bb b13d
00000140: 4119 ce3d b1c9 383d 9059 233e 76dc 06bd
00000150: c30c a4ba e2f0 213d 6195 5cbd 7603 953c
00000160: be15 ad3d 3759 943d cd66 91ba a709 8abd
00000170: 6230 1c3e 42fd 81bb 06b9 9e3d 889e 363e
00000180: d450 163e ebc3 33be 45a9 d4bc 11ac bfbd
00000190: 1fe7 393d 37db 263e f95b 0e3d 0076 883c
000001a0: 6c94 4b3d db77 c0bc 03d6 bdbd f245 1bbc
000001b0: 3d22 f63d fdf2 c33d 351a 89bd 133e 5fbe
000001c0: 4369 1bbe 6867 e63d 7fc7 143e 0abc 043e
000001d0: bbf3 bf3b 2aa0 d2bc 011a 39be 7134 1c3e
000001e0: 9085 0fbe f231 fd3c 1caf 2e3d cd68 34bd
000001f0: 78a4 1a3e 99eb 8abb 6762 8a3b 255d 523c
00000200: da26 383d de7d 173d d288 793c fc98 a7bd
00000210: 32d2 d53c ca79 763c 1ee0 893b 1a7a 0abe
00000220: bdf7 18be 37c5 5fbd 4b38 bfbd 4cd6 573c
00000230: 5ae2 6ebd 0976 00bc 36fd 5f3d 6a63 b93c
00000240: 7ce6 503d 035c a03d 20a7 12ba 4cc6 07be
00000250: 5b90 bcbd 6171 c6bb 7112 fabd ba40 2ebe
00000260: 2e74 e9bc 6665 cb3c 8206 803d 3b0e 0b3d
00000270: e07c b2bd 4bac 243e 64e3 d03d f204 ea3d
00000280: 4375 96bd c00f d03d 6d4b 3abe 4850 173e
00000290: 8c69 573a 10db e6bd ffcf 7f3d d495 1b3e
000002a0: c078 fe3d 4894 e1bc 77f7 eb3d 6637 fcbd
000002b0: 305b 0cbe 647d 67bd 0f14 a93d 8eaf 03be
000002c0: 6a6c 043e 3568 3b3d 11fd 3fbe 2bc6 a83d
000002d0: 2dbd d7b9 5590 813e 20ed f3bb d7a2 f83d
000002e0: 781b 083e 207d 0bbe bae5 343c 677b 8b3d
000002f0: 15d2 8a3d 3839 e63d c110 24be ebb2 ed3c
00000300: 0cc7 243e 9046 c5bd 4654 283e 6df2 48bd
00000310: 87ae d83d 1907 2bbe bf17 243e b23f dcbd
00000320: 09b1 2e3e 8612 9bbd 7253 01be 3f2c 77bd
00000330: 390a 953c e9d2 c4bc e826 9abd febc 95bd
00000340: d1b2 0abe 6485 27be 9e76 73bd 29ae 413d
00000350: 4752 763d 6918 e9bd ccb7 43bd 84f6 10be
00000360: 2660 b33d 425a 3dbd 04c4 0e3e 3a17 98bd
00000370: 31f6 1bbe cb66 78bc 32d7 dfbd b1b0 573c
00000380: 1068 9d3d 76b0 2b3d 2b7c 133e 89eb 9abc
00000390: 69ad 47bd 701c bfbd caa1 b9bc 17dd ecbd
000003a0: a6b7 04be 4b61 8e3d 09ec 2cbe 0851 1bbc
000003b0: 14f5 253e f73a aebd 0540 33bd f6f6 b63c
000003c0: 59b0 fcbd 2dbf 85bc fb42 fc3c 9e03 d9bd
000003d0: b8f0 dbbc 5b41 883d a691 d2bd efee a63d
000003e0: 8072 7ebd 4298 16bd 4c1a 36bd 8910 2abe
000003f0: c26f e9bd 9116 fabd e5d0 27be 6f76 423e
-0.18242216 0.1129753 0.06185538 -0.09727906 -0.06450154 0.10772639 -0.03306166 -0.17438233
0.15774378 -0.048412368 -0.093588024 -0.0063195927 -0.023904683 0.17739457 0.047120444 0.12415978
-0.041939277 -0.008007019 -0.066051945 0.11565305 -0.04152166 0.006977963 -0.082630515 0.1389882
-0.07272432 -0.033225518 0.10647576 -0.090577744 -0.12846072 0.10367054 -0.061346464 -0.10233035
-0.096271396 -0.08718596 -0.023750564 -0.07326992 0.12984076 -0.17283788 -0.03293159 0.057544596
0.06441938 0.12906818 -0.03502893 0.092084825 -0.06958209 -0.12587114 0.016309498 0.15367936
-0.08156661 0.13979945 0.15627833 0.15081438 0.027667506 0.15090173 0.1001503 -0.067479834
-0.10887532 0.017935306 0.16189261 0.06175355 0.09825176 0.1497959 -0.08149529 0.118240185
-0.024160467 0.12831588 -0.1487128 -0.12675881 -0.17723148 0.03445119 0.092721164 0.01136284
-0.14996676 -0.1396719 0.09108888 0.08761792 -0.006551021 -0.09474451 0.05817517 0.08678381
0.100634106 0.045114223 0.15952134 -0.03292509 -0.001251601 0.039536364 -0.053853396 0.018190127
0.084514126 0.07243579 -0.0011093259 -0.06740122 0.15252832 -0.0039669583 0.07750134 0.17833912
0.14679271 -0.17555206 -0.02595962 -0.09358991 0.04538643 0.16294561 0.03475568 0.01665783
0.049702093 -0.023494652 -0.09269335 -0.0094771255 0.12018249 0.09567831 -0.06694452 -0.21801023
-0.15176873 0.11250192 0.14529227 0.12962356 0.0058579124 -0.025711138 -0.18076326 0.1525438
-0.14015794 0.030907605 0.042647466 -0.04404526 0.15101802 -0.004239511 0.0042231563 0.01283959
0.044958927 0.03698527 0.015230374 -0.08183476 0.026101205 0.015043685 0.004207625 -0.1352314
-0.14938255 -0.054631438 -0.09336909 0.013173651 -0.058321334 -0.007840642 0.05468484 0.022630412
0.051001057 0.0783005 -0.00055943616 -0.13259238 -0.09207221 -0.0060559963 -0.12210549 -0.17016879
-0.028497782 0.024828624 0.06251241 0.033949118 -0.08715224 0.1608135 0.10199621 0.114267245
-0.07346585 0.10159254 -0.18192835 0.14776719 0.0008217327 -0.112722516 0.06245422 0.15193874
0.12425375 -0.027536526 0.115218095 -0.12315254 -0.1370666 -0.056516066 0.08255779 -0.12859938
0.12931982 0.045753676 -0.18748881 0.082409225 -0.00041148943 0.2530543 -0.007444039 0.12140434
0.13291728 -0.1362195 0.011041099 0.068106465 0.06778351 0.11241382 -0.16022016 0.029015979
0.16091555 -0.09632599 0.16438398 -0.04905932 0.105801634 -0.16701926 0.16024683 -0.107543364
0.17059721 -0.075718924 -0.12629488 -0.06034493 0.018193351 -0.024026351 -0.07526952 -0.07311438
-0.13544776 -0.16359478 -0.059439294 0.047285233 0.06013706 -0.11381609 -0.047782704 -0.14156538
0.08758573 -0.046228655 0.13941962 -0.07426305 -0.15230633 -0.0151612265 -0.10929717 0.013164685
0.07685864 0.041916333 0.14402835 -0.01891114 -0.04874936 -0.09331596 -0.022660155 -0.11565607
-0.12960681 0.06952151 -0.16886915 -0.009479769 0.16206771 -0.085073404 -0.043762226 0.022334557
-0.12338323 -0.016326511 0.030793658 -0.10596393 -0.026848182 0.066530906 -0.102816865 0.08151042
-0.062120914 -0.036766298 -0.044458672 -0.1660787 -0.11398269 -0.122113355 -0.1638828 0.18990491

lstm1_2.0.bias f4 [32]
00000000: 1bef bebc c94b 353e dc80 65bd 131f bd3d
00000010: bdec 97bd 5120 acbd 4031 10bb 7323 2cbc
00000020: aa75 513d 7765 183e fdde 2a3e dc52 033e
00000030: 8cdc 023e acce 25bd 4337 f63b 6aab e13d
00000040: 2526 ab3c 4e9f c63d 4c87 973d b05d f1bd
00000050: 7844 8b3d 0261 01bd 8c63 83bd 7608 18be
00000060: 708a 0fbe 4318 9bbd 3273 2d3e f115 e03d
00000070: 7b68 fdbc a6d3 b53d a7cd b43d 5caf e4bd
-0.023307374 0.17704691 -0.056031093 0.092344426 -0.07418201 -0.08404601 -0.0022002012 -0.010506499
0.051137604 0.14882456 0.16686626 0.12824577 0.12779444 -0.0404803 0.007513912 0.11019023
0.020892212 0.09698354 0.07398853 -0.117854476 0.06800169 -0.031586654 -0.064154714 -0.14846978
-0.14017653 -0.07572987 0.16938475 0.10941685 -0.03093361 0.08878259 0.088282876 -0.1116626
