results/pretraining_samples_effect_results/Dataset 4/pre_rate=0.8/Experiment5(CY45-05_1-#23)/from_Dataset 4_ft_model.pth (torch, 95756 bytes, 27 tensors)

cnn1.0.weight f4 [16, 1, 3]
000000 bb c9 3d 3d 83 fb 2a 3e 51 43 c0 be 9d 46 ab 3e
       0.046334963 0.16697507 -0.37551358 0.3345231
000010 12 fd 0c be 02 6a f2 be e7 fe d9 3e e1 ec 17 3f
       -0.13768414 -0.47346503 0.42577288 0.59345824
000020 7e e2 8b 3e eb 9e 75 3e fd f7 2b bd 64 67 7a 3e
       0.27321237 0.23986404 -0.041984547 0.24453503
000030 05 fe 0a 3e 46 2b 15 bf 7f f2 d3 3e 4f 98 a9 be
       0.13573463 -0.58269155 0.41395947 -0.33124015
000040 09 ef b9 3e b0 9e 18 bf 1a fe 7c be 5f e6 98 be
       0.36315182 -0.5961714 -0.24706307 -0.2986326
000050 3a 41 0d 3f 95 8d 0c bf 4d 2b ee 3e 02 ba a7 bd
       0.5517765 -0.5490354 0.4651741 -0.08189775
000060 15 cf cd 3e b1 e0 9b be 2f 9c e7 3e 07 17 20 be
       0.40197054 -0.30444863 0.45236346 -0.15633784
000070 bf e6 91 3e 11 d5 f7 be aa 58 29 3e 54 09 fe 3e
       0.28496358 -0.48404744 0.16537729 0.49616492
000080 f9 0e 19 be 6d 9d d7 3c a3 75 a9 3e d2 52 92 be
       -0.14947118 0.026320184 0.33097562 -0.28578812
000090 2b 88 82 3c 5b e7 1a be 92 00 c0 bd 2a d3 0a bf
       0.01593407 -0.15127318 -0.09375109 -0.5422846
0000a0 0c b2 39 3e 43 a2 04 bf d8 12 15 3f 24 37 4f 3c
       0.18134326 -0.5181009 0.5823188 0.012647424
0000b0 72 71 a8 3e 2a 54 aa be 48 64 b1 3d af 5c c9 be
       0.32899052 -0.33267337 0.08661705 -0.39328524

cnn1.0.bias f4 [16]
000000 1e ea 9c 3d 04 2b d0 bd b4 5d 2a bc 86 8e 14 3f
       0.07661842 -0.101644546 -0.010398317 0.58029974
000010 39 75 09 3f 3e 29 a7 3e 7d 01 79 3e f1 88 8c be
       0.5369449 0.32648653 0.24316974 -0.27448228
000020 2f 5a 0d bf fc 7e 03 bd de 52 20 be 4c 98 1c be
       -0.55215734 -0.032103524 -0.15656611 -0.15292472
000030 9a 9d e6 be 13 d4 ee be 03 54 a6 be bf e7 50 3e
       -0.45042115 -0.46646175 -0.3248597 0.20400904

cnn2.0.weight f4 [32, 16, 3]
000000 66 d8 4d 3d 3c 51 9d bd 33 75 85 be 8f 07 31 3d
       0.0502552 -0.0768151 -0.26065978 0.0432201
000010 41 42 36 bd 17 ed 95 bc c3 20 35 3e 38 89 31 3e
       -0.04449678 -0.01830153 0.17688279 0.17337501
000020 89 31 2c 3e ee c1 fe 3d e8 17 86 bd f2 ac 82 bd
       0.16815771 0.12439333 -0.065475285 -0.06380643
000030 f2 53 ef bc 06 f0 e0 3d 02 94 89 bd d3 33 6c bd
       -0.029214833 0.10983281 -0.067176834 -0.05766661
000040 0d 5f 58 3d c8 1a 0d 3d 26 ec 23 3d 5a ea 41 b9
       0.052825022 0.03444937 0.04002013 -0.00018493217
000050 ec 16 27 3e 6e c9 f7 bd 42 20 b1 3c 75 23 f6 3d
       0.16317338 -0.120989665 0.021621827 0.12018482
000060 99 ae 9d bd f6 ad fb 3d 73 91 06 3e d9 35 e2 3d
       -0.076993175 0.1228904 0.13141422 0.11045427
000070 89 50 11 be d4 95 0e be 6d 30 2f 3e 63 5e 31 3e
       -0.14190878 -0.13924342 0.17108317 0.17321162
000080 ed f8 6f 3e 74 3b ea bc e6 87 c5 bd 09 66 23 bd
       0.23434801 -0.028592803 -0.09645061 -0.03989223
000090 4f a4 e4 3c c8 97 bf 3d 39 e0 90 bd 9a 7b da bd
       0.02791038 0.09355122 -0.07074017 -0.106681064
0000a0 77 90 d6 3d 34 1a b7 3d f9 73 a4 3d 2c de 69 3e
       0.10476773 0.08940545 0.080299325 0.22838658
0000b0 72 0d 6d 3d 51 e8 90 3e 26 a6 c5 3e fe 05 7d bc
       0.05787415 0.28302243 0.38603324 -0.015443323
0000c0 68 6f c2 bd 40 57 0c 3e 31 6d 92 3d fe f1 5a 3d
       -0.09493905 0.13705158 0.07149733 0.053453438
0000d0 6d 91 a0 bd bb d9 2b bc dc 79 e8 3b e4 20 11 be
       -0.07840238 -0.010488923 0.007094605 -0.14172703
0000e0 f0 5c 62 3d c9 5c ba bc 9a 0a 0a 3e 46 8e d7 3d
       0.055264413 -0.022749322 0.13480607 0.105251834
0000f0 53 f3 0f 3d ed 4d dc 3c 67 f8 61 3d cd 9b fe 3d
       0.03514416 0.026892627 0.055168536 0.124320604
000100 a1 a3 15 3e 16 38 d8 3c d8 18 54 3d 01 3a db bd
       0.146132 0.026393931 0.051781505 -0.10704423
000110 65 4e c0 3d 63 99 57 3d 07 85 cc 3d 7b 08 d8 3d
       0.093899526 0.052636515 0.099863105 0.105484925
000120 11 c8 94 3d a1 73 de bc 40 f9 49 bd 23 07 9b bd
       0.07264722 -0.027154746 -0.04930997 -0.075697206
000130 ab db 1b bc 1c 89 d6 bd 74 11 9c 3d ed 3c 40 bd
       -0.009512822 -0.1047537 0.076205164 -0.046933103
000140 17 88 4e 3d e2 d9 50 3d 6b e6 7f bc 8e 99 ec 3d
       0.050422754 0.05098904 -0.015618901 0.11552726
000150 ef 77 a0 3d a0 de 9d 3d 66 11 3b 3c 67 9f e1 3d
       0.078353755 0.07708478 0.011417722 0.11016732
000160 c1 61 8c 3d 8e 2d fb bd 4e 44 15 be 63 f3 8a 3d
       0.068545826 -0.12264548 -0.14576837 0.067847036
000170 99 ae 2c be 76 5c 15 be b4 75 87 3d 71 25 c7 3d
       -0.16863479 -0.14586052 0.06614247 0.09723938
000180 b1 f9 9e 3d e9 36 ab 3d 35 bb f5 bd 98 39 b5 3d
       0.077624686 0.08360083 -0.119985975 0.08848876
000190 46 fa 8a 3d 10 b1 45 3d 0e bc 62 3b 08 be 34 3d
       0.06786017 0.048264563 0.0034596953 0.04412654
0001a0 71 66 d0 3d 49 ea e6 bd 92 1d 97 bd 07 f6 b5 3d
       0.10175789 -0.11275155 -0.07378687 0.088848166
0001b0 14 80 b0 3d d0 30 7e bd 5d 6e cf bd d9 33 b3 3d
       0.08618179 -0.06205827 -0.10128472 0.087501235
0001c0 bb 4f dd bd da 69 d1 3d ee f8 a9 bb 26 72 85 3d
       -0.10806223 0.10225268 -0.0051871454 0.06515913
0001d0 3c 62 2a be 3e 9e 90 bd 2e 41 71 bb 7f df ca 3d
       -0.16639036 -0.07061432 -0.0036812532 0.0990591
0001e0 87 ba d2 3c f5 59 ee 3d 4e 5e c9 3c 67 32 3e bc
       0.025723709 0.11638252 0.0245811 -0.011608697
0001f0 98 3e f6 3d 8d d5 51 3d 1f b0 b7 bd ee 90 22 3d
       0.120236576 0.05122905 -0.08969139 0.039688997
000200 71 30 ca 3c fc c0 94 bd 38 6d 3e bc 14 eb 3b bd
       0.024681302 -0.07263371 -0.0116227195 -0.045878485
000210 63 3a 0c be 5d 7a 67 3d 42 db 72 3d 82 d4 ac 3d
       -0.13694148 0.05651318 0.05929113 0.0843897
000220 3b 47 61 bb 2c ed b9 bd 9a 17 c6 3d cf 75 a2 3d
       -0.0034374732 -0.0907844 0.096724704 0.079326265
000230 64 c8 77 bc b1 a8 c6 bd 6c bf f6 bc e3 97 24 bb
       -0.01512346 -0.09700144 -0.030120574 -0.0025114946
000240 c8 49 ee bd c4 cd b8 bd a1 0e 89 bd fe 2e 25 3d
       -0.116351664 -0.09023622 -0.06692243 0.04032802
000250 7d aa b1 3d 43 8c 83 3c aa b7 10 be 60 b9 fc bd
       0.08675096 0.016058093 -0.14132562 -0.12340045
000260 91 d9 83 bd bd ba 4a 3d 2e 48 f5 bc 9b c6 f9 bd
       -0.06437982 0.049494494 -0.029941645 -0.12196084
000270 9f 0b dc 3d 0a fa 26 3d 5c ad 58 bc f3 20 68 bd
       0.10744404 0.0407658 -0.013224926 -0.056672048
000280 b5 ef df 3b 7e c2 48 3c b8 dc fc bd d5 52 4d bc
       0.006833995 0.012253402 -0.12346786 -0.012531956
000290 67 c9 49 bc 54 15 cd 3d 3f 45 fe bd 90 7f c2 bd
       -0.0123160845 0.10013834 -0.124155514 -0.09496987
0002a0 48 13 5c bb d2 4e 40 bd f8 5e 0a be 48 df c9 3d
       -0.0033580828 -0.04695017 -0.1351279 0.09857041
0002b0 c6 d4 32 bc f3 62 df bd 9b 26 b5 3d 25 b2 0b 3e
       -0.010914987 -0.10907545 0.08845254 0.13642175
0002c0 5a cc 06 3e 34 93 91 bc 85 82 f6 3d d4 69 5b 3c
       0.13163891 -0.017770387 0.120366134 0.013391931
0002d0 03 94 c4 bc 1c 26 9f bd e9 03 04 be a5 ba 7c bd
       -0.023996359 -0.07770941 -0.12892117 -0.061701436
0002e0 aa ca c3 bc 87 f7 3c bd 94 ec 40 bd aa fd 56 3d
       -0.023900349 -0.046134498 -0.04710062 0.052488007
0002f0 a1 ad 8a 3d eb 78 fe 3d 62 c6 07 be ac 31 35 3d
       0.06771398 0.12425407 -0.13259271 0.044236824
000300 79 00 03 3c 61 24 37 bc 04 1a 94 ba 2f 24 c9 3d
       0.007995718 -0.011178107 -0.0011299257 0.098213546
000310 b1 5a 91 bd 6a 2f 10 3e fd 37 ef 3d 03 8c 0e bd
       -0.07097376 0.14080587 0.11680601 -0.034801494
000320 62 2c 05 3e f7 17 de 3b ea 9b d6 3d ec e9 76 bd
       0.13005212 0.006777759 0.10478957 -0.06028168
000330 c0 e9 d2 bc d1 39 19 be 70 ab 5a bd cb c1 01 bd
       -0.025746226 -0.14963461 -0.05338615 -0.031678956
000340 67 1d cc 3d c4 75 52 3d 08 28 fd bd b1 16 46 bd
       0.099665456 0.05138184 -0.12361151 -0.048361484
000350 5a c5 0c be 18 9d 64 bd b4 6d 54 3d 8f d5 dc ba
       -0.13747159 -0.05581388 0.051862434 -0.0016848313
000360 a7 12 15 3d 7f f3 a1 3d 0e 3e b9 bd 43 ab 54 3d
       0.03639474 0.07907771 -0.09045039 0.05192114
000370 2e e2 b6 bd 08 7e ad bd 4e 81 87 bd e0 cc 5b 3d
       -0.08929859 -0.08471304 -0.0661646 0.05366218
000380 22 7a 6b 3c 50 74 aa 3d 1d bb 07 3e 42 4f a0 bd
       0.01437238 0.08322966 0.13254972 -0.07827617
000390 fe da 07 be 63 9d de bd 8a ec 22 bd 6d 57 9b 3d
       -0.13267133 -0.10869863 -0.039776362 0.075850345
0003a0 a1 45 38 3c b4 9c c8 3d 06 1e a9 3d c2 57 9c bd
       0.01124707 0.09795514 0.0825768 -0.07633926
0003b0 c9 0f 13 be df 54 e4 3d 11 a9 0a be 64 23 8e bd
       -0.1436149 0.111490004 -0.13541056 -0.06940344
0003c0 5e c5 02 3e 69 94 48 3c b5 1a 14 bc 89 3a 38 bd
       0.12770602 0.012242415 -0.009039571 -0.0449777
0003d0 b9 10 2e 3d 4d 9c 1b 3d f2 2c e6 3d 7d 10 5a bd
       0.042496417 0.037990857 0.112390414 -0.05323838
0003e0 11 98 b4 bd ab cb 6f bc 27 bf ef bc e7 b2 1f 3e
       -0.08818067 -0.014635961 -0.029265953 0.1559559
0003f0 4e bd 01 3e 09 a4 b9 3d 1d 67 2b bd 74 e0 f4 3d
       0.1266987 0.0906449 -0.041846383 0.119568735

cnn2.0.bias f4 [32]
000000 3e 86 60 bd 40 9c fb 3c 50 13 d9 bd 50 2f ee bd
       -0.054815523 0.030714154 -0.10599387 -0.11630118
000010 f3 04 f5 bd 39 cc 28 3e e6 a5 90 bd a5 03 2c 3d
       -0.119638346 0.16484155 -0.070628926 0.041995663
000020 fe 43 92 3d 2b 05 b3 3d 9e e0 3a 3e bb 6a 28 3d
       0.07141875 0.0874122 0.18249747 0.04111741
000030 a9 e4 8f bd a3 3f 22 3e 93 7f 9b 3d 13 ae e7 bc
       -0.07026035 0.15844588 0.07592692 -0.028281247
000040 92 53 cd bd 86 6d f9 bd 7a 58 45 bd 8b 63 68 3d
       -0.100257054 -0.12179093 -0.04818008 0.056735557
000050 26 d8 35 bd d1 58 da bc 39 a5 0d 3d 78 ca eb 3d
       -0.04439559 -0.02665368 0.034581397 0.11513227
000060 f7 76 d7 3d de a5 19 3e 00 7a 1b 3e 97 1b ee 3d
       0.105207376 0.1500468 0.15183258 0.11626356
000070 f1 d1 97 bd 9b 01 10 3d e4 62 7d 3c f8 1b 03 3c
       -0.0741309 0.03515778 0.015465472 0.008002274

lstm1_1.weight_ih_l0 f4 [64, 32]
000000 d5 c3 2d 3e e8 88 95 bd 65 82 21 3e 58 89 49 3e
       0.16969235 -0.073015034 0.15772398 0.19681299
000010 51 f4 45 3d 8a 70 99 bc 0d 61 52 3e c0 37 89 3b
       0.0483287 -0.01873042 0.20544834 0.004187554
000020 07 ab 7d 3e d1 81 54 3d 0b d5 21 be ec 7f d6 3d
       0.24772273 0.051881615 -0.15803926 0.10473618
000030 78 37 6e bd bb 51 0a 3d aa 83 75 3e 30 10 8d 3d
       -0.058158368 0.03376935 0.23976007 0.06887853
000040 f9 f3 51 bd e2 c0 16 be e0 e5 19 3d e4 19 8f 3d
       -0.05125806 -0.14722016 0.03757274 0.0698736
000050 8a fc 07 be a0 cb 94 bc 64 8f 35 3e 28 ef c9 3c
       -0.1327993 -0.018163502 0.1773048 0.024650171
000060 80 5d d3 3d 1b c9 48 3e 59 00 94 3c 93 26 b2 3d
       0.10320568 0.19607966 0.018066572 0.08698764
000070 80 52 ec bd f6 a4 75 3d e0 92 ef 3c 68 05 48 3e
       -0.11539173 0.059971772 0.02924484 0.19533312
000080 7a b4 a5 3e 2b c0 09 be 1a 61 bc bd 4c f1 39 be
       0.32364255 -0.13452213 -0.09198208 -0.18158454
000090 fc fd 6f 3d 0c 77 2e 3e 20 55 22 3d af 2a 49 3d
       0.058591828 0.170376 0.039631963 0.049112972
0000a0 3b 9d 11 3e 11 d0 63 bc 44 f3 9b 3d 1c 86 3f be
       0.14220135 -0.013904587 0.076147586 -0.18703502
0000b0 28 9a 9f 3d 28 a0 91 3e 8d 98 cc 3d a0 5a fd bd
       0.07793075 0.28442502 0.09990034 -0.12370801
0000c0 dc f5 3d 3d 0d 79 02 3e bc 99 27 3e ac 49 0c be
       0.046377048 0.1274149 0.16367239 -0.13699979
0000d0 40 fe 87 bd 17 b6 8c bd 14 87 85 3d 8f 4b 5b 3e
       -0.06640291 -0.068706684 0.06519905 0.21415542
0000e0 ec b1 a3 3c 09 88 05 3e 01 a3 40 bd 6a 9a 42 be
       0.0199823 0.13040175 -0.047030453 -0.19004217
0000f0 54 f9 e1 39 63 d5 5c 3e a8 76 82 bd d6 ad 6e 3e
       0.00043101108 0.21565776 -0.06370288 0.233085
000100 0e c5 b7 3e 76 5d b6 3d 79 ba 6d be 30 7b 2d 3d
       0.35892528 0.08904545 -0.23215665 0.04235381
000110 12 b6 92 bd b4 3d 2a 3e 99 da 99 3d 03 06 4f 3e
       -0.071636334 0.166251 0.07512397 0.20217137
000120 2a 20 96 bd 85 4f 09 bd e8 b2 99 bd d0 e3 42 bd
       -0.073303536 -0.0335231 -0.07504827 -0.04758054
000130 80 2e fd 3c 8d 17 0a 3e 7e e8 29 3e ec de f0 3d
       0.030905962 0.13485546 0.16592595 0.11761269
000140 51 1d bb bd bb 56 6d be 40 df 30 bd 6e 72 78 be
       -0.09136451 -0.23177616 -0.043181658 -0.24262401
000150 d0 b2 bb 3d 41 e3 32 be 00 3e 1c 3e 41 72 17 be
       0.09164965 -0.17469503 0.15258026 -0.14789678
000160 38 1b 09 be 33 b5 b5 3d 61 61 40 3e 22 b2 f7 bd
       -0.1338929 0.08872452 0.18787147 -0.12094523
000170 a3 14 22 be ce 4d 12 be 02 6a 66 be ac 0c 7e be
       -0.15828185 -0.14287493 -0.22501376 -0.24809521
000180 27 96 c7 3d c4 08 5c be 9b 18 e7 bd a6 43 3a be
       0.09745436 -0.21487719 -0.1128399 -0.18189868
000190 36 92 6f 3e e7 5a 58 be 40 49 f1 bd ae 7c 7a be
       0.23395619 -0.21128426 -0.117815495 -0.24461624
0001a0 c5 c5 06 be c9 49 fe 3d e1 2a 4f bd bc 03 ae bd
       -0.1316138 0.12416417 -0.050578002 -0.08496806
0001b0 38 18 1d 3d be 62 74 be 1d 4e d0 bc d0 c5 c3 3d
       0.038353175 -0.23865792 -0.025427872 0.09559214
0001c0 c7 af 50 be cb a3 2a 3e ef aa 90 be 80 9a 4e bb
       -0.20379554 0.16664045 -0.28255412 -0.0031525195
0001d0 f6 b1 48 be 5d ed 86 be 34 a1 97 bd 78 a8 13 3c
       -0.19599137 -0.2635297 -0.07403794 0.009012334
0001e0 1e 33 67 bd 13 45 89 be 31 84 65 bc f4 3a dd 3d
       -0.056445234 -0.26810512 -0.014008568 0.1080226
0001f0 aa 8c 06 be 11 e8 81 3d 40 c9 4f bc de 99 20 3e
       -0.13139597 0.06343091 -0.012682259 0.15683696
000200 87 ca 35 3e da 95 34 3e dc aa 86 3d d8 ee 16 be
       0.1775304 0.17635289 0.065755576 -0.14739549
000210 39 11 ef 3c a4 42 e1 3d 08 9a af bd d8 ef 20 be
       0.029183017 0.10999039 -0.08574301 -0.15716493
000220 e5 14 fb bd 4e ac e7 3d 6f 04 d0 3d 98 d6 e7 3d
       -0.12259845 0.113121614 0.10157096 0.113202274
000230 b4 6c 43 3e a8 72 7e 3d 3c 38 75 3d 8c 6b ea bd
       0.19084436 0.062121063 0.059868082 -0.11446294
000240 a8 f5 5b 3d 28 04 49 3e da d3 58 be 40 09 64 3c
       0.053701073 0.19630492 -0.21174565 0.013918221
000250 da 7f 1b be 79 0f 5d be 98 d0 07 3e 1e 1b 9f 3c
       -0.1518549 -0.21587934 0.13263166 0.01942211
000260 77 57 72 3e 44 72 01 bc 07 da 47 3e 7e 35 2e 3e
       0.23666178 -0.007900778 0.19516765 0.17012593
000270 4e 0b 74 3e 2b fc fe 3d 60 6c ed bd c0 b9 22 3e
       0.23832437 0.12450441 -0.115929365 0.1589117
000280 53 91 60 3c 7e d9 51 3e 74 a2 7d bd a0 b5 6f 3e
       0.013706523 0.20493123 -0.061922505 0.23409128
000290 b2 8d 37 3e 67 78 b5 3b 87 f7 be bd e2 8b 9b bd
       0.17925146 0.0055380347 -0.09324556 -0.0759504
0002a0 8d 4a a2 bc c9 a7 ce bd b0 88 c8 bd d8 a2 5d 3d
       -0.01981094 -0.10090596 -0.09791696 0.054110378
0002b0 c0 d9 87 3b 64 24 87 3e 1b e8 67 bc bc 2d e1 3d
       0.004145831 0.2639495 -0.014154459 0.10995051
0002c0 bf 83 06 3e 7b 15 53 3e cb 7c e9 bd b8 36 0c 3e
       0.13136195 0.20613663 -0.114007555 0.13692749
0002d0 80 8b 6f 3e 3a 33 72 be f0 8b 6b be 17 9d fd bd
       0.23393059 -0.23652354 -0.230026 -0.12383478
0002e0 9d 90 38 3e 60 66 1e 3e 30 44 69 be 81 e2 51 be
       0.18023916 0.1546874 -0.22779918 -0.2049656
0002f0 32 a2 0b bd 5e 9d 32 be 1e 4e 08 3e 6e 7c 53 be
       -0.03409023 -0.17442843 0.1331105 -0.20652935
000300 1f 0c 17 3e 01 e8 4c be 02 ba fc bd da 03 42 be
       0.14750718 -0.20010377 -0.12340166 -0.18946782
000310 07 19 d8 bd a6 8b 38 bc 6e 31 3e 3e 39 cf b3 bd
       -0.105516486 -0.0112637635 0.18573543 -0.08779759
000320 a6 33 35 be dd e3 cd 3d 95 04 43 bd 86 87 0f 3e
       -0.17695484 0.10053227 -0.04761179 0.14016542
000330 8c bb 8f bd 3c 36 fa 3c f9 1c 2b be b8 2e 0f 3d
       -0.070181936 0.03054344 -0.16710271 0.034956664
000340 4a 97 ee 3d e3 87 57 be 16 3c 07 bd fc 55 d8 bd
       0.1164995 -0.2104793 -0.033016287 -0.10563275
000350 c0 48 fe bc e2 24 dd 3d 58 7f e1 3d 53 28 35 3d
       -0.03104055 0.107980505 0.11010617 0.04422791
000360 fa 71 a9 bd d0 4a 76 3e 65 17 36 3e 20 f0 53 3e
       -0.082736924 0.24051976 0.17782362 0.20697069
000370 89 c8 82 be 73 b5 5b bc 42 59 06 be fc 91 ea 3d
       -0.2554362 -0.01340996 -0.13119987 0.114536256
000380 99 b2 27 3d 5a d5 09 be 08 f0 c4 bd a4 7d 25 be
       0.04094181 -0.13460293 -0.09616095 -0.1616121
000390 8e a5 28 3e e0 1b 94 bd f9 a2 bc 3b c1 d3 76 bd
       0.16469404 -0.07231879 0.0057567325 -0.060260538
0003a0 8e 3d 53 3e 3a c3 51 be 6d 2f 1f be bc 22 3a be
       0.2062895 -0.2048463 -0.15545435 -0.18177313
0003b0 18 1b db bd b9 54 a0 3c 75 fc 52 3e 4e 34 7d be
       -0.10698527 0.019571649 0.20604117 -0.24726984
0003c0 dd 91 04 3d 36 13 23 be 00 d8 13 3e fc f3 17 be
       0.03236567 -0.15925297 0.14437866 -0.14839166
0003d0 f2 10 33 be fc d9 22 3d 00 b6 84 bb ea ea 6d 3e
       -0.17486933 0.039758667 -0.0040500164 0.23234144
0003e0 62 ca 76 be 81 74 43 be d6 9e 51 3e a1 b5 16 3b
       -0.2410064 -0.19087411 0.20470747 0.0022996443
0003f0 86 66 3b 3e f6 45 e4 3d b8 23 55 bd fc b6 f4 3d
       0.18300828 0.111461565 -0.052036017 0.11948964

lstm1_1.weight_hh_l0 f4 [64, 16]
000000 26 9a 97 3d 5c 5c a1 3d 00 a5 34 be 2c c5 0d 3e
       0.07402448 0.07878944 -0.17641068 0.13844746
000010 2f 36 fb 3d 06 71 5e 3e ad 81 8f bd 6b ae 1f be
       0.12266194 0.21722803 -0.070071556 -0.15593879
000020 e7 0c 75 3d e3 20 5b 3d 4f 34 ac bd fe 8a 25 3e
       0.059826758 0.05349816 -0.084084146 0.16166303
000030 79 ae b9 bd d8 97 6d be 3a 2e 7c 3e 4d 3b 62 3c
       -0.09066481 -0.23202455 0.24627009 0.013808084
000040 a8 0c d9 bc b5 9c 63 be 83 39 61 3e 32 10 a8 3d
       -0.026495293 -0.22227748 0.21994595 0.08206214
000050 92 4d a6 bc 55 45 80 be e6 90 ef bd 60 c2 c6 bd
       -0.02030066 -0.25052896 -0.11697559 -0.09705043
000060 2a cd 24 be 1c b0 35 3e 91 de 27 3d 49 2b 1a 3e
       -0.16093889 0.17742962 0.04098374 0.15055574
000070 58 10 51 3c 8a 43 48 3d e9 ee 35 3e 1e 56 2b 3e
       0.012760244 0.048892535 0.17766918 0.1673207
000080 6a ae 4e be 09 ad 25 be 68 48 4a be dd 7b 90 3d
       -0.20183721 -0.16179289 -0.19754183 0.07054875
000090 62 1d 83 3a d8 3c 19 3d e6 91 4d be 1b 4b eb 3d
       0.0010003264 0.03741154 -0.20075187 0.114889346
0000a0 5d 4d 24 be 23 ed 1c 3e cc e4 4e 3e 0b e0 4d be
       -0.16045137 0.15324835 0.20204467 -0.20104997
0000b0 95 12 09 3e 9d d8 6e 3c 1b 83 38 be a4 08 3d 3e
       0.13385995 0.014578012 -0.18018763 0.18460327
0000c0 4b f0 3e 3e 54 12 48 3e d0 91 c4 3d 95 55 83 be
       0.18646352 0.19538242 0.09598124 -0.2565123
0000d0 e5 51 c6 bd 0b 71 45 be 77 84 83 be b1 23 42 3c
       -0.09683589 -0.19281404 -0.25687 0.01184933
0000e0 3a 07 b4 bd 9f 13 1d bd f6 14 11 3e 05 77 2d bd
       -0.08790441 -0.03834879 0.14168152 -0.042349834
0000f0 b0 20 08 be 70 0e 5d be ac bc dd bc 3c e0 d0 bb
       -0.1329372 -0.21587539 -0.027067505 -0.006374387
000100 1a f9 01 be b2 32 47 be 28 00 d7 bd cc 23 76 3b
       -0.12692681 -0.19452932 -0.10498077 0.0037557958
000110 60 9a 53 3e 82 15 0b 3e d0 d5 22 be 0a 6a bc 3d
       0.20664358 0.13582423 -0.15901875 0.09199913
000120 32 54 30 be ff 20 a3 bd b7 ae cf bd 82 cb c8 3d
       -0.17219618 -0.07965278 -0.10140746 0.09804441
000130 27 44 fd bd 21 8e 27 be 8f ea 00 bd e5 9c 3e 3e
       -0.12366515 -0.16362812 -0.031473693 0.18614538
000140 58 e1 e1 bd 1f 92 0a be bf a1 e5 bd 7b 35 53 be
       -0.11029309 -0.13532303 -0.11212491 -0.2062587
000150 05 cb 09 be a8 86 e2 3d e4 34 01 be bf 63 30 3e
       -0.13456352 0.1106084 -0.12617832 0.1722555
000160 e3 c6 23 bc 5f a8 59 be 5d 56 09 bd c8 73 73 bd
       -0.009996149 -0.21255635 -0.033529628 -0.05943659
000170 ab 8c 2c 3d bc 51 8c 3d 5d 0a 97 3c 17 1d 87 be
       0.04212634 0.06851527 0.018437559 -0.2638938
000180 d3 e3 2a be 45 87 34 be 14 2c 73 be 54 9d 21 be
       -0.1668847 -0.17629726 -0.23747283 -0.15782672
000190 d4 f8 53 be 3c da f5 3d 75 bb c6 3d 7b 91 46 3c
       -0.20700389 0.120045155 0.09703723 0.012119646
0001a0 5d 6c db 3c 52 d7 d9 3d 5c 5c 5f 3e d0 5a 5e be
       0.02678507 0.10636772 0.21812576 -0.2171433
0001b0 36 74 61 be f6 60 f1 bc 61 b0 10 3d bd 3b 79 be
       -0.22016987 -0.02946518 0.035324458 -0.24339195
0001c0 03 df 65 be be c3 dc 3d 6f cb 35 3e 00 67 29 be
       -0.22448353 0.10779522 0.17753385 -0.16543198
0001d0 4b 7e 39 3d f9 93 00 3e cb ab 3c 3e 17 14 fa 3d
       0.045286458 0.12556447 0.18424909 0.12210863
0001e0 77 7f 5b bc 4d a7 29 3e 6d cb 46 be d6 49 2b 3d
       -0.013397089 0.16567726 -0.19413538 0.041818462
0001f0 6b d7 d0 3c e9 5d 60 3d 80 ad 0b 3d 45 fd d7 bd
       0.025493344 0.05477706 0.03410101 -0.10546354
000200 98 73 34 3c 58 fb c3 bd 75 00 68 3c 30 87 42 3e
       0.011013888 -0.095694244 0.014160265 0.18996882
000210 6e 10 0a be b0 76 47 3d ec 73 00 be cf 29 8a 3d
       -0.1348283 0.048697174 -0.1254422 0.067462556
000220 07 ba 85 3d 48 20 bf 3d 18 12 e1 3d 36 21 f6 bd
       0.065296225 0.09332329 0.10989779 -0.12018053
000230 81 00 49 3d f5 2a 32 bd 5f 01 47 be 90 e9 d3 3d
       0.049072746 -0.043498 -0.19434117 0.10347283
000240 d2 09 8c 3b af 9a e1 bc 5b f3 15 3e 9c fc 5f bc
       0.0042736316 -0.02753958 0.14643614 -0.013671067
000250 b7 e9 49 3e a5 1b 79 3b 0b aa 72 3e 09 4e 77 be
       0.19718061 0.0038010862 0.23697679 -0.24150862
000260 97 4f 60 be 4e 48 f0 3d 70 ba 3f bd 8d 77 2d 3e
       -0.21905361 0.11732541 -0.04680866 0.16940136
000270 42 ca 19 3d ae a1 9c bd d4 7d bd 3d 0c 3a 85 3b
       0.037546404 -0.076480255 0.092525154 0.0040657576
000280 e8 e2 18 3e 1a a3 aa bd c9 ef 17 be 7f c8 50 3e
       0.14930308 -0.083318904 -0.14837565 0.20388983
000290 1a 77 19 bd 5c 43 ab 3d 2e f1 b0 bc 64 98 c6 3d
       -0.0374671 0.08362457 -0.021599378 0.09697035
0002a0 aa 73 df bd 4a 04 52 3e 30 bc 4c 3e e2 04 11 3e
       -0.10910733 0.20509449 0.19993663 0.14162019
0002b0 00 3d 42 be 75 03 48 3e 8e b7 83 bd f0 86 a8 bd
       -0.18968582 0.19532569 -0.06431495 -0.08228862
0002c0 54 fd aa bd b6 3b c3 3d a9 97 40 be 92 ec 1a be
       -0.083491 0.09532873 -0.18807854 -0.15129307
0002d0 cd 40 d0 bd 45 41 00 3c 83 1d 1f bd a4 8b 23 be
       -0.1016861 0.0078280615 -0.038846504 -0.15971237
0002e0 a6 a3 25 3e ff fc fa bd 8a b0 6a 3e 37 da 21 3c
       0.16175708 -0.122552864 0.22918907 0.009878687
0002f0 b5 a6 da 3d 30 35 81 3e d1 4d 5a 3e e6 2e 6b be
       0.10676328 0.2523589 0.21318747 -0.22967109
000300 34 4e 5d be 82 9f 1f 3e fc 08 48 be cd a3 e1 3d
       -0.21611863 0.15588191 -0.19534677 0.11017571
000310 16 bc 27 bd 2c 34 08 bd b2 cf ae bc d9 2a 50 3e
       -0.040950857 -0.03325288 -0.021339271 0.20328845
000320 b8 ca 6e be f5 27 3a be 39 da 5f be 2f 57 69 3c
       -0.23319519 -0.18179305 -0.21860589 0.014241978
000330 fb 08 74 be 3b 02 35 3e 7d 08 84 bd 10 62 19 be
       -0.23831551 0.17676632 -0.064469315 -0.14978814
000340 1c 24 72 3d a2 35 ad bd ad 94 26 be e4 e2 e7 3c
       0.059116468 -0.08457495 -0.16267653 0.028306432
000350 00 b6 4d be b4 3f 16 be bb b4 17 3e a7 68 25 3e
       -0.20088959 -0.14672738 0.14815037 0.16153203
000360 d2 5c 22 be 03 cf 4f bc 13 a0 ef bd d4 9f 55 3e
       -0.1585572 -0.012683633 -0.117004536 0.20861751
000370 ae c9 4c be 87 4b 1f bd 58 e7 42 3d 09 9e ac 3d
       -0.1999881 -0.038890388 0.047583908 0.0842858
000380 bf c0 5d be 99 c0 f4 3d e6 44 c7 3d a2 62 3d be
       -0.21655558 0.119507976 0.09729938 -0.18494657
000390 bf 2f 1e 3c 19 e5 10 be 64 77 53 be d6 e6 e8 3c
       0.009654938 -0.14149894 -0.20651013 0.028430384
0003a0 90 26 ce bc dc 67 53 bd 4d 7b 44 be 81 20 fb 3d
       -0.025164872 -0.05161272 -0.1918766 0.12262059
0003b0 5e a2 3a 3d 18 f1 7e bd 36 0b 83 3d 1c fc 0b 3d
       0.045565 -0.062241644 0.06398623 0.034175977
0003c0 ca cb 4c 3e b3 b4 9f 3b c4 af 36 bd 80 12 03 be
       0.19999614 0.004873836 -0.044601217 -0.12800026
0003d0 a6 d1 7d 3c b4 e8 20 3e 24 be 83 3e 8d 52 47 bd
       0.015491879 0.15713769 0.25731003 -0.04866271
0003e0 14 63 f7 bd 10 bc 2d 3e cf 1a 79 3c 2e eb 31 3e
       -0.120794445 0.16966271 0.015204146 0.1737487
0003f0 be 41 43 be c3 58 30 3e aa a6 3e 3d 35 99 16 be
       -0.19068047 0.1722136 0.046545662 -0.14706881

lstm1_1.bias_ih_l0 f4 [64]
000000 84 b3 a6 3d 09 cc 46 be 1b 9f 15 bc 46 54 67 be
       0.08139709 -0.1941377 -0.009132172 -0.22590742
000010 ea 82 09 3e 49 8a 58 3e 81 ae b1 3d a0 23 13 bc
       0.13428846 0.21146502 0.08675862 -0.008980662
000020 05 b6 de 3d 4b 4e 4d 3e 01 23 60 bc a3 39 49 be
       0.10874561 0.20049398 -0.013680221 -0.19650893
000030 01 3d 26 be 91 dd 08 3e f6 d0 c2 3d b8 ce 71 3e
       -0.16234209 0.13365771 0.095125124 0.23614013
000040 ed a3 f9 bd 00 7c 15 3e 7d 85 ab bd 0d 49 6f 3d
       -0.121894695 0.14598083 -0.0837507 0.058419276
000050 80 d1 8d 3b a3 79 4e 3e 98 e3 43 be ee b2 0d be
       0.004327953 0.20163588 -0.19129789 -0.13837788
000060 7a 39 20 3d 15 60 6a 3e ef 0a 6a be 9f b6 8a 3d
       0.039117314 0.22888215 -0.22855733 0.067731135
000070 18 e7 5b be fe 3a 30 3e de f0 04 be 0e 05 a5 bc
       -0.21474874 0.17210004 -0.12982509 -0.020144012
000080 9e 7f 84 bd 52 16 10 3e da 4d 12 3c ee c5 6a 3e
       -0.064696535 0.14071015 0.008929694 0.22927067
000090 9e c7 40 3e ed c9 6a be 09 e2 99 3d 5c 78 2a be
       0.18826148 -0.22928591 0.07513816 -0.16647476
0000a0 38 78 5e be 57 07 65 be 63 02 55 3e da 37 86 bb
       -0.21725547 -0.22366081 0.20801692 -0.0040960135
0000b0 9f ed 3d 3e 1a d8 2d 3e 65 8d b7 3d 02 e9 0f bc
       0.18547677 0.16976967 0.08962516 -0.008783581
0000c0 86 04 d9 3d 17 9a e8 3d 94 0c 5b bd 37 bb 23 3e
       0.10596566 0.11357515 -0.053478792 0.15989386
0000d0 00 64 36 bd 1f aa 42 be 02 ba ce 3d a1 1b d5 3c
       -0.04452896 -0.19010209 0.10094072 0.026014151
0000e0 21 eb 70 3c 3f c4 18 3d fd d9 af 3d 5d 38 0a be
       0.014704497 0.03729653 0.085865 -0.13498063
0000f0 7b f6 58 bd 13 06 6e 3e 22 e9 09 3e 70 66 16 bd
       -0.052969437 0.23244505 0.1346784 -0.036718786

lstm1_1.bias_hh_l0 f4 [64]
000000 6e 1b bb 3b 66 fc 4e 3d 10 87 51 be 8a a7 ad 3d
       0.005710057 0.050533675 -0.20461679 0.08479221
000010 bc 6b 0b 3e 9b 10 61 be 6b 89 ac bd e9 e3 7a 3e
       0.13615316 -0.2197899 -0.08424648 0.24501003
000020 48 91 5f be bb d3 dc bc 1e ad 60 3e 95 56 54 3e
       -0.21832764 -0.02695643 0.21941039 0.20736153
000030 63 3c 4c 3e 22 a3 01 bd df 38 5b 3e b9 dd ee bc
       0.1994491 -0.031649716 0.21408413 -0.02915846
000040 c7 d3 47 be 22 29 1b bd 50 0e 42 3e 2c f8 8c bb
       -0.1951438 -0.037881024 0.18950772 -0.0043020453
000050 4f e7 4a 3e 43 55 47 be 1e b8 ab bd 8a 5f 4c be
       0.198148 -0.19466119 -0.08384727 -0.1995832
000060 d9 e7 44 be fd 5c 66 be 9f 75 13 3e 63 18 be 3d
       -0.19229068 -0.2249641 0.14400338 0.09281995
000070 b9 2a 9f 3d 9d 7c cb 3d 01 2a 30 be f4 0a bd 3d
       0.077718206 0.099358775 -0.17203523 0.09230605
000080 2a d9 d7 3d 63 44 7f 3e 31 77 71 bd b9 dd f1 3d
       0.10539468 0.24928431 -0.05895156 0.11809868
000090 7e 9a 14 be 37 4e 36 be 41 6c be 3d c4 82 45 3e
       -0.14512059 -0.17803274 0.092979915 0.19288164
0000a0 ce 65 7f 3e 6c 3c e5 3d 35 bb 57 be 7b 5d 7c be
       0.24941179 0.11193165 -0.21067508 -0.24645035
0000b0 58 77 ed 3d 5e 8e 0b bd e7 14 75 bd 34 cd 53 3e
       0.11595029 -0.03407132 -0.059834387 0.20683748
0000c0 d1 63 60 be 98 74 2f 3e d7 a6 46 be 65 cb 20 be
       -0.21913077 0.1713432 -0.19399582 -0.15702589
0000d0 8e f9 69 3e 25 60 e1 bd 2d 62 29 bd 96 e2 99 bd
       0.22849104 -0.11004666 -0.041353393 -0.07513921
0000e0 26 76 14 bd be 07 3d be 85 a0 1f 3e b3 ee 8b 3d
       -0.036245488 -0.18459985 0.15588577 0.06832638
0000f0 1c 97 ec 3b 0a 45 2a bd f5 6e 88 be 5f 7a f0 3d
       0.007220162 -0.041569747 -0.26647153 0.117420904

lstm1_1.weight_ih_l0_reverse f4 [64, 32]
000000 b9 71 3d 3e 59 80 90 3c 7d 42 3d 3d 20 50 9a 3c
       0.18500413 0.017639326 0.046205986 0.018837035
000010 a4 6c 4f 3e f3 96 e5 3d e4 e6 37 3e 7a 17 e8 3d
       0.20256287 0.11210432 0.17959172 0.11332603
000020 da ea ef bd 6e 8e 55 3c d1 58 55 be 66 c5 61 3e
       -0.11714716 0.013034446 -0.20834662 0.22047958
000030 7e 0d 0a 3e 40 50 9b 3e 75 b6 b2 bd 6c 02 53 be
       0.1348171 0.30334663 -0.08726207 -0.20606393
000040 d8 3e 1f be ea d4 0c 3e 92 d5 fc 3d 80 9c 0d 3d
       -0.15551317 0.13753095 0.12345423 0.03457308
000050 cc 5a 7b be de 1e 18 bc b4 b9 4b be b0 ca 90 bd
       -0.24546355 -0.009284703 -0.19895059 -0.070699096
000060 80 4d 6a bd d6 3b 3e 3e d0 89 56 bd 3b c9 02 be
       -0.057202816 0.18577513 -0.052377522 -0.12772076
000070 05 1f 30 be 7d 0f 7e 3e c0 79 db bd a8 a4 25 be
       -0.17199333 0.24810596 -0.10716581 -0.16176093
000080 85 17 03 be 57 ea 49 be 33 6b 6f bd 7c 05 15 be
       -0.1280194 -0.197183 -0.058451843 -0.14552873
000090 4b b3 4d 3d 54 1a a0 3d d2 a1 73 3d b0 ec 64 3e
       0.050219815 0.07817522 0.059480496 0.22355914
0000a0 bc 34 83 be 7e 02 6f be d8 64 8a 3e 38 0f 13 bd
       -0.2562617 -0.23340794 0.27030063 -0.035903186
0000b0 f8 13 08 3e 07 63 c2 bd 63 ac 1e 3e d4 13 14 be
       0.13288867 -0.09491544 0.15495448 -0.14460689
0000c0 ed c0 74 be 0a f8 8a be 84 b7 0c 3e 50 4f 48 be
       -0.2390172 -0.27142364 0.1374188 -0.19561505
0000d0 02 67 0f 3e 69 45 5e be b8 7a d0 3d 17 a4 1a be
       0.14004138 -0.21706165 0.10179657 -0.15101658
0000e0 b8 6d 9a 3d 4b 9f 09 3d 95 04 7d bd 7a 7c 88 bd
       0.075404584 0.03359918 -0.061771948 -0.06664367
0000f0 15 f2 a0 bd 44 4d 9c bc b8 cc 0a 3d 8a 7a 0f 3e
       -0.078586735 -0.019079812 0.03388664 0.14011589
000100 78 83 63 3e 41 9d 0b be 43 05 6a 3e 80 5c d0 bb
       0.2221812 -0.13634206 0.2285357 -0.006358683
000110 d7 4c a1 bd 91 c7 61 3e 75 3c be bd ec 9f 3b 3e
       -0.07875984 0.22048785 -0.09288875 0.18322724
000120 6f 33 48 3e 05 9a 0b 3e e9 53 5b bd 38 95 21 3d
       0.1955087 0.13632973 -0.05354682 0.039448947
000130 80 fe 01 bd a3 c1 03 3e 5a 7b ee bd 4c 7f c0 3d
       -0.03173685 0.12866835 -0.11644621 0.0939928
000140 6f 56 ea 3e 3c bc 6a 3d 24 0b b1 3e 80 22 6f bc
       0.4576907 0.05730842 0.34578812 -0.014595628
000150 10 da 7b 3e 52 6f 56 3e 00 19 c4 bc 63 ad 13 3e
       0.24594903 0.20940903 -0.023937702 0.1442161
000160 34 b9 65 be a2 ea 38 3e ad c4 93 3e 91 48 0f 3e
       -0.2243393 0.18058255 0.2886099 0.13992526
000170 e1 b3 6a be 30 e4 27 3e 84 bc 2f be 0e 15 2d 3e
       -0.22920181 0.1639564 -0.17161757 0.16902563
000180 12 79 ac 3e cc 1b 07 be 5e 38 13 be be f2 68 3e
       0.3368612 -0.13194197 -0.14376971 0.22748849
000190 27 20 5e be c5 86 46 3e 07 e3 79 3e 52 1d 69 3e
       -0.21691953 0.19387348 0.2440301 0.22765091
0001a0 79 1e 67 3e c2 2d 6f bb 63 bc 10 3e 8c e8 a2 bd
       0.22570218 -0.003649578 0.14134364 -0.07954511
0001b0 20 af 6a 3e 8d 69 4f be 89 7c 36 bd 14 6d 40 be
       0.22918367 -0.20255108 -0.04455236 -0.1879161
0001c0 d6 d0 6a 3e 2d e4 cf bc cf c9 88 3c 46 4a 65 3e
       0.22931227 -0.025377357 0.016697792 0.22391614
0001d0 fa 1f 65 be 15 59 31 be 74 81 50 3e 6e 32 5d 3e
       -0.2237548 -0.17319138 0.20361882 0.21601269
0001e0 e7 f0 4f be f8 77 87 bd 6f d4 18 be bd 72 7a 3d
       -0.2030674 -0.06614679 -0.14924787 0.06114458
0001f0 8c c7 57 3e 64 3c c9 bd bc 0e de 3d 00 a0 eb 38
       0.21072215 -0.09825972 0.10842654 0.000112354755
000200 c7 2c 35 3d 41 3b a8 bd db d5 ca 3d fa ae 3a 3e
       0.044232156 -0.08214427 0.09904071 0.18230811
000210 92 d4 01 3e eb cd 4a bd 5f 4c 30 3e 4b 1f 4b be
       0.12678745 -0.049512785 0.17216633 -0.19836156
000220 95 09 6e 3c fb e6 16 3e aa b6 c3 bd 38 9d 43 bd
       0.014528652 0.1473655 -0.09556325 -0.047757357
000230 e8 e7 50 3d ab 67 99 3e c4 3c 33 3e 38 f6 76 be
       0.051002413 0.29961905 0.17503649 -0.24117362
000240 2a 0b 7d 3e e3 88 47 be 8e ac 0e be c0 62 89 bb
       0.2471129 -0.19485812 -0.13933012 -0.00419268
000250 e6 fe 46 3e 20 5a 71 bd 50 a6 90 bc 08 af 50 3e
       0.19433174 -0.05892384 -0.017657429 0.20379269
000260 ab 4f 61 be 77 07 68 3c f6 a5 5e 3e 15 57 a1 3d
       -0.22003047 0.014161936 0.21742997 0.07877938
000270 3e 47 04 be 5f 07 ad bd 9a 4c 2b be 96 c5 2b 3e
       -0.12917802 -0.084486715 -0.1672844 0.16774592
000280 a1 45 0c bd 47 17 3c 3e 12 b8 bb 3d ec 36 0a 3e
       -0.03424609 0.18368255 0.09165968 0.13497514
000290 0b d5 6d be cf 1f 7c be 44 b6 3e 3e 5a dd b9 bd
       -0.232258 -0.24621509 0.18624216 -0.090754226
0002a0 5e 01 1f be be 44 95 bd b9 bd 44 be 7e dc 69 be
       -0.15527865 -0.07288502 -0.19212998 -0.22838017
0002b0 e2 65 2a 3e 7e ee 0a be ed 81 af 3d 50 6a 4a bd
       0.16640428 -0.1356754 0.08569703 -0.049417794
0002c0 a6 0c 5e be f9 a4 32 3e 92 81 70 be e4 b6 96 3d
       -0.21684512 0.17445745 -0.23486927 0.07359102
0002d0 c0 6f e0 bb 7a b8 69 3d 22 41 47 be 5e b4 25 3e
       -0.006849259 0.057060696 -0.1945844 0.16182086
0002e0 1b bf 4d be c1 cf a0 3d 97 16 5f be 39 f0 f0 bd
       -0.20092432 0.07852126 -0.21785961 -0.11764569
0002f0 a6 f1 5d 3e a9 1e 2f 3e d8 f5 73 3d 54 e1 b2 3d
       0.21674213 0.1710154 0.059560627 0.08734384
000300 66 3d 89 3e 38 9a cd 3c e9 bd 59 be cc cf 70 be
       0.26804656 0.025097951 -0.21263851 -0.23516768
000310 b0 99 32 be 3c d7 06 be 0e 3a 4f be 9d 2a a6 bd
       -0.1744144 -0.13168043 -0.2023699 -0.081135966
000320 95 d6 49 3e 26 02 6d 3e d8 b6 ca 3d 38 af 7f be
       0.19710763 0.23145351 0.09898156 -0.24969184
000330 d0 4a b6 3c 63 57 46 be 19 c4 33 be 00 10 2b b9
       0.02225247 -0.19369273 -0.17555274 -0.00016313791
000340 49 1c 11 be cb b4 1c bd ff 7b a5 3d 4c ee 57 3e
       -0.14170946 -0.038258355 0.08080291 0.21086997
000350 cc 3d 35 3e 7b bd 62 3e 64 17 4b 3e 7a 02 1c bd
       0.17699355 0.22142594 0.19833142 -0.0380883
000360 5d e7 cb bd 35 ea f7 bd 99 55 13 3e a9 5d 14 3e
       -0.099562384 -0.12105218 0.14388122 0.14488854
000370 7e a6 8f bd b9 84 87 3d d2 42 23 3e 3a de 6a 3e
       -0.07014178 0.06617112 0.15943459 0.22936335
000380 6f fa 77 3d 44 5a a3 bc 50 03 45 bc ea 50 22 3e
       0.060541566 -0.019940503 -0.012024716 0.15851179
000390 e0 7a f3 3a ed ed 7b be 03 89 06 3e 40 49 09 be
       0.0018576048 -0.2460248 0.13138203 -0.13406849
0003a0 e2 ed 85 be da c8 1d be 36 f4 a3 3d f0 a5 a1 bc
       -0.26158053 -0.1540865 0.08005564 -0.019732445
0003b0 00 ea 43 ba 90 56 1b 3d 98 13 05 bc a6 41 14 3e
       -0.00074735284 0.03792435 -0.008122347 0.14478168
0003c0 37 6a 2e be cb a9 54 3e 45 52 85 be 42 cf 04 3e
       -0.17032705 0.20767896 -0.2603933 0.12969688
0003d0 a6 45 34 3e 9b d5 79 be e4 69 8b bd de 3a f4 3d
       0.17604694 -0.2439789 -0.068073064 0.119252905
0003e0 2e b9 3a be 79 dd 33 bd fd 8d f6 bd 49 ca 5d be
       -0.18234703 -0.043912385 -0.12038801 -0.21659197
0003f0 4a 8c 2c 3e 96 23 28 3e b6 07 0a 3e 1e 06 05 3e
       0.16850391 0.16419825 0.13479504 0.12990615

lstm1_1.weight_hh_l0_reverse f4 [64, 16]
000000 22 8a 73 be 74 96 1e be b5 24 3f bd 47 bc 62 3d
       -0.23783162 -0.15487081 -0.046665866 0.055355337
000010 ce 39 85 bd bc a2 de 3c da b4 b4 3d 0d 11 39 3e
       -0.06505166 0.027177207 0.08823557 0.1807291
000020 a7 02 4f be 9b e1 db 3d 85 d9 38 be 4f 32 d6 bd
       -0.20215856 0.1073639 -0.18051727 -0.10458814
000030 b2 b7 f1 3d f6 c6 a8 3d 5f df a4 3e ea 3e e6 3d
       0.11802615 0.08241074 0.3220167 0.11242469
000040 03 54 05 be 62 ab 72 3e 54 a6 99 bc bc 07 b8 3d
       -0.13020329 0.2369819 -0.01875607 0.0898585
000050 6d 55 18 3d 52 61 f9 bd ff 79 af bc 6f 95 c7 bd
       0.037190843 -0.121767655 -0.021420477 -0.09745299
000060 79 3c 1d 3e 0e 2f cb 3d 8d 40 29 bd 38 a9 13 3e
       0.153551 0.09921084 -0.041321326 0.1442002
000070 f2 88 f6 ba 7d 67 0c be 72 75 42 3e 19 3b 36 be
       -0.0018809123 -0.13711353 0.18990114 -0.17795981
000080 e5 88 28 3d 2e 9a cd 3d 41 d1 32 be 65 de 3c be
       0.041146178 0.10039173 -0.17462637 -0.18444212
000090 dd 52 28 3e a4 0b 98 3b 1b 65 c7 bd 16 0d 48 be
       0.1643786 0.0046400595 -0.09736081 -0.19536242
0000a0 22 7d 4d 3e cc 88 8d 3e 2b c0 42 be 3b b4 1d be
       0.20067266 0.2764343 -0.19018619 -0.15400784
0000b0 60 d4 e5 3d 14 68 3f be c0 96 15 be 97 b5 82 3c
       0.11222148 -0.18692046 -0.14608288 0.01595573
0000c0 28 9b 0f be 7f 9c 8d bd e3 d0 4d 3d 36 90 7d 3d
       -0.14024031 -0.06914615 0.050248038 0.06190511
0000d0 63 00 09 be 32 be 49 be d9 24 8c bd ec 9e 42 3e
       -0.13379054 -0.1970146 -0.06842966 0.19005936
0000e0 26 bf 82 3c b9 cc 19 be 7d e7 17 3e c9 1a 9d 3d
       0.015960287 -0.15019502 0.148344 0.076711245
0000f0 9a a2 80 bb 21 fc 8d 3b d9 17 05 3e 24 c6 3f 3d
       -0.0039256336 0.0043330346 0.12997378 0.04681982
000100 cd b5 aa 3c b5 f9 12 bd a5 03 a1 bd c7 01 a1 3d
       0.020838642 -0.03588267 -0.07862023 0.07861667
000110 82 05 50 be f5 e7 27 3e ca ab 3e 3e b7 4b 74 be
       -0.20314601 0.16397078 0.1862022 -0.23857008
000120 f9 98 e0 3d 85 e5 31 3e 03 ca 34 3d 78 ef 3a bd
       0.10966677 0.17372711 0.044137966 -0.04563853
000130 8b 85 6f bd b0 07 d8 3d 63 06 ac 3c e4 40 a0 bc
       -0.058476966 0.10548341 0.02099914 -0.019562192
000140 68 d4 b8 bd 3e f6 f2 3d bc 11 59 be 3f 24 29 3d
       -0.09024888 0.11863373 -0.21198171 0.041294333
000150 75 94 0b 3d dd 4d 8b bd 5f ba 83 be d3 29 ab 3d
       0.034077127 -0.068019606 -0.25728127 0.08357587
000160 18 be 4a be 3b f6 55 be 36 0e 85 be bc 0c 56 3e
       -0.19799078 -0.2089471 -0.25987405 0.20903295
000170 b7 33 08 be bf fe 25 3e 56 85 3a 3e d6 4c 17 3e
       -0.13300978 0.16210459 0.18214926 0.14775404
000180 0c 25 3e be ac 8a 45 be 5b d3 1d 3e 06 5b 62 be
       -0.1856882 -0.1929118 0.15412657 -0.22105035
000190 ef 34 49 be fc 46 69 3d 2b a6 46 3e d5 16 12 3e
       -0.19649099 0.05695246 0.19399326 0.14266522
0001a0 ca 88 32 3e 21 71 2e 3e 74 49 8d bb ed 6d 1e be
       0.17434993 0.17035343 -0.004311735 -0.15471621
0001b0 31 16 31 be 82 c2 6d 3e ca 87 8d 3c 1c 3b e8 bc
       -0.17293622 0.2321873 0.017276663 -0.028348498
0001c0 6b 5a fc 3d 46 2a 5e bc 93 f1 39 3d fc 53 23 be
       0.12321933 -0.013559883 0.0453964 -0.15950006
0001d0 77 a4 0f 3e 74 3b 5d bd cb ac 87 3d b2 f1 e2 3d
       0.14027582 -0.054011777 0.066247545 0.11081256
0001e0 be b2 55 3e 14 a6 9b 3d b5 b7 46 be 55 2b 4d 3e
       0.20868966 0.07600036 -0.19406016 0.20036061
0001f0 64 a3 ed bd 22 21 08 be 9c cb ca be 01 34 00 3e
       -0.1160343 -0.13293889 -0.39608467 0.12519838
000200 cf a6 b0 3d 21 73 01 3d b9 b3 0d 3e da 04 97 3e
       0.08625566 0.031603936 0.1383809 0.2949589
000210 c7 95 22 be 51 6a 5d 3e c6 dc 2a be a2 ea 60 be
       -0.15877448 0.21622588 -0.16685781 -0.21964505
000220 fc e1 08 3e a9 d9 03 be 55 70 8f bc f3 6f 8e bd
       0.13367456 -0.12876 -0.017509619 -0.06954946
000230 71 9e 43 be 43 9b a9 bd 5c 42 85 3e 2a 3c 57 3d
       -0.1910341 -0.08281567 0.2602719 0.05254761
000240 51 c1 f6 3d 58 3f 48 3e 0e b9 cc 3b dc 05 3f 3e
       0.12048591 0.19555414 0.006247646 0.18654579
000250 b2 a4 f9 3d 23 3b 33 3e 3f 0b 75 3e 67 b9 36 3e
       0.12189616 0.17503028 0.23930071 0.17844163
000260 14 40 21 3e 0a c7 7b be 87 6b 7f 3d 2a f1 75 3e
       0.157471 -0.24587646 0.062358405 0.24017778
000270 f0 e8 08 be aa 66 71 be fc 6b b1 bc ed 47 9f 3d
       -0.13370109 -0.2357432 -0.021657936 0.07777391
000280 a3 17 ce bd 17 c1 ca bd 75 85 08 3e 88 ff 6a 3e
       -0.10063102 -0.0990011 0.1333216 0.2294904
000290 39 7f 44 be fc a3 27 be 5e 6c 7d 3e 9e 2c 65 3c
       -0.19189157 -0.16371149 0.2474837 0.013987688
0002a0 e5 fc ac 3d cb 51 64 3e 76 c8 cd bd 7c 03 ca bd
       0.08446673 0.22296827 -0.100480005 -0.09863946
0002b0 48 0a 1f 3e 91 7d 4c bd b4 40 d5 3e b0 50 04 be
       0.15531266 -0.049924437 0.41650927 -0.12921405
0002c0 e1 8d 56 3e d9 70 92 3d 14 76 73 be 35 71 82 3e
       0.2095256 0.0715043 -0.23775512 0.25476995
0002d0 f1 69 1b bc 97 fd 90 bd 22 07 d2 bd 95 38 a4 bd
       -0.009485708 -0.070796184 -0.10255267 -0.08018605
0002e0 be f2 2e bb 41 72 38 3c 96 bd 37 be 4c ea 7b be
       -0.0026694979 0.011257709 -0.17943415 -0.24601096
0002f0 9e fa c6 bd 30 b7 6e bd 5b e8 12 be d2 85 64 3d
       -0.0971577 -0.05828017 -0.14346449 0.055791683
000300 a6 08 13 be e8 d8 33 3c 93 cd 51 3b 1e 0d 28 bc
       -0.14358768 0.010977007 0.00320134 -0.010257034
000310 d0 26 85 3e 2b f4 10 be 9e e6 24 3e 00 74 16 be
       0.26006174 -0.14155643 0.16103598 -0.14692688
000320 31 41 20 3e 0b b6 f3 bd 29 6e 41 be 7c eb 4a 3c
       0.15649869 -0.11899956 -0.18889679 0.012385245
000330 5c 57 d7 3d a2 51 95 bd 6e 22 4b 3e 0f a3 ba 3d
       0.10514709 -0.07290961 0.19837353 0.09113132
000340 cd 0c 05 be 6c 01 ca bd 11 02 65 bb c8 d1 20 bd
       -0.12993164 -0.098635525 -0.0034943859 -0.039262563
000350 22 f2 64 3d 10 cf 08 3d eb ee b8 3d 25 cf d7 3d
       0.05589498 0.033400595 0.09029945 0.105375566
000360 95 62 d4 3e bb 38 33 3e 6d d7 2f 3d d0 96 a4 3e
       0.41481462 0.1750211 0.042930055 0.3214631
000370 da 61 89 be cf 61 fd ba 68 61 4e be a8 cb 5c bd
       -0.26832467 -0.0019331517 -0.20154345 -0.05390516
000380 b2 ea b5 3e 6a bc 73 be ed f9 8d bd 5d 0b 44 3e
       0.3553062 -0.23802343 -0.06932435 0.1914496
000390 0e f9 7d 3d b1 69 64 be 12 75 ef 3d 7f 24 57 3d
       0.062005095 -0.22305943 0.11692251 0.05252504
0003a0 f1 8f 0a be 52 7d b0 bd 20 4a 3b 3e b9 1c b1 bd
       -0.13531472 -0.08617653 0.18289995 -0.086480565
0003b0 73 78 29 bd 10 39 8a 3e 61 07 a1 3e 2c 60 06 3e
       -0.041374635 0.2699666 0.31450942 0.13122624
0003c0 15 62 1e 3e eb 46 5b be bf 26 d0 3d b7 0f 81 3d
       0.15467103 -0.21413772 0.1016364 0.063018255
0003d0 a9 4a 54 3d e4 33 82 bd 8e 96 4f 3e 44 63 ca 3d
       0.051829014 -0.063575536 0.20272276 0.09882215
0003e0 5e 7e 1d be c9 59 40 3e 73 8e 8d bd 36 71 68 3e
       -0.15380237 0.1878425 -0.06911936 0.22699437
0003f0 05 51 e5 3d 2c 9e 5b 3e 15 06 bd 3e 10 9d f9 bd
       0.11197094 0.21447057 0.36918703 -0.121881604

lstm1_1.bias_ih_l0_reverse f4 [64]
000000 85 de 01 3c 5c cf 4d 3e cf e6 d4 3d 4f 59 c2 bd
       0.007926588 0.20098633 0.10395586 -0.094896905
000010 aa b8 2b 3e 77 b4 b7 bd 4c 2f 85 3e d5 02 d6 3d
       0.16769662 -0.08969968 0.26012647 0.10449759
000020 43 19 3d be 28 17 55 3b bc 6e 6c 3c 8c 39 0c be
       -0.18466668 0.0032515023 0.014430698 -0.13693827
000030 bf 6c ee 3d e9 bd 87 3e 7a 59 cc 3d 07 29 c3 3d
       0.116418354 0.26512077 0.09978004 0.0952931
000040 a7 9b 64 bd 22 01 00 bd 78 26 b6 bd 6d 39 77 be
       -0.055812504 -0.03125108 -0.08894056 -0.24143
000050 a7 f5 5f be 05 bf 9c 3d 05 d9 80 3e 5c 66 a0 bd
       -0.21871053 0.076536216 0.25165573 -0.078320235
000060 bf 16 0e bd 06 b0 71 3d 72 ff 76 3e ad 27 38 3c
       -0.03468966 0.05900576 0.24120882 0.011239928
000070 2c 06 12 bd bb fc 33 be 38 5c d8 3e 35 b7 66 3e
       -0.035650417 -0.17576878 0.42257857 0.22530825
000080 25 fe 5b bd 19 6d e7 bd 25 47 49 3c 0b d7 ed 3d
       -0.053709168 -0.113001056 0.012285029 0.11613282
000090 20 af 69 3e a8 7f 1e be 4f 0f 98 bd 5e d9 34 be
       0.22820711 -0.15478384 -0.07424795 -0.17661044
0000a0 1e 6c e1 3d b9 0e 0f 3e fc 4f 59 3e 8e 78 6f 3e
       0.1100695 0.1397046 0.21221918 0.23385832
0000b0 fe 5a 31 be 6c 0c df bc ce 17 88 bd 1a e9 fd bc
       -0.17319867 -0.027227603 -0.066451654 -0.03099494
0000c0 b9 67 8a 3d 7a 58 25 bd c7 08 83 3d 6a 96 45 be
       0.06758065 -0.04036758 0.063981585 -0.1929566
0000d0 f6 e5 3d 3e 14 02 5a 3e 25 f9 15 bd 0c 30 31 be
       0.18544754 0.21289855 -0.036614556 -0.17303485
0000e0 c8 f4 16 3e 27 6d 82 be fe 06 79 bd 9e 72 66 3c
       0.14741814 -0.25473902 -0.060797684 0.014065413
0000f0 67 ab 7f 3e ab 3c 93 3d 77 93 a3 3e 27 95 17 3e
       0.24967729 0.07189306 0.31948444 0.14802991

lstm1_1.bias_hh_l0_reverse f4 [64]
000000 68 fe 22 be e1 71 6c 3d 39 ed 16 3d 06 e3 98 3d
       -0.15917361 0.05772579 0.036847327 0.07465176
000010 ee 93 56 3e 10 d5 66 3d a7 fa 1f 3e 85 d9 e7 3d
       0.20954868 0.056355536 0.1562296 0.113207854
000020 f6 a0 99 3d 7c 4c 50 be 02 25 3a 3e ed 0a 07 3e
       0.07501404 -0.20341676 0.1817818 0.13187762
000030 69 5c 9a bd 9f cb 98 3d 3e e0 84 3b f2 02 1d be
       -0.07537157 0.07460713 0.004055052 -0.15333155
000040 97 69 66 be 75 bd ec 3d af e2 70 3d d5 9b 62 bd
       -0.22501217 0.115595736 0.058809932 -0.055324394
000050 93 5b 45 3e cc c0 7c be 27 63 c2 bb 17 ac 80 bd
       0.19273214 -0.24682921 -0.00593223 -0.062828235
000060 4c 98 41 be a8 c0 33 3e a5 7c b5 3c ba 4f 35 3e
       -0.18905753 0.17553961 0.022154162 0.17706195
000070 e8 4a e4 bd 08 2c 5e 3e 60 56 ca 3e 75 a0 e7 bc
       -0.111471 0.21696484 0.39519024 -0.028274754
000080 24 15 75 3e 93 e0 4d be 8c ed 5a 3e 8e 79 3a be
       0.23933846 -0.201052 0.2137968 -0.18210432
000090 74 98 4c 3e 61 48 81 bc 68 c4 86 3d a9 7d 87 3d
       0.19980031 -0.015781583 0.0658043 0.06615765
0000a0 63 ad 1c be f2 e1 68 3d 04 60 28 3e 17 38 58 3d
       -0.15300517 0.056856103 0.16442877 0.052787866
0000b0 46 60 35 be 50 64 c8 bd 17 d2 a4 bc 9b cd 23 bd
       -0.17712507 -0.09784758 -0.02011971 -0.039991003
0000c0 87 b6 59 3e 07 b9 5d bd c7 89 2b be b2 2e f5 bd
       0.21261035 -0.054131534 -0.16751777 -0.11971797
0000d0 14 6e d6 bc 81 ff 01 be b0 15 e0 bd 22 4d 17 be
       -0.026175536 -0.12695123 -0.109416366 -0.14775518
0000e0 af a2 58 3e 03 3c 8e 3d 82 ad 82 3d fa 4b 56 bd
       0.21155809 0.0694504 0.0638075 -0.05231855
0000f0 e0 c6 62 3d 49 21 96 3e 61 bb 7a 3e 61 2f 52 be
       0.055365443 0.2932227 0.24485542 -0.20525886
