results/fine_tuning_samples_effect_results/Dataset 2/ft_num=4/Experiment1(1C-4)/from_Dataset 2_ft_model.pth (torch, 95756 bytes, 27 tensors)

cnn1.0.weight f4 [16, 1, 3]
-0.28570676 0.59196055 0.37057838 -0.31800067 0.44006088 -0.44202235 -0.5727325 -0.16026744
0.549712 -0.2473865 -0.46116713 0.41771966 0.11536753 -0.12973057 -0.19937004 -0.47201577
0.49097136 -0.15087971 -0.105094165 -0.23090689 0.087360606 0.51281554 0.05719159 -0.34955508
0.12101028 -0.4015253 -0.4660575 0.5311321 0.29504427 0.16445768 -0.47224808 -0.06986469
0.054585386 -0.09347668 0.13366444 -0.060769487 0.24963476 -0.35638994 -0.43090782 -0.2928409
-0.40925422 0.4866026 -0.067235015 0.11767701 -0.1318918 -0.1817581 0.40955764 0.46614522
00000000: 2848 92be ba8a 173f 73bc bd3e fcd0 a2be
00000010: a94f e13e c150 e2be 999e 12bf 261d 24be
00000020: edb9 0c3f e352 7dbe 191e ecbe 5adf d53e
00000030: d045 ec3d 17d8 04be a927 4cbe 0dac f1be
00000040: 9960 fb3e 3680 1abe 9c3b d7bd db72 6cbe
00000050: 1eea b23d e147 033f bb41 6a3d e2f8 b2be
00000060: 3dd4 f73d b994 cdbe 179f eebe 46f8 073f
00000070: 0b10 973e 9867 283e 80ca f1be 3815 8fbd
00000080: ed94 5f3d b470 bfbd 55df 083e 6de9 78bd
00000090: 41a0 7f3e be78 b6be f39f dcbe 3eef 95be
000000a0: c589 d1be fa23 f93e 83b2 89bd a500 f13d
000000b0: a50e 07be cc1e 3abe 8ab1 d13e 96aa ee3e

cnn1.0.bias f4 [16]
-0.15433314 0.49555182 -0.105539724 0.51787466 0.29205823 -0.048577666 0.22705364 -0.33435324
0.40979156 -0.08216005 0.44920954 -0.29386595 -0.10073667 0.34617275 0.10907114 -0.021495081
00000000: 8209 1ebe f8b8 fd3e 3625 d8bd 6f93 043f
00000010: a888 953e 60f9 46bd c080 683e 5930 abbe
00000020: 33d0 d13e 8743 a8bd cbfe e53e 9975 96be
00000030: 074f cebd 8e3d b13e b160 df3d 7416 b0bc

cnn2.0.weight f4 [32, 16, 3]
-0.07461347 0.07504829 0.0676174 0.09578158 0.0038518887 -0.1269624 0.00611704 0.011052879
0.11714989 0.02397141 0.06987989 0.0025555773 -0.11067034 -0.06785745 0.060360115 -0.0636572
-0.06190645 0.13026011 -0.111312605 -0.03190892 0.09966406 0.026541682 -0.120399036 -0.06766137
-0.08017154 -0.09455142 -0.059884273 0.009572184 -0.024755642 -0.12193746 0.1412291 -0.019565012
0.049769707 -0.13921879 -0.05841378 -0.0034937034 -0.007741201 -0.097465016 -0.07457239 0.07456465
0.04064026 -0.06042543 0.12417173 -0.07835857 -0.13024999 -0.07398152 0.09128827 0.022616236
0.1637927 0.079855956 0.2215768 -0.03588796 -0.13299797 -0.020650212 0.08978503 0.12394465
-0.056703087 0.026277136 -0.053378075 0.13053994 -0.12894718 -0.16654041 -0.24881393 -0.13006465
-0.055171084 -0.04128877 0.13443322 -0.14483927 0.09128676 -0.13349722 0.05182587 -0.0051390636
-0.040301856 -0.043003228 0.014631068 0.17115973 0.014452374 0.2207703 -0.08674051 0.046043295
-0.09195285 0.07584899 -0.109812826 -0.08397391 -0.03907658 0.031346787 -0.03005094 -0.11769752
0.1398305 0.07449063 0.013933641 -0.022544082 -0.14439365 0.19615936 0.25275734 0.369611
0.023474824 0.05941715 0.18881287 -0.07441094 0.042075917 0.01708525 -0.12208225 0.009469874
-0.09572526 0.07412803 0.13472302 -0.055015497 -0.016446413 0.01632235 0.23297605 -0.13257954
-0.13790782 0.040055536 -0.012545756 -0.071765445 0.010946409 0.041613918 0.06348405 -0.11039083
0.14155816 0.1403064 0.027058415 0.019987145 0.06932918 0.15085417 0.100953944 0.024489226
-0.029960487 0.031561695 -0.09552066 0.124545634 -0.025081703 -0.0043894504 -0.02120619 0.05966986
0.04487994 -0.026628817 -0.14045012 -0.07575584 -0.058033854 0.30675685 0.25046268 0.12018457
0.17809694 0.08657957 0.116015166 0.11452784 0.12444717 0.04368988 0.035144974 0.11861778
-0.009923865 -0.10125786 -0.020238716 0.13093536 -0.15066303 -0.20973647 -0.2235788 0.08240272
-0.080514826 0.12828797 0.012079717 -0.04214354 0.04028713 -0.118437834 0.13742404 0.04323674
0.097688295 -0.120083526 0.086196385 0.123037614 0.0033883553 -0.018375738 0.10180746 -0.060589325
-0.14139482 0.126991 -0.104079336 0.051419113 -0.12961073 0.1034017 -0.009720795 0.097163804
-0.026783409 0.029778035 -0.0010871401 -0.03590229 -0.00030946406 0.1454301 0.10529102 0.30520725
0.04504352 0.024187889 -0.029221669 0.034519393 -0.05554856 -0.040773276 0.051773492 0.12416692
-0.066633165 -0.12403972 0.085215 0.010822564 0.049940962 0.3255023 0.22661991 0.10844157
0.13216636 -0.08402723 -0.06934286 -0.015571151 0.1256514 -0.038005415 -0.13726772 -0.06058218
0.11207789 0.09526358 0.14378832 -0.024549345 -0.085092105 0.06846203 -0.0046386244 -0.07989674
0.037804443 0.0077049304 -0.091846 -0.04303484 -0.008654068 0.040292867 -0.12904184 0.13291745
-0.114362076 -0.027677063 0.05770407 -0.02088305 -0.09171894 0.18844022 -0.0032244083 -0.0042945906
-0.010610448 -0.09601242 0.111766 0.13762048 -0.09298847 0.11629897 -0.069480166 -0.13936576
0.07449331 0.0629336 -0.12549353 0.14080039 0.10714366 0.14209655 0.13456205 -0.14202075
00000000: f2ce 98bd ebb2 993d fe7a 8a3d 2229 c43d
00000010: f86f 7c3b 6e02 02be 7371 c83b 2217 353c
00000020: 48ec ef3d b15f c43c 301d 8f3d 797b 273b
00000030: 22a7 e2bd d9f8 8abd 2b3c 773d b55e 82bd
00000040: 9e91 7dbd e862 053e ddf7 e3bd edb2 02bd
00000050: ac1c cc3d f16d d93c c593 f6bd 0b92 8abd
00000060: fa30 a4bd 2da4 c1bd 3649 75bd a6d4 1c3c
00000070: 58cc cabc 59ba f9bd 5c9e 103e ce46 a0bc
00000080: 52db 4b3d 5f8f 0ebe 4a43 6fbd 9ef6 64bb
00000090: e7a9 fdbb bd9b c7bd 69b9 98bd 5ab5 983d
000000a0: 6776 263d a880 77bd bf4d fe3d 757a a0bd
000000b0: 4160 05be a083 97bd 58f5 ba3d af45 b93c
000000c0: 46b9 273e 858b a33d 07e5 623e 41ff 12bd
000000d0: 9f30 08be a22a a9bc 37e1 b73d b1d6 fd3d
000000e0: 7f41 68bd 2643 d73c f8a2 5abd 43ac 053e
000000f0: bb0a 04be 9289 2abe 14c9 7ebe ab2f 05be
00000100: 13fb 61bd 6a1e 29bd dda8 093e bf50 14be
00000110: 8ef4 ba3d 7fb3 08be 5d47 543d 9765 a8bb
00000120: 8f13 25bd 2724 30bd 26b7 6f3c 7f44 2f3e
00000130: a6c9 6c3c 9c11 623e 02a5 b1bd e597 3c3d
00000140: c751 bcbd b756 9b3d 8ce5 e0bd 83fa abbd
00000150: c40e 20bd 7d65 003d 642d f6bc 660b f1bd
00000160: ba2f 0f3e 8b8e 983d ed49 643c 5eae b8bc
00000170: eedb 13be 00de 483e 6969 813e a73d bd3e
00000180: 464e c03c 665f 733d 2958 413e c364 98bd
00000190: cc57 2c3d 5ef6 8b3c 4206 fabd 8827 1b3c
000001a0: 9b0b c4bd 70d0 973d d5f4 093e ee57 61bd
000001b0: a1ba 86bc 73b6 853c 4691 6e3e eec2 07be
000001c0: b537 0dbe 4611 243d b78c 4dbc c3f9 92bd
000001d0: 9158 333c 5b73 2a3d ed03 823d 9614 e2bd
000001e0: 9ff4 103e 7bac 0f3e 9ca9 dd3c 15bc a33c
000001f0: 75fc 8d3d 8479 1a3e f1c0 ce3d a19d c83c
00000200: b26f f5bc d646 013d 56a0 c3bd c811 ff3d
00000210: 2578 cdbc 61d5 8fbb 9bb8 adbc 6268 743d
00000220: 07d4 373d ad24 dabc 28d2 0fbe e125 9bbd
00000230: e8b4 6dbd 3c0f 9d3e a53c 803e 5423 f63d
00000240: 0b5f 363e a150 b13d 5c99 ed3d 928d ea3d
00000250: 28de fe3d 29f4 323d 2df4 0f3d e1ed f23d
00000260: b597 22bc 4860 cfbd aacb a5bc eb13 063e
00000270: 6947 1abe 28c5 56be d7f1 64be c2c2 a83d
00000280: f5e4 a4bd ec5d 033e 01ea 453c b49e 2cbd
00000290: 1e04 253d 898f f2bd e3b8 0c3e 0219 313d
000002a0: cd10 c83d 5aee f5bd bb87 b03d 25fb fb3d
000002b0: 2b0f 5e3b b788 96bc 6e80 d03d 832c 78bd
000002c0: cec9 10be ee09 023e 8c27 d5bd d99c 523d
000002d0: adb8 04be 45c4 d33d f843 1fbc d1fd c63d
000002e0: e168 dbbc 11f1 f33c 5e7e 8eba 480e 13bd
000002f0: 903f a2b9 a1eb 143e d1a2 d73d 2044 9c3e
00000300: 8e7f 383d ae25 c63c 4862 efbc 3564 0d3d
00000310: e386 63bd e101 27bd 7110 543d 3a4b fe3d
00000320: f876 88bd 8908 febd 3485 ae3d 2051 313c
00000330: e58e 4c3d 3da8 a63e 0d0f 683e 9d16 de3d
00000340: 9e56 073e 7816 acbd a103 8ebd 241e 7fbc
00000350: c3aa 003e 91ab 1bbd e98f 0cbe 0525 78bd
00000360: 1889 e53d 8d19 c33d 3f3d 133e b51b c9bc
00000370: c544 aebd d235 8c3d 9aff 97bb e7a0 a3bd
00000380: d5d8 1a3d a479 fc3b c119 bcbd 4d45 30bd
00000390: cbc9 0dbc 220a 253d 8b23 04be 831b 083e
000003a0: aa36 eabd 02bb e2bc 1a5b 6c3d ee12 abbc
000003b0: 24d7 bbbd 79f6 403e 9850 53bb a3b9 8cbb
000003c0: 72d7 2dbc 29a2 c4bd 93e5 e43d 62ec 0c3e
000003d0: bd70 bebd 282e ee3d 9e4b 8ebd e6b5 0ebe
000003e0: f38f 983d 55e3 803d 6081 00be fa2d 103e
000003f0: 236e db3d c281 113e a2ca 093e e36d 11be

cnn2.0.bias f4 [32]
-0.12634909 -0.064400464 0.0031570806 -0.048685763 0.08237733 0.0560768 -0.12156129 -0.12711124
-0.14454481 -0.12934493 0.061429176 -0.0024736463 -0.1311617 0.015788333 0.14656526 0.13709478
0.104466826 0.10745309 -0.1326968 -0.029591255 -0.007384876 -0.13590167 -0.0052402685 0.090878844
0.15616407 -0.10913333 0.030340781 0.04285513 0.102761984 -0.14308685 0.12680376 -0.09328738
00000000: a861 01be 64e4 83bd 06e7 4e3b b96a 47bd
00000010: 72b5 a83d c9b0 653d 20f5 f8bd 7329 02be
00000020: 8e03 14be ff72 04be 299d 7b3d e61c 22bb
00000030: 414f 06be 8956 813c 3415 163e 9362 0c3e
00000040: b4f2 d53d 5e10 dc3d ace1 07be 5c69 f2bc
00000050: d4fc f1bb cf29 0bbe 8fb6 abbb b01e ba3d
00000060: 79e9 1f3e 4c81 dfbd 3b8d f83c dc88 2f3d
00000070: e074 d23d 5c85 12be d8d8 013e 740d bfbd

lstm1_1.weight_ih_l0 f4 [64, 32]
0.010152429 0.1557848 -0.09372212 0.07580812 0.15051831 0.025059907 -0.053854704 0.15173581
-0.14823802 -0.049222797 0.07316682 -0.109544344 -0.18017662 -0.25905952 -0.25153422 -0.033574834
-0.23622347 0.05596105 0.1254211 -0.06868437 0.06215693 0.06706149 -0.13489138 0.15499493
-0.12933877 0.21105972 -0.015860476 0.18785094 0.08143273 0.0048579276 -0.13326924 0.09823263
-0.08310115 0.12368955 -0.17526014 -0.05008189 0.13681182 -0.16707075 -0.2440688 -0.20248467
-0.15110643 -0.13906884 0.02977842 0.035238 0.09747669 -0.20858978 -0.18322608 0.1267632
-0.051687457 0.03339837 0.14151475 0.1779035 0.08526281 0.029398222 0.024147667 -0.050382614
-0.10618485 -0.2119129 0.1715993 -0.16484533 0.21631831 -0.15004513 -0.07276026 -0.1534993
-0.052954942 0.12434198 0.07698972 0.13012914 0.12738062 0.107079566 -0.09209314 -0.19449264
0.176865 -0.19994092 0.03996293 -0.13398238 0.13323069 -0.14176019 0.052781343 0.13407819
0.051671352 0.023787381 0.017399073 -0.16513708 0.14159186 -0.17226297 0.02588398 -0.039598435
-0.14890312 -0.13071457 0.06286362 -0.18002155 -0.23775683 -0.20606607 0.112752564 0.082679
-0.1088863 0.21242237 -0.10954091 -0.011644343 -0.03648043 0.059075356 -0.19652054 0.2441948
0.13279876 0.16618183 0.20696045 0.11199852 -0.1709719 -0.07623002 0.23442349 0.19876228
0.19998024 -0.05604115 0.13894331 0.18561515 0.2223941 -0.010773437 0.24302194 0.03534758
-0.18269591 0.20221066 -0.14090608 0.24114852 -0.14002854 0.02084878 -0.015783139 -0.1377222
0.17912638 0.038789358 0.1634763 0.17448018 0.19659457 0.15058304 -0.19986132 0.09562388
-0.0036607776 -0.070397645 0.16113949 0.18330951 0.03478387 0.019010961 -0.119746074 0.011052524
0.10566681 -0.11142464 0.20832619 -0.17354977 -0.18677117 -0.18752068 -0.2022492 -0.1530061
-0.13242017 0.20807976 0.050672207 -0.109948926 0.0209512 -0.00183025 0.049894802 0.099078566
-0.08583367 0.0032997222 0.10460691 0.16150339 0.13166144 0.050162163 0.11457217 0.11235097
0.22594851 0.19770172 -0.09190874 -0.14656739 0.079705 0.18464865 -0.08005261 0.017699597
-0.07072607 -0.13209495 -0.051866382 0.16235778 -0.13654128 0.21824667 0.04265251 0.14429718
0.024879277 -0.17977795 0.24798745 -0.0098640835 -0.052124348 -0.02760896 -0.12706777 -0.02319768
0.005894989 0.30100486 0.08029224 0.18230058 0.03511362 -0.079062335 0.113848716 0.06372422
-0.20385396 0.028354436 -0.22836135 0.18145885 -0.072625905 -0.11693964 -0.06268486 -0.13072978
0.23332371 -0.21025479 -0.14003608 0.054240644 -0.08038151 -0.20291601 0.22825195 0.004957825
0.18912545 0.112615496 -0.005552589 -0.04010232 -0.021597229 0.0076377094 -0.07314564 0.1652467
-0.15820223 0.21106589 0.15182567 -0.1318077 0.011345766 0.18312849 -0.080480516 -0.05247441
-0.07629642 0.04499337 -0.04323907 0.061438024 0.20548522 -0.16471614 -0.262149 -0.09246627
-0.16214323 0.20148759 -0.22498158 -0.03396067 0.19466454 -0.008782842 -0.0033974452 -0.2067354
-0.25944307 0.07472354 0.09855357 0.1531236 0.18473259 0.20416334 -0.021466747 -0.123533756
00000000: 6056 263c 0d86 1f3e 62f1 bfbd 4a41 9b3d
00000010: 7921 1a3e 6f4a cd3c c096 5cbd a260 1b3e
00000020: b5cb 17be d89d 49bd 7cd8 953d c958 e0bd
00000030: 3880 38be 73a3 84be 18c9 80be c485 09bd
00000040: 91e4 71be 6a37 653d 646e 003e 64aa 8cbd
00000050: 4498 7e3d 8957 893d f720 0abe feb6 1e3e
00000060: 6271 04be 0a20 583e d4ed 81bc ff5b 403e
00000070: 34c6 a63d 402f 9f3b bb77 08be 302e c93d
00000080: f030 aabd f250 fd3d 6577 33be ab22 4dbd
00000090: 6618 0c3e 9814 2bbe 2ced 79be 2458 4fbe
000000a0: a5bb 1abe 1068 0ebe e0f1 f33c b955 103d
000000b0: dca1 c73d 8f98 55be 9e9f 3bbe 36ce 013e
000000c0: 3ab6 53bd bbcc 083d 3ee9 103e 562c 363e
000000d0: 459e ae3d 8ad4 f03c 54d1 c53c 005e 4ebd
000000e0: 7177 d9bd b2ff 58be bab7 2f3e 37cd 28be
000000f0: 8c82 5d3e 6ea5 19be 5503 95bd ec2e 1dbe
00000100: 48e7 58bd 02a7 fe3d c9ac 9d3d 9340 053e
00000110: 1170 023e 884c db3d 549b bcbd 1429 47be
00000120: 191c 353e 50bd 4cbe 2bb0 233d ad32 09be
00000130: a06d 083e 9529 11be 4031 583d cb4b 093e
00000140: 57a5 533d c1dd c23c 8088 8e3c b219 29be
00000150: 75fd 103e b465 30be a40a d43c f831 22bd
00000160: 0f7a 18be 0ada 05be a4be 803d 9257 38be
00000170: 8776 73be fc02 53be d1ea e63d 9c53 a93d
00000180: c8ff debd 4085 593e fc56 e0bd eac7 3ebc
00000190: 816c 15bd 00f9 713d ae3c 49be 340e 7a3e
000001a0: 66fc 073e 922b 2a3e 71ed 533e 7b5f e53d
000001b0: 4213 2fbe 7c1e 9cbd b60c 703e 5788 4b3e
000001c0: 9fc7 4c3e 688b 65bd 2847 0e3e e611 3e3e
000001d0: 47bb 633e 1283 30bc beda 783e a0c8 103d
000001e0: a314 3bbe 5010 4f3e af49 10be a3ef 763e
000001f0: a463 0fbe 10cb aa3c a44b 81bc 0c07 0dbe
00000200: e86c 373e 97e1 1e3d 5566 273e efaa 323e
00000210: 1650 493e 7132 1a3e 72a8 4cbe 74d6 c33d
00000220: a8e9 6fbb a42c 90bd c001 253e 7db5 3b3e
00000230: 8879 0e3d e0bc 9b3c 6e3d f5bd a515 353c
00000240: d767 d83d 9a32 e4bd 7653 553e 08b7 31be
00000250: f140 3fbe 6c05 40be 6a1a 4fbe a2ad 1cbe
00000260: 2799 07be dc12 553e a98d 4f3d e72c e1bd
00000270: daa1 ab3c 00e5 efba 7e5e 4c3d b4e9 ca3d
00000280: 90c9 afbd 2740 583b 263c d63d 2561 253e
00000290: 42d2 063e d776 4d3d d0a4 ea3d 4418 e63d
000002a0: 0c5f 673e 5272 4a3e a63a bcbd c315 16be
000002b0: 603c a33d 8914 3d3e 9ff2 a3bd bffe 903c
000002c0: d4d8 90bd e643 07be d871 54bd 1e41 263e
000002d0: 7ad1 0bbe 0e7c 5f3e 66b4 2e3d a4c2 133e
000002e0: a0cf cb3c b617 38be 6cf0 7d3e f79c 21bc
000002f0: 5780 55bd 302c e2bc 0e1e 02be 1009 bebc
00000300: c02a c13b 4f1d 9a3e 4270 a43d 01ad 3a3e
00000310: 4dd3 0f3d 6feb a1bd 8429 e93d d881 823d
00000320: 18bf 50be 9047 e83c 8fd7 69be 59d0 393e
00000330: e4bc 94bd 0d7e efbd eb60 80bd 07de 05be
00000340: 69ec 6e3e 084d 57be 9e65 0fbe 702b 5e3d
00000350: 109f a4bd 37c9 4fbe e1ba 693e 4075 a23b
00000360: 1aaa 413e f4a2 e63d 7ef2 b5bb 5542 24bd
00000370: acec b0bc c045 fa3b 62cd 95bd 6e36 293e
00000380: c4ff 21be a821 583e 3078 1b3e 99f8 06be
00000390: 97e3 393c 0986 3b3e f8d2 a4bd 68ef 56bd
000003a0: 4c41 9cbd f84a 383d 731b 31bd 70a6 7b3d
000003b0: b86a 523e 59ab 28be 6538 86be f55e bdbd
000003c0: e008 26be c352 4e3e 9261 66be 581a 0bbd
000003d0: 2456 473e e9e5 0fbc aca7 5ebb 72b2 53be
000003e0: b9d5 84be a808 993d 74d6 c93d 6fcc 1c3e
000003f0: 8a2a 3d3e 3210 513e 08db afbc 44ff fcbd

lstm1_1.weight_hh_l0 f4 [64, 16]
0.2373537 0.15133226 -0.13852103 0.20863995 0.0687389 0.014925699 0.0389478 0.11799269
-0.11412969 0.07104394 -0.1625452 -0.13904597 -0.14358622 -0.2600576 -0.15850231 0.045436803
-0.2073945 -0.09043951 0.07607622 0.22241813 -0.1890447 -0.16922933 -0.008976067 -0.22145641
-0.13428418 -0.20862786 0.10433174 0.17352161 0.1654287 -0.25149417 0.22384685 -0.115081064
-0.19379921 -0.009643135 0.07757593 -0.20563824 0.10623228 -0.055854887 -0.16685325 0.16031386
-0.19316705 0.23339024 -0.14996564 0.15937144 -0.20842357 -0.16277413 0.15132703 -0.07502226
0.055390507 -0.20383538 -0.08871348 -0.14521822 -0.16648392 -0.049432192 0.28614393 -0.030305285
-0.24474812 0.026136475 -0.2206875 -0.23168275 -0.16373728 -0.06343867 0.050125603 -0.1990667
-0.039350912 -0.0011332212 0.035961196 0.075795256 -0.08239672 0.11546852 -0.19234411 0.14551868
0.045992654 0.21258807 -0.19989157 -0.07708088 0.2467413 0.038637046 -0.029044708 0.12802331
0.23330593 -0.1749718 0.23721157 -0.090434596 0.00846811 0.2264594 0.18907009 0.19300914
0.13407545 0.24826321 -0.10969159 0.025502006 -0.062164556 -0.03301212 -0.021113029 0.11104935
0.2004615 -0.19788674 0.0004104811 0.2909222 -0.26842615 0.077061296 -0.043720514 -0.12721601
0.2022255 -0.09668101 0.0561029 -0.05504004 0.15729085 0.11579086 0.19614515 -0.02226439
-0.054914862 0.20203613 -0.007035702 0.18307795 -0.1718069 0.015131099 0.15603943 -0.13547932
0.16995117 0.031423315 0.118702404 -0.19839886 -0.23798962 0.10899035 0.14812994 -0.101422295
0.092544794 -0.16775073 0.0749481 -0.13987932 0.081597 -0.0045134034 0.13140914 -0.050581753
-0.10316426 -0.2077013 0.15939623 0.060812857 0.0066915327 0.14656608 -0.18365453 0.13105114
0.14686818 -0.10809923 -0.051592883 0.1800246 0.08714343 -0.21951295 -0.13421367 -0.22263677
-0.1490332 -0.11708456 -0.11271737 -0.0042853286 -0.16989309 0.08372706 -0.24715444 0.018103253
0.039338782 0.24522437 0.23185764 -0.110692926 0.002805148 0.14360394 0.20872636 -0.15515214
0.05600252 0.093586534 -0.006209408 0.12757802 -0.23646624 0.14226213 -0.08903513 0.16278282
-0.048749536 -0.008270345 -0.29396987 -0.07033534 0.11830575 0.06382589 0.03756566 0.0076665995
0.046407733 -0.12128241 0.22682722 -0.11271758 -0.05960178 0.29235363 0.11649194 0.27645046
-0.06293463 -0.32356662 -0.03119842 0.32422775 -0.25218922 0.23611632 0.08936662 0.03518933
-0.00057616463 -0.08087561 0.307592 0.019590154 0.17348565 0.1558211 -0.28706092 0.17540151
-0.31386143 -0.12254242 -0.043525204 0.10267008 0.19046555 0.025276082 -0.033240363 0.06167135
0.2450699 -0.05520166 -0.10357158 -0.029775433 -0.1159077 -0.07764519 -0.16249435 -0.11688012
0.021567617 -0.072355494 0.048576403 -0.040283013 -0.10910484 0.042963132 -0.100525066 0.14636314
0.19951381 -0.20156083 -0.24519508 -0.3096986 -0.21728526 -0.20631911 -0.06895055 -0.053132426
-0.068659544 -0.1964605 0.069201216 -0.066919096 0.07883418 0.16184951 0.023131106 0.07229005
-0.19523045 0.052687053 -0.08132188 0.19670387 -0.17096733 0.051980734 0.17859668 -0.20512576
00000000: d90c 733e d8f6 1a3e 75d8 0dbe b6a5 553e
00000010: fbc6 8c3d eb8a 743c ba87 1f3d 27a6 f13d
00000020: d4bc e9bd 7c7f 913d 4072 26be 1162 0ebe
00000030: 4408 13be 4526 85be 6e4e 22be f11b 3a3d
00000040: 395f 54be 5a38 b9bd d9cd 9b3d 94c1 633e
00000050: ef94 41be 744a 2dbe 5b10 13bc 78c5 62be
00000060: cb81 09be 8ba2 55be e1ab d53d a6af 313e
00000070: 2466 293e d8c3 80be 1c38 653e 9faf ebbd
00000080: 4d73 46be 3dfe 1dbc 21e0 9e3d d592 52be
00000090: 4f90 d93d 18c8 64bd 94db 2abe 5129 243e
000000a0: 95cd 45be dafd 6e3e 9890 19be 4432 233e
000000b0: fd6c 55be 43ae 26be 79f5 1a3e 45a5 99bd
000000c0: 28e1 623d 39ba 50be 6aaf b5bd 16b4 14be
000000d0: c37a 2abe 6979 4abd 7581 923e ca42 f8bc
000000e0: 409f 7abe 291c d63c e7fb 61be 3e3e 6dbe
000000f0: bfaa 27be 22ec 81bd 8150 4d3d 24d8 4bbe
00000100: 6c2e 21bd 9888 94ba 0c4c 133d 8b3a 9b3d
00000110: 9dbf a8bd c27a ec3d dbf5 44be d902 153e
00000120: cb62 3c3d b0b0 593e 60b0 4cbe 95dc 9dbd
00000130: c0a9 7c3e e141 1e3d 2bef edbc 8b18 033e
00000140: c0e7 6e3e cf2b 33be 97e7 723e c635 b9bd
00000150: d4bd 0a3c f9e4 673e 979b 413e 30a4 453e
00000160: 134b 093e b638 7e3e fca5 e0bd 95e9 d03c
00000170: 43a0 7ebd b737 07bd 3bf5 acbc d76d e33d
00000180: c845 4d3e d2a2 4abe d735 d739 c1f3 943e
00000190: 276f 89be 50d2 9d3d 4814 33bd ea44 02be
000001a0: 3414 4f3e b200 c6bd 28cc 653d aa71 61bd
000001b0: da10 213e c223 ed3d 46da 483e cf63 b6bc
000001c0: 68ee 60bd 8fe2 4e3e bf8b e6bb c978 3b3e
000001d0: 26ee 2fbe 6ee8 773c cdc8 1f3e 17bb 0abe
000001e0: ae07 2e3e bcb5 003d 3f1a f33d 1229 4bbe
000001f0: 8db3 73be 5536 df3d 60af 173e 7eb6 cfbd
00000200: 2088 bd3d d9c6 2bbe 647e 993d 863c 0fbe
00000210: 541c a73d 2ce5 93bb 1e90 063e d02e 4fbd
00000220: c947 d3bd a6af 54be c438 233e e716 793d
00000230: a544 db3b 6b15 163e ef0f 3cbe 4532 063e
00000240: 9d64 163e 2163 ddbd 0f53 53bd 5e58 383e
00000250: 4178 b23d 01c8 60be 4f6f 09be e5fa 63be
00000260: 299c 18be 08ca efbd 5dd8 e6bd f16b 8cbb
00000270: 74f8 2dbe 1879 ab3d 0e16 7dbe 464d 943c
00000280: b421 213d 191c 7b3e 176c 6d3e f9b2 e2bd
00000290: 93d6 373b e90c 133e 5dbc 553e 34e0 1ebe
000002a0: e662 653d 4caa bf3d 4a78 cbbb d0a3 023e
000002b0: 3524 72be 2aad 113e 0d58 b6bd 8ab0 263e
000002c0: 98ad 47bd 5780 07bc 3883 96be fa0b 90bd
000002d0: 494a f23d 26b7 823d 73de 193d 1938 fb3b
000002e0: 0916 3e3d ea62 f8bd 6545 683e 79d8 e6bd
000002f0: ff20 74bd 60af 953e 5493 ee3d ea8a 8d3e
00000300: dfe3 80bd 86aa a5be d493 ffbc 2e01 a63e
00000310: f21e 81be 7ac8 713e d905 b73d b022 103d
00000320: c109 17ba 1da2 a5bd b37c 9d3e 887b a03c
00000330: 39a6 313e 918f 1f3e a6f9 92be 749c 333e
00000340: 72b2 a0be 85f7 fabd 7c47 32bd b144 d23d
00000350: 6709 433e c90f cf3c 0c27 08bd 199b 7c3d
00000360: 9bf3 7a3e 231b 62bd 561d d4bd 9ceb f3bc
00000370: 0461 edbd 7104 9fbd eb64 26be d85e efbd
00000380: 92ae b03c 1e2f 94bd 0df8 463d cdff 24bd
00000390: 5c72 dfbd 1cfa 2f3d 16e0 cdbd 38e0 153e
000003a0: 594d 4c3e f665 4ebe 6b14 7bbe d190 9ebe
000003b0: 0780 5ebe 5145 53be f235 8dbd 63a1 59bd
000003c0: 609d 8cbd f12c 49be 5eb9 8d3d e10c 89bd
000003d0: d173 a13d e1bb 253e 727d bd3c ce0c 943d
000003e0: 7eea 47be 61ce 573d 168c a6bd bd6c 493e
000003f0: 0f12 2fbe c0e9 543d 0ce2 363e 7d0c 52be

lstm1_1.bias_ih_l0 f4 [64]
-0.03596915 -0.11036093 -0.067226075 -0.018961335 0.20299807 -0.06966336 0.019706968 0.12656358
-0.01872186 0.2140433 -0.16750121 0.27273887 0.1210889 0.14265555 0.029699672 -0.22238444
0.11976401 -0.050529197 0.13271387 0.041652255 0.21104465 -0.0058714775 0.10567294 -0.0051502464
0.10940443 -0.020464025 0.07385483 -0.030547272 0.1408708 0.05592904 0.13932586 -0.055136867
-0.056227714 -0.22332457 -0.22604889 -0.023156626 -0.024109341 0.08532846 0.0011102369 -0.1549081
0.035187982 -0.22503076 -0.20785004 0.15923522 0.25114155 -0.070490114 -0.040778555 -0.20007885
0.17483006 0.1172847 -0.059870105 0.1041874 -0.048654262 0.17254901 0.12215463 -0.141924
0.12702386 -0.19553462 0.1872402 -0.22758889 0.26068163 0.20279029 0.20284842 0.14699356
00000000: 6354 13bd e904 e2bd d3ad 89bd cd54 9bbc
00000010: bade 4f3e aaab 8ebd 8270 a13c e299 013e
00000020: 965e 99bc 2b2e 5b3e 7085 2bbe 6ea4 8b3e
00000030: 75fd f73d 4c14 123e ba4c f33c bfb8 63be
00000040: d546 f53d b4f7 4ebd 25e6 073e 8e9b 2a3d
00000050: 171c 583e 8665 c0bb 0e6b d83d 66c3 a8bb
00000060: 6e0f e03d 2ca4 a7bc 3341 973d 463e fabc
00000070: 6f40 103e d915 653d 70ab 0e3e 32d7 61bd
00000080: 084f 66bd 32af 64be 5c79 67be f7b2 bdbc
00000090: f480 c5bc b0c0 ae3d 5e85 913a 3ba0 1ebe
000000a0: 4621 103d 776e 66be a4d6 54be 8f0e 233e
000000b0: a095 803e 1f5d 90bd 6a07 27bd 78e1 4cbe
000000c0: a706 333e f632 f03d 5b3a 75bd 3460 d53d
000000d0: b149 47bd b0b0 303e 352c fa3d 8654 11be
000000e0: 8b12 023e 3a3a 48be e5bb 3f3e 100d 69be
000000f0: 1078 853e 42a8 4f3e 7fb7 4f3e 7b85 163e

lstm1_1.bias_hh_l0 f4 [64]
0.20260338 -0.022221006 -0.19898905 -0.12846236 -0.15174776 0.14469881 0.15239482 0.039050635
0.11132869 0.24957296 -0.2365582 0.16734341 -0.03414945 -0.16935748 -0.09849127 -0.07939007
-0.18653563 0.24597052 0.027355505 -0.02525351 -0.16831513 0.16757815 -0.03292747 0.043377303
-0.034403186 0.012657165 0.018298775 0.029320767 0.2735425 0.1857481 -0.20455366 0.0009288378
-0.08641532 -0.12185635 -0.13028514 0.05605732 -0.17793527 -0.102014005 -0.08006124 -0.022583136
0.12555668 -0.11981097 0.21020326 -0.21580277 -0.025881074 0.023885954 -0.17373091 0.2062726
-0.15901719 -0.23398404 0.037333507 0.1697762 -0.1553344 0.14831606 -0.16423804 0.044127423
0.014023137 -0.070270665 0.19929121 -0.11965258 -0.18216604 -0.14712298 -0.019187372 0.018413192
00000000: 4377 4f3e d408 b6bc c9c3 4bbe a38b 03be
00000010: c463 1bbe ed2b 143e 630d 1c3e 8ff3 1f3d
00000020: 4c00 e43d 0e90 7f3e 503c 72be 125c 2b3e
00000030: 4be0 0bbd 0c6c 2dbe cab5 c9bd 4397 a2bd
00000040: 3203 3fbe b2df 7b3e a718 e03c 73e0 cebc
00000050: cd5a 2cbe 9b99 2b3e f4de 06bd 66ac 313d
00000060: 5bea 0cbd ff5f 4f3c 50e7 953c 1b32 f03c
00000070: c30d 8c3e c034 3e3e 8476 51be 407d 733a
00000080: 84fa b0bd d28f f9bd 7869 05be 5c9c 653d
00000090: aa34 36be b8ec d0bd 26f7 a3bd 4500 b9bc
000000a0: ee91 003e 745f f5bd 863f 573e 67fb 5cbe
000000b0: 8c04 d4bc 7aac c33c 84e6 31be 2039 533e
000000c0: 67d5 22be 8399 6fbe 05eb 183d d0d9 2d3e
000000d0: fb0f 1fbe 2ae0 173e 042e 28be f5be 343d
000000e0: 4dc1 653c 11ea 8fbd ff12 4c3e 690c f5bd
000000f0: bc89 3abe 68a7 16be d62e 9dbc 43d7 963c

lstm1_1.weight_ih_l0_reverse f4 [64, 32]
0.06501448 0.39783534 -0.008685079 -0.08774095 -0.0047545005 -0.15115896 0.10162553 -0.22462466
-0.12483385 -0.0851278 0.16161604 -0.1271536 0.11122635 0.07457568 0.04979208 0.0043496704
-0.07941873 0.2483037 -0.06590712 0.23229602 0.34140125 -0.11130798 -0.07051213 -0.07483339
-0.044543702 0.08433509 0.44045666 0.18644264 -0.03565366 0.20436302 0.035919517 -0.086413115
-0.12874442 0.06480471 0.2056859 -0.050954286 0.20592955 -0.09529332 0.12206 -0.15750471
0.10886308 -0.02682662 0.029291838 0.13559367 -0.20602301 0.060038403 -0.13880704 -0.06932265
0.11960147 0.15754735 -0.0046337247 0.020417303 0.007046088 -0.051504977 0.19037634 0.01688391
-0.21447785 -0.24440911 0.018844705 0.18404514 0.10945284 0.081104666 -0.113994464 -0.24404505
-0.06531215 0.07136423 0.09617366 0.11951591 -0.07716996 0.27160206 0.01671648 0.15579414
0.086796336 0.0548577 -0.23926339 0.24548702 -0.15470421 0.2648517 0.16993259 -0.16021268
-0.15400559 0.06332649 0.09490639 -0.11623508 -0.031091914 0.104033224 0.043699704 0.20239466
0.2765845 0.22991213 0.06755179 -0.06373357 0.1753363 -0.036546856 0.08593226 -0.04106304
-0.11113703 -0.120576344 0.14334361 -0.189285 0.16639149 0.13461445 -0.120471984 0.2283335
0.18707645 0.12533963 -0.19817822 -0.14260867 -0.047891587 -0.21869937 -0.089096114 0.006970918
0.009503659 0.23398538 0.16276097 -0.14306128 0.34044755 -0.089141935 0.07036667 0.1309678
0.24960029 0.044427782 -0.074143864 0.15921655 0.1941248 -0.1512495 0.20753124 0.20577884
0.084919214 0.1931381 -0.06315903 -0.22212693 0.08373123 0.23384733 0.0031988025 -0.19510901
0.12800506 0.1890147 -0.2324979 0.1501211 -0.0023975968 -0.11335675 0.10072789 0.20271154
-0.019238094 -0.23320949 -0.19509897 0.24908656 0.2652895 0.111660086 -0.014814731 0.17007726
0.06930793 -0.030605793 0.07359635 0.15218866 -0.23605932 -0.030363053 -0.117235415 0.21615005
-0.21722412 -0.043142036 -0.1597333 -0.081379294 0.17058125 -0.015366973 0.15812525 -0.086170435
0.23400219 -0.019052297 -0.035351675 0.05328356 0.07794717 0.1602073 0.16459014 0.08174364
-0.009223869 0.12185392 -0.23361567 -0.13037157 0.16249727 0.082562044 -0.15484568 0.20595351
0.15066433 0.20546749 0.09260719 0.050053976 0.24135739 0.10352573 -0.08297766 0.16181532
-0.10273498 0.062480215 0.27615377 -0.0137057025 0.22783116 0.041731454 -0.16929552 0.22206384
0.1379512 0.16925663 -0.07124507 -0.06325034 0.07683712 -0.19251706 0.0029202274 -0.0030101899
0.030767504 -0.15261346 0.22982535 0.12251964 0.24245997 0.22165999 0.15699734 0.17331615
-0.018655248 0.10214552 0.08359588 0.075266555 -0.10237166 0.038788944 -0.05307892 0.22493052
-0.19901904 0.14401063 -0.20865877 0.24724117 -0.08037448 0.20257068 0.116722494 -0.15698504
-0.079987906 -0.15557715 0.11280952 -0.18696672 0.14127442 0.18686451 -0.117330134 -0.21796551
-0.23118274 -0.122467615 -0.07176274 0.010001391 0.1725256 0.18511765 0.22240843 -0.17234614
0.13247927 0.013260871 -0.115894586 -0.15087758 -0.23829807 0.053167045 -0.046995968 -0.1962288
00000000: 5026 853d 13b1 cb3e dd4b 0ebc 87b1 b3bd
00000010: a4cb 9bbb 6ac9 1abe 0c21 d03d 0204 66be
00000020: e4a8 ffbd 7c57 aebd ad7e 253e 8e34 02be
00000030: a4ca e33d 22bb 983d c8f2 4b3d ae87 8e3b
00000040: 4aa6 a2bd 5343 7e3e 50fa 86bd 02df 6d3e
00000050: 25cc ae3e 70f5 e3bd aa68 90bd 4042 99bd
00000060: 7573 36bd e0b7 ac3d 8983 e13e d2ea 3e3e
00000070: 9209 12bd 8a44 513e 5820 133d 5cf9 b0bd
00000080: 94d5 03be 55b8 843d 539f 523e 71b5 50bd
00000090: 32df 523e 2529 c3bd 98fa f93d ea48 21be
000000a0: 9bf3 de3d 80c3 dbbc 70f5 ef3c 11d9 0a3e
000000b0: b2f7 52be d4ea 753d 6f23 0ebe 09f9 8dbd
000000c0: 9ef1 f43d 1854 213e 80d6 97bb 3042 a73c
000000d0: dfe2 e63b e2f6 52bd 04f2 423e 2050 8a3c
000000e0: 15a0 5bbe 6246 7abe 3660 9a3c 5476 3c3e
000000f0: d028 e03d 341a a63d ee75 e9bd f2e6 79be
00000100: 60c2 85bd 6927 923d b2f6 c43d c2c4 f43d
00000110: 490b 9ebd 6d0f 8b3e 00f1 883c 8088 1f3e
00000120: 47c2 b13d 78b2 603d 7601 75be f360 7b3e
00000130: c86a 1ebe a49a 873e cf02 2e3e cb0e 24be
00000140: a4b3 1dbe 52b1 813d 485e c23d a80c eebd
00000150: 78b4 febc 5f0f d53d 76fe 323d 8c40 4f3e
00000160: 7c9c 8d3e 166e 6b3e 9858 8a3d bf86 82bd
00000170: 5c8b 333e 28b2 15bd 41fd af3d b831 28bd
00000180: d09b e3bd bbf0 f6bd abc8 123e edd3 41be
00000190: 8862 2a3e 5fd8 093e 04ba f6bd 42d0 693e
000001a0: f890 3f3e 0859 003e 3bef 4abe 0208 12be
000001b0: f829 44bd baf2 5fbe 0678 b6bd 4c6c e43b
000001c0: 3cb5 1b3c dd99 6f3e d0aa 263e a87e 12be
000001d0: 244f ae3e 0c90 b6bd 671c 903d 6c1c 063e
000001e0: 3897 7f3e e8f9 353d bdd8 97bd aa09 233e
000001f0: a7c8 463e 26e1 1abe 1283 543e b0b7 523e
00000200: 20ea ad3d fec5 453e 8659 81bd 3e75 63be
00000210: 477b ab3d ad75 6f3e 00a3 513b a8ca 47be
00000220: c213 033e 128d 413e ee13 6ebe 58b9 193e
00000230: 0021 1dbb 9527 e8bd 6d4a ce3d 9d93 4f3e
00000240: 3599 9dbc 78ce 6ebe 06c8 47be 8c10 7f3e
00000250: 06d4 873e 0bae e43d 7cb9 72bc bc28 2e3e
00000260: 51f1 8d3d 00b9 fabc afb9 963d 58d7 1b3e
00000270: 89b9 71be f0bb f8bc 1f19 f0bd 7056 5d3e
00000280: 0070 5ebe b4b5 30bd 2091 23be 30aa a6bd
00000290: daac 2e3e c2c5 7bbc 96eb 213e 207a b0bd
000002a0: 459e 6f3e 9013 9cbc ebcc 10bd dd3f 5a3d
000002b0: c4a2 9f3d 620d 243e 518a 283e 3669 a73d
000002c0: b61f 17bc 8c8e f93d f238 6fbe 2080 05be
000002d0: af65 263e 4a16 a93d de8f 1ebe 7ae5 523e
000002e0: c047 1a3e 1266 523e d7a8 bd3d 6605 4d3d
000002f0: 6426 773e 4c05 d43d 31f0 a9bd eab2 253e
00000300: b866 d2bd 41eb 7f3d 0764 8d3e e28d 60bc
00000310: 924c 693e 9aee 2a3d ce5b 2dbe b464 633e
00000320: 1443 0d3e 9c51 2d3e efe8 91bd 6589 81bd
00000330: c85c 9d3d 3123 45be 4961 3f3b 9b46 45bb
00000340: 220c fc3c b446 1cbe 5657 6b3e 94eb fa3d
00000350: 6d47 783e d6fa 623e e9c3 203e ca79 313e
00000360: e4d2 98bc ac31 d13d 5134 ab3d 5a25 9a3d
00000370: 3ca8 d1bd 28e1 1e3d 4869 59bd 3054 663e
00000380: a6cb 4bbe 8677 133e a5aa 55be ca2c 7d3e
00000390: 609b a4bd b06e 4f3e 340c ef3d b0c0 20be
000003a0: b3d0 a3bd 9e4f 1fbe ad08 e73d 3474 3fbe
000003b0: 3eaa 103e 6959 3f3e c84a f0bd 5a32 5fbe
000003c0: 2bbb 6cbe 4dd0 fabd 58f8 92bd e0dc 233c
000003d0: 8daa 303e 7b8f 3d3e 09bf 633e 827b 30be
000003e0: a5a8 073e 2044 593c 245a edbd a77f 1abe
000003f0: 6904 74be b0c5 593d d87e 40bd 34f0 48be

lstm1_1.weight_hh_l0_reverse f4 [64, 16]
-0.10375823 0.23859447 0.08228617 -0.08328628 0.2495581 0.26520836 0.008368491 -0.19790612
-0.1722773 0.002024947 0.1758666 -0.09070861 -0.25572518 0.03265345 -0.26300445 -0.065791875
-0.059542123 0.12276005 -0.013461997 0.26571685 -0.06775423 0.012954888 0.21322826 -0.20211029
-0.23826027 -0.23296756 -0.01217799 0.028480982 -0.2177179 0.2043753 -0.21308057 -0.10498521
0.120282814 0.09478132 0.21462403 -0.19223766 -0.18011172 0.05297959 -0.14639139 0.1038452
0.14153518 0.1365283 0.17276756 0.2198464 0.04198132 0.12651907 0.104562834 -0.035827808
-0.3491972 0.21568692 0.07158551 -0.22245745 -0.11820437 -0.20036174 -0.26116917 -0.05815235
0.22112545 0.13644531 -0.16696502 0.20589899 -0.17623767 0.041037902 -0.11612083 0.22544135
0.06984848 -0.1162426 -0.29957688 0.007731805 -0.06310504 -0.23222709 0.18430695 -0.17857859
-0.00052260945 -0.027110767 0.21261449 -0.14765929 0.14986074 0.18488547 0.079744756 -0.051574282
-0.15332845 0.033556085 -0.15751666 0.16346794 -0.17905976 -0.17658056 0.17056538 0.13382454
-0.0045914096 -0.0025815861 -0.13664141 0.06345982 0.092139415 -0.14679118 0.03281279 -0.12700106
0.13969149 0.22482158 -0.23348829 0.08448156 0.17984286 -0.11909613 -0.015021983 -0.18866625
0.21576726 -0.15961035 0.25240755 -0.11026784 0.28089342 0.08221114 -0.009256441 0.14239134
0.06650218 0.074110046 -0.0012205512 -0.12378971 0.009444109 -0.15105774 -0.17216973 0.24791752
-0.23562591 0.19836004 -0.106388204 0.05983348 -0.17360672 -0.22029817 -0.14587313 0.21634701
0.1931119 0.09148787 -0.19406335 -0.07536768 0.2367425 -0.16087967 0.19880094 -0.08400616
-0.19392347 -0.055770904 -0.09876972 -0.1521242 0.13322833 0.049567506 -0.047922224 0.09019485
0.12899634 -0.12945092 0.09352171 -0.062930204 0.22875488 -0.07289991 -0.08597624 -0.05647237
0.13219681 -0.0448534 0.22696637 -0.030890577 -0.13036515 -0.010692638 0.006519595 -0.08956955
-0.10273599 0.14995824 -0.049546253 0.067568004 -0.05132114 -0.08952751 -0.19754459 -0.24076936
0.13129261 -0.08716728 0.1579502 -0.25950956 -0.082340926 -0.1697438 0.14518863 -0.12617238
-0.19372581 -0.092309676 -0.043993145 -0.016643025 0.11410774 0.1327645 -0.12991932 -0.048820168
0.16215771 0.21543893 -0.17541721 -0.08273963 0.03108761 0.20475605 0.14623 0.0789168
-0.05575847 -0.24697375 0.009488356 -0.022025356 0.0024533218 0.19985695 0.09420998 0.18730962
-0.16272232 -0.01141571 -0.049915735 -0.09177206 0.026028967 0.17575344 -0.046921458 -0.05236237
-0.21120326 -0.17051041 0.20114346 -0.15677403 -0.06621751 0.071373284 0.012705835 0.24898173
-0.0001447725 0.13363291 -0.15099904 0.16151033 -0.12153669 -0.17812866 0.1859293 0.16034378
-0.2552599 -0.32404664 -0.07554441 -0.18497127 0.09817313 -0.043558694 -0.15938419 0.025649814
-0.008204556 0.002123503 -0.22570904 0.10276042 -0.04396714 0.029062456 0.07683872 0.05008613
-0.062164932 0.14818755 -0.032702632 0.14553638 0.060169395 0.00683572 0.1467821 0.05525079
0.040389482 0.06120588 -0.04630123 0.14462075 -0.23815405 -0.10179431 -0.041406427 0.16207813
00000000: 327f d4bd 1c52 743e a785 a83d ff91 aabd
00000010: 298c 7f3e 64c9 873e ff1b 093c e7a7 4abe
00000020: 7669 30be f9b4 043b 6016 343e 70c5 b9bd
00000030: 69ee 82be a0bf 053d 85a8 86be e4bd 86bd
00000040: 71e2 73bd 9f69 fb3d b58f 5cbc 0a0c 883e
00000050: bbc2 8abd bd40 543c 8258 5a3e 00f6 4ebe
00000060: 80fa 73be 0c8f 6ebe 3186 47bc f350 e93c
00000070: 71f1 5ebe c247 513e cb31 5abe 7c02 d7bd
00000080: d656 f63d b51c c23d 67c6 5b3e f3d9 44be
00000090: 356f 38be 2001 593d a0e7 15be cbac d43d
000000a0: 99ee 103e 13ce 0b3e fbe9 303e 6a1f 613e
000000b0: 9bf4 2b3d 378e 013e 0a25 d63d 2ec0 12bd
000000c0: fac9 b2be 08dd 5c3e 6d9b 923d e3cb 63be
000000d0: 2215 f2bd a12b 4dbe f7b7 85be 2931 6ebd
000000e0: b66e 623e 52b8 0b3e e1f8 2abe 2fd7 523e
000000f0: a677 34be 5c17 283d c2d0 edbd 19da 663e
00000100: b80c 8f3d 9a10 eebd 2462 99be 155b fd3b
00000110: 373d 81bd f0cc 6dbe f6ba 3c3e 4edd 36be
00000120: baff 08ba 6617 debc 9db7 593e ff33 17be
00000130: 1875 193e 9e52 3d3e 3851 a33d 8e3f 53bd
00000140: 2202 1dbe 1b72 093d 0c4c 21be 2464 273e
00000150: 715b 37be 89d1 34be b1a8 2e3e 4d09 093e
00000160: 8973 96bb d42f 29bb baeb 0bbe 39f7 813d
00000170: 97b3 bc3d 6d50 16be b466 063d 910c 02be
00000180: 490b 0f3e a137 663e 8e17 6fbe ab04 ad3d
00000190: ba28 383e ace8 f3bd c31e 76bc ba31 41be
000001a0: 18f2 5c3e e570 23be 903b 813e 1bd4 e1bd
000001b0: 43d1 8f3e 505e a83d 54a8 17bc 09cf 113e
000001c0: 4c32 883d 02c7 973d e7fa 9fba 7685 fdbd
000001d0: 77bb 1a3c e1ae 1abe 434d 30be 17de 7d3e
000001e0: eb47 71be e51e 4b3e 0fe2 d9bd f313 753d
000001f0: f6c5 31be d895 61be c45f 15be 128a 5d3e
00000200: 20bf 453e fe5d bb3d 8bb8 46be 5f5a 9abd
00000210: a06c 723e a4bd 24be 7992 4b3e 6c0b acbd
00000220: e093 46be 0870 64bd c747 cabd 72c6 1bbe
00000230: 026d 083e 4c07 4b3d 184a 44bd 14b8 b83d
00000240: 9e17 043e c88e 04be 4f88 bf3d 8de1 80bd
00000250: b83e 6a3e 8c4c 95bd 5014 b0bd 924f 67bd
00000260: 9a5e 073e 33b8 37bd df69 683e 3c0e fdbc
00000270: 717e 05be 2d30 2fbc 54a2 d53b 3d70 b7bd
00000280: 3f67 d2bd a78e 193e 03f1 4abd 1861 8a3d
00000290: 1e36 52bd 335a b7bd 2149 4abe 3e8c 76be
000002a0: 9271 063e c284 b2bd b2bd 213e 70de 84be
000002b0: 5ca2 a8bd 52d1 2dbe 54ac 143e 5533 01be
000002c0: 0f60 46be db0c bdbd 2832 34bd f456 88bc
000002d0: 52b1 e93d 6bf3 073e 9209 05be a8f7 47bd
000002e0: ac0c 263e 069c 5c3e 92a0 33be 6573 a9bd
000002f0: 72ab fe3c 92ab 513e 51bd 153e 229f a13d
00000300: fe62 64bd b0e6 7cbe 0d75 1b3c 856e b4bc
00000310: e9c7 203b 4da7 4c3e 29f1 c03d 18ce 3f3e
00000320: aea0 26be f508 3bbc 7174 4cbd fdf2 bbbd
00000330: b33a d53c b6f8 333e b730 40bd ed79 56bd
00000340: ab45 58be 489a 2ebe 8df8 4d3e 5f89 20be
00000350: 0c9d 87bd 282c 923d 222c 503c 11f5 7e3e
00000360: 12ce 17b9 11d7 083e 7e9f 1abe f762 253e
00000370: 3ae8 f8bd 5c67 36be 4064 3e3e 2931 243e
00000380: 6db1 82be 71e9 a5be 07b7 9abd 1c69 3dbe
00000390: fe0e c93d 9a6a 32bd 9c35 23be 8f1f d23c
000003a0: 676c 06bc 782a 0b3b 4520 67be 0e74 d23d
000003b0: e316 34bd 6314 ee3c 9e5d 9d3d 1d27 4d3d
000003c0: a8a0 7ebd 7abe 173e 32f3 05bd 7d07 153e
000003d0: 2f74 763d 2dfe df3b 0c4e 163e a74e 623d
000003e0: 716f 253d 04b3 7a3d 5ca6 3dbd 7617 143e
000003f0: a8de 73be 8979 d0bd c999 29bd cff7 253e

lstm1_1.bias_ih_l0_reverse f4 [64]
0.15722506 0.15573734 0.054470953 -0.1935975 -0.124538116 0.21726675 0.07953452 0.13629821
0.18241954 0.0023862845 0.22095169 0.06533811 0.06961873 -0.10280154 0.16294447 0.09891427
-0.04894207 0.2155126 -0.17113565 0.0163739 0.0695423 -0.21767665 0.17842703 -0.16412254
-0.20978376 0.17136008 -0.0032032863 -0.016189396 0.09102307 -0.018810011 -0.14195906 0.2575946
-0.0019269587 -0.1456234 -0.09132962 -0.19639902 -0.14987399 0.1965783 0.14693101 -0.0800219
0.014413682 0.042614657 -0.018569747 -0.08430719 -0.082496434 -0.109160155 -0.057762943 -0.020944478
0.12305074 0.06758683 -0.08157969 0.08592888 0.18680558 0.022487622 -0.21846043 0.02783157
0.086318426 0.004284501 0.15084946 -0.22813481 0.032419503 -0.09311857 0.20330423 0.025042577
00000000: 9bff 203e 9c79 1f3e ef1c 5f3d 6c3e 46be
00000010: d70d ffbd 2d7b 5e3e ffe2 a23d c291 0b3e
00000020: 30cc 3a3e 3663 1c3b 2941 623e fdcf 853d
00000030: 4494 8e3d 9d89 d2bd eada 263e 9193 ca3d
00000040: 7b77 48bd 56af 5c3e 2f3e 2fbe 8f22 863c
00000050: 326c 8e3d a1e6 5ebe 93b5 363e bd0f 28be
00000060: 8ed1 56be 0479 2f3e 3aee 51bb a09f 84bc
00000070: 4e6a ba3d 7417 9abc b75d 11be 70e3 833e
00000080: 0192 fcba 4d1e 15be 060b bbbd d31c 49be
00000090: 9178 19be d24b 493e 1575 163e 86e2 a3bd
000000a0: 5d27 6c3c b58c 2e3d 951f 98bc 3fa9 acbd
000000b0: e4f3 a8bd 5c8f dfbd d698 6cbd c193 abbc
000000c0: 0702 fc3d f76a 8a3d 4113 a7bd 7bfb af3d
000000d0: f649 3f3e f637 b83c 17b4 5fbe 08ff e33c
000000e0: b7c7 b03d 0065 8c3b 4878 1a3e 2c9c 69be
000000f0: 50ca 043d f3b4 bebd fc2e 503e 1726 cd3c

lstm1_1.bias_hh_l0_reverse f4 [64]
0.25619334 0.19661948 0.17696849 0.22651812 0.15078895 -0.1626481 0.13259825 0.20478818
0.03322739 0.13324499 -0.02284659 0.07674194 -0.073361345 0.10555198 0.13815303 0.25161624
0.36175203 0.095959075 -0.19908638 0.1907871 -0.013832289 0.16738601 0.057951365 0.18233852
0.18865478 0.18000966 0.18745501 0.006110018 0.0204431 -0.22397639 0.24435382 0.28169918
0.04377791 -0.046399906 0.21967423 0.11775643 -0.23355629 0.013017247 -0.013732929 -0.13081807
0.1996629 0.19049339 0.13297416 0.227962 -0.26100433 0.17483687 -0.1562073 -0.16187091
0.2847179 0.017980047 -0.117576204 -0.03022808 0.080927566 0.24585441 -0.15139174 0.21385883
0.025456835 -0.059776466 0.1098912 0.13066787 0.09754794 -0.11428573 -0.035477955 0.2029675
00000000: c62b 833e 9e56 493e 3a37 353e 5ef4 673e
00000010: 6b68 1a3e 398d 26be d6c7 073e feb3 513e
00000020: 7219 083d 6071 083e c628 bbbc e12a 9d3d
00000030: 793e 96bd a32b d83d fd77 0d3e d8d3 803e
00000040: 9037 b93e 3186 c43d 4ddd 4bbe b25d 433e
00000050: d3a0 62bc 3d67 2b3e 695e 6d3d f3b6 3a3e
00000060: b82e 413e 7454 383e 35f4 3f3e 8c36 c83b
00000070: 4a78 a73c 115a 65be e337 7a3e e03a 903e
00000080: 7750 333d d40d 3ebd 48f2 603e 482a f13d
00000090: 6129 6fbe 4b46 553c 1400 61bc 2cf5 05be
000000a0: 6e74 4c3e b310 433e 612a 083e df6e 693e
000000b0: 5ca2 85be 7008 333e cef4 1fbe 7dc1 25be
000000c0: 8bc6 913e e44a 933c cbcb f0bd e1a0 f7bc
000000d0: 5abd a53d 42c1 7b3e 7006 1bbe cffd 5a3e
000000e0: da8a d03c 2bd8 74bd a30e e13d cccd 053e
000000f0: 37c7 c73d a30e eabd 5551 11bd b6d6 4f3e

lstm1_2.0.weight f4 [32, 32]
-0.0246843 -0.036123633 0.054582566 -0.07507407 0.09778341 0.14768773 0.15880223 -0.04401452
-0.01670022 0.1401711 -0.11795573 -0.060360458 0.03898688 0.021025429 0.12965305 -0.11558477
-0.10335755 -0.05418387 0.033003923 -0.055957384 -0.069842376 -0.0147521645 0.05881272 -0.0077891825
0.0144551 0.11467486 0.14253664 0.13018017 -0.014043648 -0.053454947 -0.16901916 0.1476594
0.12366951 -0.1765553 -0.14057444 0.14778209 -0.13613242 -0.0740932 0.17971602 -0.10614297
0.17364542 -0.11935764 -0.14951284 -0.16069911 -0.085635126 0.03130727 0.09953634 0.13914658
-0.106126726 0.00035296165 0.031629052 0.11615517 0.0010224604 0.11077883 0.15968454 -0.12128142
-0.12496478 -0.15335129 0.15533683 0.093463376 0.15781456 -0.026797516 -0.035428878 -0.040539324
0.17050786 0.033028882 -0.052499004 0.032083113 0.08535979 -0.034140296 -0.039103158 -0.08038965
-0.095919125 -0.100619785 0.027548058 -0.14050722 -0.15315095 -0.0037410795 0.08706357 -0.08003672
-0.04197812 0.1332977 -0.07326847 0.110513955 0.036128767 -0.11276369 -0.10337014 0.055283803
-0.07568115 -0.111749835 -0.13530539 0.13852005 0.12657039 0.0044397195 -0.054969236 0.10747389
0.04148857 0.09921946 -0.09320427 -0.07561217 -0.13815947 -0.07154728 0.108243056 0.15079245
0.11713294 0.023276322 -0.089935295 -0.0032340093 0.10712111 0.07581989 0.07544313 0.07696206
0.092670046 -0.090841204 0.14163856 0.13011947 0.008897846 0.1570001 -0.16161183 -0.09216292
-0.098069675 -0.060956307 0.029308919 -0.09089987 0.15755437 0.1132466 -0.20591727 0.055795643
0.072059795 0.10002884 -0.022008853 0.13578646 0.07872915 -0.13597327 -0.12531954 0.08599049
0.1544129 0.11870917 -0.093806915 0.012859193 -0.039328847 -0.166459 0.14622717 0.021473523
0.03886047 -0.056614954 0.03905289 -0.1058607 0.037432533 -0.045062758 -0.09210534 -0.070727214
-0.04723568 -0.060188565 -0.17093448 -0.028628794 -0.12074652 -0.012085082 -0.003792268 -0.07853907
-0.13608897 0.102416985 -0.11670613 -0.13135217 -0.04268893 0.1334745 -0.1025594 -0.10353306
-0.09559134 0.14752957 -0.082036674 -0.1301458 -0.019348811 0.0012492145 0.07885293 -0.113172114
0.10982734 -0.08728965 -0.09799873 -0.10437094 0.011654482 -0.15635425 0.09271957 0.10848864
-0.076157704 -0.12870878 0.08517959 0.029337564 0.09694639 0.0031146351 -0.14530373 0.06480711
-0.0847283 -0.104028955 -0.022826677 -0.10267708 0.07239997 -0.0059152683 -0.057116672 0.08156995
-0.18766665 0.11604749 -0.14004374 0.17076676 -0.18996671 0.028710155 -0.03897109 -0.11134534
0.16266929 0.13837 0.06803897 -0.042127673 -0.12236571 0.0031281926 -0.11413423 -0.0047946707
0.0011213365 -0.16279858 0.14367409 0.017289283 0.18790653 -0.09066034 -0.1221034 0.07456594
0.1561459 0.11910776 0.17295378 0.10023734 -0.1013203 -0.14537713 -0.11728648 -0.07915898
0.1205245 -0.05265115 0.0030639598 0.07065548 0.1509191 -0.13520113 -0.101829216 0.047881983
-0.06859262 -0.06098534 0.091400996 -0.14965835 -0.11664108 -0.102425545 0.05691082 0.08429863
-0.08776106 0.16432616 -0.063891344 -0.07543764 0.06146856 -0.023274772 0.041343134 0.17210199
00000000: bb36 cabc 60f6 13bd f891 5f3d 6fc0 99bd
00000010: ab42 c83d 743b 173e 0d9d 223e 9248 34bd
00000020: e6ce 88bc 0389 0f3e c692 f1bd 873c 77bd
00000030: b5b0 1f3d 853d ac3c c5c3 043e b5b7 ecbd
00000040: 20ad d3bd e8ef 5dbd 1f2f 073d 9233 65bd
00000050: 8509 8fbd 10b3 71bc 9be5 703d 663c ffbb
00000060: 15d5 6c3c a7da ea3d 20f5 113e f34d 053e
00000070: 5417 66bc 93f3 5abd 5c13 2dbe 0734 173e
00000080: 7146 fd3d eaca 34be bff2 0fbe 3054 173e
00000090: 4c66 0bbe 2dbe 97bd 7a07 383e 7c61 d9bd
000000a0: 1bd0 313e c771 f4bd e519 19be 4f8e 24be
000000b0: 7861 afbd 0d3c 003d b5d9 cb3d 717c 0e3e
000000c0: f858 d9bd b60d b939 778d 013d c3e2 ed3d
000000d0: 1404 863a 03e0 e23d 5884 233e 6562 f8bd
000000e0: 89ed ffbd 1f08 1dbe 9e10 1f3e ba69 bf3d
000000f0: 249a 213e 7786 dbbc df1d 11bd 900c 26bd
00000100: 9d99 2e3e 4b49 073d 3209 57bd 9569 033d
00000110: 1dd1 ae3d b2d6 0bbd a22a 20bd 54a3 a4bd
00000120: 3f71 c4bd bf11 cebd 77ac e13c 20e1 0fbe
00000130: 9ad3 1cbe e62c 75bb 634e b23d 4bea a3bd
00000140: 40f1 2bbd 317f 083e c80d 96bd 2455 e23d
00000150: c2fb 133d a6f0 e6bd b9b3 d3bd 4571 623d
00000160: b8fe 9abd 19dd e4bd 7f8d 0abe 33d8 0d3e
00000170: ab9b 013e 117b 913b 6c27 61bd 451b dc3d
00000180: ebef 293d 9233 cb3d e1e1 bebd 8eda 9abd
00000190: ad79 0dbe 6187 92bd 89ae dd3d 5669 1a3e
000001a0: 65e3 ef3d fcad be3c ff2f b8bd acf1 53bb
000001b0: 5062 db3d 7547 9b3d ee81 9a3d 499e 9d3d
000001c0: cbc9 bd3d f40a babd b309 113e 0a3e 053e
000001d0: 45c8 113c a2c4 203e 927d 25be eabf bcbd
000001e0: c1d8 c8bd 52ad 79bd 4219 f03c b629 babd
000001f0: ef55 213e d5ed e73d fadb 52be f989 643d
00000200: 1694 933d ecdb cc3d e94b b4bc 9b0b 0b3e
00000210: c03c a13d 943c 0bbe c453 00be c81b b03d
00000220: 6a1e 1e3e cb1d f33d d71d c0bd 5daf 523c
00000230: 4917 21bd 3a74 2abe 93bc 153e 3ee9 af3c
00000240: 282c 1f3d 15e5 67bd ecf5 1f3d 7fcd d8bd
00000250: db52 193d ba93 38bd b9a1 bcbd 6ed9 90bd
00000260: 337a 41bd 4988 76bd 7309 2fbe ef86 eabc
00000270: f449 f7bd 8200 46bc b387 78bb 18d9 a0bd
00000280: e85a 0bbe ffbf d13d a003 efbd 2f81 06be
00000290: 96da 2ebd 8aad 083e aa0a d2bd 2409 d4bd
000002a0: 64c5 c3bd fe11 173e d802 a8bd f144 05be
000002b0: 6681 9ebc afbc a33a a57d a13d c8c6 e7bd
000002c0: 28ed e03d ebc4 b2bd 8fb3 c8bd 6ec0 d5bd
000002d0: 71f2 3e3c 541b 20be c2e3 bd3d 4b2f de3d
000002e0: 92f8 9bbd 3ccc 03be a372 ae3d 5555 f03c
000002f0: d48b c63d e81e 4c3b 80ca 14be 97b9 843d
00000300: 0886 adbd 220d d5bd 03ff babc 5c48 d2bd
00000310: 6f46 943d ded4 c1bb 2cf3 69bd 250e a73d
00000320: b02b 40be 4eaa ed3d a067 0fbe 7bdd 2e3e
00000330: a286 42be 8f31 eb3c 26a0 1fbd 0709 e4bd
00000340: c792 263e deb0 0d3e 0458 8b3d 118e 2cbd
00000350: e09a fabd 5d02 4d3b 35bf e9bd 9d1c 9dbb
00000360: cff9 923a acb4 26be 4d1f 133e 41a2 8d3c
00000370: 926a 403e 21ac b9bd 5911 fabd 07b6 983d
00000380: b6e4 1f3e c5ee f33d cc1a 313e 3c49 cd3d
00000390: 0481 cfbd bedd 14be e533 f0bd 1a1e a2bd
000003a0: 8dd5 f63d bba8 57bd b7cc 483b d2b3 903d
000003b0: 898a 1a3e 2a72 0abe d68b d0bd e61f 443d
000003c0: 4a7a 8cbd c4cb 79bd 7230 bb3d 0a40 19be
000003d0: 85e1 eebd 7cc4 d1bd 521b 693d c3a4 ac3d
000003e0: 12bc b3bd 1e45 283e 77d9 82bd 0d7f 9abd
000003f0: 75c6 7b3d bcaa bebc 6b57 293d 813b 303e

lstm1_2.0.bias f4 [32]
0.15806475 -0.04188392 -0.119346835 0.054045565 -0.09146258 0.013245129 0.13798118 0.18763612
0.119761184 -0.11481352 0.12405279 0.034998003 0.15230362 0.027870953 0.08210149 -0.047679197
0.0662664 -0.058205023 -0.00045777185 -0.055405986 0.15161476 -0.00614114 0.05511425 0.0055984976
-0.18932557 0.050834015 -0.11137389 -0.05363504 -0.0036707157 -0.025565948 -0.0990477 0.06292815
00000000: badb 213e 798e 2bbd 1d6c f4bd e25e 5d3d
00000010: bc50 bbbd 1902 593c f04a 0d3e af23 403e
00000020: 5a45 f53d 5a23 ebbd 640f fe3d 115a 0f3d
00000030: 7bf5 1b3e a051 e43c d324 a83d 434b 43bd
00000040: aeb6 873d 6468 6ebd 1901 f0b9 63f1 62bd
00000050: e640 1b3e 9e3b c9bb 7bbf 613d 9a73 b73b
00000060: 90de 41be 5437 503d fe17 e4bd 6ab0 5bbd
00000070: 6490 70bb ae6f d1bc 85d9 cabd 79e0 803d
