results/pretraining_samples_effect_results/Dataset 5/pre_rate=0.9/Experiment1(2C-6)/from_Dataset 5_ft_model.pth (torch, 95756 bytes, 27 tensors)

cnn1.0.weight f4 [16, 1, 3]
00000000: b1b0 aabd 0373 a23d 9fa3 ccbe 90c9 f93b
00000010: d737 56be 94f7 053e 3864 9cbe d80a b0be
00000020: c331 833e c3ef 92be 243e 0f3f 7b64 1bbc
00000030: 0990 91be be77 94be db66 bcbe 263a 1abd
00000040: 47cc adbe 3e50 f23e fb9c bf3e 7597 143f
00000050: 3bf1 2fbe 88a6 8cbc 9f13 b13d bb05 013f
00000060: daa9 583e 3d42 2a3e 08e6 d03e 71b9 f63e
00000070: 829c 243e 71e5 05bf 57b0 02bf 00ec bc3e
00000080: 6465 013f f665 693e a283 a1be cf7d d3be
00000090: 1c6b 3bbe 331e 0e3f 3665 79be 79ac 13bf
000000a0: d976 ac3e 07c1 9d3e c266 033f bc98 973d
000000b0: 46aa a83e c40a 6d3e 5ddc 21be 495a 323e
-0.083344825 0.07932093 -0.39968583 0.007622905 -0.20919739 0.13082725 -0.3054521 -0.34383273
0.25623903 -0.2869855 0.55954194 -0.009484406 -0.28430203 -0.28997606 -0.36797222 -0.03765311
-0.33944914 0.47326845 0.37424454 0.58043605 -0.17181866 -0.017169252 0.086463206 0.5039937
0.21158543 0.1662683 0.408005 0.48188356 0.16075328 -0.52303225 -0.51050323 0.36898804
0.50545335 0.22792801 -0.3154574 -0.41306922 -0.18302578 0.5551483 -0.24355015 -0.5768505
0.33684424 0.3081133 0.5132867 0.07402179 0.32942408 0.23148638 -0.15806718 0.17417254

cnn1.0.bias f4 [16]
00000000: e277 d83e 1c57 0f3f 030d 1bbe 2086 92be
00000010: ca51 a73e 6a67 0b3f 1115 82be e818 b93e
00000020: 3df3 f83e fb2e 7bbe 894a 22bd b103 0d3f
00000030: 7fa0 f33e 3f8d 0ebf 6b10 12bb 2820 76bc
0.42278963 0.55992293 -0.15141682 -0.28617954 0.32679588 0.5445467 -0.25406697 0.36151814
0.48623076 -0.2452964 -0.039621864 0.5508376 0.47583386 -0.55684274 -0.0022287618 -0.015022315

cnn2.0.weight f4 [32, 16, 3]
00000000: e66f 4bbc e6e4 f63d 1f3a 47bd 84e5 093e
00000010: 4df0 903c c74f f03d 2d54 96bd fd27 eb3c
00000020: 9cc6 e3bd 6380 79bd 5c77 ddbd c8fe 36bd
00000030: 88e9 803d b6e3 2fbd a136 5f3d be61 da3d
00000040: 2d02 9ebd 7729 da3d 715e 743d 1e90 793d
00000050: 81cd 04be bfed 07bd d36d 4c3d c9c2 f93c
00000060: ac8f bf3c 8266 48bd 743c 263d 998e c13d
00000070: df12 013e 3814 74bd e532 2dbd 6166 893d
00000080: 49d5 0fbc be21 ee3c 58c5 ef3d 1f62 4a3c
00000090: 9e32 6cbd fcdf c83d d79f 9e3d 6286 c2bd
000000a0: 6115 7b3d 08da 0e3d 8daa 163c 82f4 7cbc
000000b0: 28ea 0a3d bd20 dfbd 8e68 12be 156b 5bbd
000000c0: fc1d 53bd af21 f7bd e659 d2bd 5400 7d3d
000000d0: 34ad 06bb 7eb5 e93d 004c 0a3d 9ad3 33bd
000000e0: 6aaa 123e 2a81 a43d a965 f3bc ef6d 32bb
000000f0: d51c a93d ce12 1cbe b37b a33c 3682 a6bd
00000100: b166 2abc 72e0 d4bd 9c0f e8bc 975d 07bd
00000110: 393b 02be 3a7a 67bb b5f1 c03d 8d48 423d
00000120: d9db 0cbd 0e08 d03d eb7c a6bd 2c9e 103e
00000130: ddae a43d 0ab6 42bd 2ce5 bdbc ae9f 83bd
00000140: f47a 05be faf6 f53d 0cb0 813c 556d b43d
00000150: c982 0abe 7385 003d 1ae6 e7bd d8da 0ebd
00000160: 7903 eebd 7386 053e 8a23 05be 13e8 313d
00000170: a79c 0c3c 20d8 063e 129b 17be 1815 ac3d
00000180: 4fbc 683c eaec 82bd 1245 acbd 5342 fcbd
00000190: dd1b 6b3d 7fdc 33bd 9460 063e 9703 2f3d
000001a0: b33e 4e3d 3a55 0c3e de47 dd3d bf46 dd3d
000001b0: 44ad eebd 3f11 afbd 7322 06be 7855 04be
000001c0: 8995 fdbd 5076 5abd 0faf 453d c507 58bd
000001d0: e5bc 063e 9ecb 5b3d de26 82bd 1e0d 12be
000001e0: 584d 91bc 08fe ab3c b2a3 943d 284c b13d
000001f0: 399d aa3d 8814 bebd 6798 103e 22ce cd3d
00000200: b191 17bc 256b 0e3d e098 36bd 99b8 013e
00000210: 735a ddbd 6e80 f63d 8a73 85bd 6916 ce3b
00000220: 0595 0bbd bad3 d7bd 7a0c a5bd a9a1 c0bd
00000230: 47f2 94bd 5482 e53d 660b 45bd 39c5 9fba
00000240: a289 1c3e bf0b b23d 5447 8e3d 11e7 c33d
00000250: b369 333e 8545 a0bd e618 e53c 334c 0bbd
00000260: e727 983d 0f22 77bd 2454 483d d484 af3c
00000270: f9dd 71bb ef75 2e3e 8dc5 9e3d 21be 143e
00000280: 9420 af3c fc84 e93d 7b16 0cbe 3404 a4bd
00000290: a224 45be 2902 c5bd 1576 d93d 7881 073d
000002a0: f5ef 153e 0b47 43bc 5042 fc3d 8522 b7bd
000002b0: 9718 fa3d dfd3 4d3b 3f10 b2bd bb46 f4bd
000002c0: 519a 983c 12f8 643e 6f73 1e3d 86a7 6d3e
000002d0: e2d2 13bd 7c7c 743d def3 a33d 8b60 ae3c
000002e0: e97b 48bd 1f21 13be f0fb 87bb 2e0b e93c
000002f0: b94d 5ebc 007c e3bc 4be8 babd 3300 99bd
00000300: eed9 483d 693a 5abd c575 0e3e 0bad 0e3e
00000310: 8b0c f33d bda9 db3c 69a7 77bd feaf bf3d
00000320: 8a5d 72bd f9e4 b23d 68b1 3ebd 97ea b33d
00000330: 1aae 963d f140 313d e605 8c3d 98d1 f7bc
00000340: 5275 3ebc 94bf 7b3c dbeb 763d c0bd 0d3d
00000350: 8dfa a43d b27e e63d 42bf 8fbd 1673 c33d
00000360: 4518 fbbd 050f fc3c 388d 493d 0869 af3d
00000370: 22f0 d73b 47ca 133e 96eb c9bc ce04 c73c
00000380: 57c0 eb3d 2df8 74bd c4f4 123e 54bd 773d
00000390: 93a8 723d c30b 97bd 950a 26bd b4c0 113c
000003a0: eed0 043e 241d f4bd 4e13 e5bc 7333 a03d
000003b0: bf0e 403b 95ad b23d d23a febd fd79 6cbd
000003c0: 3954 9cbb e779 a7bd bb73 c53d 06e5 b23d
000003d0: 3718 f7bd 4a87 07bc 8946 a3bc 40e1 cf3d
000003e0: 92b3 47bc ff34 333d b1cf d6bd d055 a6bd
000003f0: caab 93bd 7752 b7bc b74e 213d f185 3bbb
-0.012416815 0.12055378 -0.048639413 0.1346646 0.01769271 0.11733966 -0.07340274 0.028705591
-0.11121866 -0.060913455 -0.108137816 -0.044676572 0.062945426 -0.04294177 0.054495458 0.10663174
-0.07715259 0.1065244 0.05966038 0.060928456 -0.12969019 -0.033185717 0.049909424 0.030488389
0.023383938 -0.048925884 0.040584996 0.094510265 0.12604855 -0.059589595 -0.042284865 0.0670898
-0.0087788785 0.029068824 0.11707562 0.012352495 -0.05766546 0.09808347 0.07745331 -0.09498288
0.061299685 0.0348759 0.009195936 -0.015439155 0.033914715 -0.10894916 -0.14297697 -0.05356892
-0.051542267 -0.120669715 -0.10271053 0.06176789 -0.0020550014 0.1141157 0.033763885 -0.04390297
0.1432282 0.080324486 -0.029711561 -0.002722617 0.082574524 -0.15241548 0.019956445 -0.081303045
-0.01040046 -0.10394372 -0.028327756 -0.03304824 -0.12717904 -0.0035320655 0.09421102 0.04743247
-0.03438935 0.10157786 -0.08129295 0.14122838 0.08041165 -0.047536887 -0.023180567 -0.06426941
-0.13035184 0.12009998 0.015831016 0.08809916 -0.13526453 0.031377267 -0.11323185 -0.034876674
-0.11621756 0.1303957 -0.13001838 0.043434214 0.008582271 0.13168383 -0.14805248 0.08402461
0.0142050525 -0.06392844 -0.084116116 -0.12317338 0.05739962 -0.043911453 0.13122779 0.042728033
0.050352763 0.13704386 0.10804723 0.10804509 -0.116541415 -0.08548211 -0.13099079 -0.12923229
-0.12382037 -0.053335488 0.048262652 -0.052741785 0.13157995 0.05366098 -0.063550696 -0.14262816
-0.017737076 0.020995155 0.07257785 0.08657104 0.08330769 -0.0928126 0.14120637 0.10049082
-0.009251044 0.03477015 -0.044579387 0.12668075 -0.108082674 0.12036215 -0.06516178 0.0062892926
-0.034077663 -0.105384305 -0.0805902 -0.09405834 -0.07272773 0.11206499 -0.048106574 -0.0012189514
0.15286878 0.08693647 0.069471985 0.09565557 0.1752079 -0.0782576 0.027965974 -0.034008216
0.07429486 -0.060335215 0.048908368 0.021425642 -0.0036905988 0.17037176 0.077525236 0.14525653
0.02137784 0.11402318 -0.1368045 -0.08008614 -0.19252256 -0.09619553 0.106182255 0.033082455
0.14642318 -0.011918793 0.123173356 -0.08942131 0.122117214 0.0031406803 -0.08694505 -0.11927553
0.018628271 0.22360256 0.038684305 0.23208436 -0.036089785 0.05968903 0.08005498 0.02128627
-0.048946295 -0.14368103 -0.0041499063 0.028447714 -0.013568335 -0.027769089 -0.091263376 -0.07470741
0.04903596 -0.05327836 0.13912113 0.13933198 0.11867627 0.026814336 -0.06046239 0.0935974
-0.059171237 0.08735079 -0.046555907 0.08784979 0.07357426 0.043274824 0.068370625 -0.03025131
-0.011624651 0.0153655 0.060283523 0.034604788 0.08055601 0.11254634 -0.070189014 0.09543435
-0.122604884 0.03076888 0.049206942 0.08564955 0.0065899054 0.14432631 -0.024648469 0.024294283
0.11511295 -0.05980699 0.14351183 0.06048329 0.059242796 -0.0737529 -0.040537436 0.008896042
0.12970325 -0.11919621 -0.027963307 0.07822313 0.0029305664 0.087245144 -0.12413563 -0.057733525
-0.0047707823 -0.08177548 0.096412145 0.08735089 -0.120651655 -0.0082720015 -0.019931095 0.10150385
-0.012188809 0.043751713 -0.10488833 -0.08121836 -0.072105005 -0.02237819 0.03938171 -0.002861377

cnn2.0.bias f4 [32]
00000000: ea8b e83c d25c b43a eaab d83d cf8e b43b
00000010: 252a f73d 34fb d43d 46f7 ab3d c703 763d
00000020: c267 a3bc a4ea 92bc 37ae 0b3e 26a8 2c3d
00000030: 19e2 f5bd 16d1 05be b72b 993d abab d93b
00000040: 8b9e c9bd f5de b2bd 6a11 bc3d 1f94 8d3d
00000050: 98ef d1bc f118 0b3d 3c80 c33b 45fc 06bd
00000060: 0be7 c53d 0f58 49bd 9a26 a8bd b3d7 96bd
00000070: 0d6c 913d 18dc 2bbd 3088 783d d5bd 273d
0.028387029 0.0013760573 0.10579665 0.005510188 0.12068585 0.10399476 0.08396773 0.060062196
-0.019946937 -0.017934151 0.13640676 0.042152546 -0.12006015 -0.13068041 0.07479041 0.006642779
-0.09844693 -0.08733932 0.09183009 0.069130175 -0.025626943 0.033959333 0.0059662145 -0.032955427
0.096632086 -0.049156245 -0.08210488 -0.0736536 0.07100687 -0.041957945 0.060676754 0.040952522

lstm1_1.weight_ih_l0 f4 [64, 32]
00000000: 0059 2bbd d79f 5e3e dcaa 0c3e 6b5a 0cbd
00000010: eceb d43d 8905 ebbd 7104 873d 03c1 493e
00000020: b7dc 98bd 542d 733e 9611 7cbe fc80 8d3d
00000030: 2a8f 103e 4cb2 98bd 051a 25be 0ef0 41be
00000040: c7ee 79bd 129b 173e f48a 513e f667 47bd
00000050: cca4 3fbe 6041 2dbe fbe6 2a3e 3608 5cbe
00000060: 3724 1c3e 9fc4 83bc e9cb 633e a8c9 2a3d
00000070: 7870 58bd 0028 4ebc 40eb 033e 6adb 783e
00000080: 1e53 1b3e 3dfd 713e 8ca4 c93d e05a 153e
00000090: b034 8ebd 4f7b 20bd d89a 233e 1d04 513d
000000a0: 1070 453d 0295 95bd 1154 f93d 034a 67bc
000000b0: f934 443d a0dd f73c f4b4 5bbe 9e86 75be
000000c0: e5c3 c73d bec6 c93d 4b32 013e 19f2 203e
000000d0: 0486 27be 8065 773e 9cfd 35be 3831 4fbd
000000e0: 580a afbd e783 3abd 4ae8 0bbe 7d9b c5bd
000000f0: c0bb eb3c 26ad 63be d015 9e3d c648 623e
00000100: 3057 563e d74a fdbc e0ff 513e 263a 643d
00000110: 1d4d 03be 5981 3dbe 18fb 81be d4d2 09be
00000120: 0e35 cabd 9c4e 2d3d 8ff0 62be 6d66 0b3e
00000130: 8b35 5e3e 9044 79be 0b3a f23c 8bb7 69be
00000140: b5b3 f73d 2835 39bc 4d71 38bd 45c1 653d
00000150: 5a8b 14ba 1751 993d 5821 153e 4090 5d3c
00000160: cf73 483d 1d6a 7c3e f8f6 2f3e cc0a 18be
00000170: 4807 253d ac81 d9bd 7198 b1bd 1cf5 d7bd
00000180: 5c3f 4bbe 7dbe dc3c 66bf 193e 9ea9 3cbe
00000190: 6e9d bc3d 92ad 203e aedc e4bd 67a4 6abe
000001a0: 9247 2bbe c510 d13c 0d71 273e 88b4 29be
000001b0: dcd4 f2bc 784b 83bd 8fc4 37be ff5b 30bc
000001c0: 5a63 db3d 65df 00be 147e 06be c6c5 bfbb
000001d0: 9c9d aebc 5ca1 38be 4d7d 663e 785a 64be
000001e0: 2915 50be 85f7 05be 0775 c7bd e48f 9fbe
000001f0: 30cd 513d aa66 66be c446 663d 8ae8 67be
00000200: 9f8c 553e f562 3c3d 7c03 c3bd fdec 313e
00000210: ea14 4abe 307f 47bd c58e d13d 3f0c 3d3d
00000220: fde0 803e 92a4 7b3e ef0f a1bd 1109 833d
00000230: 9f5c 383d 546f c3bd bd70 2a3d a005 abbc
00000240: 5a20 4d3e 5cb9 433d a9bb 183e d4be 453e
00000250: bb27 e0bd bf5a 6abe 47b7 47be 60a1 3bbc
00000260: 6295 b2bc c23a d13d 90f8 06be ffd5 5d3e
00000270: 6cb7 30be a818 7abe 1193 19bd 007d 0abe
00000280: 6502 88bd e724 33be 38a8 7e3e 0eda 2cbe
00000290: 6746 c7bd 95aa 1ebe f1cb 2ebe 65fc 67be
000002a0: a9b8 17bd 5819 bc3d 7e6c 613e 8acd 1ebe
000002b0: af48 a73c ead4 3abe f653 223d f33f a8bd
000002c0: d21c f33b 0984 4bbe fe08 7cbe 6483 723e
000002d0: 7490 e3bd 9c9c 303d a3a8 ffbd e6eb 0abe
000002e0: dd70 673e 4380 2c3d 1d81 75be 3e8b 4abe
000002f0: 4ae7 70be 7a2b 513e 7dc8 723e 78c8 d9bd
00000300: 4066 89bd 83c7 fe3d 4822 f83d f111 2e3e
00000310: 2cf6 4b3e 2654 09bd 70dc 8e3e 7b3d acbc
00000320: ca2f 8abd c7c6 553e 648d 073e 8be5 253e
00000330: 7884 1d3c 38c0 563e cd93 733e d852 3ebe
00000340: ecdb e43d 0ad3 80be 917d 06be 2cd9 173e
00000350: 86bc 7b3e 7576 1b3d 32df 78be c035 ecbd
00000360: d766 9f3d 25ce 84bd 5c9f 043e 67cc ef3d
00000370: 94ba 2dbe 4ac6 3b3e b3c4 4cbc dc1a ed3d
00000380: 4aa8 b8bd 2b2f fcba 9e20 5abe e3a2 433d
00000390: 68c1 afbd ddcd 553e 3781 3d3d 520b 483e
000003a0: bf3e 0a3e 125e 373e 18a1 623d 6ef3 fc3d
000003b0: 55b7 65bd 9415 b0bd 8a2d c9bd dcf2 3f3e
000003c0: 460f dfbd c3ae 863d cdd9 a1bd 413d 20be
000003d0: 4afc 27be 0488 573e 76c4 663e d884 c13d
000003e0: 57f6 603e 9b78 753e 7f6b 6bbe bb10 5fbe
000003f0: e0d4 913c 5a8f 1c3e 4504 06be 545d 10be
-0.041832924 0.21740662 0.13737053 -0.034265917 0.10396561 -0.11475665 0.06592644 0.19702534
-0.07463973 0.2374776 -0.24616084 0.069093674 0.14117113 -0.074558824 -0.16123207 -0.1893923
-0.06101873 0.14805248 0.20463163 -0.04868313 -0.18715209 -0.1691947 0.16689675 -0.21487507
0.1524819 -0.016084967 0.22245754 0.04169622 -0.052841634 -0.012582779 0.1288271 0.2430245
0.15168425 0.23631759 0.09845838 0.14585447 -0.06943643 -0.039180096 0.15977037 0.051029313
0.048202574 -0.073038116 0.121742375 -0.014116767 0.04790208 0.030257046 -0.21455747 -0.23977134
0.09754161 0.0985236 0.12616841 0.15717353 -0.16359717 0.24159813 -0.17772526 -0.050584048
-0.08546895 -0.045535948 -0.1366283 -0.09648798 0.02877605 -0.2223402 0.07719004 0.22098073
0.20931697 -0.030919475 0.20507765 0.055719517 -0.12822385 -0.18506373 -0.25386882 -0.13459331
-0.09873401 0.042311296 -0.22162078 0.13613291 0.21700113 -0.24342561 0.029568693 -0.22823922
0.12094823 -0.011304177 -0.045029927 0.05609252 -0.0005666517 0.0748617 0.14563501 0.013523161
0.04893857 0.24649854 0.17184055 -0.14847869 0.040290147 -0.10620436 -0.08671654 -0.10544798
-0.19848388 0.0269463 0.15014419 -0.18424079 0.09209715 0.15691212 -0.11174904 -0.22914277
-0.1672652 0.025520692 0.16351719 -0.16572773 -0.029642515 -0.06410879 -0.17946075 -0.010764121
0.10712309 -0.12585218 -0.13134032 -0.005852434 -0.021315388 -0.18030304 0.22508736 -0.22300136
-0.20320572 -0.13082702 -0.09739118 -0.31164467 0.051221073 -0.225001 0.05621983 -0.226473
0.20854424 0.04599281 -0.09522149 0.1737556 -0.1973454 -0.04870528 0.10232309 0.046154257
0.25171652 0.24574497 -0.07864367 0.06398214 0.045010205 -0.095427185 0.04161142 -0.020876706
0.20031872 0.047784194 0.14915337 0.19311076 -0.10945078 -0.2288618 -0.19503509 -0.011452049
-0.021799747 0.10216285 -0.13180757 0.21663664 -0.1725747 -0.24423468 -0.03749377 -0.13524246
-0.06641082 -0.17494546 0.24868858 -0.16880056 -0.09730225 -0.1549476 -0.17069985 -0.22654875
-0.03704134 0.091845214 0.22014043 -0.15508094 0.0204204 -0.18245283 0.039630853 -0.08215322
0.007419207 -0.19874586 -0.24612805 0.23682934 -0.111115366 0.043118104 -0.12483337 -0.1356655
0.22601648 0.042114507 -0.23975034 -0.19779679 -0.2352573 0.20426741 0.23709293 -0.106339395
-0.06708956 0.124403976 0.12115914 0.16999032 0.19918126 -0.033527516 0.27902555 -0.02102541
-0.06747396 0.20876609 0.1323753 0.16200845 0.009614103 0.20971763 0.2378685 -0.1858629
0.11174759 -0.2516101 -0.13133837 0.14828938 0.24583635 0.037954766 -0.24303892 -0.115336895
0.07783287 -0.064846314 0.12951416 0.117089085 -0.16965705 0.1833736 -0.012498069 0.11577389
-0.090164736 -0.0019240131 -0.21301505 0.047762763 -0.08581811 0.20879312 0.046265807 0.19535568
0.13500498 0.17906979 0.055329412 0.12351118 -0.056083042 -0.08597866 -0.09823139 0.18744987
-0.10891585 0.06576302 -0.0790287 -0.15648367 -0.16404834 0.2104798 0.22535881 0.09449166
0.21968971 0.23971789 -0.22990225 -0.21783726 0.017801702 0.1528906 -0.13087566 -0.14098102

lstm1_1.weight_hh_l0 f4 [64, 16]
00000000: 030f b7bd ae89 353a 0c19 3f3e f908 61be
00000010: 0aab 5e3e 9bf1 bdbd 37ac 7b3e f09a 173e
00000020: 4f06 24be c113 46bd fa03 263e 4800 68be
00000030: b836 103e abc1 68be 2977 17be 729a 993d
00000040: 8ef1 25be 00d9 9bbd ec2b 6cbc 2812 3fbe
00000050: c03c fe3d 1f31 6e3d a262 463e 2ef8 cabd
00000060: de5e c93d 2d6a 833e 5181 6a3e 9dda 203c
00000070: abcd 6ebe 9423 c73d 4b85 3ebe 22ed 543e
00000080: 04a3 9fbb bd65 0dbe 2a8b 3fbe faba 273e
00000090: 06be f53d 66ad 2abe a515 2bbe 3efd 433e
000000a0: a37f 0a3c 13dc c53d 4b3e 08bd 4308 373e
000000b0: 4acb 813e 8732 8abc 1ff1 ecbd 9ecf 4cbe
000000c0: 00b8 eebb 8110 123d 476a 75bd 2fe9 4c3e
000000d0: 1801 27be 8b02 453e 6ee8 9ebd 84a5 dbbd
000000e0: 7a7d 94bc 6d20 d73d e811 05be 9cac 3f3e
000000f0: dae7 103e 90f7 dd3c 735f 293e c699 233e
00000100: 4174 1a3d 1399 c53d fcd7 433d 9f88 cb3d
00000110: 1c8b 103e ccb5 773e 0b4c 45be 41c9 42be
00000120: 4576 adbd bf87 30be 6a6b 293e e50f 003d
00000130: 4074 e93d d21d 84bd f704 41bc 30c6 2fbe
00000140: 7669 253e e7b7 05be cc78 20be 5c5f f13d
00000150: 5c88 b6bd bf34 07be 9d91 31be 07ea ab3d
00000160: 3a55 663e 6fe1 f0bd 6ebe 273d 6846 9c3d
00000170: b4cd cebd 1f82 90bd ab89 ec3c 65ab 59be
00000180: 3b54 96bd ad5e 053d ee05 413d 78bc 40be
00000190: db2b 15be 9ddb 793e 2aa1 73bd 7e9b 71be
000001a0: 889c a1be 2c8c 31be 128f 3ebe 1e71 42be
000001b0: dfe4 e43d 46ea 53be 0cf6 533e 2711 393e
000001c0: a319 543d af2c 643e 5a33 2fbe 1962 303e
000001d0: b078 63bd 1939 323e 1a25 d83d 6dac 81be
000001e0: 3e64 ffbc 1661 fdbc e4a5 703e 6653 013d
000001f0: 652b cb3d a4e5 543e 241d 4e3e a8f8 d93d
00000200: c537 493c 5b9d 0dbe c693 e13d b7a6 843e
00000210: 2fbb fa3d dcc4 c7bd 7695 2c3e 67db eebd
00000220: a1c1 dcbd 2c3d 603e ecfb 87be ad88 ed3d
00000230: ecea 5e3d 9cfd acbd 9203 e8bd 2c49 233d
00000240: 0d08 3a3d d201 553e 5c20 113c 3716 7d3d
00000250: e14a 7dbe a0fe 05be 11d8 043c 92a3 593e
00000260: bd29 5e3d c660 53be 9bfb 47be cdb9 95bd
00000270: 0f40 44be 4ad9 4e3d 69b6 aebd 7715 2e3e
00000280: 3402 b8bd d328 4abc 687e 5d3e 3177 8a3e
00000290: 1f45 0139 97cd 72bd 43d1 47bd d3e9 71bb
000002a0: 81f5 473e a812 173d 8321 92bc 6d81 dcbd
000002b0: f9e5 323d f460 19bd c500 b93d bec1 1e3e
000002c0: be1a 55be 0c63 f93d 1f04 3fbe c67e 243e
000002d0: 0011 e93c dfd1 dd3d 1892 333e f633 6b3e
000002e0: 5261 17be ef15 83bd ae48 6bbe 6a6d c83c
000002f0: 422e 55be abfc 3a3e 8113 7cbe 66ac a93d
00000300: 0c63 1c3e 6f03 143d 1dc4 d3bc 97d6 9ebd
00000310: e34a 703e e14c 36bd 11d1 4abe 8a78 253e
00000320: 1a84 443d 26aa ca3d 2a38 35be b889 3abe
00000330: 07bd 9cbc 9b1e 7d3d 816d 53be 3086 803e
00000340: 40cd 423e 2fc5 8e3e 1d70 043e e3bb 2a3d
00000350: e855 34be a033 d7bd df79 94bb 6161 69bb
00000360: aa49 23be c095 683e 6808 7b3e ddb7 93bd
00000370: 2dbf 52be 1b44 c7bd 7f7d ba3d e6c8 853e
00000380: 05bb 803d 3285 2cbe b261 973c 192c 7b3d
00000390: 3ee1 ddbd 2e4a e1bc db4b 293e 3e40 e93d
000003a0: a17d 4dbe ce6c 56bd a1ec 8ebc 4751 9d3d
000003b0: f5bc 583d 9f25 343e fa17 2dbe 0fab a9bd
000003c0: 9e44 4a3e aec6 183d f833 523e 4271 17be
000003d0: ae39 a13d 29b1 cdbd 55d6 e83c 3339 76be
000003e0: 8719 b4bd d5ff c83d 125e de3c 62f8 4a3e
000003f0: bc47 223e 0162 16be 1431 1fbe 883d ebbd
-0.0893841 0.0006925118 0.18661898 -0.21976079 0.21744934 -0.09274598 0.24577413 0.14805198
-0.16018032 -0.048358683 0.16212454 -0.22656357 0.14083374 -0.22730128 -0.1479155 0.07500161
-0.16205427 -0.07609749 -0.014414769 -0.1865927 0.12413931 0.058152314 0.19373563 -0.09910618
0.098325476 0.25666943 0.22900893 0.0098177465 -0.23320644 0.09723583 -0.18605535 0.20793584
-0.004871728 -0.13808341 -0.1870543 0.1637992 0.11999135 -0.16667709 -0.16707475 0.19139573
0.0084532825 0.096611165 -0.033262532 0.17874245 0.2535041 -0.016869796 -0.11569428 -0.20001075
-0.007285118 0.03566027 -0.059915807 0.20010827 -0.16309011 0.19239251 -0.07759176 -0.10724929
-0.018126238 0.105042316 -0.12995112 0.18718189 0.14150944 0.027095586 0.16540317 0.15976629
0.037708525 0.09648337 0.0478134 0.09938168 0.14115566 0.24190444 -0.1926729 -0.19022085
-0.08469824 -0.17239283 0.16544881 0.03126516 0.11399126 -0.06451 -0.011780969 -0.17165446
0.16153511 -0.13058434 -0.1567108 0.117857665 -0.08912727 -0.13203715 -0.17340703 0.083942465
0.22493449 -0.11761748 0.040953092 0.076306164 -0.100978285 -0.07056069 0.028874239 -0.21256788
-0.073402844 0.032560993 0.047124796 -0.18821895 -0.14567511 0.24400182 -0.05947987 -0.23594472
-0.31564736 -0.17338628 -0.18609264 -0.18988463 0.11176466 -0.20694837 0.20699328 0.1807295
0.05178226 0.2228267 -0.17109433 0.17224921 -0.05553502 0.17404594 0.105539516 -0.25326863
-0.031175729 -0.030930083 0.23500782 0.031573676 0.09920386 0.20790726 0.20128304 0.106431305
0.012281363 -0.13829558 0.11014514 0.25908443 0.12242734 -0.09754345 0.1685389 -0.116629414
-0.10779119 0.21898335 -0.2655939 0.115983345 0.054423258 -0.0844681 -0.11328806 0.039864704
0.045417834 0.20801476 0.008857813 0.061788764 -0.24735595 -0.13085413 0.008108155 0.21253803
0.054239023 -0.20642385 -0.19529574 -0.07310829 -0.19165061 0.05050019 -0.08530886 0.17000376
-0.08984795 -0.012338835 0.21630251 0.2704406 0.00012328148 -0.059278097 -0.048783552 -0.0036913052
0.19527246 0.036883026 -0.017838245 -0.107668735 0.04367635 -0.037445977 0.0903335 0.15503594
-0.20810983 0.12177095 -0.18653916 0.16063985 0.028450489 0.10831045 0.17536199 0.2296904
-0.14783219 -0.06400668 -0.22976944 0.024466235 -0.20818427 0.18260448 -0.24616815 0.082848355
0.15272158 0.036136087 -0.02585035 -0.077557735 0.23466067 -0.04450691 -0.19806315 0.16159263
0.047977544 0.098957345 -0.17697206 -0.18216598 -0.019133104 0.061796766 -0.20647241 0.25102377
0.19023609 0.27884814 0.12933393 0.04168309 -0.17610896 -0.105078936 -0.0045311297 -0.003561102
-0.1594607 0.22713375 0.24514925 -0.072128035 -0.2058074 -0.09729787 0.09105968 0.26129836
0.06285671 -0.16847685 0.018479202 0.06132135 -0.10833977 -0.027501192 0.16532843 0.11389206
-0.20067455 -0.052349858 -0.017446818 0.07681518 0.05291458 0.17592476 -0.16903678 -0.0828458
0.19752738 0.03729885 0.20527637 -0.14789298 0.0787233 -0.10043556 0.028422514 -0.24045257
-0.087939315 0.09814421 0.027144466 0.19821313 0.15847677 -0.14685823 -0.15546066 -0.114863455

lstm1_1.bias_ih_l0 f4 [64]
00000000: dfd0 163e b96b 10bd 3f5a 653e 1747 73be
00000010: c5b5 1cbe 5d4c 373d f789 00be 16ea 333e
00000020: f2c9 333e 0ba4 4abd f69b 493e 6d8e e6bd
00000030: d5e0 5c3d a434 08be d75a 603e 583b 443e
00000040: 8845 5d3e e624 38bc f9ec debd 8c3c 2e3d
00000050: 4e79 333b 2e55 49be 12e1 3e3e f39a e4bd
00000060: 53bd bb3d ed22 c83c 6d2e 6b3e 5d7f d13c
00000070: 9e40 e2bd 768a 9abd d9eb 543e 81ba 1ebe
00000080: 95db d13d a0a3 18be e135 60be 7837 c9bc
00000090: bb83 efbd 14e2 5f3e b751 293e 5f01 e23b
000000a0: 225b 0ebe b271 3bbd cb93 febb 09b8 003e
000000b0: 414e f0bd 60b2 d0bd a8a6 073e 145e 6abe
000000c0: f107 e6bd 3262 8dbc e62d 0bbe 7126 72be
000000d0: 3606 533e 35b6 dabc e873 163e e1e7 2c3e
000000e0: 9219 52be b947 94bd 793b 493e 4814 35bc
000000f0: 3291 0cbe 2d5e 2ebc bd40 6dbe 21ef aebc
0.14728115 -0.035258982 0.22397707 -0.23757587 -0.15303715 0.04475056 -0.1255263 0.17569765
0.17557505 -0.04947285 0.196884 -0.11257634 0.053925354 -0.13301331 0.21909653 0.19163263
0.21608555 -0.011239266 -0.10885043 0.04253821 0.0027385536 -0.196614 0.18640545 -0.11162367
0.0916697 0.024430716 0.22966929 0.025573427 -0.11047481 -0.075459406 0.20793094 -0.15500833
0.1024696 -0.14906168 -0.21895553 -0.024562582 -0.116950475 0.21863586 0.16535078 0.006897136
-0.13901952 -0.045762725 -0.007769083 0.12570204 -0.11733676 -0.10190272 0.13247168 -0.2288745
-0.112319835 -0.017258737 -0.13591728 -0.23647477 0.20607838 -0.026698211 0.14692652 0.1688533
-0.20517567 -0.072402425 0.19651593 -0.011052199 -0.13727263 -0.01064257 -0.23169227 -0.02135426

lstm1_1.bias_hh_l0 f4 [64]
00000000: 19fb 2fbe d447 c93d 1263 08be e5e7 9e3d
00000010: a45d c4bd 16c8 dc3d 230b 12be 7668 0a3e
00000020: b085 45be cb72 543e ca71 10be b38d 31bd
00000030: 83e2 013e 99e2 7cbd 39d2 203e 86c7 21bd
00000040: 2f8f 98bd d6d1 5b3e 843a 733d eeba 48be
00000050: b83c a83d c1d6 f4bd ceba 66be ec26 103d
00000060: eb32 5bbe 7a7f 45be 79da 70be 06dd 47be
00000070: 9fe4 fbbd 971e 0bbe 32bd f83d 6243 81be
00000080: a7cd 033e 5233 a7bd 53b8 493e 9f83 1dbd
00000090: d2dd 74be 6c01 54be e7cc 143e 6c09 6abe
000000a0: 64b2 90b9 b35c 33be 06a2 b8bd e1f2 08be
000000b0: 27b5 c23c 0c01 eabd f72c 9fbc b6ad a43c
000000c0: 4d7f 1a3d 1008 9cbd 9cb9 4a3d 5a27 db3d
000000d0: 04b3 2dbb d448 c33d 01f9 233e 9047 d4bd
000000e0: 24c1 473e 3dbe 153e 0708 143e e89f 09be
000000f0: 2a48 36be bab5 46be 6d38 473e 658d 383d
-0.1718563 0.09828153 -0.13319042 0.07759074 -0.09588173 0.10780351 -0.14262061 0.13516411
-0.19289279 0.20746915 -0.14105907 -0.043348026 0.12684064 -0.061739538 0.15705194 -0.03949692
-0.07449185 0.21466765 0.059381977 -0.19602558 0.08214706 -0.119550236 -0.22532198 0.03519337
-0.21406142 -0.1928691 -0.2352084 -0.19517908 -0.122994654 -0.13585888 0.12145461 -0.25246722
0.12871419 -0.081640854 0.1969922 -0.0384556 -0.23912743 -0.20703667 0.14531289 -0.22855157
-0.00027598732 -0.1751583 -0.090152785 -0.13373901 0.02376802 -0.11425981 -0.01943062 0.020102363
0.03771906 -0.07618725 0.049493417 0.10700865 -0.0026504407 0.09535375 0.16012956 -0.10365212
0.19507271 0.14623351 0.14456187 -0.13439906 -0.17800966 -0.1940526 0.19455118 0.04505672

lstm1_1.weight_ih_l0_reverse f4 [64, 32]
00000000: ac88 ca3c 5285 ccbc 2463 cfbd d77d cc3d
00000010: a447 a63d 1a54 69be c952 1f3d f0e2 453c
00000020: 10d8 213e a06a 293e c34c 31bd 2511 75be
00000030: b43f a9bd 3ed9 4abe ed9c 06be fedf 14bd
00000040: 74c3 453e 0263 38be 4b16 d93c 738c 7dbe
00000050: 9cd9 6bbd 16ad 2e3d caac b43c c2ad 77be
00000060: b873 2d3e f1d3 d23d 07f7 183e 12d1 643e
00000070: be56 37be 545f 6e3e ad96 47be a08b 08bd
00000080: 744d 69bc aa13 5fbe fc29 b63d dc19 00be
00000090: 5447 4f3d 5fcb 273e 2d7b e8bd 0d9b b03c
000000a0: eac9 403d 41fe 0a3e 1974 af3d d045 00be
000000b0: 2b53 55be 7abe 41be 6edb 32bd 42a7 3dbe
000000c0: 91f1 df38 48d6 503e 45a6 733d d031 e9bd
000000d0: a33a 81bd fadf b6bd 20c8 43be c085 953c
000000e0: dc2c 45bd 4133 61bb 945a 93bc b453 023e
000000f0: 7c8c 2d3e 5c8e 64be c8dc bbbd d017 a5bc
00000100: dbbb 783e 3511 ffbd 6c37 96bd 9410 34be
00000110: 6f1f 72bd 990a 503e 8922 4abd 6059 ffbd
00000120: 60c7 abbd 6181 09bd 6696 5cbe 5802 77be
00000130: db60 41bd 2046 88bc bac3 fc3c a79a 13bd
00000140: bfb4 be3d 302e 2abe 13e3 2cbd 702f 4a3e
00000150: 716e 31bd 3642 67bd f7a8 203e de69 323e
00000160: 6a3f 0d3e c572 16be 6bd9 ce3d 6377 48be
00000170: 22c8 60be 88d1 79bd a80a 8cbd 40b9 40be
00000180: 699f 753c 9309 663e 781c 6cbe fb44 053e
00000190: 2194 9e3e b852 723e 551a 523e 2c25 ab3e
000001a0: bd6e 283d 0aec 233e 9f9d a43d 7672 fa3d
000001b0: 6a6a 523e c4a1 743e 42d0 f03d cda2 2bbe
000001c0: 357e e93d a887 b83e 98e6 a6bd 7b4f b93e
000001d0: b0c6 7f3d 7d9b 0b3d ba41 743e 8004 72bc
000001e0: 27ea 283e c37f 773d 570b fd3d 7603 ebbc
000001f0: e82f 553d ecc7 ad3d a554 8c3c 80a7 fc3c
00000200: 5b45 d83d 07d0 3a3e 38a9 b5bd 749d df3d
00000210: 4b27 b0bd e51b d33d fb7f 0c3e df1b 10be
00000220: 755f 74be 4381 633d 8ef0 793c 4945 17be
00000230: 2677 33be ecd1 09be dc39 803d ab31 8bbd
00000240: 3621 b73d fae5 d43d 0e2b 1a3e 48b5 143e
00000250: 1f58 e63c b6da 0c3e 1ba5 52be 0a46 64be
00000260: 9cb0 66be 688d 673c 958f 7cbe 1413 763e
00000270: 10a1 25bd 68d6 24bd 52fa 07bc 2612 7a3e
00000280: 889b 0abe 48e0 4d3e 44a5 9ebd 4a96 e13c
00000290: fb07 803e 09eb 443e 85e3 35bd 1205 aa3e
000002a0: 04a9 9b3e 8eba b93d e051 9e3e 8aa9 473d
000002b0: ea30 4d3e a042 4d3d 17d1 2c3e 2bc9 be3d
000002c0: afd0 ea3d b5f3 0a3e 39ec 5dbe e14e a33e
000002d0: 2aee 64bd db66 3abe 5585 1abe 8e1c 51be
000002e0: d38a 3abd 7cc6 5c3e e325 57be b1cf 663e
000002f0: 1c70 553e 909e 6f3d 98b8 81bd 2892 4bbe
00000300: 159f 2d3c ba8d 8abc 92fe 1d3e ccce 0cbd
00000310: 5da9 02bc c141 013e 4286 173e 8b45 0ebe
00000320: 2e13 543c 3823 c0bc 49ed d63d 4683 82bd
00000330: 02a2 423e 0a32 10be 4cce 62be 039a 983d
00000340: 0aeb 723e 1e6c e53d 241f 533e 7de4 bfbd
00000350: 9905 b9bc f365 cabd 3df8 b2bd e049 52be
00000360: 9a39 e8bd ea5d 77be c68f 543d 1a51 6cbe
00000370: e2dd 563e 9062 9bbd 3e9e 473e 8c4f 203e
00000380: 1ff8 d33d d89b 66be e666 6d3e e068 e63d
00000390: a87f 54be 504a debc b082 bd3c 4029 4f3e
000003a0: 4d43 533e 10e5 623e 65e3 42bd 7f23 3f3e
000003b0: 55d4 0abe 9c55 d73d ce3e e2bd fdff 41be
000003c0: c4ac 4ebd ceb4 73be c63a 193d 1922 9a3d
000003d0: 165b 413e 39bc b1bd 8226 943d b4f9 e13d
000003e0: a45e 6a3e 6308 aaba d2c4 46be 88c9 873d
000003f0: 14ba 2b3e 0aa4 70be e715 4d3d 56e3 29be
0.024723373 -0.024965916 -0.101263314 0.099849395 0.08119133 -0.22785988 0.03889731 0.012078032
0.15805078 0.1654458 -0.043286096 -0.23932321 -0.082641035 -0.19809434 -0.131458 -0.036346428
0.1931284 -0.18006518 0.026499888 -0.24760608 -0.057580575 0.042645536 0.022055048 -0.24187377
0.16938674 0.10294331 0.14937983 0.22345379 -0.17904183 0.23278552 -0.19491072 -0.03333628
-0.014239658 -0.21784845 0.08894727 -0.12509865 0.050605133 0.16386174 -0.11351619 0.021558309
0.04706756 0.13573553 0.08567066 -0.12526631 -0.20832507 -0.18920317 -0.043666296 -0.18520835
0.00010678464 0.20394242 0.05948474 -0.11386454 -0.06310012 -0.08929439 -0.1911931 0.018252254
-0.048138484 -0.0034362825 -0.017987527 0.12727243 0.16948122 -0.22319931 -0.0917297 -0.020152956
0.24290411 -0.12454454 -0.0733479 -0.17584449 -0.05911201 0.20316543 -0.04934934 -0.12468219
-0.08387637 -0.03357065 -0.21541747 -0.24121988 -0.04721151 -0.016635 0.030855048 -0.03603616
0.09311818 -0.16619182 -0.042208742 0.19744658 -0.043318216 -0.056459628 0.15689455 0.17423198
0.13793722 -0.14692219 0.10100063 -0.19576792 -0.21951345 -0.06099084 -0.0683797 -0.18820667
0.01499162 0.2246459 -0.23057735 0.13014595 0.30972388 0.23664367 0.20517857 0.33426797
0.041121233 0.1600801 0.08037876 0.12228863 0.20548406 0.23889834 0.11758472 -0.16761322
0.11401025 0.36040998 -0.08149451 0.3619345 0.062445343 0.034083832 0.23853198 -0.014771581
0.16495572 0.060424577 0.123556785 -0.028688174 0.05204764 0.08485398 0.017130205 0.030841589
0.105601035 0.18243419 -0.088701665 0.10918704 -0.086012445 0.10308055 0.13720696 -0.14073132
-0.23864539 0.055543195 0.015255107 -0.14772524 -0.1752592 -0.13458985 0.06261036 -0.06796583
0.08941881 0.10395427 0.15055487 0.14522278 0.028118191 0.13755307 -0.20570795 -0.22292343
-0.22528309 0.014132835 -0.24664147 0.24030715 -0.040436804 -0.040243536 -0.008299427 0.24420986
-0.13535893 0.20105088 -0.07746366 0.027537484 0.2500609 0.19230284 -0.044406433 0.33206993
0.30402386 0.090687856 0.3092184 0.04874567 0.2003819 0.050112367 0.16876636 0.093157135
0.114655845 0.1356953 -0.21672143 0.31896117 -0.055891193 -0.18203299 -0.15089925 -0.20421049
-0.04554255 0.21560091 -0.21010546 0.22540165 0.20843548 0.058500826 -0.063340366 -0.19879973
0.01059701 -0.016913284 0.15429142 -0.034376904 -0.00797495 0.1262274 0.14797309 -0.13893716
0.012944026 -0.023454294 0.10494477 -0.06372695 0.19007114 -0.14081588 -0.22149009 0.074512504
0.23722473 0.11202262 0.20617348 -0.093697526 -0.022585677 -0.098827265 -0.08738754 -0.20535994
-0.113391116 -0.24156919 0.051894926 -0.23077813 0.20983079 -0.07587159 0.19493958 0.15655345
0.1035006 -0.22520387 0.23183784 0.11250472 -0.20751822 -0.027135044 0.023133606 0.2023058
0.20631142 0.22157693 -0.04758014 0.18665884 -0.1355756 0.105143756 -0.11047135 -0.18945308
-0.05045773 -0.2379944 0.037409566 0.07526035 0.18882403 -0.08678479 0.07233907 0.11033955
0.22887665 -0.001297247 -0.19411018 0.06630236 0.16770202 -0.23500076 0.050069716 -0.16590628

lstm1_1.weight_hh_l0_reverse f4 [64, 16]
00000000: 5a6d 193e 8297 263e 5689 90bd f531 4dbe
00000010: 232b 0d3e 40a4 1e3d 1f43 c9bd 1fb4 8a3c
00000020: 01f2 b0bd ad43 23be a127 6a3d 7e48 7e3e
00000030: 3f4b 7abe 25fa a93d c843 bcbd 1df0 0d3e
00000040: 45bc 1abe 7604 6d3e 4574 1e3e f11d 073e
00000050: 1df0 7c3d 9a81 053d c7cf 783e c0b2 fd3d
00000060: e45d 933d c4ec cebd 05ed 5b3e 38cf dd3c
00000070: 89fa 5ebe af4c 053c eec9 333e 1bf6 25be
00000080: 5de8 283e 7abd b8bd 73b7 183d b26e 763d
00000090: b26b 5c3e 2f7e 683e c8d4 9e3d b331 d1bd
000000a0: 3eb3 4bbe 39b5 fb3d 6432 023e 924e a8bb
000000b0: 2fdb 753e 6e87 dfbc 984d 1d3e 7fb6 94be
000000c0: 30e3 edbd 319f 4f3e 11ad ab3d 1638 703e
000000d0: b2c8 a13d eb2e 923d 1fa4 b1bd dab7 00be
000000e0: 0b08 ebbd 8ee7 cb3d a46e 313e fd17 9ebc
000000f0: 47bb 1c3d f6a3 cf3d 079c bbbd 5e5f 83bd
00000100: 3fba a93d 74ea 743c f7d9 fdbc f4e3 d5bd
00000110: bd18 5a3e 38a1 993d b264 c4bd e4cb e8bd
00000120: 1d9d 823e a7e9 07be b20e 893d 5498 0e3d
00000130: 276a 6fbe 628b 103e 4d3c e83d 16db 3abe
00000140: dd59 ebbd eeea 57be b599 b93e 7f59 ef3d
00000150: 6d77 b43d 8574 283e 7bd8 a33c 8872 1d3c
00000160: cf2e 91be 0c21 ebbc 29ca 41be a489 b3bd
00000170: 3e09 453e 0460 563e c9b2 0abc 8349 873e
00000180: a43d 77be 50f1 533e 3362 74be 14d1 8bbd
00000190: 3098 06be b3b0 c73d 9dbc 50be 00aa fbbd
000001a0: 4020 303d 39f0 38be 8b3d 443e de52 7a3e
000001b0: 052b 9cbd 55d9 21bc c950 3cbe e4b9 7abd
000001c0: dd0e 013e bbc2 3bbe 7c21 efbd f656 503e
000001d0: 0d0b 1d3e a549 e9b9 a496 47be f320 0bbe
000001e0: 29e9 3e3e d9ee 993d e64d 023e 6167 433d
000001f0: c4c0 11be bb4d 033e 65d6 863e 5ec3 9ebe
00000200: 9c50 6f3e 84d8 8abd 2d68 f2bb 3b0f 3d3e
00000210: 6850 413e 8400 55bd af99 6a3d 2337 7dbd
00000220: 314a 593c 9138 8fbd d44b 4ebe 1339 58be
00000230: 6e58 b63d f3af b83b 5c4b 29be d04f df3c
00000240: d819 4b3d de81 763e b864 0f3d c3fc bd3e
00000250: faa2 503e 4cdf 693d 3adb a23d 245b 89be
00000260: ebcc 06be 0169 173e 412c 8d3e 1a5f 15be
00000270: 608d ad3e fb45 ebbd cf88 0bbe 9bcc 3fbc
00000280: 5e83 4d3d ee05 683e 563c 3abe dbfe 513e
00000290: 4bc3 8cbd cc43 8abe 09c9 633e 8a9c 6ebe
000002a0: 3a2c 4f3e d56f 8a3c 1e39 e83d 9467 303e
000002b0: b34c 933e a46d f13d e669 193e 041d 73be
000002c0: 67ed 043e 95af 7abe 80e1 083e 09d7 5fbd
000002d0: 9698 5cbd e244 193e f841 183e 2614 6b3e
000002e0: 7a50 673d f458 bdbd 52cb 43be eae8 04be
000002f0: 3d76 ab3d c872 ecbd ee60 863e 6f2e 92be
00000300: d837 d33d 9834 83be 74e1 4b3e 9e62 c4be
00000310: ad51 553e ce20 61be f0c4 5bbe 1619 d9bd
00000320: 1218 b93d 4187 afbc 4d84 4c3d 06db 6abe
00000330: 0057 4f3e b3e8 873c 279b aebd 709b ffbd
00000340: a0c7 20be 142c 20be 6aff 683d 8656 35be
00000350: d819 813e eafc ba3d a507 39be ea44 233e
00000360: 7e88 333d e920 6f3e 40c5 433e 315c d7bd
00000370: 98bb e43b 8ed5 1cbe e423 7f3d 3373 be3d
00000380: 1d52 553e 870f 3c3e 14f0 00be da46 eabc
00000390: 6a28 283b d4c3 143e 2eac 2bbe 5cba 1fbe
000003a0: e488 503e 474a 34be f43d 8cbe 976d 7fbe
000003b0: 41a9 ee3d 0d56 e73c 9e54 71be a696 123e
000003c0: 8547 9c3d 89d9 703d ac37 703e 9d53 473b
000003d0: 9d34 453e 19a4 65bd 8097 12be cbd4 c93c
000003e0: 168b 403d 0751 203e 5570 f03d 7918 383e
000003f0: c057 663e d8f0 35be df0c 713e 17f0 3dbd
0.1498312 0.16268733 -0.07057445 -0.20038588 0.13785987 0.03873086 -0.098272555 0.016931592
-0.086399086 -0.15943785 0.0571667 0.24832341 -0.24442767 0.082996644 -0.09192616 0.13861127
-0.15110882 0.23146233 0.15474041 0.13195015 0.061752427 0.0325943 0.24298011 0.123876095
0.071956426 -0.10103753 0.21477135 0.027076349 -0.21775259 0.008135959 0.17557499 -0.16207163
0.1649489 -0.09020515 0.037284326 0.06016416 0.21525458 0.22704385 0.077554286 -0.102145575
-0.19892594 0.12290425 0.12714535 -0.0051363194 0.24009393 -0.027286258 0.15361631 -0.29045483
-0.11615598 0.2027557 0.08382619 0.23458895 0.07899608 0.07137855 -0.08673882 -0.12570134
-0.114761434 0.09956275 0.17327362 -0.019298548 0.03826454 0.10138695 -0.09160619 -0.06414674
0.08287477 0.014948476 -0.030987723 -0.10443869 0.212985 0.07501453 -0.095895186 -0.11367014
0.25510493 -0.13272725 0.06692256 0.03481324 -0.23380338 0.1411567 0.113396265 -0.18247637
-0.114917494 -0.21085712 0.36250082 0.11686992 0.08811841 0.16450699 0.020000687 0.009609826
-0.28356025 -0.028702281 -0.18924774 -0.08766487 0.19241807 0.20935065 -0.008465477 0.26423272
-0.24144608 0.20697522 -0.23865585 -0.06826988 -0.13143992 0.097504996 -0.2038445 -0.12288284
0.042999506 -0.18060388 0.19164102 0.24445674 -0.07625393 -0.009878476 -0.18390192 -0.061212435
0.12603326 -0.18336003 -0.116763085 0.20345673 0.15336247 -0.00044496093 -0.19491059 -0.13586788
0.18643631 0.0751626 0.12725028 0.04770601 -0.1423369 0.1282262 0.26335445 -0.31008428
0.23370594 -0.06779578 -0.0073976726 0.18462841 0.18878329 -0.052002445 0.05727547 -0.06182016
0.0132623175 -0.06993211 -0.20146114 -0.21115522 0.089035854 0.005636209 -0.16532654 0.027259737
0.049585193 0.24072978 0.035008162 0.37106904 0.2037467 0.057097718 0.079519704 -0.26827347
-0.13164108 0.1478615 0.27572826 -0.1458706 0.33896923 -0.11487957 -0.13626407 -0.011706497
0.05017411 0.22658512 -0.18187079 0.20507376 -0.06873187 -0.2700485 0.22244658 -0.23301902
0.20231715 0.016899029 0.11339019 0.17227012 0.28769454 0.117884904 0.14981803 -0.23741537
0.12981187 -0.24481042 0.13367271 -0.054648433 -0.053856455 0.14967683 0.14868915 0.22956905
0.056473233 -0.09245482 -0.1912053 -0.12979475 0.083721615 -0.1154533 0.26245826 -0.2855105
0.10313386 -0.25626063 0.19910222 -0.3835649 0.20831938 -0.2198517 -0.21461844 -0.10600488
0.09037794 -0.021426799 0.04993086 -0.22935113 0.20248032 0.016590452 -0.08525687 -0.12480819
-0.15701151 -0.15641814 0.056884207 -0.17708787 0.2521503 0.09130271 -0.18069322 0.15944257
0.04383134 0.23352398 0.19118214 -0.10515631 0.0069803707 -0.1531584 0.062290087 0.09299316
0.20832105 0.18365298 -0.12591583 -0.028598238 0.0025658854 0.14527828 -0.167649 -0.15598434
0.2036472 -0.1760646 -0.27391016 -0.24944149 0.11653376 0.028239274 -0.23567435 0.1431528
0.07630829 0.058801208 0.23458737 0.0030414828 0.19258352 -0.0560647 -0.14315605 0.0246376
0.047007643 0.1565591 0.11740176 0.17978086 0.22494411 -0.17767656 0.23540066 -0.046371546

lstm1_1.bias_ih_l0_reverse f4 [64]
00000000: 52ee e83d 7e8d 26bd 0a83 e2bc f8c1 543e
00000010: e166 013e f4b3 d6bd 6aa8 6c3e 850c 9ebd
00000020: a0a1 b33d 6cfa ba3d 9205 23be 2e95 4e3d
00000030: 04c9 52be bc59 84bc 1fc0 323e 5134 723e
00000040: a3c1 5b3e 9dfc 95bd 21f1 06be ec48 a13d
00000050: 1300 1abe d6f4 8e3d 94c4 e9bd 9824 4bbe
00000060: aa23 31be c77b 403e 1ea4 2f3e 8832 33be
00000070: 49ac 283e 682f 9abd fe04 afbd 655e ad3d
00000080: 97e1 15be 2ed7 833e 7d83 ffbd 98cc febd
00000090: bc48 e1bc 7d3a c0bb 2c67 4f3d d979 1c3e
000000a0: 0a09 91bd 27ca ca3c 0047 08be ac00 063e
000000b0: 677a 27be 17be d9bb 6add 403e a4ba d4bc
000000c0: e7f2 55be 552d 0b3e 9835 7fbc f665 cb3d
000000d0: 04de 4cbd 5d9c 723e 05cd 1b3e 757b a6bd
000000e0: 7269 023e d15e a1bb acbf 0d3e 1959 55be
000000f0: 4419 c43d abc4 3bbe eca1 72be 5a50 883e
0.11373581 -0.04066228 -0.027650375 0.20777118 0.12636901 -0.10483542 0.2311112 -0.07717232
0.08771062 0.091297954 -0.15920094 0.050435238 -0.20584494 -0.01615607 0.17456101 0.2365277
0.21460585 -0.07323573 -0.13177921 0.07875237 -0.15039091 0.069802925 -0.114144474 -0.19838178
-0.17298761 0.18797217 0.1715245 -0.17499745 0.16471972 -0.07528573 -0.08545874 0.0846527
-0.14636837 0.25750107 -0.12476251 -0.12441367 -0.027500503 -0.0058663473 0.0506355 0.15280856
-0.07081802 0.024754597 -0.13308334 0.13086194 -0.16355287 -0.006644975 0.18834463 -0.025967903
-0.20893441 0.13591512 -0.015576743 0.09931557 -0.050016418 0.2369246 0.15214927 -0.08129016
0.12735537 -0.004924633 0.13842648 -0.2083477 0.095751315 -0.18336742 -0.23694581 0.26623803

lstm1_1.bias_hh_l0_reverse f4 [64]
00000000: f29d b2bd 1dc1 613e b417 02bc 8f60 a3bd
00000010: deb9 ab3b 39e2 01be f19b 833d bdb3 d33c
00000020: 9632 59be 694e 69bc e8b1 10be 63a1 05be
00000030: 7593 703d ca97 94bd bda0 63be 908c 613e
00000040: 0da8 22be 3fbf c53c d364 65be 9845 623e
00000050: f5f0 45be 6a41 763e e4f0 a7bc 69e4 c7bc
00000060: 0ae1 9fbd c254 8538 c0d7 a9bd d2cc 6bbe
00000070: e019 153d 4a26 7bbd ded0 09be 088e 963e
00000080: 033c 0dbe 21ea 403e 8e64 3e3e 5205 fe3d
00000090: 6ec5 373e 2dc3 7e3d 31e2 2d3c 3273 813d
000000a0: 2fc5 5bbe a89c aabc 8497 c0bd 6a0d 4a3e
000000b0: 1dad 36be f72d 57be 0e0d 60be ab26 e63c
000000c0: 3f47 4c3e 6d9b 52be c20d 17be 50bc 0e3e
000000d0: 9954 57be 3760 0ebe a9d1 3d3e 4fb3 063e
000000e0: c8dc 3ebc b192 7b3d d0fc 1a3e 6d26 ca3d
000000f0: a183 6e3e cacb 7f3d 7c7b 813d 25c8 1e3e
-0.08721532 0.22046323 -0.007940222 -0.079774015 0.005240663 -0.12683953 0.06426228 0.025842542
-0.21210703 -0.014239886 -0.14130366 -0.13049845 0.058734376 -0.07255514 -0.22229286 0.22026277
-0.15884419 0.024139045 -0.22401743 0.2209686 -0.19330199 0.24048391 -0.020500608 -0.024400907
-0.07806595 6.3577216e-05 -0.08293104 -0.23027351 0.03640163 -0.061315812 -0.13458583 0.29405236
-0.13792424 0.18839313 0.18593046 0.124033585 0.17946407 0.062197853 0.01061301 0.063208
-0.21461938 -0.020826653 -0.09403899 0.1973168 -0.17839475 -0.21013628 -0.2187998 0.02809461
0.19949053 -0.20567103 -0.14751342 0.13939023 -0.21028365 -0.1390389 0.1853701 0.13154338
-0.011649318 0.061419193 0.15135503 0.098706104 0.232924 0.062450208 0.06322381 0.15506037

lstm1_2.0.weight f4 [32, 32]
00000000: e197 28be a074 86bd a76d 1cbc a204 e13d
00000010: eb70 03be 7715 243e 6026 bfbd 6545 823d
00000020: 8cc7 ef3b 8959 16be 32cf 88bd d11f d7bd
00000030: 1d40 3dbe e679 a5bc 2cb0 033e 621e 60bc
00000040: b726 54bd 77eb 143c 36fb fe3d c068 77bd
00000050: 3da2 883d 41ff 36be 56f0 df3c 2aec 2cbe
00000060: 5390 1c3e 8898 17be f420 d5bc 4c3c 8f3c
00000070: abc4 933d d424 6ebd 53d2 14bd 8f86 ab3d
00000080: 5063 633d d4c5 143e 9c41 0b3d b800 023e
00000090: abae ffbd 29a4 223e 70db 2b3e 46ba d83d
000000a0: 8b47 bbbc 912c d53c a742 fa3d 14b2 203e
000000b0: cb1b 1e3c b887 99bd 1d43 373e 5c90 003d
000000c0: 5cf8 35be 113e b83d 43b6 fe3d 2810 873e
000000d0: 9270 ca3c 26c3 01bd ae30 ec3d dff1 ffbd
000000e0: b482 c5bd e63b d93d 2bf7 883c 4681 123e
000000f0: 2652 05be 4f75 2c3e a7d0 623d e094 27be
00000100: 125a a0bd 5fc9 b93d cabc 70bb 8411 0f3d
00000110: fe30 dbbc aaa7 afbd d484 0e3e d80f d3bc
00000120: dddf 373e c0b5 c4bd ad3e 86bd c961 133e
00000130: 42a4 09be d17c 2e3e 2b2b 72bc c341 85bc
00000140: 990c 0fbe 6eae a43b 902f c33d 6c35 2fbe
00000150: 0e83 1d3e e2f8 643e 1d6f fd3d 22fc e8bd
00000160: aeaf c13d 3c38 9a3d 623f e5bd b954 d4bd
00000170: 7a76 09be 79f0 cabd 9c1c 933d b478 07be
00000180: 5d69 b0bd 214d 3e3e 70e2 5ebc eb0a 20be
00000190: ecbb d6bd 8272 1ebe d8dd a03d 94cc d7bd
000001a0: faf3 f63c ed03 d63d f521 c73d 2a64 693d
000001b0: 4a5d 203a e4db 2abc baaf 6b3c 3da6 ad3d
000001c0: 1be9 f93a 97db a8bd 008b 1a3e e145 1bbd
000001d0: 2b19 003e 5e74 6a3d dbeb a53d f2b2 f4bd
000001e0: 8015 fdbd e58d b43d 93e3 24be d678 37be
000001f0: c4e2 b2bd 1233 1ebd df59 803d 408f 213e
00000200: d9f1 4c3d 1ac1 1fbe 2a19 0fbe 2606 23be
00000210: a833 e0bb 361b 143e bc91 e03d 9a87 313e
00000220: ec9c 73bd 5be0 cbbd b6e6 a73d da63 0a3e
00000230: 642f 373e 01fe 2cbc 393c 2fbd 877e 1dbe
00000240: cb3d 7a3c 9b82 28bd 1948 babd d401 423e
00000250: 6d5d 70bd fa55 e43d 1244 3a3e 4904 14be
00000260: f22f f13d cb8c 4b3d 1c43 813d afe2 b43d
00000270: f1e3 e7bd bbf1 04be c929 003e ba93 9abd
00000280: fb55 143e 8a10 df3d 8015 89bd 467a 33bd
00000290: 7a6a 193c 135c fb3d 30ca 223e 25f2 a33d
000002a0: 3309 8c3d ff6f d1bd 950a 203e db44 df3d
000002b0: 5edb 2dbe d76a 343e 26c7 b1bd 444f d43d
000002c0: e669 be3d be22 7b3d 3603 fb3b 3830 aa3d
000002d0: 3f8a ff3d 5e01 283e 2fd0 063e fa6d 25be
000002e0: 79e0 f23d 8ead efbc ac0f 9f3d 2b6c fabd
000002f0: 3e34 77bd 28b5 1f3d 4180 a6bd 79a7 1e3e
00000300: d1f1 883d 247e cdbd 74cb 253d fff1 333b
00000310: a8ac 8f3d b997 ee3d d2a3 6dbd 0ced e63d
00000320: 9cec d43a bd2f 5d3d 67c1 393d a916 f43d
00000330: b364 113e 301f 46bc bfde c03d de70 2e3e
00000340: 8e78 423e bddb 15be c4b7 abbd 7844 01be
00000350: 6d5c 073e 0d41 5c3d 2596 06be acfd abbd
00000360: 62aa 3abe 2bf3 0a3b 5a89 de3c aec4 2dbc
00000370: 440e 6e3d 4402 13be bc6d 323e 974c f6bd
00000380: ec4a 113e f157 e23d b1e9 173e fb9a 88bc
00000390: 1b9f 55bd 22c4 633d 49d2 d53d 72ac ca3d
000003a0: 057d 903c f420 debd 63a7 eb3d de31 313e
000003b0: 1f3a 26be 9d07 c8bd 154b 64bc 1e81 173e
000003c0: 0530 6bbd c000 03be 7473 94bd 36b7 1bbe
000003d0: 3c63 603b 086a 5d3c 5966 2ebe 233e 073e
000003e0: 0787 9bbd 4539 e43d cf44 573d 8586 7a3d
000003f0: bb3d 1a3e ab18 c0bc 11be 2ebe 113a 173e
-0.16464187 -0.06565213 -0.0095476275 0.10987212 -0.12836044 0.16023813 -0.09333491 0.06360892
0.007317489 -0.14682592 -0.06680144 -0.105041154 -0.18481489 -0.020199727 0.12860173 -0.013679119
-0.051794734 0.009089342 0.124502584 -0.06040263 0.066715695 -0.17870809 0.02733628 -0.16886964
0.1528943 -0.1480428 -0.02601669 0.017484806 0.07215246 -0.05814059 -0.036333393 0.083752744
0.055514634 0.1452859 0.033998117 0.12695587 -0.12484487 0.15882935 0.16782928 0.10582404
-0.022861263 0.026022227 0.12219744 0.15692931 0.009650181 -0.074965894 0.17896695 0.03138767
-0.17770523 0.08996213 0.124371074 0.26379514 0.02471188 -0.03168025 0.115327224 -0.12497305
-0.0964407 0.10607128 0.016719421 0.14307126 -0.13019618 0.16841625 0.055374768 -0.16365385
-0.078296795 0.090716116 -0.003673362 0.034928814 -0.02675676 -0.08576901 0.13917857 -0.02576439
0.17956491 -0.096049786 -0.06554923 0.14392771 -0.13441566 0.17039801 -0.0147808 -0.01626671
-0.1396965 0.0050256765 0.09530556 -0.17110223 0.15382025 0.22360566 0.12374709 -0.113762155
0.09457336 0.07530257 -0.1119373 -0.10367722 -0.13424101 -0.09909148 0.07183191 -0.13229638
-0.086138465 0.1858411 -0.013603792 -0.15629165 -0.10485062 -0.15473369 0.07854813 -0.10537067
0.030145634 0.104499675 0.09723274 0.05698029 0.0006117417 -0.010428403 0.014385158 0.08478973
0.0019066663 -0.082450084 0.15092087 -0.03790844 0.12509601 0.057239883 0.081016265 -0.119481936
-0.123576164 0.08816127 -0.16102438 -0.17917189 -0.08734658 -0.038622923 0.062671416 0.15777302
0.05003533 -0.15601006 -0.13974443 -0.15920314 -0.0068420954 0.14463505 0.109652966 0.17336884
-0.059475824 -0.09954902 0.081983015 0.13514653 0.17889172 -0.010558606 -0.042782042 -0.15380298
0.015273522 -0.04114018 -0.09095783 0.1894601 -0.058682848 0.11149211 0.1819003 -0.1445476
0.11776723 0.049694818 0.06311628 0.08832299 -0.11322773 -0.12982838 0.1251594 -0.07547708
0.14485924 0.108918265 -0.06693554 -0.04381778 0.009363765 0.12273421 0.15897441 0.0800517
0.06837692 -0.1022644 0.15629037 0.10901805 -0.16978213 0.17618881 -0.08680563 0.10366681
0.09297542 0.06131243 0.007660295 0.08309978 0.1247754 0.16406772 0.13165353 -0.16155234
0.11859221 -0.029257562 0.07766661 -0.12227663 -0.060352556 0.038991123 -0.08129931 0.15493573
0.06686748 -0.10033825 0.04047723 0.0027457473 0.070153534 0.116500326 -0.05801756 0.11275682
0.0016244831 0.054000605 0.04535046 0.119183846 0.1419857 -0.012092397 0.094174854 0.17035243
0.189913 -0.14634605 -0.0838466 -0.12623775 0.13218851 0.053772975 -0.13143213 -0.083979934
-0.18229058 0.0021202068 0.027165104 -0.010605974 0.058119074 -0.14356333 0.17424673 -0.12026327
0.14188737 0.1105193 0.1483524 -0.016675463 -0.052153688 0.05560697 0.10440499 0.098961726
0.017637739 -0.10846129 0.11506536 0.17304179 -0.16233109 -0.09767077 -0.013933917 0.14795348
-0.057418842 -0.12793255 -0.072485834 -0.15206608 0.0034238836 0.013514049 -0.1703123 0.13207297
-0.07594114 0.11143736 0.052555855 0.061163444 0.15062611 -0.023449263 -0.17064692 0.14768244

lstm1_2.0.bias f4 [32]
00000000: a575 103d 64cb da3d 8484 a3bd 87fb 32be
00000010: 60f9 943d 972d 18be 19da 42be e4af 29be
00000020: a096 a5bd 0cc9 efbc 91d7 10bd 7a77 923c
00000030: f388 1ebe 32c3 febb 42ca b23d c1e8 c93d
00000040: adb9 7bbc 39ef acbd 6c6f 8fbd b41a 87bb
00000050: 7255 053e 71be ae3c c370 e2bd 8346 b23d
00000060: 7d6f 883d 019e 383d ed38 f33d c3ca 1a3d
00000070: 2fd7 0d3e 66df 81bd 3d8a 353e 62a8 0ebe
0.035268445 0.10683325 -0.0798426 -0.17478763 0.07274127 -0.14861141 -0.1902851 -0.16571003
-0.0808537 -0.029270671 -0.03536183 0.017879236 -0.1548193 -0.007774734 0.08729984 0.098588474
-0.015364093 -0.084440656 -0.07003674 -0.0041230563 0.13020876 0.021331044 -0.11056664 0.08704855
0.0666189 0.04507256 0.11876092 0.037791025 0.13851617 -0.06341438 0.17728515 -0.1393142
