results/fine_tuning_samples_effect_results/Dataset 6/ft_num=11/Experiment4(25_3b_100)/from_Dataset 6_ft_model.pth (torch, 95756 bytes, 27 tensors)

cnn1.0.weight f4 [16, 1, 3]
00000000: d286 70be 4637 d6be 396a d8be f1da 4d3e
00000010: bf0f bfbe de4a 2b3f 6394 08bf 332b 89be
00000020: f496 a7be 7a44 553e 3f58 91be 0408 d0be
00000030: 2e26 a8be 112c 203e 8406 16bd 3fe9 073f
00000040: 6f35 78be 40f6 d7bd 5998 f1be 9233 aa3e
00000050: 7c9d 59be c526 963e 385a 6ebe 9a75 01bf
00000060: 3b12 a2be d532 e1bb 3479 33be e77b 6fbe
00000070: c4be a23e f682 71be b6be b9bd 40ba aebd
00000080: 68ad 21be 6808 aebe cf11 d53e 9016 b8be
00000090: cb31 983d 2d01 5f3e db96 f7be 92b4 f1be
000000a0: 2c54 98be 828f a1be de7d 0b3e e22f 983e
000000b0: 7c66 febe 3957 1a3e 7bc3 a6bd 4069 b73e
-0.2348893 -0.41839045 -0.4226854 0.20103051 -0.373167 0.66911113 -0.5335142 -0.2679077
-0.32732356 0.20826903 -0.2838764 -0.40631115 -0.3284163 0.1564181 -0.036627308 0.5309028
-0.24239133 -0.10545015 -0.47186545 0.3324247 -0.21251482 0.29326454 -0.23276603 -0.5057007
-0.31654534 -0.0068725147 -0.17526704 -0.23387109 0.31786168 -0.23585114 -0.09069578 -0.08531618
-0.15788805 -0.33990788 0.4161515 -0.35954714 0.07431372 0.21777792 -0.4835728 -0.47208077
-0.29751718 -0.315548 0.13622233 0.29724032 -0.49687564 0.15072335 -0.08142754 0.35822487

cnn1.0.bias f4 [16]
00000000: 6792 8bbd 3b7e f33e 2ee9 02be 67e3 053f
00000010: 3d9f eb3e a900 273e bc1a 13bf 1fa7 933b
00000020: 1d73 f73e 7d99 c0be 1123 b73e e3e7 473e
00000030: d848 4e3e 2266 cb3e 6df0 0a3e c79c 143e
-0.068150334 0.47557244 -0.12784263 0.52300113 0.46019927 0.16308846 -0.5746267 0.0045060064
0.48330012 -0.37617102 0.3576894 0.19522052 0.20144975 0.3972636 0.13568278 0.14512931

cnn2.0.weight f4 [32, 16, 3]
00000000: 8d7f b33d 2f72 753d e78e af3d 38f1 5dbc
00000010: f29c 933d d1c4 2b3e b811 ccbd a997 adbd
00000020: f364 513d dd94 abbb 50b6 81bd e052 7dbe
00000030: 1ad4 a13d d047 84bc cd89 bcbd 127a 023e
00000040: deab c9bc 1c1a 583d 96a2 8a3b b544 673d
00000050: efc8 463d cfaf b83d a1f2 ac3d ad1e 093e
00000060: 2f93 333e 9997 9c3c ffec 6dbe 96eb f23d
00000070: 5fc4 be3d 981b 6fbd dfd2 8fbd 510d c1bd
00000080: 2337 03be e416 6d3e 4487 6b3d 0824 0c3d
00000090: 03b9 843e a6ba 9c3d 5357 39be 0c95 d73d
000000a0: 2fb3 753e 23b9 df3d 27ce 28bd 21c4 33be
000000b0: 94d0 cdbe f1ce dcbd ad78 01bd 99ee b53d
000000c0: d78f 24bd 66bd 9a3d 2543 0cbc 95f6 173c
000000d0: 97ab 8b3d 07b0 07be 3444 9c3d fad0 a8bc
000000e0: 9956 c2bc 2eb9 453d 32b9 0c3d cd06 32bd
000000f0: df85 94bc 0d6e 82bd b10e 6b3c 7e63 23bd
00000100: 229f 4c3c c297 94bd 933c 093d 207f 993d
00000110: a140 983b 54cc e23d 37e1 ce3d 146f 5bbd
00000120: 37af 0e3e c84a 9fbd 1640 7e3c f765 b0bd
00000130: a186 7a3d 3e72 103e b87a abbc 75ee a93d
00000140: 210e cb3c 8053 98bd 3d08 41bd a815 873d
00000150: 12c5 773c 41ce ab3c 41b5 10be 7974 b1bd
00000160: 6098 6ebd 99c1 0a3e c2ef 783d 3658 84bd
00000170: 668b c5bd 0f8f 4bbd 0e2c f9bd 86b4 c03c
00000180: d393 0abe 94a9 633d d824 dbbd c36b d83d
00000190: 38ea 8c3d 4288 d93d c836 87bc c41f 0dbe
000001a0: 77eb 15bd 0f9c 173e d9ce 263e 005c 5a3e
000001b0: 7454 c4bc 7731 503d 3dc5 063e 931a 8dbd
000001c0: bc90 383e d683 bdbd 4b74 9abd 3658 103e
000001d0: 8002 f33b d9c1 813d 6c4c 133d f3d1 f3bd
000001e0: 08ae b8bd 32ba 80bc 3b5b 6fba a428 ff3d
000001f0: 464d cb3c a00d cd3d fc02 043e 85bb f43d
00000200: 3211 953d f3aa ccbd 6a33 12be 2a3e 2dbe
00000210: 9e54 6dbd 6d6f cf3c b2d9 643e 7bc8 323e
00000220: e443 c13d 6f7b db3d 1b76 0d3e 3a08 dcbc
00000230: 9ac9 4b3e 5105 4e3d 1477 903d b5cf 0abe
00000240: ddd2 dc3d 12df f639 19d5 9a3d 376a fcbd
00000250: d847 98bb 5559 93bd 70a2 9fbb c081 983d
00000260: 9a15 a13d b658 033e 93d5 e1bd 4875 94bd
00000270: c5ab 03be 950b babd 9d8d 4d3d 8751 5abd
00000280: 1171 033e 7016 a7bd 7015 1e3d 7ddc 5e3d
00000290: ed69 fd3d 965b 063d b2dc 85bc c868 043e
000002a0: 3641 6f3c 075e 103e 739e f43d f60a c03c
000002b0: 9995 3ebd 49dc be3c 4b0f cc3d 538c 8dbd
000002c0: c445 13be 1fca dabc bd31 2d3d 9c50 9e3d
000002d0: 1baa b73d 6995 f3bd 9b12 9b3d ac7c 9abd
000002e0: 0606 143c 209f 03be ce63 abbc 2c9c bbbd
000002f0: ef80 ab3d 7016 27bb dc4d 11be 0920 0ebb
00000300: 422f 05be 9507 a83d 0dc6 82bc 38ca 18bd
00000310: d6b9 ff3d 688f 86bd 940e 013e 2482 353d
00000320: db88 9fbc 2605 fc3d ca08 04be bcb7 25bd
00000330: ea97 8cbd c7c8 043e 0c4c bebd 3431 983d
00000340: bb7d c4bd 0207 0a3d 1506 18bd 12c1 9bbc
00000350: f005 093e 0390 013e c6f0 8d3d e124 febb
00000360: 1de4 f6bd dd9c 4ebc ae24 043e 2ebc 8d3d
00000370: 57f4 11bd daec aabd e8d3 b03d 6662 9f3d
00000380: 0542 cd3d 6493 033d 52b2 efbd 15ed d4bd
00000390: 023b 733d e90d 4abd d66b 2ebc 011c c1bd
000003a0: 481b e33c b871 e23d 2565 98bd 2d6e a83c
000003b0: 1045 03be 3450 1d3b e7f4 453d e01f f53c
000003c0: 19a6 b53c a112 e63d 8e53 0c3e 076b 82bd
000003d0: 2e58 d33d 7490 d6bc 21e4 85bc 4770 b3bd
000003e0: 7aa3 2cbd 0491 293c 2322 7fbd 648b 063e
000003f0: e6ba 97bc 3df4 01bd 0e45 233c eebd 15bd
0.08764563 0.059923347 0.08572178 -0.013546281 0.07207669 0.16774298 -0.09964317 -0.084761925
0.051121663 -0.0052362517 -0.063336015 -0.24738646 0.07901783 -0.016147524 -0.09205971 0.12741879
-0.024618085 0.052759275 0.0042308075 0.05646201 0.04853147 0.09017908 0.08444715 0.13390608
0.17536615 0.019115256 -0.23234938 0.11861341 0.093147986 -0.058375925 -0.07022642 -0.09426368
-0.12814002 0.23153263 0.057502046 0.03421405 0.25922403 0.07652788 -0.18099718 0.10526475
0.23994134 0.10923984 -0.041212227 -0.17555286 -0.40198195 -0.107816584 -0.031609226 0.088833995
-0.04017624 0.07555656 -0.00856093 0.009275098 0.068198375 -0.13250743 0.07630196 -0.02060746
-0.023722934 0.048272304 0.034356304 -0.043463517 -0.018130241 -0.06368647 0.014346764 -0.039889805
0.012489112 -0.07255508 0.033505034 0.0749495 0.0046463762 0.11074129 0.1010155 -0.05357273
0.13934027 -0.07777935 0.015518209 -0.08613198 0.06116355 0.1410608 -0.02093254 0.08297435
0.02478701 -0.07437801 -0.047126997 0.065959275 0.015122669 0.020972373 -0.14131643 -0.086647935
-0.058250785 0.13550414 0.060775526 -0.064621374 -0.09645729 -0.04969698 -0.12166606 0.02352358
-0.13532953 0.055581644 -0.10700387 0.10567429 0.06880611 0.10621692 -0.016505614 -0.13781649
-0.03660151 0.14805625 0.16289844 0.21324158 -0.023966052 0.050828423 0.13161178 -0.06889834
0.18023962 -0.09253661 -0.075417124 0.1409615 0.0074160695 0.06335802 0.035961553 -0.11905279
-0.09017569 -0.015713785 -0.0009130721 0.124589235 0.02481712 0.100123644 0.12891763 0.11949829
0.0727867 -0.099935435 -0.14277425 -0.16918245 -0.057942025 0.025321687 0.22348669 0.1745929
0.09436777 0.107169025 0.13814585 -0.026859391 0.19901124 0.05029804 0.07053962 -0.13555796
0.107824065 0.00047086977 0.075601764 -0.123249464 -0.0046472363 -0.07194773 -0.004871659 0.07446623
0.07865448 0.1282681 -0.11027064 -0.07248932 -0.12858494 -0.0908424 0.05018388 -0.053300407
0.128361 -0.081585765 0.038594663 0.054409493 0.12373719 0.032802187 -0.016340587 0.12930596
0.01460295 0.14098369 0.11944284 0.023442727 -0.046529386 0.0232984 0.099638544 -0.0691153
-0.14382082 -0.026707707 0.042283762 0.07730219 0.08967992 -0.11893732 0.07571908 -0.075433105
0.009034639 -0.1285367 -0.020921614 -0.09160647 0.083742015 -0.0025495552 -0.14189857 -0.0021686575
-0.13006309 0.08204571 -0.015963579 -0.037302226 0.12486617 -0.06570321 0.12603217 0.044313565
-0.019474437 0.123056695 -0.12893978 -0.040458426 -0.06864913 0.12967215 -0.092918485 0.0743126
-0.09594294 0.03369809 -0.037115175 -0.019012962 0.13381171 0.12652592 0.069306895 -0.007755861
-0.12055228 -0.012610641 0.12904617 0.06920658 -0.03563341 -0.08345957 0.08634168 0.0778244
0.10022358 0.032122985 -0.11703934 -0.10396782 0.059382446 -0.049329672 -0.010645827 -0.094291694
0.02772297 0.110568464 -0.07441167 0.020560348 -0.12819314 0.0024004104 0.04832926 0.029922426
0.022173928 0.11234022 0.13703749 -0.0636807 0.10319553 -0.026191927 -0.016344132 -0.087616496
-0.04214809 0.010349516 -0.062288415 0.13139111 -0.018521737 -0.031727064 0.009965194 -0.036558084

cnn2.0.bias f4 [32]
00000000: 48ac a73b 1e26 0f3d ceb4 aebd 00d6 0fbe
00000010: 83b0 b6bd 158f 09be ff36 a73c abc0 e6bc
00000020: ab4a d53c 49c8 27bc 12b4 d23d 0cdf 953d
00000030: b54f 863c 8942 dcbd 4d8a 0c3e 83f1 14be
00000040: a4e5 bb3d 97f2 743c 01ce 16bd f16b 203e
00000050: 3855 dd3d e507 e4bb 1716 ed3d 6949 52bd
00000060: 3407 a63d 442f 5438 2618 b33d c2dd c8ba
00000070: 91d2 dbbc ffe3 db3d fa67 e13d b629 53bd
0.005116973 0.03494846 -0.085305795 -0.14046478 -0.08920386 -0.13433488 0.020411966 -0.028168043
0.026036581 -0.010240623 0.10288252 0.073179334 0.01639543 -0.10754878 0.13724633 -0.14545254
0.0917466 0.014950416 -0.036817554 0.15666176 0.1080727 -0.006958949 0.11576479 -0.05133954
0.08106843 5.058876e-05 0.0874484 -0.0015324878 -0.026833804 0.10736846 0.1100616 -0.05155345

lstm1_1.weight_ih_l0 f4 [64, 32]
00000000: 0d9c 783e 60fe 32bc 9bac fd3d 5078 5f3d
00000010: d06b bdbd be68 7b3e 50a1 a43d 2088 403e
00000020: 3098 283e 27be b2bd 3530 6cbe afcc 603e
00000030: 63d4 013e 40b6 bfbc 9278 153e 200e fc3d
00000040: 08a3 67bd c621 753e d8a9 0abe 9a6b 53be
00000050: d2cc 57bd 4353 bc3e 86e9 623e 4c8d 06be
00000060: 6458 cdbb c79c 7bbe f5ea f33b de0b 3c3e
00000070: 8249 50be 337d 38bd acac 58be 7e8e 343e
00000080: da7b c43d d42b c33d 2edb 5b3d 9814 25be
00000090: f8b9 7c3e 5cbd bd3d 4356 50bd ea04 a53d
000000a0: e661 d7bd 24cb 9a3e 5968 9539 885a 34be
000000b0: 7d22 0dbe 70c9 2dbd 8332 793e 0eac 303d
000000c0: 66ba 7f3e 347e 1dbe 1096 d93d d35a 1fbe
000000d0: 3482 8a3d eb02 4eba 242b b33d 3339 a33e
000000e0: 2e8e e93c c37c 09be f416 96bd f6d1 b5bc
000000f0: ef9e 8ebd a825 213d ae05 53bc f148 55bd
00000100: f8b6 c2bc 5a88 61be 9487 263e 184c 9d3d
00000110: f43e 813d 54a2 973d b197 c03d d63c 393d
00000120: 6e54 4e3d 58e6 9fbd 350f 463e 98c7 0ebe
00000130: 71cb 403a 126a 60be fad0 5bbe 273d 24be
00000140: 9431 f3bd d0f1 083e 9fc2 0bbc 8827 28be
00000150: 7324 4a3e 0f39 353c 146a 8b3c d9f1 dbbc
00000160: 404c e3bc f9b7 313e 3ec6 db3c 59de 2f3e
00000170: 7595 183e 6ecf 6bbd cfdf 4fbe bd21 8c3d
00000180: ddb4 1abe c053 47be 1e81 87be 52dd 4e3e
00000190: 9eed 153e 70b3 46bd ab93 f3bd 5fda bd3b
000001a0: 2364 c2bc 8ecc debc c92d c53d 99bb 193e
000001b0: 5c10 d13d c439 c93d f9df 87bd 70e5 8c3d
000001c0: 78eb 09bd be1c 763e 5f64 0cbe c0c5 70be
000001d0: 5eb9 3bbe cda8 86bd 233f 653e a23d 953e
000001e0: 2270 33be 8e8b c43d ddb9 03bc 8049 41be
000001f0: fc80 30be ef1d af3d a6d3 713d d84d 613e
00000200: 6e79 8dbc e07b da3d 71c1 583e 80f6 4ebd
00000210: d0ff 623e 7005 eb3c a355 2c3d 8114 bd3d
00000220: 33be 28be 6410 06bd 8ed3 1e3e c1dd 813e
00000230: e82c 253e bcc7 87bd fb6d 37bd a3e2 9b3d
00000240: 4a7c 71be a018 20bd 300f 403e 3e1d 2abe
00000250: 0ea6 e7bd e5f3 52be 6d9a 043d de16 3e3e
00000260: 5991 6dbe 0892 343d 31c8 b2bc a1f1 7fbe
00000270: 29e7 303e 393c d6bd 49cb 683e 344c d6bd
00000280: 1bed cfbd 3638 0e3e a7dc 493e b80b 033d
00000290: b4c7 4e3e bc33 99bd eef7 b0bd 50be b43d
000002a0: 3de9 2cbe 4857 65be 7252 35be 850d 5d3e
000002b0: 3400 70bb d25f 1abe b4e6 af3d 34f1 b83c
000002c0: 8ae1 453e b0bc 98bc f301 343d 1ab6 263d
000002d0: 8fa7 6e3e defc 55be 1d50 5d3e d3ba 39be
000002e0: 00fb debd 23a0 4cbc e90c b93d f9d2 09be
000002f0: bddb 8a3d 1a59 ed3d 7e39 8dbd 284a 2d3e
00000300: a35f aabe a82a 923d 269e 553d c8d9 0c3e
00000310: 8891 2ebd f038 fdbc 635e 373d ffac a13c
00000320: 0eb4 25be b0f0 6abe 0868 38be e950 efbd
00000330: 32a2 eb3c f00e 76bd d29f 4e3e fadf 703b
00000340: 4230 053e dea3 273e 4d32 093e 1a39 543d
00000350: 988b 94bd 1dd5 a4bd 0400 57be 0319 94be
00000360: 5dce 54be 250e e83b 1373 063e 9ce8 5d3e
00000370: 8058 e13d 3972 16be 42e7 1b3e 848c c73d
00000380: 202c 963e 7414 07be 465c 4a3c 6483 6e3e
00000390: e80b 87bd 963c 53be fc91 083d 5138 69be
000003a0: 16b6 763e 68c4 e03e 169d 7f3e 2758 c83c
000003b0: c8dc 863e 4885 493d 71d7 83bd 5f7f 32be
000003c0: e831 7cbe 408c eebc 71a8 b53d 41ba 0d3e
000003d0: 0993 ebbc d087 11be 572e c53d 5ae7 683e
000003e0: f33e b7bd fefb bc3e 2f9a a43e 97ed 9cbc
000003f0: f47a 1a3e d593 06be ac41 2d3e 47eb 25be
0.24278279 -0.010924906 0.123864375 0.0545581 -0.09249079 0.24551675 0.080385804 0.18801928
0.16464305 -0.08727675 -0.23065265 0.2195308 0.12678675 -0.023402333 0.14596775 0.12307382
-0.056551963 0.23938665 -0.13541353 -0.20646515 -0.052685566 0.36782274 0.22159395 -0.13139838
-0.0062666405 -0.24571525 0.0074437805 0.18363902 -0.20340541 -0.045041274 -0.21159619 0.17632481
0.09593935 0.09529844 0.053675823 -0.16121137 0.24680316 0.09264633 -0.050863516 0.08057578
-0.105167195 0.3023311 0.0002849724 -0.1761266 -0.13782687 -0.042428434 0.24335675 0.043132834
0.24973449 -0.15380174 0.10624325 -0.1556199 0.067631155 -0.0007858711 0.08748463 0.31879577
0.02851018 -0.13426499 -0.07328597 -0.022194844 -0.06963908 0.039342552 -0.012879772 -0.052071515
-0.023768887 -0.2202467 0.16262656 0.07680529 0.063108355 0.074040085 0.09403933 0.045224033
0.050373487 -0.078076065 0.19341739 -0.13943326 0.0007354534 -0.21915463 -0.21466437 -0.16038953
-0.11874691 0.13373494 -0.008530288 -0.1642133 0.19740467 0.011060967 0.017018355 -0.02684872
-0.02774632 0.17355336 0.026827928 0.17174663 0.14900763 -0.057570867 -0.2030022 0.068423726
-0.15108056 -0.19465542 -0.26465696 0.20201614 0.14641425 -0.04851097 -0.118934 0.005793854
-0.02372939 -0.027197149 0.096278735 0.15012969 0.102081984 0.09825471 -0.06634516 0.06879699
-0.033671826 0.24034402 -0.13710164 -0.23512936 -0.1833243 -0.06575165 0.22387366 0.29148585
-0.17523244 0.095969304 -0.008039919 -0.18875694 -0.17236704 0.08550631 0.059039734 0.22002351
-0.017269816 0.106681585 0.21167542 -0.05052805 0.22167897 0.028689116 0.042073857 0.092324264
-0.16478805 -0.032730475 0.15510389 0.25364497 0.16130412 -0.06629893 -0.04478262 0.07611587
-0.23582569 -0.039085984 0.18755794 -0.16612718 -0.11310969 -0.20600851 0.032373834 0.1856341
-0.23199977 0.04408458 -0.021823974 -0.24994518 0.1727568 -0.10460705 0.22733797 -0.10463753
-0.10152646 0.1388863 0.19713078 0.031993598 0.20193368 -0.07480571 -0.08641039 0.08825362
-0.16885848 -0.22396576 -0.17707232 0.21587189 -0.0036621215 -0.15075615 0.08588925 0.022575952
0.19324318 -0.01864466 0.04394717 0.04070101 0.23306106 -0.20897242 0.21612592 -0.18137674
-0.10887718 -0.012489351 0.090356655 -0.13459386 0.06780193 0.115892604 -0.068957314 0.1692282
-0.3327609 0.07137042 0.052152775 0.13754952 -0.04261926 -0.030910939 0.04476775 0.019735811
-0.16181967 -0.22943377 -0.18008435 -0.11685354 0.028763864 -0.06007284 0.20178154 0.0036754594
0.1300669 0.16371104 0.13398094 0.05181227 -0.07253188 -0.08048461 -0.209961 -0.28925332
-0.20781846 0.0070817643 0.13129835 0.21670765 0.11003208 -0.1469201 0.15224937 0.09743598
0.2933054 -0.13191396 0.012351101 0.23292309 -0.06594068 -0.2062858 0.033342347 -0.22775389
0.24092898 0.43899846 0.24962267 0.024456097 0.26340318 0.049199373 -0.064375766 -0.174314
-0.24628413 -0.02911961 0.08870018 0.13840581 -0.028756635 -0.14211965 0.09627979 0.22744504
-0.089475535 0.36911005 0.32148883 -0.01915626 0.15085965 -0.13142331 0.16919583 -0.16203032

lstm1_1.weight_hh_l0 f4 [64, 16]
00000000: 8b92 f1bd 4d69 8fbd e2c3 68be 301a 61bb
00000010: 4a4c a63d a027 1cbe c1d1 fb3d 9db7 5ebd
00000020: b0e6 343e d854 66bd 5f88 143e 5aca f5ba
00000030: 9bd3 a33d b916 91bb f763 713d b93f 073b
00000040: 1f9b 143e c46e c33d 8da5 56be 28c7 57be
00000050: a561 43bd 7185 d3bc c7fa 263e 46b8 8abe
00000060: b0c2 323e aec0 ed3d 2e74 903e 7238 8dba
00000070: e445 9a3d 9207 f0bc 3de8 a03d 9a29 863d
00000080: 641c bcbd b5c5 41be 6a9c e73d 6f16 c8bb
00000090: 2cc0 483d 14ad 603e 7282 453e 5e25 a2be
000000a0: 2fa6 1d3e 08e3 3b3e 3214 3c3d f6c4 ffbd
000000b0: b62d 6cbe 12f2 8cbd 832d 20bd 5153 043e
000000c0: f3a6 0f3e 7b8e d03d 0d2e 68be b8e1 1abd
000000d0: 590c 493e 1cd4 44be 4dbc 75be e126 6fbe
000000e0: 49ae 6f3e 0101 783d 6245 163e c1d6 603e
000000f0: 16e0 5c3c fb5f 81bd ebb2 1bbe 6930 f1bd
00000100: fbfc f13d 9267 193d 49a9 e7bd 1d37 43be
00000110: 8dd9 2cbe 7a01 77be aff3 45be 10cb 0bbe
00000120: 5ff6 5fbe 7b56 24be fd20 6ebe f158 6dbe
00000130: bf9b 073e 2ea7 593e fe5c 6f3e 8767 013e
00000140: e470 74be 877e 5b3e b015 f93d b4de 9f3d
00000150: 3e48 3b3e adda ca3d b359 bc3d 9e86 773d
00000160: d5b1 f13d 6285 0dbe 0d34 513d 6de1 23be
00000170: cbf4 693e a63a f7bd c000 6b3e e207 2cbc
00000180: 3237 b2bd 0ce5 813e 5c71 513e d7aa 633b
00000190: 312c 15be 5709 87be f52a b53d ebf0 2c3e
000001a0: 29f4 013e d677 8e3d 7984 83bd e49c 2dbe
000001b0: 4f41 e13d c0b3 0fbe 010e f53d e560 00be
000001c0: 4445 5dbe 7390 c03d 9dfc a23e 63ac 03be
000001d0: 9830 073e 7792 cd3c 2f22 1b3c d5dd aa3c
000001e0: ddd6 8ebe 5da9 16be c847 b3bd 7d3e 20be
000001f0: b8ea ebbd d1bf 7bbc b5d7 2abe 1e29 ef3c
00000200: fec2 413e 892a 643e 6e88 01be 0185 5e3e
00000210: 7ace 2cbe 7691 c63d fb5d e0bd ac08 21be
00000220: e018 08bd ced3 1f3e b4a4 3ebd 5457 46be
00000230: 1527 403e 2684 6cbc 10a1 0c3e 41f9 7e3e
00000240: 3a09 2bbb 65b8 fdbd baa5 fc3b c65a 77be
00000250: 197e 2bbe 9845 b93c 5937 f0bd 2253 2dbd
00000260: f1f7 253d c235 3bbe 6a39 593e 2007 bdbd
00000270: bd48 c1bd 78ea 603d bedb 0b3e ec08 41be
00000280: 3e3f 4e3e 65e5 c1bc 623e c1bd 0d29 063c
00000290: a213 91bd 9c28 de3c 860e 0bbe bab9 823e
000002a0: 5007 303d 8008 9fbc c6be 4fbe f391 2dbe
000002b0: d6dc 223d 9faf 8ebd d49e bc3d cf2c 343e
000002c0: dd4c 4d3d 2667 ce3d d723 82bd 5834 0dbd
000002d0: 477f debd c8d0 4a3e d0e3 623e a917 6cbe
000002e0: a7aa ed3d 55fa 09be 4f1d 113d 6e17 c6bd
000002f0: 46a0 65bd 1637 303e 63a0 193e 0f3d 773c
00000300: effd 35be b3af ae3d 6578 d23d 1b93 e4bd
00000310: 1e9f 593e 3a10 3a3e a119 d8bd ebd7 2e3d
00000320: ac65 8dbd 3ec5 8c3d 9ddf 5abd 19de 043e
00000330: 3610 413e 94a5 ad3c 5f6f 44bd 22f5 4b3d
00000340: 8f93 98bc eb3a 91be 9157 b939 86e0 073d
00000350: 6045 c1bd 2615 5e3e 5132 e7bd 1f0a b43e
00000360: 5556 50bd 5411 c1bd 600c 89bd 5172 323e
00000370: 2878 9f3c 9bfc 0e3e d493 a23d 8cb5 803c
00000380: ddf7 983d daae 55be 0f92 6dbe a765 c4bd
00000390: 8632 68be 83e1 163e adf5 d33d 5e16 22bb
000003a0: 3685 61be 0177 9ebd face bdbd 924c 33be
000003b0: a816 373e f56d a93d 84ba 7b3c 90fb b8bd
000003c0: 8dc9 96bc 78bf 5fbe 0f60 293e e3fe 4c3e
000003d0: e246 39bd 17f8 67bc 3ab4 7f3d a96c 27be
000003e0: f9d1 97bb 063d 5a3e 330e 813d d2c7 a73b
000003f0: d777 b5bc 12d7 463d 8b76 e3bc ea1c ee3c
-0.11795529 -0.070025064 -0.22730973 -0.0034347884 0.0812002 -0.1524949 0.12295867 -0.054374326
0.17666125 -0.056233257 0.14505146 -0.0018752322 0.07999345 -0.0044277576 0.058933225 0.0020637347
0.14512299 0.09542611 -0.2096159 -0.21072066 -0.047700543 -0.025820466 0.16306601 -0.27093714
0.1745708 0.11609016 0.28213638 -0.0010774268 0.07532862 -0.029300485 0.07856796 0.065509036
-0.091851026 -0.18923075 0.113091305 -0.00610619 0.049011394 0.21941024 0.19288042 -0.31669134
0.15395425 0.18348324 0.045917697 -0.12488739 -0.23064312 -0.06882109 -0.039105903 0.12922408
0.1402853 0.10183426 -0.22673817 -0.03781292 0.19633617 -0.19221538 -0.23997612 -0.23354675
0.23406328 0.060547832 0.14674905 0.21956922 0.013481161 -0.06317135 -0.1520497 -0.11776812
0.1181583 0.037452288 -0.113115855 -0.19063993 -0.16879864 -0.24121657 -0.19331239 -0.13651681
-0.21871327 -0.16048615 -0.23254772 -0.2317846 0.13243006 0.2125518 0.23375317 0.12637149
-0.2387119 0.21434985 0.1216234 0.07806149 0.18289277 0.0990499 0.09196796 0.060431115
0.11801497 -0.13820413 0.05107503 -0.16003962 0.22847287 -0.12071733 0.22949505 -0.010499926
-0.08701934 0.2537006 0.204534 0.003473928 -0.14567639 -0.26374313 0.08846084 0.16888778
0.12690796 0.06956451 -0.064217515 -0.1695438 0.10998785 -0.14033413 0.11965562 -0.12536962
-0.21608454 0.094025515 0.31833354 -0.12858729 0.13202131 0.025094254 0.009468599 0.02085773
-0.27898303 -0.14713044 -0.087539256 -0.15648837 -0.115193784 -0.015365557 -0.16683848 0.02919441
0.1892204 0.22281851 -0.126497 0.21730424 -0.1687564 0.09695713 -0.10955425 -0.15725964
-0.033226848 0.15608141 -0.046543792 -0.1936925 0.18764909 -0.0144358035 0.13733315 0.2489977
-0.0026098029 -0.12388686 0.007710186 -0.24155721 -0.16747321 0.022616193 -0.11729307 -0.04231561
0.04051966 -0.18282226 0.21213308 -0.092298746 -0.09437702 0.054911107 0.13658044 -0.1885106
0.20141312 -0.023668954 -0.09435727 0.008188498 -0.07083823 0.027118973 -0.13579759 0.25532323
0.042975724 -0.019413233 -0.20287618 -0.16950206 0.039761387 -0.06967091 0.092099816 0.17595218
0.05012213 0.10078268 -0.06354492 -0.034473747 -0.1086412 0.19806206 0.22157216 -0.230559
0.11604815 -0.134744 0.03542834 -0.096724376 -0.05606105 0.17208514 0.15002589 0.015090241
-0.17772649 0.08529606 0.1027687 -0.11160871 0.21252105 0.18170252 -0.10551763 0.042686384
-0.06904158 0.068735585 -0.05343591 0.12975349 0.1885384 0.021197118 -0.047957774 0.049794324
-0.018625049 -0.28365263 0.00035351192 0.033173107 -0.0943706 0.21687755 -0.11288894 0.35163972
-0.050863583 -0.09427133 -0.066918135 0.17426421 0.019466475 0.13963549 0.07938352 0.015711568
0.07469151 -0.20867482 -0.23200248 -0.09589701 -0.22675523 0.14734463 0.10349593 -0.002473257
-0.22023472 -0.07737542 -0.09267993 -0.17509678 0.17879736 0.08272926 0.015364293 -0.09032357
-0.018406654 -0.21850383 0.1654055 0.20019107 -0.045233615 -0.01415827 0.062427737 -0.16350044
-0.004633185 0.21312341 0.063015364 0.005120256 -0.02215187 0.04854495 -0.027766487 0.029066522

lstm1_1.bias_ih_l0 f4 [64]
00000000: a00a 93bc 5b84 1fbe ee2f 573e c2d5 593d
00000010: fd4f 073e 3d73 52be 0581 00be 5b96 0c3e
00000020: 6fd0 84bd 94b3 2abe df23 2bbe 0023 09be
00000030: fde3 afbd 40b5 ce3d 4a85 29be e436 3dbd
00000040: 2aae 2f3e 150a 10be 94c5 573e 111d d03c
00000050: 1f94 cc3d 7342 7a3d a06f 363d b391 4ebd
00000060: 9dd5 17be cad2 c43d c6c4 4f3d 9961 253e
00000070: 13af 68be 4aff e0bd b3fb d4bd afd2 d0bd
00000080: af90 723e e445 13be 5212 3e3e 749c debc
00000090: f16b c23d de4b 8b3d 298a 473e c461 a13d
000000a0: 719e 52be c511 81bd 7384 1c3e d435 3f3e
000000b0: db8b 82be 5de9 71be 1ee6 5c3e 764f 6c3e
000000c0: e869 36be e873 503e 1bc9 7c3e a98f fdba
000000d0: ae9d 71be c59b 3cbd 2f9f e13d a2d7 58bd
000000e0: 75c3 2abe 7a6f e53c 155d 1c3d 680a 5f3c
000000f0: 6da3 bd3d e8d8 05bd 1850 cebc 834d 7bba
-0.017949402 -0.15577833 0.21014377 0.05318237 0.13214107 -0.20551772 -0.12549217 0.13729231
-0.06485068 -0.16670066 -0.16712902 -0.13392258 -0.08588407 0.100931644 -0.16554752 -0.046194926
0.17156282 -0.14066346 0.21071464 0.025404485 0.09989189 0.061098527 0.044540048 -0.05043192
-0.14827581 0.09610517 0.050724767 0.16150512 -0.22723036 -0.109861925 -0.1039957 -0.10196435
0.23688005 -0.1438213 0.18561676 -0.027174212 0.094932444 0.0680158 0.19486298 0.078799754
-0.20568253 -0.063022174 0.152849 0.18672878 -0.25497326 -0.23624177 0.21572158 0.23077187
-0.17813838 0.20356715 0.2468609 -0.0019345182 -0.23595306 -0.04604699 0.1101669 -0.05294002
-0.16676123 0.028007258 0.038174707 0.013613321 0.092596866 -0.03267756 -0.025184676 -0.000958644

lstm1_1.bias_hh_l0 f4 [64]
00000000: 847a 34be 6cde 7ebd 2ac7 3fbe 1a97 08be
00000010: ef36 433e 6b54 293d 5bfa 46be 1a31 a7bd
00000020: f06e 0abe b408 503e c9a1 c53d 4336 1c3d
00000030: ab82 ee3d b812 bfbd a465 30be 6a1d 82be
00000040: a517 443d 3690 c23c 9a16 4bbd e060 a8bb
00000050: bf68 6fbd ebe4 b6bd 4e23 6fbe 8887 053d
00000060: b4a3 81bc 7964 69be a9c5 9fbd dc82 8c3d
00000070: 2b2a 6a3e d37c c33d 93be 3f3d abd9 193d
00000080: f6bf 013e cdda 5f3d ae62 033e 810d 443e
00000090: 6d48 4f3d 52ed 8c3d 35d5 6ebe e035 72be
000000a0: 8bfd 6fbe ac68 323e 7e45 ee3d 3f4e ebbd
000000b0: 6bdd 48be dd3b 123e 18a0 c2bd baeb 6b3e
000000c0: fa91 53be aec6 62be 84c1 dd3d de1b 313e
000000d0: d9ba ffbd abfc e2bd bd1a d0bd f75e 05be
000000e0: 2f2b 4c3e 5396 cfbc 8bd5 ffbd 2231 343e
000000f0: 4ba1 66be 840c 4dbd 6c05 1bbe 94c7 5cbe
-0.17624861 -0.062223837 -0.18728319 -0.1333889 0.19063924 0.041340273 -0.1943144 -0.08163662
-0.13518882 0.2031582 0.09649999 0.038137686 0.11646017 -0.09329742 -0.17226273 -0.25413066
0.04787411 0.023750406 -0.0495821 -0.0051385015 -0.058449503 -0.089303814 -0.23353311 0.032599956
-0.01582513 -0.22792234 -0.078013726 0.06860897 0.22867648 0.09545293 0.046812605 0.0375611
0.12670884 0.054652024 0.12830612 0.19145776 0.05060618 0.06881203 -0.2332352 -0.23653364
-0.23436563 0.17422742 0.11634348 -0.11489534 -0.19615714 0.14280649 -0.09503192 0.23039141
-0.20661154 -0.22146103 0.10827926 0.17295787 -0.1248681 -0.11083349 -0.1016135 -0.13024507
0.19938348 -0.025340235 -0.12491902 0.17596868 -0.22522466 -0.050060764 -0.15138787 -0.21560508

lstm1_1.weight_ih_l0_reverse f4 [64, 32]
00000000: 691e 1a3e ac10 d33d b45e a63e d478 943d
00000010: e899 6abe 7046 b0bd 38d6 003e c275 06be
00000020: c339 823e 0185 5bbd ddcc b0bd 251c 7b3e
00000030: 29f9 763d 8088 08bc b6af 993d 9b13 4c3e
00000040: dec3 2dbe 3029 9dbc 3829 8bbd c772 903e
00000050: 2b06 a33e c2b2 5abe ead0 12be 3c7a f7bd
00000060: be2a 5b3e 6954 d63d edee 3d3e c1c5 1cbe
00000070: 9ffa 2c3e 67bb 033d c430 0bbd a109 8e3e
00000080: adab 183d 68c7 e13d 3582 30bc 3047 efbc
00000090: b0b7 ae3d e253 6c3e 7841 1cbe 4823 dcbd
000000a0: b0de d03b 65da 4bbd 79e1 1c3e 7c0f c8bd
000000b0: a43f 5e3e 0016 c13a 3db3 b83d da16 c63d
000000c0: 80fa 163e d06f 8dbc e36e 653e f149 503e
000000d0: e224 343e c2a1 8c3e 84ae b8bd e601 823e
000000e0: ef38 323d 9122 ebbd f4c2 20be 1b70 2ebe
000000f0: 1c76 adbd b2ad 01bd 2375 46be 1b0c 8abd
00000100: 55d5 96bd 408c 2dbd 5410 3e3e 886d 343d
00000110: 80d5 663b 00fe 72bb 2220 653e 7750 be3c
00000120: 74e7 183d 0afe 31bd 6fd9 68be 9a98 1c3e
00000130: 2198 14be 0841 863d d52f 093e 7ab4 11be
00000140: 5433 0fbe 18f0 123e 0762 8fbc 8bca 3abd
00000150: ad35 afbd 83c8 3b3d 2b24 11be bd5f b1be
00000160: 8800 c5bd 9402 8e3e 811b d53d 328d 37bd
00000170: a499 06be b26c 34be ab66 763d 47e8 873e
00000180: c2f1 8b3e bc3d 0a3e edb3 973c e024 763e
00000190: 8212 0f3e ca0e 383e 108a 203e 81a7 413e
000001a0: 6a56 823e 5520 0d3e e33c 66bd 7bce 153d
000001b0: 042d f2bc 20e5 5b3d e957 05bd f869 753e
000001c0: 809f 2ebb b0fa 8ebd 43b1 9a3e 7aaa 11be
000001d0: b147 e1bd 8b0b 1e3f b563 20be b47e 683e
000001e0: 8eaa 0bbe 1c8d 643e 5081 213e 8d3d 3c3e
000001f0: 6340 1d3e 25d8 823e 95e3 283d 841c 743e
00000200: 2a83 10be c8f2 5e3e ba0f 3dbd ac68 88bd
00000210: 60f4 463e e8dc 6b3d c8ee 913e 1517 8d3d
00000220: 6232 6a3e c0ed e3bd 372c 83be 0d53 5bbe
00000230: b9cb c5bd aef3 2ebe a043 18be 1f25 373e
00000240: 04a9 da3d 4e4d 4f3e 18c1 443e 82e4 a63c
00000250: a94e 3dbe 9b0a 153b ae44 5fbd d4f2 8abe
00000260: 2f1d 86be 3435 e43d 6b0a 613d 3429 203d
00000270: a146 a23d c091 dc3c d573 e33d ec42 193e
00000280: 4aba 99ba 5041 a9bd 3a77 b33e 78e6 7a3e
00000290: 8e2d 343e e0fc cb3c 53b5 7b3e f6f9 70bd
000002a0: 7953 a43e e043 593d 8a5d a53d 6955 b83c
000002b0: 31b9 613e 50a6 433e e673 163d 90f1 df3d
000002c0: b643 4cbe 7089 fbbc 418e f1bc d643 893e
000002d0: 9541 b53d af6e 0b3e e149 7a3e f01d f13d
000002e0: 8439 083d 0c46 29bb 892f edbd db28 763e
000002f0: 5dfa 8a3e bfa4 2a3e 5b10 563e b268 873e
00000300: 0663 7a3d c01a 65be fcd0 f53c 566e 09be
00000310: 8acf 293e 60af 57bc 6edb 1ebe bf1c cc3d
00000320: a0a6 39be 6b6c 163e bea8 213e 9eda 523e
00000330: 8985 62be 2074 1e3e 3d56 f83d b27b 5cbd
00000340: 325f 09be e603 1dbe 3fb8 e6bb f13b 533c
00000350: 5cca 033e 160d 1bbe 9bad c6bd 6045 eabd
00000360: be46 3c3e c865 2fbe ad71 4a3e 821b 71bd
00000370: 6a9a 33be 8551 a03d 3fd9 e33d 5a99 ffbd
00000380: 5598 0cbe e8ea d83d cbdf 8a3d a071 b23d
00000390: 38f2 8abd bce0 d1bd d897 66be bdeb 0fbe
000003a0: e6bc 3ebe 32ad 583d 951a 3dbd 87f4 933d
000003b0: f839 873d e499 4abe aae2 ba3d 4c57 35bc
000003c0: 88af 2a3e 3889 f33d 657b 17be bf86 30be
000003d0: 2da7 bc3d 686f 283d 8b1c c33b b2be 53bd
000003e0: 1474 9bbd 9824 bc3d 7e5f b9bc a3de 2a3e
000003f0: 1759 b23d 1c19 59be 6a8e 2f3e 2d1d 133b
0.15050663 0.10305914 0.32494128 0.07249609 -0.22910273 -0.08607185 0.12581718 -0.13130859
0.25434694 -0.05359364 -0.086328246 0.24522455 0.06029621 -0.008333325 0.07504217 0.19929354
-0.16969249 -0.019184679 -0.06794971 0.28212568 0.31840643 -0.21357253 -0.14337507 -0.12083861
0.21403024 0.10465319 0.18548174 -0.15309812 0.1689248 0.032161143 -0.033982053 0.2774172
0.037273098 0.11024362 -0.010773231 -0.02920875 0.08531129 0.23078874 -0.1525935 -0.10748917
0.0063742027 -0.049768824 0.15320386 -0.097685784 0.21703964 0.0014731288 0.09018562 0.09672327
0.14743996 -0.01726523 0.22405581 0.20340706 0.17592195 0.2746716 -0.09017661 0.25392073
0.043511327 -0.114812024 -0.15699369 -0.17034952 -0.08469793 -0.03165979 -0.19380622 -0.0674059
-0.073649086 -0.04237008 0.18560916 0.04404977 0.003522247 -0.0037077665 0.22375539 0.023231728
0.037330106 -0.04345516 -0.22739194 0.15292588 -0.14511158 0.065553725 0.13397153 -0.14229003
-0.13984424 0.14349401 -0.017502798 -0.045603316 -0.0855516 0.04584552 -0.14173953 -0.34643355
-0.09619242 0.27736342 0.104056366 -0.04481239 -0.13144547 -0.17619589 0.060156506 0.265444
0.27332884 0.13500112 0.018518412 0.24037504 0.13971904 0.17974392 0.15677667 0.18911554
0.25456554 0.13781865 -0.05621041 0.03657387 -0.02956248 0.053685308 -0.03255454 0.23966205
-0.0026645362 -0.069814086 0.30213365 -0.14225188 -0.11000002 0.61736363 -0.15663035 0.22704583
-0.1363928 0.22319454 0.15771985 0.18382855 0.15356593 0.2555553 0.041232664 0.23839003
-0.14112535 0.21772301 -0.046157576 -0.066605896 0.19429159 0.05758372 0.28502488 0.06889168
0.22870782 -0.111293316 -0.2561967 -0.214184 -0.09657998 -0.17085144 -0.14869547 0.17885254
0.106767684 0.20244333 0.19214284 0.020372633 -0.18487038 0.0022741917 -0.054508857 -0.27138388
-0.2619414 0.1114296 0.054941576 0.039101794 0.07923628 0.026924968 0.111060776 0.14966935
-0.0011728492 -0.082644105 0.350519 0.2450198 0.17595503 0.024900854 0.24580888 -0.05883213
0.32094935 0.053043246 0.08074482 0.022501664 0.22043301 0.19106412 0.036731623 0.10934746
-0.19947705 -0.030705184 -0.029486777 0.26809567 0.088503994 0.13616441 0.24442245 0.11773288
0.033257976 -0.0025829105 -0.11581332 0.24039023 0.27144137 0.16664408 0.20904677 0.26447064
0.061129592 -0.22373486 0.030006878 -0.13420996 0.16583076 -0.013164371 -0.15513393 0.099664204
-0.18129969 0.14689796 0.15787026 0.20591208 -0.22121252 0.15473986 0.12125824 -0.053828903
-0.1341522 -0.15333518 -0.007041007 0.012892709 0.12870163 -0.1514171 -0.09701081 -0.114390135
0.18386361 -0.1712867 0.19769926 -0.058864124 -0.17539373 0.078280486 0.11125421 -0.12480421
-0.13729985 0.1059168 0.06780966 0.087130785 -0.06784481 -0.10247943 -0.22518861 -0.14054771
-0.18626747 0.052899547 -0.04616793 0.07224374 0.066028535 -0.19785267 0.09125264 -0.0110681765
0.16668522 0.11891407 -0.14793165 -0.17238902 0.09211574 0.04112187 0.0059543303 -0.051695533
-0.075904995 0.09186667 -0.022628542 0.16686492 0.08708399 -0.21200985 0.1714417 0.002244781

lstm1_1.weight_hh_l0_reverse f4 [64, 16]
00000000: ad94 ffbd 8f15 00be e39c 97bd caf4 dbbb
00000010: 83a6 d9bb 6bc7 01be 4be7 973d 8e39 873d
00000020: b981 303d 9380 58be 326c 4dbe d2f3 dfbe
00000030: 8ca3 053e 407f 0dbe d84e df3d fa63 9fbd
00000040: 5806 3abd 2573 0a3e 5441 083d e475 50bd
00000050: 9634 a6bd 66a3 73be 9cdc dd3c 08fe 68be
00000060: e6e1 8abd 9293 683e c8f1 4b3e e0ec 223e
00000070: f5e9 f5bd f84a bd3d f29e 5dbe e80d d73c
00000080: bade 933e 3e68 61bd f400 a83d 4db1 a83d
00000090: b1d3 8dbe d78e 3dbe bb04 6c3e ee26 8bbe
000000a0: 4bcd 3b3c 2960 e6bd 7eaa 2b3e b685 b9bd
000000b0: 810b 453e cd23 5d3e a369 05be 11e9 0e3e
000000c0: b13e 04be 62cf 8fbc a864 0b3e 2727 d43d
000000d0: 59e7 eb3c 6502 b43c 89b1 e1bd 5583 fd3c
000000e0: 986f 833e 9d3e 8bbe 6b76 1d3c 9a5e af3e
000000f0: 789f 2b3e e32f e13c ae4f 98be 589a 0d3e
00000100: 0f6e 27be f6e4 843c 2ef7 45bd a0fa fb3b
00000110: c22e 673d cf37 34be d794 19be b2ed 42bd
00000120: 541b 1d3e 7505 2fbd 2395 dcbb 8452 25be
00000130: 900a 343e 7826 c8bd 560c 0d3e 0faa 853e
00000140: 9efa 45be 65ec 83be 6f3f efbd 4bfd a93d
00000150: 09ad 193e 15bd 113e f475 da3c e15d 0d3e
00000160: 1a39 21be e59d 0dbe 9edd 6f3e cf5d 813e
00000170: 12f2 823e 4458 5c3d 2c36 c03e a0b5 80be
00000180: 189c 5fbb 804d 51be ae8d 3fbe 36da 61be
00000190: b9e1 303e 758f 733d efaf 133e 2159 4a3e
000001a0: d9c7 143c ecff 803e 87da 093e acbd 5cbc
000001b0: 123a 2cbe bcb0 473e c87e 1d3e 0f10 9bbd
000001c0: 37d9 7bbc bf46 463e f6d3 5fbe 74b9 11be
000001d0: 61e7 273e 5641 213e 2900 f23c 1d8b c43c
000001e0: a16f a2be 0539 afbc f431 133c c394 59be
000001f0: 2d77 9a3d 55f2 c13d c240 d73d 29f1 423e
00000200: d482 37be fc25 fa3d 6ef1 403d 0182 91be
00000210: d945 8b3e dad2 db3b 3465 debd cadf 0fbe
00000220: 0112 d2be de4d 173e eb73 8ebe 509e febd
00000230: 5acf a0bb 2815 103e 7e75 34be ae19 b53e
00000240: 627f 1e3e 2438 9dbd c8be 4c3e 1a8b 7abe
00000250: 82b7 0b3e 5e3f 6b3e b3f4 273d cc75 953e
00000260: cd28 13be 7523 0cbe 469d 313d 63b8 00be
00000270: 6086 4a3e dc7b 70bd cf9e 08be 1a9b e63d
00000280: cf2e 7a3e 0f6b d43c 71c4 073e ba5b a43d
00000290: f384 47bd d7b1 e83d a114 1c3e 0f94 bdbc
000002a0: dd32 cbb9 2d41 25bd 1e4f 43be 9bf4 2a3e
000002b0: 45b5 bcbd 46b9 0e3e 0326 cc3d 9fa0 113e
000002c0: 282c 613e fbaf 123d 25d0 7e3c 5024 f9bd
000002d0: 5f0c 013e 56a9 cfbd b7bc 34bd 8a50 62bc
000002e0: 5c0a 91be 7343 ba3d 9919 463c fcb8 83be
000002f0: 91f9 653e 1210 29be 7d7d 86be c17e 773e
00000300: d680 293e 6e56 62be e61a 88bd 298b cfbd
00000310: 039b 82be a6a7 2fbe bc0a 803e 20be 75be
00000320: fcbb 3bbe 1fd9 1b3e fda5 493e 860a 9f3c
00000330: cd06 b4bb b590 583e 89fb b33d 23a6 26be
00000340: 098f 01be b50f 103e a3b2 c03d 7f18 8bbd
00000350: c297 3cbe 2fec c53d 2dd8 0f3d 4b2b c5bd
00000360: a979 87be e381 a0bd 72d9 4dbe b91e 6ebe
00000370: 8ac1 bdbd 1ddd c33d b362 06be 91c6 15be
00000380: 6071 213e 0c08 63be 452b e23d e1aa 29be
00000390: 188c 38be 0d14 22be 5c22 583e 6e97 75be
000003a0: da48 983d bed7 bf3c 252b 30bd 9622 febd
000003b0: 8d85 d5bb 2e92 14be 6b2f 2f3d 5574 01be
000003c0: 6d5b ed3d f4e4 f73d 99bc 02be a8a1 923d
000003d0: 85bf 4c3e 9281 79be 046f 0dbe d49d 13be
000003e0: 6697 6dbe c9cb b9bd b27a adbe edd1 bfbd
000003f0: c563 47be fede 753e 7230 b3bd 7ffe 3d3d
-0.124795295 -0.12508224 -0.07402971 -0.0067125307 -0.006642164 -0.12673728 0.074171625 0.066027746
0.043092463 -0.21142797 -0.20060804 -0.43740708 0.1305067 -0.13818073 0.1090371 -0.07782741
-0.045416206 0.13520487 0.033265427 -0.05089368 -0.08115499 -0.237928 0.027082734 -0.22753155
-0.06781368 0.22712544 0.19916451 0.15910673 -0.120075144 0.09242815 -0.21642664 0.026251748
0.28880864 -0.055031054 0.08203307 0.082369424 -0.2770057 -0.1851152 0.2304868 -0.27178138
0.01146252 -0.1124881 0.16764256 -0.090587065 0.1924267 0.21595688 -0.13028578 0.13956095
-0.1291454 -0.017554943 0.13612616 0.1035903 0.028796839 0.021973798 -0.1102019 0.030946413
0.25671077 -0.27196208 0.009610753 0.34251863 0.16760051 0.027488654 -0.2974829 0.13828409
-0.16350578 0.016222458 -0.048331432 0.007689789 0.056441076 -0.17599414 -0.14998184 -0.047589965
0.15342456 -0.042729814 -0.0067316457 -0.16144758 0.17582154 -0.09772962 0.13774237 0.26106307
-0.19333884 -0.25766292 -0.11682021 0.08300265 0.15007414 0.14232285 0.026667573 0.13805343
-0.15744439 -0.13829763 0.23424384 0.25266883 0.2557531 0.053795114 0.3754133 -0.2513857
-0.0034120139 -0.2043972 -0.1870639 -0.22055897 0.17273606 0.059462983 0.14422582 0.19760562
0.0090808505 0.25195253 0.13462268 -0.013472956 -0.16819027 0.19501013 0.15380394 -0.07571422
-0.015371612 0.19362925 -0.218582 -0.14230901 0.16396858 0.1574758 0.029541092 0.023992116
-0.3172579 -0.021389494 0.008984078 -0.21248154 0.07542262 0.09470049 0.105103984 0.19037308
-0.17921 0.12214276 0.047105245 -0.28419498 0.27201727 0.006708485 -0.10859147 -0.14050213
-0.4102936 0.14775798 -0.27822813 -0.124325395 -0.0049075307 0.1407057 -0.17622945 0.35371155
0.1547828 -0.076767236 0.19994652 -0.24467126 0.13644221 0.22973391 0.041004848 0.29191434
-0.14371033 -0.13685401 0.04336288 -0.12570338 0.19777822 -0.05871187 -0.1334183 0.11260052
0.24431919 0.025929956 0.1325853 0.08025308 -0.048710775 0.11362045 0.15242244 -0.023141889
-0.00038757073 -0.04034536 -0.1907315 0.16694872 -0.09214262 0.13937864 0.09968188 0.14221428
0.219895 0.03581236 0.015552555 -0.12165129 0.12602375 -0.1013972 -0.044125285 -0.013813147
-0.28328216 0.09094896 0.012091064 -0.2572707 0.22458483 -0.16510037 -0.26267615 0.24169447
0.16553053 -0.22103283 -0.066457555 -0.101339646 -0.2550889 -0.17153797 0.2500819 -0.23998308
-0.18333429 0.15219544 0.19692226 0.019414198 -0.005493975 0.21148951 0.08788211 -0.16274314
-0.1265222 0.14068492 0.09409072 -0.06791782 -0.18417266 0.09664189 0.03511827 -0.09627398
-0.26460007 -0.07837274 -0.2010248 -0.23253907 -0.0926543 0.095636584 -0.13123588 -0.14626528
0.15765905 -0.22171038 0.11043409 -0.16569091 -0.18022192 -0.15827961 0.21106857 -0.23983547
0.0743577 0.023418304 -0.043009896 -0.124089405 -0.0065161646 -0.14508888 0.04276983 -0.12642033
0.11589704 0.12104216 -0.12767257 0.0715974 0.19994934 -0.24365833 -0.1381188 -0.14415675
-0.23202285 -0.09072072 -0.33882672 -0.09366212 -0.19471653 0.24010846 -0.087494746 0.046385285

lstm1_1.bias_ih_l0_reverse f4 [64]
00000000: c3c3 0f3e 6d1e 013e c660 b2bd b2b1 62bd
00000010: ca23 e23d 44f1 de3d 04ab fdbd ef30 edbb
00000020: 1067 9b3e 2aec 48bd 3bb9 bf3d 5e2d d13d
00000030: fdb2 bfbd 266e 4c3e 19bf 24be 28d1 583e
00000040: 0185 07be 494f 263d 62e5 26be ea6d 803e
00000050: 1763 34bd 0bf9 933e ac6f bd3c bcf8 6ebe
00000060: 94cb c13e 84d0 54be 8094 9fbd e95c 143e
00000070: 4aa7 c73d f3f6 383e a3d4 a63d 017c e73d
00000080: 2a1b 52be 973e a4bd 847c e63d 6b26 22bc
00000090: f05a 60be 28ef bbbc 0fb5 34be d6d0 68bc
000000a0: a6de 4dbe e8c6 7c3c bab5 fabd 8247 953d
000000b0: 1af7 32be e00b 14be 9bad b2bd b927 45be
000000c0: 167f f73d d385 493e 9028 2f3e 905c 803c
000000d0: 6f59 c83c bf8c aa3e b5b1 66be fe85 50bd
000000e0: c68f 91bd 0a0a 36bc faf1 783e 646e b93e
000000f0: 01cc 23be 053a 6c3d 032b 01bc 173c c4bd
0.14039521 0.12609263 -0.08709864 -0.055345245 0.110419825 0.108858615 -0.12386134 -0.0072384994
0.30352068 -0.04905335 0.09361502 0.10213731 -0.09360311 0.19963893 -0.16088523 0.21173537
-0.1323433 0.040602956 -0.1629844 0.25083858 -0.044039812 0.28900942 0.023124538 -0.23337072
0.3785063 -0.20782667 -0.07791996 0.14488567 0.09748705 0.18062954 0.08146026 0.11302949
-0.20518175 -0.080197506 0.11254218 -0.009896855 -0.2190969 -0.022941187 -0.17647193 -0.014209947
-0.20104465 0.015428282 -0.12241693 0.0728903 -0.17477074 -0.14457655 -0.08724519 -0.19253434
0.120847866 0.19679956 0.17105317 0.015669137 0.024456708 0.33310506 -0.22528727 -0.050909035
-0.07107501 -0.011110792 0.24311057 0.36217034 -0.1599579 0.05767252 -0.00788379 -0.09581774

lstm1_1.bias_hh_l0_reverse f4 [64]
00000000: b246 b8bd 73ab 0f3e f923 393e 5f4f 9c3d
00000010: 6252 bebd 09b1 3cbd 85e3 6c3e 4509 dfbc
00000020: 0508 273e 340e f7bd 44a2 aebd eb4f fa3d
00000030: 7cb8 75be 1807 52be 6548 30be e64a 593e
00000040: 69aa 8e3e 554a 183e 3307 0b3d 6207 de3c
00000050: 2b6b ffbd d20c be3d 361f 96bc 1fee 633e
00000060: bce2 7c3e 8580 0a3d e43b 6e3e 9145 d53e
00000070: 6a60 9fbd d003 853d 9936 f73d 9c2c 623e
00000080: d737 d53d fd08 44be f714 863c af87 31be
00000090: 0af0 3abe 3748 c8bd 8948 8f3d 2853 59be
000000a0: 36fb 733e 6e01 f43c 8080 5dbd 3ae9 f8bc
000000b0: 7822 54bd f904 803e e917 013e d1be fa3d
000000c0: 01c5 7dbd 81ae 81bd c3df 783e b959 41bd
000000d0: 764e 0dbd 1b6e 81bd 1fee 443e 71b7 cb3c
000000e0: 045f 363e fb19 ff3c c787 823e 7e2f 173e
000000f0: 3159 713e 54b0 de3c 36be 773e b948 66bd
-0.08997859 0.14030246 0.18080129 0.07632326 -0.09293057 -0.04606727 0.23133667 -0.0272261
0.16311653 -0.12063256 -0.085270435 0.122222744 -0.23996156 -0.20510519 -0.17215116 0.21219978
0.27864388 0.14872105 0.033942413 0.02710313 -0.124716125 0.09279789 -0.01832543 0.22258805
0.24695867 0.033813972 0.23265034 0.41654637 -0.077820614 0.06494868 0.120709606 0.2208733
0.10411041 -0.19144054 0.016367419 -0.17336915 -0.1825563 -0.09779399 0.06996257 -0.21223128
0.23826298 0.029785838 -0.054077625 -0.030384649 -0.051790684 0.25003794 0.12606777 0.122434266
-0.061955456 -0.06332112 0.24304108 -0.047204707 -0.034498654 -0.06319829 0.19231461 0.024867745
0.17809683 0.031140318 0.25494215 0.1476421 0.2356918 0.02718369 0.24193653 -0.056221697

lstm1_2.0.weight f4 [32, 32]
00000000: b032 e1bc 99f0 933d 8eca 54bd b2d2 35be
00000010: 2991 a9bd 4150 cebd 49ea be3d b086 e9bc
00000020: f277 cebc d73e 163e 9d4b 4b3d 0a9f 933d
00000030: 0648 46bd c325 aebc 0586 b03d 53e7 2bbe
00000040: 5e9d 093d 5b00 c73c e64b 0f3e 6de1 debd
00000050: d673 043e 7220 0e3e 1617 9c3c 6e52 853d
00000060: 6c21 5e3d f14e e43b ac96 263e 3d9e 893d
00000070: 20bb bc3d 7c9b 6e3d 1dd8 8a3d a368 1dbe
00000080: 4cf6 2abd 1089 1d3e 6a7f e2bd 562b 09be
00000090: 4818 19bd f19a b7bd 52e9 873d 16f5 18bd
000000a0: f219 d5bd f3c1 5b3d b670 3dbe 1e9b 1abe
000000b0: 0e12 1f3e de69 03bd 15c2 a43d 1f2c 1dbe
000000c0: 46d6 60bc e0f4 303c 4d0e 0e3c ac44 623d
000000d0: 6a19 00be 226c 6f3d 6246 08bd d5da 3b3d
000000e0: 0180 2b3e 104f 2f3e c4fe 173e 5b62 b1bd
000000f0: e018 1d3e aa9c 773d 90a1 1a3d 9f14 40bc
00000100: 70bc 05bd 95e9 ec3d f57a eebd f80f 923d
00000110: 8a1d 373e a2f2 e73b 6d6b e8bc 639c 103e
00000120: db2c 25be 482d 9dbd ed66 e4bc 7312 2f3d
00000130: a2b5 113e 6f9d 2c3e 3117 103e 8bff a6bd
00000140: 8c7e d3bd 8db4 4d3d f8b0 f1bd 07b6 c4bd
00000150: 5caa 613c f3ad 1d3d ee35 eb3c eb0d 3e3e
00000160: ea82 423e 9a7d 8ebc 5f84 033d 3c5c a3bd
00000170: 5a34 04be 55c0 113e 037d c23d ff24 693d
00000180: 4680 583e 976b dc3d c997 dcbb b85c e23d
00000190: 2c5e 913a 0c8f 363d 9a4a c2bd 90e3 7ebe
000001a0: 4853 43be ba29 efbc 55fe 16bd cc50 b43d
000001b0: b94c 0dbe 1923 d0bd 1bae 01be 97c9 933d
000001c0: 97df 9a3d 12b1 5b3e 5765 813c a937 803d
000001d0: cf3f 063d d45f 04be a248 cf3d da84 fa3b
000001e0: 4202 3ebe 6593 02be ed08 4f3e b4e2 1fbe
000001f0: 8aa1 c1bd 72b2 acbc a862 1bbe fabf 953e
00000200: 6c0c 01ba 5864 01bc c574 5c3d 4f82 e8bd
00000210: a118 d9bd 0d78 5cbd 07ac ad3d 79d2 903e
00000220: 91dd 363e a34d 59be 0da3 be3d bd11 b3bd
00000230: b8e7 093e d5e3 b23d 209c 933c cc85 80bd
00000240: b968 83be b49a 1abe 1950 47be 57f7 283d
00000250: 1d4d e93c 1321 a03d 3d68 7fbe c6f1 b83d
00000260: 2ed9 033e 75dc 4ebd 610e 06bf 9398 933e
00000270: da8f 183f 3a12 00bf d3c8 6d3e b9af f8bd
00000280: c3e7 463d 38c8 443d db18 033e a55c debb
00000290: 0190 3dbe d52c 213d f9c4 3fbe a5a4 8fbd
000002a0: a634 1b3e 746c c2bd c5ac 27be e2bc 02be
000002b0: c36b 3f3c 9869 4f3d 246d e13d 9c11 343d
000002c0: 6e02 743d aee1 2f3c 1ba0 233e 0896 dfbd
000002d0: 1fe8 253e 34a4 e8bb a136 b4bd f5d5 30bd
000002e0: 0c78 733b 5390 4cbd 7e2c c7bd dd5a 9b3c
000002f0: f7c6 26be 7d6f f83c f51c 1f3e 617b a0bc
00000300: ba58 3ebe c98b a53d fe90 25be c729 a3bd
00000310: f559 8c3b b7b2 f3bd 53f4 f9bc de7b 203c
00000320: aa92 c5bd c623 07be 4ea6 63bd 7638 503d
00000330: 5e54 3a3e 505e 40bc a1f0 b9b9 92e0 903d
00000340: 6ceb 0cbe f214 4fbd f6dc 223e 99ae e8bc
00000350: b86e d0bc 7c9d c7bd 0cf6 563b 7328 823d
00000360: e05c 17be 8a50 f53d 4d6b 353d 544d d6bd
00000370: 8a8d 34bc a848 22be cd54 f0bd 25ae 4dbd
00000380: a9c2 f53d ae04 f13d 872c 25be 6af4 22be
00000390: f725 933c 0e9e 0e3e f513 34be a9f1 81bb
000003a0: 0002 f6bd 2249 293e be1e 2fbe 4409 163d
000003b0: 0c8d 193e 7886 f9bd e828 f33c b8d5 00be
000003c0: ef4f 0abe 3df6 85bd 6c8e cd3d ca17 12be
000003d0: f5b3 8f3d 63e6 cebd b372 c5bd e9cf c03d
000003e0: c3d6 5b3d aabe 05be 6979 893d e817 c03d
000003f0: 1009 3dbc cd04 fb3d 718f 223c 96be 1b3e
-0.02748999 0.07223625 -0.051950984 -0.17756155 -0.0827964 -0.10073901 0.0932203 -0.028506607
-0.025203679 0.14672409 0.049632657 0.07208069 -0.04840853 -0.02125824 0.08619312 -0.16787462
0.033597343 0.024292162 0.13993797 -0.1088284 0.12934813 0.13879564 0.019053977 0.06509863
0.054231092 0.0069674184 0.16268414 0.06719635 0.09215379 0.05825375 0.067795016 -0.15371947
-0.041738793 0.15384316 -0.110594586 -0.13395438 -0.037376672 -0.089650996 0.06636299 -0.037343107
-0.10405339 0.05365176 -0.18500027 -0.15098235 0.15534231 -0.032083385 0.08044831 -0.15348862
-0.013722962 0.01080057 0.008670402 0.05524127 -0.12509695 0.058452733 -0.033270247 0.04586299
0.16748048 0.17120004 0.14843279 -0.08661338 0.1534152 0.06045214 0.037751734 -0.011723666
-0.03265041 0.1156799 -0.11644546 0.07131952 0.17882362 0.0070784846 -0.028371537 0.14122157
-0.16130392 -0.07674652 -0.02788111 0.042742204 0.14229444 0.16856931 0.14071347 -0.0815421
-0.10326871 0.050221015 -0.11801332 -0.096050315 0.013773527 0.03849597 0.02871224 0.18559997
0.18995252 -0.017393876 0.03210866 -0.07976577 -0.12910596 0.14233525 0.094965 0.056920048
0.21142682 0.10762709 -0.0067319614 0.11052841 0.0011090687 0.044570014 -0.09486885 -0.24891496
-0.19074738 -0.029194701 -0.036863644 0.08804473 -0.13798799 -0.10162944 -0.12664072 0.072161846
0.07562178 0.21454266 0.015795393 0.06260616 0.032775696 -0.1292718 0.101212755 0.0076452317
-0.18555549 -0.12751539 0.20218249 -0.15613824 -0.09454639 -0.021081183 -0.15174353 0.2924803
-0.00049228105 -0.007897459 0.053822298 -0.113529794 -0.10600401 -0.053825427 0.08480077 0.28285578
0.17857958 -0.21221022 0.09308443 -0.08743618 0.134673 0.08734862 0.018018782 -0.0627552
-0.25665835 -0.15098077 -0.19464149 0.041251507 0.028479153 0.078188084 -0.24942107 0.090304896
0.12875816 -0.050503213 -0.5236569 0.28827342 0.595945 -0.5002781 0.2322114 -0.121428914
0.04856087 0.048042506 0.1280245 -0.0067859464 -0.18511964 0.039349396 -0.18727483 -0.07013825
0.15156803 -0.09493342 -0.163745 -0.12767366 0.011683407 0.05063781 0.11007145 0.043962106
0.05957263 0.010734959 0.15979044 -0.10917288 0.16201828 -0.0070996527 -0.08799482 -0.043172795
0.003715041 -0.049942326 -0.09725283 0.018964225 -0.16286837 0.0303266 0.1553839 -0.019590082
-0.18588534 0.080833025 -0.16168591 -0.07966953 0.0042831847 -0.118993215 -0.03051201 0.009795157
-0.096471146 -0.1319724 -0.055578522 0.050835095 0.18196246 -0.011741236 -0.00035465232 0.070740834
-0.13761681 -0.050557084 0.15904602 -0.028403567 -0.02544342 -0.09746835 0.0032800464 0.06355371
-0.14781523 0.11978252 0.044291783 -0.10463968 -0.011020074 -0.15848029 -0.117349245 -0.050214905
0.12000019 0.11768471 -0.16130267 -0.15913549 0.017962439 0.1392748 -0.17585738 -0.0039655757
-0.120121 0.16531804 -0.17101571 0.03662993 0.14995211 -0.12183851 0.029682592 -0.12581527
-0.13507055 -0.06541107 0.100369304 -0.14266887 0.07016746 -0.101025365 -0.09641018 0.09414656
0.05367161 -0.13061014 0.0671261 0.0937956 -0.011537805 0.12256775 0.009921894 0.15209422

lstm1_2.0.bias f4 [32]
00000000: 178f 31be 08a6 d93d 2c62 bc3d 50e1 873d
00000010: 7cde fbbd 9ac4 0cbd cd4b 0b3e ca13 00bd
00000020: d045 1dbe 1880 1d3d 78e2 ad3d 5fe4 583d
00000030: 2c3f 42bc c57c cb3d 20a9 df3d 4fff a93c
00000040: a1a3 12be 368d 64bc af02 473a 52fc bfbd
00000050: f0ab a2ba b925 8abd 6b6d 773c 3541 9ebc
00000060: a397 0ebd 4e08 46bd 07eb 053d d4f0 edbd
00000070: fb4e 8e3c d07d 33be 862a eb3d 07d9 fd3d
-0.1733974 0.10627371 0.09198412 0.06634772 -0.12298295 -0.03436718 0.13603134 -0.031268872
-0.15358663 0.038452238 0.08490461 0.052952167 -0.011855882 0.09935907 0.1092093 0.020751623
-0.14320232 -0.013949683 0.00075916474 -0.09374298 -0.001241086 -0.06745476 0.015101771 -0.019318203
-0.03481258 -0.048347764 0.032694843 -0.116182 0.017371645 -0.17528462 0.1148272 0.1239491
