results/voltage_window_effect/V(3.35-4.0)/Experiment2(10-CC-1)/from_Dataset 3_ft_model.pth (torch, 95756 bytes, 27 tensors)

cnn1.0.weight f4 [16, 1, 3]
00000000: 36ed 0b3f 4ea9 b9be c8aa ddbe ed69 79bd
00000010: 1031 4bbe 513b 47be dc45 88be 83a9 f63b
00000020: 7b34 4e3d a94e 02bf ff74 2e3e 3d57 953e
00000030: ccdf 11bf f86a 2dbe 9d33 dd3e 29be 0cbd
00000040: a855 053f 4320 0c3f e251 8e3e 25a5 0f3f
00000050: c567 c43e bc92 493e eb01 d8be b3b6 3bbe
00000060: c30c d2be 7233 ebbe 4b36 ea3e eb67 d2bd
00000070: df82 d73e 44bd 173f 1f4e 323f ddd7 c9be
00000080: 53b0 193f 15b9 e7be aedf a6be 237d 943e
00000090: 23ab 54be 91be e93e a28d a03d 1369 e6bd
000000a0: 439d 91be 7011 093f 6140 0abf 1bab cb3e
000000b0: 0c37 cfbe dcb1 e1be d213 d8be f82f 2a3e
0.5465883 -0.36261982 -0.43294358 -0.060892034 -0.19842935 -0.19456221 -0.26615798 0.0075275316
0.050343018 -0.50901276 0.17036818 0.2916812 -0.5698211 -0.16935337 0.4320344 -0.03436104
0.52083826 0.5473673 0.27796847 0.56111366 0.3836042 0.19684881 -0.42188963 -0.18331413
-0.4102536 -0.45937687 0.45744547 -0.10273727 0.42092034 0.5927317 0.69650453 -0.39422503
0.60034674 -0.45258394 -0.3259253 0.29001722 -0.20768408 0.45653203 0.07839514 -0.1125051
-0.28440294 0.5354223 -0.54004484 0.3977898 -0.40471685 -0.44081008 -0.42202622 0.16619861

cnn1.0.bias f4 [16]
00000000: a181 c7bd fd9c f33e 082f be3e ce28 153f
00000010: a6e1 41bc ed1e 953e 7f3e c9be 9f69 d23e
00000020: 61b4 29bd 7646 99be 99e5 97be 0cad 9e3e
00000030: 45ff e83e 7f71 853e f6d6 5e3e a571 bbbe
-0.097415216 0.4758071 0.37145257 0.5826539 -0.011833584 0.29125157 -0.39305493 0.41096207
-0.04143179 -0.2993657 -0.29667357 0.309914 0.45507255 0.26063153 0.21761689 -0.3661014

cnn2.0.weight f4 [32, 16, 3]
00000000: 6182 923d 0ae1 2ebc 461c dbbd 5372 e4bc
00000010: 7364 6abc 6bbb d23d 9ae3 153e 8940 ecba
00000020: eef3 e13d eb7d a13d a273 34bd 97e1 133e
00000030: 2793 4abd 42af 5dbd a10c 4c3d ced6 eb3d
00000040: 5bdb f33c 4e52 e83c 1acd 253c 43f6 b3bd
00000050: 0f2d c93d d727 713d c2aa e53d ab18 923d
00000060: a794 08be b1f2 f6bd 9e79 f3bd 43b2 503e
00000070: 5d65 203e 899c e63c c4e6 263d d02a 773e
00000080: 0688 36bc 27ac 523d d26b 193d dc76 113d
00000090: 1dde 5cbc 54ec cdbd e147 633d 336b 0a3e
000000a0: 3f3a 79ba 4b5d f23d ac5f 0c3e 8086 5f3c
000000b0: b83b 0bbe 6877 9e3d d0bd 243d cf38 f2bd
000000c0: 5590 29bd 8e2f a03d 84e1 babd 9ce9 91bd
000000d0: 3239 87bd 8dc5 c93d 44f2 2cbc cedf cabd
000000e0: 33c0 1f3d 2a72 803d deae 033e cda4 203d
000000f0: b291 1ebd 50cd f43c 4bfd c8bd 0f6f 053e
00000100: 5c03 cb3d ad0d d13d 72ed 383e acda 023e
00000110: b83c b3bd a9d4 0f3e 31ca f33d 80e6 8fbd
00000120: 1d53 583d 93a5 17bd 9eb0 803b 4196 443e
00000130: 9202 2c3d c941 95bd d82e 6f3c caa9 823e
00000140: 7209 403e 399f 0d3d e5d7 0e3d 4fe2 0cbe
00000150: 128a b63b 5896 74bd b2b9 e93d bfff 133d
00000160: cbff c03c 40bb fbbc f751 773c 25e8 073e
00000170: 9376 99bc 4d52 f03b 425a 5abc 407e 8abc
00000180: 0990 86bd 0afa 12be a58d 92bd 75c7 8abd
00000190: fb3c c63c 494e fb3b 5a8a f8bd 152a bb3c
000001a0: 02aa 77bc b98a d1bd 07f3 ba3d fec2 423d
000001b0: 3c44 c63d 34b0 82bd 2eb3 04bd 3112 eabd
000001c0: e424 0ebe a912 9e3d b1d6 ed3d 2e26 8dbd
000001d0: e72f 043e 62ce a2bd ba0e 0f3e 8a8d 2e3c
000001e0: f087 b0bd 8178 b13d 3817 873d 80a1 c43d
000001f0: 19db 76bd c1f7 e43d 4eba c0bd 664d a1bd
00000200: f705 e63d d5d2 6e3d 7e50 1ebd 9c05 f0bd
00000210: 4c55 b43d 499d ffbd 9c05 183d b61e 023e
00000220: 4bde 10be 7d92 853d 62be f53d 31a5 15bd
00000230: 1bf9 c4bd 3768 4d3d 0f13 963d 7744 5ebd
00000240: 0a73 9dbd 447b a53d 7b65 903d 1588 fb3d
00000250: 59ae afbc 7647 0ebe 255d c13d 9779 9dbd
00000260: 403f 63bd 4e2c a6bd 9696 b13d 01a6 e3bd
00000270: 3d40 fcbd b5a2 d9bd 884e 2abc bda6 003e
00000280: db10 b03d c14d 163c 6516 d13d be6f 083e
00000290: 4363 3e3e dd39 52bc 1757 813b 2a11 2abe
000002a0: b5e3 aabb efd1 81bd 8e44 433d ad81 b13d
000002b0: 69bc 053e 1d93 c8bc 283c 5e3d 475f ae3d
000002c0: b376 933e 5030 613d 6739 a3bc 2718 73bd
000002d0: 6c89 f83b fa27 cb3d a6cd 10be 6fd9 efbc
000002e0: 93f1 07be 8adf 2cbc ea2f 04bd 1114 ff3d
000002f0: b832 f3bd a2f4 483d 8640 07be 56eb a63d
00000300: 2ef6 77bd e81e bc3d aaa7 e0bd 5753 7fbd
00000310: 3164 0dbe 7189 f83b 2191 debd 7260 d93c
00000320: 405e 603d 455e 7b3d 3235 d43a 5476 6cbd
00000330: c9fd 9e3d 06a4 67bd 3c94 cc3c 6dd1 0fbe
00000340: 4a75 86bd ce71 5ebd f414 3a3c c687 b7bd
00000350: 995e 1a3d f7e5 c9bd 48fd 1cbd 2017 cebd
00000360: 7e7c 05be 3e8d ee3d 5fb7 57bd ba2b 583d
00000370: bf6d debb e47e e43d 1aa6 073d 5b47 49b8
00000380: 3e59 013e c2e5 0dbe ab6f 03be 4d2a b23d
00000390: 7034 563c afec 01be 1e8f a3bd de36 f33d
000003a0: 5ba6 babd 999f 443d 0ba8 03be ecaf 9bbd
000003b0: d639 8cbc 6ea9 123e 4ac5 c9bc 89bf 893d
000003c0: f306 003c febf a13c 6400 f23d 8fba 01bd
000003d0: 1ab1 4bbd 43c5 eabd 5e69 e63d 2b6f 0c3c
000003e0: 9e4d 183b 76dd dabc 7219 08be 8e4a 53bd
000003f0: a756 9cbd 4f36 32bd 604e eebd 6240 babd
0.07153774 -0.010673771 -0.10698752 -0.027886545 -0.0143061755 0.102896534 0.14637604 -0.0018024604
0.11032854 0.07885345 -0.04405559 0.14441524 -0.04945674 -0.054122217 0.04981673 0.1151558
0.029767683 0.028359558 0.010119701 -0.08787205 0.09823047 0.058875885 0.1121421 0.07133611
-0.13337956 -0.120580085 -0.11888431 0.20380501 0.15663667 0.028150814 0.04074742 0.24137425
-0.011140829 0.05143371 0.03745634 0.035513744 -0.01348069 -0.10054842 0.05548847 0.13517456
-0.00095072755 0.118342005 0.13708371 0.013642907 -0.13597 0.07737619 0.04022008 -0.11827242
-0.04139741 0.0782157 -0.09125045 -0.071246356 -0.06602706 0.09852133 -0.0105558075 -0.099059686
0.039001655 0.06271775 0.12859675 0.039219666 -0.038713165 0.029883057 -0.09813937 0.13030647
0.0991275 0.102076866 0.18059328 0.12778729 -0.087518156 0.14045967 0.11903799 -0.07026386
0.052813638 -0.03702314 0.0039273044 0.19197942 0.04199464 -0.07287938 0.014598571 0.25520164
0.18753603 0.034575675 0.03487386 -0.13758205 0.0055706585 -0.05971369 0.11412372 0.03613257
0.023559472 -0.030728936 0.015095226 0.1327215 -0.018733298 0.00733403 -0.013327183 -0.016905904
-0.06570441 -0.14353195 -0.07155923 -0.06776325 0.024199 0.0076692444 -0.121357635 0.022847215
-0.015116217 -0.10231537 0.09128385 0.04754924 0.096809834 -0.06381264 -0.03239744 -0.11429251
-0.1388126 0.07718403 0.11613215 -0.06892048 0.12908898 -0.07949521 0.13970461 0.010653863
-0.08619678 0.086655624 0.065962255 0.09601116 -0.06026754 0.11180068 -0.09410535 -0.07876091
0.112316065 0.058306534 -0.038650982 -0.1171982 0.088053316 -0.12481172 0.037114725 0.12707028
-0.14147298 0.06522081 0.11999203 -0.036534492 -0.096178256 0.050148215 0.07327854 -0.054264512
-0.076879576 0.08080152 0.07050606 0.12281815 -0.02144544 -0.13894448 0.09441594 -0.07689207
-0.05548024 -0.08113919 0.086713 -0.11115647 -0.1231694 -0.10626737 -0.0103947 0.12563606
0.08596965 0.009173811 0.102093495 0.13323876 0.18592553 -0.0128311785 0.0039471495 -0.1660811
-0.005215133 -0.0633887 0.0476728 0.08667312 0.13060154 -0.024484212 0.05425659 0.085142665
0.28801498 0.054977715 -0.019924833 -0.059349205 0.0075847413 0.09919734 -0.14140949 -0.029278485
-0.13275747 -0.010551343 -0.032272257 0.12454999 -0.11874908 0.049061425 -0.13208207 0.081503555
-0.06053751 0.091855824 -0.109694794 -0.06233534 -0.13807751 0.0075847437 -0.10867525 0.026535247
0.054777384 0.0613692 0.001619017 -0.057730034 0.077632494 -0.05655291 0.024973027 -0.14044733
-0.0656534 -0.05430775 0.011357535 -0.089614436 0.03768787 -0.098583154 -0.038327485 -0.100630045
-0.13035771 0.116480336 -0.05266511 0.052776076 -0.006787985 0.11157015 0.03311739 -4.798859e-05
0.126317 -0.13857177 -0.12835567 0.086994745 0.0130740255 -0.12687944 -0.07986282 0.118756995
-0.09113761 0.048003767 -0.12857072 -0.07601914 -0.017117422 0.14322445 -0.024630208 0.067259856
0.007814157 0.01974487 0.11816481 -0.031672057 -0.049729444 -0.11463406 0.11250566 0.008571426
0.0023239623 -0.026716929 -0.13290957 -0.051584773 -0.07633715 -0.043508824 -0.116360426 -0.09094311

cnn2.0.bias f4 [32]
00000000: c5ae 81bd eeb0 a13d 45df 61bd 9218 e23c
00000010: badc d63d 42c6 0d3b 977e b53d b1b5 fc3c
00000020: 15b3 0c3e 7f7b 95bc efa0 cd3b aef1 a23d
00000030: 7a71 9d3d 0bff 04be 0a0d be3d f78c abbd
00000040: c6f3 a6bd 5602 443d 82ab c8bd 0a86 b13d
00000050: 4d6a d0bd 2457 b9bd f28c 663d e84c d93d
00000060: 8cd3 d0bd ba77 30bd a635 d4bd 2d2b 80bd
00000070: 8692 9bbd 07be e8bc 35fe 3fbd 4f21 f2bd
-0.06332163 0.07895075 -0.055144567 0.027599607 0.10491319 0.0021633063 0.08862036 0.030848356
0.1374019 -0.018247364 0.0062752883 0.07956253 0.076876596 -0.12987916 0.09279831 -0.08376496
-0.08151965 0.04785379 -0.097983375 0.08668144 -0.10176525 -0.09049824 0.05628676 0.10610372
-0.10196599 -0.04308293 -0.10361795 -0.06258235 -0.075963065 -0.028410925 -0.04687329 -0.11822759

lstm1_1.weight_ih_l0 f4 [64, 32]
00000000: c7d2 56be fff4 7a3d 1884 403d f8d0 523e
00000010: 0079 be3b 00a4 cab9 65ee e0bc 7778 0d3e
00000020: 6550 643d c505 3fbd 51f5 263e 8cf4 c3bd
00000030: 2329 073e 6618 663e 3511 3dbd 3b76 383e
00000040: a314 c83c a058 d9bd e2ee 6dbd d9b1 153e
00000050: 4c17 283e 2094 743e 68f0 5e3e 2e10 3f3c
00000060: b420 17be 70f8 edbd 6d21 f83d 0ae9 4e3e
00000070: 66e5 b33e 7db1 31be f79a a6bd c8b0 573e
00000080: f391 6c3e 6f9f 833e 9c7e 3dbe d849 5b3e
00000090: 0074 293e 00ba f53a a8e4 ccbd 4d98 8c3e
000000a0: 7670 e63d c283 203e 8e04 523e e0fc 0cbe
000000b0: de2e 993d 1868 33bd 11a9 5bbe dad5 74bd
000000c0: 62bf d5bc 6b75 41bd 0197 5abd d0ae f63d
000000d0: 90b5 bbbd a0c3 2bbc db3f 213e 4782 9abd
000000e0: 584a 4d3d 24c5 0dbe b6c6 d1bc 7d8e 583e
000000f0: f013 3e3e c88c e03c d621 483d d055 b43c
00000100: 68bf b2bd c8f9 623e 6cc0 9a3d 3a6c 88bd
00000110: c026 5c3d c497 133e 7418 5bbe ee3c 4dbe
00000120: 7a7f 70bb 6cb3 0dbe a1cd 5f3e b73b 0d3e
00000130: 7a88 31be ac87 7cbe f890 e23b fe47 23bd
00000140: adfe 683e 55cf 413e 691c aa3d ea5a 2a3d
00000150: 50b6 a53d 0cf9 41be b041 333e b038 19be
00000160: f049 cbbc 1a83 643e 4f7d 5e3d 2a26 3abe
00000170: 8b91 b7bd f94e 123b e5f9 4c3e 6c83 febd
00000180: d2ff 7e3e 597f 7abe c4a4 b33d 03eb 6ebd
00000190: c6f0 4abe c009 5b3e f685 043d ac68 0abe
000001a0: 1ae1 d43d c0a3 6a3e 59ca 50bd 31c9 613c
000001b0: fd51 903d 785a e13d bad7 89bc 3207 ee3d
000001c0: 4164 c23c be43 2dbe 3b10 d13d 24ce 483e
000001d0: ccc9 07be 00aa f53d 328d 8bbd 80df e23d
000001e0: 4827 cbbd 28d1 e7bd 59c8 ebbd 70bb 143e
000001f0: 64d7 763d 5f09 a1bd 7322 6d3e c870 753d
00000200: 344b b43d e649 27be d2ee 023e 4c89 02be
00000210: e0a0 06be 7018 753e 8b3c 483d c31b a13d
00000220: 9e10 01bc 0f5c 2cbd 3e51 54bd 6631 64be
00000230: 6640 83be 94f7 ee3d 8fd5 81be ac5d 023c
00000240: 34fb 0ebe 7b24 c83d 1792 d5bc 4504 fb3d
00000250: 6ea3 5a3e 2cb7 eabd fae0 d6bd 7809 bdbd
00000260: 8ca0 143e aa26 793e 19a1 b33d 3ac4 04be
00000270: 7930 57bd 7f8a 443e 6565 6f3e 4811 a3bd
00000280: 65a3 383d 4a83 6cbe e483 d23d 4938 f33c
00000290: c4c3 693e a04d ea3d a9ad a0bd 6521 35bd
000002a0: 10cf 62be 39eb 253d d899 6e3e 5820 e03d
000002b0: 6a85 1bbd 62cb 5a3e f996 5dbe 2bce 31be
000002c0: 2d81 cbbd 63b2 e03d f716 a5bd 6186 e03d
000002d0: 6c6e 12be a8d7 b2bd e314 26be 1085 5ebe
000002e0: 2063 dd3c c86d 39be 8c24 c3bd 7ad4 2d3e
000002f0: 7e6f 3c3e d214 84bd 841c 373b 24fd acbd
00000300: fdc6 c33d d78d f2bd fc2e febd 733e 473c
00000310: 00d8 6eb9 0ca9 2a3e fe0c f73d 08c2 70be
00000320: 2180 49be 7e05 f83c 8d7f d93d d1de 333e
00000330: acab 1cbe a4ab bebd ef33 003e 7a62 f23d
00000340: 8e19 303e ba34 e4bd 587e 913d e474 0b3d
00000350: 800a 5fbe 8af5 0d3e 68d2 01be 4251 2d3e
00000360: bc6e fcbd 20a6 51bd c51c 15be f242 a13d
00000370: 77d5 933d 2f7e 13be effe 33bd a692 2fbe
00000380: e600 c03d fe1e 95bc 20d3 033c 4d2a 963d
00000390: 0436 6b3e 9cf9 c6bd 18b9 45bd 94f4 093e
000003a0: beed 303e e4cf 2bbe 8934 23be 4471 693e
000003b0: c8d4 e03d 60eb d5bd e5df aebd e955 6b3e
000003c0: 92f6 223e a20b 423e 8b68 10be 0e4b f33d
000003d0: fcb5 4b3e a4f9 70be 971d e3bd a256 0fbc
000003e0: c0ff 853c 6049 0a3c 46cf 9a3d a6eb f2bd
000003f0: 94eb f9bd 5fec 773e 87ce 5a3e 3c98 c9bd
-0.20978843 0.061268803 0.047000974 0.20587528 0.005812764 -0.00038650632 -0.027457425 0.13815485
0.055740733 -0.04663636 0.16304518 -0.09568128 0.13199286 0.22470245 -0.046158988 0.18013851
0.024423903 -0.10612607 -0.058089145 0.14618625 0.16415137 0.2388463 0.21771395 0.011661572
-0.14758569 -0.11619651 0.121157505 0.20206085 0.35135955 -0.17352863 -0.08135026 0.2106353
0.2310255 0.25707576 -0.18505329 0.21414888 0.16548157 0.0018747449 -0.1000455 0.27459946
0.11251919 0.15675262 0.2050955 -0.13768339 0.07479642 -0.043800443 -0.21451212 -0.059774257
-0.026092235 -0.04723112 -0.053366665 0.120450616 -0.0916549 -0.010483652 0.15747015 -0.0754438
0.050119728 -0.13844734 -0.025607448 0.21148105 0.18562293 0.02741088 0.048860393 0.022013575
-0.08727914 0.22165596 0.07556233 -0.066612676 0.053747892 0.14413363 -0.21396047 -0.20042774
-0.0036697076 -0.13837975 0.21855785 0.1379231 -0.17337218 -0.2466113 0.0069142543 -0.03986358
0.22753401 0.18926747 0.083062 0.04159061 0.08091414 -0.1894266 0.17505527 -0.14963031
-0.02481553 0.22315636 0.054318722 -0.18178621 -0.08963307 0.0022324903 0.20017202 -0.124274105
0.24902275 -0.24462642 0.08771661 -0.058329593 -0.1981841 0.21390438 0.032354318 -0.13516492
0.10394497 0.22914028 -0.050974224 0.013780878 0.07046888 0.11003584 -0.0168265 0.11622466
0.023729445 -0.16920373 0.10208174 0.19609886 -0.13260573 0.119953156 -0.0681404 0.110777855
-0.09919602 -0.1131919 -0.11512823 0.14524627 0.060264006 -0.078631155 0.23157673 0.05992201
0.08803406 -0.16336784 0.12786415 -0.12747687 -0.13147306 0.23935103 0.048885863 0.07866623
-0.007877497 -0.04207998 -0.05183529 -0.22284469 -0.2563507 0.116683155 -0.25358245 0.007956903
-0.13963014 0.09772583 -0.026070638 0.12256674 0.21351406 -0.114607185 -0.104921296 -0.09230322
0.14514369 0.24331155 0.08770961 -0.1296548 -0.05253646 0.19193457 0.23378523 -0.079622805
0.0450777 -0.23096958 0.102790624 0.029689925 0.22828585 0.11440587 -0.07845623 -0.0442213
-0.221493 0.04050753 0.23300874 0.10943669 -0.03796903 0.21366647 -0.21639623 -0.17363803
-0.09936748 0.109715246 -0.08061021 0.10963131 -0.14299935 -0.087325394 -0.16218905 -0.21730447
0.027024806 -0.18108284 -0.09528455 0.16975585 0.18401906 -0.06449284 0.002794058 -0.0844672
0.095594384 -0.1184346 -0.12411305 0.012160885 -0.00022777915 0.16666049 0.12063025 -0.23511517
-0.19677784 0.030276056 0.106200315 0.17565466 -0.15299863 -0.093100816 0.12519811 0.11835189
0.17197248 -0.11142869 0.07104176 0.034047022 -0.21781349 0.13863197 -0.1267792 0.16925529
-0.123258084 -0.05118382 -0.14561756 0.07874097 0.072184496 -0.14403604 -0.043944295 -0.17145786
0.09375171 -0.018203255 0.008045942 0.07332287 0.22969824 -0.09715578 -0.048272222 0.13472205
0.17278191 -0.16778523 -0.1593801 0.22797114 0.10978085 -0.10445285 -0.08538798 0.22981991
0.15914372 0.1894975 -0.1410238 0.1187955 0.1989364 -0.2353273 -0.11089628 -0.008748682
0.016357303 0.0084403455 0.075590655 -0.118613526 -0.12203136 0.24211262 0.21367846 -0.098434895

lstm1_1.weight_hh_l0 f4 [64, 16]
00000000: ab7f 3abe 839a 443e 1bad a03d 2cbf d63d
00000010: becc ee3d d59f 753c ad9d 6abe b33d fc3c
00000020: 7e5e 1cbe 313d bebd 5f0e 81be fd1f 7e3e
00000030: 6e7d 763e 99b2 5cbe 7e6d 3e3e 245b 073d
00000040: 23c1 47be a8a1 613e 95e2 553e 392f 853d
00000050: 83b5 8cbe 5f6c 3bbe e05b f4bd a793 13be
00000060: 7f38 b13d 4529 3c3e a42a 50be aca5 68bd
00000070: 130b 12be 632a cf3d e53a 21be 4c59 5b3d
00000080: f035 1b3e b2c9 0a3e f596 2f3d 1ddb 663e
00000090: 1835 563e 7c77 45bd 5e01 773e b799 273e
000000a0: 89bd 07be 8902 573e 08de 5f3e d0ae 86bd
000000b0: 5c57 d6bc 75d3 7dbe 40e4 7fbd 57ef b4bd
000000c0: a3b6 5d3d 19b0 883d b60e e13d c53b ee3d
000000d0: ded1 18be 6c44 ff3d a6cd 633e 6497 653d
000000e0: 76f0 463e 9b27 793e 3442 c43d e2af 2f3e
000000f0: cb54 823e d116 05be ce57 2fbd 9d91 13be
00000100: f9f6 8bbd 4783 81bd 7346 37be 1b97 94bd
00000110: 9e17 943d b5ee c03d fb70 543d 46e6 a3bc
00000120: e71e 7d3e b3f9 8ebd 7a2f 403d d194 a9bc
00000130: b7f0 dd3c acd0 c1bc a361 043d 23a9 7a3d
00000140: fb04 5cbe 05dc 40be 042c c93d 8ec9 1bbe
00000150: d9e2 573e 71ac 08be f847 67be 9d57 fd3d
00000160: d13b 523e bb59 2ebe 4f01 503d f129 d6bd
00000170: 8ec4 083d 0f28 44be 43bb 50be 01fa 1fbe
00000180: 185a 573e 4fef 13be cebc 8abd 4d68 033e
00000190: 8a7d 3a3c 7741 133d 3a5f aebc 9674 c23c
000001a0: 544b 3fbe 8304 033e 9b7b 9f3d f706 03bd
000001b0: 783f 373e 8038 393d 03cd d53c 5ecc d93d
000001c0: fe6e 7a3e 6ec8 1bbd 122c ecbd fa96 3f3e
000001d0: b21c d63d 1a73 ad3d 0f64 1bbe 5511 ddbc
000001e0: 4ba0 a23c fcda fa3c d621 abbd a898 3e3e
000001f0: 006e 423e f727 67be bce1 43bd 86f7 a1bd
00000200: de6b a6bd 010e 2e3e 8a0b 223d 7740 653e
00000210: cd18 2d3d f2e3 d03d d8b0 57be 7fd9 1e3d
00000220: 17d0 793d c8e8 273e 7f8a 223e 5229 ffbd
00000230: f062 073e b354 ccbd 7540 073e af1a 453e
00000240: df58 12be 4937 033e 9f42 2bbe 367c 513e
00000250: 2f9d a6bd 95bc 9ebd 1d0d a4bd 2df7 0d3d
00000260: d622 323d 5983 3cbd d978 23bd 5029 2ebb
00000270: cb1f 1fbe be41 aaba 82e0 8d3d 87a1 643e
00000280: 8fe3 6cbe c820 36be 4334 063e d4ba e93d
00000290: 6581 c43d 0fcb 97bd bd05 213e f090 08bc
000002a0: e0e9 76be f166 723e 7f91 3c3e 848a e6bd
000002b0: 0ed4 09bd b7ad 7dbe 253e 12be 20fc 853d
000002c0: 403f 0b3d fe0f 34be b27e 2fbe 0c1f 293d
000002d0: 3601 6abe ee44 3d3e 06c1 c539 8ad3 743e
000002e0: a1f9 ffba 5e06 033e a5d7 73bd 2418 c1bc
000002f0: 26b4 fe3d 734d 38be 4fd4 7b3e c19d 9c3d
00000300: 3bcd 153e 0f11 c5bd dffe a73d 5cfc 4e3e
00000310: 4145 833e f8f7 143e e92b a63d 2e6b 33be
00000320: 34f0 62be 844e 93be f5ba 5dbe 6f6d 5ebd
00000330: 8768 e63b d12f 47be b4e7 fe3b 1cd0 fc3d
00000340: 4270 483e 90e4 cdbd bb1c f0bb 530b 99bd
00000350: 4674 2fbe 9087 96bd f56a a5bd 24ff 433c
00000360: 37fe 3c3e f047 5c3d ed6a 483e 80bd ea3d
00000370: ed6b 293e aa64 4f3e 24eb 24be a516 58be
00000380: 8114 9abc c0bb ccbd 0cda 383e 42e8 11be
00000390: 7517 e2bc b71e 1f3e 68ca 6cbc 2788 6a3e
000003a0: d19e 9f3a 9f89 393e 54c8 3dbe 9108 5cbe
000003b0: 3c8d 29be 6d09 593e 986c 10bd a21d 65be
000003c0: 948e c1bd 23a3 53be e447 023d b7b1 33be
000003d0: a2a7 75be a6da 813d 24f7 84bd f428 26be
000003e0: 2f2d 593e 346c 28be c731 6bbe 8b83 21be
000003f0: f1cb 1bbe 4e76 21be 32de 933b d066 223e
-0.18212764 0.19199567 0.07845517 0.10485682 0.11660145 0.01499172 -0.22911711 0.03079114
-0.15270421 -0.09289015 -0.25206277 0.2481689 0.24071285 -0.21552505 0.18596455 0.033045903
-0.1950727 0.22034323 0.20887215 0.06503148 -0.27482232 -0.18303059 -0.11931586 -0.14411794
0.08653354 0.18375118 -0.20328766 -0.056798622 -0.14262037 0.101155065 -0.15745123 0.053551957
0.15157294 0.13553503 0.042868573 0.22544523 0.20918691 -0.048209652 0.24121615 0.16367231
-0.13255896 0.20997061 0.21862042 -0.065763116 -0.026164703 -0.24787696 -0.062473536 -0.08834713
0.054129254 0.06674213 0.10989134 0.11632494 -0.14923808 0.12464222 0.22246417 0.05605258
0.19427666 0.24331515 0.0958294 0.17156938 0.25455317 -0.12996985 -0.042808346 -0.14411016
-0.06834216 -0.06323867 -0.17897968 -0.072553836 0.07231067 0.0942053 0.05186556 -0.020007264
0.2471882 -0.0698122 0.046920277 -0.020700844 0.02709232 -0.023659073 0.032319676 0.061196458
-0.21486275 -0.18833931 0.098228484 -0.15213606 0.2108263 -0.13347031 -0.22586048 0.123702265
0.2053063 -0.17026417 0.050782498 -0.104572184 0.033390574 -0.19155906 -0.20383935 -0.15622713
0.21030462 -0.14446758 -0.06774293 0.12832756 0.01138247 0.035951104 -0.021285642 0.023737233
-0.18681079 0.1279469 0.07787248 -0.031989064 0.17895305 0.0452199 0.026098734 0.10634683
0.24456403 -0.03803294 -0.11531843 0.18709937 0.10454692 0.084692195 -0.15174888 -0.026985804
0.019851824 0.030621998 -0.08356063 0.18612921 0.18987274 -0.22573839 -0.0478227 -0.079085395
-0.08126043 0.1699753 0.039561786 0.22387873 0.04225998 0.10199727 -0.21063554 0.03878164
0.060989466 0.16397393 0.15873145 -0.12459053 0.13221335 -0.099770926 0.13208182 0.1924846
-0.14291714 0.12814058 -0.16724633 0.20457539 -0.08135449 -0.07750813 -0.08010314 0.034659553
0.043490253 -0.0460237 -0.03991017 -0.0026574917 -0.15539472 -0.0012989563 0.06927587 0.22327243
-0.23133682 -0.17785943 0.13105874 0.11412588 0.095949925 -0.07411777 0.15724845 -0.008335337
-0.24112654 0.23672082 0.18414877 -0.112568885 -0.033649497 -0.24773298 -0.14281519 0.0654223
0.033995867 -0.17584226 -0.17138174 0.041289374 -0.22852024 0.18483326 0.00037718582 0.23908821
-0.0019529351 0.12795398 -0.059531827 -0.023571081 0.12436704 -0.17998295 0.24592708 0.07647277
0.1462907 -0.09622394 0.0820291 0.20213455 0.25638774 0.14547718 0.08113844 -0.17521355
-0.22161943 -0.2877084 -0.2165335 -0.054303583 0.0070315036 -0.19451834 0.007779086 0.12344381
0.19574073 -0.100533605 -0.0073276437 -0.07472863 -0.17134199 -0.07350075 -0.08077041 0.011962686
0.1845635 0.053779542 0.19572039 0.114619255 0.16545077 0.20253244 -0.16105324 -0.21102388
-0.018808605 -0.09996748 0.18051928 -0.14248756 -0.027599076 0.1553906 -0.014452554 0.229035
0.0012178068 0.18118905 -0.1853345 -0.21487643 -0.16557783 0.21195002 -0.035259813 -0.22374585
-0.09451023 -0.206677 0.03180684 -0.17548262 -0.23989728 0.06340532 -0.06492451 -0.1622656
0.21208642 -0.16447526 -0.22968207 -0.15772836 -0.15214516 -0.15767786 0.0045125717 0.15859532

lstm1_1.bias_ih_l0 f4 [64]
00000000: f42e cabd 5acc 433e 1870 22be e638 5dbe
00000010: 7c4d e1bd 3c89 28bd 12fb 593e ed8d 4bbd
00000020: 98d1 fb3c 5d89 a63d 9f43 6e3e 4db0 32bd
00000030: 02ff 47be 8866 80be f052 fa3c 3ad6 0fbe
00000040: 047d 11bd d3c8 21bd 452e 40be 5e33 e7bc
00000050: ec2c 11be f2e9 56bd fc88 0b3d e326 61bd
00000060: a8b4 acbd c626 723e 28c1 213e 6302 a23c
00000070: 5e0a 77bb b01d 6cbe baaa 16be 93d0 a43d
00000080: 8706 31be 6088 2bbe b454 7b3e 4496 2b3e
00000090: 2862 32be 365e 51be 7a03 a0bd a5fb 543e
000000a0: f0b7 64be 5148 7c3e f76d de3c 17da 943d
000000b0: 0fd6 29be 9491 68be 1c81 88bd 509d 6a3e
000000c0: 5eed 00be 736a 37be 65f5 1cbe 1145 1b3d
000000d0: 315c 99bd f731 5f3e 3975 03bd c55e 613e
000000e0: 0359 46be 931b 373d 2e55 483d 3e50 8d3c
000000f0: 323c 25be ac57 d2bd d772 dabd f1fa bd3d
-0.09872237 0.19120923 -0.15863073 -0.21603736 -0.11001107 -0.041146502 0.21287182 -0.049695898
0.03073959 0.08131669 0.23267983 -0.043625165 -0.19530872 -0.25078225 0.030557126 -0.14046565
-0.035519615 -0.03949816 -0.1876765 -0.028222736 -0.14177293 -0.0524692 0.034066185 -0.054968726
-0.08432895 0.23647603 0.1579634 0.019776529 -0.0037695388 -0.230582 -0.14713565 0.08047595
-0.17287646 -0.16751242 0.2454403 0.1675654 -0.17420256 -0.20446095 -0.07813163 0.2079912
-0.22335792 0.24636962 0.027152045 0.0726816 -0.16585563 -0.22711784 -0.06665251 0.22911572
-0.12590548 -0.17911701 -0.15327986 0.037907664 -0.07488287 0.21796404 -0.032094214 0.22008808
-0.19369893 0.04470403 0.04890936 0.017250177 -0.16136244 -0.10270628 -0.10666435 0.09276379

lstm1_1.bias_hh_l0 f4 [64]
00000000: 7a49 233d a8ba 46bc 3264 47be 0402 753e
00000010: 0ac5 7cbe 2961 03bd 2e6f 75be 7806 323d
00000020: cad3 7d3c 7d52 1fbc 5703 6e3e 3ce7 93bd
00000030: a0d0 13be 3e24 3ebe 7bac 1bbe f0d9 963d
00000040: 43ec 69bb d8b7 2b3e b715 25be 477c a2bd
00000050: b0b8 79be ec13 8d3d e247 fd3d 9fbc 89be
00000060: 58ef 0c3d 16f0 05be 32c7 b8bd 235b 85be
00000070: 551c 1dbc d648 fd3d 4c21 0e3e 7904 ddbd
00000080: 7659 e13d f084 5ebe be89 353e b04a 74bd
00000090: 172b 90bd 388b 743e db15 50be 33bd 2bbe
000000a0: 1e8f 33be c2e1 87bd 1daa fabd 6221 413e
000000b0: 25b7 373e d35c 0a3d 9c77 b2bd 1404 57be
000000c0: 3518 7f3d afaf 5ebe e937 443e 5446 d9bd
000000d0: 0424 47be 394e 47be 4534 c7bc 634e 21be
000000e0: 9a16 92bc 4e20 183e 5a0c 3b3e 05cb 49be
000000f0: 0d33 863e 4a25 5fbe 5a6c 653e 014d 093e
0.039864995 -0.012129463 -0.19471815 0.2392655 -0.2468454 -0.03207508 -0.23968193 0.0434632
0.015492389 -0.009724257 0.23243462 -0.07221839 -0.14435053 -0.18568513 -0.15202515 0.07365787
-0.0035693801 0.1676935 -0.16121565 -0.0793386 -0.24386859 0.068885654 0.12367226 -0.2690172
0.034407943 -0.13079867 -0.090223685 -0.26046094 -0.009589274 0.12367408 0.13879889 -0.10791869
0.110033914 -0.21730399 0.17728326 -0.05964154 -0.07039469 0.23881233 -0.20320837 -0.16771393
-0.17535064 -0.06634857 -0.12239478 0.18860391 0.17940958 0.03377993 -0.0871422 -0.2099765
0.062278945 -0.21746705 0.19161953 -0.10609117 -0.19447333 -0.19463433 -0.024316916 -0.15752558
-0.017833043 0.14856073 0.1826643 -0.19706352 0.26210824 -0.21791568 0.22404614 0.13408281

lstm1_1.weight_ih_l0_reverse f4 [64, 32]
00000000: 8916 03bd 480e 083e 9a49 313e de45 053e
00000010: 1e65 2fbe 2086 e03c 3daa 003e 9d09 0cbe
00000020: fe08 2cbd b415 49be 8c77 6cbd d8e1 4ebe
00000030: 4bdf 133e 5034 d13d c0db 953e b9a7 f23d
00000040: 6854 703e 3ac1 513e 9e3f b03d fea4 843e
00000050: 42fd 7ebe 4013 f8bb fabb 1bbe e2dc 2e3e
00000060: dc2e 4c3e 0c86 e23d e84f b33e 17af 73be
00000070: 1557 3ebd 81fd 0cbd 4e83 5d3e fc58 c73d
00000080: 27d3 103d 59f0 70be ac47 acbd 6ef8 2a3e
00000090: 08ce d8bd 244f 8bbd 2ddf 8cb9 cafb 0c3e
000000a0: 8935 ad3d 0637 ef3d 4c8f 723e 8715 47be
000000b0: 3b39 7dbe c405 f83d f32a 943d 08ce 5cbe
000000c0: 2378 09be bfcc 74be 46e5 bebd e097 583e
000000d0: bc24 393e 8cb2 d8bd c013 933d 62b9 cebd
000000e0: 084f 17bd a424 a83d 68cf dd3e d690 d93d
000000f0: cdba 8f3e 739d 73be 2b70 153e 0204 23be
00000100: d22e d23c d3b7 1bbe 0019 77be 254f 7d3e
00000110: 2830 64bd cc7b 87bd 587b 6fbe bce5 503d
00000120: 2340 783e f7d6 373d f91c 8dbd f034 da3d
00000130: 7251 693e 0020 5d3c 0763 01be b34d b03d
00000140: 5b29 8abd 7ebf abbc 430e bdbd f49c 1f3e
00000150: e84c 0bbe a2e2 1e3e c123 9f3d 16a1 27be
00000160: 7292 583e 76c0 7fbe 7fd0 833e a3de 1b3e
00000170: 31f4 603e 6a2d b1bd f056 f13d 98ae 043e
00000180: 5f6c a8bd a73e 1ebd baf5 67be 9d07 023e
00000190: dc92 d73d b074 45be 0f06 573e ff87 3c3e
000001a0: a10b 55be 5913 51be abde 1e3e a61a 6a3e
000001b0: 568d 0bbe a697 35be 590a 833e 95e5 48be
000001c0: d1f0 ce3d f623 513e 9f76 0bbe aee7 0fbe
000001d0: e665 1fbe a0e7 433d a58b 1d3d 79dc 29be
000001e0: 5e56 4b3e 18b3 b1bd 25c8 413e 0630 423d
000001f0: babb 22bc 9ba8 603e ca06 473e 12d7 113e
00000200: ce36 853e 0034 253d cacc 3ebe 5e7b b13e
00000210: 169f 55be 4e06 643e a6ba fb3d f867 703d
00000220: da34 ba3d f61d 4fbd cfcb 323e c3a7 693e
00000230: 9355 e03c 183d 51bd 4e8b 82bd 4baa 393e
00000240: 3b46 203e edf5 163e d038 633c 6559 d83d
00000250: 96bf 383e 0034 e0bc e224 8dbc 2357 4ebe
00000260: ce5b 71be 6281 173e 7e60 23bd f32e 7ebe
00000270: 5e3e 4f3e 4290 4abe fe43 7f3e f0e8 013d
00000280: 5528 89bc 95a7 123c caed 50be 9104 80bd
00000290: 32d4 1abe 38fc 473d a265 05be 7c3f 0cbe
000002a0: 1427 d4bd f56e 06be ce33 4f3e b2c4 c63d
000002b0: 97df aa3d b81c 63bd 2cd1 983c 18b7 09be
000002c0: 0151 0c3d d78e 473d f019 b8bc 36d9 6c3e
000002d0: 12bf 7cbe 4087 bc3d 2e0c 7b3e caa4 84bc
000002e0: 06f5 553e 7eae 583e 4bc0 033e 8638 3a3e
000002f0: f2b7 213e 62e4 5d3e 9170 923e 8016 4c3d
00000300: dad0 2bbd a383 b93c 7ee1 793e 2058 c23d
00000310: 2200 213e 047a 183e e076 60be 3c2e 473e
00000320: 6211 e13d f0cf 673e a0e1 413e 3bde 7a3e
00000330: c967 a53d a278 14be 733b 09be 988a 1fbe
00000340: 470f fabd 2c30 87bd e9b0 143d eacf 203e
00000350: 18df 153d 48c8 f63d eb86 2bbe 1cde 403e
00000360: 3872 b73d 2032 6cbc 8e3f 363d c818 dcbd
00000370: 1f54 143e d41b 9a3d 095a 123e d280 18be
00000380: 9206 033e 831c 383e 642f 883d 93dd 4f3e
00000390: 284b 313e 6056 32bd 5102 4fbe 6986 823e
000003a0: 59af 213e 7f93 12ba ddf0 043e 1ac4 a4bc
000003b0: 0388 21be e8a9 51be f454 f53c 84ca e6bb
000003c0: 67b2 163d ed4e 2abe 0de4 2dbe b332 aabd
000003d0: 6853 09bd e0d8 ca3c 3d80 583e deac 293e
000003e0: d03d 67bd 0a09 2abe 1fc4 20be 5bcd 403e
000003f0: eabe 703e 2576 603d b772 cd3d 00ba 0dbb
-0.032003913 0.13286698 0.17313233 0.13014933 -0.17128417 0.027407706 0.12564941 -0.13675542
-0.042000763 -0.19637185 -0.057731196 -0.2020334 0.14440648 0.10215056 0.29269218 0.11848397
0.23469698 0.20483866 0.08605884 0.2590713 -0.24901298 -0.007570654 -0.15208426 0.17076448
0.1993975 0.11060724 0.350219 -0.2379726 -0.046469767 -0.034421448 0.2163212 0.09733769
0.03535762 -0.23529185 -0.08412108 0.16696331 -0.10586172 -0.06802204 -0.0002686916 0.13767925
0.08457477 0.11680417 0.23687476 -0.19441806 -0.24728863 0.12110475 0.072347544 -0.2156297
-0.13424735 -0.2390623 -0.09321074 0.21151686 0.1808042 -0.1058093 0.071815014 -0.10093953
-0.036940604 0.08210114 0.433223 0.106233284 0.28072205 -0.23790531 0.1459357 -0.15919498
0.025657091 -0.15206842 -0.2413063 0.24737222 -0.055709988 -0.06615409 -0.23386896 0.05100034
0.24243216 0.04488274 -0.06890292 0.10654628 0.22784975 0.013496399 -0.12635432 0.0860857
-0.06746169 -0.020965334 -0.09231236 0.15587217 -0.13603556 0.15516141 0.077704914 -0.16370043
0.21149614 -0.24975762 0.25745007 0.15221648 0.21968152 -0.0865124 0.1178416 0.12957227
-0.08223795 -0.03863397 -0.22652331 0.12698217 0.10526058 -0.19282794 0.20998405 0.18411253
-0.20805217 -0.20417537 0.15514629 0.22861728 -0.13628134 -0.1773363 0.25593832 -0.19618829
0.10104526 0.20423874 -0.13619469 -0.14053223 -0.15566215 0.047828317 0.038463254 -0.1658801
0.19857165 -0.086767375 0.18924005 0.04740908 -0.009932453 0.21939318 0.19436184 0.14242199
0.26018375 0.040332794 -0.18632808 0.34664434 -0.20861468 0.2226803 0.1229146 0.058692902
0.09092112 -0.050565682 0.1746056 0.22817902 0.027384555 -0.051083654 -0.063742265 0.18131368
0.15651791 0.1474225 0.013868526 0.10563926 0.18041834 -0.027368546 -0.017229501 -0.20150428
-0.23570177 0.1479545 -0.039886944 -0.24822597 0.20238635 -0.19781592 0.2492828 0.031716287
-0.016742865 0.0089510875 -0.2040321 -0.06250871 -0.15120009 0.04882452 -0.13027051 -0.13696092
-0.10359016 -0.13128264 0.20234606 0.097054854 0.08343428 -0.05544731 0.018654428 -0.13448751
0.03425694 0.048720207 -0.022473305 0.23129734 -0.24682263 0.092054844 0.24516365 -0.016191859
0.2089425 0.21160313 0.12866323 0.18185624 0.15792826 0.21669152 0.28601506 0.049826145
-0.041947223 0.022645777 0.24402425 0.09489465 0.15722707 0.14890295 -0.21920347 0.19451231
0.10989644 0.22637916 0.18933725 0.24498837 0.08076436 -0.14499143 -0.13401584 -0.15580213
-0.12209945 -0.06600985 0.036301527 0.15704313 0.036589712 0.12049919 -0.16750686 0.18834728
0.089573324 -0.014416248 0.044494204 -0.10746914 0.14485215 0.07524839 0.14292158 -0.14892891
0.12795475 0.17979626 0.06649664 0.20299368 0.17313826 -0.043539405 -0.20215727 0.25493172
0.15789546 -0.00055914366 0.12982507 -0.02011304 -0.1577454 -0.2047497 0.029947735 -0.0070431847
0.03679123 -0.1663167 -0.16981526 -0.08310451 -0.033526808 0.024761617 0.21142669 0.1656985
-0.056455433 -0.1660501 -0.15699814 0.18828337 0.23510328 0.05480017 0.10031646 -0.0021625757

lstm1_1.weight_hh_l0_reverse f4 [64, 16]
00000000: b0bb 0b3e 5511 c13d 52ed 52bd ff6d 8c3e
00000010: 4c61 803e a463 623e 75fa bbbd cb91 353d
00000020: a58c f23c 735a 8fbd 8f3b 6dbb afbb ff3d
00000030: a99e 5fbd 6ea4 07be 99f5 163e f7dc 0d3e
00000040: 53e2 ac3e 6fe0 783e b17c 8b3d 3f08 0ebe
00000050: ab7a 193e 0f83 0e3e 4b1c 17be 99ee 60be
00000060: 4588 16be 5336 e23d 50f3 8c3e 07b8 5f3e
00000070: e2a7 8c3d 59f5 743e e5ca 8dbd 1d06 0f3e
00000080: 683e cebd 678e 38be fd31 68be f9f1 553e
00000090: ed26 5abe a1b3 c53d 0ba1 1e3e bfb3 29bd
000000a0: 49ef 79bd 0371 3abd 7a05 b2bd ebe6 53be
000000b0: b249 ef3d 450a 623e 26dc babd 3e19 15be
000000c0: 6a9e f8bc e280 33be b141 6cbe bd52 56be
000000d0: 1c56 59be f606 d0bd 0f59 13be 84fb 40bd
000000e0: 58dd 033e 51fb 60be 49d3 653d 8089 eebd
000000f0: 397b 45be e207 3bbd c2d8 26be 7552 21bc
00000100: e601 eaba 1021 3a3e 4526 173e eef0 00be
00000110: c5d0 4bbd b3e8 e73a 9a6f 1e3e 8abb 28be
00000120: ca2f 52be ab1c 62be 1963 1cbe 5a30 fbbd
00000130: e840 3ebe a4ff 03be 756d f7bd a7a6 1fbd
00000140: ee57 05be b819 ad3d 8aa9 19be ba36 893d
00000150: 922c 74bd a251 c93d fa8b eabd 520e 913c
00000160: a56b 963d aa7e 03be 5189 883e e25a e8bd
00000170: 30aa 853d 017a a13d ce22 1dbe 35bd 3f3e
00000180: 66c7 94bd 16d4 e7bd c51e e33d 4596 15be
00000190: b8a8 cbbd 1586 aabc 3324 ee3d 834d 11bc
000001a0: 94b8 753d c087 023e 10c1 64be 9656 2e3e
000001b0: 489b 9a3d b7c3 00be bd71 edbc 30ee 34bd
000001c0: 38b9 80be 1f1d 393e 8506 2abd 4927 273d
000001d0: 1d4b 2fbd 39ab 1fbc dc5d 823e 079f 943c
000001e0: a342 77bd eaba c3bd 8846 743e b0de b93d
000001f0: 6d28 c4bd 19ae f9bc 23d7 69bc f12c c03b
00000200: aad9 88bd fcbf abbd 36f1 b9bc 944b c1bc
00000210: 3e0c 83be 9469 0f3e 39d2 2a3e 549e 35bd
00000220: d201 6fbe df8e e9bc 885b 803d b5fb 363e
00000230: 556a 383e 142e 96bc 45d3 5f3c db9d 4abe
00000240: 25c2 153e 38d3 1fbe 34db 52be 7263 07be
00000250: aa82 36be 01fc 883d 64fa 2ebd 62d5 913d
00000260: d9db 96bb b78f 85bd 3693 43be dd10 0abe
00000270: 79d3 a4bc 987a 143e 03f4 27be dc31 a13a
00000280: d0b4 6bbd dec0 a3bd e69b 41be 7b57 6e3e
00000290: 8049 713e 2f52 c13c 57af 92bd e7c4 44ba
000002a0: dbdd 673c dff4 223e 79f5 4f3e 96fa 563e
000002b0: ed6a 843e f309 a63d b98f 2b3d 4853 34bd
000002c0: 94b2 c73d 0478 4f3d 7c42 87be 2c14 e5bd
000002d0: 7340 99bd 8f8e 663d 399a 8ebb 2d67 003e
000002e0: df2d 3fbd 529d 443e f8b4 b23b 65f9 1f3e
000002f0: 0afe 413e da0a 1b3e 62a2 dcbb e3ca 843d
00000300: 6311 42bc 6098 54bd 9d8f 11be ebdd 353e
00000310: 285c 313e df18 433e f5a9 583e aa15 01be
00000320: c29e 1c3e 7a57 b1bd ec5a e8bd bd26 7dbe
00000330: 7503 7bbe a5c5 62bc e1c8 67be 508a 9e3c
00000340: 0f85 f4bc 7586 793d 6821 a13d 874f 5f3e
00000350: 0472 393e f4db 563e b122 083e 537f 203e
00000360: 196c 62be 00f5 883c 61b8 883e cc9d 88be
00000370: 5a06 e4bd a531 8d3e 4a6d b0bd 2ae9 fd3c
00000380: ad22 cabd 36be 92be 264f c03c 1620 1bbe
00000390: 1dd2 033e c6d0 35be 8d30 0bbc 07f9 a33c
000003a0: a204 843d 28ab a33d 4437 163e 954f 833e
000003b0: 15c4 fcbc 645d 613e 75c4 fd3c 1286 593c
000003c0: f02b 503e 4a96 26bd daf4 ed3d 5f0f 07be
000003d0: dea0 81bd c7c8 ccbc 9ab8 94bc 4872 063e
000003e0: 9af8 67be bf1e 48be 9ec1 043e 41a3 1fbe
000003f0: 9148 dabb 23ff bcbd efbc 553e edaf c4bd
0.13645816 0.09427134 -0.051495858 0.2742767 0.25074232 0.22108322 -0.0917863 0.044328492
0.02960808 -0.06999674 -0.003619883 0.1248697 -0.05459467 -0.13246319 0.14742126 0.13853823
0.33766422 0.24304365 0.068108924 -0.13870333 0.149882 0.13917182 -0.14756887 -0.21966018
-0.1470042 0.11045518 0.27529383 0.21847545 0.068679586 0.23921718 -0.06923465 0.13967176
-0.10070497 -0.18023072 -0.22675319 0.20893086 -0.21303912 0.09653402 0.1549112 -0.041431185
-0.061019216 -0.045517933 -0.08692451 -0.20693557 0.11683978 0.2207423 -0.09124021 -0.1456041
-0.030348975 -0.17529634 -0.23071934 -0.2093 -0.21224254 -0.10157578 -0.14389442 -0.047114864
0.12877405 -0.2197087 0.0561097 -0.1164732 -0.19285287 -0.045661815 -0.16293624 -0.009846319
-0.0017853349 0.18176675 0.14760692 -0.12591907 -0.049759645 0.0017693251 0.1547226 -0.1647779
-0.20526043 -0.22081248 -0.15272178 -0.12265082 -0.18579447 -0.12890488 -0.12081424 -0.03897729
-0.13021824 0.08452171 -0.1500608 0.066998914 -0.059612818 0.09830023 -0.1145248 0.017707024
0.0734475 -0.12841287 0.26667264 -0.113454595 0.06526601 0.078845985 -0.15345308 0.1872452
-0.07264595 -0.11319749 0.11089853 -0.14608105 -0.0994429 -0.020815888 0.11627998 -0.008868578
0.05999048 0.12747097 -0.22339272 0.17025217 0.07549149 -0.1257466 -0.028984899 -0.044172466
-0.2514131 0.18077515 -0.041510124 0.04080895 -0.042796243 -0.0097454125 0.25462234 0.018142236
-0.060366284 -0.095571354 0.2385503 0.090756774 -0.09578023 -0.030478524 -0.014272484 0.0058647324
-0.06682141 -0.083862275 -0.022698026 -0.023595609 -0.25595278 0.14005119 0.16681756 -0.044340447
-0.23340538 -0.028510509 0.06267458 0.17869456 0.18009312 -0.018332519 0.01366121 -0.1978678
0.14624842 -0.15607917 -0.20591432 -0.13221529 -0.17823282 0.06688691 -0.04271926 0.07120778
-0.0046038446 -0.06521552 -0.19099125 -0.13482995 -0.02012037 0.14499891 -0.16401677 0.0012298184
-0.057545483 -0.07995771 -0.18907127 0.23275559 0.23563194 0.023598759 -0.0716235 -0.00075061474
0.014152016 0.15913723 0.20308484 0.20994028 0.25862828 0.081073664 0.04188511 -0.044024736
0.09750858 0.050651565 -0.2641791 -0.11185488 -0.07482996 0.0562883 -0.004351881 0.12539358
-0.046674605 0.19200638 0.005453702 0.1562248 0.18944564 0.15140858 -0.0067332247 0.0648401
-0.011844966 -0.05190313 -0.1421494 0.17760436 0.17320311 0.19052456 0.21158583 -0.1260592
0.15294936 -0.08659263 -0.11345467 -0.24721809 -0.24513038 -0.013841067 -0.22635223 0.019353062
-0.029848604 0.060919244 0.078677 0.21807681 0.181099 0.20982343 0.13294484 0.1567357
-0.22111548 0.016718388 0.2670317 -0.2668289 -0.11134024 0.27576938 -0.08614595 0.03099497
-0.09869895 -0.28660744 0.02347524 -0.15148959 0.1287312 -0.17755422 -0.008495462 0.020016206
0.06446196 0.0799163 0.1466952 0.25646654 -0.030855218 0.22008282 0.030977467 0.013276594
0.20329261 -0.04067067 0.11618967 -0.13189457 -0.06329511 -0.024998082 -0.018154431 0.13129532
-0.22653428 -0.19542979 0.12964484 -0.1558962 -0.0066614826 -0.09228351 0.20872854 -0.09603868

lstm1_1.bias_ih_l0_reverse f4 [64]
00000000: 3ea8 3e3e e4d2 b7bd eca0 35be 167b c7bd
00000010: b070 68be 4878 7c3e 8e02 f7bc b7a7 2b3e
00000020: 5c3c 6a3e 42f7 2abe 5629 413e 545c 4ebd
00000030: ba93 3bbe 2537 263e 633d aabd e078 8b3d
00000040: e0c3 3b3d 7fba 44be a104 523e 7bb7 ccbc
00000050: 2131 7b3e 45da 353e b981 6b3e 2325 25be
00000060: e1da 36be d589 303e 64b3 1abe 5732 c83d
00000070: 1ef1 9fbd c04a 743e 66b4 d8bb a20c 613e
00000080: 002b 173d a4a3 db3d 3a84 0bbd fbe0 643e
00000090: 1bad 8fbd 5872 d1bd a254 52be e9e4 d4bb
000000a0: 6454 e93d a0a7 a3bc 3c34 86bc 9d6f 053e
000000b0: c83f 6cbb d58a 3ebe 42bb 25be f6bb 36be
000000c0: ff97 a43e f5a5 04bc 0233 8bbc 3b43 3dbd
000000d0: ef47 e6bd cf1d 793e 8a6e 733e 9971 97bd
000000e0: 669e 733e ac05 35bd 664e 27be 6dfb 49be
000000f0: 24cb 40be 2498 fc3d bbe0 223c a01b 10be
0.18618867 -0.08975771 -0.17737168 -0.09740274 -0.22699237 0.24655259 -0.030152585 0.16763197
0.22874588 -0.16695884 0.18863425 -0.05038102 -0.18318072 0.16231973 -0.0831249 0.068101645
0.045841098 -0.19211768 0.20509578 -0.024989834 0.2453046 0.17759044 0.22998704 -0.16127448
-0.17856933 0.17240079 -0.15107495 0.097752266 -0.07809661 0.2385664 -0.006613302 0.21977475
0.036906242 0.10724571 -0.034061648 0.22351448 -0.07015439 -0.102268875 -0.20540097 -0.006497015
0.11393049 -0.01997739 -0.01638233 0.13030858 -0.0036048759 -0.18607648 -0.16184714 -0.17845139
0.32147214 -0.008096208 -0.016992096 -0.046206694 -0.11244189 0.24327777 0.23772636 -0.07394714
0.23790893 -0.044194862 -0.163385 -0.19724818 -0.18827492 0.12333706 0.009941275 -0.14073038

lstm1_1.bias_hh_l0_reverse f4 [64]
00000000: a57f c1bd 3d1f 34be 60ce 07be 3e60 dc3d
00000010: 0478 5dbe 6c09 493e b45c 62be db20 13be
00000020: 3e22 21bd 7838 e4ba 2ca8 853e 5c43 8a3e
00000030: b6f6 17be cbd8 db3d 4e06 7ebe f64a 76be
00000040: 67ee a93e bf3e b43c 8c91 05be fbf7 bfbc
00000050: a50f 263e 0be8 2ebe 9794 c93d 025b d23b
00000060: 0ddf c53d 4e68 6a3d d0cb 58be b557 2cbe
00000070: 22f1 fbbd 1616 ae3d ad41 32bd a0c7 fbbd
00000080: 8d61 413e 9d2c af3c 1109 4abd 8bb3 3e3e
00000090: ebb8 84bd d43a 22be e562 0abe 16b7 8c3d
000000a0: 254c 723e a9b3 00be fe06 61be 9d08 47be
000000b0: 84df 30be 875d 32bd 7825 3fbe 9b4d 7d3d
000000c0: 803a 543e e197 5e3c a1d3 42be 3850 65be
000000d0: 34e4 343e 171e d63d 4d54 bcbc 9727 243e
000000e0: f0f1 0f3e 28a9 7bbd 7014 313e e2d8 133e
000000f0: 5e57 4d3e 3c37 a6bd 06b3 b63d 622c 233e
-0.094481744 -0.17590041 -0.1326232 0.10760544 -0.21627814 0.196325 -0.22105676 -0.14368002
-0.039339297 -0.0017411849 0.26104867 0.27004516 -0.14840207 0.10734709 -0.24807093 -0.24052033
0.331897 0.022002576 -0.13043803 -0.023433676 0.16216905 -0.17080705 0.098427944 0.0064195404
0.09661684 0.05722838 -0.21171498 -0.16830333 -0.12301852 0.08500306 -0.043519665 -0.12293935
0.18884869 0.021383578 -0.049325053 0.18623178 -0.06480583 -0.15842754 -0.13514288 0.06870858
0.2366186 -0.12568535 -0.21975324 -0.1943688 -0.17272764 -0.043546226 -0.18666637 0.06184159
0.20725441 0.013586015 -0.19026043 -0.22393882 0.17665178 0.10454958 -0.022989416 0.16030727
0.14057136 -0.061440617 0.17292953 0.14438203 0.20052859 -0.08116004 0.08920865 0.159349

lstm1_2.0.weight f4 [32, 32]
00000000: 74c6 3dbe d737 c23d 28a5 823d 6902 253e
00000010: 1cda 123e ce84 d63b 8ed7 1abd d3da 14be
00000020: 8479 933d 7667 853d c50f c3bd 33a6 1cbe
00000030: a4dd 233d 8a17 083e 2e6b a2bc bcb2 06be
00000040: 3689 ad3c 37a2 753d af5b 043e b08f 9cbd
00000050: b053 863d 46a6 8c3d 64ec cb3c cf80 3b3d
00000060: d72e 3a3e 81ea 383d 0efc 563d 88ab 1e3c
00000070: 782a 13be bb00 e23c ffd8 113e c226 dcbd
00000080: 5668 25be 1176 9b3d a456 92bc bb36 e8bd
00000090: 80e4 4fbc a2df 003e 1acd 193e 1861 da3d
000000a0: 59f6 b4bc a525 d7bd ed49 cabd 3d3d d0bc
000000b0: 76ec 96bc 0a8d be3b 38b0 df3d d86b 133c
000000c0: 9ceb 30be 3b5a 153d 379b ac3c d4bc 9abd
000000d0: 4a81 2bbe 4880 113d 615f 183e 94b3 0abe
000000e0: b9ad bfbd 2d51 bebd 51d3 a3bd 2a1a 09bd
000000f0: 56b4 283e 377d 083e 61c6 013e 276c b63d
00000100: 8dbd 80bd becf 083e 5e3f 97bd 9133 04be
00000110: 8b83 9c3d 0c09 b3bd 5734 fa3d 27f6 d6bd
00000120: e804 953d 3ca5 303e b88b 0bbe 24a7 d9bd
00000130: 1ac1 f53d ed9b ff3d 1309 ae3c ef33 313e
00000140: d4ee aabd e254 fbbb ae31 27be 02e1 5cbd
00000150: 791b e6bc 3352 22be 3334 cdbd c449 213e
00000160: 8562 33be 6154 b53d acbe 6cbd edc7 43bd
00000170: 37ac aabd c2f4 9a3d f726 e4bd 7c25 d33d
00000180: 65d7 693d a329 a73d 1bb8 c7bc 8cd5 103e
00000190: 8cd1 163e eb19 b3bd a792 8e3d 0b18 17bd
000001a0: 5739 8d3d 84b7 c63c a6f4 0a3e d73d 0d3e
000001b0: 91d3 2f3e cf1f eebc aad4 e7bd 4b4c 9bbd
000001c0: 96b3 14be 72b2 373d c89a 91bb 6b65 d83d
000001d0: 0cd0 883d c560 23bd 95b6 343e 4109 0c3e
000001e0: 695d 29be a9b3 08be 4605 debd caea adbd
000001f0: d08c 483d 90f8 04be fb92 2a3e a88d 7a3b
00000200: b542 423e 8a47 393e 54af df3d 4a09 d73b
00000210: 0a4a 0b3e c650 bbbd 373b 863d 9b92 993d
00000220: 6628 bcbd 9781 ae3d e36f 58bd da92 0e3e
00000230: 1d22 f3bd 1ce5 ba3d ebdd 383e 23eb cfbd
00000240: 830f 48bd 240d ec3c a184 143e 61c7 c03d
00000250: 40a8 e0bd d517 323e 1256 e4bd 20ef 5f3d
00000260: 3719 ef3c e789 033d 9b16 253e 1309 8b3d
00000270: 0d15 2d3e bfe9 f5bc 1e9b 1abe ed61 413e
00000280: d02c b2bd 9949 9d3d 5d44 ad3d 4c06 e4bd
00000290: 1554 1c3e 115b e33d 3c13 cebd 8734 6b3d
000002a0: 9a59 2cbe f8a4 583d aef6 8dbd a406 093e
000002b0: 6d15 bfbd 79ed f83b ff5d 07bd c473 273c
000002c0: 2b44 243e d5cf 043e 80f7 35bd d79d 793d
000002d0: d9de 10be 57d4 273e 40ab 23be 4a47 c13d
000002e0: ac87 76bc e280 23be bae6 683d b713 26be
000002f0: 203a 30be 654d 0abe 435e 1cbe c5df ecbd
00000300: 2a26 b2bd c28d 163e e3c7 2abe 9f95 32bd
00000310: 6b5d b6bd b92e fbbc 9ca8 2c3e be90 d73d
00000320: fbf7 59bd fdde 1bbe ecd6 1bbe dfac 1f3e
00000330: b527 8b3d b47e 09be 6d95 213d 3376 a73d
00000340: 59d4 cd3c 3574 11be 1470 09be 26d1 34bd
00000350: 9738 043e 58ca edbd ccaf afbd ad34 47bc
00000360: c070 a63d 2089 20be 7163 d4bd 0f76 fabd
00000370: 563b 9f3d e454 eabd 51e1 0fbe ebd5 203e
00000380: f67a 193d d99f ab3b 2c30 303d 76eb 163e
00000390: f89d edbd eec8 07be 14aa b93c f8f6 19be
000003a0: 5ef0 4a3e 4fdf ecbd 4396 303e 5135 e33c
000003b0: a693 763c 1ea0 c03c 7fc3 d6bd bf98 183e
000003c0: fda5 393d 83bf 15be 86cc 353c da03 5b3d
000003d0: 4cf1 f33c fc20 8f3c a57c d53b 8e35 5b3d
000003e0: 4598 09be d7bc 143e c93a 843d 2b3b 113d
000003f0: 64b3 e63d 29c4 23be 4d79 6bbd 5121 923d
-0.18532735 0.09483307 0.06379157 0.161142 0.14341015 0.0065465933 -0.037803225 -0.145366
0.07200912 0.06513874 -0.09524492 -0.15297775 0.040006295 0.1329023 -0.019826498 -0.13154119
0.021183591 0.059969153 0.129256 -0.07644594 0.06558931 0.06867652 0.024892993 0.04577714
0.1818193 0.045145515 0.05248647 0.009684451 -0.1437167 0.027588239 0.14242934 -0.1074958
-0.16153082 0.07590879 -0.01786358 -0.11338564 -0.012688756 0.12585309 0.15019646 0.106630504
-0.022090124 -0.10505227 -0.098773815 -0.025419826 -0.0184233 0.005815153 0.10922283 0.00899788
-0.17277378 0.036463004 0.021070106 -0.07555547 -0.16748539 0.03552273 0.14880134 -0.13545066
-0.09359307 -0.09292827 -0.0799929 -0.033472218 0.16475043 0.13329016 0.12673332 0.08907347
-0.06286154 0.13360497 -0.07385133 -0.12910296 0.07642277 -0.0874196 0.12217014 -0.104961686
0.072763264 0.17250532 -0.13627517 -0.10627583 0.11999722 0.12480912 0.021244561 0.17304967
-0.08346334 -0.007670031 -0.16327545 -0.05392552 -0.028089272 -0.15851669 -0.10019722 0.15750796
-0.17518051 0.088539846 -0.057799026 -0.047798086 -0.083336286 0.07566215 -0.111402445 0.10309884
0.05709018 0.081622384 -0.02437978 0.14143962 0.14728373 -0.08745178 0.069615655 -0.036888164
0.06895702 0.024257429 0.13569888 0.13793121 0.1717055 -0.029067902 -0.11319859 -0.07582911
-0.14521632 0.044847913 -0.0044435 0.10566219 0.06680307 -0.03988721 0.17647775 0.13675405
-0.1653954 -0.13349785 -0.108408496 -0.08492048 0.048962414 -0.12985444 0.16657631 0.0038231406
0.18970759 0.18093696 0.10922113 0.0065623866 0.13602462 -0.09146266 0.06554263 0.07498666
-0.09187393 0.08520811 -0.05284108 0.13923207 -0.11871741 0.091257304 0.18053405 -0.10152271
-0.048842918 0.02881486 0.14503719 0.094130285 -0.10969591 0.17391904 -0.11149229 0.054671407
0.029186828 0.032113936 0.16121905 0.0678884 0.16902561 -0.030018685 -0.15098235 0.18885012
-0.086999536 0.07680053 0.08460305 -0.111340135 0.1526645 0.11101354 -0.100622624 0.05742314
-0.16831055 0.0528917 -0.06931816 0.1338144 -0.093302585 0.0075966683 -0.033048626 0.010220472
0.16041629 0.12969907 -0.044425488 0.060941543 -0.1414751 0.16389595 -0.15983295 0.094374254
-0.015046995 -0.15967134 0.056860663 -0.16218458 -0.17209673 -0.13506086 -0.15270333 -0.11566118
-0.086986855 0.14702514 -0.16677813 -0.04359972 -0.08904537 -0.030661928 0.16861194 0.10525654
-0.05321501 -0.15221782 -0.15218705 0.15593289 0.06794683 -0.1342724 0.039449144 0.081768416
0.02512567 -0.14204486 -0.1342166 -0.044144772 0.12912212 -0.1161086 -0.085784525 -0.012158555
0.08126974 -0.15677309 -0.103705294 -0.12229549 0.07774989 -0.11441973 -0.14050795 0.15706603
0.03747078 0.005237561 0.04301469 0.14738259 -0.11602396 -0.13260242 0.022664107 -0.15035617
0.19818255 -0.1156603 0.1724482 0.027735384 0.015049851 0.02351385 -0.10486507 0.14902018
0.045324314 -0.14623837 0.0110961255 0.05347047 0.029778145 0.017471783 0.006515103 0.05351787
-0.13436992 0.14525162 0.06456525 0.035456818 0.11264685 -0.15992798 -0.05748873 0.07135261

lstm1_2.0.bias f4 [32]
00000000: 10ec 083e 3780 973c 2fac c7bd cc25 23be
00000010: cec3 0a3c fa9f 933d faf8 46bd 21bf e93d
00000020: 9191 243e 6b46 b43c c5eb 30be 9a63 00bd
00000030: 0877 20bd cc36 aebd f7b8 8f3d 3ec3 2d3e
00000040: 33c8 81bd ef69 183e 119a 11bd 3339 633d
00000050: 1627 a5bd da16 07be 8b7d 96bd b349 b0bd
00000060: 400a c23c 3213 49be 3763 1dbe b2f0 92bd
00000070: e1ee e13b f790 5f3d 8736 2abd 7179 81bd
0.133713 0.018493755 -0.09749638 -0.15932387 0.008469535 0.072082475 -0.048577286 0.11413408
0.16071154 0.022006234 -0.17277439 -0.031344987 -0.039176017 -0.085065454 0.07017701 0.1696901
-0.06337013 0.1488416 -0.03554732 0.05547447 -0.08064096 -0.13192311 -0.07348164 -0.08607807
0.023686528 -0.19636229 -0.15369879 -0.07174815 0.0068949317 0.05458161 -0.041555908 -0.06321991
